saved_models_2D/VAE_patch_folds_thpix22/CVAE2D_32_0.5_fold_3.pth (torch, 45494 bytes, 49 tensors)

conv1.weight f4 [3, 1, 5, 5]
000000 e6 dc 08 3f fe 51 da 3d 34 0c 22 3f 95 77 32 3e
       0.53462064 0.1066017 0.6329987 0.1742843
000010 76 04 23 3f 74 49 82 be 1e 75 92 3d 72 ff 1f 3c
       0.6367868 -0.25446665 0.071512446 0.009765493
000020 4f aa 65 be 69 74 a3 3d 09 ca ec 3e ff 07 d4 bd
       -0.22428249 0.07981188 0.4624789 -0.10353088
000030 54 77 4b 3e 3e d9 07 be f9 1e 25 3d f3 cb 8e be
       0.19869739 -0.13266465 0.04031274 -0.27889976
000040 92 fa 78 3d a7 cd de 3c 00 2f 96 be ff bd a2 bc
       0.060785837 0.027197672 -0.29332733 -0.019865988
000050 a9 8c 92 bb 5a 33 a8 be c5 3d f7 bd 33 1d 06 be
       -0.0044723344 -0.32851678 -0.120723285 -0.13097076
000060 4d dc df bd 7b 71 3c 3f a2 d0 49 3e 22 3d 4f 3e
       -0.10930691 0.7361066 0.19708493 0.20238164
000070 f6 25 c0 bd 44 cf 60 be fe ed c7 3e 3d 5e b8 3e
       -0.093822405 -0.21954066 0.3904876 0.36009398
000080 77 7c 92 bd 24 b9 7a bd 2b 05 fe be 85 3e f6 3e
       -0.07152646 -0.06121172 -0.49613318 0.48094574
000090 a8 bf 22 3e f2 ea b9 bd c1 90 79 be 48 09 a8 be
       0.15893424 -0.090780154 -0.24371625 -0.3281958
0000a0 18 34 86 bc 18 08 92 3e 32 f3 06 3d a0 85 96 3b
       -0.016382262 0.285218 0.032946773 0.004593566
0000b0 03 b6 a8 3c 4e 87 e3 3b 50 02 fc 3c e6 f3 03 be
       0.020594602 0.00694362 0.030762821 -0.12886009
0000c0 4e bf da be a6 cc 14 be 03 88 67 be 07 d8 af bd
       -0.4272408 -0.14531192 -0.22610478 -0.08586126
0000d0 8e 75 1c be 6a 8d f1 bd 2d d5 87 3e e5 aa ed bd
       -0.15279219 -0.11794551 0.26529828 -0.11604861
0000e0 c5 af 21 be 6e bf c7 bd 7a b5 b1 3c b3 8a 5d 3e
       -0.15789707 -0.09753309 0.02169298 0.21634941
0000f0 b8 87 a5 be 4f c3 08 be 19 0b 31 bd 35 50 95 3d
       -0.32330108 -0.13355754 -0.043223474 0.07290689
000100 13 7f a6 3d 37 e8 a2 3e 49 40 4b 3c 92 2d 61 3e
       0.08129706 0.3181779 0.0124054635 0.2199004
000110 7b 43 43 3e 26 2d 9d 3e 5a 56 fb 3e af e2 1f 3f
       0.1906871 0.30698508 0.4908932 0.62455267
000120 be 7c 0a 3f 67 43 26 3f 8c 1d 05 3f
       0.5409659 0.649466 0.5199821

conv1.bias f4 [3]
000000 49 86 fe 3c fa 4c 07 3e c9 62 81 be
       0.031069892 0.13212958 -0.2527068

conv2.weight f4 [4, 3, 3, 3]
000000 b3 6d fd be 02 06 7c bd c1 d4 2c 3e fe 38 78 3e
       -0.49497756 -0.061529167 0.16878034 0.24240491
000010 4e e4 91 3e 34 70 96 bd 73 84 0c be 3c 07 c3 3d
       0.28494495 -0.0734562 -0.137224 0.09522864
000020 c2 a8 13 3e 65 64 f1 3d bb 75 77 bd 43 35 61 3d
       0.14419845 0.11786727 -0.06041501 0.054982435
000030 f5 97 58 be 84 34 a0 bc 18 4e 21 3e 48 ef 27 3e
       -0.21151717 -0.019556291 0.15752447 0.16399872
000040 94 2d 80 be f9 a1 16 bd 65 b3 80 bd 09 1d 38 3e
       -0.25034773 -0.036775563 -0.06284217 0.17979826
000050 23 e3 21 3f 39 a7 87 3e 45 a1 82 3e c4 d1 83 3e
       0.6323721 0.26494768 0.25513664 0.25745976
000060 94 53 83 3d ff 0e 96 bc ae e8 86 3f e8 ea 36 be
       0.06412426 -0.018317698 1.0539758 -0.17863047
000070 12 b2 ae be c2 88 e9 be b5 93 95 bd fc 91 ca be
       -0.34120232 -0.4561215 -0.073035635 -0.39564502
000080 47 cd d1 bd 33 06 62 3e 4b 45 91 bd ed 96 42 be
       -0.10244232 0.22072677 -0.07093295 -0.19002886
000090 41 5c 35 3e 06 de 08 3d 73 15 7f 3e 03 35 a1 bd
       0.17710973 0.033414863 0.24910526 -0.07871439
0000a0 5b 81 21 bd e8 3a 6f 3d 45 6e e0 3e 3a b8 18 3e
       -0.039430004 0.058405787 0.4383413 0.14914027
0000b0 7c 0d 14 be ed b5 2c 3e 03 50 ad be d4 8d 2a be
       -0.14458269 0.16866274 -0.33850107 -0.16655666
0000c0 9a 59 38 3e 00 58 91 be f4 f4 71 3c 0a b1 54 3f
       0.1800293 -0.2838745 0.014767874 0.8308264
0000d0 4d 86 29 3d 56 76 90 3e 0f f0 48 3e 28 5c 87 3e
       0.041387845 0.28215283 0.19622825 0.26437497
0000e0 71 85 c4 3e a3 8f ba bd fd ac 02 3f 2a 1a bf 3e
       0.38383058 -0.09109428 0.5104521 0.3732465
0000f0 7a a1 7a bc 1a 03 ed bc 58 e0 3e 3e fd 01 5e be
       -0.015297288 -0.028932143 0.18640268 -0.21680446
000100 97 d0 de 3e 22 c5 b9 3d 9f d8 78 be bc c3 f8 bd
       0.43518516 0.09070803 -0.24301384 -0.12146708
000110 af 20 20 be c9 cd f3 bd b6 ae 3f 3e a1 0d 08 3e
       -0.15637468 -0.11904485 0.1871899 0.13286449
000120 9c 05 cf 3d 4a 12 a6 3e c4 ff 1a 3f a4 fc e2 bd
       0.10108492 0.32435828 0.6054652 -0.110833436
000130 c8 24 f3 bd a7 66 bc 3e f4 a9 0d be 8d 9d 15 3d
       -0.1187225 0.36797068 -0.13834363 0.036527205
000140 aa da d0 3e 15 e5 e2 3e 03 c3 03 3f 34 bf c5 3e
       0.40791827 0.443154 0.5146944 0.3862244
000150 02 4d eb 3e 6e 32 c0 3e ac 4b d5 3e 93 cc 87 3d
       0.4595719 0.37538475 0.41659296 0.06630816
000160 72 04 59 3e 0c d4 36 3e f6 23 2d 3f bc cd 22 3e
       0.21193102 0.17854327 0.67633 0.15898794
000170 15 ce 46 3e e9 14 8e 3d 6f b2 ef bd 42 79 45 bd
       0.19414552 0.06937582 -0.117039554 -0.048211344
000180 4b 11 54 3d 0a ad d6 3d 8e d0 52 3e 71 5b d6 3e
       0.051774304 0.10482223 0.2058737 0.4186664
000190 9e 31 a7 3e 13 58 e7 3d 65 53 96 3e 61 0c c3 bd
       0.32655042 0.11296096 0.293605 -0.095238455
0001a0 39 db e9 bc 51 34 8a bd 2e 09 94 3d 44 90 c7 be
       -0.028546916 -0.0674826 0.072283134 -0.38977253

conv2.bias f4 [4]
000000 67 6e 6e bc 26 5b ba 3d ff 28 e5 3d 01 5b ff 3c
       -0.014552689 0.090994164 0.1118946 0.031171324

conv3.weight f4 [12, 4, 3, 3]
000000 b4 76 8a 3d 44 12 b4 be 8a 54 19 3f 85 d7 4e bd
       0.06760922 -0.35170186 0.5989462 -0.050498504
000010 bf a7 0c be 1b 43 cc 3e fa 66 27 be b4 fd 7d 3d
       -0.13735865 0.39894947 -0.16347876 0.06200953
000020 28 64 ef 3d e1 1d 29 3d 93 49 40 be 27 5c 04 bf
       0.11689025 0.04128826 -0.18778066 -0.51703113
000030 b1 07 bf be 83 29 2e 3d 5b 7d e5 be bb bc fb be
       -0.37310556 0.042520057 -0.448222 -0.49167427
000040 ad c0 4f bd 11 55 a3 be 92 75 ac 3d f5 4e 3e bd
       -0.05072086 -0.31900838 0.08420862 -0.046462018
000050 c1 b4 1f 3e 4f 0e a8 3e 76 6c ea bd e9 0d af 3c
       0.15596296 0.32823417 -0.114464685 0.021368938
000060 5c 11 b9 3d cf 31 51 3e 4b fc 18 3e e2 f1 3f 3e
       0.09036514 0.20429157 0.14939992 0.18744615
000070 0d 13 c1 bd c0 11 de 3e 98 e8 93 bd a6 30 ac bd
       -0.09427462 0.43372917 -0.07222098 -0.084077165
000080 d4 ad 80 bd b5 43 88 3d 39 8b 78 be c6 c5 17 3c
       -0.06283155 0.06653539 -0.24271859 0.009263461
000090 57 e2 89 bc 88 ec 8a be 46 c5 49 3d 67 9b 3f be
       -0.01683156 -0.27133584 0.0492604 -0.18711625
0000a0 0e ff 72 3c ec 3f e9 3d dd fd 3b bc 7b ff 07 3f
       0.014831318 0.11389145 -0.0114741 0.5312421
0000b0 c8 78 44 3f 26 c6 8e 3d 64 f5 d4 bd 56 36 71 3d
       0.767468 0.069713876 -0.10398367 0.05888971
0000c0 a9 85 68 3d 09 a8 01 3e 01 f8 dd bd af 9f 63 3e
       0.056768093 0.12661757 -0.108383186 0.22228883
0000d0 18 ac 22 3e 67 ab 56 3e 88 e6 1c bd 49 df 83 b8
       0.15885961 0.20963822 -0.03830579 -6.288157e-05
0000e0 0f 6e 2e 3f 2f bc 0b 3f 7d e1 96 3e be 5c 81 3d
       0.68136686 0.5458402 0.2946891 0.06316517
0000f0 bf ec 4b bc 0a 02 a4 3e 96 13 c3 3e 3f 1a 16 3e
       -0.012446581 0.32032806 0.3810088 0.1465845
000100 70 64 31 3e 97 f3 68 3e 81 87 ac bd e8 a4 89 be
       0.1732347 0.22749172 -0.08424283 -0.26883626
000110 8f 27 65 3e df ac a6 3d e9 2d 8f 3e b5 7c ab be
       0.22378372 0.08138441 0.27964714 -0.3349358
000120 fd d0 63 bc b7 30 03 3d 91 4c ae bd 75 45 bd 3d
       -0.013904807 0.03202888 -0.08510698 0.092417635
000130 22 2b 88 be 28 b4 c4 bd 3a 92 35 bd 73 3e 56 3e
       -0.26595408 -0.096046746 -0.044328906 0.2092226
000140 df c9 13 bf f3 c9 89 3e d4 d6 94 3d 61 c1 97 be
       -0.57729906 0.26911888 0.07267538 -0.29639724
000150 85 42 96 3e 80 45 07 be c3 0c c5 bc 96 54 d4 3d
       0.29347625 -0.13210106 -0.024053937 0.10367696
000160 8d 8e 5d bd 0d 2f af be de dd 45 bd c5 cc dd 3d
       -0.054091025 -0.34215584 -0.048307292 0.10830072
000170 7f c3 08 bf 46 1a d2 3e e7 bf bd bb c7 ba d5 bc
       -0.53423303 0.4103567 -0.005790699 -0.026090039
000180 4b c6 b4 3e b4 f6 34 3e b9 a0 cb 3d 0c 1d 91 3e
       0.35307536 0.17672235 0.09942765 0.28342474
000190 b5 b1 0e 3e 20 e0 76 bd 0e 57 4a 3e ba d1 81 bd
       0.13934977 -0.060272336 0.19759771 -0.0633883
0001a0 1d 76 92 be d6 df 7c 3e 5f 2d 4e be 84 68 d1 be
       -0.28605738 0.24694762 -0.20134495 -0.40900052
0001b0 14 98 8f be 2d 89 72 bc d4 f0 ff bd f8 a0 84 be
       -0.28045714 -0.014803213 -0.12497106 -0.2590406
0001c0 4e 90 af bd 2f 38 00 bd 2d f0 cc bd a3 72 09 be
       -0.08572446 -0.03130358 -0.100067474 -0.13422637
0001d0 14 50 04 bf b9 e1 d8 3c 0e fd 63 3e 3a 52 a4 3d
       -0.5168469 0.02647482 0.22264501 0.08023496
0001e0 24 3f 9f bd cb 6f f9 3d 4f f7 9c 3d df 30 07 bf
       -0.07775715 0.12179526 0.07664358 -0.52808946
0001f0 d1 b0 12 3d 28 ab 77 3e 52 4d 54 3e 6b cf 20 3e
       0.035813157 0.24186385 0.2073262 0.15704124
000200 e3 6f 13 3f 34 95 6d 3e e4 6c a4 be 1d 7e 2c bc
       0.575926 0.23201448 -0.32114327 -0.010528115
000210 c7 7d 9f 3e 6c c2 30 3e c4 21 8a 3c 3d bc 81 be
       0.31150648 0.17261666 0.016861804 -0.25338927
000220 d5 94 86 3d ec f4 85 be 9e 80 13 be 2b a1 c0 3d
       0.06571356 -0.26163423 -0.14404532 0.0940574
000230 70 cd 39 3d 61 4e 81 be 6c 18 73 be 9d 15 64 3e
       0.045361936 -0.2525511 -0.23739785 0.2227387
000240 db 0e 16 bf a2 1d 8b 3e 30 db 7f be dd a8 5c 3e
       -0.5861642 0.27171046 -0.24985957 0.21548791
000250 32 1b 48 be 06 2c b7 bd ca 5e 3e 3e 39 a6 b8 be
       -0.19541624 -0.08943944 0.18590847 -0.36064318
000260 70 ee a0 be e4 17 71 bd c2 72 05 be ca 81 31 be
       -0.31431913 -0.058860675 -0.13032058 -0.17334667
000270 77 c7 24 3e b8 28 00 be 69 b2 c6 3c e3 88 a6 3d
       0.16091715 -0.12515533 0.024254994 0.08131578
000280 4f 10 14 be d7 61 f4 be 78 d7 08 bf b4 f1 12 be
       -0.14459346 -0.47730896 -0.5345378 -0.14350015
000290 4a dc b3 bd ce 54 35 3e fc 89 08 be 4c 8d 44 3e
       -0.08782251 0.17708132 -0.13333887 0.19194525
0002a0 83 4a 50 3e c5 f9 b7 3e 3e e9 aa 3e b2 d0 55 3e
       0.20340924 0.35932747 0.33381075 0.20880392
0002b0 19 3b f6 3d 07 36 09 3e a0 1a 2f be 87 1f ab 3d
       0.12022991 0.13399516 -0.171 0.08355623
0002c0 67 e7 5a 3d e9 f2 b1 be d5 54 92 be bb 14 98 3d
       0.05344334 -0.34755638 -0.28580347 0.07425829
0002d0 31 5e 92 bb d2 71 64 3c 2a 6d ee be 5f 65 a9 bd
       -0.004466795 0.0139431525 -0.4656766 -0.08271288
0002e0 f7 24 6f bc b3 50 33 3e 43 bf ea 3c bc 4c 2d bb
       -0.014596215 0.17511253 0.028655654 -0.0026443442
0002f0 a4 92 21 3e c7 99 bd 3e b3 c7 1d be f2 24 69 3e
       0.15778595 0.37031385 -0.1540821 0.22768
000300 ce a1 3c 3e 11 37 7f be 9b b5 dc 3d a4 5d 0a 3f
       0.18421099 -0.2492335 0.10776826 0.54049134
000310 aa de e0 3c 95 4a 72 3e 74 39 8b bd 3f 21 e4 3d
       0.027449924 0.23661263 -0.06798068 0.11139154
000320 a3 09 d1 be 1f 4e 4a 3e f2 0f 72 3e fe 44 ae 3d
       -0.40827665 0.19756363 0.23638895 0.08509253
000330 8c d5 c0 3d 1f ca a8 be 91 5f 5e 3d 3b bf 19 bf
       0.09415731 -0.32966706 0.054290358 -0.6005742
000340 b8 55 5d 3d 3b 4a 67 bc 77 2d 81 be 50 e7 8a 3e
       0.054036826 -0.014116819 -0.2523 0.27129602
000350 08 74 ae be ed 4f 94 3e e5 bf ae 3b c6 c4 91 be
       -0.340729 0.2896723 0.005332934 -0.2847044
000360 77 22 e6 3d 0a 16 05 3f 01 18 16 3f ca 50 6b 3e
       0.112370424 0.51986754 0.5863038 0.22980037
000370 03 db ba bd 2d 57 9e 3d 31 c3 93 bc fe 44 91 bd
       -0.091238044 0.07731471 -0.01803741 -0.07093237
000380 5c 86 74 be f1 31 90 bd 15 6f 90 bd fa 15 48 be
       -0.23879379 -0.070407756 -0.07052437 -0.19539633
000390 eb c2 b3 bc d5 98 43 3e 93 af af ba 9e ab e2 bd
       -0.02194353 0.1910127 -0.0013403766 -0.1106789
0003a0 32 21 c3 bd 17 d8 fe be e2 8a 17 bf d4 22 9e be
       -0.09527816 -0.49774238 -0.59196293 -0.30885947
0003b0 70 47 e1 3e 8a 3e 07 bf c2 d2 54 be e7 68 08 be
       0.43999815 -0.528298 -0.20783523 -0.13321267
0003c0 f6 8a 67 be dd a3 23 be 5e 59 88 be 48 7d 10 3e
       -0.22611603 -0.15980478 -0.26630682 0.14110291
0003d0 ae da 75 3d cf 66 01 3f 80 91 ad 3e d9 cd 49 3d
       0.060023002 0.505475 0.3390007 0.049268577
0003e0 ec fb 75 3e 33 f0 27 bd 84 12 82 3e 1f df 39 3e
       0.24021882 -0.041000556 0.2540475 0.1815152
0003f0 8d f6 aa be 21 86 ab be b8 4f 49 bd 92 1c c4 be
       -0.33391228 -0.3350077 -0.04914829 -0.38303047

conv3.bias f4 [12]
000000 f9 c1 5c 3d 3f 03 83 bd cc 74 a6 3d 90 cb b3 bd
       0.053895924 -0.063971035 0.08127746 -0.08779061
000010 7e 43 7e bd 7e 94 ae bd 68 9b 1b 3e 26 89 10 be
       -0.062076084 -0.085244164 0.15196002 -0.14114818
000020 ec fa 4b bd e3 76 e2 3d c9 e0 90 3d 05 3e 11 be
       -0.049799845 0.11057832 0.07074124 -0.14183815

conv4.weight f4 [16, 12, 3, 3]
000000 04 3d 0a bd 16 3e 0b be 16 be a8 bd 34 78 46 be
       -0.033749595 -0.13597903 -0.08239381 -0.19381791
000010 a8 d0 64 bd de 2d dd bd dc 69 3e bc 73 dd 14 3e
       -0.055863053 -0.10799764 -0.0116219185 0.14537601
000020 5e a1 d5 be 41 bc fd bc e2 27 c4 3c 35 b0 60 3d
       -0.41724676 -0.030973556 0.023944799 0.054855544
000030 7d 9e a2 3c 3a 4f d1 bc f1 28 c2 bd 73 6b 65 3d
       0.019850964 -0.025550473 -0.09480465 0.056010675
000040 1f 41 65 3d 69 8b 80 3d 3f 55 06 be 90 a3 35 bd
       0.055970307 0.062765904 -0.13118456 -0.04434544
000050 7b 20 80 bd e5 01 43 be b1 21 06 be 60 ef 96 3e
       -0.06256195 -0.19043691 -0.1309879 0.29479504
000060 49 eb e5 bd c8 47 1d be 56 7f 96 3e 87 ac 30 be
       -0.11226518 -0.15359414 0.29394025 -0.17253314
000070 d4 bd 51 be e7 dd e4 3d 63 44 b2 bd 17 a0 ce be
       -0.2048257 0.11175137 -0.0870445 -0.40356514
000080 24 2e 01 3f b8 be db 3b 59 14 95 be 1d 93 6c 3d
       0.5046103 0.006706085 -0.29117087 0.057757486
000090 4c f4 45 be 13 8b aa be 17 87 c3 3e 0c a6 4b 3e
       -0.19331473 -0.3330923 0.38189003 0.1988756
0000a0 39 63 b3 be 28 5f 35 be 90 d9 8d 3d 6e 00 07 be
       -0.35036638 -0.1771208 0.069262624 -0.13183758
0000b0 e5 a5 3d bc 9d 6e 94 bd 95 94 47 be 50 0e 23 3d
       -0.011575197 -0.0724766 -0.19490273 0.03980857
0000c0 cb ce dc 3e c3 32 db be 1f 30 a0 3d c3 ae 05 3e
       0.4312652 -0.42812166 0.07821678 0.13054948
0000d0 d8 ed ad bd bb b1 ef 3e e0 89 2f 3e 69 40 dc 3d
       -0.08492631 0.46815285 0.17142439 0.10754473
0000e0 2f 4d 3c 3e 93 56 ad 3d 0f 28 71 3c b0 f7 ff 3b
       0.18388818 0.08463778 0.014719023 0.007811509
0000f0 de c8 10 bd 05 53 5f be 38 7d 96 3e 2c b6 1a be
       -0.035347812 -0.21809013 0.2939241 -0.15108556
000100 0b ed b8 bc 80 bd be 3b 00 f3 ab bd 79 54 e6 bc
       -0.022573968 0.00582093 -0.08395958 -0.028116452
000110 c0 3a 01 3e 58 8f 8b bd 2d e4 4e 3e ed cc 86 3e
       0.12620068 -0.0681445 0.2020423 0.2632822
000120 4a b1 6f be ae b5 7b 3c 4d 2b 85 3d 10 6a 2f 3e
       -0.23407474 0.01536314 0.065023996 0.17130303
000130 0e 24 d3 bc 32 38 6a bd 1f c0 73 3e 2d b8 a6 3e
       -0.025774028 -0.0571825 0.23803757 0.3256239
000140 90 26 5e be 52 01 63 3d d2 87 4b 3e 42 b3 91 be
       -0.21694398 0.05542118 0.1987603 -0.28457075
000150 22 a8 27 3e 9c 8d 7f be d4 8f 07 3f b1 25 93 3d
       0.16372731 -0.24956363 0.5295384 0.071849234
000160 98 1e aa 3d 68 75 b6 3d 37 fd ac 3d ac ad 67 be
       0.083066165 0.08909112 0.084467344 -0.22624844
000170 2c 46 42 bb 68 0a 43 bb 2a 71 11 bb f0 00 04 3d
       -0.0029643876 -0.0029760841 -0.0022192695 0.032227457
000180 10 21 13 be 1d b9 20 3d 47 b5 47 3d c3 42 ec bd
       -0.14368081 0.039239038 0.048756864 -0.11536171
000190 1d d5 25 bd 32 6a 36 be 1e 92 87 bd f0 e2 bf 3c
       -0.040486444 -0.17813948 -0.066196665 0.023423642
0001a0 f5 03 97 be 1a 9f 37 3e b9 73 0e bc 99 c6 1d bf
       -0.29495206 0.17931786 -0.008694583 -0.6163116
0001b0 97 96 5c be b8 f7 cb bc ab 20 63 bd 0d 38 c4 3c
       -0.2154182 -0.024898395 -0.055451076 0.023952508
0001c0 de b0 84 be 49 6e 88 3d 35 d3 92 bd 8b e2 a2 bd
       -0.2591619 0.0666166 -0.07169191 -0.07953366
0001d0 5f ac 86 be 30 54 6b be f2 20 89 3c f9 00 ba 3d
       -0.26303384 -0.22981334 0.016739342 0.09082217
0001e0 95 bc ca bd f3 13 1e bd c2 8a 53 3e 2a 08 49 3e
       -0.098992504 -0.038593244 0.206584 0.1963202
0001f0 b7 9f b0 3d 2d 9d 4a bc 4d f5 11 bd 1a 2f 19 3d
       0.08624213 -0.012366575 -0.035634328 0.037398435
000200 ed 5d 33 bb 5d 21 08 3c 3f bf 1d be cd 45 1f 3c
       -0.0027369217 0.008308736 -0.15404986 0.009721232
000210 5d 22 42 be f5 29 8a be 31 be 56 bc 30 91 73 3e
       -0.18958421 -0.26985136 -0.013106869 0.23785853
000220 e0 92 95 3e b5 2f 3f 3d e1 db a6 3e dc c7 da 3e
       0.2921362 0.046676356 0.3258963 0.42730606
000230 a9 33 3a be f7 56 d8 be 64 9b 97 be ff be ca bd
       -0.1818377 -0.4225385 -0.2961074 -0.09899711
000240 c2 0d 82 be e7 24 ba 3d ac a4 15 be 63 e9 be bd
       -0.2540112 0.0908907 -0.14613599 -0.09321859
000250 08 87 d4 bd 63 b4 14 3e 15 81 59 3d 40 10 5a bd
       -0.10377318 0.14521937 0.053101618 -0.053238153
000260 66 c7 86 3e 62 9f eb bc 74 ac 0b 3d e8 74 b5 be
       0.26324004 -0.028762523 0.03410001 -0.35440755
000270 07 59 41 bd c9 20 f0 3c a6 c6 1e bd ee 1a 9a bd
       -0.047204044 0.029312508 -0.038763665 -0.07524668
000280 e4 5b 5a bd eb fa ed 3d 10 c6 ac be 3a 58 3f 3e
       -0.05331029 0.116201244 -0.3374486 0.18686
000290 89 9b f3 3c bd 68 db bd f4 98 a4 3d fe e6 64 bd
       0.02973725 -0.107133366 0.08036986 -0.055884354
0002a0 c6 58 c1 3e 78 4b 90 3c 0c 5f 58 3e ba 9d 0d 3f
       0.3776304 0.017614111 0.21130008 0.55318797
0002b0 9b a1 68 3e 60 21 93 3e a3 b9 6e 3e 69 05 43 3e
       0.22717898 0.287364 0.23313002 0.19045033
0002c0 e9 00 8b 3e 9b c1 8c bd f2 4c 1e be 67 89 4c 3e
       0.27149132 -0.06872865 -0.1545904 0.1997429
0002d0 92 3c 09 be b9 93 55 bc ee 01 02 bf 79 28 c0 be
       -0.13402012 -0.013035708 -0.50784194 -0.37530878
0002e0 51 99 34 3e 6a 4d 2c be df c4 27 be 91 7e 35 be
       0.1763661 -0.16826406 -0.16383694 -0.17724063
0002f0 c9 5d 32 3d e8 2e d4 3c 8d 56 ef bd 43 9c 22 be
       0.04354647 0.025901273 -0.1168643 -0.15879922
000300 73 92 6b 3c 80 20 f0 bd 8b 64 99 be 38 38 02 be
       0.014378178 -0.11724949 -0.2995952 -0.12716758
000310 f2 81 62 be 36 fb 14 3e 3e e7 85 3e 25 c3 b0 bd
       -0.22119883 0.14548954 0.26152986 -0.08630971
000320 58 dc d6 3c 0b 99 af 3d eb 49 63 bd 63 31 72 bd
       0.026228115 0.085741125 -0.055490416 -0.05912913
000330 1c 06 ae bd 19 27 22 bd 6b 5e b2 bd a2 77 03 3c
       -0.08497259 -0.039588068 -0.08709415 0.008024128
000340 c0 bf 58 be 46 cd 30 3d 21 52 ae bc 5d 06 87 bd
       -0.21166897 0.043164514 -0.021279396 -0.065930106
000350 85 3d 9c 3d 5e d5 ed 3d 6f 45 00 3e 5f 15 07 be
       0.076289214 0.11612962 0.12526487 -0.13191746
000360 0e 1d 88 3c 4c ce 7e 3d 4e 28 12 3e 22 70 e6 bd
       0.016615417 0.06220846 0.14273188 -0.112518564
000370 59 1d 84 3c 05 dd 81 be 30 f9 24 be 77 e9 a9 3b
       0.016127275 -0.25363937 -0.16110682 0.005185302
000380 b6 f8 25 be 9e 35 8d 3d ad b9 c9 bd 78 ab 06 be
       -0.16208157 0.06894992 -0.09849868 -0.13151348
000390 c5 03 8a 3c 63 4c 8e be 85 9b 20 3e 0c 98 8b 3e
       0.0168475 -0.27792653 0.15684326 0.2726444
0003a0 a9 48 99 bb 52 b2 c5 3e f8 69 0d bd 4b 8d 0a be
       -0.004677851 0.3861261 -0.034524888 -0.13530461
0003b0 69 6f af bd cc 44 50 be 2f 41 4d be 99 3e b6 3b
       -0.08566172 -0.20338744 -0.20044397 0.0055616614
0003c0 8f da 8b bd 95 43 b3 3d eb d7 c4 be 63 c8 d9 bd
       -0.06828796 0.087531246 -0.38445982 -0.10633924
0003d0 1f 83 1f be 8e 34 b7 3d 60 25 27 3d bb ac d6 3c
       -0.15577362 0.08945571 0.040807128 0.026205411
0003e0 7a 92 8a 3e 91 30 c9 be f6 80 7a 3e 62 e2 9c be
       0.27064878 -0.39294866 0.24463257 -0.30641466
0003f0 ce b9 6c bd 2a 5e 89 be e6 d4 01 bf 5c 5a bc bd
       -0.057794385 -0.26829654 -0.5071548 -0.09196922

conv4.bias f4 [16]
000000 2d 20 8a 3b 81 bb 0d bd 06 6e 30 3d cb c2 63 bd
       0.0042152614 -0.034602646 0.043073677 -0.05560569
000010 fd 3c 98 bc f5 5a 1a 3d 76 1f a0 b9 86 cd 21 b9
       -0.018583769 0.0376844 -0.00030541018 -0.0001543072
000020 8d 27 24 3d b4 d1 57 be 44 2d f1 bb 97 a6 5b be
       0.04007678 -0.21076089 -0.0073601324 -0.21450268
000030 84 73 99 bd dd 7e a2 bd 86 83 e3 bd 27 db 10 bd
       -0.07492736 -0.079343535 -0.111090705 -0.03536525

bn1.weight f4 [3]
000000 0b 4a 27 3f 1b 09 19 3f 90 b4 74 3f
       0.65347356 0.5977952 0.95588017

bn1.bias f4 [3]
000000 4f dd 31 3f 7d 1d 3e 3f d6 72 ce 3f
       0.69478315 0.74263746 1.6128795

bn1.running_mean f4 [3]
000000 ea 8b 8f 3e e8 9f 8a 3e 87 51 1f 3f
       0.28036433 0.27075124 0.62233776

bn1.running_var f4 [3]
000000 51 c4 c9 3e e2 bf 24 3f 2e 42 d5 3f
       0.3940759 0.6435529 1.6660821

bn2.weight f4 [4]
000000 39 98 27 3f 2a 6b 01 3f 26 b8 1b 3f c1 d9 6a 3f
       0.6546665 0.50554144 0.60827863 0.91738516

bn2.bias f4 [4]
000000 25 40 bc 3f 92 22 35 3f fc 88 71 3d 31 a0 c9 3f
       1.4707075 0.70755875 0.05896853 1.5752012

bn2.running_mean f4 [4]
000000 16 24 80 40 c6 25 4d 3f 92 4b 58 40 64 f9 67 40
       4.004405 0.8013576 3.3796124 3.6245966

bn2.running_var f4 [4]
000000 73 98 d7 40 a7 85 e4 3f 2e da 64 40 e3 7e c6 40
       6.7373595 1.7853287 3.5758166 6.202989

bn3.weight f4 [12]
000000 d0 cc 2c 3f e5 9f 35 3f e8 e4 29 3f bb 45 ae 3f
       0.6750002 0.70947105 0.6636491 1.361503
000010 98 26 66 3f 73 41 4e 3f 81 23 59 3f 49 6f 99 3f
       0.8990264 0.8056862 0.848198 1.1987087
000020 7b 23 56 3f 2d 00 7d 3f db 1c 33 3f 70 8d 21 3f
       0.8364789 0.98828393 0.69965905 0.6310644

bn3.bias f4 [12]
000000 58 86 ad 3e 98 b2 4e 3d 6d d9 d1 3e a0 47 37 bf
       0.3389156 0.05046329 0.40986195 -0.71593666
000010 57 39 67 bd 9d e1 37 bd 7a 17 9a 3c 82 d0 61 be
       -0.056451168 -0.044892896 0.018810023 -0.22052196
000020 d9 31 33 be fd d5 d4 bd 70 94 6a 3e 69 2b 06 3e
       -0.17499484 -0.103923775 0.22908187 0.13102497

bn3.running_mean f4 [12]
000000 e4 c2 7e be 52 3a 2d 40 10 7c 93 bf de f1 3a c0
       -0.24879032 2.7066846 -1.1522236 -2.9210124
000010 ac 2a 0e c0 90 88 59 bf 88 0e 55 40 23 47 94 c0
       -2.2213545 -0.84974 3.329012 -4.6336837
000020 64 36 7c 40 d4 c1 26 c0 12 a9 2c 40 de 4a d3 bf
       3.9408197 -2.6055803 2.6978192 -1.6507223

bn3.running_var f4 [12]
000000 62 6e bf 3f 38 4b 29 40 fc 57 e5 3e 12 19 14 3f
       1.4955561 2.645216 0.4479369 0.57850754
000010 75 8f 64 3f 70 52 bf 3f 31 11 13 40 db 6e a4 3f
       0.892814 1.4947033 2.2979243 1.284633
000020 3c 6e 28 40 6d 8d 8b 3f 8b 8d 49 3f 33 9a a2 3f
       2.6317282 1.0902535 0.787316 1.2703308

bn4.weight f4 [16]
000000 9d c6 fe 3e b9 6c 2f 3f d6 e7 12 3f 3a fa 35 3f
       0.49760905 0.6852527 0.57385004 0.7108494
000010 d4 66 09 3f 6a d5 01 3f 4e 29 61 3f 39 96 e7 3e
       0.5367253 0.5071627 0.8795365 0.45231798
000020 ec bc 4c 3f 48 7c dc 3e 58 d4 23 3f 2b 71 94 3e
       0.7997577 0.4306357 0.63995886 0.2899259
000030 3c ac 8e 3e 23 49 2b 3f 0b 9a 2a 3f 31 3e 8a 3e
       0.2786578 0.6690847 0.666413 0.27000573

bn4.bias f4 [16]
000000 64 ea 38 3f 42 02 29 3d 88 6d 2f 3e 9b e2 ee 3d
       0.7223265 0.04126192 0.17131627 0.11664315
000010 f8 ab 12 3e 11 97 6b 3e 94 54 1e 3e 4a 96 6d 3f
       0.14323413 0.23006846 0.15461951 0.9280745
000020 db 66 73 3d 85 91 38 3f 36 ed 11 3e 0d 2b 3a 3f
       0.059424262 0.72097045 0.14250645 0.7272194
000030 ac 71 8b 3f 2e ae 32 3e f8 be 7b 3d 15 a7 64 3f
       1.0894065 0.17449257 0.06146142 0.89317447

bn4.running_mean f4 [16]
000000 0f 19 c5 be a4 73 b3 be e3 7b 67 bf 19 73 99 be
       -0.3849568 -0.35049164 -0.9042341 -0.29970625
000010 77 85 e2 3d 12 2c 89 be cf 0f 4e 3f a7 6c a9 be
       0.11060613 -0.26791435 0.8049287 -0.33090708
000020 9a a8 ce 3e 65 ab 6e bf 44 2e 3c 3f 5b e3 07 bc
       0.40363008 -0.9323028 0.73508096 -0.008293952
000030 14 76 45 bf a8 0a 40 be 6c 6d d5 3e 29 5c d6 be
       -0.771333 -0.18754065 0.41685045 -0.41867188

bn4.running_var f4 [16]
000000 7f bd 4c 3f 42 bc a9 3f af 34 5b 3f d0 63 a8 3f
       0.7997665 1.3260577 0.85627264 1.315546
000010 9c ce b0 3f 28 d4 30 3f e5 94 03 3f c3 4f 25 3f
       1.3813052 0.69073725 0.5139907 0.6457483
000020 ca 6f 1b 3f 7f 2b 8f 3f 4d 1b 7d 3f 59 45 80 3e
       0.6071745 1.1185149 0.9886978 0.25052908
000030 51 34 bf 3e 55 8f 20 3f 19 14 98 3f 12 08 39 3f
       0.37344602 0.6271871 1.1881133 0.7227794

fc5.weight f4 [32, 16]
000000 be d1 02 bb fb d7 55 bb a3 95 1d 3b 2c 30 25 3a
       -0.0019961442 -0.0032629955 0.002404549 0.00063014287
000010 9c 9e 46 b9 53 14 c9 3a 9e d4 50 ba 23 5f 0b 3a
       -0.00018941838 0.001534114 -0.0007966253 0.00053166057
000020 c8 ed 26 3b 8e 67 0b bb 02 fb 3e bb 71 06 aa bb
       0.0025471319 -0.002127144 -0.0029141312 -0.005188756
000030 8d 61 3b ba f0 fc fc ba 07 a0 80 bb 3d ef bb 3a
       -0.000714802 -0.0019301455 -0.0039253267 0.0014338266
000040 11 de a0 bb 5d 07 33 bb 09 d8 53 3b 34 44 a9 3b
       -0.004909285 -0.0027317621 0.0032324812 0.005165601
000050 04 d5 4c 3b 52 98 97 ba ee a1 9b b9 73 3a fa 38
       0.0031254897 -0.0011565781 -0.0002968455 0.00011931816
000060 6c 21 39 39 0a 0e 03 ba 1f 34 b1 39 fa 65 cf 39
       0.00017655425 -0.00049993454 0.00033798904 0.00039558095
000070 dd 2b eb 3a 37 dc d6 ba d3 83 87 bb 3e 7d ab 3a
       0.001794215 -0.0016392533 -0.0041355877 0.001308359
000080 ea a0 63 bf 56 ad 03 3f 66 38 0a bf 38 7b 6f 3b
       -0.8891741 0.51436365 -0.5399231 0.003654195
000090 e2 f3 9e 3e 67 cc 6d bf 3d 31 02 bf 11 6b 9b 3f
       0.31045443 -0.9289002 -0.5085638 1.2142049
0000a0 72 af 45 bf 78 d7 3c 3b fb bf e8 3f 6c c3 7c 3f
       -0.77220833 0.0028814953 1.8183588 0.9873569
0000b0 b9 0e 9c be ae df 1d bf 62 47 c0 3f 1a d5 82 be
       -0.30479982 -0.61669433 1.5021784 -0.2555321
0000c0 e7 00 df 3a ee 15 5a 3a 43 4b 43 ba ba 01 bb ba
       0.0017013819 0.0008319308 -0.00074498745 -0.0014267482
0000d0 26 1e 1a 3a 61 95 2b bb 1c 43 3a ba 2c b0 fa 37
       0.0005879126 -0.0026181566 -0.0007105337 2.9884359e-05
0000e0 a8 e1 28 3a 89 ea 97 ba eb 47 03 3b 70 11 7d 3b
       0.0006442317 -0.0011590283 0.002003188 0.003861513
0000f0 35 15 09 3b 2a b6 54 ba cf ab 6b b9 c1 53 0b bb
       0.0020917181 -0.0008114303 -0.0002247535 -0.0021259638
000100 d0 61 35 3b be d8 13 3b e4 cd 0d 3b 93 bf 03 ba
       0.002767671 0.0022559608 0.0021637613 -0.00050258
000110 0b b8 48 bb 16 ee b2 39 75 34 26 b9 87 c7 21 bb
       -0.0030627276 0.00034128194 -0.00015850535 -0.0024685578
000120 e1 6f 9e ba f8 47 a8 3a fc b6 7c b7 13 d4 1e 3b
       -0.0012087786 0.0012838831 -1.5062975e-05 0.0024235293
000130 65 77 3b b9 ea b8 b1 3a 0d 2b dd ba f1 ce 77 ba
       -0.00017878188 0.0013559137 -0.0016873792 -0.0009453139
000140 f7 a1 12 b9 00 5e 57 3a 6c 60 4e 3a 8e 3b ce b9
       -0.00013983982 0.0008215606 0.00078726443 -0.00039335754
000150 ba ce 8d ba 4b ab 9a ba ee fc 84 39 a1 c3 88 ba
       -0.0010819056 -0.0011800317 0.0002536545 -0.0010434279
000160 e8 66 58 ba 36 9a 15 3a a5 95 79 b9 74 d6 83 3a
       -0.00082550803 0.0005706878 -0.00023802237 0.0010058419
000170 8d 66 c2 b9 41 ba 4f 3b 03 97 72 39 68 07 84 39
       -0.0003707897 0.003169671 0.00023135175 0.0002518252
000180 e4 78 cd 3a 77 af c0 ba 3d 56 86 b8 bd f1 de b9
       0.0015676287 -0.001470073 -6.405681e-05 -0.0004252325
000190 df b2 de 39 e8 02 21 ba 87 e0 e3 ba cc 35 ef ba
       0.0004247641 -0.00061420957 -0.001738564 -0.0018250286
0001a0 2a c3 e1 b9 f1 cf fd 3a 65 66 15 ba 19 ff 80 3a
       -0.00043060753 0.001936434 -0.0005699157 0.000984165
0001b0 7d a1 34 ba 55 d6 0c 3b 90 2f 02 39 b9 16 1f b9
       -0.00068905187 0.0021490057 0.00012415485 -0.00015171886
0001c0 6e ed 8a 3f 34 24 8d bd 17 56 03 be 8c 2c 9b 3f
       1.0853708 -0.06891671 -0.1282581 1.212297
0001d0 b0 b6 67 be 07 70 31 3f c7 92 0d bf 30 bf 4d 3f
       -0.22628284 0.69311565 -0.5530209 0.80369854
0001e0 e6 f1 9c be ee 6c 1e 3e 6d 37 87 be 29 cc 8c bf
       -0.30653304 0.15471241 -0.26409474 -1.0999805
0001f0 59 5e 05 bf fa 93 0a 3e 4b 4b 38 3f 1a b2 d3 be
       -0.5209709 0.13533011 0.7198989 -0.41346818
000200 ac b1 53 bb b0 ef 8d ba 12 a5 7b b8 f3 55 29 3b
       -0.0032301946 -0.0010828879 -5.9996797e-05 0.0025838583
000210 40 ee a2 3a 13 f7 09 bb 24 3d 9f 3a 88 85 eb 38
       0.0012430623 -0.0021051809 0.0012148959 0.00011230545
000220 f5 59 02 bb 9e 54 07 ba 69 1f 93 b9 75 e7 cf 38
       -0.0019890044 -0.000516245 -0.00028061427 9.9136414e-05
000230 b8 a1 3a 3b 63 54 90 ba 00 dd 12 ba a6 e8 9b 3a
       0.002847774 -0.0011011477 -0.00056023896 0.0011894896
000240 0d 26 a5 bf 57 91 d8 bf 23 18 91 3f 06 1f bf 3f
       -1.2902237 -1.6919354 1.1335491 1.4931343
000250 08 4e 31 3f 86 fe 8b 3f 7d 7d 1e bf 03 50 3b 3f
       0.6925969 1.0937049 -0.6191023 0.73168963
000260 c6 7f 1e 3f a0 72 a6 3e 80 08 a8 3e 9c 56 15 c0
       0.61913717 0.32509327 0.32818985 -2.3334112
000270 33 9c 55 be 56 fe 08 be 0a 74 15 bf 3b c5 dd 3f
       -0.20860367 -0.13378271 -0.58380187 1.7325815
000280 a4 d1 ac 39 20 bc 0c 3a 0d 27 34 bb b0 50 da 3a
       0.0003296259 0.0005368609 -0.0027489096 0.0016656127
000290 81 7b d8 ba ea 0d a0 ba ca 8d d0 3a ec a4 9d ba
       -0.0016516299 -0.0012211178 0.0015911397 -0.00120273
0002a0 2f 06 a9 ba f5 d3 44 ba 8c 11 b8 ba 4c 3c 09 3b
       -0.001289552 -0.00075083907 -0.0014043315 0.002094048
0002b0 aa e4 04 3b cd b7 e7 3a ab 5d 0a bb 6d eb cf ba
       0.0020277896 0.0017678678 -0.002111296 -0.0015863009
0002c0 65 f6 a6 3a c1 91 07 3b fa 08 36 bb 56 d7 63 ba
       0.0012738226 0.0020686241 -0.0027776347 -0.00086914503
0002d0 40 2b 3d b9 8b 93 28 bb cc cb 3c ba 5e 60 69 b9
       -0.00018040556 -0.0025722708 -0.0007201999 -0.00022256511
0002e0 90 9e 7c 3a 01 ea 03 ba 07 24 90 ba e1 05 3a 3b
       0.0009636665 -0.0005032123 -0.0010997065 0.0028384852
0002f0 d0 a0 da 3a 82 95 97 ba c3 73 7a 3b a3 a7 13 bb
       0.0016680006 -0.0011564943 0.0038215972 -0.002253034
000300 ab 78 ee b9 f4 da ce b9 83 4e 3b bb 0c 18 2b ba
       -0.00045484802 -0.00039454515 -0.0028580732 -0.00065267156
000310 5d 35 31 3b 06 08 18 3a 44 4e 6a 3b 5a 09 0d 3b
       0.0027039864 0.00057995354 0.0035752216 0.0021520467
000320 b6 a2 4c ba 9d 47 15 bb 7e 71 06 39 fe 87 89 39
       -0.0007806228 -0.002277828 0.00012821515 0.00026231998
000330 46 4e d3 3a 97 2c 57 bb 55 7d 2e 3b 69 10 23 bb
       0.001612135 -0.0032832974 0.0026624997 -0.0024881607
000340 22 cf 15 bb 9b 63 a4 3a b5 7e d9 ba 97 50 d7 b9
       -0.0022859056 0.0012541892 -0.0016593548 -0.0004106804
000350 9c 49 08 3b 03 1b c8 3a 76 07 19 3b fc 17 02 3b
       0.0020795828 0.0015266839 0.0023350394 0.0019850722
000360 4d a8 c1 3a 34 28 18 3a 93 93 1d ba 6d 64 b1 39
       0.0014774889 0.00058043306 -0.0006011065 0.00033834894
000370 84 ad 39 ba 0b 2d 91 38 48 b6 1f ba 46 d9 f3 39
       -0.0007083046 6.922529e-05 -0.00060925307 0.00046510453
000380 6e b1 3e bb e0 20 12 bb 2b 9e fe 3a 5b c4 ee 39
       -0.0029097456 -0.0022297427 0.00194258 0.00045541194
000390 38 5a c0 b9 5f fd d3 3a 54 ec 8b 3a 35 6a 5e 3a
       -0.00036688312 0.0016173533 0.001067529 0.0008484454
0003a0 13 80 0f bb 0c de b5 b9 b0 d0 0a 3b 10 46 5b bb
       -0.0021896407 -0.00034688448 0.0021181516 -0.0033458509
0003b0 cc f6 55 3a 15 d8 22 bb a5 b4 d5 b9 2c 76 03 3b
       0.0008162081 -0.0024848033 -0.00040761117 0.002005945
0003c0 1f e9 0e bb cc 8c d0 38 1d fa 7b 3b 60 af 1a 3b
       -0.0021806431 9.944438e-05 0.003844864 0.0023603067
0003d0 20 96 7b ba 7a 88 db 3a 3f 98 37 ba 5f 39 0f bb
       -0.00095972605 0.0016749047 -0.00070035824 -0.0021854264
0003e0 b9 dd e1 3a 39 cc 74 ba 84 65 c2 b9 e1 06 57 39
       0.0017232216 -0.0009338293 -0.00037078199 0.0002050656
0003f0 65 54 8a 3a 98 c4 f2 39 e9 bc d5 3a 5b ff 34 ba
       0.0010553716 0.0004630431 0.001630691 -0.0006904506

fc5.bias f4 [32]
000000 d9 b1 be 3a f7 ad e6 ba f7 35 04 bf 9c 0a e9 ba
       0.0014548852 -0.0017599453 -0.51644844 -0.0017779651
000010 fd 82 aa 39 59 b7 02 3b c3 eb 27 ba b3 26 3c be
       0.0003252252 0.001994571 -0.00064056757 -0.18374138
000020 30 16 4c ba 8d 22 88 be 73 6e 02 b9 d5 2a 0d ba
       -0.00077852886 -0.2658886 -0.00012438912 -0.00053851056
000030 54 f1 fe 39 b4 a2 75 b9 88 32 f6 39 96 99 9a 39
       0.0004862646 -0.00023425632 0.00046958425 0.000294876
000040 bd 2c 25 3f fd 99 e4 39 03 84 b5 ba 6a a0 f8 3a
       0.6452139 0.0004360228 -0.0013848547 0.0018968706
000050 89 0c 05 3a d1 76 f5 b7 7b ea 2f 38 ca 09 0a b9
       0.0005075415 -2.9261604e-05 4.194163e-05 -0.00013164352
000060 eb 8f a2 3a 37 4d bb b9 53 40 19 bf 87 3d 03 ba
       0.001240251 -0.0003572495 -0.59863776 -0.00050064217
000070 b5 24 c7 3a e4 29 e0 3d c5 9c 6b ba e1 5f de be
       0.0015193435 0.1094549 -0.0008987899 -0.43432525

fc6.weight f4 [32, 16]
000000 30 77 ac 39 4f 43 a1 39 ca 94 09 ba ea aa 19 ba
       0.00032895198 0.00030758462 -0.00052483066 -0.0005861955
000010 a0 d9 32 39 42 1b 2d ba b8 a0 dd b9 36 a7 53 b6
       0.00017056474 -0.0006603488 -0.0004227215 -3.153878e-06
000020 8a c6 2d b9 2b 98 2d 39 87 68 39 38 8d 52 d1 39
       -0.00016572527 0.00016555253 4.4204786e-05 0.00039925092
000030 94 4a c8 b9 8c fd 01 b9 5c 7c 9e 39 f1 aa 56 b9
       -0.00038202538 -0.00012396852 0.00030228763 -0.00020472311
000040 1f 3a 68 b8 97 2a d5 b9 09 ea d8 39 9b ad 2b 39
       -5.536724e-05 -0.00040658258 0.000413731 0.00016372504
000050 fc c4 03 38 f8 e5 2a b9 db d5 9b 39 dd 41 88 b8
       3.141629e-05 -0.00016298133 0.0002972324 -6.497253e-05
000060 cf 99 b4 b9 7a b5 29 b9 b7 63 e7 b8 c5 97 99 38
       -0.00034446872 -0.00016184701 -0.00011033512 7.323878e-05
000070 ad 5f 2f b9 78 a8 96 b7 2d 45 5f 39 71 cc 61 b8
       -0.00016724943 -1.7959843e-05 0.00021292707 -5.383458e-05
000080 cc 39 70 be bc 8e a3 3e 9b 75 f5 bd b2 dd f2 be
       -0.23459548 0.31944835 -0.11985322 -0.47434765
000090 11 73 dc 3d 34 4a 6b bd cc 97 22 3f c9 26 c3 3d
       0.10764135 -0.057443812 0.63512874 0.09528882
0000a0 17 18 88 3d 7a 83 7f bf 6f 9f a5 3e b3 86 3b be
       0.0664522 -0.9980999 0.323482 -0.18313102
0000b0 69 6e 1c bf ab 69 b8 3e bb bb 08 3f 18 55 03 bf
       -0.6110597 0.36018118 0.53411454 -0.5130172
0000c0 55 cc 7c 39 4e 55 a4 b9 ca e0 87 b9 66 02 88 39
       0.00024108712 -0.00031344075 -0.00025916687 0.00025941728
0000d0 52 97 6a 39 e5 89 f9 39 73 55 4c 38 ef bb 67 39
       0.0002237235 0.0004759572 4.871697e-05 0.00022099887
0000e0 4d 45 7f b8 0f d1 e3 b9 5b 48 d5 b8 43 0f e0 b9
       -6.086128e-05 -0.00043452575 -0.00010170109 -0.0004273598
0000f0 53 f0 95 b9 d5 21 25 39 6c 93 ca b7 72 5c 83 b8
       -0.0002859855 0.0001574823 -2.4148925e-05 -6.263786e-05
000100 a2 64 94 b7 00 bd 4d 37 e9 3a b7 b9 04 07 db 38
       -1.7689836e-05 1.2262957e-05 -0.00034948371 0.000104440405
000110 f2 db bc b9 ca 25 37 b9 70 66 8b 39 a9 12 13 b9
       -0.00036022026 -0.00017466318 0.00026588468 -0.00014025964
000120 48 8d bf 39 87 35 e1 b8 6c da 25 39 51 05 17 b5
       0.00036535622 -0.00010738806 0.00015816995 -5.625962e-07
000130 01 bb 41 b8 64 33 b4 b7 aa 63 0b ba dd 8f d7 b5
       -4.6188947e-05 -2.1481603e-05 -0.00053172803 -1.6060618e-06
000140 b7 74 6d 39 42 5d 2a 3a 5b 85 78 39 63 87 2c ba
       0.00022645561 0.0006498882 0.00023700802 -0.00065814535
000150 d5 5e f8 b9 7a de b6 39 16 d9 05 39 29 f2 70 b9
       -0.00047372901 0.00034879503 0.00012764739 -0.00022978395
000160 af 6a 11 3a 9b 51 7f b9 66 aa 41 b9 89 b6 2d 39
       0.0005547208 -0.00024349095 -0.00018469393 0.00016566565
000170 ef dd 78 b7 a3 57 4d 38 11 87 db 39 3b d8 d5 b7
       -1.4833625e-05 4.8957427e-05 0.00041871567 -2.5492269e-05
000180 4f 3d 80 38 21 e6 85 37 cd aa 45 b9 cc 86 ae 38
       6.114935e-05 1.5961998e-05 -0.00018851012 8.3220744e-05
000190 42 2c 78 b9 7d 6c 83 b8 ed 3a a0 39 fb 05 07 b9
       -0.0002366761 -6.266774e-05 0.0003056148 -0.00012876831
0001a0 94 e2 ac b8 2d e8 e3 b9 0d b6 3b b9 bf 2f 29 b9
       -8.2438026e-05 -0.00043469798 -0.00017901529 -0.00016134883
0001b0 9c 73 ab b8 9a 99 8e b9 50 18 29 b8 c7 27 2b b9
       -8.175449e-05 -0.00027198793 -4.0315383e-05 -0.00016322649
0001c0 65 2b 86 be 65 30 26 3f 87 c2 6d 3e 4e e5 2f bf
       -0.26204982 0.64917594 0.23218738 -0.68709266
0001d0 f6 d9 3b 3d fe e0 40 3f 28 ad 01 3f e3 90 8f be
       0.04586216 0.7534331 0.5065484 -0.28040227
0001e0 16 88 4c 3e 1b c4 60 bf 4d ae 5a 3e af 3c 12 3e
       0.19973788 -0.87799233 0.21355553 0.14280961
0001f0 af 5e 81 bf 6f 6a cb be cb 35 55 3f 64 22 47 bf
       -1.010702 -0.3972964 0.83285207 -0.7778685
000200 35 3f 69 b9 11 dd b3 b5 07 a0 8b 39 76 7b 83 b9
       -0.00022244158 -1.3400878e-06 0.00026631376 -0.00025078253
000210 8e 87 ae b8 e2 0d 1d 3a 09 5c 61 39 6c a7 97 b8
       -8.3222156e-05 0.00059911434 0.00021491958 -7.231426e-05
000220 ad 2d 22 3a 9f 01 9b b9 54 e3 1b 39 f3 90 da 38
       0.0006186616 -0.00029565112 0.00014866638 0.00010422049
000230 b2 7b c5 38 88 56 b9 39 ad d0 ce 38 90 d1 73 b9
       9.416732e-05 0.0003535042 9.861714e-05 -0.00023252354
000240 fc f4 81 be 7a 91 be 3e 85 37 4e be 78 68 87 be
       -0.2538222 0.37220365 -0.20138367 -0.2644689
000250 dd 9b 6e be 10 4f ae 3e 68 3b 30 3e fe 7d 22 bd
       -0.23301645 0.34044695 0.17210162 -0.039670937
000260 df 20 58 3e 61 e8 49 bf 2d d4 e8 bd 77 d9 93 3e
       0.2110629 -0.7887021 -0.11368594 0.2887685
000270 e4 05 07 bf f8 33 96 3d 3f 2f 22 3e 72 ee 89 be
       -0.52743363 0.07334131 0.15838335 -0.26939732
000280 61 51 9d b9 e7 8e 2e 3a d5 e4 8c 38 fb fe 0d 39
       -0.00030006006 0.00066588674 6.7183435e-05 0.00013541795
000290 91 da 5a 39 8e e4 40 39 23 f2 02 b9 c6 2a d1 b9
       0.00020871522 0.0001839569 -0.00012487969 -0.00039895455
0002a0 50 c2 c5 39 98 e5 04 ba 58 16 2b 3a 3c 0a 0f b9
       0.00037719542 -0.00050696125 0.0006526462 -0.00013641355
0002b0 3b f1 1f b9 29 6d ca b8 3d e8 6b 39 90 93 12 b9
       -0.00015253287 -9.652443e-05 0.00022497862 -0.00013978616
0002c0 bc 6b 49 39 b1 e3 99 39 db 13 29 39 dc 90 1c 38
       0.00019208988 0.00029352077 0.00016124493 3.732821e-05
0002d0 5f ec ec 38 27 bb aa 39 00 3e 91 b9 81 64 93 36
       0.000112973845 0.00032564366 -0.0002770275 4.3926416e-06
0002e0 9d db 2b b9 88 40 c0 b9 06 b3 c1 b9 53 c1 95 38
       -0.00016389643 -0.00036669173 -0.00036945211 7.140883e-05
0002f0 aa 32 f2 b8 6a 25 ad 38 43 e3 35 39 e7 19 81 b8
       -0.00011548896 8.256252e-05 0.00017346167 -6.156024e-05
000300 8f 58 7e 39 22 da 11 38 f5 d8 9b b9 55 1d 71 b7
       0.00024256318 3.4773846e-05 -0.0002972555 -1.4371549e-05
000310 fd 42 b1 b9 21 55 a6 b9 36 20 68 39 c3 bd c0 38
       -0.0003380998 -0.00031725413 0.00022137244 9.190619e-05
000320 48 7f f9 39 cd 91 b7 b9 8a bd df 39 8b 34 41 b9
       0.00047587813 -0.0003501311 0.00042675092 -0.00018425488
000330 de 5a 65 b9 6b f3 9a 39 8c 79 27 39 2e 10 b4 b9
       -0.00021872993 0.0002955453 0.00015971641 -0.0003434433
000340 50 be 0b 39 cf b4 2c 3a a6 8a d9 38 a0 6e ca b9
       0.0001332697 0.0006588222 0.000103731916 -0.00038610864
000350 5a fc 82 39 d2 a2 bd 38 41 97 1f b9 83 3c 21 38
       0.0002498355 9.04255e-05 -0.00015219768 3.8441747e-05
000360 d9 df 50 b9 82 2c a5 b8 0e 61 f2 b8 60 fb 4c b7
       -0.00019919816 -7.876103e-05 -0.00011557537 -1.2217875e-05
000370 09 af b9 b9 44 3f 8b b8 ae c5 85 39 2c f8 c2 b8
       -0.0003541636 -6.639821e-05 0.0002551502 -9.2968665e-05
000380 13 fa 60 b8 ef 4c e6 39 eb 29 06 38 c2 f4 89 39
       -5.363866e-05 0.0004392634 3.198713e-05 0.00026313035
000390 4e 0e 63 b9 24 18 e9 39 cb f9 50 38 cb fb 85 39
       -0.00021653736 0.0004445921 4.9823702e-05 0.00025555337
0003a0 b1 73 df 39 7c 30 b8 b9 cd 0e a9 39 80 38 41 b9
       0.0004262007 -0.00035131339 0.0003224522 -0.00018426962
0003b0 11 79 61 b9 91 77 d5 b7 4a d1 9b b9 0a 4f 39 b9
       -0.00021502773 -2.5447256e-05 -0.00029719836 -0.00017672419
0003c0 2d 8b 07 ba 42 93 1f 39 1f ed cf b9 ef 57 2b ba
       -0.000517058 0.0001521828 -0.00039658786 -0.00065362355
0003d0 69 61 e3 39 f1 40 81 b9 16 b9 9f b9 c7 8b 93 b9
       0.0004336939 -0.00024653182 -0.00030464743 -0.00028142167
0003e0 41 ae 25 3a 8a 94 dc b9 ae 13 13 b9 41 32 13 3a
       0.00063202163 -0.0004207234 -0.00014026344 0.00056150934
0003f0 10 d4 65 b7 a5 49 4a ba 00 93 17 ba ec 73 10 b9
       -1.3698838e-05 -0.00077166624 -0.00057820976 -0.00013776094

fc6.bias f4 [32]
000000 91 6b ea 38 87 ca 2d 39 d0 60 5f bf 94 3e ed b7
       0.00011178025 0.00016574013 -0.872571 -2.8281742e-05
000010 de 59 6d 38 6b 51 d2 39 0e 03 2b 39 49 9f f6 be
       5.65889e-05 0.00040114982 0.00016308969 -0.481684
000020 73 57 96 39 9a 1b 22 3e e3 45 e5 b8 15 3e 22 b9
       0.00028675384 0.15830842 -0.00010932588 -0.00015472651
000030 16 87 95 39 ac 37 1d 39 5c 1e f4 38 29 cb 4d b3
       0.00028520141 0.00014993426 0.000116404815 -4.7915055e-08
000040 7d 37 ca bf a4 80 06 39 62 8d 03 39 3f b0 4f 39
       -1.5798184 0.00012827158 0.00012545803 0.00019806715
000050 0a a3 0f 39 4c e0 23 39 a3 2e c3 38 04 69 05 3a
       0.0001369828 0.00015628448 9.307011e-05 0.0005089196
000060 32 b2 22 3a 1c 18 bd 39 c8 15 bd bf bb 16 8c 39
       0.0006206363 0.00036066852 -1.4772272 0.00026719816
000070 93 2a 8c 39 03 51 bb bd e6 88 84 39 5b c7 3f bf
       0.000267346 -0.09146311 0.00025279 -0.7491357

fc_decode.weight f4 [16, 32]
000000 26 e5 db 3c c2 0b 57 be 39 7f 27 be 07 0d eb bd
       0.026842665 -0.21000579 -0.16357125 -0.11477094
000010 55 cb 87 bd c5 53 a5 3d 28 1b cb bd 0d 3a f7 be
       -0.066305794 0.080726184 -0.09917289 -0.48286477
000020 ff 44 ce 3c 56 e0 8b ba a6 31 45 bc ba 04 d5 3d
       0.025179384 -0.0010671716 -0.012035763 0.10401292
000030 96 18 7b 3e ba ae 22 bd dd fc fe 3c 11 ca d0 3d
       0.24521098 -0.039717413 0.031126434 0.10194791
000040 84 a0 33 3e 67 2b 2b be 3a eb 00 3e 88 9c c1 3b
       0.175417 -0.16715775 0.12589732 0.0059085526
000050 10 30 de 3b 8a 84 c3 3d bf b2 10 3d 85 1e c8 3c
       0.006780632 0.09546764 0.035326716 0.024428615
000060 5b 9c bb 3c c8 34 72 3c 0f 92 dc 3e 46 89 8a bc
       0.022901705 0.014783092 0.43080184 -0.01691116
000070 7c 87 d5 bd b5 5a da 3e 88 ee ee 3d 8c c8 d1 bd
       -0.10426232 0.4264733 0.1166659 -0.102433294
000080 76 19 6c 3d e9 5d 43 3d dd af 59 3e f3 80 a4 3c
       0.05764147 0.04769698 0.21258493 0.020081019
000090 69 ff 83 3c b6 fc d2 3c 01 c0 fe bd aa d8 02 3e
       0.016113 0.025755268 -0.124389656 0.12777963
0000a0 5b 57 b3 bc 55 a5 0f 3d 6e fb c3 b7 e1 e7 f5 bd
       -0.02189224 0.035069782 -2.3362893e-05 -0.12007118
0000b0 42 d5 b2 bd 04 ad 54 bd e0 bc 44 3b 08 10 a3 bd
       -0.08732082 -0.051922813 0.0030019805 -0.07962042
0000c0 95 e3 18 bf cb a2 57 3e 80 68 be bd 76 d9 b4 3b
       -0.5972226 0.21058194 -0.092972755 0.0055190874
0000d0 8c 7d 14 3c d9 7a 44 bd d4 4f 7c 3d b0 0a 89 bc
       0.009063136 -0.04796872 0.061599568 -0.016728729
0000e0 19 de 96 3d eb ce 79 bc 9b ce 0e bf 4d a3 99 3c
       0.073665805 -0.015247087 -0.55784005 0.018754626
0000f0 d2 77 10 bd de 25 35 bd fb 1b f3 bc f4 52 b4 bf
       -0.03527052 -0.044225566 -0.029676428 -1.4087815
000100 90 3f b5 ba 5d d4 62 bd b7 7f 6a bd 3f fb e4 3d
       -0.0013828147 -0.055378307 -0.057250705 0.11180734
000110 67 ab e5 3d 9c 65 19 bd 77 b5 2c 3e 15 4a 76 3e
       0.11214333 -0.037450418 0.16866098 0.24051698
000120 8c b1 61 bd 0f c5 7e be e9 cc 05 be 0e 62 39 bd
       -0.055100963 -0.2487986 -0.13066448 -0.045259528
000130 8c 1a 5a be 58 bb 09 be 47 45 2c 3d 59 20 9a 3d
       -0.2129919 -0.13450372 0.042058256 0.07525701
000140 48 94 37 3d 76 2b a3 bd 31 88 27 3e d9 c6 21 3d
       0.044819146 -0.07967274 0.16360547 0.039496277
000150 4d 15 26 bd 6d c8 c4 bd 79 c8 63 3c a9 c1 50 3d
       -0.040547658 -0.09608541 0.013902777 0.05096594
000160 89 22 2f bd 98 66 0d bb 64 09 bd 3e 75 58 77 ba
       -0.042757545 -0.0021576043 0.36921227 -0.00094354834
000170 10 37 56 bd 85 30 b6 3d 05 15 b3 bd 04 52 48 be
       -0.052298605 0.08895973 -0.087442435 -0.19562536
000180 6d fc 3d bd 4c 42 cb 3c 9d c8 fa be 13 0d bb 3d
       -0.04638331 0.024811886 -0.4898118 0.09133353
000190 61 2f 69 3d e4 d8 03 bb ab 5c 31 3c 8e 22 08 bf
       0.05692995 -0.002011829 0.010825316 -0.53177726
0001a0 bf 48 93 bc f5 a2 a8 bc 81 3c 0e bd c2 e8 1d be
       -0.017979024 -0.020585516 -0.03472567 -0.15420821
0001b0 bb e9 3c be 01 22 53 bd 38 0a ad 3c 92 fc d5 bd
       -0.18448536 -0.0515461 0.021123037 -0.104485646
0001c0 9e e1 fd bd ed a0 13 3e bf c4 34 bc 01 ba 83 bc
       -0.12396549 0.14416857 -0.011033236 -0.016079905
0001d0 74 95 e7 3b cb 36 5b 3c ca 99 13 3d 25 25 89 3c
       0.0070673767 0.013379763 0.036035337 0.016741345
0001e0 6b 1c c7 3c b1 16 68 bd 45 66 d6 be ed c9 81 3d
       0.024305543 -0.056662265 -0.418749 0.063373424
0001f0 44 8e 7c 3c 87 8c be bd a0 e4 8e 3c 23 ca d6 bd
       0.015414778 -0.09304147 0.017443001 -0.10487773
000200 31 bf 1b 3d eb 89 0b 3e 5e fb e3 3c 97 1c 38 3d
       0.03802413 0.1362683 0.027829822 0.04494914
000210 a6 35 13 bd d1 09 48 bd 02 75 84 bd 33 cf e9 3d
       -0.035939835 -0.048837487 -0.0646763 0.11416473
000220 75 c1 85 3c a4 f9 97 3e ad 29 33 bd e7 4e 03 3e
       0.016327599 0.29682648 -0.043740917 0.12823068
000230 47 34 b2 bc ed 44 47 bd 3e 9d fb bc b0 ca 4a 3e
       -0.021753443 -0.048649717 -0.030714627 0.19803882
000240 c8 0f 2f 3f f2 54 b7 bc 63 f6 01 3d 84 da e7 3c
       0.68383455 -0.022379372 0.031729113 0.028302439
000250 9d d3 5b bd 6d 5e a1 bc e7 30 34 3d 22 70 4b 3d
       -0.053668607 -0.019698346 0.04399195 0.049667485
000260 55 fe a9 bc bc c4 0f 3d 57 f2 3c bf db 7d 2f bc
       -0.020751158 0.03509973 -0.7380728 -0.010711159
000270 3c 23 35 be 08 ec ce 3e ce 44 9c bd 71 55 b8 3e
       -0.17689222 0.40414453 -0.07630311 0.36002687
000280 1d c4 ab 3c 19 22 2e 3e 17 52 a5 be e0 b8 b1 bc
       0.020967538 0.17005195 -0.32289192 -0.0216946
000290 34 f0 cb bd 51 47 86 bd c1 44 b7 bd bb 09 7b bd
       -0.099579245 -0.06556571 -0.08948661 -0.061288577
0002a0 1b bf 79 3d cc bd a9 be e5 3d 05 3e 19 98 41 3e
       0.060973268 -0.33152616 0.13011892 0.18905677
0002b0 d4 e0 2f 3e 5b be c9 3d 0d d3 82 bd 6b 82 54 3d
       0.17175609 0.098507605 -0.06387911 0.05188219
0002c0 31 be ec be 6a c5 d7 bd 9c 8d 9a bd 40 d0 92 bd
       -0.46238855 -0.105357006 -0.07546541 -0.07168627
0002d0 a5 4e 78 ba 8a 94 a1 bc 61 88 c2 bc 99 c9 86 bc
       -0.0009472168 -0.01972415 -0.023746671 -0.016453551
0002e0 6f b3 e9 b9 20 91 9b 3d 24 f9 d0 3e 03 23 a2 bc
       -0.00044574912 0.0759604 0.4081508 -0.019792086
0002f0 18 7d df bc d7 2d 52 be 8c 0b 11 bd c9 6c 11 3d
       -0.027281329 -0.20525299 -0.035411403 0.035504136
000300 54 a4 92 3d 1e fc ee 3d 85 fa 08 3e 3c 36 ae 3d
       0.07160249 0.11669181 0.13376816 0.08506438
000310 48 6b ae 3c 94 56 7a bd 71 1e 7f bd 6d 4f 22 bf
       0.02129139 -0.061117724 -0.06228489 -0.63402444
000320 bc b2 ed bb 43 8c c7 be 5e 9c ac 3c 89 40 4f 3c
       -0.007253973 -0.389742 0.021070655 0.012649664
000330 10 b1 98 bd 6f 39 91 bd 03 07 5b bc 05 0d 52 3b
       -0.07455647 -0.07091033 -0.013368371 0.0032051217
000340 c2 57 2b bf 2a 43 1a 3c 7f 02 fc ba 59 2b 2b bd
       -0.6693078 0.009415427 -0.0019226818 -0.041789386
000350 32 67 80 bc 5c 58 0d be e0 00 50 3d 2d da 1f 3c
       -0.015674207 -0.13803238 0.050782084 0.009756607
000360 44 f4 24 3d f6 90 61 3d 88 3d 02 bf 00 9c 92 3b
       0.040272012 0.055069886 -0.5087514 0.004474163
000370 41 fb b2 bd eb b3 d5 3e a4 ed db bd a7 5e f4 3e
       -0.08739329 0.4173883 -0.10738686 0.47728464
000380 e7 6b df 3c 16 cc 9b bd 7e 7a 9d be c3 ad 89 bc
       0.027273132 -0.07607286 -0.30757517 -0.016806489
000390 f1 5e 6f 3d 86 99 ab 3b 98 a8 b0 3d f9 0d be 3e
       0.058440153 0.0052368073 0.08625907 0.37120035
0003a0 02 ee 1b bd 7c 1a ff bd 2c 25 fd 3c c0 70 a9 bd
       -0.03806878 -0.12456223 0.030901514 -0.082734585
0003b0 50 2e 9b bc 27 1d 8a 3c e7 fc a7 3c a0 23 10 be
       -0.018942982 0.016859604 0.020506335 -0.1407609
0003c0 92 c7 fc 3e b6 a7 3d bc 9a ed c1 bc 9e 79 3c bc
       0.4937101 -0.01157563 -0.023672868 -0.011503605
0003d0 07 b9 f3 3c 6c 0a ca bd 6a 7e 2d bd 24 32 52 bd
       0.029751314 -0.09865269 -0.042356886 -0.05131735
0003e0 46 c3 8c 3c f6 c0 27 3c f4 8b 10 bf 25 0c da bc
       0.017182957 0.010238877 -0.5646355 -0.02661712
0003f0 fa 86 0c 3e 60 5a c3 3e 47 e8 08 bd b2 ad 0f 3e
       0.13723364 0.38154888 -0.033424642 0.14031103

fc_decode.bias f4 [16]
000000 52 66 54 bf 11 b5 84 be df 94 b1 3d c0 37 1c bf
       -0.8296863 -0.25919393 0.08670973 -0.6102257
000010 8e f1 c3 3e a8 6a ed 3e 4e e8 03 3f 34 b3 76 bf
       0.3827023 0.46370435 0.51526344 -0.9636719
000020 db 5e d0 be 27 a2 5a 3d ab c5 f1 3e 25 0f 48 bf
       -0.4069737 0.053377297 0.4722112 -0.7814811
000030 f4 be 12 be 8f 6e 0c bf 50 cb f5 be ba 29 2c 3f
       -0.14330655 -0.548562 -0.48006678 0.6725117
