saved_models_2D/dataset_noacc/VAE_folds/CVAE2D_4_5_100_200_fold_6.pth (torch, 243348 bytes, 37 tensors)

conv1.weight f4 [16, 1, 3, 3]
00000000: 1e7b 993e d57f 463f d9d0 8a3e ed3f 8fbb
00000010: 0970 5b3e 2c61 063f 5f0b 3abf 92ec 31bf
00000020: c13c b6be 5789 2abf 38af 1b3e aeb5 28be
00000030: 4a1d 4eba e2ed a6bf 915e 4b3e 438a 363f
00000040: aa02 0ebf eace 06bf 8550 4abe ce71 9c3e
00000050: 7ec5 cebe e0c1 ff3e 5e5f f53e a8f7 a03e
00000060: b690 37be b774 573d 7d82 ac3d dcc1 af3e
00000070: 7ce6 22bf e49c 20bf 8217 22be c352 e53e
00000080: fe6b 0b3f 195a 20bf 6dfc a5bf 5e0f a63e
00000090: e0ee 2c3f c054 17bf 0a1c 243f 878f 043f
000000a0: ae57 123e 7a2d 853e 12e1 f7bc 9657 d13e
000000b0: 673d 1b3e c87b aebe bb43 4a3f fc78 93bf
000000c0: 6b5f d1be 3c90 94be b5e1 c1be 55aa 8fbe
000000d0: 669b a33e e821 dd3c 78d9 edbe f143 ecbd
000000e0: 7ac0 c8be f05f 1bbe 914b 5abe fd27 e43d
000000f0: a2ca 6fbe 22c7 4c3f 3651 26bf c876 24be
00000100: c8e3 f23d eb08 1dbe aca9 3cbe c5d8 183f
00000110: 30da cd3d 58af 683f 5402 4cbd c051 8ebd
00000120: bf8d 253f 7d27 d9bd 9b8d 753e ad98 08bf
00000130: a25a 923e 9580 3fbf 7d6d 883e fdb1 5f3f
00000140: 9886 163f f9c4 2c3f 55fb 53bd e416 983f
00000150: 6d71 59bf e8d9 5b3e 4bbb 993d 8139 123f
00000160: 61cd df3d 8684 7ebe a856 19be d9d5 d3be
00000170: 9f03 603f 606a 02bf 1e1d 57bd 8ea4 8bbe
00000180: d74a 1bbd a640 07bf f007 6e3f 37c4 4c3f
00000190: b6a7 86be e75b bb3d bb8c c6be 0f0d c43d
000001a0: 00fc b13e 2244 8c3e a044 2d3f 6626 753f
000001b0: 94ef 34bf aa48 a93d 763d 433e 939f 57be
000001c0: 2e9d 753e d028 d7be ba80 073e 51b6 47bc
000001d0: f9ba fdbd 555a 4b3f 667e 91bc 71e5 a63d
000001e0: 63c2 553e edd4 653e 4f0c e83e 0912 1dbf
000001f0: 2135 c53e ebdd 15be 68b4 8abd 7afa 203e
00000200: 60ff 14be 4f7b ae3e da88 4e3e 97b2 793e
00000210: 95ff 64bf abe1 20bf 30ae 1fbf a23b 15be
00000220: 3962 25bf df10 e0be 059a 083f 5a4d 6ebf
00000230: 85b4 20bd 6fc6 12bf 5b61 0fbf 5405 3f3c
0.29976743 0.77538806 0.27112463 -0.004371634 0.21429457 0.5249202 -0.726736 -0.695016
-0.35593227 -0.66615814 0.1520356 -0.16475555 -0.0007862641 -1.3041346 0.19860293 0.7130472
-0.55472815 -0.52659476 -0.19757278 0.30555576 -0.4038505 0.49952602 0.47924322 0.31438947
-0.17926297 0.052601542 0.08423326 0.3432759 -0.6363294 -0.62739396 -0.1582928 0.44789705
0.5446166 -0.6263748 -1.2967659 0.324336 0.67551994 -0.59113693 0.64105284 0.51781505
0.1429126 0.26011258 -0.03025869 0.40887135 0.15160142 -0.34078813 0.790096 -1.1521297
-0.4089311 -0.29016292 -0.37867513 -0.2805964 0.31954497 0.026993707 -0.46454978 -0.11536396
-0.39209348 -0.15173316 -0.21317889 0.1114044 -0.23417142 0.7999135 -0.6496767 -0.16060936
0.11859852 -0.15335433 -0.184241 0.59705764 0.100513816 0.90892553 -0.049806908 -0.06949186
0.6466941 -0.10603235 0.239798 -0.53357965 0.28584772 -0.74805576 0.26646033 0.87380964
0.58799124 0.67488056 -0.05175336 1.1881986 -0.849387 0.21469843 0.075064264 0.57118994
0.10927845 -0.24855241 -0.14974463 -0.4137409 0.87505525 -0.50943565 -0.052518003 -0.27273983
-0.03791317 -0.5283302 0.9298086 0.799869 -0.26299828 0.09148388 -0.38779244 0.09572803
0.34762573 0.2739573 0.6768284 0.95761716 -0.7067807 0.08265813 0.19066414 -0.21056966
0.2398574 -0.42023325 0.13232699 -0.012189464 -0.12389178 0.7943471 -0.017760467 0.08149231
0.20874934 0.22444506 0.4532189 -0.61355644 0.38517097 -0.14635436 -0.06772691 0.15720549
-0.14550543 0.34078452 0.20169392 0.24384533 -0.8945249 -0.6284434 -0.62375164 -0.1457353
-0.64603 -0.43762872 0.53360015 -0.9308678 -0.039234657 -0.57334036 -0.5600793 0.011658985

conv1.bias f4 [16]
00000000: dbdb c2bd 2569 b63d 1ce0 cfbc 752b c1bc
00000010: 2cac 87bb 6954 773b 6612 8b3b 23bc 2bbd
00000020: 912c af3c 7283 dbbb e499 a93c 2c67 5b3d
00000030: d7d4 24bc d5aa 573d 6eca 93bd 974c ea3c
-0.0951459 0.089067735 -0.025375418 -0.023580292 -0.0041403975 0.0037739521 0.0042441366 -0.041927468
0.021383556 -0.006699019 0.020703264 0.05356519 -0.010060511 0.052653152 -0.07216345 0.028600974

conv2.weight f4 [32, 16, 3, 3]
00000000: 9873 b2bd 0d64 1abe 01ae 1bbd 72c2 c6bd
00000010: 7e65 283e 3944 9b3d ce90 57bd 0343 4fbd
00000020: 6176 52be 3f47 f7bd 93a5 5c3e 1367 01bd
00000030: 40f7 0b3e 4951 ae3d 56a1 3dbd b8d2 dbbd
00000040: 8d07 3a3d 0549 8bbc 6ac6 58be 9660 923c
00000050: b28f f2be f6e3 36be 517c ed3d 4e5b 4ebd
00000060: 212b d4bb cb7a 8dbe b540 48bd af2c 32be
00000070: a363 9dbb d103 94bc a108 d8bc 4bb9 083e
00000080: 9828 873c 565a 04be 6bb6 6bbd f846 253d
00000090: e60a 3ebd a97b 05bd 4b03 ddbd b4ca 03be
000000a0: a58a 1cbe 78ff 96be 15e6 863c 93f3 223e
000000b0: e73f 86bd d5a9 9fbe 84cb a5bd e85d 85bb
000000c0: 2e2c b2bd 92ab 083e 6f0b a03c dd4a 253d
000000d0: 5eab 3f3d 0be4 873d 5178 3b3c 21e5 443e
000000e0: f7dc bebe 9308 6abc 7540 c1bd 9d18 453b
000000f0: 8096 aebd 57d9 08be 00e4 bc3d 1e68 0d3e
00000100: ff1b b8bc 5b9a 42be 5d67 b83d c43a 99bd
00000110: 9f16 553c 3a26 1e3e 29e3 fcbd 3127 2cbe
00000120: 66b4 17bd d282 033e e775 a73c d318 4c3e
00000130: a55e 133d cd19 28be ef0d 05be 014e 60bd
00000140: 8ef1 043a 2050 263e f514 033e 846d 6cbe
00000150: 0b24 373d 7a1c a33d 40eb 6abd 1b81 c4bc
00000160: 6c86 03be 6a01 cd3a 60ee 5f3d 8901 413e
00000170: 650d d43d 0026 2ebe 7ad0 06be a1bc 263e
00000180: 80d0 2a3e 306a ba3d ed59 203d 4b4a 3a3a
00000190: 646f 183d 2202 9fbd 75b8 923d 6e39 2fbc
000001a0: df18 4abe 1938 cdbd 056d 2bbd ab30 f3bd
000001b0: 6751 313e 93d3 713d f71f 153e f76d 89bd
000001c0: 04bc 23bd 4ede 0dbe 21c4 223e 61b8 633d
000001d0: 034b e23c 7df4 c8bd e66d 463a b0f4 4bbd
000001e0: 4fbe 263e 584a 7b3d b960 863b 292c 1cbc
000001f0: 797d 12be ebcf 02be 64de 213e c9f7 763d
00000200: 0394 ac3d f8ad 6ebd b8f9 3c3e d760 403d
00000210: d3c9 d03d 398a 83be e4dc 8c3d 2ef3 0f3d
00000220: 4ff3 1fbd 367e 023d 8586 763b b823 d1bd
00000230: 60f5 9ebc 0808 1dbd 6b04 9fbd 503d 25be
00000240: e5c4 b7bd 1423 a93d e5f9 0dbd 21d2 a2bc
00000250: ddf8 68be 1fbd 1e3e c4ce f3bd d8bc 8bbd
00000260: b5d8 ab3d 0ffb a2bc a732 2dbe 67cf 9cbd
00000270: 6496 34be 77a9 74bd ac43 23bb 7464 003d
00000280: 31c9 1e3d 0f0c 83bc f10e eb3d dd54 033d
00000290: 9e84 95bc 7480 09bd 06ed dc3d 5128 2bbd
000002a0: b982 ebbd aec4 fd3d 2ba5 a63d 0d48 0a3e
000002b0: 16e8 673c f846 92bd 5d62 74bd f0ce 993d
000002c0: 0ad6 54be dd5d d0bd ae16 c73d 0560 0abe
000002d0: 96d4 6bbe 8cfa e33c b9ec bf3c d1dc 7ebd
000002e0: 8da6 78bd 32fa 1abe 0d48 e1bd 89a2 08be
000002f0: 3e3f 9bbd 0c4e bc3b 8c91 7bbe 6749 0d3e
00000300: d5f7 913a b678 ddbd c131 7cbd 05cd 87be
00000310: 7b1a debe b5d6 6abb fee8 16bb b7e3 7b3d
00000320: 80a7 863e 4a03 48be a6ac 56be fdc4 d3bd
00000330: e9a9 b9bd 8e28 403c 4bba 00bd 10a7 8c3c
00000340: 409d 9dbd 1e1f 713e 4152 31bd 0e63 ba3d
00000350: c303 2ebd df60 64be 44b1 993d 74a2 dbba
00000360: 630f ebbd 57d7 023e 8120 753c b054 8c3c
00000370: 28a4 0bbe aab7 78bc b593 0e3c e663 003e
00000380: 46ef 533d fc2c 87bd 2e60 03bd b85a 6f3d
00000390: 6a18 8d3b 29eb cebb e513 86bc 4f60 ae3d
000003a0: 000f 4a3d 457c 1c3e 483e 2d3e 9229 823e
000003b0: c49c bdbc a50e 223e 759e 2b3e 9500 21ba
000003c0: 56c4 efbd 03bf 063e 0327 603e ac98 c73d
000003d0: 9dd8 1f3e b735 8c3e c744 d8bd e598 0ebe
000003e0: 49b2 80bd fa7b d93d 654e 93bd f8c0 6fbd
000003f0: 2f5d adbd 0988 393d f851 573d 7e60 79bd
-0.08713454 -0.15077229 -0.03800774 -0.09705056 0.16444966 0.07581372 -0.05262833 -0.050601017
-0.2055297 -0.12074136 0.21547537 -0.03159244 0.13668537 0.08511598 -0.04629644 -0.10733551
0.045417357 -0.017002592 -0.21169439 0.017868321 -0.47375256 -0.17860398 0.11595977 -0.050380044
-0.006474868 -0.27632746 -0.048889834 -0.17399858 -0.0048031374 -0.018068226 -0.026371302 0.13351934
0.016498849 -0.12925085 -0.057547014 0.040350884 -0.046397112 -0.032588635 -0.10791644 -0.12870294
-0.15287264 -0.29491782 0.016467134 0.15913229 -0.06555157 -0.3118426 -0.08095458 -0.0040700324
-0.08699833 0.13346699 0.019536702 0.0403546 0.046794288 0.066352926 0.01144226 0.1922803
-0.37277958 -0.014284271 -0.09436122 0.0030074485 -0.08524799 -0.13364159 0.09223175 0.13809249
-0.022474287 -0.19004194 0.0900409 -0.07481912 0.013005882 0.1544427 -0.12348015 -0.16811825
-0.037037276 0.12842873 0.020441962 0.19931345 0.035978932 -0.16416092 -0.12993596 -0.05476189
0.0005071395 0.16241503 0.12800963 -0.23088652 0.044712108 0.07964416 -0.057353258 -0.023987344
-0.12844247 0.001564068 0.05467069 0.18848242 0.10354117 -0.17006683 -0.13165465 0.16282894
0.16681099 0.09102285 0.03914826 0.00071064074 0.037215605 -0.07764079 0.07164089 -0.010694845
-0.1973605 -0.100204654 -0.041852016 -0.11874517 0.17316209 0.059039664 0.14562975 -0.06710427
-0.039974228 -0.13854334 0.1589513 0.05559576 0.027623659 -0.098122574 0.0007569477 -0.0497939
0.16283534 0.061350197 0.0041008857 -0.009532013 -0.14305677 -0.12774627 0.15807492 0.0602949
0.084266685 -0.05827138 0.18454635 0.046967354 0.10194745 -0.25691393 0.06878069 0.035144024
-0.039050397 0.031858645 0.00376168 -0.10211891 -0.019404113 -0.038337737 -0.077645145 -0.1613667
-0.089731015 0.08258644 -0.034662146 -0.019875588 -0.22751184 0.15501831 -0.11904672 -0.068231285
0.08390943 -0.019895105 -0.16913854 -0.07656746 -0.17635494 -0.059731927 -0.0024912162 0.0313458
0.03876609 -0.01599696 0.11477459 0.032063354 -0.018251713 -0.033569768 0.10787396 -0.041786496
-0.11499543 0.12391029 0.08136972 0.13504048 0.014154455 -0.071424425 -0.05966412 0.07510173
-0.20784774 -0.10174153 0.09721123 -0.13513191 -0.23030314 0.027829431 0.023428308 -0.062222306
-0.06070571 -0.15134504 -0.11000071 -0.13343252 -0.07580422 0.0057466086 -0.2456724 0.13797532
0.0011136482 -0.108140394 -0.061570887 -0.26523605 -0.43379578 -0.0035833542 -0.0023027058 0.061496463
0.26299667 -0.19532505 -0.20964298 -0.10340307 -0.09065611 0.011728419 -0.031427663 0.017169505
-0.07696009 0.23547027 -0.043291334 0.091009244 -0.042484056 -0.22302578 0.07504514 -0.0016756789
-0.11477544 0.12777458 0.014961363 0.017130226 -0.1363684 -0.015180508 0.008702208 0.12538108
0.05174186 -0.06600377 -0.032074146 0.058436126 0.004305889 -0.0063146544 -0.016366908 0.08514463
0.04933071 0.1528178 0.1691829 0.2542234 -0.02314604 0.15825899 0.16759665 -0.00061417493
-0.1170737 0.13158803 0.21889882 0.09745917 0.15609975 0.2738473 -0.10559993 -0.13925512
-0.06284005 0.1061935 -0.07192687 -0.05853364 -0.08465039 0.04529575 0.052568406 -0.060883038

conv2.bias f4 [32]
00000000: 9437 71bc 6054 88bd b255 8fbc d70f 0fbd
00000010: af4b 033d 2c52 4a3d 5f83 8fbd d050 27bd
00000020: b4b6 7b3b 0452 36bd 5739 ef3c a4de d43c
00000030: 2532 993b f54b 923c 822f 95bd 1ac3 013d
00000040: 2403 5dbd 0d53 c63d eb93 b83c 492a 883d
00000050: 3b62 ef3d 37bc bcbc de0e 82bd dd87 70bd
00000060: 7b44 1e3c a97e a43c 478e ff3c 9414 e73d
00000070: abb8 ccbd 09e2 95bd 88d4 4ebb 01f4 833d
-0.0147227235 -0.06656718 -0.017496917 -0.034927215 0.0320546 0.04939477 -0.07007479 -0.040848553
0.003840846 -0.04451181 0.029202146 0.02598507 0.004675167 0.017858485 -0.07284452 0.031680204
-0.053958073 0.096838094 0.02253147 0.0664869 0.11688658 -0.023038967 -0.06350492 -0.05872332
0.009659882 0.020079928 0.031195773 0.11283222 -0.0999616 -0.073185034 -0.0031559784 0.064430244

conv3.weight f4 [32, 32, 3, 3]
00000000: f5ba 5bbc 121e 1b3d bd3a 843c 07c8 b9bc
00000010: 8f1e d83d e0cc b03d e29a 97bd 7f8a 9abd
00000020: fd8d 333c 0c29 15be 6b22 8c3d 314a a9bd
00000030: c7bf 1d3d 9786 a23c 44d9 44be 71c8 20bd
00000040: 8729 bfbd 52ad d5bd 85d8 ae3d 42fc 51bd
00000050: 463d 35be 49e1 4eba 5954 963b 61af 4bbd
00000060: f97c 9d3d 9d83 443e 2ac5 92bd d516 b53d
00000070: 9a53 b8ba 3bf9 67be 032b 0e3a 5fad ef3c
00000080: 868f 603d 1752 b93c cbf6 8dbd b8dd 61bc
00000090: 0317 b3bd 0168 9f3c 6138 f6bb e43e 5e3d
000000a0: db5b bebb 12f7 c0bc 2c89 abbd 2ba9 f13d
000000b0: f49f a33d 490d d6ba 8a24 aebd 073b 35bd
000000c0: 3294 80bd 733b c23d 37fc 35bb d862 fb3d
000000d0: 7875 ba3d 3142 0f3e 6696 803d f63f 6dbe
000000e0: 04ee 97bc 6558 bebd 68f3 dd3c a43d d9bc
000000f0: 55dd 4d3d 9697 b3bb ec52 67bd ce0c 863d
00000100: 2327 ea3d e961 63bc 621a 183e 6f16 cc3d
00000110: ebaa bd3c 36aa 24bd a378 973d fbed 13bd
00000120: 7a5e de3d e35b 0d3d 48c0 82bd 69e0 84bd
00000130: 9ecc 3bbc f350 083c 7f16 d53d 6afc bd3d
00000140: 4778 07bd 4b15 67bd c558 bd3a 2723 983c
00000150: 5d2b 2b3e 98a9 773c b204 12bd 0238 723d
00000160: 641e d83c 381f 0f3e c492 b5bd 8f5d 05be
00000170: c20e aebd b86a d1bd c1da 3bbd 4e82 793d
00000180: d1ad 20bd 496a 1bbd 2305 d03d b958 123c
00000190: 7ac4 51bd 4dd8 e83c abde 87bd 2e78 d13d
000001a0: 95d1 84bd 328d 123e 4ecf bebd 6a74 aa3d
000001b0: 37c3 453d 8c17 85bd 4aae 783d d180 05bd
000001c0: fdaa 0ebd 45b8 b4bd eb84 443e 78b8 163d
000001d0: d942 43bd d4c8 f63c b99c 3fbc e3c3 55be
000001e0: 3cf1 2c3d fecd 80bc cd9e e7bc d660 103e
000001f0: efa8 c9bd 7157 80bd 4c26 0cbd eda9 953d
00000200: eb38 b2bc 0e01 88bd b62e 0d3e ad55 c93c
00000210: 4b45 f7bb 8676 f9bd c3b7 27be 6493 12be
00000220: 8b92 64bd bbc3 1f3d 3606 e23d d9ab 50bc
00000230: c57d 7cbd 4ee2 913d 2449 a33d f3f5 293c
00000240: cd92 d0bd 01b5 2b3c 2daa bbbd 01eb 613c
00000250: 021b 21bd 0ae4 d1bd 2d93 863c c598 ff3d
00000260: 364a 093e e3ad 42be c66c e6bd 8811 debb
00000270: aac6 e1bd 2b37 8f3d 3b92 44bc b6a1 2fbe
00000280: ab08 da3d be7b 393d e569 a7bd 21d1 fcbb
00000290: 4663 ccbd c178 6dbd a21a 58bd 9343 9cbb
000002a0: 37ba 15bc 8abb 4e3d c39f 163c a416 203c
000002b0: e49c e63c eec5 ccbd a935 d0bd 0106 ecbb
000002c0: 191b 43bb 83b5 263e f40e 52bc c147 5e3d
000002d0: 2839 38bd a769 8f3c ed15 73bd 5930 e43a
000002e0: cf16 85bd c321 183d 13c5 173d 030b 413b
000002f0: 694a 3eb8 64b0 2ebd cf3c 923d 9a08 1ebe
00000300: 62b1 633d e80b a6bd a44b ea3d a869 933d
00000310: f511 9aba 7ae6 ba3d da45 163d b195 fdbd
00000320: b3d4 8abd 64cc 47bd 6a58 d83d fb9c 003d
00000330: d05c cebd 67cc 69bd c441 fd3d e58c 08bd
00000340: 7474 6dbd 06a1 8cbd 2e15 d73d 7f05 0fbd
00000350: 39dd 0c3e b3f0 b53d 747a 043e f55d 123e
00000360: 6315 90bd 7488 cc3a 7649 3b3c 198a e7ba
00000370: e89f 95bd 14c7 913d 8c76 c33c a635 113e
00000380: d6da be3d b97c 933b 3d6d 10be 3e33 bbbd
00000390: e2f5 073e 96ee e23d f1ee 25be dd47 2a3d
000003a0: d6ba 0d3d 9761 3b3d d56f cfbc cd15 25bc
000003b0: d79e 91be e71d 583d ef9b 18bd dd6e dabc
000003c0: dc7a e0bd 353a f43c 26f3 b5bc 2936 593d
000003d0: 364c 31bd de86 3fbe 75ac 1fbd f06b 833d
000003e0: 710a bcbc 8267 633d 91bd f43b 4a41 fa3d
000003f0: aa90 8fbc 0e35 32bd 57b3 95bc 8638 d13d
-0.013411273 0.037870474 0.01614129 -0.022678388 0.105527036 0.08632827 -0.074025884 -0.07545947
0.010959146 -0.1456644 0.06842502 -0.08266104 0.03851297 0.019839568 -0.19223505 -0.039253656
-0.093340926 -0.10433449 0.085373916 -0.051265962 -0.17699155 -0.00078918465 0.0045876917 -0.0497278
0.07689852 0.19190831 -0.07166512 0.088422455 -0.0014063001 -0.22653668 0.00054232794 0.029257474
0.054824375 0.022622151 -0.06931838 -0.013785772 -0.087446235 0.019458773 -0.007514045 0.054259196
-0.00580929 -0.023555312 -0.08375773 0.11799844 0.07989493 -0.0016330864 -0.08503063 -0.044245746
-0.06278266 0.09483995 -0.002776874 0.12274712 0.09104437 0.13990094 0.06278686 -0.2316893
-0.018546112 -0.09294204 0.027093604 -0.02651865 0.050259907 -0.005480717 -0.056475565 0.06545411
0.11433246 -0.013878324 0.14853814 0.09965216 0.02315279 -0.04020139 0.073960565 -0.036115628
0.10857864 0.034511458 -0.06384331 -0.06488115 -0.011462359 0.008320081 0.104046814 0.0927666
-0.03307369 -0.05641679 0.0014446011 0.01857145 0.1671576 0.015116118 -0.03564901 0.059135444
0.026381679 0.13976753 -0.08865884 -0.13023971 -0.084989086 -0.10225433 -0.045862917 0.060915284
-0.039228264 -0.03794316 0.1015723 0.008932286 -0.051212765 0.028423453 -0.066342674 0.102280006
-0.06485287 0.14311674 -0.09316884 0.083229855 0.048281875 -0.06498632 0.06071309 -0.032593552
-0.034831036 -0.08824209 0.19191329 0.036797017 -0.047671173 0.03012506 -0.01169508 -0.20875506
0.042222247 -0.015723225 -0.028273964 0.1409944 -0.09846675 -0.06266678 -0.03421621 0.073078014
-0.021755656 -0.06640826 0.1378735 0.024576986 -0.007546102 -0.1218081 -0.16378693 -0.14314038
-0.055803817 0.039005022 0.11036341 -0.012736284 -0.06164338 0.07123242 0.07972935 0.01037358
-0.1018425 0.010480166 -0.09163318 0.013788939 -0.039332397 -0.10248573 0.0164276 0.1248031
0.13407215 -0.19011645 -0.11251216 -0.006776992 -0.1102422 0.06992944 -0.011997755 -0.17151532
0.106461845 0.045284025 -0.08174495 -0.00771536 -0.099798724 -0.057976488 -0.052759774 -0.0047687977
-0.009138635 0.05047182 0.009193364 0.009771023 0.028150983 -0.099986896 -0.10166485 -0.007202864
-0.002977079 0.16280179 -0.012820948 0.05426765 -0.044976383 0.017506434 -0.059347082 0.0017409428
-0.06498491 0.037141573 0.03705318 0.0029456026 -4.536883e-05 -0.042648688 0.071405046 -0.15432969
0.055589087 -0.0810774 0.114402086 0.07197887 -0.0011754619 0.09125991 0.03668771 -0.12382067
-0.067788504 -0.048778906 0.10563739 0.03139971 -0.10076296 -0.0570797 0.123660594 -0.033337492
-0.057972386 -0.0686665 0.105020866 -0.03491735 0.13756265 0.088838 0.12937337 0.14293654
-0.07035329 0.0015604631 0.011431089 -0.0017665058 -0.0730589 0.07118049 0.023860238 0.14180622
0.093190834 0.004500952 -0.14104171 -0.09140633 0.1327739 0.11080663 -0.1620443 0.04157244
0.03460201 0.045747366 -0.02532188 -0.0100759985 -0.28441498 0.052762892 -0.037258085 -0.026664192
-0.109609336 0.029812912 -0.022210669 0.053030167 -0.04328557 -0.18703791 -0.038982827 0.06417072
-0.022954198 0.055518635 0.007468887 0.12219484 -0.017525036 -0.04350763 -0.018273992 0.10215859

conv3.bias f4 [32]
00000000: 4509 b9bd 873e f33c c34d 05bc d851 363d
00000010: 89bd 873d 2237 3ebd 7bee 08bd c773 b6bd
00000020: d136 4a3d 6394 f2bd 2896 1abc 4f5a 75bd
00000030: 5985 433d 64c0 a73b 0dd5 d0bd bc96 323d
00000040: 445b cc3c 70f4 7bbd 7e05 693d 5b36 1ebb
00000050: d340 423c 44ab 3cbd 7711 993c 66fd 5d3d
00000060: 0e13 20bd a8fc 85bd 5b3e 033e 3c19 833d
00000070: 0051 b53d 6c27 d73d 492b bebb acc5 74bd
-0.09034971 0.029692901 -0.008136216 0.044511646 0.06627948 -0.046439297 -0.033430558 -0.089088015
0.049368683 -0.11844709 -0.009435214 -0.059900578 0.047734592 0.0051193703 -0.10196886 0.043600783
0.024945863 -0.06151241 0.056890003 -0.0024141285 0.011856276 -0.04606177 0.018685086 0.054196738
-0.039080672 -0.06542331 0.12816755 0.064012975 0.0885334 0.10505566 -0.0058035 -0.059758827

bn1.weight f4 [16]
00000000: b261 853f 93b6 773f e352 803f d989 753f
00000010: 3f87 823f d7ab 753f ac2e 7e3f 2fed 723f
00000020: e552 713f cfcd 853f 3d85 843f aa4f 7d3f
00000030: 301e 7a3f bbb9 853f f73c 723f efc5 783f
1.0420439 0.9676296 1.0025295 0.95913464 1.0197524 0.9596533 0.99289966 0.94893163
0.9426711 1.0453433 1.0353161 0.9894968 0.9770231 1.0447305 0.94624275 0.9717702

bn1.bias f4 [16]
00000000: 19ec 173e f4ba 53bd 84c4 f8bc e878 48bd
00000010: f6cc 0c3b 5eb8 ecbc b053 173c 3285 583d
00000020: 27a7 9dbc 3366 753b 769d fd3b 3ea7 69bd
00000030: 5d70 debc 9eae 13bd 58f9 9abc 0225 97bb
0.14836158 -0.051691964 -0.030367143 -0.04894343 0.002148447 -0.028896507 0.009236261 0.0528614
-0.019244744 0.0037444949 0.007739718 -0.05704426 -0.027153188 -0.0360552 -0.018917724 -0.004612566

bn1.running_mean f4 [16]
00000000: 3d9e 53bd d2a8 63be 16e0 e73d 4245 89be
00000010: d713 9e3e 7e25 77be 6eeb 3abe c72a f23d
00000020: 2c38 763e 1f1e 713e 5ed0 72bb 9676 da3e
00000030: 5f7a 03be 803d 803e bd09 8dbe 4227 c0be
-0.05166458 -0.22232369 0.11322038 -0.26810652 0.30874512 -0.24135396 -0.18253872 0.118245654
0.24044865 0.23546647 -0.0037050466 0.426686 -0.1283965 0.2504692 -0.27546492 -0.3752995

bn1.running_var f4 [16]
00000000: 0c07 d43d 4438 f73e 0713 d23d d7e3 943e
00000010: 22aa e43e 3346 903e 14af 263e 144e 0b3e
00000020: b4aa 683e 13b0 8f3e 0669 653d 0bd3 253f
00000030: 053f 8c3d cb02 4e3e 721f 5f3e 46d6 453f
0.103529066 0.48285115 0.102575354 0.29080078 0.4466105 0.28178558 0.16277725 0.13604003
0.22721368 0.2806402 0.05600836 0.6477515 0.068479575 0.20118253 0.21789339 0.7728008

bn2.weight f4 [32]
00000000: 64d1 743f 8340 813f 5234 853f f38b 813f
00000010: 1295 7c3f 7365 873f 56b8 843f 5910 7a3f
00000020: a8ab 6f3f 3f66 893f 7165 7b3f 348f 7b3f
00000030: 9299 803f d308 733f 1317 7e3f 18b6 6a3f
00000040: 5345 803f 341c 733f d678 813f ade2 833f
00000050: 5950 6d3f 0a1a 803f 8f72 753f 458a 813f
00000060: bab3 7f3f 3deb 843f 28f1 813f fb2d 773f
00000070: 379b 7d3f a5dc 743f 9348 7d3f d000 723f
0.95632005 1.0097812 1.0406592 1.0120834 0.98664963 1.0577835 1.0368755 0.97681195
0.936213 1.0734328 0.9820166 0.98265386 1.0046866 0.9493534 0.9925396 0.91684103
1.0021156 0.9496491 1.0115001 1.0303551 0.92700726 1.0007946 0.9587793 1.0120322
0.99883616 1.0384289 1.015172 0.96554536 0.99064964 0.95649177 0.98938864 0.9453249

bn2.bias f4 [32]
00000000: aa29 07bd d8f1 803b f81e b63c 1b9c 093c
00000010: aafc e3bb 6b9a e9bb 8750 173d 6505 c0bd
00000020: b632 e0bc 013c 2f3d aedf d2bb 3789 b2bc
00000030: eaf1 00bd f3bb f2bc 8d82 70bc 7abd 7fbd
00000040: e5e0 eebc afa4 4ebc 3e88 39bd 8bcd 8dbc
00000050: 8cff 64bd 5fa9 a63b 6bbc e0ba 21c0 993c
00000060: e48f 8abc e89a c6bc a8dd 84bb 33c9 5fbd
00000070: 91a2 b7bc 1eef 63bc 94ac 743c 90c5 8fbc
-0.03299872 0.00393508 0.022231564 0.008399035 -0.00695761 -0.0071290038 0.03694203 -0.09376029
-0.02736793 0.042781834 -0.006435356 -0.021793945 -0.031480707 -0.029630637 -0.014679563 -0.06243656
-0.029159972 -0.012612506 -0.045295946 -0.017309925 -0.05590777 0.0050861086 -0.0017145997 0.018768372
-0.016914316 -0.024243787 -0.004054744 -0.054635238 -0.022416385 -0.01391199 0.014933724 -0.01755026

bn2.running_mean f4 [32]
00000000: 98a4 84bf d633 58bf 4ae2 f23e 4cb7 303f
00000010: 1f17 03bf 261b c23f 4c9a 0b3f fca7 1c3f
00000020: ef0e 2abe 4d66 eabd 6a23 40bf c01f 023f
00000030: a0df c63f 1e4f af3c 120c 2cbf f80a 7abe
00000040: 6b2c b9be 7e37 98be e44f 853f 5615 573f
00000050: 7236 a6bf 325a 73be a4c5 ccbe d90e 4f3f
00000060: daf6 83be 5e3a 9f3f 75ea 273f d714 76be
00000070: b217 4fbf 1cef 2cbe 632f 153f 92e5 4dbe
-1.036273 -0.84454095 0.4743827 0.6902969 -0.51207155 1.5164535 0.54532313 0.61193824
-0.16607259 -0.114452936 -0.7505404 0.50829697 1.5536995 0.02140003 -0.6720592 -0.24418247
-0.361667 -0.29729837 1.0415006 0.8401693 -1.2985365 -0.23764876 -0.39994538 0.8088203
-0.2577427 1.2439687 0.6559213 -0.24031387 -0.8089553 -0.16888088 0.5827543 -0.20107105

bn2.running_var f4 [32]
00000000: f0fd 8140 9d5c 333f 7839 8140 63da 3540
00000010: 0b5b 0840 e625 5040 bf41 0040 f55f ff3f
00000020: 8ccd e13f c004 4140 a6e2 a940 b9ca 4540
00000030: 5fe0 3e40 a60e 3b3f 60ac bb3f f9ef ba3f
00000040: c2fe 683f 75af 0640 aa93 6740 82e2 1940
00000050: 6fe8 1440 92ec a63f 6c13 3940 3849 1240
00000060: bac0 9f3f 03ff 8240 7b5c ca3f ec56 3840
00000070: 9f51 913f 23c2 2a3f 0f6c 1c40 9791 2b40
4.062248 0.7006319 4.038265 2.8414543 2.1305568 3.2523131 2.0040128 1.9951159
1.7640853 3.015915 5.308917 3.0904982 2.9824445 0.73069227 1.466198 1.4604484
0.9101373 2.104459 3.6183877 2.40445 2.3266866 1.3040946 2.8918104 2.285719
1.248069 4.0936294 1.5809473 2.8803053 1.1353034 0.6670248 2.4440954 2.680761

bn3.weight f4 [32]
00000000: e118 553f 1734 5e3f f72d 363f d36a 463f
00000010: ed1b 513f 77d3 603f dc2b 3d3f 9c65 673f
00000020: edd6 4f3f f71d 2e3f 4a0b 673f 976c 523f
00000030: ccd8 5c3f ed99 4f3f 1d17 433f d332 503f
00000040: 0029 4b3f 01ea 4c3f c65d 683f 942e 243f
00000050: 03aa 4d3f a5f4 483f 7ab7 4c3f 5c74 3a3f
00000060: 405b 3f3f 14f8 633f 21f2 4e3f fe36 5e3f
00000070: 3bf5 3c3f f5f4 5b3f 3bdf 503f d9b3 593f
0.8324109 0.8679823 0.71163887 0.7750675 0.81683236 0.8782267 0.7389505 0.9038942
0.81187326 0.6801447 0.902516 0.82196945 0.86268306 0.8109425 0.76207143 0.8132755
0.79359436 0.8004456 0.90768087 0.6413357 0.8033754 0.784983 0.79967463 0.728338
0.7474861 0.8905041 0.8083821 0.8680266 0.7381169 0.8592065 0.8159062 0.8504005

bn3.bias f4 [32]
00000000: 84a4 02be 3d14 cbbd 1c22 12be 0a0b 2bbe
00000010: a9ee 12be 1fec f6bd f39f 71be 26b6 b7bd
00000020: c5a5 e3bd 856a 0ebe 4925 d2bd 3beb 27be
00000030: e796 b8bd 7050 33be 5c00 35be 7225 2cbe
00000040: d036 04be 088f 1dbe b4a5 93bd 8af6 88be
00000050: af23 43be 18e5 51be 34c1 0dbe 5df1 61be
00000060: d18b 59be 285b bebd ae98 21be a3ad efbd
00000070: 9c69 58be 65bc c5bd 0d31 94bd 0391 19be
-0.1275807 -0.099159695 -0.14270824 -0.1670343 -0.14348854 -0.12056755 -0.23596172 -0.08970289
-0.111156024 -0.13907821 -0.10261018 -0.16398327 -0.09013157 -0.17511153 -0.17675918 -0.16811159
-0.12911534 -0.15386593 -0.0720934 -0.26750594 -0.19056581 -0.20497549 -0.13843232 -0.22064729
-0.21244742 -0.092947304 -0.15780899 -0.117030405 -0.21134037 -0.09655074 -0.07235918 -0.14996724

bn3.running_mean f4 [32]
00000000: 256d 69be 2ecd 8b3f 93e5 8d3f 98cb 11bf
00000010: ea43 6abf bcc5 d2bf 71f9 fbbf 6be6 e7bf
00000020: cc3a b33f 242a 1dbf dd5a cbbf 7ecf b2bf
00000030: 6073 a4be 484c 4ebf 15b4 99bf abfb f0bf
00000040: ee9d f9be 7fb7 b5bf 1248 32bf 898d 2abf
00000050: 97ff a4bf 1de6 a2bf 657d 39bf f5e6 16bf
00000060: 0cc7 eebe f8a0 a9bf 6b8f 83bf ae09 39bf
00000070: 845c e5be 3c2e b43f 5671 a8be 52a4 f5bf
-0.22795542 1.0921991 1.1085685 -0.56951284 -0.9150988 -1.6466594 -1.9685498 -1.8117193
1.4002318 -0.61392426 -1.5887104 -1.3969572 -0.32119274 -0.80585146 -1.2008082 -1.8826803
-0.48753303 -1.4196624 -0.6964122 -0.66622216 -1.28905 -1.2726475 -0.7245696 -0.5894616
-0.46636236 -1.3252249 -1.0278143 -0.72280395 -0.44797146 1.407661 -0.32898968 -1.9190772

bn3.running_var f4 [32]
00000000: e76d 7040 d3e2 1141 2f82 7c40 78e8 c140
00000010: 3c76 db40 5cf9 3a41 e34d 8a41 c315 9541
00000020: 95d8 7041 2a2c 1c40 6526 fa40 c517 0341
00000030: 004c c140 ca3d 3d41 ef57 fc40 c0d1 9741
00000040: 7b00 1440 1703 4841 fbce 2f41 7cf5 bd40
00000050: 960e 1c41 0d6d ec40 34c3 9240 08bd f43f
00000060: 5f68 4140 a4a0 2041 74f4 2441 3349 9540
00000070: 14df 8740 ac0e 2f41 5eed a240 f4cf 7a41
3.756708 9.117877 3.9454458 6.0596275 6.858183 11.685879 17.28803 18.635626
15.052876 2.4401956 7.817187 8.193303 6.0405273 11.827585 7.885734 18.977417
2.3125293 12.500754 10.988032 5.9362164 9.753561 7.388312 4.5863285 1.9120188
3.0219953 10.039219 10.309681 4.6651855 4.245981 10.941082 5.0914755 15.67577

fc10.weight f4 [4, 2048]
00000000: 3466 afbc 8d72 c33c f768 453d 2f50 ebbd
00000010: 5b26 993c 7da7 af3c 3b44 40bc 6147 e53c
00000020: 76ad 74bd d77d 5d3d 9580 4ebc fcd5 bc3d
00000030: a221 583d 868a 7ebe 3812 f33d c568 953d
00000040: 7513 983b a072 8bbc afc6 65bc 12ba 94bb
00000050: 72cf 73ba d16c 3dbb 8f32 cebb 78e1 223d
00000060: 143b 213d 5a3e 443c 3eab 98bc f42a 823c
00000070: a8b5 77bc 0ac5 083c b3ac cabb 7f01 873c
00000080: 3ac9 50bd 3b59 d13d 5387 b7bc bf53 28bb
00000090: 0137 1b3d 2507 79bd 4bcb 18bc 4e3b 13bd
000000a0: c2bc 84bc a4ee 65bd 9c15 b1bd 62fb dbbc
000000b0: f5bd d4b8 5f68 3abc 79a3 82bb caec 59bc
000000c0: 3fac 0a3d e950 913d 2cf7 ed3b d47b 233c
000000d0: c83e 3e3c 90dd 9bb9 134c 9fbb f162 c33a
000000e0: c261 6d3d 7405 7d3d 9964 df3c 08ed 6e3c
000000f0: 4fee d2ba 6d9c 1abc dc00 a8bc 42af 79bc
00000100: fc8e 823c 15ec 083d 2cfc 533d 3d0f 2a3d
00000110: c291 41bb d6d9 003d 2fcb ef3c 0689 4b3c
00000120: c849 2f3c 1ecb 223b 7a85 d63c 0f32 6e3d
00000130: 361c a83a 3ede 173d 666b 4d3d 291b 803d
00000140: f259 6e3d 1f8b 1bbd 241c 18bc 6196 513d
00000150: 0964 acbc ce56 163d 7c99 ee3d de8e 013e
00000160: 9694 1cbc 410f 42bc a6f5 dcbb ceb9 243d
00000170: 9099 8a3c 875e 05bc b7bc 79bc aaaa f33c
00000180: bb44 b4bc 79bd d1bc de27 043c 0be5 b33c
00000190: d3a8 fabc dcdb 893c df5c 28bd 49be 863b
000001a0: 3aea a03c 9364 42bd 52d1 1dbd 7bfd a33b
000001b0: 0c49 d8bb 8126 11bd 9eea 82bd c0c9 5dbd
000001c0: b74a e1bc 8569 d8bc 96db 29bd 567c debb
000001d0: 62d7 3dbd 6c56 46bd 1bbe b4bd 722b 62bb
000001e0: dabb 813d 0936 203d 5dde 663d fd62 42bb
000001f0: c39e 963c f546 88bc 8578 e4bc e8a9 9f3c
00000200: 0133 7abd b9c7 6d3c f1ca 99bb 6f1e 8bbc
00000210: 96e4 47bd 8804 5fbc dc29 93bd 2b71 a73c
00000220: 3865 d1bc 88b9 0a3d b0f2 3e3c 8604 11bd
00000230: 965f 5f3d dde3 073c 9f08 4bbc 8382 383e
00000240: 9db4 6fbd d36b b23c e9ae 54bd 9608 0bbd
00000250: 9985 c03d 7d30 963c d0b8 213d 5d22 4b3d
00000260: a30e 41bd c364 ad3c e551 3c3b 098b d1ba
00000270: 270d 1abd 76d5 7a3a c0ef 943c 42e3 1c3c
00000280: 87a8 883d af32 523d c98e 003c 2da4 7d39
00000290: 16b4 e53c 8ede 283c e9eb 7cbd 5887 2fbd
000002a0: 1c1d 12bc 9142 1ebd ed58 3e3d e6b9 3c3c
000002b0: 0e24 bc3c ebef e5bc 0041 3f3c 6c6b e4bd
000002c0: ed6b bbbc 5690 843d 1039 81bc fd48 3abc
000002d0: 97f7 943c 1433 a93c afdc b33c 64e5 103d
000002e0: 43b4 183c 2613 a63c 68b1 843c 29fa 89bb
000002f0: a1e1 9c3b 93f1 8c3c 1c9c ba3c aa04 113c
00000300: 3ec7 14bc ee67 94ba 3847 35bc 04ab 9e3c
00000310: 1255 8b3c 6ce2 1a3d cbc7 213d 1c62 8ebc
00000320: 57e1 b5bc 6803 18bd 798d d8bc edb4 36bd
00000330: a268 c139 430c 5cbb ecf5 fcbb d510 da3c
00000340: b445 cbbc 6d8b 713b 243f 9f3c 8977 2c3d
00000350: 0d57 7c3c 95dd 913c b6cc 973c 927b 3bbc
00000360: 6cbe 913b 5bf1 053c 15f4 76bc 4091 823c
00000370: 24dc e03a 7b8e c5bb 1114 63bc 80b6 733b
00000380: d02e 9d3c 9e51 bab9 d685 0bbb 3d64 9fbc
00000390: a3cc db3c 71fb 30be 1049 39bc 7d6a 9f3c
000003a0: 2936 0abd ff2f 8abc cc97 a93b a61e 0b3b
000003b0: d085 afbc 0ac7 6d3c 0722 943c 1f28 ca3c
000003c0: 8a57 e4bc 81d2 053c 8f9f a73c 7ad0 423b
000003d0: 363f d4bb 7dbf 5a3c e7a2 0c3d 2cab e33c
000003e0: 133d 0dbd 0111 493d 2c5e cfb9 875d 48ba
000003f0: 87a4 c53c bd32 153d f286 123d 2824 433d
-0.021411039 0.023858333 0.048195805 -0.11489903 0.018695047 0.02144217 -0.011735017 0.027988138
-0.059735738 0.05407509 -0.0126038985 0.09220502 0.05276645 -0.2485753 0.11868709 0.07295374
0.0046409913 -0.01702243 -0.014024421 -0.004538783 -0.0009300626 -0.002890397 -0.006292648 0.039765805
0.039362982 0.011977756 -0.018636342 0.015889622 -0.015118994 0.008347759 -0.006185138 0.016480206
-0.050973155 0.102220975 -0.022403395 -0.0025684682 0.037894253 -0.06079783 -0.009325813 -0.03594523
-0.016203288 -0.05613579 -0.086467 -0.026853267 -0.0001014433 -0.011377423 -0.0039867726 -0.013301084
0.033855673 0.070955105 0.007262131 0.009978253 0.011611648 -0.0002972898 -0.0048613637 0.0014906806
0.057954557 0.06177278 0.027269648 0.01458288 -0.001609275 -0.009436709 -0.020508222 -0.015239539
0.01593732 0.03342827 0.05175416 0.04151844 -0.0029536341 0.031457745 0.02927169 0.012422806
0.010698743 0.0024840306 0.026186693 0.05815321 0.001282579 0.03707718 0.05015125 0.062551804
0.058191247 -0.037974473 -0.009284053 0.051168803 -0.021043794 0.036703877 0.116503686 0.12652156
-0.00955691 -0.011844457 -0.0067431508 0.04021626 0.016918927 -0.008140213 -0.015242747 0.029744465
-0.02200543 -0.025603043 0.008066146 0.021959802 -0.03059808 0.01682847 -0.041104194 0.004112039
0.019642938 -0.047459196 -0.0385297 0.0050045825 -0.0066005047 -0.03543711 -0.06392406 -0.054147482
-0.027501447 -0.026417503 -0.04146918 -0.0067897243 -0.046347983 -0.048422262 -0.08825322 -0.0034510759
0.06334658 0.039114032 0.056364406 -0.0029661052 0.01838625 -0.016635397 -0.0278895 0.019490197
-0.061083797 0.01451295 -0.004693382 -0.016982285 -0.04880198 -0.01361192 -0.071857184 0.020439705
-0.02556096 0.033868343 0.011654541 -0.035404705 0.054534517 0.008294073 -0.012392192 0.18018536
-0.058521856 0.02177993 -0.05192462 -0.033943735 0.09400482 0.018333668 0.03948289 0.04959332
-0.0471331 0.021166211 0.0028735336 -0.001598687 -0.0376102 0.00095685513 0.018180728 0.009575667
0.06672769 0.051317867 0.007846543 0.0002418912 0.028039973 0.010306967 -0.06174842 -0.042853683
-0.008918073 -0.0386377 0.046471525 0.011518931 0.022966411 -0.028068503 0.011673212 -0.111533016
-0.022878611 0.064728424 -0.01577428 -0.011369941 0.018184466 0.020654239 0.021955816 0.035375014
0.0093203215 0.020272803 0.016197875 -0.0042107296 0.0047876392 0.017205035 0.022779517 0.00885121
-0.009080706 -0.0011322477 -0.011064343 0.019368656 0.017008338 0.03781359 0.039497178 -0.017380767
-0.022202177 -0.037112623 -0.026434647 -0.044606138 0.00036889786 -0.0033576644 -0.007719746 0.026619354
-0.02481351 0.0036856786 0.019439287 0.042106185 0.015401614 0.017805854 0.018530231 -0.011443036
0.004447749 0.008175219 -0.015072842 0.015938401 0.0017155451 -0.006028948 -0.013859765 0.0037187636
0.019187361 -0.00035537494 -0.002128949 -0.019456977 0.026830977 -0.17283417 -0.011308923 0.019459957
-0.033743057 -0.01686859 0.0051755663 0.0021227985 -0.021426111 0.014512787 0.018082632 0.024677334
-0.027873773 0.008167864 0.020461826 0.0029726312 -0.006477262 0.013351318 0.034335043 0.027791582
-0.034482073 0.04908848 -0.0003955228 -0.0007643331 0.024126304 0.03642534 0.035773225 0.047641903

fc10.bias f4 [4]
00000000: 7e6f 08bb 3e43 273a 881f f9b9 85a1 8bbb
-0.0020818408 0.00063805643 -0.00047516474 -0.004261198

fc11.weight f4 [4, 2048]
00000000: 40c0 40bd fcbd f1bb f736 6eba 301c 7b3c
00000010: 6a57 b13c a2ff fe3c c2ca 1dbd f035 f2bb
00000020: 71ff 3bbc c662 02be bc93 ecbc ca70 643c
00000030: 86c7 9f3c d956 89bd 7492 173c d21b 413d
00000040: 9dfe 853d e807 c0bc 56dc 643c 6ddc 41bd
00000050: 9880 71bd 3c29 a3bd b0e8 a83b da77 093c
00000060: c0c2 8a3d 733b 8bbb 7e3f 2b3c 33d7 6e3c
00000070: 5462 fb3c 2864 bebc 8b02 f7ba 83c3 ca3b
00000080: 7ef8 aa3d 70c7 0ebd ffc2 1abc 5054 5bbc
00000090: b270 3abd 844f 04bd 381a 78bc ce84 89bd
000000a0: 4ab4 00bc d1b8 d6bc a03b 18be 40b4 b3bd
000000b0: 9d9f 66bd f2b2 36bc fe48 b7bc 7752 893d
000000c0: cf63 38bd 0033 6cbd e1c2 e6bc 5bc6 0c3c
000000d0: 5d80 4cb9 5932 3ab9 5ac8 20bc cd7b e4ba
000000e0: a4af 26bd 5197 03bd 6842 6cbd 593b 113d
000000f0: 6ad9 61bc c39d cbbc 07b1 79bc 8d0d 223d
00000100: eef8 083d c315 283c 4e38 9fbb 2104 dbba
00000110: 67e3 fe3c 3a73 933c a940 41bc 8a7b 533d
00000120: 5855 003b e3e3 e93b df1a dc3c 28fa 5a3d
00000130: d39d c13d 9416 013d 19bc d03c 22d4 cfbc
00000140: 56e2 1e3c 6920 9e3c 4bcc dcbc c2c2 8abd
00000150: 4ff2 0cbc 53ad 3cbd 1b34 a53c 0f00 bdbc
00000160: 0efb 373d 1a3a 873c 9be2 2bbd 0186 723d
00000170: 75ac 2c3c 823e 69bd 1875 143c bbc4 edbb
00000180: 298b 113d e1df b0bb 68ec 04bd 11f1 a33c
00000190: fa0b c3bc 373e b8bb 8631 c93c 1521 7d3c
000001a0: d0fc c03b c102 9e3c f679 eb3b 5a93 54ba
000001b0: e349 7f3b 157f eb3b 042b 26bd 5cb4 af3b
000001c0: 6157 1ebd 275e 343d b545 4dbd c9f0 cf3c
000001d0: aff5 f73c 35b4 73bc 9f30 8bbc d266 6cbc
000001e0: f3df abbc 7ef7 d43c 5a88 483c ab77 87bd
000001f0: a0f5 e63c 25ca d9bc cc23 69bd 6c39 1e3c
00000200: 2745 073d 40c7 00bd 7ece 2cbc 4250 63bd
00000210: fd1f 033d 869a 9fbc d3a9 0a3d a255 c1bc
00000220: 9e99 24bc 5b65 9dbd d10c 763d 4849 753c
00000230: f9ca 763b 00e8 a6bc 3d4b 263d 3d2a d1ba
00000240: 803e 8cba ce5a 603c 99a3 b73c 30ac 06bd
00000250: 1210 bdbd e57e 483d f593 8cbd b72b a5bd
00000260: ee5c d6bb b80a 2abb 05ca 643b a0b4 56bd
00000270: a44d 41bd 206b 8ebc b1a6 d0ba a11b c2bb
00000280: f2b3 c03c 6e96 683c 2d2f 813c ed23 8abc
00000290: 301f 7c3d 8ae4 103c 0b99 fdbd 7073 89bd
000002a0: 7919 ec3c dc7f 0e3d 673c e3bc 1da7 1f3d
000002b0: 7939 be3c 2b3f cebc 5a1d 99bc c822 a83d
000002c0: 7c90 e5bb 032d a8bd a3f2 e3bc ffe7 983c
000002d0: 55c5 b5bc df92 333d b51f 9abc 34a6 07bc
000002e0: fbd9 583d 8bd0 8ebb 0f7b 6a3b 83dd 25bd
000002f0: a08b 39bc e907 d4bb 19a4 ae3c 71a9 253d
00000300: 453e 4bbd 4a1d 5cbc edda e7bb 7b6c c53c
00000310: 83d9 bf3a 0e21 47bd 5c04 8abd bbeb 7cbd
00000320: 16df 813c ce8f 1fbd d654 26bd e8a8 7fbd
00000330: 388e 6abd d03f 09bd a322 60bc 90a9 b63a
00000340: dd92 72bc 5c32 63bd 6390 b6bd 4cd7 3bbc
00000350: 2edf c93b 766d 863c 6a6c 34bd 1721 083d
00000360: 9415 d9bc 603c beba 9542 6a3b 20b6 c8bc
00000370: 4e71 42bc 64ba 96bc c7e7 323d 700d cfbc
00000380: 146f 7ebc cf2c 383d 114a 58bc 9098 e2bc
00000390: 44d3 613c e93f 053d 58f2 c43b d98f 083d
000003a0: fc0c b1bc 3ece 34bd 8b10 5dbc e903 b5bc
000003b0: 2bf0 84bd 1325 013d 5c83 713c 9f82 1c3d
000003c0: 7875 52bd 9ed7 86bd e3c8 98bd b449 ddbb
000003d0: e989 153d ffec db3b 6de7 3bbd 9d1f 723b
000003e0: fe55 dfbd 1344 b33c efb4 4bbd 455d 6e3c
000003f0: bf33 4ebd 74c5 0f3b 10c2 03bc 69d5 543b
-0.047058344 -0.007377384 -0.000908717 0.015326545 0.021648128 0.031127755 -0.038523443 -0.0073916838
-0.011474476 -0.12732992 -0.028879039 0.013942907 0.01950432 -0.06706018 0.009251226 0.047145672
0.06542704 -0.02344127 0.013968548 -0.047329355 -0.058960527 -0.07966849 0.0051546916 0.008390391
0.06775427 -0.0042490303 0.010452149 0.014577675 0.030686535 -0.023241118 -0.0018845362 0.0061878576
0.083481774 -0.034858167 -0.009445905 -0.013386801 -0.04551763 -0.032302395 -0.01514297 -0.067147836
-0.007855484 -0.026211174 -0.14866495 -0.08774614 -0.056304563 -0.011151062 -0.022373673 0.06705182
-0.04501706 -0.057665825 -0.028169097 0.0085922135 -0.00019502775 -0.00017757098 -0.009813393 -0.0017431915
-0.040694848 -0.03212673 -0.057680517 0.03545699 -0.013784746 -0.0248555 -0.0152399605 0.039563704
0.033440523 0.010259095 -0.004859007 -0.0016709605 0.031114293 0.01799928 -0.011795201 0.051631488
0.001958212 0.007137762 0.026868282 0.053461224 0.09453931 0.031515673 0.025480317 -0.025369707
0.009697517 0.019302564 -0.026952883 -0.06775428 -0.008602693 -0.046063732 0.020166447 -0.023071317
0.04491716 0.016507197 -0.041964155 0.059209827 0.010539164 -0.056944378 0.00906112 -0.007256118
0.035533104 -0.005397782 -0.032452017 0.02001241 -0.023809422 -0.005622651 0.024559747 0.015449782
0.0058895126 0.019288423 0.0071861697 -0.00081091153 0.0038953952 0.00718678 -0.040568367 0.0053620767
-0.03865755 0.044035103 -0.050115306 0.02538337 0.030268518 -0.014874508 -0.016990958 -0.014428811
-0.02098081 0.02599692 0.01223954 -0.06614622 0.028193295 -0.026585648 -0.056918904 0.009657245
0.033024933 -0.03144002 -0.010547278 -0.05549646 0.03201293 -0.019482862 0.033853363 -0.023600403
-0.010046391 -0.07685348 0.060070816 0.014971085 0.0037657602 -0.020374298 0.040599097 -0.0015958023
-0.0010699779 0.0136935245 0.022416877 -0.032879055 -0.09231581 0.04894914 -0.06864158 -0.080649786
-0.00654184 -0.002594633 0.0034910452 -0.05241835 -0.047193184 -0.017385066 -0.0015918819 -0.005923704
0.023523305 0.0141960215 0.015769565 -0.016862834 0.06155318 0.00884355 -0.12382706 -0.06711471
0.02882074 0.034789905 -0.027738763 0.03897773 0.023220764 -0.025176605 -0.018690754 0.08209759
-0.0070057493 -0.0821171 -0.02782566 0.018665312 -0.022188822 0.04384124 -0.018813947 -0.008279372
0.052942257 -0.0043583564 0.0035778915 -0.040494453 -0.011324793 -0.0064706695 0.021318482 0.040444795
-0.04961993 -0.013434717 -0.0070756585 0.02409958 0.0014636967 -0.048615508 -0.06739113 -0.061748248
0.015853446 -0.038955502 -0.04060825 -0.06241694 -0.057264537 -0.033508122 -0.013680133 0.0013936032
-0.014805523 -0.05546795 -0.08914258 -0.011464905 0.0061606383 0.016409617 -0.044048704 0.033234682
-0.026499547 -0.0014513843 0.0035745252 -0.024500906 -0.011867834 -0.018399425 0.04367807 -0.025274962
-0.015529413 0.044964608 -0.013201253 -0.027660638 0.01378328 0.032531653 0.006010335 0.03334031
-0.021612637 -0.044142 -0.013492714 -0.022096591 -0.06491121 0.031529497 0.014740791 0.038210507
-0.05138156 -0.065840945 -0.07460191 -0.006753171 0.036508474 0.0067116017 -0.045875 0.0036945113
-0.109050736 0.021883046 -0.0497331 0.014548604 -0.050342318 0.002193776 -0.008041874 0.0032475835

fc11.bias f4 [4]
00000000: d06d 9cbc 2da0 94bc f75d a3bc 0616 94bc
-0.019095331 -0.018142784 -0.019942267 -0.018076908

fc3.weight f4 [512, 4]
00000000: 638a 57be eaba 13be 631c b03c 70b1 3f3f
00000010: 04d9 c6bf 12fe bdbd d272 84bf 67e6 b03f
00000020: 9d43 ef3d f3d9 d5bd 9d54 90bc 9ed3 9a3e
00000030: 5047 9ebe 8a07 093f 1d54 043f 4b2e 183f
00000040: eb9c 92bf 900f 61be 3ca0 84be 5bab 953f
00000050: a62f cc3d ff55 ce3e 0258 943f 79ed d83e
00000060: 5a53 88bf 3db7 323f 8fe3 b83e a96e 1b3f
00000070: b685 adbd 2ab6 90bf cd21 a9bd d2c7 d4be
00000080: 60f5 03bc 3f5e 3c3f 2a10 4bbf 5d0d acbe
00000090: b874 79be 96c6 eebe 339d 15be 751f 733f
000000a0: 72af cc3e 9952 6abe 21ea 593d 52da 50bf
000000b0: 22e0 77be c4e6 3c3f c4d0 c13d 41d6 9abf
000000c0: 3722 d63e 0313 8fbe 4e30 68bb 8d4f cebe
000000d0: a14d ccbe 1eb2 dfbf 0780 9abe 091f 5abe
000000e0: eee8 16be 4c45 c73e 42bb 8d3f e241 b9bd
000000f0: f302 41bf 5ea7 053f 4981 27bf 3ce6 13bf
00000100: 6cda bcbe 6dee 4b3f 44ae a23f 79b9 353f
00000110: a2b3 bb3d 164d 22be 6a8b 033f 3ed6 7bbe
00000120: 7b32 463f 270d 49bd 4aa7 e43e 12fd 933e
00000130: 66a3 983e 723d a5bc 9243 913f bdba 353f
00000140: 47af 01bf 7594 eb3c 0c48 8abe c432 24be
00000150: a4b3 a2be 4184 423e d5af 853d faa5 60be
00000160: c01e bcbf 18b5 623e d02f 50be 8a1e 9bbe
00000170: 95b0 59bf 6648 d3bd ccda 8bbe 611e 79bf
00000180: 7945 8b3f 3708 8a3f e19f 5bbf 2e3f 96bf
00000190: 839d 05bf 41b8 e53c e6c8 e63e 73a2 0a3e
000001a0: 1160 923b 8b45 8e3c a096 98bf 254d b13c
000001b0: 3fd5 57bd 2b39 80bd 34da 4abf 0c22 973d
000001c0: 5cbd b2be 3a26 34be bb4a 03bf c4d5 2bbe
000001d0: 7df6 a63e dbb9 943d b153 b43e 49a0 a63d
000001e0: 2ac7 94be 90b7 ea3d 663a 143e 62c3 11be
000001f0: dc67 213f c909 f9be 628d e7bd 113e a9be
00000200: 192d 50be 1ee8 66bf e3d4 b9be 2e45 51bd
00000210: fba1 d2be 7c9d a33e 87ad 4f3f e88b 013f
00000220: 6a80 393f c07f 923e c0de 783f 1d8b c23f
00000230: c6be 84be 5888 fbbd 019b 88bd b98e 97be
00000240: 49ce 163e 22dc c3be 4814 2d3e 9fed 3c3e
00000250: a3c0 e9be 37f1 033e 16c8 1d3f bdc8 853e
00000260: ae18 ee3e c730 8e3e 4ae5 4dbe 5206 2b3f
00000270: a4a3 993e 89fb aa3c 0017 273f 5e44 cc3d
00000280: f111 40bf c210 95be 165b 743f eca8 3bbf
00000290: 5429 893d 67f8 b63e ab8c 1ebf e725 b0be
000002a0: b369 2fbd 72a1 f43e dced 553e 0d07 9abf
000002b0: c71a 88be 713c 93bd eac2 1dbd f782 89be
000002c0: baeb 90be 28eb 15bf ee3c 1abe ac20 0bbe
000002d0: 0382 69be fb73 8c3f 3b2b 1cbc 7e71 94bf
000002e0: 37e5 c1be 0ae6 e0be 7a0d 433c 70f2 2b3e
000002f0: 8e65 39bf 17bc d5bd 5f68 03bf 825f 573c
00000300: 142d 023f 3ecd 063d b36c 88bf d3df 8e3f
00000310: c6fa dabe 11f4 20bf 1100 04be 73e5 87bf
00000320: d323 12be 035a 08be ba0f b3be 2c16 50bf
00000330: a576 0f3d 19b0 333e 2dd0 37bd e660 7ebe
00000340: 359e d2bd cbbb 52bf e747 a1bb f4db 1c3e
00000350: fa4b 213d 60b1 5ebf 813b 633d 7d7d ba3e
00000360: c729 8fbe 5a21 77bd 0432 31be 5353 2c3e
00000370: b68c 88bf 7c9d 713e 19b2 65bf 3689 39bf
00000380: dd86 ca3f 3714 9cbe 407f 83be eb6a 773f
00000390: 9247 563d ff75 173f b505 dbbe 8436 813e
000003a0: 3853 cabe 4aaa 28bf 3dc7 01be d922 04bf
000003b0: 012f 74bf 9f28 c7bf 247b 57be d418 58be
000003c0: e8a5 253f 79ee 863e 761d 0d3f 3c7c 5c3e
000003d0: 5d91 93be 07f9 413f 84e4 9bbe 25c5 7bbf
000003e0: d74b 05bf d3ac 4dbf 8173 90be 9138 a8be
000003f0: ced4 76bf 1e3c 273e 1cf5 3fbe 3ee3 5b3f
-0.21048884 -0.14426771 0.02149791 0.74880123 -1.5534978 -0.09276976 -1.034754 1.3820313
0.11682818 -0.10441961 -0.017618472 0.30239576 -0.30913782 0.5352713 0.51690847 0.5944564
-1.1454138 -0.21978593 -0.259035 1.1692919 0.09970026 0.40299985 1.1589358 0.42368677
-1.0650437 0.6981085 0.36111113 0.6071573 -0.08472769 -1.1305592 -0.082584 -0.415587
-0.008054107 0.7358131 -0.7932154 -0.33603945 -0.24360931 -0.46635884 -0.14610748 0.94969875
0.39977604 -0.22883071 0.0532018 -0.8158313 -0.24206594 0.7378962 0.09463647 -1.2096635
0.4182298 -0.27944192 -0.0035429182 -0.40295067 -0.39902976 -1.7476232 -0.30175802 -0.21300901
-0.14737293 0.38920057 1.1072772 -0.09045769 -0.75395125 0.5220851 -0.6543165 -0.57773185
-0.36885393 0.79660684 1.2709432 0.70986134 0.091651216 -0.15849718 0.51384604 -0.24593446
0.7742078 -0.04908481 0.4465888 0.28904015 0.29812163 -0.020170901 1.1348746 0.70988065
-0.50658077 0.028757313 -0.27008092 -0.1603499 -0.3177768 0.18995763 0.06527678 -0.21938315
-1.4696884 0.22139394 -0.20330739 -0.30296737 -0.8503507 -0.10316543 -0.27315366 -0.9731198
1.0880576 1.0783757 -0.8579083 -1.1738031 -0.5219347 0.02804196 0.45075148 0.13538532
0.0044670184 0.017367145 -1.1920967 0.02164323 -0.0526936 -0.06260904 -0.792392 0.07379541
-0.34910095 -0.17592707 -0.51285905 -0.16780764 0.3260993 0.072620116 0.352201 0.08136041
-0.290582 0.11460793 0.14475402 -0.14234689 0.630491 -0.48640278 -0.113062635 -0.33055165
-0.20329703 -0.9019793 -0.36295232 -0.051091366 -0.41139206 0.3195609 0.81124157 0.50604105
0.7246157 0.2861309 0.9721489 1.5198704 -0.259268 -0.12281865 -0.0667019 -0.29601076
0.14727129 -0.38253886 0.16902268 0.1845002 -0.45654783 0.12884985 0.6163343 0.26129714
0.46503204 0.2777159 -0.20106998 0.6680652 0.3000766 0.020871894 0.6526947 0.099739775
-0.75027376 -0.29114348 0.95451486 -0.7330463 0.06697336 0.3573639 -0.6193339 -0.34403917
-0.042825412 0.47779423 0.20891517 -1.2033402 -0.2658293 -0.07189263 -0.038515963 -0.2685773
-0.28304845 -0.58561945 -0.15062305 -0.13586682 -0.22803502 1.0972894 -0.009531791 -1.1597135
-0.3787019 -0.43925506 0.0119050685 0.16791701 -0.72420585 -0.10436266 -0.5133113 0.013145329
0.50850034 0.032910578 -1.0658172 1.1162056 -0.4276945 -0.62872416 -0.1289065 -1.0616897
-0.14271478 -0.13315587 -0.34972936 -0.8128383 0.035025258 0.17547645 -0.044876266 -0.24841651
-0.10284082 -0.823178 -0.0049219015 0.1531828 0.039379098 -0.869894 0.05547667 0.36423865
-0.2796156 -0.06033454 -0.17304236 0.1682866 -1.0667942 0.23595232 -0.8972488 -0.7247499
1.5822407 -0.30484173 -0.25683022 0.9664752 0.05231435 0.5916442 -0.42777792 0.25236905
-0.39516616 -0.6588484 -0.1267366 -0.51615673 -0.9538422 -1.5559272 -0.21043068 -0.21103221
0.6470628 0.26353815 0.5512308 0.21531767 -0.2882184 0.7577061 -0.3044778 -0.98347694
-0.5206885 -0.80341834 -0.28213122 -0.32855657 -0.96418464 0.16331527 -0.18745846 0.8589362
