saved_models_2D/dataset_noacc/VAE_folds/CVAE2D_4_5_100_200_fold_5.pth (torch, 243348 bytes, 37 tensors)

conv1.weight f4 [16, 1, 3, 3]
00000000: 44be e73d 6b7a d73e 564f 5a3f 13ff 9e3e
00000010: fa3f 82be 8775 dd3e a30a 0abe fdb5 373e
00000020: 789c a43e 4275 6e3f 7b04 26bf a6a3 14bf
00000030: 29ac 8fbd 6335 363e 1569 0fbf fcc1 333f
00000040: 2994 c6bd 5bbb 073e fbca e43e 1224 8e3c
00000050: 65d5 f9be 71a0 67bd 993d ea3e 5c7b 063e
00000060: a7ac 363f 4695 7dbe 8861 80be 385e 28bf
00000070: 0359 e9bd a9e0 1dbe 9540 9c3e a034 74bf
00000080: 6686 71be 84e6 f13d ff5f ac3e 87da e5bd
00000090: 278c fd3e 4442 913e 690b bc3e bba0 e43d
000000a0: 0322 1a3f 55bb 6f3f 9f7b 2cbf e595 553f
000000b0: d364 77be abaa b8bc 806f 253f cb76 bf3e
000000c0: 3738 6e3f e663 e63d 6b6b 023d 928f fb3e
000000d0: eea8 8e3f 9cc7 883e 33ec a9be c930 46be
000000e0: f44a 72be 925f a5bd 0594 a83c a79f 533f
000000f0: 97c5 34bf caae 003e 3081 27bf 73d7 783d
00000100: bcc8 9cbe 0fa2 e93e 9e76 c33e c1b8 da3e
00000110: af63 15bf 531e f1bd d42d 0a3e 168a 413f
00000120: c620 01bf e3fc e43e 45be cdbe 92f6 a7be
00000130: 2bc7 36bf e0e9 03bf 6b4e e0be 09c4 6a3e
00000140: 030b cdbe 938b debe 5a92 42be 7141 183e
00000150: 4f02 57be b8b1 21be 0e2e 1fbe 4df2 1fbf
00000160: e0bf 973e 27ad 263f e2e9 023f 185c a33d
00000170: 0caf 33bf e719 9cbe 249e b8bd 10f2 a83d
00000180: 07cb 653e a311 553f d881 693e 3313 3ebf
00000190: c91d 813e a828 dbbe 54c6 c2be 879f 9bbd
000001a0: 38aa edbe b496 c93e 163f e73d 3a54 6e3f
000001b0: b3d5 6d3e 7be8 a6be c192 afbe 3055 84bf
000001c0: b3a3 7d3d 92a2 da3e 1006 3fbf 4db7 89be
000001d0: 49d9 e03f b233 a53e 1c93 56be 48cf 02be
000001e0: 2bbf a73e 70d3 fcbe b1f3 de3e d3b4 20be
000001f0: 6a86 b4bd 6c44 21bf 50a1 523d 02d2 183e
00000200: 6401 fb3e 8a65 f2bd f424 09bf bb48 353e
00000210: 83ad abbe 52d8 ddbb dea4 fa3e f73b 3cbd
00000220: d7de 63bb 78ab 2bbe cfc6 973f 997f 42bf
00000230: 4d8b bc3c 550b 3ebe 6b26 47bf 4bac 65bf
0.11315587 0.42085585 0.8527731 0.3105398 -0.25439435 0.4325373 -0.1348062 0.17940517
0.32150626 0.9314767 -0.64850587 -0.5806221 -0.07015259 0.17793803 -0.5601972 0.7021787
-0.09696228 0.13255064 0.44686112 0.017351184 -0.4879562 -0.056549493 0.4575012 0.13132995
0.71357197 -0.24763975 -0.2507441 -0.65768766 -0.11393931 -0.15417732 0.30518022 -0.953928
-0.23586425 0.118115455 0.3366699 -0.112233214 0.4952099 0.2837087 0.36727455 0.111634694
0.6020815 0.9364522 -0.6737613 0.83431846 -0.24159555 -0.022542318 0.6462326 0.3739532
0.9305453 0.11249523 0.031840723 0.49132973 1.1145303 0.2671479 -0.33188018 -0.19354548
-0.23661405 -0.08074869 0.020578394 0.82665485 -0.70614 0.12566677 -0.654315 0.060752343
-0.30621898 0.45631453 0.38176435 0.4271908 -0.5835523 -0.11773362 0.13494045 0.7560133
-0.50440633 0.44724187 -0.40184227 -0.32805306 -0.71397656 -0.5152874 -0.43809828 0.22926344
-0.40047464 -0.43465862 -0.19001141 0.14868714 -0.20996974 -0.1579045 -0.15544912 -0.62479097
0.29638577 0.6510796 0.51138127 0.0797655 -0.70188975 -0.30488512 -0.09014538 0.08249295
0.2244073 0.83230036 0.22803438 -0.74248046 0.25218037 -0.42804456 -0.38041937 -0.07598787
-0.4641893 0.3937279 0.112913296 0.9309727 0.23226051 -0.32599244 -0.34291652 -1.0338497
0.061923694 0.42702156 -0.74618626 -0.2689766 1.756631 0.32266003 -0.20954555 -0.12774384
0.32763037 -0.49380064 0.43545297 -0.15693979 -0.088147 -0.6299503 0.05142337 0.14923862
0.49024498 -0.11835773 -0.5357201 0.17703526 -0.33530816 -0.006770172 0.4895391 -0.045955624
-0.0034770274 -0.16764629 1.1857547 -0.7597595 0.023015643 -0.1855901 -0.77792996 -0.89716023

conv1.bias f4 [16]
00000000: 21ae f53c 4dca 70bc bcf9 4bbd 9372 953c
00000010: 008c 6dbc 2d62 e6ba 0df2 52bd 8c89 133d
00000020: 6bba 833c d86d d7ba 434b 7d3d 1e6f 3abd
00000030: 54c0 953a 1f00 043d 20de 12bd f1f0 743c
0.029990258 -0.01469667 -0.049798712 0.01824311 -0.014498711 -0.0017576866 -0.05150037 0.036019847
0.016080102 -0.0016435934 0.061839353 -0.045516126 0.0011425116 0.032226678 -0.035856366 0.014950023

conv2.weight f4 [32, 16, 3, 3]
00000000: a46f d2bd 46c2 2c3e 75ca 0e3e c947 e5bd
00000010: 7e46 04be 9e66 ca3c 53cb 983d f644 eebd
00000020: 1da1 803e 6eb1 01bd 82a8 04be 1935 66be
00000030: 2019 cd3b 92f0 d8bc f3bd 0bbe b746 913d
00000040: 1bd3 cd3c 4db0 273b 4578 823d 0b80 02be
00000050: 37b7 80bb fbef aabd af88 263e 0001 13be
00000060: 8b63 e33b 38f3 50bd f1ed 9c3e 69c7 fb3d
00000070: 4054 17be c864 e8bd 65b0 cd3d 0d3a c83d
00000080: 56db 38bd 734f 7a3d f9ef 7d3d f4f0 8d3d
00000090: 6022 043c 0f1c 8f3a 71ca 33bd fef1 20bd
000000a0: 60a4 173d 3ef3 01be d0d7 9f3d 5c92 0bbe
000000b0: d78e c43c 47df 09be a23c b2be 88e9 7a3d
000000c0: 54c9 ac3c 91b0 fc3b 0402 79bd 9a47 1f3c
000000d0: 3df7 cdbd 2c77 c8bd 5b6d 833c 1c1c 4bbe
000000e0: d133 15be 9f53 673d ecbf 6b3e 2e16 013e
000000f0: 105c 333e 14b4 093c 5cf8 4f3e 53ce 98bd
00000100: 68f9 793d 5999 89bd e247 0bbe f5fb fcbb
00000110: 00ef 0e3e 320e 11be 4517 d53d 54fb 80bc
00000120: 8757 c63d ed94 143e 01f1 a03d 8095 473e
00000130: f079 1cbc a912 9c3c d624 2cbe ef44 4f3e
00000140: 47ef 6fbb ad33 10be d7fc 94bd 9106 673d
00000150: b521 82bb a22a a8bd 774b 7f3b ca6e d4bd
00000160: cedb 2d3c 4356 2cbe 73d7 a6be 28cd 4abd
00000170: cc03 edbc b9a2 8ebc bfe9 6ebe 4f9d 23be
00000180: c93c 9cbd 0aa3 e83d fb58 e3bd 8746 b63d
00000190: 702b 0dbe 0aae 55bd 7a0d d93c 6780 68bd
000001a0: 0e7b 853d 4304 90bd d293 4c3d 69fe 56be
000001b0: 3b27 d4bc 444e 283e 92d7 c7bc 82c3 213d
000001c0: eea6 693d 4ff8 9e3d b93c f03d 3334 11be
000001d0: 6043 1f3d de96 9abd 189c d8bb dfa8 25bd
000001e0: be3a 7c3d f51e 2abe 3afa c03d ae89 f2bd
000001f0: 500c 8f3d d374 3c3b 56a2 26be 4514 c53d
00000200: 927b 8c3d 0329 edbd 0661 193e da54 cb3d
00000210: b672 8dbd 76fa 8abc 8507 bb3b 8556 9f3d
00000220: 323e 27bd 662c b13d 320c 9b3c 28a7 063d
00000230: 9288 68bd ab05 033e da36 1cbe 200f 0dbd
00000240: f223 60bd 37e1 6e3d 6adc 3bbe 06ca 4dbe
00000250: 847c 2abe dcad 2b3e 0720 f4bc 0e1f 27be
00000260: 0596 4a3e df9e 3a3e c0cb 943d 2de9 20bc
00000270: 654d 073e 3b2d e3bd 7fc5 263c 68cc 8ebc
00000280: d751 28bd 6cc7 87bd 80cf 453e 6331 13be
00000290: 77fe 2e3e 4ea1 293e 2d31 043e a7f2 683d
000002a0: d4a4 dc3c b237 143e 17dd 693d 4735 04bd
000002b0: 8851 993e 39aa 303e 34d3 23be 0e2a 343e
000002c0: 0310 333e c00c 8cbe 0458 c8bd 2ca1 b33d
000002d0: cff7 103e a478 68be 3246 903c 5652 593c
000002e0: 8cb7 f4ba a849 973d 662d 82bc f582 90bc
000002f0: dd70 62bd 66e3 ba3d ce0a 463d b729 d5bc
00000300: 4f03 9a3c 64ca c1bd 5fbf 86b9 c5e8 333e
00000310: 977f 60be e9b8 2e3e 73cb 12be 0a0b f43d
00000320: 026b f33c d80a 833d 0533 e03d f57d 703e
00000330: 92e7 b7bd 51d9 3fbe 0fb4 79be b0aa 10be
00000340: bddd 5bbd 5b20 99bc 0f40 72bb 14f2 b8bd
00000350: c35f 28be ffac 7f3d 7130 8e3d e4b6 27bd
00000360: 08c9 05bd 88f9 ba3b cc68 3dbd dc30 7dbd
00000370: 2d57 0e3e ad49 60bd e406 a1bd 3f76 fbbd
00000380: 228c 613d 533e 20be da1e ec3c 3055 693e
00000390: 80b1 b3b9 cd11 59be 4649 443e fc8c 383e
000003a0: d040 eb3c 8315 783d eee2 9fbd bc74 a1bd
000003b0: 1c55 1c3d 9230 553d 1fb0 953d f4c1 d2bd
000003c0: 34f0 283d fdb4 f93d c52f 84bc 8b58 c63c
000003d0: 5aba a0bb 2b1d 73bd 54f4 9cbd d89c 1ebd
000003e0: b59d d23c afb6 07bd f2f4 aabc f49b cf3d
000003f0: 0135 0a3e 85ec 333e 52e3 b1bc 7663 843d
-0.102752 0.16870984 0.13944419 -0.111953326 -0.12917516 0.024707135 0.07460656 -0.11634247
0.2512292 -0.03166335 -0.12954906 -0.22481193 0.0062590986 -0.0264819 -0.13646679 0.07093566
0.025125077 0.0025587261 0.06370596 -0.12744157 -0.003928091 -0.08346554 0.16263078 -0.1435585
0.0069393567 -0.0510132 0.30650285 0.12293894 -0.14778233 -0.113473475 0.1004341 0.09776697
-0.04513105 0.061110925 0.061996434 0.06930724 0.008064836 0.0010918396 -0.043894235 -0.03929328
0.037021995 -0.12690446 0.07804835 -0.1363005 0.023993893 -0.1346408 -0.34811884 0.06125787
0.021092094 0.007711478 -0.060792938 0.009721661 -0.100569226 -0.09788355 0.016043356 -0.19834942
-0.14570548 0.05647623 0.23022431 0.12606117 0.17515588 0.00840475 0.20309585 -0.07461228
0.061028868 -0.06718702 -0.1360164 -0.0077204653 0.13958359 -0.14165571 0.10404829 -0.015744843
0.09684663 0.14509936 0.07858468 0.19490623 -0.009550557 0.019051867 -0.16810927 0.2024114
-0.0036611126 -0.14082213 -0.07274788 0.056402747 -0.0039713033 -0.082112566 0.0038954893 -0.10372694
0.010611488 -0.16829781 -0.3258625 -0.04951206 -0.028932475 -0.017411577 -0.23331355 -0.15977977
-0.07628781 0.11359222 -0.11100956 0.08900171 -0.13786101 -0.05216793 0.026495684 -0.05676308
0.065176114 -0.07032063 0.04994566 -0.20995487 -0.025897613 0.16436106 -0.024394784 0.03949309
0.057043962 0.07762205 0.11730332 -0.14180069 0.038882613 -0.07548307 -0.0066104047 -0.04044425
0.06157946 -0.16613372 0.09422727 -0.118426666 0.0698477 0.0028756156 -0.16272864 0.09623007
0.06859507 -0.11580088 0.14978418 0.099282935 -0.06906645 -0.016965132 0.0057076835 0.07780174
-0.0408308 0.086510465 0.018926714 0.032874256 -0.05677087 0.12795131 -0.15255299 -0.034438252
-0.05472178 0.05832025 -0.183458 -0.20096597 -0.16649061 0.16765541 -0.029800428 -0.1632044
0.1978379 0.18224667 0.07265425 -0.009821218 0.13213117 -0.110926114 0.010178923 -0.017431453
-0.041093674 -0.066298336 0.19317436 -0.14374308 0.17089258 0.16565439 0.12909384 0.056872036
0.026934065 0.14474371 0.057095613 -0.03227737 0.29945016 0.17252435 -0.15998536 0.17594168
0.17486577 -0.27353477 -0.09782413 0.087709755 0.14157031 -0.22702271 0.017611597 0.013264259
-0.0018670424 0.07387096 -0.015890788 -0.01764057 -0.055283416 0.09125404 0.048350148 -0.026020868
0.018800406 -0.09462431 -0.00025701054 0.17569263 -0.21923672 0.17062725 -0.14335422 0.11916168
0.029714111 0.06398553 0.10947231 0.23485549 -0.089797154 -0.18735243 -0.24385093 -0.14127612
-0.053678263 -0.018692186 -0.0036964451 -0.09030548 -0.1644278 0.06242084 0.06942833 -0.040945902
-0.03266242 0.005706016 -0.04624252 -0.061814174 0.13900442 -0.054757763 -0.078626424 -0.12278413
0.05506528 -0.15648775 0.028823305 0.22786403 -0.00034273788 -0.21198197 0.19168577 0.18022531
0.028717428 0.06056739 -0.07806955 -0.078835934 0.038167104 0.052048273 0.07308983 -0.102909
0.0412447 0.12192724 -0.01613606 0.024212142 -0.0049050273 -0.05935399 -0.076637894 -0.038723797
0.025709966 -0.033133205 -0.020868752 0.101371676 0.13496782 0.17570694 -0.02171484 0.06464283

conv2.bias f4 [32]
00000000: 0480 1b3c 25b2 babc b9c2 663d 188b 8dbb
00000010: af5f 35bd a88f 5bb9 9d97 333d 2e64 073c
00000020: 5e7d bb39 a210 de3b 3a2f 91bb 110e a8bc
00000030: 7fee 9c3b df53 c33b affb 983d 69ac eebc
00000040: 3d25 e03c 97b0 3dbc bae8 e3bb 8cb8 2e3c
00000050: 781e 14bc f0c6 eebc b0b6 8f3d 976d 82bc
00000060: 0390 8fbd ac5c 78bc d363 07bd a8ae 95bc
00000070: 9720 8a3d b848 27bd 6285 5cbb 48d2 9cbd
0.0094909705 -0.022790024 0.056338046 -0.00431956 -0.044280704 -0.00020938984 0.04384576 0.008263631
0.00035760825 0.006776885 -0.0044306787 -0.02051452 0.004789173 0.005960926 0.0746988 -0.029134946
0.027361507 -0.011577747 -0.0069552334 0.010664117 -0.009040467 -0.029147595 0.07017267 -0.015921397
-0.0700989 -0.015158813 -0.033054184 -0.01827176 0.06744497 -0.040840834 -0.0033648838 -0.076572955

conv3.weight f4 [32, 32, 3, 3]
00000000: 35e5 9cbd 9fe2 893d f82b b53d d236 893d
00000010: 2ace a03d 9748 53bd f019 00be 9407 88be
00000020: 6c1b f53c 1486 4b3e 8d27 173d 70dd 2c3d
00000030: 4713 2cbd 9fd1 d4bd 6c3d 563c dd7b 8dbd
00000040: 712d 1dbb d540 023c 1dbd f0bd 01a9 083c
00000050: 6a23 3cbe 655e dcbd 68f7 aebd 039c 123e
00000060: e7d8 debd 7d48 f1bd 255e d7bc 7d9e e5bb
00000070: 7af0 88bb ebac 90bc 89b9 58bc be44 ee3c
00000080: 6e90 aebd b35a 473d acb0 a33d 3299 703d
00000090: a5eb 5ebd 4016 45bd f5e3 043e da83 90bc
000000a0: e001 83bd ae72 1f3d 9700 1bbe 66cd 4f3e
000000b0: f906 bd3d 7662 b53d de83 893d e6ed 693c
000000c0: 881e 42bc 78fc 143e f182 90bd fd16 c93d
000000d0: cca4 493d d9a7 dd3d 1c05 7ebd 0c35 35bb
000000e0: 6106 2b3e 672d 6abd bf4c 123d e305 563e
000000f0: 52bd 6f3d b00f 513d 5ca2 8fbc 2433 2a3d
00000100: 854d 9b3d 0459 a53d 3386 893d 9fc6 fcbd
00000110: 22cb 17bc 288f 9c3d 6a26 8fbc e9d3 8f3d
00000120: 8576 403d 49cd 50be cb89 50bd 2514 15bd
00000130: a4d9 3ebd 02a9 9dbd a572 af3c c922 123c
00000140: 4a5a 133e e7eb 91bd f2f9 6bbd 005d 0cbd
00000150: 9688 ccbd 92f6 7dbd 9579 fcbd 7041 8cbd
00000160: 301a ad3d ef5f a83d c212 063e 6f75 0f3e
00000170: 5c7b cbbd 103d 0cbe 84cc 39bd 5b6a 1b3b
00000180: f78f 9d3d 424e 653c 639f 1abe aeb3 b7bd
00000190: 02cd dabc bd37 1a3d 1222 c9bd a267 c1bd
000001a0: 9205 873b 2cd3 cebd 04a5 af3d 217c 273d
000001b0: 902f f43c 2cec febd bac3 80bd 7c81 c9bd
000001c0: e07a 99bd 1779 e3bd a13b 32bd 99b0 133e
000001d0: 8707 863b 64eb 8bbc 3ca6 e9bc 0dca 02be
000001e0: 0ab4 2fbc ebcf 74bd d70b 95bc 0c54 9a3c
000001f0: 00e7 053c 3452 84bd 4e8a 5dbe 1522 a4bd
00000200: be97 4fbd 3418 f5bd 8c39 0dbe 0b0e 8f3c
00000210: 5995 2bbd f716 623d 30b1 bd3c 4b52 793d
00000220: 1995 f73c 4023 fd3d c168 423d 9a7f ce3d
00000230: 7815 4fbc dc6b 61bd 945e 87bd 2a62 80bc
00000240: 47fb c9bb 1508 2dbd b37d ddbd cd7e 07be
00000250: 7947 8f3d 9fb5 403d 3788 ddbd 44bb 3e3d
00000260: 04bc ffbc ff67 2abc 1857 3c3d 32b4 063e
00000270: dd98 8c3d 9249 a23d 544c 8d3d 71ec 633e
00000280: bc59 9c3c 68b1 e5bc 68f8 7cbd fcba f63d
00000290: 94b5 c43d 8cca 0d3d 5238 38bd b403 22bd
000002a0: e3af 173d c80f 0ebe 99ee 0c3e 5dd3 25be
000002b0: 13c4 86bd 7a11 f7bd 2599 cebc c508 903d
000002c0: a6be a23d 35d6 873d 5117 0fba 5c55 2cbc
000002d0: 9bb7 7d3d ad74 053e 0433 73bb 9399 bfbd
000002e0: 24e9 ebbd 33b4 af3d 5acd dabc 8040 ecbd
000002f0: d23c ccbd 80d2 abbd 376a 82bd db8e bbbd
00000300: ac05 f73d cbfd 0ebb 6bc5 bcbd 2754 a7bc
00000310: dd4d d4bd f1a4 b0bc dd36 c23c f2a4 2e3d
00000320: 352a b1bd f0ce dcbb 12b3 51bd 468a 933e
00000330: dfc0 2cbe 8abf 98b9 f4ca d03d e1ea cbbc
00000340: 6b41 08ba 14c7 2a3e 05fc 1ebd 14be cc3c
00000350: 2997 56bd 972f e1bd 4e48 e63d 1667 003d
00000360: 2b15 64bd 21a0 3abd 7cfc 1dbd efd8 21be
00000370: 7ce2 86bd c8f3 833a e036 d9bd 41c9 07bd
00000380: 008e 363e 7940 603d 1270 4b3d fac1 a43d
00000390: 4490 60bd 776c cabd 8bde d7bd d7d6 e3bd
000003a0: eb88 2e3e 028d 8c3e cac5 a2bd d87a 553d
000003b0: a0be abbc 0d06 0fbe c031 1abc 2974 9e3d
000003c0: 64b9 913c 2d17 1e3e 8497 87bc 1734 8bbd
000003d0: 15dd c63c f8c1 cebd 1ed7 31bd 9892 813d
000003e0: 147c 303c f3fa 813d 4786 6c3d bdf9 87bc
000003f0: 875b 5ebd 0d9c 2a3e 29b4 123e 5c84 813b
-0.07660905 0.06732678 0.08846277 0.06699909 0.07851823 -0.0515829 -0.12509894 -0.26568282
0.029920302 0.19875365 0.036902953 0.042203367 -0.04201057 -0.103915446 0.013076168 -0.06908391
-0.0023983384 0.0079500275 -0.117548205 0.008341075 -0.18372884 -0.10760192 -0.08543283 0.14317326
-0.108812146 -0.11781404 -0.026290009 -0.0070074187 -0.0041790577 -0.017660579 -0.013227829 0.029085513
-0.085236415 0.048670482 0.07992682 0.05873985 -0.054423947 -0.048116922 0.12977584 -0.017640997
-0.06396842 0.038927726 -0.15136944 0.20293197 0.092298456 0.088566706 0.06714605 0.014277911
-0.0118480995 0.14549434 -0.07056225 0.09818838 0.04922943 0.1082303 -0.06201659 -0.0027650027
0.16701652 -0.057172205 0.035717722 0.20900683 0.05853016 0.05104035 -0.017533474 0.041552678
0.07583145 0.08073619 0.067150496 -0.123425715 -0.009264739 0.076444924 -0.017474372 0.070228405
0.04698803 -0.2039081 -0.05091266 -0.036396164 -0.046594277 -0.07698251 0.021416971 0.008919426
0.14389911 -0.07125073 -0.057611413 -0.03426838 -0.09986989 -0.062002726 -0.123278774 -0.06848419
0.084522605 0.08221423 0.13093093 0.14009641 -0.09935638 -0.13695168 -0.045361057 0.0023714516
0.07693475 0.013995709 -0.15099864 -0.08969818 -0.026709083 0.037650812 -0.098209515 -0.094435945
0.004120537 -0.100988716 0.08576396 0.040889863 0.029807836 -0.1244739 -0.06287332 -0.0983915
-0.0749414 -0.111070804 -0.043513898 0.14422835 0.004090253 -0.017080016 -0.02852165 -0.12772389
-0.010724077 -0.0597686 -0.018194122 0.018838905 0.0081727505 -0.064609915 -0.2163479 -0.08014313
-0.050681822 -0.11967507 -0.13791484 0.01746275 -0.041890476 0.055197682 0.023155779 0.060869496
0.030222462 0.12360239 0.047463182 0.10082932 -0.012639396 -0.055034503 -0.06609836 -0.015671808
-0.006163988 -0.042244036 -0.10814991 -0.13231964 0.06996054 0.047048207 -0.108169965 0.04656531
-0.031217583 -0.010400771 0.045981497 0.13154677 0.06865094 0.07924189 0.06899324 0.22258164
0.019085757 -0.028038695 -0.061760336 0.12047383 0.09604946 0.034616992 -0.044975586 -0.039554313
0.037032973 -0.13873208 0.13762893 -0.1619391 -0.06580367 -0.1206388 -0.02521951 0.07032923
0.079465196 0.066326536 -0.00054584915 -0.010518398 0.061942678 0.1303279 -0.0037109265 -0.09355464
-0.115190774 0.08579292 -0.026709247 -0.1153574 -0.09972538 -0.08389759 -0.06367915 -0.09158107
0.12061629 -0.0021818753 -0.09217342 -0.02042587 -0.10366414 -0.021563025 0.023707801 0.042637773
-0.086506285 -0.006738536 -0.051196165 0.28816432 -0.1687045 -0.00029134407 0.1019496 -0.024892272
-0.00051977363 0.16677505 -0.038814563 0.02499298 -0.05239025 -0.10995405 0.1124426 0.03134831
-0.05568425 -0.045562867 -0.038570866 -0.1580541 -0.06586167 0.0010067159 -0.1060617 -0.033150915
0.17827606 0.054748986 0.049667425 0.080448106 -0.054825082 -0.09883969 -0.105404936 -0.11124962
0.17044418 0.2745133 -0.079478815 0.052119106 -0.02096492 -0.13967152 -0.009411275 0.077369995
0.017788596 0.15438528 -0.01655174 -0.06797045 0.024275342 -0.1009559 -0.043418042 0.06326789
0.01077177 0.06346693 0.057745244 -0.016598577 -0.054286506 0.16661091 0.14326538 0.003952546

conv3.bias f4 [32]
00000000: 1f5a 483d 9a36 813c f01a f53c b1b5 a0bc
00000010: 40e5 073e eb89 363c 4793 ffbc c989 893d
00000020: e6af 9abc 5d3a 0cbc bf48 94bb 1875 e33c
00000030: e4e8 303c 3e78 6bbc f489 633d 736a 163d
00000040: 71f5 913d bc42 5d3d 2bcb be3c be8b d9bb
00000050: 888c 3ebd cd71 e13b 6003 91bd 0765 9b3c
00000060: ec24 063b b910 163c 99f8 9fbd 872b ac3c
00000070: 06d9 56bd 1864 5b3d 1155 acbc 2f9d 373d
0.04891407 0.015773106 0.029920071 -0.019617887 0.13271046 0.011141281 -0.031198157 0.067157336
-0.018882703 -0.008558837 -0.0045252736 0.027765796 0.010797713 -0.01437193 0.055551484 0.03672261
0.07126892 0.05401872 0.023290237 -0.006638973 -0.04652074 0.006880021 -0.07080722 0.018969072
0.0020468784 0.00915926 -0.07811088 0.02101685 -0.052453063 0.053562254 -0.021036657 0.044827636

bn1.weight f4 [16]
00000000: 3992 843f 1bb0 833f 3e7a 823f 237b 7f3f
00000010: b947 7f3f d54d 833f fc93 813f cf28 823f
00000020: ea22 7d3f 00db 7d3f d82a 813f 592f 6c3f
00000030: 6ec3 773f 7646 743f 1478 7b3f 45db 753f
1.0357124 1.0288118 1.0193555 0.99797267 0.99718815 1.0258127 1.0123286 1.0168704
0.988814 0.9916229 1.00912 0.92259747 0.9678258 0.95420015 0.982301 0.96037704

bn1.bias f4 [16]
00000000: e33f e63b d9eb 363c fb4a 023d 4a34 03bc
00000010: 2318 57bc 814c a93c 2342 c33b 6bde b4bb
00000020: 11cb cfbc 6118 293c 15c0 0d3d 4529 9fbc
00000030: 38cb 813c 0922 d8bc d4bd a53c 5023 d63a
0.007026659 0.011164629 0.03180979 -0.008008072 -0.013128313 0.020666363 0.005958812 -0.0055196784
-0.025365384 0.010320754 0.03460701 -0.019428859 0.015843973 -0.026383417 0.020232119 0.0016337428

bn1.running_mean f4 [16]
00000000: 394c b43e 9bdc 88bc f5fb 623d de6f 46be
00000010: 4ad0 c13e 2f50 113f 862b 6abe 441c 573e
00000020: d400 b9be 7131 cfbd b6b4 3e3e 6cc6 cebd
00000030: 5c72 12bd 7a35 6ebd 0bb6 893c 37f8 62be
0.35214403 -0.016706755 0.055416066 -0.19378611 0.37854224 0.56762975 -0.22868165 0.21006876
-0.36133444 -0.10116852 0.18623623 -0.1009644 -0.035753593 -0.058156468 0.016810438 -0.22164999

bn1.running_var f4 [16]
00000000: 1fd0 fd3e 4e6c 9a3d b593 a33d 49f6 6b3e
00000010: 4e13 453f d26e c23f ca9d 173e 40d1 113e
00000020: f688 283f 2aaa af3d 97e2 c83d 7cd3 8a3d
00000030: faa9 173e 5a1e 533d c168 183d 966d a63e
0.49572846 0.07540189 0.07987157 0.23043169 0.7698258 1.519007 0.14806286 0.14239979
0.65833986 0.08577378 0.098088436 0.06778619 0.14810935 0.051542617 0.037209276 0.32505482

bn2.weight f4 [32]
00000000: b928 7a3f 52a4 7b3f 2d6f 663f d5ab 823f
00000010: 29f1 803f 23e6 773f ed1a 833f ecbd 7e3f
00000020: ee8f 763f 7a98 883f 2d65 6f3f 6234 7f3f
00000030: ef98 803f 542f 7e3f dd06 743f c84c 7b3f
00000040: d328 873f c1bc 803f fb4d 763f 003f 833f
00000050: 47be 803f 3ac8 823f bf98 6e3f 9884 883f
00000060: 2106 7b3f 1487 813f 1d14 7e3f a81a 8a3f
00000070: be4d 773f 1f1b 7a3f 99bb 763f b083 833f
0.9771839 0.9829761 0.9001339 1.0208689 1.0073596 0.96835536 1.0242592 0.9950855
0.9631337 1.0671532 0.93513757 0.99689305 1.0046672 0.99290967 0.9532297 0.98164034
1.0559334 1.0057603 0.9621274 1.0253601 1.0058068 1.0217354 0.9320182 1.0665464
0.98056227 1.0119348 0.9924944 1.0789385 0.96603 0.97697634 0.9638 1.0274563

bn2.bias f4 [32]
00000000: e315 cf38 bfb3 f4ba fb37 5abc c456 20bc
00000010: 3847 21bd 132f 10bc 73a9 a6bb de81 4a3c
00000020: e52a 1dbd 8124 1d3d 6816 543c 780a f33a
00000030: cd44 4d3c 7d74 8a3b 31d5 5b3b dc5c 233c
00000040: ca76 813c eaf5 d43c 3efc 1d3c 82eb e63b
00000050: 1135 38bc 1a99 fa3b f29e 3bbd 4c65 293d
00000060: aabb 21bc 2e28 2bbc 21c6 d1bb 7b64 d43d
00000070: c9f6 1fbd c49e 8cb9 ca44 bcb9 7d7d 193c
9.874606e-05 -0.0018669291 -0.013319011 -0.009786312 -0.03937456 -0.008800286 -0.005086118 0.012360064
-0.038370986 0.03836489 0.012944795 0.0018542549 0.01252861 0.0042253123 0.003354382 0.00997087
0.015803713 0.025996167 0.009642659 0.0070471177 -0.011243121 0.0076476457 -0.04580588 0.04135637
-0.009871403 -0.010446591 -0.0064017926 0.10370728 -0.039053712 -0.0002682117 -0.00035909406 0.009368298

bn2.running_mean f4 [32]
00000000: 98b1 d4be b306 bd3e 7bcc e33c 350c 0c3f
00000010: 4501 123f 2bf5 983e 6d2b 0f3e c587 4e3e
00000020: 25b6 23bf b220 ba3e 612d bb3e 8157 a03d
00000030: 5bed 2c3f e38b e4be cc9d 9d3d e35c 7ebf
00000040: d6d6 823f c5a0 52be 74f9 33bf a6d7 2e3f
00000050: da03 733e c4e4 e93e 0e7a 40be 5af5 783f
00000060: 35a7 63bf b878 2e3f ef40 4b3f 98b5 063e
00000070: 13a7 0fbe a79d b23e d27d 40be 032c 303f
-0.41541743 0.36919174 0.027807465 0.54706126 0.5703319 0.29874548 0.1398141 0.2016898
-0.63949805 0.3635307 0.3655806 0.0782919 0.67549676 -0.44637975 0.07696113 -0.99360484
1.0221813 -0.20569141 -0.7030251 0.68297803 0.23731938 0.45682347 -0.1879656 0.97249377
-0.8892701 0.6815295 0.79395956 0.1315521 -0.14028578 0.34885904 -0.18797997 0.68817157

bn2.running_var f4 [32]
00000000: 2615 3f40 473f 3d3f fc79 883f 0f86 8940
00000010: c2a4 7f3f 44bb a93f e447 4040 8e2c 2740
00000020: 29be ac3f e378 0940 c1da 403f 1c57 513f
00000030: 5470 e33f cc16 2040 6de4 bb3f be57 0a40
00000040: d0e9 4f40 e34a a13f ae50 6840 306b a540
00000050: 474b ed3f 86e1 0040 fb97 5440 ceac f43f
00000060: 4f1f 9540 2d1b bb40 1399 4f40 d309 2f40
00000070: e5f8 a53f df05 ab3f db08 1640 1c7b 0940
2.9856658 0.7392468 1.0662227 4.2976146 0.99860775 1.3260274 3.0043879 2.6120944
1.3495532 2.1480033 0.7533379 0.81773543 1.7768655 2.5013914 1.4679085 2.1616054
3.2486458 1.2600979 3.6299243 5.1693344 1.8538598 2.0137649 3.3217762 1.9115236
4.660072 5.8470674 3.243718 2.7349746 1.2966582 1.3361167 2.3442905 2.148139

bn3.weight f4 [32]
00000000: 3747 453f 4591 433f d493 5c3f 61d2 633f
00000010: 6820 463f 3e2d 6c3f 2b78 6b3f 4e5d 693f
00000020: 2deb 613f 42c3 653f 7bb6 483f 2e3b 4d3f
00000030: 38f2 5a3f 062e 383f 11b0 663f 6316 573f
00000040: acb9 603f fd4d 363f e101 613f a907 453f
00000050: 2631 543f b6c6 6a3f 2218 613f d4c7 633f
00000060: 41e9 673f 899b 573f 59a9 5f3f 4a17 513f
00000070: af2a 403f bd42 503f 9800 5d3f c5b4 303f
0.7706179 0.7639354 0.8616307 0.8899289 0.773932 0.92256534 0.91980237 0.91157997
0.88249475 0.89751065 0.78403443 0.80168426 0.85525846 0.71945226 0.90112406 0.84018534
0.8778331 0.7121275 0.8789349 0.76964813 0.82887495 0.9170946 0.8792745 0.8897679
0.9059029 0.842217 0.8736778 0.8167616 0.7506513 0.81351835 0.8632903 0.6902583

bn3.bias f4 [32]
00000000: 4178 33be 9417 2bbe 031f 13be 623c 68bd
00000010: 12ff 37be 5db0 9ebd c634 a3bd 0b46 80bd
00000020: f9dc debd 773b c7bd ea1d 31be 1d08 4ebe
00000030: ebfc 02be 9e57 c1bd a6cb d4bd f708 2abe
00000040: e5d2 b2bd 7fb9 90be 80ac afbd 13a7 3cbe
00000050: b29a 11be 430c 43bd f0e6 e3bd a8f7 babd
00000060: b583 a7bd 66ae 0ebe 8ae9 f5bd 847f 46be
00000070: c65f 20be 3948 60be 8758 fdbd 7571 5fbe
-0.17526342 -0.16708213 -0.14367299 -0.05669821 -0.17968395 -0.077484824 -0.0796905 -0.0626336
-0.10881991 -0.09728139 -0.17296568 -0.20120282 -0.12791793 -0.0944054 -0.10390405 -0.16604982
-0.08731631 -0.28266522 -0.08577824 -0.18423109 -0.14219168 -0.047619116 -0.11128032 -0.09129268
-0.08179418 -0.13933715 -0.12007435 -0.19384581 -0.15661535 -0.21902551 -0.12370401 -0.21820624

bn3.running_mean f4 [32]
00000000: 1c9d 3f3d 4d45 543f 5306 03c0 a077 f03f
00000010: 9ef3 87be b354 00c0 3418 8c3f 494e 4d3f
00000020: bf6c a0bf ab72 05c0 a3e4 eebf 51dd a1bf
00000030: ebcf d2bf b19d 2cbc a1b5 7a3f 4660 91bf
00000040: 2e2a 03bf 16d9 69bf b54a b7bf 71b6 febd
00000050: 39e1 b4bf 8feb 073f efb3 c13e b53b 08c0
00000060: 9a9e c9bf 9010 53be e39c c0bf cb2e 49be
00000070: db80 0ebe 4294 7dbf 55cf 37be af6c 0cbf
0.04678069 0.82918245 -2.047261 1.8786507 -0.26553053 -2.0051696 1.0944886 0.8019758
-1.2533187 -2.0851238 -1.8663524 -1.2645665 -1.6469702 -0.010535643 0.97933394 -1.1357505
-0.51236236 -0.9134687 -1.4319674 -0.12437142 -1.4131233 0.5309381 0.3783259 -2.1286442
-1.5751526 -0.20611787 -1.5047878 -0.19646756 -0.13916342 -0.9905435 -0.17950185 -0.5485334

bn3.running_var f4 [32]
00000000: 887e 4a40 10c4 cc40 fcdf 9b41 7f14 3841
00000010: 4224 f240 7dae f840 5b9b d440 9bf9 ff40
00000020: 67e7 1041 d937 9941 d6bb 3341 aa1c e140
00000030: e03e 1d41 78f4 8840 35f3 ba40 2449 9c40
00000040: 7116 ed40 ab52 0641 a488 b840 f440 f83f
00000050: d2a3 8040 9966 3e41 c383 d240 6b15 8641
00000060: 39c0 0a41 53d0 7940 3712 3c40 dbc9 8a40
00000070: 8c3e f13f 6cb9 0b41 f9d7 6d40 110a 6640
3.1639729 6.3989334 19.484367 11.505004 7.566926 7.7713 6.6439643 7.9992194
9.056495 19.15227 11.233358 7.034749 9.82785 4.2798424 5.8421884 4.8839283
7.4089894 8.395183 5.76668 1.9394822 4.0199976 11.900048 6.578584 16.760458
8.671929 3.90334 2.9386117 4.3371406 1.8847213 8.732769 3.716307 3.5943644

fc10.weight f4 [4, 2048]
00000000: 855b 893c 7f9f df3a 3165 a13b fe08 a7bc
00000010: d913 9a3d 46a9 c23c cfe3 863d b6f6 353c
00000020: 9871 0fbc b0ad 143e e32e 82bd 82e2 5f3c
00000030: 4991 0cbd 8ebd bfbc f85e 0a3c 3a52 073c
00000040: 7c90 823d 5c4f 7ebd 55e7 423c 282b a4bc
00000050: 5584 4dbc ad79 e6bc 36f2 323c 0597 f43b
00000060: a913 20bd f875 0e3d 5cca efbc d95b 2ebd
00000070: 352b 213c ed0a 0cbc 59a7 bb3c 77d9 aabb
00000080: 0224 bf3c d2e0 813c 5edc 903b 3bc2 80bb
00000090: 800d dabb 86b1 babc 76df bebc 9a90 663c
000000a0: f0ff 203c fd96 46bd 97de da3c 3a6d 10bd
000000b0: ed74 54bd 6537 f83d bec2 c73c 9e43 0d3b
000000c0: 3a61 6a3c f460 afbc 63ed 56bd 8360 9c3c
000000d0: 62be 07bd 6c08 6d3d d67a 113e 9937 9cbc
000000e0: 63ed 54ba 2d6e dbbc bdcc e33c 1cfc 0a3c
000000f0: fd56 b7bc 2c24 57bd 261c 6f3d 49c3 72bd
00000100: 6aab 0ebd 933c 473d d599 f63c bb2a 24bd
00000110: 2f09 c7bc 3cb8 d83c d307 2e3e c13a 473c
00000120: 0796 e2bb 6080 25bd b0b9 9a3d 872e 9c3c
00000130: 8108 533d a468 7abc e774 4f3c 58eb 713c
00000140: 51b0 c6bc d862 0f3c 5905 0bbd 9a58 82bd
00000150: 5936 1b3c f19d 94bd d7a7 f03c 8a03 9bbd
00000160: ed26 b7bc 4dce c83c 00fd 0c3c 1104 a2bc
00000170: 731c e1bb 42e6 7ebc 4ca7 0ebd e166 a1bb
00000180: 84f4 32bc 5ecd af3b efe0 5f3d 20e6 6b3c
00000190: e492 dd3b 906f f238 a6c4 ebbc 568a 893b
000001a0: 99ff 3f3d aab4 993c 4b56 0c3d d57f 6bbc
000001b0: b105 853c ee76 b23d fdb6 623d 4b78 143d
000001c0: dc89 193c 2855 253c 1b23 3ebb 2e7e 78ba
000001d0: d0db d9bb c7ae c2bb 788e a33b 25e5 493d
000001e0: 4b9b e83c dea2 3c3c 3adc e53c 2502 3abd
000001f0: b826 ff3c 53c4 983c bf16 63bb 877b 11bd
00000200: 0fd0 b1bc 10eb 5dbd b93b bdbc 9072 533d
00000210: 73d8 463c a557 3e3c 31d6 853c fd19 05bd
00000220: a17e 24bc a3bb 773c 9327 4abd 4fde b33c
00000230: 95e0 51bc 1de1 b03b 8bae a3bc 99a7 37bd
00000240: e1de 863c 72cf c73b 94ee 9ebc 9eeb 063d
00000250: a18e cd3c 80b7 21bd 7bc2 a9bc 2e03 9d3d
00000260: a153 01bd 0f31 0b3d 1a65 67bd 9e76 bfbc
00000270: 8ecc 283d eeba 843c a302 2c3d 1feb b1bc
00000280: 1999 65ba 3d14 69bd 1721 4cbc e236 bdbb
00000290: 51b8 a6bc 00a3 59bc 624a 01bc bcc4 afbd
000002a0: 7d14 0dbd f09b fcbb 662c a7bc c674 2fbd
000002b0: 3b3e 09bc c25f f33c 902d a7bc 84ee 02bd
000002c0: 7d4f 953c bd68 473d 936d 34bd 8b53 3ebd
000002d0: 44d4 babd 6d3a 1fbc 7c4d f6bc b251 adba
000002e0: c889 cebc 000a a9bb 2933 0a3c 10f9 3abc
000002f0: 8a59 4a3c 60bf 1cbc 2fe6 4cbd ea91 9c3c
00000300: 3af1 1b3d 3524 8fbd 392d 563c 9749 06bd
00000310: 21e4 b33a aacc 9f3d dffe 49bc a5d6 a23a
00000320: 7560 863c 0c4d a63d b25c fbbc 8618 11bc
00000330: 9d71 b33c 7c5f c6bc 6e76 94bd 756f 1f3d
00000340: dca7 fc3c a1e7 c03d ca17 eb3c ecd8 183d
00000350: dcc8 f83b b41d edbc 7dad 663c 7b5c eb3c
00000360: 090b a1bc aefd 9dbc 2db2 9dbd 7f00 ec3c
00000370: 7496 bbbd 9280 5fbd 70b4 00bd 98f9 043d
00000380: 2253 ee3c d919 f6bb d7c7 b03c cbaf 1abd
00000390: 7f9f 9abb e0dd 82bd 67e8 27bd ebf2 82bb
000003a0: 35e8 0d3c e0c0 f6bc 308d 32ba 430c d7bc
000003b0: 6f05 ae3c b82d 64bc d951 6ebc 7149 653c
000003c0: bc1c 8e3c 76bf fbba c016 1d3d f544 503d
000003d0: 24d9 c5bc ba97 08bd d18c 403d 3eaf 723c
000003e0: 3533 cebb 7a20 eabc 5721 1c3d 33da 89bd
000003f0: 5476 e33c 263b a03b a88f 24bc abc2 79bc
0.016767273 0.0017061083 0.004925393 -0.02039003 0.07523317 0.023762356 0.0658642 0.011106184
-0.00875511 0.14519382 -0.06356599 0.0136648435 -0.034318242 -0.023405816 0.008445494 0.00825935
0.063752145 -0.0620874 0.011895974 -0.02004011 -0.012543757 -0.028134191 0.010922005 0.007464292
-0.03908125 0.034780473 -0.029271297 -0.04256806 0.0098369615 -0.008547527 0.022906946 -0.005213912
0.0233326 0.015854273 0.004420801 -0.003929404 -0.0066544414 -0.022789728 -0.023299914 0.014072562
0.009826645 -0.048483837 0.026717467 -0.035260417 -0.05186932 0.12119941 0.024384852 0.0021555196
0.014305407 -0.021408536 -0.052472483 0.01908899 -0.033140548 0.05786936 0.14207014 -0.01906948
-0.00081225316 -0.026785934 0.027807588 0.008482959 -0.022380346 -0.05252473 0.058376454 -0.05926827
-0.034831442 0.048641752 0.03010265 -0.040079813 -0.024296371 0.026455037 0.16995172 0.012160004
-0.0069148573 -0.04040563 0.07554948 0.019065155 0.05152178 -0.015283737 0.012662149 0.014765583
-0.024253996 0.0087515935 -0.033940647 -0.06364556 0.009473407 -0.072566874 0.029376907 -0.075690344
-0.022357428 0.024512434 0.008605242 -0.01977733 -0.0068698465 -0.015557827 -0.034827515 -0.004925594
-0.010922555 0.005365058 0.054657873 0.014398128 0.0067618955 0.00011560239 -0.028780293 0.004197399
0.046874616 0.018762905 0.034261983 -0.014373739 0.016238065 0.0871409 0.055350292 0.036247533
0.009371247 0.010091104 -0.0029012624 -0.00094792515 -0.006648518 -0.0059412452 0.004991349 0.049290795
0.028394362 0.01151344 0.028059114 -0.0454122 0.031146392 0.018648302 -0.003465101 -0.035518195
-0.021705655 -0.05417925 -0.023099767 0.051622927 0.012136566 0.011617576 0.016337486 -0.032495487
-0.010039956 0.01512042 -0.049354147 0.021956591 -0.012809892 0.0053979293 -0.01998069 -0.044837568
0.016463699 0.0060977275 -0.019400872 0.032939546 0.025092425 -0.03948164 -0.020722618 0.07666622
-0.031573895 0.033982333 -0.056492902 -0.02337199 0.041210704 0.016202416 0.041994702 -0.02171856
-0.000875847 -0.056904066 -0.012459061 -0.005774365 -0.02035156 -0.013283491 -0.007891269 -0.08582446
-0.034443367 -0.007709019 -0.020406913 -0.042835973 -0.008376653 0.029708747 -0.020407468 -0.031965747
0.01822638 0.04868387 -0.04404981 -0.04646639 -0.09122518 -0.00971852 -0.030066244 -0.00132232
-0.025212184 -0.005158663 0.008435049 -0.01141192 0.012350449 -0.009567112 -0.050024208 0.019112546
0.03807185 -0.06989328 0.013072305 -0.032785024 0.0013724604 0.078027084 -0.012328832 0.0012423588
0.016403416 0.08120164 -0.030683849 -0.0088559445 0.021904761 -0.024215452 -0.07249151 0.038924653
0.03084176 0.0941918 0.028697867 0.037316248 0.0075923037 -0.028944828 0.014079449 0.028730622
-0.019658582 -0.019286003 -0.077 0.02880883 -0.09159556 -0.054565974 -0.03142208 0.032464594
0.029092375 -0.0075104055 0.021579666 -0.037765305 -0.0047187204 -0.063899755 -0.04099312 -0.0039962432
0.0086613195 -0.030121267 -0.00068112 -0.026250964 0.021242825 -0.013926916 -0.014545881 0.013994561
0.017347686 -0.001920684 0.038351774 0.050847013 -0.024151392 -0.033347823 0.047009293 0.014812289
-0.0062927254 -0.02857994 0.038117733 -0.06731071 0.027766384 0.0048898635 -0.010044016 -0.015244166

fc10.bias f4 [4]
00000000: f792 6bbc 81a4 7939 850b 7cba fcef f5b9
-0.014378301 0.00023807773 -0.00096147537 -0.00046908844

fc11.weight f4 [4, 2048]
00000000: f9ca e7bc 7c98 55bb d2a1 84bd 3e88 06bc
00000010: 5721 333d 6998 e4bc 2d13 583d 4c84 e6bb
00000020: 0f7a 84bc cdfe ba3d d26b 3ebd 68e9 b3bc
00000030: 1efe ae3b 9c6f dab8 022f 14bd 3ab3 c2bd
00000040: 651f d6bc 9373 743d 31c3 83bc 2ef1 203c
00000050: b34b 373d f642 37bc 4c4d f6bc 8057 dcbc
00000060: 0294 97bb 7502 353d 8e8a 293d de34 47bd
00000070: 309a 30bc eb11 2cbd 7dd5 4e3b b4b5 51bb
00000080: 443e a53b b93e b83c 3805 b93c 209a 9dbc
00000090: fa0b 2dbb 838f 59bd 13c7 b13c eafb a5bc
000000a0: 490d 793c 95b8 7bbd 51b1 9b3d 006d 5dbb
000000b0: 321e bcbb 3b27 8f3c c20f 6f3d b236 9b3b
000000c0: 16e7 f43c 9e7f ab3d 5846 02bd c377 22bd
000000d0: dcdf e93c fe6c 9abd a5f5 b53c 4521 f5bc
000000e0: e8de 8d3b 41b8 b73a 3085 6cbd 68e0 c5bb
000000f0: 6ba8 9e3d 0119 6ebd b1a7 f1bc 4156 473d
00000100: 440d 5e3d 8724 37bc 2af7 2abd 7ea8 4e3c
00000110: e434 c6ba 9a4e 5ebc c9f0 b23d a85b 363b
00000120: 8a7d 93bc c84b b9bc 934b 403d 7a48 eb3c
00000130: ae59 06bc 1668 933d 96ba 523c 0c84 e93c
00000140: 5fad 18bb 029f 8e3a 0b5f dabc 1891 ca3b
00000150: 4b28 56bb 305b d43a 368a 58bd 85a4 7fbd
00000160: 37d4 6f3d 275c 253d 13f7 aa3c a3ff 0e3c
00000170: 722f 49bc 4043 6ebc ce92 33ba 304e 20bd
00000180: 911a 803c 1d6b 053d c3e2 763d 8d6b c43b
00000190: 07fb 85bc fab1 003b cf9f 08bb de9c 463d
000001a0: ae6f 713a 3d2b 693c 0c40 053d b81c ac3c
000001b0: 400b 223c 95e4 b53c df23 203c 47b0 2f3c
000001c0: e434 08bb 98a8 95bb a030 eb3c 77f9 163d
000001d0: 12e7 b8bc 2a58 25bd 5f4e bebd 2177 a73c
000001e0: 9c95 04bb df07 88ba d7ac 2abd e149 f1bd
000001f0: dc30 86bd 987f 533d 6988 9abd fa37 cdbc
00000200: ac14 b4bc 847e 023d 72d3 533b 3bdf 58bc
00000210: d879 423c 58f7 babc f10f 233d 6e7f 793c
00000220: 4818 a1bc 7a34 0fbd 4026 73bc f622 8d3d
00000230: 7b36 8bbc 57c3 353c e2b7 dabc 786a 983c
00000240: 5839 203c b669 9d3c 83c5 803c c8af 7cbb
00000250: abd2 d5ba 69c7 aabc fdaf 253d 8fdc eabc
00000260: 4743 cdbc 9406 46bd b13a 41bd 0423 593d
00000270: e013 323d ec28 303a 8388 abbc 64c7 71bd
00000280: 4a13 6ebc 8119 673c c7d3 d0bb f479 7d3d
00000290: 747b 1f3c 1d8c 92bc 4715 6e3d e4d5 5b3d
000002a0: 549d fbbb fc9e c7bc 62dd 94bb fa62 9f3c
000002b0: 34b8 7abc 9087 82bc 3323 08bc 563b b63c
000002c0: 5d1d 543d 0c14 993c 508f 50bd f26a 2c3d
000002d0: b055 eeba f099 a53d a4f2 513d 8665 72bc
000002e0: db45 f63c 1e40 82bd aa43 123e 0b21 283b
000002f0: 9e0c 89bd 6c37 ba3d 091d 8f3c 3fc2 823d
00000300: 11c6 84bc bd73 953c a433 dc3c c825 a6bc
00000310: dc26 b33b e30d b7bc 0f44 093c 765c 7cbc
00000320: 8a7d 3d3b 8d25 323d 88eb b9bc 1ee0 b43c
00000330: d4de 08bc c5b1 8c3c 71ef 883d f948 7f3c
00000340: f0ce 95bd fc00 babd 359e 84bd bd5a d03d
00000350: f148 c33c ccf2 aabc 0ceb d13c 0271 92bc
00000360: f040 04bd 00c9 90bb f0a5 463c a305 323d
00000370: 4bf3 d53c 87b8 723a 6669 a5ba 6977 703d
00000380: 5944 9f3b cb66 93bd ede9 a0bb fe11 e03c
00000390: 21b5 283d e857 16bd 9e26 013d 0782 1cbd
000003a0: 4b76 bdbc 60e4 4f3b 0c98 563b f764 59bd
000003b0: 5b9a e1bc 1f9a a83c 2a0d 4a3c 9e3a 363c
000003c0: a542 223d 786a a5bb e434 c7bb 5cd0 ebbd
000003d0: c3c9 35bd 1156 54bd daf9 d1bc e293 d73c
000003e0: adb8 ec3b a007 23bd a622 1abe 0483 e1bc
000003f0: e2fb a63c dc57 95bd 77df 08be d5be 0e3d
-0.028295027 -0.0032592108 -0.06476177 -0.008211194 0.043732967 -0.027904706 0.052752662 -0.007034814
-0.016171483 0.09130631 -0.046489544 -0.021961883 0.0053403517 -0.00010415839 -0.036177643 -0.09506841
-0.026138017 0.059680533 -0.016084285 0.009823127 0.044749927 -0.011185398 -0.030066155 -0.026897192
-0.004625798 0.044191796 0.0413919 -0.048634402 -0.010778949 -0.042009275 0.0031560354 -0.0031999173
0.005042823 0.022490846 0.022585496 -0.019238532 -0.0026404844 -0.05311538 0.021701371 -0.020261724
0.015200921 -0.061455328 0.0760218 -0.0033786893 -0.0057409042 0.017474761 0.058364637 0.004736745
0.029895347 0.083739504 -0.031805366 -0.039664995 0.028549127 -0.0754032 0.022211859 -0.02992309
0.004329551 0.0014016704 -0.057744205 -0.006038714 0.07746967 -0.058129314 -0.029498907 0.048666243
0.05421187 -0.011178142 -0.04173962 0.012613414 -0.0015121964 -0.013568545 0.087373324 0.0027825627
-0.018004198 -0.022619143 0.046947073 0.028721083 -0.008200092 0.07197587 0.012861868 0.028505348
-0.0023296697 0.0010881128 -0.026656648 0.0061818473 -0.0032677825 0.0016201492 -0.052866183 -0.062412757
0.058551993 0.040371086 0.020869767 0.008727941 -0.012279378 -0.014542401 -0.00068501837 -0.039137065
0.015637668 0.032572854 0.06027485 0.0059942664 -0.01635505 0.0019637332 -0.0020847206 0.048489444
0.0009210062 0.0142315 0.032531783 0.021009788 0.0098903775 0.022203723 0.009774177 0.01072318
-0.0020783478 -0.004567217 0.02870971 0.036859002 -0.02257112 -0.040367283 -0.09292292 0.020442547
-0.0020230776 -0.0010378322 -0.04166874 -0.117816694 -0.06552288 0.051635355 -0.075455494 -0.025051106
-0.021982513 0.031858936 0.0032322076 -0.013236816 0.01186987 -0.02282302 0.039810125 0.0152281355
-0.019664899 -0.034962155 -0.0148406625 0.06891434 -0.016993752 0.011093936 -0.02669901 0.018605456
0.009779297 0.019215446 0.01571918 -0.0038556922 -0.0016313394 -0.02084704 0.04045104 -0.028669624
-0.025056494 -0.048346117 -0.047175113 0.05301191 0.043475986 0.0006719965 -0.020939117 -0.059028044
-0.014530966 0.014105202 -0.006372902 0.06188388 0.009734023 -0.017889077 0.05812576 0.05367078
-0.007678667 -0.024367802 -0.0045429925 0.019456375 -0.0153027065 -0.015933782 -0.008309173 0.02224509
0.051785816 0.018686317 -0.050917923 0.04209418 -0.0018183496 0.08086002 0.05125679 -0.014794713
0.030062607 -0.06359886 0.14283624 0.002565446 -0.0669186 0.09092602 0.0174699 0.06384706
-0.016207727 0.018243665 0.026880093 -0.020281687 0.005467279 -0.022345489 0.008378043 -0.015402904
0.0028913938 0.043492842 -0.022695318 0.022079524 -0.008353908 0.01717461 0.06686295 0.015581363
-0.07314861 -0.09082219 -0.06475488 0.10173557 0.023838492 -0.020867728 0.025624774 -0.017876152
-0.03228849 -0.0044184923 0.0121245235 0.043462407 0.026116988 0.0009259064 -0.0012619912 0.05870763
0.0048604426 -0.071973406 -0.0049106986 0.02735233 0.041188363 -0.036704928 0.03153097 -0.03820994
-0.023127696 0.0031721815 0.0032744436 -0.053074803 -0.027539423 0.020581303 0.01233224 0.011122374
0.03961434 -0.0050480925 -0.006079303 -0.11514351 -0.044381868 -0.05183989 -0.025631834 0.026315633
0.0072241635 -0.039802194 -0.1505228 -0.027528293 0.020383779 -0.072921485 -0.13366495 0.03484996

fc11.bias f4 [4]
00000000: 26f2 3dba 9774 5dbc fde3 5dbc 1bbd 80bc
-0.0007245861 -0.013516567 -0.013543126 -0.015715173

fc3.weight f4 [512, 4]
00000000: af2b f2be ceee 19bf 2083 713f a43f c23f
00000010: b1e1 1f3e a5ba 333f 2f7f c93e 647f 5fbf
00000020: 1c9c e8bd da35 573f 214b 2ebe 6eec c3be
00000030: 2745 d93e 0bce 023f d909 853f fe3d 013f
00000040: 8cbf 9a3e a300 27bf 6415 673f 18a1 6e3f
00000050: 4093 92be f83a 623e 1dd6 3b3f b597 fcbc
00000060: b72a 06bf c5cd 30bd 142d 743e 50e4 9e3e
00000070: 283c f23e 3fd2 f83e 026d 36bf 61e6 9bbf
00000080: 0307 88be 3a53 15bf d14a 4cbf eff8 fd3e
00000090: e5e2 7bbe 11fa cd3e b76d 193f b810 c5bd
000000a0: dad2 8d3f 873f 21bf 5747 343f 6a10 7d3d
000000b0: 9d79 bcbd 6f9c 97be 02d5 1ebf a804 b23e
000000c0: 54fb 3fbf 1828 203e 726b 97bc 2ca1 8abe
000000d0: 3085 8e3e 665b 29be e8d4 98bf 975f 303f
000000e0: bd83 66bf e33e 00bf 2a80 56be c5d5 acbd
000000f0: 2b9f 81bf 5feb d3be 232c 15be c9d7 a8be
00000100: 761a 49be 9d50 083f 39e8 f8be a74b 1fbf
00000110: 0416 6ebd 6977 5b3d 9e8a 4f3e ae6b d53e
00000120: ce5d 33bf eb22 57be b084 1bbf eb92 5fbe
00000130: 2f5d a73e ace4 bbbe c759 a83d 989f dabe
00000140: 401c 713f ec18 113e e1bb c23e 90b8 8c3e
00000150: 3009 b0bf a4c4 cfbe 188b 9dbe ab06 d9bf
00000160: 9a5b a13e c20c 61bd 8516 bc3c 7457 dabd
00000170: 4575 1f3f 7b63 9ebd 0fdc d6be 0f35 95be
00000180: f20c 40bf 7e03 573e c0ae 14be 2f61 39be
00000190: 01e1 f0bd 85ec 16be 2e62 1dbf 816f 13be
000001a0: fafd 673f b9cb bc3d 854d 073e 246e 043f
000001b0: 1680 a3bf 7c30 aebe 0586 82bf fefd dfbe
000001c0: 69a5 eebd 4e0b 94be 4ffa 5b3d 62bc 25bf
000001d0: c2da cd3e c62f 9f3d 27e1 25bd a5ec cebe
000001e0: 7c27 3a3f d577 393f 70ac 123e a6c7 8f3e
000001f0: 1ff5 89bc 81c6 1cbe 0ae5 713d e3cf 933f
00000200: 37c3 913e 96b8 26bf fdc0 473f be0a 9bbe
00000210: 6206 d93e b4a0 a9bd 996c 0e3e 39c8 743e
00000220: c370 08bf f95b 64be 372a 3cbf 989e 25be
00000230: 3e24 653e 67b9 9cbc 7c29 223e df99 153e
00000240: 4627 3a3f 8b5a 69be b6c6 bcbc a5e1 033f
00000250: 91c8 403f 723f 213e 339d abbe 5569 443f
00000260: a08a 17bf ad36 abbc 234d ec3a 1985 79bf
00000270: abc5 0bbf dbb6 20bd 3be4 7ebd 18c6 973f
00000280: 3009 343f 95ff 013f d0c5 143e 4026 d6be
00000290: bda9 41bf 7c48 d23e 40db 2abf e77b 5b3f
000002a0: 2543 03bf e701 24bf b37c bebe 9f5a 2ebe
000002b0: 50bb b7be 8bc9 0b3f e394 58be 9583 ac3d
000002c0: 5739 fbbe 2e4a 093f 6d7e 15be 8ba4 17bd
000002d0: 4fb4 f73d 12e4 7dbd 5e90 a53d 4bbe fcbd
000002e0: fc0c 5b3e 47dc f8be 8128 75bf 8c39 9e3f
000002f0: e6b6 c1be 74d9 98bf 9308 553f 7183 1fbf
00000300: fade 88be 5dc3 0bbf 2dfc 92bd 9251 1a3f
00000310: d33f 37bf ae51 21bc d556 01be 18a6 37be
00000320: ba54 f63e b40b dbbe 5db4 cf3e e084 f23d
00000330: b90e 32bf 77e1 dabe dc1b af3c 17bb 0ebe
00000340: d1ba 3a3e f0f5 cfbf 0d4b c23d f285 593e
00000350: b791 e53d da71 5c3f 354f 1e3d bd5a 99be
00000360: 5c50 d3be 3815 2e3f 82fe 7e3e d2ce 1ebe
00000370: b475 a7bf ae47 7b3f 8898 c63e 84fb 323e
00000380: 73a8 0dbf 4920 063f 1a1f 1c3e 16cf c13c
00000390: 439e 643f 2513 dcbe 9e7f 783e 2a6e b5be
000003a0: 4886 343f c218 57bd e596 abbd 250f 0f3e
000003b0: 8a70 3fbf 741c d1bf 48ec 663e fe0e 023e
000003c0: aad4 3a3f 8a43 cebe 76dd 39be acb8 633e
000003d0: 9068 b23e 8d9a 6bbd ccbd 053c f5cb 4dbe
000003e0: 4a27 c43e b3ec 833f 99f5 6b3d 6232 213f
000003f0: 130a b03f 9771 c1be 42b6 8c3f 438e 07be
-0.47298953 -0.6013001 0.94340706 1.5175672 0.15613438 0.7020667 0.39354846 -0.8730376
-0.113579005 0.84066546 -0.17020847 -0.3826632 0.42435572 0.51095647 1.039363 0.5048522
0.30224264 -0.65235347 0.90267015 0.9321456 -0.28627968 0.22092807 0.73373586 -0.030834058
-0.5240893 -0.043164987 0.23845321 0.31033564 0.4731152 0.48597905 -0.7126008 -1.2179681
-0.2656785 -0.5833012 -0.7980166 0.49603984 -0.24598272 0.40229848 0.59933037 -0.096223295
1.1079972 -0.6298756 0.70421356 0.06178323 -0.092028834 -0.29611537 -0.62043774 0.34769177
-0.7499287 0.15640295 -0.018483851 -0.2707609 0.2783599 -0.16538772 -1.1939974 0.6889586
-0.90044767 -0.5009596 -0.20947328 -0.08439211 -1.0126699 -0.4139051 -0.14567618 -0.3297713
-0.19639 0.53248006 -0.48614672 -0.6222481 -0.058126464 0.053580675 0.20267722 0.41683716
-0.7006501 -0.21009414 -0.6074934 -0.21833389 0.3268828 -0.366979 0.08220249 -0.42699885
0.9418373 0.14169663 0.38033965 0.2748456 -1.3752804 -0.40579712 -0.30770183 -1.695516
0.315152 -0.054943807 0.022959957 -0.106612116 0.62288314 -0.07733818 -0.41964766 -0.29142043
-0.7501975 0.20997426 -0.14519787 -0.18103479 -0.11761666 -0.14738663 -0.61477935 -0.14398004
0.9062191 0.092185445 0.13213165 0.5173056 -1.2773464 -0.34021366 -1.019715 -0.43748468
-0.11652643 -0.28914875 0.05370551 -0.64740574 0.4020596 0.07772784 -0.040497925 -0.4041492
0.727165 0.72448474 0.14323592 0.28082007 -0.016840516 -0.15310098 0.05905632 1.1547817
0.2846925 -0.65125406 0.7802885 -0.30281633 0.42387682 -0.08282605 0.13908614 0.23904504
-0.5329706 -0.2230071 -0.73501915 -0.1617378 0.22377107 -0.019131375 0.15836138 0.14609478
0.72716177 -0.22788446 -0.023043972 0.5151618 0.7530604 0.15746859 -0.3351837 0.76723224
-0.591959 -0.020900095 0.001802836 -0.97468716 -0.5459849 -0.039236885 -0.062229376 1.1857328
0.7032652 0.5078061 0.14528584 -0.41826057 -0.75649625 0.41070926 -0.667408 0.85735935
-0.5127433 -0.640654 -0.37204513 -0.17026757 -0.35885096 0.54604405 -0.21150546 0.08423535
-0.49067184 0.53628814 -0.14599009 -0.037022155 0.12094938 -0.061985083 0.080841765 -0.12340983
0.21391672 -0.48605558 -0.9576493 1.2361312 -0.37834853 -1.1941361 0.8321621 -0.6230994
-0.26732618 -0.54594976 -0.07177005 0.60280716 -0.71581763 -0.009846134 -0.1263078 -0.17934453
0.48111516 -0.42782366 0.40567294 0.1184175 -0.69553715 -0.4275014 0.02137559 -0.13938557
0.18235327 -1.6246929 0.09486971 0.21242502 0.112094335 0.86111224 0.038649756 -0.2995204
-0.41272247 0.6800113 0.24901775 -0.15508583 -1.3082795 0.9815625 0.38788247 0.17478758
-0.5533516 0.52393013 0.1524624 0.023658317 0.8930399 -0.42983356 0.24267432 -0.3543561
0.70517397 -0.052513845 -0.0837839 0.13970621 -0.74781096 -1.6336808 0.22551072 0.12701032
0.7298075 -0.40285903 -0.18150887 0.22238415 0.348454 -0.057520438 0.008162927 -0.20097335
0.38311225 1.030661 0.057607267 0.62967503 1.3753074 -0.37781975 1.0993121 -0.13237862
