saved_models_2D/dataset_noacc/VAE_folds/CVAE2D_4_5_100_200_fold_2.pth (torch, 243348 bytes, 37 tensors)

conv1.weight f4 [16, 1, 3, 3]
0	0x3e650f84	0.223692
1	0xbf2f2f3f	-0.68431467
2	0x3f35037a	0.7070843
3	0xbf008312	-0.502
4	0xbe0a87f0	-0.13528419
5	0x3f2f6eaa	0.68528235
6	0x3e8c0efe	0.27355188
7	0xbedac9c3	-0.42732057
8	0xbf767034	-0.9626496
9	0x3f565152	0.83717835
10	0xbc6de740	-0.014520466
11	0x3ed88cb7	0.42294857
12	0x3e22f1ef	0.15912603
13	0xbd45d0b2	-0.04829473
14	0x3e34ede8	0.17668879
15	0x3f134024	0.57519746
16	0x3e849e5f	0.25902078
17	0xbe295aab	-0.16538493
18	0xbe1f4252	-0.15552643
19	0x3c84181a	0.016124774
20	0xbd5b8c6a	-0.053600706
21	0xbe28f20a	-0.1649858
22	0x3d93acdb	0.07210704
23	0x3f86d15e	1.0532644
24	0x3f4e43af	0.80572027
25	0x3eb9215f	0.36158273
26	0x3f8d9d34	1.10636
27	0x3da8a0fd	0.08233831
28	0xbeac6172	-0.33668095
29	0x3f828ab5	1.019858
30	0xbe66905d	-0.22516008
31	0xbe83788a	-0.25677902
32	0xbee8ead0	-0.45491648
33	0x3d13c972	0.036080785
34	0xbfb8c7b5	-1.4435946
35	0x3f3e97ec	0.74450564
36	0x3e61b4c8	0.22041619
37	0xbe89507a	-0.2681921
38	0xbee27afe	-0.4423446
39	0xbd26b6ed	-0.040701795
40	0x3daaaa3f	0.08333253
41	0x3e858ac1	0.26082423
42	0x3f3f0e0a	0.74630797
43	0x3f6d9aaf	0.92814153
44	0xbef81bca	-0.484587
45	0xbdda07c4	-0.106460124
46	0xbe141dc4	-0.1446448
47	0x3e514cdf	0.2043948
48	0xbe419f53	-0.18908434
49	0x3dabd620	0.083904505
50	0xbef3a24f	-0.4758477
51	0x3e9a9025	0.301881
52	0xbe6fcc52	-0.23417786
53	0xbe6f2d16	-0.23357043
54	0xbe9fa336	-0.31179208
55	0xbea32b9a	-0.31869203
56	0x3d1dc2fe	0.038516037
57	0xbce9cdd9	-0.028540539
58	0xbf87ec83	-1.0619053
59	0xbe2cc9af	-0.16873811
60	0x3f03c498	0.51471853
61	0xbede7b41	-0.4345341
62	0xbf380765	-0.71886283
63	0x3eebc020	0.46045017
64	0x3f6a5cbf	0.9154777
65	0xbd070be5	-0.032970328
66	0x3c5933df	0.013256996
67	0x3e5055e7	0.20345269
68	0x3c2823d7	0.010262451
69	0xbea9440a	-0.33059722
70	0x3e9ba7ef	0.3040156
71	0x3deb0804	0.11476138
72	0xbe355832	-0.17709425
73	0x3ce90bc8	0.028448
74	0xbe22b9fb	-0.15891258
75	0xbf06e016	-0.5268568
76	0x3e4a2ee9	0.19744457
77	0x3dff4e48	0.12466103
78	0xbf8faa90	-1.1223927
79	0xbdf864a4	-0.12128571
80	0xbe5c1097	-0.21490704
81	0xbf4783aa	-0.7793528
82	0xbe9aa116	-0.30201024
83	0x3ef8a1d6	0.4856097
84	0xbed1480b	-0.40875277
85	0xbe90a1e7	-0.28248522
86	0x3e707fe9	0.23486294
87	0x3e71e2d7	0.23621689
88	0xbd9767f9	-0.07392878
89	0x3ec12b0c	0.37728155
90	0xbf075407	-0.5286259
91	0xbdd65b10	-0.104665875
92	0xbe7b575c	-0.24545044
93	0xbec68c18	-0.38778758
94	0x3d9be418	0.07611865
95	0xbe0e7dbf	-0.13915156
96	0x3ecbbcf4	0.39792597
97	0x3ec52950	0.3850808
98	0x3f0b68cc	0.5445678
99	0xbc7f1f7e	-0.015571473
100	0x3d87ce49	0.06631143
101	0xbeacc6c6	-0.33745402
102	0x3def9075	0.11697475
103	0xbe54374f	-0.20724224
104	0xbef71f9a	-0.48266298
105	0xbd58abbf	-0.052898165
106	0xbeae14c3	-0.34000215
107	0xbee0b8ae	-0.438909
108	0xbeb2859f	-0.3486757
109	0xbe965dc4	-0.29368412
110	0x3eeebeaf	0.46629855
111	0x3ee11a07	0.4396517
112	0x3e587da0	0.21141672
113	0x3d64d4fe	0.055867188
114	0x3ea5856e	0.3232836
115	0x3f54e08e	0.83155143
116	0x3eb9447d	0.36185065
117	0x3e40acbf	0.18815897
118	0xbeb86042	-0.3601094
119	0xbeda26c4	-0.426077
120	0xbf14999f	-0.5804691
121	0xbe82d02d	-0.2554945
122	0x3eb64648	0.35600495
123	0x3f5cebb4	0.86297154
124	0x3f1da443	0.6157877
125	0x3ee052da	0.4381321
126	0x3dfcf40c	0.12351236
127	0x3eff3b67	0.49850008
128	0xbd828cc1	-0.06374503
129	0x3eb3125a	0.3497494
130	0xbedb6c23	-0.4285594
131	0x3e62cf33	0.22149353
132	0x3f687ecb	0.9081847
133	0x3e001a2b	0.12509982
134	0xbec313f4	-0.3810116
135	0x3f4395c5	0.76400405
136	0x3ef223af	0.4729285
137	0xbf237468	-0.63849497
138	0x3f1f8bc6	0.6232265
139	0x3fa94eb8	1.3227148
140	0xbf13b961	-0.5770474
141	0xbce266c9	-0.027636902
142	0x3ee6cd66	0.45078582
143	0xbd7c66f5	-0.061621625

conv1.bias f4 [16]
0	0x3a867417	0.0010257986
1	0x3c88916c	0.016670905
2	0x3d0d0beb	0.034435194
3	0x3c1688b3	0.009187865
4	0x3bc7e876	0.0061007096
5	0xbc6e44c3	-0.014542761
6	0xbbb8dc07	-0.0056414637
7	0xbd116fa7	-0.03550687
8	0x3c4baaed	0.012430889
9	0xbd3e5bbd	-0.046474207
10	0x3cea91a2	0.028633896
11	0xbd08822e	-0.033327274
12	0x3d6807c9	0.05664805
13	0xbc9a02a5	-0.01880009
14	0xbb08acc8	-0.0020854939
15	0x3c1426e7	0.009042478

conv2.weight f4 [32, 16, 3, 3]
0	0x3d0e2615	0.034704287
1	0x3e2aa740	0.16665363
2	0xbd4828a4	-0.048866883
3	0xbe1736c1	-0.1476698
4	0x3d9f6243	0.07782414
5	0xbd7f77da	-0.06237016
6	0xbdd08b9f	-0.101828806
7	0x3ce8820c	0.028382324
8	0xbde6673a	-0.11250158
9	0xbdd21f8e	-0.10259925
10	0xbe082d78	-0.13298595
11	0xbe00dbe0	-0.12583876
12	0xbcdf4dcd	-0.027258778
13	0xbdc66def	-0.09688937
14	0x3e26b4fe	0.1627998
15	0xbe0b0bf1	-0.13578774
16	0xbe26c797	-0.16287075
17	0x3b6b2e31	0.0035885687
18	0xbc291f7c	-0.010322448
19	0xbe3e8cf9	-0.18608464
20	0x3d21296a	0.039346136
21	0xbe0d158c	-0.1377775
22	0x3e05467a	0.13015166
23	0x3db13548	0.08652741
24	0xbcaf9473	-0.02143309
25	0x3d678aa5	0.056528706
26	0x3e3b4dbd	0.18291374
27	0x3d620aa1	0.055185918
28	0x3dca826c	0.09888157
29	0xbd5a46ed	-0.053290296
30	0x3e1d2a22	0.15348104
31	0x3cc62d19	0.024191426
32	0x3dfcfb32	0.12352599
33	0xbe0dfb3a	-0.13865367
34	0xbcb29e43	-0.02180398
35	0x3c2d950a	0.010594616
36	0x3deeb330	0.11655271
37	0xbd92a36f	-0.07160079
38	0xbd3ff965	-0.0468687
39	0xbe5f39e4	-0.21799427
40	0x3c1d0b8f	0.009585275
41	0xbc52c7a0	-0.012864977
42	0xbdb7b691	-0.08970369
43	0x3bcfcc9d	0.0063415305
44	0x3de22f0f	0.11044132
45	0x3d4c2e0c	0.0498486
46	0xbda3591d	-0.079759814
47	0xbe4f5bb4	-0.20249826
48	0x3dee3c5f	0.116326086
49	0xbdbbd129	-0.091707535
50	0x3d91917a	0.071078256
51	0xbe33a526	-0.17543468
52	0x3dc88773	0.0979146
53	0x3e01825b	0.12647383
54	0x3e3bfcfc	0.18358225
55	0xbd9b7ebc	-0.07592532
56	0xbca5865c	-0.02020567
57	0x3db25d65	0.0870922
58	0xbdf92a24	-0.12166241
59	0x3e0bb6f4	0.1364401
60	0xbdd5d404	-0.104408294
61	0xbca5bbb0	-0.020231098
62	0xbe3d7c43	-0.18504433
63	0x3d9a4c26	0.075340554
64	0x3d7bda09	0.06148723
65	0xbce8b289	-0.028405445
66	0xbc4f0a9c	-0.012636807
67	0x3db4e2ae	0.08832298
68	0x3e1073a7	0.14106618
69	0x3deebf56	0.11657588
70	0x3e3bf1cc	0.18353957
71	0xbc95fa39	-0.018307792
72	0x3dbc6157	0.091982536
73	0x3df9b9dc	0.12193653
74	0xbd66b1b3	-0.05632181
75	0x3dcc8942	0.09987117
76	0xbe104365	-0.14088209
77	0xbc9905cb	-0.01867952
78	0xbe010c34	-0.12602311
79	0xbded7a6a	-0.11595614
80	0xbe1a1c46	-0.15049848
81	0x3da11ae8	0.0786646
82	0x3b20e5ce	0.0024551037
83	0x3e14606b	0.14489906
84	0x3c441b17	0.011969349
85	0xbdb0c30f	-0.086309545
86	0x3e3d6d98	0.18498838
87	0x3df740af	0.12072884
88	0xb9c99e14	-0.00038455485
89	0x3d7957d7	0.060874786
90	0x3da227ff	0.07917785
91	0xbd6f9881	-0.05849505
92	0x3dfcc9a2	0.12343146
93	0x3dc888f8	0.0979175
94	0x3d5f0911	0.054452006
95	0xbdb00e6d	-0.085965015
96	0x3df2d11d	0.118562914
97	0x3e1a833d	0.15089126
98	0x3edd80b5	0.43262258
99	0x3a1c1984	0.000595473
100	0xbd0a080a	-0.033699073
101	0x3ce5cd85	0.0280521
102	0x3d1ccd02	0.03828145
103	0xbdea17a8	-0.11430293
104	0xbe4e3764	-0.20138317
105	0x3df2a72b	0.11848291
106	0x3df037d9	0.11729402
107	0x3e3c1359	0.18366756
108	0x3ca6e0ee	0.020370927
109	0xbd47f2bb	-0.04881547
110	0x3e08e51e	0.13368651
111	0x3d2392a8	0.039934784
112	0x3e10d4b9	0.14143647
113	0x3dd8fdf0	0.1059531
114	0x3e72967b	0.23690216
115	0x3cd335bd	0.02578246
116	0x3c34fd5b	0.011046733
117	0xbdff63ec	-0.124702305
118	0xbc95a4be	-0.018267032
119	0x3ddcc498	0.10779685
120	0xbd59a8f0	-0.053139627
121	0x3c8e7a4b	0.017392298
122	0xbcd804b0	-0.026369423
123	0x3e31192c	0.17294759
124	0xbdf0ee49	-0.11764199
125	0x3a27854a	0.0006390406
126	0xbda8ef6d	-0.08248792
127	0xbe31f8ae	-0.1738002
128	0x3cd1eabc	0.025624625
129	0x3b3c1717	0.0028700286
130	0xbe1d30d7	-0.15350662
131	0x3e384794	0.17996055
132	0xbdb8e1d7	-0.090274505
133	0x3c3238d4	0.010877807
134	0x3dd5a46d	0.10431752
135	0xbdb57861	-0.08860851
136	0xbdbb6312	-0.091497555
137	0x3de2bf3c	0.11071631
138	0xbd71f6ec	-0.059073374
139	0xbd94ec65	-0.07271651
140	0xbd1cc45d	-0.038273204
141	0x3da9b6e2	0.08286835
142	0x3e3602eb	0.1777455
143	0x3e246e87	0.16057788
144	0x3e1819e6	0.1485363
145	0x3e2f8f1f	0.1714444
146	0x3c4b185e	0.012395946
147	0x3dd3c516	0.103403255
148	0x3e88a3bb	0.26687416
149	0x3e04b296	0.1295875
150	0x3e39c342	0.18140891
151	0x3e887bd2	0.26656967
152	0xbe1beac8	-0.1522628
153	0xbe14ef0b	-0.14544313
154	0x3cd261b6	0.025681358
155	0xbd2c6ac9	-0.042094026
156	0xbdaf6ff8	-0.08566278
157	0xbcf10631	-0.029421898
158	0x3e3a37fd	0.1818542
159	0x3e1b5a0b	0.15171067
160	0xbeb5d5b8	-0.35514617
161	0xbd8f9430	-0.070106864
162	0xbc716091	-0.014732496
163	0xbccca5a8	-0.024981335
164	0x3dd4ed3a	0.1039681
165	0xbe148916	-0.14505419
166	0xbde6d884	-0.11271766
167	0xbe17d137	-0.14825903
168	0xbd33c27b	-0.043886643
169	0x3d109454	0.035297707
170	0xbc985179	-0.018593537
171	0x3e663a84	0.2248326
172	0xbe2b6570	-0.16737914
173	0xbe18dd97	-0.1492828
174	0x3d15078b	0.036384147
175	0x3d918c44	0.07106832
176	0x3ccd95c2	0.025095824
177	0x3e925e2e	0.28587478
178	0xbd891f40	-0.066954136
179	0x3cfcfefc	0.030883305
180	0xbd6c69d7	-0.057718124
181	0xbe32cc59	-0.17460765
182	0xbdc92e8b	-0.098233305
183	0xbd09c432	-0.033634372
184	0xbe6bd3be	-0.23029992
185	0xbcce0b3e	-0.025151845
186	0xbdb590bb	-0.08865496
187	0xbe58a296	-0.21155772
188	0x3dad1c84	0.084527045
189	0xbdf0730e	-0.11740695
190	0x3e20d3e1	0.15705825
191	0x3d636a9b	0.05552159
192	0xbe03f5bb	-0.12886707
193	0x3d1eb5e9	0.0387477
194	0x3de4d4c8	0.11173397
195	0xbd91100b	-0.07083138
196	0x3cb88fc8	0.022529498
197	0xbe3e1cbf	-0.18565653
198	0x3e0b3fda	0.13598576
199	0xbdf7d04d	-0.12100277
200	0xbde13ea0	-0.10998273
201	0xbe6330a5	-0.22186525
202	0xbd82d280	-0.06387806
203	0x3e02a667	0.1275879
204	0x3e4f4f0a	0.20244995
205	0xbd137a30	-0.0360052
206	0xbd95fa38	-0.07323116
207	0xbd99b1cb	-0.075046144
208	0xbe0cc0f1	-0.13745476
209	0x3d98b350	0.07456076
210	0xbd304319	-0.04303274
211	0x3d8ef48c	0.06980237
212	0xbe864890	-0.26227236
213	0xbc4c0332	-0.012451934
214	0xbe43722f	-0.19086526
215	0xbd3459c8	-0.044030935
216	0x3be114b8	0.006868925
217	0xbe449723	-0.19198279
218	0x3d60bfc9	0.0548704
219	0xbe14ba09	-0.14524092
220	0x3e801252	0.25013977
221	0xbe0ee00f	-0.13952659
222	0xbcfcec58	-0.030874416
223	0xbdc17f75	-0.094481386
224	0xbda7c29f	-0.08191418
225	0xbda80fb1	-0.08206118
226	0x3d6a3451	0.0571788
227	0x3ddf83e8	0.10913831
228	0x3e1f4409	0.15553297
229	0xbd98a1ec	-0.07452759
230	0xbcbb61a6	-0.02287371
231	0xbdf61f6f	-0.12017714
232	0xbd465e28	-0.04842964
233	0x3db9b74d	0.09068165
234	0x3d072f30	0.033003986
235	0xbd39db32	-0.045375057
236	0x3e53b88a	0.20675865
237	0xbc7b7337	-0.015347294
238	0xbe4278f0	-0.18991446
239	0xbe0b6fdc	-0.1361689
240	0xbdfb012a	-0.122560814
241	0xbe0eb07e	-0.13934514
242	0x3ca9f704	0.020747669
243	0x3c4eadd5	0.012614687
244	0x3e416112	0.18884686
245	0xbd291d49	-0.041287694
246	0xbe06e460	-0.13173056
247	0xbe27b8b1	-0.16379048
248	0xbc1e57be	-0.009664474
249	0xbbbc3d82	-0.005744637
250	0xbdb5967c	-0.08866593
251	0xbe2f30fd	-0.17108531
252	0xbe2b0548	-0.16701233
253	0xbe62a515	-0.22133286
254	0x3dcefd89	0.10106952
255	0x3ddf64cb	0.109078966

conv2.bias f4 [32]
0	0x3d8b5323	0.068029664
1	0xbcee1553	-0.029062903
2	0x3a5613ca	0.0008166401
3	0x3c22d44f	0.009938314
4	0x3cefb97c	0.02926325
5	0xbde3eb45	-0.111288585
6	0x3ca4808d	0.020080829
7	0x3c03f68a	0.008054385
8	0xbd11e1ee	-0.035615854
9	0x3da7ebaa	0.08199246
10	0xbd47dc74	-0.048794225
11	0x3dad2a5b	0.08455344
12	0x3bbb0f0a	0.00570858
13	0xbd99158d	-0.074748136
14	0x3a9c7312	0.0011936149
15	0xbd40d91c	-0.04708205
16	0x3bd582f7	0.0065158564
17	0x3c84213b	0.016129127
18	0xbd27e90f	-0.040993746
19	0x3ca1553c	0.019693963
20	0xbcd16024	-0.025558539
21	0x3b63eb62	0.003477775
22	0xbd760c61	-0.0600704
23	0xbc32a2e5	-0.010903095
24	0xbabfcf85	-0.0014633989
25	0xbc55cc9b	-0.01304927
26	0x3c2c1aae	0.010504408
27	0x3d358ffc	0.044326767
28	0x3d60ec59	0.0549129
29	0x3d036e0d	0.032087374
30	0x3d105feb	0.035247725
31	0xbdb113eb	-0.08646377

conv3.weight f4 [32, 32, 3, 3]
0	0xbd82130c	-0.06351289
1	0x3dcaef52	0.09908928
2	0x3e15d392	0.14631489
3	0xbd87725f	-0.066136114
4	0x3c97b017	0.018516583
5	0xbdc92704	-0.09821895
6	0xbd0fb553	-0.035085034
7	0x3e32d1a5	0.17462786
8	0xbc6cc25c	-0.014450636
9	0xbe60dcc5	-0.21959217
10	0x3e5e7137	0.21722876
11	0x3e0d90fd	0.1382484
12	0x3c821e79	0.015883671
13	0xbd48d9d9	-0.04903588
14	0xbd053d31	-0.03252906
15	0x3dbbf69a	0.09177895
16	0x3e20db63	0.1570869
17	0x3c5429fe	0.012949465
18	0xbcedae81	-0.029013874
19	0x3dd9acf4	0.10628691
20	0x3e0c01cb	0.13672559
21	0x3d0ca3a4	0.034335747
22	0x3cece51d	0.028917843
23	0x3c9d1090	0.019172937
24	0xbd7345ef	-0.059392866
25	0x3d37df6f	0.044890817
26	0x3c6580d3	0.014007765
27	0x3d9679ae	0.07347427
28	0xbe074974	-0.13211614
29	0xbd6ab68a	-0.05730299
30	0x3d1c7546	0.03819778
31	0xbbdadc88	-0.0066791214
32	0x3c8d05b1	0.017214628
33	0x3ce8dbd7	0.02842514
34	0x3db92928	0.09041053
35	0x3d82f9a3	0.06395271
36	0x3db2aadb	0.08723994
37	0xbd57943c	-0.0526316
38	0x3d80fe4e	0.06298505
39	0x3e240be9	0.16020168
40	0xbe1e7356	-0.15473685
41	0x3dc6558d	0.09684286
42	0x3d8c35d1	0.06846202
43	0xbd27de74	-0.040983632
44	0x3cc05fef	0.023483245
45	0x3d8eba25	0.06969098
46	0xbd94a525	-0.07258061
47	0xbdbb6e44	-0.09151891
48	0x3d07f0cb	0.033188622
49	0xbaf880c4	-0.0018959274
50	0xbdbfb55a	-0.09360762
51	0xbe035fa5	-0.12829454
52	0xbd7cc267	-0.061708834
53	0xbd556f6c	-0.052108213
54	0xbcaa20ad	-0.020767534
55	0xbd0b5549	-0.03401688
56	0xbd61a639	-0.055090163
57	0x3d8f4438	0.069954336
58	0x3e3f1919	0.18661918
59	0x3b1c7959	0.002387604
60	0x3c9451d2	0.018105421
61	0xbe15f1f5	-0.1464308
62	0xbe8ccfe6	-0.27502364
63	0xbc6e4acf	-0.014544203
64	0xbde882bb	-0.1135306
65	0xbd99eced	-0.07515893
66	0x3d938e07	0.07204824
67	0xbc95fda4	-0.018309422
68	0x3d360dc2	0.044446714
69	0x3cd988a6	0.026554417
70	0xbe7795f6	-0.241783
71	0x3d9d40cb	0.07678374
72	0xbcc5b67a	-0.024134863
73	0x3e62da8a	0.22153679
74	0x3dca6cb2	0.09884013
75	0xbd9493f5	-0.07254783
76	0x3d93e9a0	0.07222295
77	0xbc3861c9	-0.011253783
78	0x3d459757	0.048240032
79	0xbca721bd	-0.02040183
80	0x3aaedbb3	0.0013340622
81	0x3d2ab793	0.041678976
82	0x3a400e7d	0.00073263777
83	0xbd1c2dd4	-0.038129643
84	0xbd680270	-0.05664295
85	0xbd403385	-0.046924133
86	0xbddf729f	-0.10910534
87	0xbc843f19	-0.016143369
88	0xbdbc2fd2	-0.091888085
89	0xbcb21c20	-0.021741927
90	0x3de2b5ed	0.11069856
91	0xbdbf27e1	-0.09333778
92	0xbd714139	-0.05890009
93	0x3d8f3bc3	0.069938205
94	0xbe2cd70a	-0.16878906
95	0x3decc5ce	0.11561166
96	0xbdce2a43	-0.100666545
97	0xbda65812	-0.08122267
98	0x3e1e9987	0.15488254
99	0x3d4788ec	0.048714563
100	0xbd1bc05a	-0.038025238
101	0xbcbc2ea0	-0.022971451
102	0x3c2415bb	0.010014947
103	0x3da22d17	0.079187565
104	0x3c2f0fbc	0.010684904
105	0x3c8d6ec8	0.017264739
106	0x3b915f1e	0.0044363877
107	0xbc3a550d	-0.011372817
108	0xbd8c483a	-0.068497136
109	0xbd459645	-0.04823901
110	0x3cbc199c	0.02296143
111	0x3bd7a5f7	0.006581064
112	0x3d78f5b3	0.060781192
113	0xbe4ae406	-0.19813547
114	0x3d004445	0.031315107
115	0x3da099b2	0.07841815
116	0x3e07c9cf	0.13260578
117	0x3d8494c7	0.064736895
118	0x3ded436e	0.11585127
119	0x3d83313a	0.064058736
120	0xbd40337b	-0.046924096
121	0x3db42866	0.08796768
122	0xbdcedf00	-0.101011276
123	0x3d9f39ca	0.07774694
124	0xbe618e47	-0.22026931
125	0xbcc563c5	-0.024095425
126	0xbdd707c2	-0.104995266
127	0xbd4a816a	-0.049439825
128	0xbe2b5046	-0.1672984
129	0xbe13eafb	-0.14445107
130	0x3dc53410	0.09629071
131	0x3bf197be	0.0073728254
132	0x3c08bbd1	0.00834556
133	0xbc517d17	-0.012786171
134	0xbd702aca	-0.058634557
135	0x3c9023f2	0.017595265
136	0xbda6e10e	-0.081483945
137	0x3d2c67c6	0.042091154
138	0x3dda21fc	0.10651013
139	0xbd6b99ca	-0.05751971
140	0x3d011f02	0.031523712
141	0xbe078147	-0.13232909
142	0xbc0a5235	-0.008442451
143	0xbd8af2f9	-0.067846246
144	0xbe0a1e46	-0.13488111
145	0xbdc21cb8	-0.09478134
146	0x3dc926bc	0.09821841
147	0x3e0347c0	0.12820339
148	0xbd129495	-0.03578623
149	0x3da735dd	0.081645705
150	0xbde30851	-0.110855706
151	0xbc89ff53	-0.01684538
152	0xbd8f6c87	-0.07003122
153	0xbdaae2ec	-0.08344063
154	0xbc5ef944	-0.013609234
155	0x3e2a317b	0.16620438
156	0xbda83e13	-0.08214965
157	0xbcd74cb7	-0.026281698
158	0x38c40725	9.347339e-05
159	0xbba839ff	-0.005133867
160	0x3d91c169	0.07116968
161	0x3cd88ed2	0.02643529
162	0x3e68b96a	0.2272698
163	0xbccb6e4f	-0.024832873
164	0xbde90cb5	-0.11379377
165	0x3c8c1552	0.01710001
166	0x3ca695e0	0.020335138
167	0xbdcdda92	-0.100514546
168	0xbe0e1492	-0.13875034
169	0xbde13351	-0.10996116
170	0xbdca7fe7	-0.09887677
171	0x3e0c046b	0.1367356
172	0xbc9131c7	-0.017723931
173	0x3d395cec	0.045254633
174	0x3db6de48	0.089291155
175	0xbd08ae0a	-0.0333691
176	0xbdf0785d	-0.117417075
177	0x3d8175cd	0.06321297
178	0x3d39ecfd	0.045392025
179	0xbdb7a61d	-0.089672305
180	0x3e340df0	0.17583442
181	0xbdb1d9e6	-0.08684139
182	0x3d0e09c1	0.03467727
183	0x3e1c88d8	0.15286577
184	0x3bf2cb8d	0.007409519
185	0xbdb37597	-0.08762663
186	0xbc3fb6d2	-0.011701303
187	0x3b63526b	0.0034686576
188	0x3ceff770	0.029292792
189	0xbe66fc59	-0.225572
190	0xbe34647d	-0.17616458
191	0xbd97c8a1	-0.07411314
192	0x3db5a9b8	0.08870262
193	0xbdb02498	-0.0860073
194	0xbca21510	-0.019785434
195	0xbd639229	-0.05555931
196	0x3d97c2af	0.0741018
197	0xbe3d0809	-0.18460096
198	0xbd9a031e	-0.07520126
199	0xbd930c76	-0.07180111
200	0xbe03cede	-0.12871882
201	0x3c790cb8	0.015200786
202	0x3c9925ce	0.018694784
203	0x3e1a9d64	0.15099102
204	0x3bb1aa31	0.0054218997
205	0xbd9ae512	-0.07563223
206	0xbda043b2	-0.07825412
207	0x3dec1f83	0.11529448
208	0x3db8ed90	0.090296865
209	0x3dda1a6f	0.10649573
210	0x3bdfe900	0.0068331957
211	0x3e02e00e	0.12780783
212	0xbc39b430	-0.011334464
213	0x3c1e73ea	0.009671191
214	0xbe02f1ab	-0.12787502
215	0xba8fac46	-0.0010961376
216	0x3d92bc15	0.0716478
217	0xbdb839a6	-0.089953706
218	0xbe251167	-0.1611992
219	0xbdfc2d12	-0.12313284
220	0xbdec5b22	-0.1154082
221	0x3d3b37bf	0.04570746
222	0xbd58b531	-0.052907173
223	0x3d385394	0.04500158
224	0x3d564041	0.05230737
225	0x3e4cd4bd	0.20003028
226	0xbc7a68ab	-0.015283744
227	0xbe0767ae	-0.13223144
228	0xbd93f689	-0.07224757
229	0x3cae6f34	0.02129326
230	0xbe08253c	-0.13295454
231	0xbd3fb7f4	-0.04680629
232	0x3d68eed8	0.056868404
233	0x3e030e11	0.12798335
234	0xbd789324	-0.0606872
235	0xbd4affa5	-0.049560208
236	0x3d8c0459	0.06836767
237	0x3dd2ff8e	0.103026494
238	0xbd92fe2d	-0.071773864
239	0xbe230ee3	-0.15923648
240	0x3df3c0b0	0.119019866
241	0xbd0cd61d	-0.03438388
242	0x3d0301ec	0.031984255
243	0xbdbec7bb	-0.09315439
244	0x3b1e5121	0.0024157243
245	0xbdde9a53	-0.10869279
246	0x3dc10063	0.09423902
247	0xbb20208e	-0.0024433467
248	0xbe07db09	-0.13267149
249	0xba04ef13	-0.0005071025
250	0x3cf32fa3	0.0296858
251	0xbdf10b52	-0.11769737
252	0xbd95b161	-0.07309223
253	0x3db565fe	0.08857344
254	0x3e07869a	0.1323494
255	0x3da1a45f	0.078926794

conv3.bias f4 [32]
0	0xbd66329d	-0.056200612
1	0x3c21f90f	0.00988604
2	0x3d0e0f2e	0.034682445
3	0x3c380602	0.011231901
4	0x3cb8dc87	0.022566093
5	0x3c8967aa	0.016773064
6	0xbbb07113	-0.0053845732
7	0x3cb6bf4a	0.02230801
8	0xbd9041f1	-0.07043827
9	0x3cd1579a	0.025554467
10	0xbc7aee61	-0.015315623
11	0x3d6074c2	0.05479885
12	0xbbf99603	-0.0076167597
13	0xbd807a65	-0.06273345
14	0x3cf76cb0	0.030203193
15	0x3de1da69	0.110279866
16	0x3d7bb4ff	0.06145191
17	0x3c4c46ee	0.012468083
18	0x3c5e7042	0.013576569
19	0xbb6824f9	-0.0035422428
20	0xbd257cd4	-0.04040225
21	0xbc89c197	-0.016815944
22	0xb93ecf52	-0.00018197045
23	0xbc8f5b29	-0.017499523
24	0xbc1a8556	-0.009431204
25	0x3d1c7803	0.03820039
26	0xbb06ad74	-0.0020550163
27	0xbc2055b9	-0.009786063
28	0xbd068fef	-0.03285211
29	0x3b4c2c2b	0.0031154256
30	0x3bdf6b99	0.0068182466
31	0xbd333f8c	-0.043761775

bn1.weight f4 [16]
0	0x3f7b52dd	0.98173314
1	0x3f831b72	1.0242751
2	0x3f7d3682	0.989113
3	0x3f70a453	0.9400074
4	0x3f6dfbcb	0.9296233
5	0x3f7bbeba	0.983379
6	0x3f78742b	0.9705226
7	0x3f7e58ac	0.9935405
8	0x3f758b8a	0.95916045
9	0x3f78f499	0.97248226
10	0x3f84b35c	1.0367236
11	0x3f78a846	0.97131765
12	0x3f81cca0	1.0140572
13	0x3f7a0372	0.9766151
14	0x3f808070	1.0039196
15	0x3f8920b5	1.0713106

bn1.bias f4 [16]
0	0xbbd04dbf	-0.0063569243
1	0xbd193257	-0.037401523
2	0x3bb78f7c	0.0056018215
3	0xbcadaa90	-0.021199495
4	0x3c299d0a	0.010352382
5	0xbc2b4d9b	-0.010455514
6	0xbcdaf679	-0.026728855
7	0xbc45925c	-0.012058821
8	0xbd02608f	-0.031830367
9	0xba968696	-0.0011484202
10	0x3d4c7f26	0.049925946
11	0xbcfb5d78	-0.030684218
12	0xbc32f6f9	-0.010923141
13	0x3d820258	0.06348103
14	0x3bf8be79	0.0075910655
15	0x3d83e441	0.0644002

bn1.running_mean f4 [16]
0	0xbdf39f4f	-0.1189562
1	0x3eaa44c4	0.3325559
2	0x3ef16d94	0.47153914
3	0xbde99bbe	-0.114066586
4	0x3e1b0fcc	0.15142745
5	0xbe040f2b	-0.12896411
6	0xbebb4111	-0.3657308
7	0x3e512b30	0.20426631
8	0xbe8a4a6f	-0.27009913
9	0xbdf790f2	-0.12088193
10	0x3cee3c0c	0.029081367
11	0xbe8dab6c	-0.27669847
12	0x3eb40f49	0.35167912
13	0x3dd0432e	0.101690635
14	0x3e44d1de	0.19220683
15	0x3eb17b68	0.34664464

bn1.running_var f4 [16]
0	0x3dc30eed	0.09524331
1	0x3eed6181	0.46363452
2	0x3f727177	0.94704384
3	0x3e04f2a7	0.1298319
4	0x3e198b55	0.14994557
5	0x3d8823fc	0.066474885
6	0x3f24284d	0.64123994
7	0x3e9414ba	0.28922063
8	0x3ec86e86	0.39146823
9	0x3da9e927	0.082964234
10	0x3d383afc	0.044978127
11	0x3e95cafd	0.2925643
12	0x3edcc675	0.4312016
13	0x3dee4a96	0.1163532
14	0x3e491807	0.19638072
15	0x3f2458c1	0.6419793

bn2.weight f4 [32]
0	0x3f83bcb5	1.0291964
1	0x3f7421fa	0.95364344
2	0x3f81e089	1.0146648
3	0x3f870de9	1.055112
4	0x3f7269b7	0.9469256
5	0x3f855e6e	1.0419443
6	0x3f74ee1c	0.95675826
7	0x3f860c7c	1.047256
8	0x3f6eabab	0.93230695
9	0x3f8ebf62	1.1152155
10	0x3f84a8a4	1.0363965
11	0x3f81eb9a	1.0150025
12	0x3f787e4e	0.97067726
13	0x3f80cd9b	1.0062746
14	0x3f869c78	1.05165
15	0x3f756040	0.9584999
16	0x3f7195c9	0.9436918
17	0x3f785f42	0.9702035
18	0x3f85c9ee	1.0452249
19	0x3f73e0d8	0.9526496
20	0x3f7cb100	0.9870758
21	0x3f714787	0.9424977
22	0x3f75ffbb	0.9609334
23	0x3f72afdf	0.9479961
24	0x3f6c7dd3	0.9237949
25	0x3f85066e	1.0392587
26	0x3f7e6190	0.9936762
27	0x3f7d4138	0.9892764
28	0x3f55de2d	0.8354214
29	0x3f724447	0.9463543
30	0x3f6a9711	0.9163676
31	0x3f8232a8	1.0171709

bn2.bias f4 [32]
0	0x3c13ed14	0.009028692
1	0xbaa5eae4	-0.0012658504
2	0x3cd73a5a	0.026272941
3	0x3bf05c7e	0.0073352447
4	0xbc1149e3	-0.008867714
5	0x3ad46a4b	0.0016205994
6	0xbcf5e350	-0.030015618
7	0x3cffdc75	0.031233052
8	0xbce3b98e	-0.02779844
9	0x3c870d72	0.016485903
10	0xbd3e7782	-0.04650069
11	0xbaf621b8	-0.001877836
12	0xbd745a0b	-0.059656184
13	0xbd0bbca1	-0.034115437
14	0xbc901341	-0.017587306
15	0xbca5b04c	-0.020225666
16	0xbd0f439c	-0.034976587
17	0xbc6a9740	-0.014318287
18	0x3d59e275	0.053194482
19	0xbbd8e1e0	-0.0066187233
20	0xbcb1531c	-0.021646075
21	0xbd749513	-0.05971248
22	0xbccc39f0	-0.02492997
23	0xbd2a578f	-0.04158741
24	0xbca885b4	-0.020571567
25	0x3bc6893b	0.0060588396
26	0xb858993e	-5.164113e-05
27	0xbcabf270	-0.020989627
28	0xbd8ed53a	-0.069742635
29	0xbcf46f3e	-0.0298382
30	0xbd179746	-0.0370095
31	0xbaa74e91	-0.0012764503

bn2.running_mean f4 [32]
0	0x3f08ea3a	0.534824
1	0xbfac4d62	-1.3461115
2	0x3f821f59	1.0165817
3	0x3f315b2a	0.6927973
4	0x3ebd65b4	0.36991656
5	0x3e420b5e	0.18949649
6	0xbf1555c4	-0.5833399
7	0x3f496507	0.7866978
8	0xbf8dcd36	-1.107825
9	0x3f0592d4	0.52177167
10	0x3ef8b884	0.48578274
11	0xbd219c67	-0.039455798
12	0x3e0c66f7	0.13711153
13	0x3d123828	0.035698086
14	0xbd8599a5	-0.06523446
15	0x3ef48ec1	0.47765163
16	0xbf88ca70	-1.0686779
17	0xbda340e2	-0.0797136
18	0xbba71e3e	-0.0051000407
19	0x3f58fbd9	0.8475929
20	0x3d2668f0	0.04062742
21	0xbe3113ea	-0.17292753
22	0xbf46170e	-0.7737893
23	0xbeffad1f	-0.49936768
24	0xbf4a8711	-0.79112345
25	0x3eb103ca	0.34573203
26	0x3dbf0ae1	0.09328247
27	0x3e518295	0.2045997
28	0x3e00ef8e	0.12591383
29	0xbeda111c	-0.42591178
30	0xbe10f8dc	-0.14157432
31	0x3f45e341	0.77299887

bn2.running_var f4 [32]
0	0x400266a4	2.0375147
1	0x40f54dbc	7.665739
2	0x40466d22	3.100411
3	0x405f1fb7	3.4863107
4	0x3f6ae6db	0.9175851
5	0x405f64fb	3.4905384
6	0x403c20b2	2.9394956
7	0x403c1671	2.9388697
8	0x4082113d	4.0646043
9	0x40166158	2.3496914
10	0x40876822	4.2314615
11	0x3fede17e	1.858444
12	0x400383ac	2.0549116
13	0x3fca3e19	1.5800201
14	0x3f3b25de	0.73104656
15	0x3f9b9ce5	1.2157255
16	0x408de6c1	4.434418
17	0x40106d77	2.2566812
18	0x403c025f	2.9376447
19	0x404379b7	3.054304
20	0x4026b7d5	2.6049702
21	0x3fb6f7bc	1.4294353
22	0x408fe558	4.496746
23	0x407025d6	3.7523093
24	0x40578026	3.3671966
25	0x40013d82	2.0193791
26	0x4014f5ab	2.3274944
27	0x407ae9b5	3.9205143
28	0x3fdc123b	1.7193063
29	0x40852eb7	4.1619525
30	0x3f91beb8	1.1386328
31	0x409447cd	4.6337647

bn3.weight f4 [32]
0	0x3f5d1f13	0.8637554
1	0x3f3d1799	0.7386413
2	0x3f322372	0.69585335
3	0x3f59da17	0.85098404
4	0x3f525db7	0.8217425
5	0x3f4ecb8f	0.80779356
6	0x3f51bd80	0.8192978
7	0x3f61fc5a	0.8827568
8	0x3f5f0983	0.8712389
9	0x3f5c4219	0.86038357
10	0x3f324497	0.6963591
11	0x3f5c228d	0.8599022
12	0x3f603843	0.8758585
13	0x3f4d0e5c	0.80100036
14	0x3f509141	0.8147164
15	0x3f42c7bb	0.76086015
16	0x3f448ce5	0.7677749
17	0x3f655ed5	0.8959783
18	0x3f54f546	0.8318676
19	0x3f506811	0.8140879
20	0x3f2531f2	0.64529335
21	0x3f49dafb	0.7884976
22	0x3f2979bb	0.6620137
23	0x3f5ef7c8	0.87096834
24	0x3f40e01c	0.75341964
25	0x3f62f6e7	0.88657993
26	0x3f55d5ad	0.8352917
27	0x3f6c0b83	0.92205065
28	0x3f6356b0	0.8880415
29	0x3f61f7d6	0.8826879
30	0x3f4c7027	0.7985863
31	0x3f52915a	0.8225304

bn3.bias f4 [32]
0	0xbde90239	-0.11377377
1	0xbe75341d	-0.23945661
2	0xbe610791	-0.21975543
3	0xbe0dc48e	-0.13844511
4	0xbe3b8780	-0.18313408
5	0xbe33d708	-0.17562497
6	0xbe1b4a46	-0.15165052
7	0xbdc798e5	-0.09745959
8	0xbdcbef3d	-0.099577405
9	0xbe0bd3cb	-0.13655011
10	0xbe698745	-0.22805507
11	0xbdb3aa28	-0.08772689
12	0xbdac71b5	-0.084201254
13	0xbe5a5643	-0.21321969
14	0xbe050c36	-0.1299294
15	0xbe549f40	-0.20763874
16	0xbe4ff6dd	-0.20309015
17	0xbd9908bf	-0.07472371
18	0xbe03777e	-0.12838551
19	0xbe34881d	-0.17630048
20	0xbe194925	-0.14969309
21	0xbdf321d4	-0.118716866
22	0xbe60f2e5	-0.21967657
23	0xbde61dd9	-0.11236162
24	0xbe0b3e09	-0.13597883
25	0xbdf59e9f	-0.11993145
26	0xbe36881c	-0.17825359
27	0xbdab4a3c	-0.083637685
28	0xbdd92fae	-0.10604797
29	0xbdff486f	-0.124649875
30	0xbe38d681	-0.18050577
31	0xbe008d4c	-0.125539

bn3.running_mean f4 [32]
0	0xbf3648e4	-0.7120497
1	0xbebab271	-0.36464265
2	0xbf6abe0a	-0.91696227
3	0xbfa3ec55	-1.2806498
4	0x3f88308e	1.0639818
5	0xbf9ab016	-1.2084987
6	0xbf4a74fd	-0.7908476
7	0x3f1f2201	0.6216126
8	0x3eaa2e38	0.33238387
9	0xbfcd8912	-1.6057456
10	0xbee7e18a	-0.4528926
11	0xbe7647b3	-0.24050789
12	0xbe091a91	-0.1338904
13	0xbf0c80fd	-0.5488432
14	0xbeb7befc	-0.35887897
15	0xbfcd692e	-1.6047723
16	0x3f71b877	0.94422096
17	0x3f84d6bb	1.037803
18	0xbf02d321	-0.5110341
19	0xc02af113	-2.670964
20	0xbee93da2	-0.45554835
21	0x3fe19703	1.762421
22	0xbf30af7b	-0.6901776
23	0xbf668898	-0.90052176
24	0xbf0f3834	-0.55945134
25	0xbe136f9c	-0.14398044
26	0xbf8d4dfa	-1.1039422
27	0x3f3ad527	0.72981495
28	0xbfe2434b	-1.7676786
29	0x3fd3614b	1.6514066
30	0xbf4c85c6	-0.7989162
31	0x3fb09b11	1.3797323

bn3.running_var f4 [32]
0	0x4086b971	4.210137
1	0x40517ab0	3.2731133
2	0x4074d234	3.8253298
3	0x40cf8d64	6.4860096
4	0x41203c42	10.014711
5	0x4113c15d	9.234708
6	0x40ba15bb	5.8151526
7	0x4116f14b	9.433909
8	0x40205a88	2.5055256
9	0x4112631a	9.149195
10	0x40e5c2bc	7.1800213
11	0x3ff23761	1.892315
12	0x40a45006	5.1347685
13	0x409b194e	4.846839
14	0x408ab668	4.3347664
15	0x413e6a45	11.900945
16	0x407ee7ff	3.98291
17	0x4136172c	11.380657
18	0x40fe1c64	7.9409657
19	0x419d97b4	19.699074
20	0x3fd75f55	1.6825968
21	0x4137d6a0	11.489899
22	0x40350000	2.828125
23	0x4096d781	4.7138066
24	0x402d8434	2.711194
25	0x4096417f	4.695495
26	0x40d94f46	6.790927
27	0x411b517e	9.707396
28	0x4159bf3b	13.609187
29	0x413db4d5	11.856648
30	0x40a6a355	5.207438
31	0x4148c9e2	12.549288

fc10.weight f4 [4, 2048]
0	0xbd6fd7f8	-0.058555573
1	0xbd9540ab	-0.07287725
2	0x3d2429d0	0.040078938
3	0xbbd43c8e	-0.0064769452
4	0xbb20f099	-0.002455747
5	0xbcabc9d5	-0.020970264
6	0x3b8aa007	0.0042305025
7	0x3cb7cc62	0.022436325
8	0xbcc5d75e	-0.024150547
9	0x3c26ed56	0.010188421
10	0x3d817821	0.06321741
11	0xbd021454	-0.031757668
12	0xbce5084b	-0.027958056
13	0xbc7533ef	-0.014965995
14	0x3ca3efe0	0.020011842
15	0x3ca1da0b	0.019757291
16	0x3c22fcea	0.009947995
17	0xbc68c046	-0.014205998
18	0xbc950f92	-0.018195901
19	0x3b6b47ef	0.003590103
20	0xba6e7720	-0.00090967305
21	0x3cc644e0	0.024202764
22	0xbcaa15f1	-0.020762416
23	0xbcd62cf2	-0.026144478
24	0xbc3c2999	-0.011484527
25	0x3c44d7fd	0.012014386
26	0x3caf158a	0.021372575
27	0xbcd71acc	-0.026257895
28	0xbc31d696	-0.010854384
29	0xbc4bcfc5	-0.012439673
30	0xbc2fde62	-0.010734173
31	0xbd12dd3e	-0.035855524
32	0x3c3b3b1c	0.011427667
33	0x3b8eccd0	0.0043579116
34	0x3cb6167c	0.022227518
35	0xbcd1512a	-0.025551397
36	0xbd1b4897	-0.037911024
37	0xbc510c5d	-0.012759295
38	0xba7c6074	-0.000962741
39	0xbcbfa41d	-0.023393685
40	0xbcccfa3e	-0.025021669
41	0xbb9944d9	-0.0046773967
42	0x3cb70d84	0.022345312
43	0x3c8cff7b	0.017211666
44	0x3c7ed4fa	0.015553707
45	0x3d296f9c	0.041366205
46	0xbcc54332	-0.024079893
47	0xbc91f501	-0.017817022
48	0xbb0035b8	-0.001956327
49	0x3d0e4ce8	0.034741312
50	0xbc73e7e8	-0.014886834
51	0xbc873768	-0.016505912
52	0x3bf0bfa4	0.007347064
53	0x3c60bfc9	0.0137176
54	0xbd5aa8a7	-0.053383496
55	0xbd30dac9	-0.0431774
56	0x3cdbdad6	0.026837748
57	0xbca7424a	-0.020417351
58	0xbce3030f	-0.02771142
59	0xbd8680cb	-0.06567534
60	0xba1f33a2	-0.00060730625
61	0xbc2a7bcb	-0.010405491
62	0xbcd73283	-0.026269203
63	0xbaf42837	-0.0018627708
64	0x3d0110bf	0.03151011
65	0xbcd1693b	-0.025562873
66	0x3d128395	0.035770018
67	0xbcb9fb16	-0.022702735
68	0xbbab4eed	-0.0052279145
69	0x3c9d84ae	0.019228306
70	0xbd449339	-0.047991965
71	0x3d8e9743	0.06962445
72	0xbbadadb9	-0.0053002504
73	0x3c9a45de	0.018832143
74	0xbd090238	-0.03344938
75	0x3d360b13	0.044444155
76	0xbceee105	-0.029160032
77	0x3c7c2fdd	0.015392271
78	0xbc4ca63f	-0.012490808
79	0x3d36d7b8	0.04463932
80	0xbc87c7e2	-0.016574804
81	0x3d3300bd	0.043701876
82	0x3bb8df66	0.0056418655
83	0xbcb4654f	-0.022020964
84	0x3c25e416	0.010125181
85	0xbcbc66bf	-0.022998212
86	0x3c3c83ec	0.011506062
87	0xbcc852dd	-0.024453575
88	0xbc9264d4	-0.017870344
89	0xbc320250	-0.010864809
90	0xbbbc9f67	-0.005756307
91	0xbc20d705	-0.00981689
92	0xbd20f982	-0.03930045
93	0x3b4adcad	0.0030954287
94	0x3a859e8c	0.0010194345
95	0x3d24830e	0.040164046
96	0x3cc9fb6b	0.024656018
97	0x3c4a0c1d	0.01233199
98	0xbc12c900	-0.008959055
99	0xbb414077	-0.0029487887
100	0xbc646015	-0.013938923
101	0x3cb1d216	0.021706622
102	0xbd16ae90	-0.03678757
103	0x3cacaf6e	0.021079745
104	0xbcca6edc	-0.024711065
105	0xbca645be	-0.020296928
106	0x3cdec0c6	0.02719153
107	0xbcad7065	-0.021171758
108	0x3d5b423a	0.053529955
109	0x3cde983f	0.027172206
110	0xbd0cb797	-0.034354772
111	0x3d65050f	0.055913027
112	0xbbe8f1ef	-0.007108919
113	0x3d0f65f0	0.035009325
114	0xbc94115f	-0.01807469
115	0xbbc788a5	-0.0060892873
116	0x3c9cae13	0.019125974
117	0xb9994645	-0.0002923479
118	0x3ae32475	0.0017329591
119	0x3bee460e	0.0072715348
120	0x3cdee29d	0.027207667
121	0xbcfc15dd	-0.030772144
122	0xbd8adf82	-0.06780912
123	0xbdd090d2	-0.10183872
124	0x3cbdcf1e	0.02317005
125	0xbc4861ea	-0.012230376
126	0xbbe41160	-0.006960079
127	0xbd6c3368	-0.057666212
128	0x3b48f914	0.003066604
129	0x3b54d1df	0.0032473726
130	0x3cf09f5d	0.029372865
131	0xbd418e12	-0.04725463
132	0xbcffa0ca	-0.0312046
133	0xbd318ca8	-0.04334703
134	0xbcc4c169	-0.024018006
135	0x3d2964d3	0.04135592
136	0x3d483e57	0.048887577
137	0x3c22f869	0.009946921
138	0x3c4cfa0f	0.0125107905
139	0xbd3babef	-0.045818266
140	0xba97b7a3	-0.0011575114
141	0x3d20ffe5	0.03930654
142	0xbd0797bf	-0.0331037
143	0x3cf1d144	0.029518731
144	0x3aab5c6a	0.0013073806
145	0x3bfc773d	0.007704644
146	0x3cb72b45	0.0223595
147	0xbcb2ba2a	-0.021817286
148	0x3b9bb365	0.00475161
149	0xbdf06620	-0.11738229
150	0xbc609e34	-0.013709594
151	0x3c7aa2e8	0.015297629
152	0xbc15ed18	-0.009150766
153	0x3c0cbd25	0.008590017
154	0x3c14f718	0.009092115
155	0xbba44fab	-0.00501438
156	0x3c7012f8	0.01465296
157	0x3cda7bdb	0.026670387
158	0xbc94ee7c	-0.018180124
159	0x3c80c9aa	0.01572116
160	0xbc9a03af	-0.018800585
161	0xbd0531d6	-0.03251823
162	0xbc9164ec	-0.017748319
163	0x3c89bffe	0.016815182
164	0xbc009d67	-0.007850028
165	0x3d4f8789	0.050666366
166	0x3bd74cc5	0.006570431
167	0xbb35f635	-0.002776516
168	0xbc4a3935	-0.012342741
169	0x3d3e2a69	0.046427164
170	0xbc467c14	-0.0121145435
171	0xbc2eacf2	-0.010661351
172	0xbc948e4e	-0.018134262
173	0xbcdbda8a	-0.026837606
174	0xbadf2fd3	-0.0017027803
175	0x3ba175fc	0.004927395
176	0x3cb7e257	0.022446794
177	0xbd8fcba2	-0.07021262
178	0x3c99d17e	0.018776651
179	0xbd333ad8	-0.04375729
180	0x3c7322df	0.014839857
181	0xbd022789	-0.031775985
182	0x3d02855a	0.031865455
183	0x3d04755a	0.032338478
184	0xbb6a1366	-0.0035717129
185	0xbccabe00	-0.024748802
186	0x3c928017	0.017883344
187	0x3c9e87f8	0.019351944
188	0xbc2e4f9e	-0.010639099
189	0x3c5ab94e	0.013349844
190	0x3cbc1140	0.022957444
191	0x3bc78218	0.0060885064
192	0xbc7fea75	-0.015619864
193	0x3c8af183	0.016960865
194	0xbc04b0a4	-0.008098755
195	0x3aef8ad7	0.001827563
196	0xba069f10	-0.00051353965
197	0x3c96f6b9	0.018428193
198	0x3cb89b91	0.022535117
199	0xbd1007e8	-0.03516379
200	0x3a4eab29	0.0007883781
201	0x3b2246d2	0.002476145
202	0x3b84d293	0.0040534227
203	0x3d13e228	0.03610435
204	0xbd59d50a	-0.053181686
205	0x3c392761	0.011300893
206	0xbd13825d	-0.036012996
207	0xbc51f9bd	-0.01281589
208	0x3cd6cd72	0.02622101
209	0x3cd3de73	0.025862908
210	0x3ca3915c	0.019966774
211	0xbd278de7	-0.040906813
212	0x3c8d3608	0.017237678
213	0x3d24ae58	0.04020533
214	0x3cb3b2f5	0.02193592
215	0xbc69bda5	-0.014266406
216	0x3a92b3b8	0.0011192476
217	0xbcf69fba	-0.03010546
218	0x3bc8402a	0.0061111646
219	0x3b9594c8	0.0045648552
220	0x3d0c9a7b	0.03432701
221	0xbbbf41de	-0.0058367094
222	0xbbe36487	-0.006939474
223	0xbc31e55c	-0.010857906
224	0xbcc36b79	-0.023854958
225	0x3d18b1d6	0.037278973
226	0xbb9ebf3a	-0.0048445733
227	0x3c5dafaf	0.013530656
228	0x3ad1d0bf	0.0016007646
229	0xbc82f9cf	-0.015988259
230	0x3d7e3a13	0.062067103
231	0xbce1ef54	-0.02757994
232	0x3d23c4d0	0.039982617
233	0xbcf30a00	-0.029667854
234	0xbcbc2d55	-0.022970835
235	0xbc9281a1	-0.017884078
236	0xbc246de4	-0.010035966
237	0x3ce54cbd	0.027990693
238	0xbb135e3a	-0.0022486583
239	0x3d482d66	0.04887142
240	0xbc6eb795	-0.014570137
241	0xbaee691a	-0.0018189282
242	0x3cac7cac	0.021055542
243	0xbb868aad	-0.004105887
244	0xbda96b73	-0.082724474
245	0x3cb15512	0.02164701
246	0xbc891e62	-0.01673812
247	0x3b443bf2	0.0029942957
248	0xbcafad72	-0.02144501
249	0xbb4027a8	-0.0029320512
250	0x3a11e7a8	0.00055658305
251	0x3cbd3014	0.023094214
252	0x3b60bcf2	0.0034292308
253	0x3c84e738	0.016223535
254	0xbc294b2b	-0.010332863
255	0x3d868905	0.06569103

fc10.bias f4 [4]
0	0xbae03cd4	-0.0017107972
1	0xbaad29c7	-0.0013211303
2	0xbafe54b5	-0.0019403907
3	0x3a2a9efc	0.0006508676

fc11.weight f4 [4, 2048]
0	0xbb556500	-0.0032561421
1	0xbcf2f2cc	-0.02965679
2	0xbd7507db	-0.059821945
3	0xbc492513	-0.012276906
4	0xbd3b931c	-0.04579459
5	0xbc98783d	-0.018612022
6	0xbcf8fe13	-0.03039459
7	0xbc438b06	-0.011935001
8	0x3c037977	0.008024565
9	0x3abd4521	0.0014440158
10	0xbd35dfb0	-0.04440278
11	0xbd169aee	-0.036768846
12	0xbc327336	-0.010891726
13	0xbd26baaa	-0.04070536
14	0xbd0ecc2b	-0.03486268
15	0xbd149eff	-0.036284443
16	0xbb82e24d	-0.0039942623
17	0xbdad14df	-0.084512465
18	0xb98489d8	-0.00025279704
19	0x3cdd4f07	0.027015222
20	0xbd4f5054	-0.050613716
21	0x3bf99210	0.007616289
22	0xbc9211eb	-0.01783081
23	0x3c794bf4	0.015215863
24	0x3c86f52d	0.01647433
25	0x3b20dac2	0.0024544452
26	0xbcc967f5	-0.024585703
27	0xbc3690e9	-0.011142948
28	0x3c7eeb4a	0.015559027
29	0x3d444a74	0.047922567
30	0xbd26710e	-0.04063516
31	0xbc3cc0d6	-0.011520585
32	0xbd13557b	-0.035970192
33	0xbd2ceb2f	-0.042216476
34	0x3c7e01d2	0.015503364
35	0xbc50c4f1	-0.012742267
36	0xba4d164d	-0.00078234525
37	0xbbd28479	-0.0064244834
38	0xbccd704d	-0.025077963
39	0xbd183369	-0.037158404
40	0xbc880020	-0.016601622
41	0x38ef96c8	0.00011424493
42	0x3cb95aed	0.022626365
43	0xbcfcc5f6	-0.030856114
44	0xbc09bb1e	-0.008406429
45	0xbd79b3fc	-0.060962662
46	0xbdd5b859	-0.10435552
47	0x3ccbdaae	0.024884548
48	0x3d7eda55	0.062219936
49	0x3be4a4ef	0.0069776694
50	0x3c4df983	0.012571695
51	0xbd3ee124	-0.04660143
52	0xbd0d3707	-0.034476306
53	0xbb8465d4	-0.004040459
54	0x3c7c9b05	0.015417819
55	0xbc88ea7c	-0.016713373
56	0xbd27b9c5	-0.040948648
57	0x3cc904af	0.024538366
58	0x3d8b8fba	0.06814523
59	0xbcf5325c	-0.02993124
60	0xbd0020c9	-0.031281266
61	0xbbf2868d	-0.0074012936
62	0x3bfb8418	0.007675659
63	0x3be05197	0.006845664
64	0xbcf323af	-0.029680101
65	0xbc47b7dc	-0.012189832
66	0xbd5fab95	-0.054606993
67	0xbce0c849	-0.027439253
68	0xbd4c8713	-0.049933504
69	0xbc630afa	-0.0138575975
70	0xbcbdb915	-0.023159543
71	0xba17e419	-0.0005794182
72	0x3d210064	0.039307013
73	0x3d0f1146	0.034928583
74	0xbcd03c8f	-0.025419502
75	0xbb82c247	-0.003990445
76	0x3bf052ad	0.0073340745
77	0x3ba47e8c	0.0050199684
78	0xbc3c6005	-0.011497502
79	0x3ac64088	0.0015125433
80	0xbc184690	-0.009294167
81	0xbc698616	-0.01425316
82	0x3ce73f73	0.028228497
83	0x3d182060	0.03714025
84	0x3d70006f	0.058594164
85	0xbd77092f	-0.060311493
86	0x3bcfc3d1	0.006340482
87	0xbcdb236a	-0.026750285
88	0xbd67e4ad	-0.056614567
89	0x3b8f9cae	0.0043826913
90	0x3c285491	0.010274068
91	0xbd03dec7	-0.03219488
92	0x3d27cc77	0.040966477
93	0xbccb188e	-0.024791982
94	0x3d0ea0aa	0.03482119
95	0xbd529be2	-0.051418193
96	0xbcd00ba2	-0.025396172
97	0xbd64cb2f	-0.055857833
98	0xbd1b6d39	-0.03794596
99	0x3cd327f2	0.025775883
100	0x3d7a8931	0.061165992
101	0xbd21bbbf	-0.03948569
102	0x3c72072c	0.014772218
103	0x3d756c95	0.059918005
104	0x3cab2d06	0.020895492
105	0xbd234e30	-0.039869487
106	0x3d2e5d27	0.042569306
107	0xbc9455f7	-0.018107397
108	0xbcfe230a	-0.031022567
109	0xbd262ca8	-0.04056993
110	0xbd0956d0	-0.033530056
111	0xbcf7625c	-0.030198269
112	0xbc67cf8f	-0.014148607
113	0xbb4bbaab	-0.0031086605
114	0xbcfe75ca	-0.031062026
115	0xbcb6a598	-0.022295758
116	0xbda49225	-0.08035687
117	0xbb301514	-0.0026868032
118	0xbda5b0f6	-0.08090393
119	0xbdbd04fb	-0.092294656
120	0xbdd33af7	-0.10313981
121	0x3c8389df	0.016056953
122	0x3cb08640	0.02154839
123	0xbd4e2ba6	-0.050334595
124	0xbd3c9e52	-0.046049424
125	0x3c4ceae4	0.012507174
126	0xbc0f2265	-0.008736228
127	0xbd732a88	-0.059366733
128	0xbcadef50	-0.021232277
129	0xbcc00603	-0.023440367
130	0xbdb9ca3d	-0.09071777
131	0xbd37271c	-0.044715032
132	0xbb355253	-0.0027667477
133	0xbd712133	-0.058869552
134	0xbcbcee9a	-0.023062993
135	0xbce2cd4d	-0.027685786
136	0xbc948fc6	-0.018134963
137	0xbcaa06b3	-0.020755148
138	0xbd04a475	-0.0323834
139	0xbd3ee9a1	-0.046609525
140	0xbdbd37f9	-0.092391916
141	0xbde0c4e2	-0.109750524
142	0xbc044375	-0.008072724
143	0x3c599299	0.0132795805
144	0xbc804fc7	-0.01566304
145	0xbd6144ff	-0.05499744
146	0x3ca6ff7f	0.020385502
147	0xbd33affe	-0.04386901
148	0xbbcf9c06	-0.006335738
149	0xbd90f620	-0.070781946
150	0xbcd66800	-0.026172638
151	0xbced2ba3	-0.028951472
152	0x3ca730b3	0.020408964
153	0xbc244895	-0.0100270705
154	0x3b31f88a	0.0027156197
155	0x3b4f6724	0.003164717
156	0xbd150ac4	-0.03638722
157	0xbdb26a60	-0.08711696
158	0x3d41c40d	0.04730611
159	0xb83e4884	-4.5367065e-05
160	0xbd4f73ee	-0.05064767
161	0xbd230532	-0.039799877
162	0xbc135b89	-0.008993992
163	0xbb7b608e	-0.0038357112
164	0x3b6d9a34	0.0036255242
165	0x3c598925	0.013277327
166	0x3d24be3c	0.040220484
167	0xbcf93105	-0.030418882
168	0xbd4e15ed	-0.05031388
169	0xbc370686	-0.011170989
170	0x3cc9f10e	0.024651077
171	0x3c68108c	0.014164101
172	0xbd890340	-0.06690073
173	0x3b81f774	0.0039662663
174	0xbcae310f	-0.021263627
175	0xbd80261d	-0.062572695
176	0xbc89ff1b	-0.016845277
177	0x3d5f53fa	0.054523446
178	0xbb980538	-0.004639294
179	0xbdd5fee9	-0.10449011
180	0x3bbe79b4	0.005812848
181	0x3d142ca8	0.0361754
182	0x3d0fec01	0.03513718
183	0xbd172423	-0.036899697
184	0xbd0a2cf3	-0.033734273
185	0x3b07595f	0.0020652635
186	0xbbd5ec10	-0.006528385
187	0xbd816f6d	-0.06320081
188	0xbc3bb31a	-0.011456275
189	0x3d7207b6	0.059089385
190	0xbd0594e9	-0.032612715
191	0xbd766e6c	-0.0601639
192	0xbc2fc1c5	-0.010727351
193	0xbd26a954	-0.040688828
194	0xbd0ca488	-0.034336597
195	0xbc8af423	-0.016962117
196	0xbbccc835	-0.0062494525
197	0xbdafc3bc	-0.08582255
198	0xbc9ff406	-0.01952554
199	0xbccbd038	-0.02487956
200	0xbd2505ca	-0.040288724
201	0xbd06b622	-0.03288854
202	0xbd2c7f1c	-0.04211341
203	0xbcb5a952	-0.022175465
204	0xbd321830	-0.0434801
205	0xbc8b173a	-0.016978849
206	0x3b00363c	0.0019563576
207	0xbd7f64fb	-0.06235216
208	0x3c9f160e	0.019419696
209	0x3bcee598	0.006313991
210	0x3cac8fcf	0.021064667
211	0xbd05a83f	-0.032631155
212	0xbcbdad47	-0.023153914
213	0xbd429e5a	-0.047514297
214	0x3cfbe21d	0.030747468
215	0xba64fa17	-0.0008734776
216	0x3c73c696	0.01487889
217	0x3b463046	0.0030241176
218	0x3cc4d56b	0.024027547
219	0x3c424e30	0.011859462
220	0xbc97d3e5	-0.018533656
221	0xbd1be4d4	-0.038060024
222	0xbd487fb3	-0.04894991
223	0xbccfd4ff	-0.02537012
224	0xbd863922	-0.06553866
225	0xbcbae140	-0.022812486
226	0xbd666eeb	-0.056258123
227	0x3c423f82	0.011855962
228	0xba9e7e4c	-0.0012092083
229	0x3bc9a7fd	0.006154059
230	0xbd3ba4b4	-0.04581137
231	0xbd0bf0a5	-0.034165043
232	0xbb44da9c	-0.0030037528
233	0xbd776766	-0.060401343
234	0xbda876a4	-0.08225754
235	0xbd4444aa	-0.047917046
236	0xbd89570a	-0.067060545
237	0xbd6b86ef	-0.05750173
238	0xbd6d8cf4	-0.05799575
239	0xbc3558ca	-0.011068532
240	0xbd77576e	-0.060386114
241	0xbd8d9d97	-0.069148235
242	0xbd0b1ae8	-0.033961207
243	0xbd979f98	-0.07403487
244	0x3dc8913e	0.09793328
245	0xbd3a3d85	-0.045468826
246	0x3ca1fb8a	0.019773263
247	0xbc19b46a	-0.009381393
248	0xbd0904b3	-0.033451747
249	0x3d09a52c	0.033604786
250	0xbd5451e2	-0.051835902
251	0xbcf669dc	-0.030079775
252	0xbc742f48	-0.014903851
253	0xbda491b8	-0.08035606
254	0xbdac2806	-0.08406071
255	0xbdcc8277	-0.09985822

fc11.bias f4 [4]
0	0xbcd72823	-0.026264256
1	0xbcd78bf9	-0.026311861
2	0xbcb24603	-0.0217619
3	0xbcd28493	-0.025697982

fc3.weight f4 [512, 4]
0	0xbf44aa14	-0.7682202
1	0x3e3718c0	0.17880535
2	0x3f23fd09	0.64057976
3	0x3f84a719	1.0363494
4	0x3e3f5522	0.1868482
5	0xbdaf2479	-0.085518785
6	0xbf93f22d	-1.1558281
7	0xbf4f3fb4	-0.8095658
8	0x3f82c176	1.021529
9	0x3f85b100	1.0444641
10	0xbf1a9937	-0.6039004
11	0x3f514c83	0.8175737
12	0xbc8f9a47	-0.01752962
13	0x3b710305	0.0036775481
14	0x3d363235	0.044481475
15	0xbeb867d9	-0.3601673
16	0x3ddfb50c	0.10923204
17	0xbee5a88b	-0.4485515
18	0xbe675790	-0.22591996
19	0xbea3687d	-0.31915656
20	0x3f62c45b	0.88580865
21	0x3f3e1878	0.74256086
22	0x3ed2f64d	0.41203538
23	0xbec0f1a0	-0.37684345
24	0x3f47cc91	0.7804652
25	0xbf62e6df	-0.8863353
26	0x3e1a05b9	0.15041246
27	0x3e92b524	0.28653824
28	0x3e171f3a	0.14758006
29	0x3f0deb87	0.5543751
30	0x3e288bbd	0.16459556
31	0xbe2a2f19	-0.16619529
32	0xbf800d41	-1.0004045
33	0xbf2abe7d	-0.6669691
34	0x3fd85828	1.6901903
35	0xbf12d36f	-0.5735387
36	0xbf437603	-0.76351947
37	0x3f3021ef	0.6880178
38	0xbda723c6	-0.0816112
39	0x3ef1a950	0.47199488
40	0x3e11fb40	0.14256
41	0x3e8aef4b	0.2713569
42	0xbf7b1453	-0.9807789
43	0x3f25ef02	0.6481782
44	0x3ecb6a4c	0.39729536
45	0xbe9e8eda	-0.30968362
46	0xbee2f221	-0.44325355
47	0xbf963707	-1.1735543
48	0x3e9ad1db	0.30238232
49	0xbe0d4e99	-0.13799514
50	0xbee6e8ec	-0.4509958
51	0xbe14251d	-0.14467283
52	0xbf72a3c3	-0.9478113
53	0xbea60fe8	-0.3243401
54	0xbe0224f8	-0.12709415
55	0x3dde3fb3	0.108519934
56	0x3e80d82b	0.25164923
57	0x3f2d486e	0.67688644
58	0x3e8de4ac	0.27713525
59	0x3fb8b1cd	1.442926
60	0xbe253b15	-0.1613582
61	0x3e5d147e	0.21589848
62	0xbe2e2556	-0.1700643
63	0xbe30d521	-0.17268802
64	0x3f6245a9	0.8838754
65	0xbf252533	-0.64509887
66	0x3fa18935	1.2619997
67	0xbf1c6fce	-0.611081
68	0xbcdca5be	-0.0269345
69	0x3b0220c7	0.0019855963
70	0xbf683d07	-0.9071812
71	0x3e6f6bfa	0.23381034
72	0xbd91b96c	-0.071154445
73	0xbbbe8ec5	-0.0058153593
74	0xbeeb3f6e	-0.4594683
75	0xbcf02244	-0.029313214
76	0xbf1ef601	-0.6209412
77	0xbead85f6	-0.33891267
78	0x3dd7e29a	0.10541268
79	0xbf00d93f	-0.5033149
80	0x3dbb907b	0.09158417
81	0x3e4c77f8	0.1996764
82	0xbd1f425d	-0.03888165
83	0x3f82dce9	1.0223666
84	0x3de2bcd8	0.11071175
85	0x3f0b87cd	0.5450409
86	0x3c198ef6	0.009372463
87	0xbdf7e4c7	-0.12104183
88	0xbf1862fe	-0.5952605
89	0x3db9f439	0.09079785
90	0x3b45c07b	0.0030174542
91	0xbe59269d	-0.21206136
92	0xbea6c6fe	-0.32573694
93	0xbff26b8b	-1.893907
94	0x3f26b5b5	0.6512101
95	0xbf919778	-1.137435
96	0x3d62a172	0.055329747
97	0xbf70232d	-0.93803674
98	0x3ede18e4	0.43378365
99	0x3ea1a2d6	0.31569546
100	0xbceb2609	-0.02870466
101	0x3e53cf14	0.20684463
102	0xbf1b2a07	-0.60611004
103	0x3fa0567a	1.252639
104	0xbdd1e62b	-0.10248979
105	0xbe1277a7	-0.14303456
106	0xbc07f38d	-0.008297813
107	0xbf0078c5	-0.5018428
108	0x3d5a37c2	0.05327583
109	0x3d82a9eb	0.063800655
110	0xbf51830d	-0.8184059
111	0x3e4b1f0d	0.19836064
112	0xbe489856	-0.19589362
113	0xbecd6c24	-0.40121567
114	0xbd0ae1be	-0.03390669
115	0xbecb2b1c	-0.39681327
116	0xbd69049b	-0.056889158
117	0x3cf65788	0.030071035
118	0xbe8aa8d0	-0.2708192
119	0xbea745bc	-0.3267039
120	0x3c8c11d9	0.017098354
121	0x3f1b05b9	0.6055561
122	0x3d2981f8	0.041383713
123	0x3e8a2fde	0.26989645
124	0xbc932a60	-0.017964542
125	0xbf4980d3	-0.78712195
126	0x3dc0d977	0.09416478
127	0xbefcee28	-0.4940045
128	0x3da402af	0.08008324
129	0xbdf646f5	-0.12025253
130	0xbe8f4ba2	-0.2798739
131	0xbf51215c	-0.8169153
132	0x3e8613ac	0.26186883
133	0xbd11c100	-0.03558445
134	0x3fe48ccc	1.7855468
135	0xbe6d0b14	-0.23148757
136	0x3e2d40e4	0.16919285
137	0x3e1211e9	0.14264645
138	0x3f975b58	1.1824751
139	0x3e71b3f4	0.23603803
140	0xbb6000f7	-0.0034180263
141	0x3dd11b25	0.102102555
142	0xbf5340bf	-0.8252067
143	0x3ed37091	0.4129682
144	0x3deb6dd5	0.11495558
145	0x3e567a13	0.20945005
146	0xbcc6d361	-0.024270715
147	0x3eea28bc	0.45734203
148	0x3d404d75	0.04694887
149	0x3fb4ad53	1.4115394
150	0x3dc6d25c	0.097080916
151	0xbd81026c	-0.0629929
152	0x3d7a9d8b	0.0611854
153	0x3f4f7431	0.8103667
154	0x3d1b697a	0.037942387
155	0x3f0edfb0	0.5581007
156	0xbe2bd4a1	-0.1678033
157	0x3f830d14	1.0238366
158	0xbd48e93c	-0.049050555
159	0x3f4c398c	0.7977531
160	0x3e9b9386	0.3038599
161	0x3f8d8d73	1.1058792
162	0xbcff418c	-0.031159185
163	0x3e21c918	0.15799367
164	0x3e8b9e54	0.27269232
165	0xbf21b1b2	-0.63161767
166	0xbf3b35b8	-0.73128843
167	0x3f78381c	0.96960616
168	0xbe035512	-0.1282542
169	0xbf66e459	-0.9019218
170	0xbf8685b3	-1.0509552
171	0xbf760235	-0.9609712
172	0xbe2a8986	-0.16654024
173	0xbdea6edd	-0.11446927
174	0xbedddbee	-0.43331856
175	0xbf825741	-1.0182878
176	0x3f1eb806	0.6199955
177	0x3e07443e	0.13209626
178	0x3d026b88	0.03184083
179	0x3f8f3c57	1.1190289
180	0x3daf883b	0.08570906
181	0x3e2a2932	0.16617277
182	0x3ddc228f	0.10748779
183	0x3fc5f2e8	1.5464754
184	0xbe6623b8	-0.22474563
185	0x3fc495eb	1.5358251
186	0x3f1c06ff	0.60948175
187	0x3f5da7ae	0.86583984
188	0xbbe73446	-0.007055792
189	0x3f1c8e9b	0.611551
190	0xbefb1bfa	-0.49044782
191	0x3f84e3d8	1.0382032
192	0x3e0b1d73	0.13585453
193	0xbe36f83e	-0.17868134
194	0xbee512d8	-0.4474094
195	0xbf5f9bdd	-0.87347203
196	0xbfd1739e	-1.6363409
197	0x3e4e599c	0.20151371
198	0x3edabf3d	0.42724028
199	0x3da0d22d	0.07852588
200	0x3ee360c8	0.44409776
201	0x3efb72e2	0.49111086
202	0xbdf16e7b	-0.117886506
203	0x3f894331	1.072363
204	0xbf65da3c	-0.89786124
205	0xbf53ed01	-0.82783514
206	0xbcdfdcc2	-0.027326945
207	0x3d97fcfa	0.07421298
208	0xbf80dea7	-1.0067948
209	0xbced37f5	-0.028957346
210	0x3d60df32	0.054900356
211	0xbde60891	-0.11232103
212	0x3f1cabf8	0.61199903
213	0xbdb9fc53	-0.0908133
214	0xbd07d792	-0.03316457
215	0xbde633e5	-0.11240367
216	0x3f030030	0.5117216
217	0x3d566da6	0.052350663
218	0x3d4c34d7	0.04985508
219	0x3f6ef3ad	0.9334057
220	0x3f9f2320	1.2432594
221	0x3d662da8	0.056195885
222	0xb9580c1d	-0.00020603878
223	0xbfd8a927	-1.6926621
224	0xbe7169f0	-0.23575568
225	0xbe4c6f73	-0.1996439
226	0x3f365bf7	0.7123408
227	0xbf9b2017	-1.2119168
228	0xbe01cddc	-0.12676185
229	0x3ee3bf0b	0.44481692
230	0x3e10dc1b	0.14146464
231	0x3fc5359e	1.5406988
232	0xbf92439e	-1.1426885
233	0x3ec333b1	0.38125375
234	0xbf0a3047	-0.53979915
235	0xbfa6a816	-1.3020046
236	0xbf2c6ac3	-0.67350405
237	0xbeeaf8da	-0.45892984
238	0x3c2db4c7	0.010602183
239	0xbf03b469	-0.5144716
240	0x3fab795a	1.3396409
241	0xbe0fd382	-0.14045528
242	0xbd5f1cb9	-0.05447075
243	0xbebb64c3	-0.36600313
244	0xbe84c4d5	-0.2593142
245	0xbe8d3bee	-0.27584785
246	0xbe3f5038	-0.18682945
247	0xbea50278	-0.32228446
248	0x3fb02a48	1.3762903
249	0xbf0c7718	-0.5486922
250	0x3ece41be	0.40284532
251	0x3ed3f909	0.41400936
252	0x3f93f4d7	1.1559094
253	0xbeb4d9eb	-0.35322508
254	0xbe9c1389	-0.30483654
255	0x3f5c3ec8	0.86033297
