saved_models_2D/dataset_acc/best_no_freeze_fold_CVAE2D_4_5_100_200.pth (torch, 243409 bytes, 37 tensors)

conv1.weight f4 [16, 1, 3, 3]
000000 15 7c f3 3e 34 35 02 3f 99 f1 05 be 64 cf 1c be
       0.47555605 0.5086243 -0.13080443 -0.15313488
000010 ba 0f c5 3e d0 99 06 3f b0 0e 83 be 95 19 a4 be
       0.3848856 0.5257845 -0.25597143 -0.32050768
000020 29 b4 d6 3d dd ef 8e 3e 2e c5 ed bd 80 ff 7c be
       0.104835816 0.27917376 -0.11609875 -0.2470684
000030 b1 8a 51 3d 0a 19 22 be ab 6d 27 3e db 4e 37 3e
       0.051157657 -0.15829864 0.16350429 0.17901175
000040 8c e9 aa 3e 66 4f 24 3e e3 8e 69 be 77 64 0e 3d
       0.33381307 0.16045913 -0.22808413 0.03476378
000050 53 d3 8a 3e c9 2e 40 3e 00 18 fc bd d7 68 45 bf
       0.27114353 0.18767847 -0.12309265 -0.771131
000060 a6 7a c7 3e ec 2c 7c 3e ae 65 c7 be 8e 99 b1 39
       0.3896076 0.24626511 -0.38944763 0.00033874478
000070 3e b4 83 3c e2 31 ce bd 9d 42 d3 bd 40 2c 2e bf
       0.016077157 -0.10068108 -0.1031544 -0.6803627
000080 af 05 6f bf fb f9 0b bd ed 19 d6 bd 77 03 22 bf
       -0.9336805 -0.034173947 -0.10454164 -0.63286537
000090 66 db 2c bf ef 31 b5 3d d8 6c 87 bf 06 48 03 bf
       -0.67522275 0.08847415 -1.0580091 -0.51281774
0000a0 46 28 79 bd 22 36 92 bf eb 2d 6e bd a9 be 37 3d
       -0.060829423 -1.142277 -0.05814926 0.044859562
0000b0 44 d3 1a 3f 5d 47 ee bd 64 74 8c 3e df f3 80 3f
       0.60478616 -0.11634705 0.2743255 1.0074424
0000c0 87 38 29 bf 19 1d a8 3e 16 68 ac 3d de e2 17 bb
       -0.6610188 0.328347 0.0841829 -0.0023175995
0000d0 85 c6 91 bf 4f 2e cc be a3 68 c9 be 8a 97 33 3f
       -1.1388708 -0.3987908 -0.39337644 0.70153105
0000e0 44 7d b7 3e 0b 12 9a 3e 79 9a ca 3d ea 54 fe be
       0.35837758 0.3009189 0.098927446 -0.4967416
0000f0 93 e4 45 bf 16 63 0a bf 68 9a 02 bf 30 19 93 be
       -0.773019 -0.54057443 -0.51016855 -0.28730154
000100 97 ef be 3e 87 3e 25 bf 9d 64 69 bf d9 75 7c be
       0.37292168 -0.64548534 -0.9116915 -0.2465433
000110 fc 8a 96 be 87 79 1d bf 8b 10 30 be f7 b3 06 bd
       -0.29402912 -0.6151356 -0.1719381 -0.03288647
000120 e5 f7 8b be 73 96 94 bf 32 38 4a 3c 7c fe 98 3d
       -0.27337566 -1.1608413 0.0123425 0.07470414
000130 87 db 86 3d e0 7e 64 be ee 70 ea bd b3 af 51 bd
       0.0658484 -0.22314024 -0.11447321 -0.05119295
000140 0e e1 72 3e 98 12 38 3f 01 41 6d be 60 f3 04 3f
       0.23718664 0.7190337 -0.23169328 0.5193386
000150 98 58 7c be 08 54 5e bd f3 5c 26 be c6 db 62 bf
       -0.24643171 -0.054279357 -0.16246395 -0.886166
000160 c5 6b eb bd 70 dd fa 3d 72 2b 2c bf 65 9e 3b 3e
       -0.11495165 0.12249267 -0.6725379 0.18322141
000170 48 cf f7 3e 59 fa a7 be 28 67 03 bc ef 7e b1 be
       0.4840033 -0.32808188 -0.0080202 -0.34667155
000180 03 d2 d3 3e b9 fe 85 bf ce 10 a8 be 4d 5d 4d 3f
       0.41371164 -1.046836 -0.3282532 0.8022049
000190 04 b7 a8 3e e3 0b 7a be 00 d7 ec 3e 12 38 8f be
       0.3295213 -0.24418597 0.46257782 -0.27972466
0001a0 a8 fc 38 3f 2b 5b 2b be 00 d9 2c 3f fc 63 2a 3f
       0.7226052 -0.16733997 0.67518616 0.66558814
0001b0 87 7a 29 3e 46 2b f0 be 4a fe 76 3f 0d ed 9f bf
       0.16550647 -0.46908015 0.96481764 -1.2494217
0001c0 b2 7a 8d 3f b2 2a e1 3e 0b f7 e9 3d 05 f8 22 3f
       1.1053069 0.43977886 0.11424073 0.636597
0001d0 87 cc 0f bf d2 4d 3a 3e 23 6a b1 bb 9f 41 7b 3e
       -0.5617146 0.18193749 -0.005414264 0.24536751
0001e0 43 4c 7b 3e a5 19 98 be b6 7c 12 bf 96 2f c3 be
       0.2454081 -0.29707065 -0.57221544 -0.38122243
0001f0 bd 3e ff bd 5a 29 40 bf a6 a7 e8 3e f6 6c f8 be
       -0.12463138 -0.750631 0.45440406 -0.4852063
000200 e3 e2 99 3d 08 3c 73 3d 67 27 fe 3e 00 3e ec be
       0.07513978 0.059383422 0.49639437 -0.46141052
000210 0b 17 4b be 6d b2 1f bf 93 00 df be 3c bc 92 bf
       -0.19833009 -0.6238163 -0.43555126 -1.1463695
000220 1d 97 dd bd ae 0c 6b bd 89 0e d2 3e 44 d3 29 3e
       -0.10819838 -0.05738514 0.41026714 0.16584498
000230 67 02 3c bf 56 5d 87 3e 4d 26 0c 3d cf 13 cb bd
       -0.73441166 0.26438397 0.034216214 -0.099158876

conv1.bias f4 [16]
000000 50 d0 c8 bc d8 36 b0 bd 18 47 bd bd b2 fe ab 3d
       -0.024513394 -0.086042106 -0.09242076 0.08398189
000010 2b 4d 8e bd 9c 23 80 bd c6 f9 55 3d 4a 01 8b bd
       -0.06948312 -0.06256792 0.052240156 -0.06787355
000020 9e d7 b3 3c bf ed 9c 3c 8a d9 31 3d e4 3a a1 3c
       0.0219534 0.019156335 0.043420352 0.019681402
000030 b5 b3 01 3d a3 bf 92 3d f3 a0 27 bc 86 06 92 3c
       0.031665523 0.07165458 -0.010231244 0.017825376

conv2.weight f4 [32, 16, 3, 3]
000000 70 9b 25 be d1 5b 95 be 3d 60 15 3c ba 07 38 3c
       -0.16172576 -0.29171613 0.009117183 0.011232311
000010 0c 96 03 3e dc 9f 33 bd 26 bb ef bb 68 6b 07 be
       0.12850207 -0.043853626 -0.007316011 -0.13224566
000020 83 07 2f 3d a9 01 1f 3e 95 65 17 3e ca 26 29 3e
       0.042731773 0.15527977 0.14784844 0.16518703
000030 74 41 69 be 1c 35 54 bd 65 2d 7d bc a4 19 4f 3d
       -0.22778875 -0.05180846 -0.015452717 0.050561562
000040 81 ac 27 be 76 5f c0 3d 1b d2 dc bc 5a 3d 01 be
       -0.16374399 0.09393208 -0.026955655 -0.1262106
000050 cf 4d d5 bd c5 7c f7 bd 5e ec f1 3b 0b 8b 3f 3d
       -0.104152314 -0.12084345 0.0073829135 0.04676346
000060 0a e2 62 bd 1a f4 50 3e e8 92 38 3d 6b 8f 85 3d
       -0.05539135 0.20405617 0.045061976 0.065214954
000070 bb e3 cf 3d 71 c1 9c 3d 98 68 03 bd 60 aa 37 3b
       0.10150858 0.076540835 -0.03208217 0.0028025135
000080 9d a3 a9 3d 76 07 20 be 1b 7f 11 bc d9 8b 87 3d
       0.0828316 -0.15627846 -0.008880402 0.06618471
000090 80 b9 95 bd 84 04 4a 3d 0b a5 40 be 3a e1 23 3e
       -0.07310772 0.049320713 -0.18812959 0.16003886
0000a0 17 16 16 3e 9f 65 14 bb 0c 6a 26 be 38 82 72 bd
       0.14656864 -0.0022643579 -0.16251391 -0.059206218
0000b0 77 2d 12 3e 03 bf d1 bd d7 6e cf bc bc 49 db bc
       0.14275156 -0.10241511 -0.025321407 -0.026768558
0000c0 bd 4d 77 be 73 f3 1c 3e 16 85 40 3d 46 0c 01 3c
       -0.24150749 0.15327244 0.04700192 0.007876461
0000d0 44 68 d7 bd ef 78 12 be 68 0c fd 3c fb a4 78 3e
       -0.10517934 -0.14303945 0.030889705 0.24281685
0000e0 37 56 ad 3c f0 b3 ab 3d 62 94 1c 3e 1e ad fb 3d
       0.021159275 0.0838393 0.15290979 0.12288879
0000f0 c0 e8 4e 3c a2 38 27 be c5 98 e7 3d bc 82 4c 3e
       0.012628734 -0.16330197 0.11308435 0.19971746
000100 57 a1 01 be c3 6d 0f bd 69 16 d6 3d 32 77 0e be
       -0.12659203 -0.035016786 0.10453493 -0.13912657
000110 b0 c2 a1 bd c0 18 f5 3d 4c 39 97 bd eb b9 45 be
       -0.07898462 0.11967611 -0.073839754 -0.19309203
000120 73 16 cf bd a6 18 8b 3e 1b 5f 0d 3e 7d cb a3 3d
       -0.10111704 0.27167243 0.13805811 0.07997797
000130 05 6c 07 3e d7 11 26 bd 6a a7 d6 bd e3 97 05 3e
       0.132248 -0.040544357 -0.104811504 0.13046221
000140 07 c1 ec 3c 03 f3 e9 3c 99 5b ec bd 5a 58 29 be
       0.028900636 0.02855826 -0.11540908 -0.1653761
000150 a8 d1 92 bc fb 60 e5 3c c5 ba 00 3e e8 6a 44 bd
       -0.017922238 0.028000345 0.12571247 -0.047953516
000160 36 65 68 bd 87 80 47 3e c4 91 97 bc b7 c7 d5 3d
       -0.056737147 0.19482623 -0.018502124 0.10438483
000170 1b af ff bd af 91 85 bb 26 23 fe 3d 70 1a d1 bc
       -0.124845706 -0.0040762047 0.12409048 -0.025525302
000180 4a 40 d5 bd 20 32 f8 bc 0f dc b3 bd 7f fe 07 be
       -0.10412653 -0.030297339 -0.08782207 -0.13280676
000190 70 e0 a5 bd b9 7e 54 bd b9 f8 37 3d d0 a9 35 3c
       -0.08099449 -0.051878665 0.044914935 0.01108785
0001a0 69 4d 1f 3e d2 40 e7 3d cf 10 63 bb f3 44 03 be
       0.15556873 0.1129166 -0.003464747 -0.12819271
0001b0 13 58 c3 bd 75 ce c3 bd af 24 8e be 4d 6d 60 3d
       -0.09538283 -0.09560863 -0.27762362 0.054791737
0001c0 33 b7 04 bd 9e 72 b1 be fc db ed bd 9b ee ba bd
       -0.032401275 -0.34657758 -0.11614224 -0.09127542
0001d0 8b ef 55 bd 5c af 8d bd 24 b5 0a 3e f3 00 99 bc
       -0.0522304 -0.06918213 0.13545662 -0.01867721
0001e0 e6 a4 78 3d 20 0e 5d 3e b0 02 23 3e 49 64 6b bd
       0.060704134 0.2158742 0.15918994 -0.057468686
0001f0 64 80 2a 3e 6c 76 b2 3d 56 d0 71 3b a9 cc 13 3d
       0.1665054 0.087139934 0.003689786 0.03608385
000200 f0 90 b8 bd 61 57 30 3e 10 49 ac bd 4f e3 8e 3d
       -0.0901202 0.17220832 -0.08412373 0.069769494
000210 4d a3 b7 3d b0 e8 16 3d 73 ab 46 3e a8 ac a7 3d
       0.08966694 0.036843 0.1940134 0.081872284
000220 c5 58 b7 bd a8 aa 53 3d 9c ec 3d be e0 82 bc bc
       -0.08952478 0.051676422 -0.1854729 -0.023011625
000230 4e 23 19 be 59 1d f9 3c 98 d0 e9 3c 0d cc 4c 3e
       -0.14954874 0.030409502 0.028541848 0.19999714
000240 98 8e 84 bc b8 35 7f bd ca 78 54 be 85 ce 0d 3e
       -0.016181275 -0.06230709 -0.20749202 0.13848312
000250 6e 90 19 3e c3 5d 5c be 10 9c 15 3e f8 09 58 be
       0.14996502 -0.21520142 0.14610314 -0.21097553
000260 ad 9d af 3d 7b 2f 51 3e 62 49 52 3d 09 87 f4 bd
       0.08574996 0.20428269 0.051339515 -0.119398184
000270 97 4d 45 3e e2 5a 8b bc 95 cb f6 bd 79 75 25 3e
       0.1926788 -0.01701111 -0.12050549 0.16158094
000280 3e 5f 12 3e 7a f5 9f 3e 2a 8d bf bd 95 ce bf 3d
       0.14294145 0.3124197 -0.09353097 0.09365574
000290 c6 83 90 3c 56 e9 70 be 5a a2 04 be b8 54 8f bd
       0.01764096 -0.2352651 -0.12952557 -0.06998581
0002a0 a7 64 15 be 99 51 91 3c 31 20 04 3e 47 42 da bd
       -0.14589177 0.017739104 0.12902905 -0.10657173
0002b0 21 75 ef 3d e0 75 1f 3e 00 0e 0a bd 75 c7 c3 bd
       0.116922624 0.1557231 -0.033704758 -0.09559528
0002c0 67 06 e8 3d 70 ce f9 3c ee 2d 4d be 84 65 20 3d
       0.11329346 0.030493945 -0.20037052 0.039159313
0002d0 bd 39 f7 3d 87 07 ae be e1 95 c4 3d 60 13 c6 3d
       0.120715596 -0.33990118 0.095989 0.09671664
0002e0 3e 46 cd bd 53 9f 14 3e e3 7a 45 3d bd cf ea 3d
       -0.10023163 0.14513902 0.048212897 0.11465404
0002f0 99 dd 88 bc 44 9a 8f be d0 4d 9c bc be 6d 7b 3e
       -0.016707228 -0.28047383 -0.019080073 0.24553582
000300 5f dd 4c 3e d7 a8 3e 3e 2a cd 7c bd 77 c0 69 be
       0.20006321 0.18619095 -0.061719097 -0.22827326
000310 39 22 1b 3d 49 4f 76 bd c6 7a 2e bc 03 9b b0 3d
       0.037874434 -0.060134206 -0.010649389 0.08623316
000320 9d 77 05 3e e7 e5 93 be 17 55 46 be 27 ef 85 3d
       0.1303391 -0.2888634 -0.19368397 0.06539755
000330 cc 5e dc bd a8 3f ab bd ff 50 4d 3e 3f 75 da 3b
       -0.107602686 -0.08361751 0.20050429 0.006666809
000340 2d 7f 45 be 01 41 08 3e f3 6b 2f 3e 46 22 ca bd
       -0.19286795 0.13306047 0.17131023 -0.098698184
000350 b3 c4 94 bc 4f 17 15 3d e6 04 43 3e fb 87 a5 bd
       -0.0181602 0.036399182 0.19044837 -0.08082577
000360 a6 fe 2a bb cf b3 43 3d cf 00 0b 3d 9e 6e 81 bd
       -0.0026091724 0.0477789 0.033936318 -0.06319927
000370 ef 36 a6 3d 5c 7f 2a 3d a5 66 0f be 9f 0e 4f 3e
       0.081159465 0.041625366 -0.14004 0.20220421
000380 0f 25 c7 3d b0 da fc bd 73 34 29 3d ef 32 99 3d
       0.09723865 -0.12346399 0.041309785 0.07480418
000390 7d 25 03 3c ff b2 b4 3d 5c 8b 82 be c2 64 3f be
       0.008004543 0.08823203 -0.25496948 -0.1869078
0003a0 2e f0 31 be 2f aa 53 3d ab 87 5d 3e ad 45 ac bc
       -0.17376778 0.05167597 0.21633784 -0.021029318
0003b0 4e 09 9c 3d 3e 45 8b bd 0f 62 26 bc 5e 23 ac 3d
       0.07618962 -0.06800316 -0.010155215 0.08405183
0003c0 e3 6c 5c bd 4d 72 0f 3e 3a 94 a0 3d 1c 2c 25 3e
       -0.05381478 0.14008446 0.07840772 0.16130108
0003d0 5d 76 b9 3d 16 d1 35 be a0 a7 88 3e f9 75 c2 3d
       0.09055779 -0.17755541 0.26690388 0.09495158
0003e0 59 59 fe 3d 8d 8e 48 be 93 0e fd 3d 1f 32 e6 3d
       0.124193855 -0.19585629 0.123562954 0.112400286
0003f0 60 3c 93 3d da 12 a3 bd 3b 51 a9 bd 16 b2 d3 3d
       0.0718925 -0.0796258 -0.082674466 0.103367016

conv2.bias f4 [32]
000000 99 8d 38 bc b1 ff d3 3c 2f 41 d4 bc 80 af b3 ba
       -0.011264228 0.02587876 -0.025909988 -0.0013708919
000010 dd 6f 39 bb dc 31 f5 bb e0 e1 00 3c df 9c 22 bb
       -0.0028295435 -0.0074827503 0.007866353 -0.002481274
000020 d0 86 3b bd 7b 6e 1c bc 50 25 55 3c 5d 6a 67 3d
       -0.045782864 -0.009547825 0.013009384 0.05649792
000030 41 4b 39 bb f3 d7 9a bd 8f ed 93 3c fd ae b8 bd
       -0.0028273615 -0.0756072 0.018057613 -0.09017751
000040 ff df ac 3c 02 98 b6 bc 18 0f 48 3d e4 4b 54 3d
       0.021102903 -0.02228928 0.04884252 0.051830187
000050 44 0a 9d bd 3c 10 18 3e b1 fc 03 3c b6 51 6e 3b
       -0.07667974 0.14849943 0.008055852 0.0036364621
000060 66 98 c0 3d a9 9f 65 3c c2 2f 95 3d 7d cb 34 bd
       0.09404068 0.014015117 0.072845 -0.044139374
000070 40 dc fb 3c 0a 29 08 3d 7e da 24 3c 10 51 62 bb
       0.030744672 0.033242263 0.010061858 -0.003453318

conv3.weight f4 [32, 32, 3, 3]
000000 29 2f b8 3d 5f 83 ed 3d cf a5 3a 3d a5 75 ef 3c
       0.0899337 0.11597323 0.045568284 0.029230902
000010 fc 22 fc 3b 9c 8e 0c be 94 a0 43 bd 4f f3 27 bd
       0.0076946 -0.13726276 -0.04776056 -0.04100352
000020 0a 6b a7 bd df ec 21 3d 1a 32 f6 3d b2 b0 4c bd
       -0.08174713 0.03953254 0.12021275 -0.049973197
000030 05 ec af bd 25 eb 1f 3e 2a 22 98 bd a8 f3 e9 bb
       -0.08589939 0.15617044 -0.07428391 -0.007139642
000040 ad 43 21 3e b1 08 0b 3e 4c dc 59 3e 36 fd ab bd
       0.15748473 0.13577534 0.21275443 -0.083979055
000050 db 84 cc bd 51 80 1f 3c d0 4f 97 3d 3a 4d 58 3d
       -0.09986278 0.009735183 0.0738827 0.052808024
000060 a5 8e 0c 3e ec 07 3a bb 96 05 13 3e ad 19 91 bd
       0.1372629 -0.002838607 0.143576 -0.070849754
000070 2b c9 66 be 26 34 13 3d 7f f5 ca 3b 6d 40 1d bd
       -0.22537677 0.035938405 0.006193816 -0.03839152
000080 10 49 9d 3d 8d 08 9f 3d 9b 15 37 bd 38 4a d8 bc
       0.07679951 0.07765303 -0.04469834 -0.026402578
000090 e0 25 b1 bd fd ea fe 3c ca 81 37 3d 5e 1d 18 bc
       -0.08649802 0.03111791 0.04480151 -0.009284345
0000a0 8a 18 ab bd 3b 06 3f bd 35 0c e3 3c 0d 66 b9 bd
       -0.0835429 -0.0466368 0.027715782 -0.09052668
0000b0 1b 10 0d bd 26 cd a7 bd b7 10 16 3e 06 11 a2 3d
       -0.034439187 -0.08193426 0.14654814 0.07913403
0000c0 0c 90 33 3d 5c 52 71 3d 6b 0d 25 3d 2b 04 ab bd
       0.043838546 0.058916435 0.040296 -0.08350404
0000d0 31 a8 92 bc bf 79 9e 3b 57 6b 36 3d 3a eb a4 3d
       -0.017902466 0.0048362906 0.04453596 0.080526784
0000e0 7a a7 d1 bd 9d 5e 02 3e 82 b5 d5 bc eb f5 01 bc
       -0.10237022 0.12731405 -0.026087526 -0.007932167
0000f0 24 de 1f be 8c ea 73 3d c5 72 17 3c 3c 2f ec bc
       -0.15612084 0.059549853 0.009243672 -0.028831117
000100 e6 f9 07 3e 30 65 d6 3d 28 9b 91 be 9b aa 43 3d
       0.13278922 0.10468519 -0.28438687 0.047770124
000110 97 f4 a2 bd 0f 85 e1 3d 40 b9 96 bd 3d 16 6a bd
       -0.07956808 0.11011707 -0.073595524 -0.057150114
000120 4a 49 6b bc c5 bb 6a bd c5 47 78 bd 55 59 81 3d
       -0.014360735 -0.057307977 -0.06061532 0.06315867
000130 37 56 11 bd a1 9e 60 3d 86 66 b6 bd ce c6 44 bd
       -0.03548261 0.05483878 -0.089062735 -0.048041157
000140 51 af 1c 3d 64 33 45 bd a6 0d 79 3d 04 c1 69 3d
       0.038253132 -0.048144713 0.06080403 0.05706884
000150 89 2c eb bd 22 0e 0c 3b 60 d8 23 3e 4f 9f b4 3c
       -0.11483104 0.0021370729 0.1600051 0.02204862
000160 7a 35 85 3c 6c de 33 be bd 20 ef bc c3 cb 3b be
       0.016260851 -0.17565316 -0.029190416 -0.18339448
000170 02 8b 25 be 6b 81 29 3e 22 c0 a1 bc 95 a6 74 3a
       -0.16166309 0.16553275 -0.019744936 0.0009332684
000180 69 b7 7e 3c fc 83 41 3c c7 07 d0 3d 54 5e 2b bc
       0.015546658 0.011811253 0.101577334 -0.010459501
000190 b1 2a 2d bc 16 98 ae 3d 18 29 c7 3c 44 52 05 3d
       -0.01056926 0.08525102 0.024311587 0.032549158
0001a0 c1 6c c7 3c 10 c3 24 3d b3 80 c8 bd 5f c7 2f bd
       0.02434385 0.04022509 -0.097901724 -0.042914744
0001b0 b7 bb fd 3c 71 0c 84 bd f4 2e 3b 3e 16 ef e2 bb
       0.030973298 -0.064476855 0.1827963 -0.006925474
0001c0 54 84 c7 3d 54 af 0a bb 6c f9 9a 3c 8b 3f c3 bd
       0.097420365 -0.0021161633 0.018917762 -0.09533604
0001d0 22 34 92 bd 01 77 85 be b7 65 ac be 98 08 b8 bd
       -0.0713885 -0.26067355 -0.33671352 -0.08986014
0001e0 9a f5 05 bc f5 e3 83 3d 2a 20 c6 3d ac 67 90 bc
       -0.008176232 0.06439964 0.096741036 -0.01762756
0001f0 99 73 d1 3d 33 a4 33 3d 61 d1 35 bc 7f 65 0b 3c
       0.10227127 0.043857764 -0.011097283 0.008508085
000200 ea 22 e7 3d ac d1 34 3d 0f 2e 08 3d c9 0d d4 3c
       0.11285956 0.04414527 0.03324705 0.02588548
000210 9d a8 8d 3d ae 56 2a 3d d0 f1 9c be 6a 38 e9 bd
       0.06916926 0.04158657 -0.30653238 -0.11387713
000220 3b 65 99 bd ea 7a 03 3d d9 e1 0d bd 9d 71 a2 bd
       -0.07490011 0.03209964 -0.034639213 -0.07931826
000230 40 66 b7 ba a1 6e d3 3b 4a 32 bd 3c 5f 89 7f 3c
       -0.0013992265 0.006452397 0.023095269 0.015596717
000240 74 df bb 3c 7b d4 3f bd 73 4d 26 3a 55 c1 89 3d
       0.0229337 -0.046833497 0.00063439383 0.06726328
000250 32 a3 a4 bd 57 3a e0 bc 13 39 bd 3b 02 4d 08 bd
       -0.080389395 -0.027371569 0.005774626 -0.033276565
000260 c3 f5 6b 3d 91 ff da bc 65 78 e4 3c 2a 5a 07 bd
       0.057607424 -0.026733192 0.02788944 -0.03304497
000270 8b 58 ae bb 71 f1 66 bd 1f 5e 86 be 3a 9c 40 be
       -0.0053206137 -0.0563826 -0.26243684 -0.18809596
000280 80 27 9d bd 4d ec b2 bd 14 91 70 bd 53 1e 8c bd
       -0.0767355 -0.08736477 -0.058732107 -0.068417214
000290 0b 56 de 3c 07 03 ad ba 7f 08 e5 3d 30 e9 19 bc
       0.027140638 -0.0013199755 0.11183261 -0.009393975
0002a0 43 b7 bc 3d ef 96 78 3c 67 bc 0d be 20 cd 26 be
       0.09214642 0.015172704 -0.13841401 -0.16289186
0002b0 1f 77 58 be bc 9f 7b 3d 9c 00 a5 3b 1a 3a f4 bd
       -0.21139191 0.06143163 0.005035473 -0.119251445
0002c0 58 8f 2e 3d ae 5d 1a 3e 8d c7 64 bd b0 84 0c 3e
       0.042617172 0.15074798 -0.05585437 0.13722491
0002d0 0a ef f0 3d 3d a1 0e be 68 49 2b 3c 24 21 95 bc
       0.11764343 -0.13928695 0.010454513 -0.01820428
0002e0 c1 06 01 3a a9 be c9 bb 4f 40 12 3d fc fc 81 bc
       0.0004921966 -0.0061567617 0.03570586 -0.015867703
0002f0 3e 21 a5 3d 32 26 42 3d 6c d3 05 bd 0a ce da bd
       0.08062981 0.047399707 -0.03267233 -0.1068383
000300 35 53 74 3c 03 ff 45 3c f4 c6 bd 3d 47 44 e3 3d
       0.014912416 0.012084725 0.09266463 0.11097007
000310 00 fa cc bb 00 71 88 3d ce 49 fb bd 35 72 b5 bd
       -0.0062553883 0.06662178 -0.122699365 -0.08859674
000320 41 c9 c7 bd 11 fa 06 bb d4 f9 37 bc 25 25 9f 3c
       -0.09755183 -0.0020595829 -0.011228997 0.019426892
000330 d6 09 df 3c 94 ca 14 3e 22 3f d0 3c 2a ae 12 be
       0.02722637 0.14530402 0.02542073 -0.14324251
000340 fc d0 20 be 14 06 39 bd 7a ba 1b 3d b4 5f 91 bd
       -0.15704721 -0.045171812 0.038019635 -0.07098332
000350 1d 0e bb 3c 79 45 46 bc 12 97 36 bd 37 b7 32 3d
       0.022833878 -0.0121015245 -0.044577666 0.04363176
000360 c9 f9 42 be 51 2d 4c be af ee 60 be fc 83 4d bd
       -0.19040598 -0.19939162 -0.2196605 -0.0501747
000370 ee 82 5c bb aa b9 0d 3d a3 ea 4e bd 24 a3 b8 bc
       -0.0033647376 0.03460089 -0.050516736 -0.022538729
000380 e9 8a d2 3d 70 31 1d 3d b3 3b 25 be 52 b6 73 bd
       0.10280401 0.038377225 -0.16136055 -0.059500046
000390 b2 50 83 3d 89 d8 b3 3d e9 68 98 3d 02 4a fb bd
       0.06411876 0.08781535 0.07441885 -0.12269975
0003a0 bd da 1d bd f7 90 ff 3d f7 79 ae bd 1b 78 ab bc
       -0.038538683 0.12478822 -0.08519357 -0.020931294
0003b0 e8 60 c8 3c ef 56 11 bc bd 19 bb bd 40 53 8a 3d
       0.024460271 -0.008870824 -0.091357686 0.0675416
0003c0 e0 de 19 3c bd 54 37 3e 40 69 a6 bb 2b 86 8a 3c
       0.009391516 0.17903419 -0.0050784647 0.01690968
0003d0 63 9c 86 bd c5 12 9d bd e4 36 18 3e af 99 02 be
       -0.06572797 -0.07669596 0.14864689 -0.12753938
0003e0 d3 a8 25 3b 02 24 7a 3c 62 9a 87 3c 8c e2 1b bd
       0.002527763 0.015267374 0.016553108 -0.03805785
0003f0 5e 03 f6 bd bf b1 b7 3b f6 6a ee 3d 95 b0 f1 bc
       -0.12012361 0.005605906 0.11641495 -0.029503146

conv3.bias f4 [32]
000000 11 06 f5 bd d7 26 6c 3d d8 09 27 bd f0 08 a9 3d
       -0.11964048 0.057654228 -0.040780872 0.08253658
000010 70 ad 1b 3b 32 7b 23 3d ad ec a4 bd a6 45 4d 3d
       0.00237545 0.03991241 -0.08052955 0.05011525
000020 8e 8e 0c bc c2 67 2f 3d 5f 07 17 bd 23 a8 65 bd
       -0.00857891 0.04282356 -0.036872264 -0.05606855
000030 5c 57 1b bc a1 1f 9d bc e7 ad a7 3d ab 82 4c 3d
       -0.009481277 -0.01918012 0.08187466 0.049929302
000040 f8 a2 25 3d 0f bf d8 bc 52 a9 48 bd 3b b8 ec bb
       0.040438622 -0.026458291 -0.0489896 -0.0072241104
000050 f3 59 fa bc 50 a6 b4 bc 7d fe 51 bb 59 bd 81 3d
       -0.03056047 -0.02205196 -0.0032042556 0.06334943
000060 d4 2d 49 3d c8 74 a0 bc 9c 5f 31 3e 12 27 08 3d
       0.04911597 -0.019586936 0.17321628 0.033240385
000070 34 2a fd 3c 2d e4 a8 bd eb 70 d2 3d 6b 59 cd 3c
       0.030903913 -0.08246646 0.10275444 0.025067052

bn1.weight f4 [16]
000000 bd 4d 8b 3f d2 c0 82 3f 09 a0 69 3f 0a d4 7c 3f
       1.0883099 1.0215094 0.9125982 0.98761046
000010 03 e9 75 3f f7 27 7e 3f 64 88 79 3f c7 ee 80 3f
       0.9605867 0.9927973 0.9747374 1.0072869
000020 bc 0e 7a 3f 95 68 6e 3f 70 c3 77 3f cc 75 88 3f
       0.9767873 0.9312833 0.9678259 1.0660949
000030 44 b2 82 3f c4 fe 7a 3f 5f c9 7c 3f 08 fb 6f 3f
       1.0210652 0.9804499 0.9874477 0.9374242

bn1.bias f4 [16]
000000 65 39 d4 3d 5e 83 85 3c 75 9c ba bc dd 6b cd 3b
       0.1036251 0.016297992 -0.022779683 0.006268962
000010 00 ae 17 bd 3e ef 4d bb 89 4d 62 bc 7b f6 47 3b
       -0.037031174 -0.0031423117 -0.013812431 0.0030511904
000020 fb 59 a6 3a 31 a7 29 bc f0 e2 a3 3a bd 98 04 bc
       0.0012691611 -0.010354803 0.0012503546 -0.008093056
000030 88 45 75 3d 44 c4 0b 3d 18 e6 11 bd 94 7a 16 bd
       0.059880763 0.03412272 -0.035619825 -0.036737993

bn1.running_mean f4 [16]
000000 ff 90 22 3e 81 0e 91 3c 74 4b 1d be a9 c2 a8 be
       0.15875624 0.017707111 -0.15360814 -0.32961014
000010 74 90 03 bf 42 f7 26 be 7c 98 18 be 5e c7 05 bf
       -0.5139229 -0.16305259 -0.14901918 -0.52257335
000020 12 06 56 be 65 1f 0f bd d7 66 63 be 98 39 fe 3e
       -0.20900753 -0.03494205 -0.22207199 0.49653316
000030 7c ce 5d 3e b1 c0 26 be 8e 04 43 be a4 a1 3e be
       0.21660799 -0.16284443 -0.19044706 -0.18616349

bn1.running_var f4 [16]
000000 e5 59 27 3e 08 bb 4c 3d 36 6d 16 3d 5e 96 3f 3f
       0.16342886 0.049983054 0.036725245 0.7483882
000010 9a 70 5a 3f 55 54 0a 3e 80 2d 5b 3e be ad 59 3f
       0.85328066 0.13508733 0.21404076 0.85030735
000020 a9 a7 7a 3e 26 d0 5e 3d 61 d0 9f 3e 04 dd 6d 3f
       0.2447802 0.054397725 0.31213668 0.9291537
000030 74 36 48 3e 0e 67 87 3e 60 76 23 3e 3a e3 41 3e
       0.19552022 0.26445812 0.15963125 0.18934336

bn2.weight f4 [32]
000000 16 c9 78 3f a5 68 80 3f e3 93 7d 3f 76 97 84 3f
       0.9718183 1.0031935 0.9905378 1.0358722
000010 00 6a 82 3f 85 7a 81 3f 66 ee 76 3f ed 51 7b 3f
       1.0188599 1.0115515 0.9645752 0.98171884
000020 9c b5 6b 3f b4 89 80 3f f4 8f 85 3f 40 a6 83 3f
       0.9207399 1.0042024 1.0434556 1.028511
000030 86 c2 6c 3f f6 bb 84 3f ec c7 6c 3f b0 39 6e 3f
       0.9248432 1.0369861 0.92492557 0.93056774
000040 d4 5e 87 3f bc 00 74 3f d1 53 84 3f e6 30 84 3f
       1.0575814 0.9531362 1.0338079 1.0327423
000050 39 b4 70 3f 7f 3a 72 3f 57 53 79 3f 22 9d 70 3f
       0.94025 0.9462051 0.9739279 0.93989766
000060 16 d9 85 3f 3e e4 89 3f e2 96 7b 3f f8 0f 7b 3f
       1.0456874 1.0772779 0.98277104 0.9807124
000070 9c 20 7b 3f 47 42 6f 3f a4 14 85 3f ff 5c 7a 3f
       0.9809663 0.93460506 1.0396924 0.9779815

bn2.bias f4 [32]
000000 b7 dc 93 bb 9b 0b b7 bc ef 0c 9d ba 34 22 8a 3b
       -0.0045123952 -0.022344401 -0.0011982004 0.004215503
000010 bf fe 3b 3c 18 78 f6 bb 5d 5a e9 bc 06 1f 39 3c
       0.01147431 -0.0075216405 -0.028485471 0.0112989005
000020 76 34 86 3b d8 3b 9b 3c 37 c0 75 3c 0f 2c 7f 3d
       0.0040956093 0.018949434 0.014999441 0.062297877
000030 38 0f 79 3b 15 6b 6c 3d 05 a2 91 bc 18 34 02 3d
       0.0038003456 0.05771931 -0.017777452 0.03178796
000040 af 83 14 3c b9 0b fc bb f7 b8 c6 3c e2 5d 4e 3c
       0.009064599 -0.007691827 0.02425812 0.012595626
000050 28 80 72 bd 36 2d d4 bc f7 4c 86 bc 0f ef 27 bd
       -0.05920425 -0.025900465 -0.016394122 -0.04099947
000060 95 d6 3d 3c b6 e3 f8 3c fb 85 e1 bb 4b 61 ee bb
       0.011586805 0.030382019 -0.006882427 -0.007274782
000070 fb 32 90 3c 00 d5 aa bc 01 54 f1 3c 5d 78 18 bc
       0.017602434 -0.02085352 0.029459001 -0.009306041

bn2.running_mean f4 [32]
000000 79 05 59 bb 30 58 ee 3d 47 90 c7 3c 97 6b 29 3e
       -0.0033114834 0.11637914 0.024360789 0.16544949
000010 f8 7d 9b 3d 67 f8 2d bf 84 40 93 be 0b bd 1b bf
       0.07592386 -0.67957157 -0.2876016 -0.6083533
000020 54 af 7a bf 75 ab 9b bc a0 71 fd be 41 ba 73 bd
       -0.9792378 -0.019002656 -0.49500751 -0.059503797
000030 53 9d aa bf f7 c7 4a 3d 16 4d af 3e 7c 60 d2 3f
       -1.3329262 0.049507108 0.342385 1.6435695
000040 f4 23 08 bf 78 9f c5 3e 89 28 8a 3e 1c c5 bb 3e
       -0.5317986 0.38598228 0.2698405 0.3667382
000050 f9 b7 7a be ac 2b 3a be 52 58 27 be d0 9a 57 3e
       -0.24484242 -0.18180722 -0.16342285 0.2105515
000060 c0 70 8a 3e 1a 2d 04 3f b8 93 34 3f 25 14 59 3e
       0.27039146 0.5163132 0.705379 0.21199091
000070 c7 b0 75 bf a7 4d 95 bf e7 06 f4 3e 16 ff 07 bf
       -0.95972866 -1.1664323 0.47661516 -0.53123605

bn2.running_var f4 [32]
000000 f3 33 ca 3f c0 43 e1 3f 83 b4 e3 3f 39 7f 07 40
       1.5797104 1.7598801 1.7789463 2.11714
000010 4e af 88 3f a1 b6 47 3f 07 8d 4f 40 76 8a 19 40
       1.0678499 0.78013045 3.2429826 2.399076
000020 4d ca 12 3f d7 09 e7 3f 11 85 58 40 3a 41 f7 3f
       0.57339936 1.8049878 3.3831217 1.931678
000030 f9 95 8c 3f 10 5a e6 3f c9 b2 de 3f b4 a4 a4 3f
       1.0983268 1.7996235 1.7398311 1.2862763
000040 ee 44 b4 3f ed b7 b7 3f 3d 08 b0 3f 3d 13 27 40
       1.4083536 1.4353005 1.3752514 2.6105492
000050 3e f1 2e 3f 04 2b b3 3f 75 34 27 3f 64 3d 80 3f
       0.68336856 1.3997502 0.6531442 1.0018735
000060 1a da 11 40 a6 77 5b 40 b6 4b c4 3f f1 ca 07 40
       2.2789369 3.4291778 1.5335605 2.1217616
000070 70 5e 3d 3f 85 c0 0d 3f 5d d3 14 40 c5 a3 e5 3f
       0.73972225 0.55371886 2.3254006 1.7940603

bn3.weight f4 [32]
000000 e2 01 50 3f ce ae 50 3f b1 8b 61 3f 37 0f 54 3f
       0.8125287 0.8151673 0.8810378 0.82835716
000010 84 cc 4e 3f 18 15 1e 3f 6f 74 56 3f 36 ed 4a 3f
       0.80780816 0.61750937 0.83771414 0.79268205
000020 aa f5 55 3f 02 44 56 3f 55 bb 3a 3f 83 c6 55 3f
       0.8357798 0.8369752 0.72942096 0.8350603
000030 1e 24 24 3f ec e3 63 3f 5b a0 2c 3f 8f 10 59 3f
       0.6411761 0.89019656 0.67432183 0.8479089
000040 3d 73 41 3f c4 7b 38 3f 5a db 5a 3f 48 88 5a 3f
       0.75566465 0.7206385 0.85490954 0.853642
000050 97 9e 56 3f 9c 95 47 3f 1c c8 46 3f 5a 1c 35 3f
       0.8383574 0.7796266 0.7764909 0.70746386
000060 3b f2 2f 3f f2 e5 46 3f 01 be 55 3f 51 9c 45 3f
       0.6872899 0.7769462 0.8349305 0.77191645
000070 63 fb 3c 3f 7d bb 4d 3f a7 7a 3e 3f be e6 65 3f
       0.73821086 0.8036421 0.744059 0.8980521

bn3.bias f4 [32]
000000 f3 4e 22 be cc 4e 0e be d3 d4 ba bd a3 4f 16 be
       -0.15850429 -0.13897246 -0.09122624 -0.14678816
000010 6a 0b 18 be 61 33 26 be bc 9a f7 bd 84 81 0f be
       -0.14848104 -0.16230537 -0.1209006 -0.1401425
000020 09 7b 21 be bb 16 02 be 0d 4c 60 be 47 65 20 be
       -0.1576959 -0.12703983 -0.21904011 -0.15663634
000030 35 37 49 be 90 98 c8 bd a0 fa 95 be d4 db dc bd
       -0.19649966 -0.09794724 -0.29292774 -0.107841164
000040 44 de 5f be db 61 73 be eb 8c 16 be 7b 57 0a be
       -0.21862131 -0.23767798 -0.14702193 -0.13509934
000050 49 21 49 be 5d af 23 be 18 38 63 be ce 55 47 be
       -0.19641604 -0.15984865 -0.22189367 -0.19466326
000060 a9 ec 60 be 49 7e 95 be a5 dd 01 be 27 35 53 be
       -0.21965279 -0.2919791 -0.12682207 -0.20625745
000070 4a 9b 59 be a8 7b df bd af 9d 21 be b4 27 a1 bd
       -0.21250644 -0.109122574 -0.15782808 -0.07868901

bn3.running_mean f4 [32]
000000 64 70 79 bf a1 3a 31 3f bb 9b 82 bf 5e 48 81 bf
       -0.9743712 0.69230086 -1.0203775 -1.010021
000010 3d 39 87 bf 0e 50 35 bf ed e7 02 bd 41 20 ab bf
       -1.0564343 -0.7082528 -0.031959463 -1.3369218
000020 d7 7b e5 3f a9 9c 1a bf e8 8c 3e bf 83 03 75 bf
       1.7928418 -0.60395294 -0.74433756 -0.95708483
000030 9d 87 55 3e 83 2a 8c bf 52 25 7e bf eb 9f 84 3e
       0.20852514 -1.0950474 -0.99275696 0.25903258
000040 e3 8f 02 c0 d5 a4 83 bf 02 73 e2 bf 0e 93 af bd
       -2.0400321 -1.0284678 -1.7691348 -0.0857297
000050 2d ad 78 3e 05 96 f8 be 03 48 77 be 55 38 49 bf
       0.24284811 -0.48551956 -0.24148564 -0.7860158
000060 db 59 81 bf 7f 20 cc bf 1e 54 ce bc 81 72 20 bf
       -1.0105547 -1.5947417 -0.025186595 -0.6267472
000070 1f 89 4b 3f e3 0e 76 bd 21 bf 44 bf b1 e5 6a 3f
       0.79506105 -0.06007279 -0.7685414 0.9175673

bn3.running_var f4 [32]
000000 e3 9d b8 40 0c c5 2b 41 6d 56 f9 40 1c cb 8f 40
       5.7692733 10.735607 7.7918 4.4935436
000010 e5 09 74 40 fc ad 43 40 8d 68 33 41 ac 36 66 40
       3.813104 3.0574942 11.213025 3.597087
000020 db 75 6f 40 6d 2e dd 40 45 6c dc 40 6e bc a5 40
       3.7415683 6.911917 6.8882165 5.1792517
000030 27 3a e2 40 33 eb 0e 41 d5 a7 b2 40 7e 23 fc 40
       7.0695987 8.932422 5.5829873 7.8793325
000040 40 bd 8b 41 91 e6 d6 40 8a 23 9e 40 8c 5c 85 40
       17.467407 6.7156453 4.9418383 4.167547
000050 19 75 2f 41 c5 20 07 41 d4 75 aa 40 03 3b cd 40
       10.966088 8.4455 5.3268833 6.4134536
000060 ff 61 82 40 a5 b3 8b 40 60 45 ef 40 32 2c 94 40
       4.0744624 4.3656793 7.4772186 4.630395
000070 6d c2 cc 40 e4 d6 8e 40 b4 71 70 40 5b 56 31 41
       6.3987336 4.463732 3.75694 11.083583

fc10.weight f4 [4, 2048]
000000 ac 73 f8 bc 4e 69 28 3c 93 fa 14 bc fa 5b f5 3c
       -0.030328594 0.010279013 -0.009092945 0.029951084
000010 1f 88 01 bc b9 e0 91 bb 56 71 f2 3a ce d8 45 bb
       -0.007905989 -0.004451838 0.0018496912 -0.003018904
000020 0d b0 91 3c 82 3c 89 3c 1a 03 f6 3c 64 06 ef bb
       0.017784143 0.016752485 0.030030776 -0.007294463
000030 67 b6 74 3c ab 95 ff 3c 6c 58 eb 3c 9c 3e d5 bc
       0.014936066 0.031199297 0.028728686 -0.026030831
000040 71 d8 65 bd 13 68 7a bc e1 4c 43 bc ef b6 87 bc
       -0.056114618 -0.015283602 -0.011920185 -0.016566722
000050 c6 65 fa bc 5b 86 38 bc 3e 43 e9 bc 6a b4 9c 3c
       -0.030566107 -0.011262502 -0.028474446 0.019128997
000060 89 e9 b5 3c 04 6e 4a bd a4 65 c7 bb 9b aa 26 3c
       0.022206085 -0.049421325 -0.0060851146 0.010172511
000070 c4 a5 04 3d f5 37 85 3c 43 ba bf bc 1e 59 0c bd
       0.03238465 0.016262034 -0.023404246 -0.034264676
000080 1f 81 10 3d 0d e6 93 bb 0d c3 c7 bc c6 f5 0a 3d
       0.03527939 -0.004513508 -0.024385 0.033925794
000090 9c 7b 3d 3d f6 bc 0b bd a2 c2 53 3c e9 dd 82 bc
       0.04626046 -0.034115754 0.012924822 -0.015974956
0000a0 06 c2 9b bc 57 c5 c3 3b 85 29 8f 3d 83 73 9e 3b
       -0.019013416 0.0059744525 0.06990341 0.0048355474
0000b0 a4 c0 9e 3d 28 78 c3 3c 28 f9 e0 bb ff f2 d8 3c
       0.07751587 0.023861006 -0.0068656392 0.026483057
0000c0 8b 3b 88 3b ab be f8 bd b4 df 08 bd 72 a7 ea 3c
       0.0041574887 -0.12145742 -0.033416465 0.028644297
0000d0 6f 96 8b 3d 77 01 bb bc 73 e0 a7 bc 17 18 12 bd
       0.06815802 -0.022827847 -0.020492768 -0.035667505
0000e0 ff 24 dc bb 7f 21 bc 3c 59 b5 c6 ba 75 c8 d3 3c
       -0.0067182775 0.022965191 -0.0015160247 0.025852421
0000f0 73 24 b4 3c 48 4b 8c 3a e8 9e 92 3c d0 f8 1b 3d
       0.021990037 0.0010703588 0.017898038 0.038079083
000100 db a4 ae bc 9b 66 60 3c f4 11 9a 3c 5a 3d 31 3d
       -0.021318844 0.013696338 0.018807389 0.0432714
000110 a1 98 94 bc 77 78 71 3d fe 90 92 3c 72 1e 35 bc
       -0.018139185 0.058952775 0.017891403 -0.011054622
000120 a0 3d ea 3b af 6c 91 bd f7 40 41 3c e1 ac 5a 3d
       0.0071484596 -0.07100808 0.011795274 0.053387526
000130 64 ce ab bc e2 d3 28 bc 2b e9 78 3d 60 0f 36 bd
       -0.020972438 -0.010304423 0.06076924 -0.044448256
000140 5a a4 8b bc c3 31 93 3c b5 c4 3b 3a 92 f2 2e 3d
       -0.017046142 0.017968064 0.00071627955 0.0427118
000150 4d c3 a6 3c 2a 7e c0 3b 5f 6b cc ba 3c 8a fd 3b
       0.020356799 0.005874415 -0.0015595964 0.007737426
000160 59 23 1a bd 75 bf 0d 3d aa db 99 3a ac 9c e0 b9
       -0.037631366 0.034606416 0.0011738439 -0.0004284134
000170 ff 91 b8 3c cf b5 80 3a 39 48 bc bb 34 59 f6 bc
       0.022530554 0.0009819808 -0.0057459143 -0.030071832
000180 07 33 18 bd f3 f0 16 bd ba 38 5e 3d 61 61 46 bc
       -0.03715804 -0.03685088 0.054253317 -0.012108178
000190 93 11 fb 3c c3 11 39 3c fb d5 72 3c 64 47 a1 bc
       0.030648028 0.011295739 0.014821525 -0.019687362
0001a0 c2 29 5b bb 1c e6 26 3b 7b 86 78 bd b8 ee c1 bd
       -0.0033441638 0.0025466746 -0.060675126 -0.0946936
0001b0 8d b3 06 bd 70 a6 ac b9 67 f5 c2 bc c3 a9 bc bc
       -0.032886077 -0.00032930402 -0.023798658 -0.023030167
0001c0 62 13 40 3a 35 d3 b5 bc 3b 68 04 bd 51 63 45 3b
       0.0007327107 -0.022195438 -0.032325964 0.0030119012
0001d0 be 90 02 3d 9e 20 46 3c 5c c1 33 bc 91 67 26 3d
       0.03187632 0.0120927375 -0.010971393 0.040626112
0001e0 fe 0b 80 bd f7 4c af 3d c4 85 97 bc af 7a c7 bc
       -0.06252287 0.08559602 -0.018496402 -0.024350492
0001f0 d3 93 e9 bc d2 0c 2c 3c 4c 55 e6 bc bb 1c 7f bc
       -0.02851287 0.0105011035 -0.028116845 -0.015570815
000200 f9 88 0a 3d 8f 20 9e bb bf c3 97 bd 1c d6 35 bd
       0.033822034 -0.0048256586 -0.074103825 -0.044393644
000210 9d 70 27 bd 91 bf b2 3c 50 fc c8 bb be 47 5f bd
       -0.04087888 0.021819862 -0.0061335936 -0.054511778
000220 ab b4 89 3c 8a f0 19 bc c2 b2 4e bc 4b b2 21 bd
       0.016809782 -0.009395728 -0.012615861 -0.039476674
000230 d2 17 54 bd 46 9e 14 bb e7 4e 55 bc 17 48 b4 3c
       -0.05178053 -0.0022677346 -0.0130193 0.022007031
000240 da 05 9c 3b 9c 73 52 bc da ce 37 bc dd 49 9e bc
       0.0047614397 -0.012844946 -0.011218751 -0.01932233
000250 2b ab 0f be 2e f2 b1 3c c6 4c 5b 3c f4 97 db bc
       -0.14030139 0.021721926 0.013385003 -0.026805855
000260 ad 94 9d 3b aa 40 cb 3c 35 58 1a 3c da 29 9e bd
       0.0048089833 0.024811108 0.009420444 -0.07722826
000270 55 be e3 bb 2d 61 21 bc df ac 15 bd 72 5b 3f bc
       -0.0069501796 -0.009849829 -0.036541816 -0.011679517
000280 51 2e eb 3c 6f 77 27 3d 01 87 12 bd 92 e0 0d 3d
       0.028708609 0.040885385 -0.03577328 0.034637995
000290 96 ee 28 3d 04 af 20 bd ac ed 15 3d 66 e5 2c bd
       0.04124316 -0.039229408 0.036603615 -0.04221096
0002a0 2a 19 9b bd 82 8a 94 bc 6f 21 c4 3c b2 2d ce ba
       -0.07573159 -0.018132452 0.023941724 -0.0015730171
0002b0 20 9e d3 3c bd 9a 83 bc a3 22 10 3c f8 63 a7 3c
       0.025832236 -0.016064996 0.008797321 0.020433411
0002c0 8a b9 4a 3d 52 85 79 3c cc 72 32 3d 0a 0f e1 bc
       0.04949335 0.01522954 0.04356651 -0.027472991
0002d0 1e 7e cf bd 0d d2 be 3c 70 36 8d 3b 5a ef 8b bc
       -0.10131477 0.02329352 0.004309468 -0.017081905
0002e0 fb c1 8f bb 26 5e 50 3c 9a 15 04 3d 8e a2 55 bd
       -0.004387138 0.012717759 0.032247163 -0.052156977
0002f0 74 a9 87 3d 3f 65 2e 3d b7 07 2a 3c 86 06 c9 bc
       0.066241175 0.042577025 0.010377816 -0.024539243
000300 29 79 70 bc f3 50 14 3d 55 35 fe bc 0b 2d 4b bd
       -0.014677324 0.03621001 -0.03103129 -0.049603503
000310 ff e3 1f 3b ce 33 31 3d a3 34 74 bc 2f cf c0 b9
       0.002439737 0.043262295 -0.014905128 -0.00036775458
000320 88 33 11 3d 69 80 b7 bc 3d c9 1b bd d5 01 9c 3b
       0.035449535 -0.022400098 -0.038033713 0.0047609606
000330 d1 64 1c bc ec 4d 77 3d e0 f6 0f 3d 9f 6d 12 bd
       -0.009545521 0.060377046 0.035147548 -0.035749074
000340 eb 46 14 3c e4 ca 37 3d 90 1a 4e bc 9d 6b 24 bb
       0.009050111 0.044871226 -0.012579575 -0.0025088557
000350 e6 b2 a4 bc b0 8c 77 3c 98 e4 1b bb 16 5c 8e 3c
       -0.020104837 0.015109226 -0.0023787376 0.017377894
000360 e2 3b 18 3c b3 93 b4 3c 40 c2 d0 3c a7 29 c9 bd
       0.009291621 0.022043085 0.02548325 -0.09822398
000370 d0 d9 51 bc 8a c4 39 bc 3a 47 1e 3d 4e 06 10 3c
       -0.012808278 -0.0113383625 0.038642146 0.008790566
000380 e8 a3 b6 bb 92 39 ba bc 78 5a 71 bc de c3 d2 bc
       -0.0055737384 -0.02273253 -0.014731042 -0.025728162
000390 0c 69 1f bc e9 a9 f3 bb e5 59 0d bd 81 b0 a6 3c
       -0.009729635 -0.0074360264 -0.03450956 0.020347835
0003a0 55 5f 24 bd b4 3e 68 3c 5e 84 60 bc 22 3c 13 bd
       -0.04012998 0.014175106 -0.013703434 -0.03594602
0003b0 1c 6d 9f bb ee e8 b8 3b b9 6d 12 3c e0 f5 ef bc
       -0.004865302 0.0056430018 0.008937293 -0.029292047
0003c0 08 4a 73 3d 73 55 00 3d cc 44 78 3d 9c 9d 41 bc
       0.059396774 0.03133149 0.060612485 -0.011817362
0003d0 dc d2 8d bd 29 fa 6d bd db ea 9e bc 60 5f 1f bc
       -0.06924984 -0.0580999 -0.019399097 -0.009727329
0003e0 dd d6 7c 3d 64 ac ce bb 14 3a 3b bd 20 c1 02 bd
       0.061728347 -0.0063071717 -0.045709684 -0.03192246
0003f0 cb ea 5f be 9f 5f 3a 3d e0 9d ab bc e6 77 e1 bb
       -0.2186691 0.045501348 -0.020949304 -0.006880748

fc10.bias f4 [4]
000000 ac 47 14 3b 81 25 c2 b9 ef 75 9f ba b8 9d 1e bb
       0.0022625728 -0.00037030506 -0.0012165884 -0.0024202894

fc11.weight f4 [4, 2048]
000000 cb d8 a0 bd 34 e2 ed 3b fc 6b 51 3b e6 0d 5d 3d
       -0.0785385 0.0072596315 0.0031955233 0.053968333
000010 0c 47 b5 bc 64 89 2e 3d 87 4d 3d bc b9 21 f3 38
       -0.022128604 0.042611495 -0.0115541285 0.00011593424
000020 73 84 cc bb 74 3c 35 bd fb 6e 7a bd ad da 7f 3d
       -0.006241375 -0.044247106 -0.061140995 0.062464405
000030 95 b5 6b bc 3e 6d 37 bd 7b cd 84 bd 7d b8 d9 bc
       -0.014386554 -0.044781916 -0.06484505 -0.026577229
000040 96 91 7a bc 4c 7c d4 bc 59 5d b7 ba 33 1f 4b 3d
       -0.015293499 -0.025938176 -0.0013989612 0.0495903
000050 1c 23 dc bd 2b b9 f5 bc bb a7 06 3b 38 fe d6 3b
       -0.10748884 -0.029995522 0.0020546752 0.006561067
000060 4e ea c5 bc 0b 19 3a 3d a6 2a ec 3b c8 c6 93 3b
       -0.024159577 0.04543404 0.0072072325 0.0045097806
000070 3e 3d 00 bd 28 7d 32 bc 21 dc a7 bc 66 eb 77 bb
       -0.031308405 -0.010894097 -0.020490708 -0.0037829517
000080 70 cf db 3b a1 07 e7 3d f9 8c 0a 3c f0 d7 f2 bc
       0.006708078 0.11280752 0.008456462 -0.029643983
000090 93 33 20 bd 0f a9 04 3d 16 b7 fa 3a 20 80 d9 3c
       -0.039111685 0.03238779 0.001912805 0.026550353
0000a0 32 ab 27 bd a2 2a d7 bb f1 d0 f8 3c c0 e0 31 bd
       -0.04093475 -0.0065663615 0.030373069 -0.04342723
0000b0 5c 42 d8 bc f8 3f 00 3d b0 44 29 3c a6 40 49 3d
       -0.02639883 0.031311005 0.010331318 0.04913392
0000c0 ad 31 09 bd 4c ce e2 bc 67 9c eb ba b3 00 87 bd
       -0.03349464 -0.02768626 -0.0017975689 -0.0659193
0000d0 d3 b5 c1 3c 02 fa 0d 3d 56 c6 b5 3c 90 5a e1 3c
       0.02364627 0.034662254 0.0221893 0.027509004
0000e0 58 9a 29 bd 82 76 49 3d 60 3f 34 3d ea d7 0c 3c
       -0.04140696 0.049185283 0.04400575 0.0085964
0000f0 c4 c3 9a 3d da c7 9c bd d0 13 43 3d ee 89 59 bd
       0.075568706 -0.07655306 0.047626317 -0.053110056
000100 e2 e4 0e bb eb b4 22 3d 2f a9 30 bd dd 1d 88 3c
       -0.0021803905 0.039723318 -0.043130096 0.016615802
000110 c4 65 22 bb b9 70 63 3c eb 5d a6 3c bf d6 cf bc
       -0.0024779895 0.013881856 0.020308455 -0.025370954
000120 5a 97 38 3c 5f 58 1f 3c be cd 74 3b c0 ca 4a bd
       0.011266554 0.009725659 0.0037354077 -0.049509764
000130 e5 d6 54 bd ed f0 ce bc a7 dc e1 bd 76 34 0e 3c
       -0.051962752 -0.025261367 -0.11028414 0.0086795
000140 25 b0 9e bb 91 6a 4c bd 63 0a 12 bd e5 72 71 bc
       -0.0048427754 -0.049906317 -0.035654437 -0.014736866
000150 e6 8e 79 bb eb 0b 8e 3c 98 ef 83 3c 08 06 0f bc
       -0.003807956 0.017339667 0.016105458 -0.008729465
000160 a3 c9 43 3d 75 f3 38 3c a0 29 02 bd 26 40 0d bd
       0.047799718 0.011288513 -0.031777978 -0.034485005
000170 43 17 8f bd e7 c8 f7 3c e2 eb 17 bc f3 88 12 bd
       -0.06986859 0.030247165 -0.009272547 -0.035775136
000180 25 02 23 bd fa 3a 1c bd f8 16 06 3d 95 d0 64 bc
       -0.039796967 -0.038142182 0.03273675 -0.013965745
000190 d5 9a b8 bd 4d 01 ac bc 5a 39 64 bd a8 8a d9 3c
       -0.09013907 -0.020996714 -0.055718757 0.026555374
0001a0 90 7d b6 bc 7a a3 0c 3d c1 4b 47 3c 2e b2 e8 3c
       -0.02227667 0.03433559 0.012164057 0.028405275
0001b0 c6 ad 26 bd 48 71 a1 bc c5 e7 44 3c 58 e7 c7 ba
       -0.040693067 -0.019707337 0.012018149 -0.0015251441
0001c0 50 23 21 3d 27 fc 27 bd ca 6f 95 3c d6 2b 5f 3c
       0.039340317 -0.041011956 0.018241782 0.013621291
0001d0 2a 0f dc bc c3 aa 82 3b bd f5 8a 3c 8a 6f bc 3d
       -0.0268627 0.0039876415 0.01696288 0.09200962
0001e0 36 3d 44 3d ab cb 43 3d fa d2 cc bc cf 2d 13 3d
       0.047909938 0.047801655 -0.025002945 0.03593236
0001f0 d5 24 15 3b 58 b2 bf bb 58 0f 54 bd fa 4a 40 3d
       0.002275755 -0.0058501177 -0.051772445 0.046946503
000200 f4 5b b3 bd 6f ed 29 bd d9 10 3b bd 6b 3c ae bd
       -0.08757773 -0.0414862 -0.045670364 -0.085076176
000210 36 ee 1e bd 1f 21 00 bd 2f 51 2a bd 52 87 e5 bc
       -0.038801394 -0.031281587 -0.04158133 -0.028018627
000220 e9 de c9 bd a9 d9 97 bb 6d f2 2e bd 42 14 84 bd
       -0.0985697 -0.0046341014 -0.042711664 -0.06449176
000230 58 71 e9 bc 4b 95 dc bc 76 ee 6b bd fa 28 10 bc
       -0.02849643 -0.026926657 -0.05760046 -0.008798832
000240 f7 5c a9 bc 43 c2 83 3c 4c 83 c0 bb c3 62 f8 bb
       -0.020674212 0.016083842 -0.005875027 -0.0075801327
000250 31 ca 62 bc db 61 16 bd a7 a8 1d bd 23 48 b2 39
       -0.0138421515 -0.036714416 -0.038490918 0.00034004552
000260 db 5f 87 bc d1 71 35 bd 35 ee 2a bc 59 a8 06 bd
       -0.0165252 -0.044297997 -0.01043277 -0.032875393
000270 40 76 e3 bc 1b 34 98 bd 66 c5 66 bd a2 49 3b bc
       -0.027766347 -0.07431813 -0.056340598 -0.01143113
000280 07 17 2d bc 61 60 4f bc e3 bd cc ba 29 f4 ea 3d
       -0.010564572 -0.012657256 -0.0015620555 0.11472351
000290 7f 8a f7 bc b4 06 b3 bc 4a cf a5 bc 4c f6 71 3d
       -0.030217407 -0.021853782 -0.020240445 0.059072778
0002a0 73 ee 17 bd 61 13 17 bd e9 b5 0b bd c9 34 13 bd
       -0.037092637 -0.036883716 -0.03410903 -0.03593901
0002b0 99 a0 15 bd a2 c5 52 bb 98 2a 00 bd 34 23 99 3c
       -0.03653011 -0.0032161255 -0.03129062 0.018693544
0002c0 9a d5 05 bd 63 b5 32 bd fb 12 7a bd 1e 92 a8 bd
       -0.03267441 -0.043630015 -0.061053257 -0.08230995
0002d0 4a bd 46 bd 4f a7 3e bd f2 2a 5a bd 5d dd e3 bc
       -0.048520364 -0.046546277 -0.053263612 -0.027815515
0002e0 b5 39 5e ba 1f 90 81 bc 26 15 b7 bc 2d 82 b7 bd
       -0.0008477227 -0.015815793 -0.022348952 -0.08960376
0002f0 26 18 59 bc 0b 91 cd bc eb bc 81 bc a4 bc 13 bd
       -0.013250386 -0.025093576 -0.015837153 -0.036068574
000300 f1 27 aa 3c 74 79 55 bd 5e 88 8c bd ba f0 41 bd
       0.020770999 -0.05211778 -0.068619475 -0.047348715
000310 9c ee 8f 3c db dd 9c 3c 88 ef 8f bd de 09 d1 bc
       0.017569833 0.019148758 -0.07028109 -0.0255174
000320 a2 9e 40 bc 3e 94 31 3c fe 9c 94 bc bd 70 94 bd
       -0.011756571 0.010838566 -0.018141266 -0.072480656
000330 ec 71 6b bc b2 17 80 bd 29 c0 d3 3c e9 cc 12 bd
       -0.014370423 -0.062545195 0.025848465 -0.03583995
000340 98 c8 c9 bb 0e fb ac bc fd 86 00 bc a9 c2 17 3c
       -0.006157946 -0.021115806 -0.007844684 0.009262719
000350 c3 b7 d5 bc 46 4b 85 3b 59 18 ec bc 99 cc 87 bc
       -0.026088601 0.004067811 -0.028820204 -0.016577052
000360 de 07 62 3c 8a 49 e4 3c d3 40 88 bd 08 6b 89 bc
       0.013795821 0.027867097 -0.06652989 -0.01677467
000370 2d 6a 9f 3b 60 b9 2e 3d 90 06 02 3c 4b cf 5e bd
       0.004864952 0.042657256 0.007936135 -0.05439691
000380 08 aa 5d bd 0f 29 ca bc 71 ad 85 bc 22 d3 fd 3c
       -0.054117233 -0.024677781 -0.016318055 0.030984465
000390 fb 09 19 bc 02 43 de bc 45 c8 36 ba ce e1 df bc
       -0.009340758 -0.027131561 -0.00069725915 -0.027329352
0003a0 c4 52 a7 bb e7 62 de bc 9a ff 2a ba 25 0d db 3c
       -0.005106302 -0.02714677 -0.0006523073 0.026739666
0003b0 60 f7 61 bc c3 da 2f bd e7 e3 64 3c 3d bc 8e bd
       -0.013791889 -0.042933237 0.013970352 -0.06969497
0003c0 3a c2 b4 3c 71 eb 5d bc 3c 6f b6 bd b9 78 c4 bd
       0.02206527 -0.013544903 -0.08907935 -0.095933385
0003d0 73 79 72 bc 38 6d c5 bc 88 3a 94 bd f6 a3 e5 bc
       -0.014799464 -0.024099931 -0.072377264 -0.028032284
0003e0 6c 6f 4d bd e4 1e b6 bd ad 9e ad bc 1b 05 85 bd
       -0.05015509 -0.08892611 -0.021193827 -0.064951144
0003f0 17 7b c7 3b 5e d5 3c 3d 2a 6a e2 bc d7 c7 52 3c
       0.0060876715 0.04610192 -0.027638514 0.012865028

fc11.bias f4 [4]
000000 8e 6c be bc c2 79 d7 bc 47 ae c1 bc 23 71 d6 bc
       -0.023245122 -0.026303176 -0.023642672 -0.026176995

fc3.weight f4 [512, 4]
000000 58 b1 e4 3f 88 34 09 3f 5d 1a ea be 43 fa d0 bf
       1.7866621 0.5359578 -0.4572324 -1.6326374
000010 fa d4 ad bf 3a 34 91 3f 0f 4f d4 3b 17 81 54 3f
       -1.358062 1.1344063 0.006479151 0.83009475
000020 db e0 8b 3f 1e a4 40 3f 4e f5 85 3e e3 dc d3 be
       1.0927995 0.7525042 0.26163715 -0.4137946
000030 4a ff da be c6 7d 43 3c 23 c1 92 bd b8 34 b1 3e
       -0.42772895 0.011931842 -0.07165744 0.34610534
000040 66 f7 03 bf fb af be be 56 16 1a 3f ae bb 65 3e
       -0.51549375 -0.37243637 0.6019033 0.22434875
000050 15 ff 95 3f 52 98 95 bf dd 2f f6 be ca 5e c3 bc
       1.171847 -1.168711 -0.48083392 -0.02384891
000060 49 c9 10 3f 88 e6 77 bf 6f 06 38 bf 95 34 69 be
       0.56557137 -0.9683614 -0.71884817 -0.22773965
000070 2e dc f9 be 26 8b 36 3f c0 90 0c be 5a 4a ef 3d
       -0.48800796 0.71306074 -0.13727093 0.11684103
000080 a5 08 b6 be 14 5c 70 3f e5 00 3b 3f 03 c2 f9 3e
       -0.3555347 0.938905 0.7304824 0.48780832
000090 4c 51 27 bf 88 bb 00 3f 1f 8c e4 3e 7d f8 ab 3e
       -0.65358424 0.5028615 0.44638154 0.3358802
0000a0 3b f3 8e 3e 6a 7a 0e 3d d4 6c 01 bf d4 6b 4c bf
       0.27919945 0.034784712 -0.50556684 -0.7985203
0000b0 83 48 5f 3e ca e6 0e 3f 16 db 28 3f 4b a1 ab 3f
       0.21805005 0.55820906 0.659593 1.3408598
0000c0 64 3f 83 be 38 06 0d 3f 8f 66 47 be 90 cc b2 bd
       -0.256343 0.55087614 -0.19472717 -0.087304235
0000d0 67 38 13 3f 53 43 67 bf 7f c0 01 3e e4 df f5 be
       0.5750794 -0.90337104 0.12671088 -0.48022377
0000e0 d9 2b 48 3f 4e 59 63 bf d6 5a 69 bf 86 08 9f bf
       0.78191906 -0.88808143 -0.9115423 -1.2424476
0000f0 e9 e9 83 bc 26 93 0c 3e 13 cc f0 3d f3 6d 3f 3e
       -0.016102748 0.13728008 0.11757674 0.18694286
000100 fd f1 a3 3f c1 7b 3f bd 1c e0 8a 3f 81 4d 13 bf
       1.2808224 -0.04674888 1.0849643 -0.57540137
000110 de 9d d9 bb c0 1b 10 3e dd 0f a2 3d 56 6e ac 3f
       -0.0066411337 0.14073086 0.07913182 1.3471172
000120 ce c5 7a be df b7 3f bc ee 6f d5 bc 00 48 76 bf
       -0.24489519 -0.011701553 -0.026054349 -0.96203613
000130 eb 17 8c 3f ea 2c 04 bf 88 93 56 bf 5f 6d 89 bf
       1.0944799 -0.51631033 -0.83818865 -1.0736502
000140 14 24 50 bc f3 8e 00 be 21 67 97 be 75 89 1b bf
       -0.012703914 -0.12554531 -0.2957087 -0.6075662
000150 28 a2 1a 3f 31 1c a1 bf bd cf fa 3e dc 1b 21 3c
       0.6040368 -1.2586728 0.48986617 0.009833302
000160 19 6a 20 bf 0f e3 9d be 24 6a 80 3e 2b a2 41 3d
       -0.6266189 -0.30837294 0.2508098 0.047273796
000170 1f d6 1c be bb ad f8 3f 5b b9 fd bd 75 5c 5e 3d
       -0.15316056 1.9428018 -0.123888694 0.054287393
000180 1e 87 86 bf 20 02 02 bf 85 00 3b bf ad 8b ef bd
       -1.0509984 -0.5078449 -0.7304767 -0.11696563
000190 ed 95 c2 bd c8 2b b7 bc fc de 1b 3c a3 d8 73 bf
       -0.09501252 -0.022359744 0.009513613 -0.95252436
0001a0 13 cf 01 3e 36 9b a0 bd 9d c3 d7 bd b4 a1 3b bb
       0.12676649 -0.07842104 -0.10535357 -0.0028630318
0001b0 eb 29 9c be a1 16 e8 3e ee 2b a4 3e fd 46 1c 3f
       -0.3050073 0.45329764 0.32064766 0.6104582
0001c0 d8 47 8b be d5 38 20 3c d6 d3 41 3e 49 2a e5 bd
       -0.2720325 0.009779175 0.18928465 -0.11189706
0001d0 7d 77 f6 3e 72 43 21 bf e2 f1 ad be c6 a4 a6 be
       0.48138037 -0.6299354 -0.33973604 -0.32547587
0001e0 d3 cc 8d 3e 8e c3 7c bf 1b 53 79 be 6a c1 72 bd
       0.2769533 -0.9873589 -0.24348108 -0.059266485
0001f0 57 83 ca 3e 71 26 36 3c 6e 36 83 be 19 0f 15 be
       0.3955333 0.011117564 -0.25627464 -0.1455654
000200 ee ce 90 3e 80 80 dd be d7 0b 56 be b1 59 87 bd
       0.28282875 -0.432621 -0.20902954 -0.06608904
000210 3e d0 a1 be a6 14 56 3e e8 e3 64 be 94 7a f0 3d
       -0.3160419 0.20906314 -0.22352564 0.1174213
000220 ed 56 55 bd f2 a4 a5 be 59 c6 78 bc 42 1b 91 3f
       -0.052084852 -0.32352406 -0.0151840085 1.1336443
000230 dd e4 e0 bc f5 ad 21 bc 55 98 c3 bc fc b0 24 bf
       -0.02745288 -0.009868135 -0.023876349 -0.64332557
000240 c9 13 bf 3e 73 46 c4 bd a7 4a 58 3d c5 bc 02 be
       0.37319782 -0.095837496 0.05280557 -0.12767322
000250 6f 1a a3 3f 6b 89 54 bd 62 67 37 bf 92 7a 43 bf
       1.2742442 -0.051888864 -0.71642125 -0.763589
000260 21 82 30 be 6b b6 02 bf 29 c6 fd 3d b9 6a 0e 3e
       -0.1723714 -0.510596 0.12391312 0.13907899
000270 b0 7e e5 3e 62 00 f2 be 7b ac 4e be d9 f3 29 be
       0.44823217 -0.47265917 -0.20182984 -0.16596927
000280 f5 a2 e0 bd c0 db 37 bf 15 c1 f6 be 10 8d 9f 3f
       -0.109685816 -0.71819687 -0.48194185 1.2464924
000290 fd 76 d4 3f cd 36 b3 bf 1b 1a 4a bf 12 54 44 3f
       1.6598812 -1.4001099 -0.78946084 0.7669078
0002a0 cc 00 ea 3e 69 7e 6f 3e 34 61 29 3e 69 3e f3 be
       0.45703733 0.23388065 0.16540986 -0.47508553
0002b0 ba 5c f2 be fe 07 11 be b1 7b af bf 24 d4 13 bf
       -0.4733637 -0.14163205 -1.3709623 -0.57745576
0002c0 70 22 3f bf d0 02 f9 3e b7 97 25 3f e3 ec 2c 3f
       -0.7466192 0.48634958 0.64684623 0.6754896
0002d0 e9 56 d4 3e 26 90 e4 be c0 04 1d bf 39 41 69 be
       0.41472557 -0.44641227 -0.6133537 -0.22778787
0002e0 f0 4a 76 3e 3b 36 a0 3e 62 9d ea 3e c5 3d 3f bd
       0.24052024 0.31291375 0.458232 -0.046689767
0002f0 d9 47 77 3e 74 84 b6 bf 58 fc 71 3f 75 5c 71 be
       0.24148501 -1.4259171 0.9452567 -0.23570426
000300 0d 1d 10 3f 0b 16 7e 3f 99 09 75 bf 02 3d 21 3e
       0.5629433 0.99252385 -0.9571777 0.15745929
000310 f1 64 a7 bd 6b f1 98 3e 3e 2c ee 3d 0f a9 45 bd
       -0.0817355 0.29871687 0.11629532 -0.04825693
000320 16 6a 8d 3d 10 86 e4 3d 6c 91 e0 be 52 0f 01 3f
       0.06905 0.11158383 -0.43860948 0.50414
000330 a3 b0 36 bf cf 41 a3 3b 97 18 d3 be fd 21 6d 3e
       -0.71363276 0.00498221 -0.41229698 0.23157497
000340 09 21 bc 3f 9d 06 6d 3c 89 d8 8e 3f a1 65 b3 be
       1.4697582 0.014466909 1.1159831 -0.35038474
000350 bf a3 50 3f 08 64 d3 3b 5a 2c a6 bf f7 2b ab be
       0.81499857 0.0064511336 -1.2982285 -0.3343198
000360 c0 66 df be 37 c6 5b bd 26 2a 93 bd 5d 16 bb bd
       -0.4363308 -0.05365583 -0.071857736 -0.09135125
000370 82 8e a0 bf b2 76 98 3e 77 9e bb be 4f da db be
       -1.254349 0.29778057 -0.36644337 -0.42939994
000380 d4 65 4b bf 82 2c be be 24 47 fa bd 0d 38 cf bd
       -0.7945225 -0.37143332 -0.122206 -0.10118113
000390 50 0e 06 3f 5d c3 a5 3e 14 41 2b bf df 3e 4f be
       0.5236559 0.32375613 -0.66896176 -0.20238827
0003a0 ff 21 ef be 16 ea 4d be e5 da a7 bf 58 2f 44 be
       -0.46705624 -0.20108828 -1.3113676 -0.19158685
0003b0 51 28 d5 bd 6b 50 46 bd 8b 8e 78 be 56 00 7c bd
       -0.1040808 -0.048416536 -0.24273126 -0.061523758
0003c0 91 10 c1 be fa 55 87 bd 46 51 ea bf 03 0a dd 3b
       -0.37707952 -0.066081956 -1.8306053 0.0067455783
0003d0 7c a8 9f be 0d ef bc 3e e0 03 a8 3e a0 63 2f 3f
       -0.3118323 0.3690113 0.32815456 0.6851139
0003e0 bb 75 9c bf 4d 37 ec bc 05 6f a2 3e 86 00 40 3e
       -1.2223428 -0.028834963 0.31725326 0.187502
0003f0 7b 98 ac be 9a ab fd 3d e2 59 04 3e b0 f2 1c 3f
       -0.33710083 0.12386246 0.12924913 0.6130781
