saved_models_2D/dataset_acc/no_freeze/folds/CVAE2D_4_5_100_200_fold_2.pth (torch, 243348 bytes, 37 tensors)

conv1.weight f4 [16, 1, 3, 3]
000000 13 e2 ed be 1f 5f 5d be 31 a1 2b bf 4e 1f e8 3e
       -0.46461543 -0.21618317 -0.67042834 0.45336384
000010 f8 12 c7 3e be 12 71 be 78 5c 6d bf fb 41 1e be
       0.3888166 -0.23542306 -0.9271922 -0.15454857
000020 48 ea 8a bf 48 11 92 bc 4c 1c b7 be 03 b3 9b 3e
       -1.0852747 -0.017830506 -0.35763776 0.30410013
000030 e7 8d 00 3f 90 86 4a 3f 3c e4 70 3f ca 52 e9 be
       0.50216526 0.79111576 0.9409826 -0.45570976
000040 1c 1b 97 be d7 bc 59 3e d1 8a 6a bc 04 e0 8a 3f
       -0.2951287 0.21263443 -0.014315323 1.0849614
000050 e9 7f a4 3e 6b 57 00 bf 13 78 f9 3e e3 df 56 3e
       0.32128838 -0.5013339 0.48724422 0.20983844
000060 76 c6 c2 3e b5 e9 2e 3e d0 e9 f7 be 3a 27 9d 3d
       0.3804204 0.1708134 -0.48420572 0.076734975
000070 64 29 a3 be 59 4d d6 be 66 47 7b 3f 78 e2 04 bf
       -0.31867516 -0.41855887 0.9815582 -0.51908064
000080 7e b5 83 bc bb 86 f0 3e fd 6d fe be bc 88 24 3f
       -0.016077753 0.4697779 -0.4969329 0.6427114
000090 fa a2 14 bf 86 c4 b3 be 97 8c db bc a6 b4 aa be
       -0.5806118 -0.35110873 -0.026800437 -0.3334095
0000a0 93 94 a8 be 60 c4 dd 3e 38 20 00 3f c2 7e 85 3d
       -0.32925853 0.43313885 0.5004916 0.06518318
0000b0 00 3c 09 3f fd ce 8f bf 07 65 31 bf d5 4e 44 3b
       0.5360718 -1.1235043 -0.6929478 0.0029954214
0000c0 f5 e1 36 be 7f cf f1 3e 12 09 44 3f 26 79 1c 3f
       -0.17859633 0.4722862 0.7657634 0.6112236
0000d0 c2 18 81 be 0e 10 c7 3e 19 d5 6f be 8e e6 1b bf
       -0.252142 0.38879436 -0.23421134 -0.60898674
0000e0 23 da 18 3f b0 45 42 3e 6b e8 9e bd 07 73 bd 3e
       0.5970785 0.18971896 -0.07759174 0.3700182
0000f0 8f be 5d bf 0d 77 0d bf 37 39 0f be 8a 7c 62 3e
       -0.86618894 -0.5525978 -0.1398667 0.2211782
000100 ce 78 e8 3e 08 35 c0 3e 87 01 d2 3d a8 43 00 3d
       0.45404667 0.3754046 0.102541976 0.031314522
000110 63 0c 7a be 0c 0e 3c 3e 62 17 38 3f 33 b2 72 3e
       -0.24418788 0.18364733 0.7191068 0.2370079
000120 22 75 40 3f e3 4b 51 bd 60 9f ad 3e 3a a1 73 be
       0.7517873 -0.05109776 0.33910656 -0.23791972
000130 d4 df df 3e db 5f d1 3e 02 07 80 be 68 f0 97 be
       0.43725455 0.40893444 -0.25005347 -0.29675603
000140 7c b1 b4 3e 4f 3f ee be 28 e4 f2 3d 77 00 24 3c
       0.3529166 -0.46532676 0.118599236 0.010009876
000150 af ce 8c be 66 2b 21 3e 5e 6b fa bd 56 28 7d 3e
       -0.27501437 0.15739211 -0.1222751 0.24722418
000160 b0 d0 be 3d 38 a5 50 bf 7c 11 43 3f 84 c7 13 3f
       0.09317148 -0.81502104 0.76198554 0.5772631
000170 ac 77 79 be 30 2a a1 3e 3b 41 aa be e2 bc b5 3e
       -0.24362057 0.314775 -0.33252892 0.3549567
000180 8a 72 89 be 46 31 19 bc 26 a7 d3 be 7e e3 ba bd
       -0.268452 -0.009350127 -0.41338462 -0.09125422
000190 18 0a c4 3e c9 8a 6d be 3d c6 ba be 24 a1 b7 3e
       0.3828895 -0.23197474 -0.3647937 0.35865128
0001a0 21 50 2a bf 87 d9 c6 bd 0b f1 69 be 33 55 a9 be
       -0.66528517 -0.09709459 -0.22845857 -0.33072814
0001b0 2b 30 04 3f ee f5 c6 bd 51 8e 42 3e 20 aa b8 bd
       0.51636 -0.09714876 0.18999602 -0.09016824
0001c0 30 c6 53 bf 60 48 79 be bd a4 e7 be 46 18 10 3e
       -0.82724285 -0.24344015 -0.45242873 0.1407176
0001d0 82 d3 9c be c1 2a 22 be 8c 1b 70 3d ef dd 6e bd
       -0.30630118 -0.15836622 0.05862002 -0.05831712
0001e0 69 e3 70 3e 60 79 50 3d da 59 54 3e db 69 1d be
       0.2352425 0.050897002 0.207374 -0.15372412
0001f0 fd c8 bd 3e 44 fd 0c 3f b9 f3 a8 be b9 24 ec 3d
       0.37067404 0.5507395 -0.32998446 0.11530442
000200 b5 fc 01 be 77 fc 56 be 4c ca 3b bf 97 18 05 bf
       -0.12694056 -0.20994745 -0.73355556 -0.51990646
000210 44 ed a3 3e ce f6 f4 3e a8 45 bc 3d 9b 20 73 be
       0.32016957 0.47844547 0.091929734 -0.23742907
000220 1a 00 3d 3f 28 9b a4 3e 8f ff 84 be ca 1c 58 3e
       0.7382828 0.32149625 -0.25976226 0.21104732
000230 ac b0 55 3e a0 dc 2a bf 72 ec b9 be 15 b4 08 3f
       0.20868176 -0.667429 -0.36313206 0.53399783

conv1.bias f4 [16]
000000 6d 65 31 bd d3 51 80 3d 51 0d 65 3d 15 d2 3e bc
       -0.043309618 0.06265607 0.055920903 -0.011646767
000010 36 45 06 bb 25 a5 33 3d 2a b8 5f bc 99 f9 20 3b
       -0.002048803 0.043858666 -0.013654748 0.0024562834
000020 d1 39 3f 3d e7 87 72 bc 46 88 8c 3d 66 5d c7 3d
       0.046685997 -0.014802909 0.068619296 0.09734611
000030 06 33 90 bc 28 b0 a4 bd 95 81 01 3d bf 53 14 bd
       -0.017602455 -0.08041412 0.03161772 -0.03621268

conv2.weight f4 [32, 16, 3, 3]
000000 41 79 a5 bb 83 17 03 3c aa ae aa bd 32 eb 37 be
       -0.005049855 0.008001211 -0.08334096 -0.17960814
000010 07 ee e9 3d 32 96 ca 3d 95 2c 52 3e 95 b1 1a 3e
       0.11422353 0.09891929 0.20524819 0.15106805
000020 b2 1a e0 bd fe da d3 bd c6 94 0d 3e 42 61 7d bc
       -0.10942592 -0.10344504 0.13826284 -0.015465083
000030 ba c3 1e bd ac bd 16 be 2a 7a 08 be 92 19 6c 3e
       -0.03876088 -0.14720792 -0.13327852 0.2305663
000040 a7 32 6e bd 12 af 5e be 57 34 c3 bd aa b8 21 3e
       -0.058153775 -0.21746472 -0.095314674 0.157931
000050 da b1 68 3c 52 4d a5 3d 29 e4 90 bd e3 98 a2 bd
       0.014202559 0.08071388 -0.07074768 -0.07939317
000060 f8 cd c4 3b 92 71 28 be 90 35 30 bd e7 7a 6d be
       0.0060059987 -0.16449574 -0.04301983 -0.23191415
000070 5e af 03 bd c3 12 bb 3d d3 26 ae bd cf 57 29 3c
       -0.032149665 0.09134438 -0.08503499 0.010335877
000080 7c 1b b7 3d be 2e 4e bd 34 2a cf bc 21 ac 38 3e
       0.08940789 -0.050337546 -0.025288679 0.18034412
000090 00 ed 0e be 16 15 9b be 3e df cc bd 22 b2 f6 bd
       -0.13957596 -0.30289525 -0.100035176 -0.12045695
0000a0 4f 1d 21 3d cf 15 e5 3a 51 bf 91 3c fb 18 26 3e
       0.03933459 0.0017477813 0.017791422 0.16220467
0000b0 45 7c 46 bc a7 29 1d be 2b 79 2d bd 02 f9 01 bc
       -0.012114589 -0.1534792 -0.042351883 -0.007932903
0000c0 ce 73 0b be f4 e6 8e be a5 c6 a8 bd 3a 79 6e 3d
       -0.13618395 -0.27910578 -0.082410134 0.05822108
0000d0 45 8b 80 bd f6 37 66 be 00 e3 0b bd 3b 96 19 bd
       -0.062765636 -0.22482285 -0.03415203 -0.037496787
0000e0 b5 98 6c bd fd ea 0f be a2 24 93 3d dd 80 ab 3d
       -0.05776282 -0.14054485 0.071847215 0.08374188
0000f0 5b 10 ce bd 1c c8 a7 bc 11 49 1e 3b ac b2 1a 3e
       -0.10061713 -0.020481162 0.0024152438 0.1510722
000100 74 0e df bc 38 e1 cc 3c 0e 8c 3e 3e 08 d2 9c 3d
       -0.027228571 0.025009736 0.18608114 0.07657248
000110 7d fc c4 3d 5d 18 e8 3c e5 5b 23 bd 73 6d 0a 3e
       0.09618471 0.02833193 -0.03988256 0.13518314
000120 84 89 d8 bd 6c 56 41 3d 74 3c 35 3c 6c 09 c8 bd
       -0.10573104 0.04720156 0.011061776 -0.09767422
000130 46 e5 d5 bd 64 b1 de bd 9d 86 b5 3d be bc e1 3d
       -0.10444121 -0.10873678 0.08863566 0.11022328
000140 18 64 fb bd 0e e3 b2 3b d7 82 7f bb 69 6c 65 3d
       -0.12274951 0.005459196 -0.0038987899 0.05601159
000150 27 6f 01 be a4 ea 2d 3b e2 d0 1a 3c e0 d0 9b bd
       -0.12640058 0.0026537562 0.009449216 -0.07608199
000160 5f 2b 4d 3d d9 bd 2c 3e e8 01 80 3d 1b af 81 3d
       0.05009019 0.16869296 0.062503636 0.06332227
000170 cf 01 8e 3c bd 5c 02 3e 39 29 9b 3d 01 39 38 bc
       0.017334847 0.1273069 0.07576222 -0.01124406
000180 af 5f 19 bd 92 30 af bd 54 ed 9f bd f1 b5 0e bd
       -0.037444767 -0.08554186 -0.078089386 -0.03484148
000190 b1 ce b0 bc 46 aa 02 be 34 36 34 3d 58 32 a7 3d
       -0.021582933 -0.12760267 0.043997005 0.08163899
0001a0 96 89 94 3d 22 3b 61 bd 59 a9 fb bc 26 16 08 3e
       0.07252805 -0.054988034 -0.0307204 0.13289699
0001b0 37 2e 8c be d3 f5 3e 3d ca 11 b5 bd b3 b0 69 3d
       -0.2737901 0.046621155 -0.088412836 0.05705328
0001c0 d0 fe 9a 3d 42 e3 20 3e 1b 0c a3 bc ad 8a 19 bb
       0.07568133 0.15711692 -0.019903233 -0.0023428604
0001d0 66 ea 54 bd fd 63 8a bd d6 af a1 3d 75 8b 15 be
       -0.051981352 -0.067573525 0.07894866 -0.1460398
0001e0 24 15 ea 3d 04 a7 7c bc 9a 58 30 be 84 c9 75 bd
       0.114298135 -0.015420679 -0.17221299 -0.060006633
0001f0 ea a2 82 bc c2 2f 4d 3d 50 f0 fa bd ae a5 72 bd
       -0.015946824 0.050094374 -0.12252867 -0.059240036
000200 19 8e 14 3e 19 9a 53 3e c4 fc 4b 3e 13 fe ed 3c
       0.14507331 0.20664252 0.19920641 0.029051816
000210 79 83 ad bd 29 c6 5d bd 16 ec 0f be 05 13 a4 bd
       -0.08472342 -0.05414406 -0.14054903 -0.0801144
000220 fc 26 ce bc d3 ee 4f 3e 88 71 52 bd f5 3d 83 bc
       -0.025165074 0.20305948 -0.051377803 -0.016020754
000230 5b 45 87 be 43 28 02 3d c2 4e 92 3d b0 c3 f2 bd
       -0.26420102 0.031776678 0.07143928 -0.11853731
000240 16 fd 32 3d 7f c8 8e 3d c6 88 89 3d 27 5c 9b 3e
       0.043698393 0.06971835 0.067155406 0.30343744
000250 54 35 a0 3d 2f d6 40 bd c9 d3 7b bd 59 28 37 3d
       0.078226715 -0.04707926 -0.06148127 0.044716213
000260 3c fb dd bc aa f3 bb 3c 9e be e9 3c 95 2e 14 be
       -0.027097337 0.022943337 0.028533276 -0.14470895
000270 3c be 38 3e 98 08 02 3e 7e 55 14 3d d3 1b ca 3d
       0.18041319 0.12698591 0.036214344 0.09868588
000280 b9 2e 02 3d e1 bd 8e 3d 39 41 bc bd 8c ab 0f 3e
       0.03178284 0.0696981 -0.09192128 0.14030284
000290 45 89 c8 3c 52 b4 ef 3d 82 b9 99 3b ed da c8 3d
       0.024479518 0.11704315 0.0046913037 0.09807382
0002a0 4a 73 88 3c 67 05 10 3e 1e bd c6 3c 27 63 4f bd
       0.016656537 0.14064561 0.0242601 -0.05063167
0002b0 a4 80 17 3e 2d 42 6f bd 53 45 85 bd 26 4c eb 3d
       0.14795166 -0.05841272 -0.06507363 0.114891335
0002c0 16 9a 8f bc e7 35 28 bd f6 c6 ba bd c2 a9 96 3d
       -0.017529529 -0.04106703 -0.0911998 0.073565975
0002d0 82 76 a9 bd 40 93 f3 3d d4 fe a2 bc 4a a8 b0 bb
       -0.08274557 0.1189332 -0.019896902 -0.0053911554
0002e0 69 7c ab bd c5 81 31 3e b4 71 c7 bc 02 e0 a1 bd
       -0.08373339 0.1733466 -0.02434621 -0.07904054
0002f0 c3 b0 44 3e c4 15 79 3e 4e 2d 87 3e 6a 2f 05 3e
       0.19208054 0.24324709 0.26401752 0.13006368
000300 ca 24 47 bb 4d 25 16 3e 42 88 5e bc 39 e5 b2 3d
       -0.0030386918 0.14662667 -0.013582291 0.08735127
000310 1b 52 79 3c 5e 0a 97 be 84 0b d1 3d 8b 7b 00 bc
       0.015217329 -0.29500097 0.102072746 -0.007841955
000320 16 4c d3 bd 6f 48 10 3e 7c a3 e1 bd e5 8a 4a bc
       -0.103172466 0.14090131 -0.1101751 -0.012362217
000330 24 42 b2 3c c8 cb 37 3d 97 06 71 bd 41 07 af bd
       0.021760054 0.044872075 -0.058844175 -0.085463054
000340 cc b6 fd 3d cc c8 23 be ba c5 0c bd 5d 08 38 3d
       0.12388381 -0.15994567 -0.034368254 0.04492985
000350 2b 2b d1 bc 1f 3d 23 bd 60 20 7d bc da 46 c2 3d
       -0.02553328 -0.03985321 -0.015449613 0.0948617
000360 03 1d 41 3e 1b 75 3e 3d 79 22 26 be cf 2e fd 3c
       0.18858723 0.0464984 -0.16224088 0.03090611
000370 85 92 48 bd c3 df fa 3d ed 59 bf bd b6 f1 84 3e
       -0.048967857 0.122497104 -0.09343324 0.2596566
000380 f1 9d 05 3e d4 ad 96 3d c3 d6 80 be 57 28 a5 bc
       0.13048531 0.07357374 -0.2516385 -0.020160837
000390 e2 02 5f 3e e0 75 b0 bb eb 4b 7a be 40 f7 d8 bd
       0.21778443 -0.0053851455 -0.24443023 -0.10594034
0003a0 39 35 2b 3d 35 47 5b 3d 6a 13 0c bc 88 d3 25 be
       0.041798804 0.053534705 -0.008549551 -0.16193974
0003b0 a3 f0 4a 3c 08 26 00 be 4b 87 9b 3c 5f 58 ec 3d
       0.012386474 -0.12514508 0.018985411 0.11540293
0003c0 79 51 78 3e c0 15 6d bd e8 00 0d 3e 79 26 1e 3e
       0.2424983 -0.05788207 0.13769877 0.15444364
0003d0 74 b3 95 3d 8b 70 dd bd ec 73 d4 bd 78 9b 0c 3e
       0.073096186 -0.108124815 -0.10373673 0.13731182
0003e0 6c 88 3e be 49 ef b9 bd a2 65 c1 bd fe 91 35 3c
       -0.18606728 -0.09078843 -0.09443213 0.0110821705
0003f0 f3 e7 2a 3d b7 01 c2 bc 1e c2 92 bd 77 fb 54 bd
       0.04172511 -0.023682458 -0.07165931 -0.051997628

conv2.bias f4 [32]
000000 6b d0 09 3d ed 58 1a bb 6b 4a 6c bc ac f1 8e bc
       0.03364603 -0.002355154 -0.0144220395 -0.017449223
000010 cc ab 9c 3d b1 a8 77 bd 17 48 a1 3c c2 f3 dc 3a
       0.07649955 -0.06046361 0.019687695 0.0016857313
000020 fe fb bb 3d 56 b4 de 3c 55 c1 b1 bc 4c d5 1a bd
       0.09178923 0.0271856 -0.021698633 -0.037801072
000030 3b 9f 1e 3d 79 95 dd 3c 90 f4 51 bd d4 64 90 3d
       0.038726073 0.027048813 -0.051258624 0.070504814
000040 f2 ca 84 3c 8a f2 41 3d a8 18 74 3d c9 c9 83 3a
       0.016210053 0.047350444 0.059593827 0.0010054643
000050 84 e7 a4 3b 8f 90 1c bd 72 3d 2d bd 7e 5e 08 3d
       0.0050324816 -0.0382238 -0.042294927 0.03329324
000060 6e 53 da bc 4d 41 09 bd 73 b4 06 3c f3 9c 8c bd
       -0.02665111 -0.03350954 0.008221733 -0.06865873
000070 5c 05 81 3c fa a3 22 3c 87 61 00 3d 99 2d a1 3d
       0.015749626 0.00992679 0.03134301 0.07870025

conv3.weight f4 [32, 32, 3, 3]
000000 bb 11 95 3d b7 c1 08 bc a1 60 be 3c 56 f0 b9 bd
       0.072787724 -0.0083469665 0.023239436 -0.090790436
000010 52 bd 66 3d 1d 67 94 bd 41 68 12 bd 5c 2d 04 bd
       0.056332894 -0.0724623 -0.035743956 -0.03226982
000020 86 19 c6 3b 87 2e cf 3d bc 2c b5 bd 0e e4 e2 bc
       0.006045523 0.10116296 -0.08846423 -0.027696636
000030 fa 47 b2 3d 50 d2 97 3c 4c 70 6a bd 42 ac 60 bd
       0.08705135 0.018532902 -0.057236 -0.054851778
000040 d6 1b 2f bc 88 88 94 3c 8a 19 81 be 15 7c a4 bd
       -0.010687789 0.01813151 -0.25214797 -0.08031479
000050 7f fd 8f 3b ff 78 1b bd 7c 75 b8 bd 33 9b aa 3d
       0.0043942328 -0.037957188 -0.09006783 0.08330383
000060 6b 58 a3 bd 18 1f 0f 3d 76 39 0c 3e 8f 57 99 3d
       -0.07975849 0.034941763 0.13693795 0.074874036
000070 f3 30 2e 3e 21 f2 bd bd b6 b7 6c bd 0e e9 f2 3d
       0.1701086 -0.09274698 -0.057792388 0.11860858
000080 f2 35 05 be 4c ed 2c 3e c6 b7 b9 39 74 42 4b bc
       -0.1300886 0.16887397 0.00035422872 -0.01240598
000090 e5 72 4a 3d 41 4c b2 3d 96 37 d0 3c 0c 43 a6 3d
       0.04942598 0.087059505 0.02541713 0.08118257
0000a0 28 bb 32 be a4 eb be bc 1e 9d 01 3e 44 94 c9 3c
       -0.17454207 -0.023305722 0.12657592 0.024606831
0000b0 ca 0f 32 bd 03 25 1a bd 61 e5 5e bd 6a b6 43 3d
       -0.04347209 -0.037632953 -0.05441797 0.047781385
0000c0 8e ba 17 bd a1 c6 a4 3d d9 b6 c7 3d 3a c2 83 be
       -0.037043147 0.08045698 0.09751672 -0.2573412
0000d0 7a 35 61 bc 2a 8a d8 3d 55 d9 da 3d a2 8a 1a 3e
       -0.01374566 0.10573228 0.10685984 0.15091947
0000e0 b5 75 8d 3c d0 49 7b bd 5d 1f 05 be 8b b2 2f be
       0.017268041 -0.06134969 -0.13000245 -0.17157952
0000f0 61 70 3a bd 20 0f ed bd 5a 93 5d 3e 59 2e 35 bd
       -0.04551733 -0.115751505 0.21638241 -0.044233654
000100 13 14 ae bd 3d aa 8f 3c b8 73 42 bd 0d 67 f9 3d
       -0.084999226 0.01753723 -0.04747364 0.121778585
000110 6a 1b 8b bc 66 69 86 bc 39 f5 1e be 19 35 37 be
       -0.016980845 -0.01640768 -0.15523233 -0.17891349
000120 f7 76 e9 bc 8b 45 a7 bd 27 10 3c 3c 12 fd ee 3d
       -0.02849911 -0.08167561 0.01147846 0.11669363
000130 79 c5 39 3d 85 c4 5e bd 7f 51 89 3c 54 36 71 3c
       0.04535434 -0.054386634 0.016762493 0.0147224255
000140 75 d3 26 bc 61 11 63 bd ea 31 fc bd 7b 17 c0 3d
       -0.010182251 -0.055436496 -0.12314208 0.093794785
000150 5a d3 e6 bc e1 4f d9 3d 98 2a 61 3d d2 0d d5 bd
       -0.028176952 0.10610939 0.05497226 -0.10403027
000160 75 2b f2 3b 8f ff ad 3d 7d d9 e3 3d d5 39 11 3e
       0.0073904344 0.084960096 0.11125467 0.14182217
000170 0a 0a 2c 3d 93 0f 80 3b d2 0a 9f 3c 3f fe 28 3d
       0.04200176 0.0039081066 0.01941434 0.041258093
000180 ef 32 2a 3d 19 43 6b 3e e9 bf 58 3c a6 1a dc bd
       0.04155248 0.22974814 0.013229349 -0.1074727
000190 ce fa 80 bd f9 d7 3b 3c 77 0b 29 bc 27 e3 97 3d
       -0.06297837 0.011465066 -0.010317675 0.07416373
0001a0 1e 44 b9 3b c3 3d 87 3d 55 67 68 3d ff 6f 3f 3c
       0.005653872 0.06603577 0.05673917 0.011684417
0001b0 52 42 49 be 70 09 0b be 14 f5 eb bd bb 03 a1 3a
       -0.19654205 -0.13577819 -0.11521354 0.0012284437
0001c0 5c 07 07 be c5 1b 13 bd a1 58 3e be 59 31 13 bd
       -0.13186401 -0.035915155 -0.18588497 -0.035935733
0001d0 14 7c 27 3e 6b 1b 14 be e8 8b 6b be 16 b3 52 be
       0.16355926 -0.14463584 -0.23002589 -0.20576128
0001e0 79 ac 94 3b 40 0a 7c 3d c3 da af bd 5a db 2b bd
       0.004537162 0.061533213 -0.08586647 -0.041957237
0001f0 d6 5b 26 be 8a 90 d9 bd cd f3 23 3d 18 8b fc bd
       -0.1624597 -0.10623272 0.04002743 -0.123312175
000200 cb de 0a be 6d 0b 20 bd d2 dc c1 bd 57 83 0a be
       -0.13561551 -0.039073396 -0.09465946 -0.13526665
000210 1b b0 ee bd 2e c2 4c bd 83 33 a5 3d c9 a0 07 be
       -0.11654683 -0.04998987 0.08066466 -0.13244928
000220 45 ed 44 be 24 0e 17 3c 0c e9 45 bd 01 30 25 be
       -0.19231136 0.00921968 -0.048317954 -0.16131593
000230 33 8a fa 3c 7a 93 e5 bc bf 8e 26 bd 65 7d 1c 3e
       0.030583477 -0.028024424 -0.040663477 0.15282209
000240 6b 5d 37 be 66 11 b5 bd 48 f6 ab 3d 43 0b 3e 3d
       -0.1790673 -0.08841209 0.08396584 0.04639746
000250 a3 30 60 3e 98 82 4b bd 76 30 52 bd 4b 4a 39 3d
       0.21893553 -0.04968509 -0.051315747 0.045236867
000260 8f d4 89 bd 89 2d 1f bc ab f2 b1 bc fd 56 61 3b
       -0.067299955 -0.009715446 -0.021722158 0.0034384124
000270 a6 b4 2f be a5 0c 9e 3d 2e 78 0e 3b 44 29 fb bc
       -0.17158756 0.077172555 0.0021739113 -0.030659325
000280 f0 88 7d 3c 65 5d f8 3d 0a 75 02 be 46 ec 42 be
       0.015474543 0.121271886 -0.1273996 -0.19035444
000290 75 3b 03 3d 19 4c 7b bd be 88 e3 bd a2 fa 40 bc
       0.032039125 -0.06135187 -0.11110066 -0.0117785055
0002a0 53 9a e0 bd fd 73 cd bd 75 a5 1e 3d 56 66 b1 bd
       -0.10966935 -0.10031889 0.03873201 -0.08662097
0002b0 bb 13 00 bd 5c b5 77 3d d1 3a d2 3d 7a a2 be 3d
       -0.031268816 0.060475692 0.102651246 0.09308334
0002c0 26 09 a2 3b 30 d1 a9 3d f3 7f 03 bc 30 e9 d2 bc
       0.0049449382 0.082918525 -0.008026111 -0.025745958
0002d0 6a 50 84 be 5c 94 24 be ab 3b 96 3d ee 58 db bd
       -0.258426 -0.1607222 0.073355995 -0.10710321
0002e0 4e f1 e7 bc 46 d3 4f bc 80 4f a7 3d 25 8f 65 3c
       -0.028313305 -0.012684649 0.0816946 0.014011179
0002f0 61 b6 b3 3d f1 ce d2 bd 0b ec ca 3d ea fb 47 bd
       0.087750204 -0.10293377 0.09908303 -0.04882423
000300 b8 74 76 bd 58 38 b3 bd 75 39 94 bc 95 dd e5 3c
       -0.060169905 -0.08750981 -0.018093804 0.02805976
000310 0f b0 e5 3d 4e 54 9e 3b cf e5 58 be 95 58 10 be
       0.11215221 0.0048318272 -0.21181415 -0.14096291
000320 20 fd 19 3e 52 e3 78 3d c3 42 04 3e 6d d7 50 3b
       0.15037966 0.060763665 0.12916093 0.0031866685
000330 d7 58 51 bc ea dd 1b 3d b0 d1 b5 bd f8 0b 54 be
       -0.012777529 0.03805343 -0.08877885 -0.2070769
000340 8c c7 b9 bc 81 34 08 3d d3 7c 2c be 90 ae 08 be
       -0.02267816 0.033253197 -0.16844492 -0.1334784
000350 5d 68 aa 3d b7 24 d1 bc 6c 22 9d bd 04 dc 03 3e
       0.08320687 -0.025530202 -0.07672581 0.12876898
000360 a4 d9 b4 3c 16 b7 e2 3d f0 57 34 3e a9 4c 51 bd
       0.022076435 0.11070077 0.1761167 -0.0510985
000370 f1 62 ca 3d 2f 64 4c 3d 37 59 1e bd 7b 94 23 bd
       0.09882153 0.04990023 -0.0386593 -0.039936524
000380 15 79 39 bd c7 70 e7 3d 2d 99 1b 3e 94 72 82 bc
       -0.04528149 0.113008074 0.1519515 -0.015923776
000390 56 1a 59 3d 04 cf 03 3e ec 55 40 3d b2 cd eb 3c
       0.05300363 0.12871939 0.04695694 0.028784607
0003a0 c8 30 40 bd 98 ae b4 be 38 36 1b be 09 5d 01 3e
       -0.04692152 -0.35289454 -0.15157402 0.12633146
0003b0 da 2c 17 3e b7 08 67 be 2a bd f0 bd e1 e5 45 3d
       0.14763203 -0.22561918 -0.1175483 0.048314933
0003c0 3f 69 8b 3c 21 0c 81 bc 14 ce 05 3e 94 6e 09 bd
       0.017017959 -0.015752854 0.13066894 -0.03355272
0003d0 27 02 d6 bb c8 d3 e0 bc 27 fd 83 bd 2c 9f e1 3d
       -0.0065310183 -0.027444735 -0.06444769 0.11016688
0003e0 f7 82 57 3e b0 9e 4e 3e e0 43 85 3d f1 2f 23 3e
       0.21046053 0.20177722 0.06507087 0.15936257
0003f0 f8 7c 5e bc 0c ac 02 be 34 d6 b2 3c 20 6b 1d 3e
       -0.0135796 -0.12760943 0.021830656 0.15372896

conv3.bias f4 [32]
000000 10 04 0c bd 34 28 9d 3c 2a 70 77 3d 09 7a 75 bd
       -0.03418356 0.01918421 0.060409702 -0.059930835
000010 16 ad 31 3d 61 74 03 be ab 24 94 3d 06 4a 83 3d
       0.04337796 -0.12837364 0.07233556 0.06410603
000020 54 ff 68 3d de 5a 85 3b 06 de aa 3d c5 db 55 bd
       0.056884125 0.00406967 0.08343129 -0.05221154
000030 ce 54 8c bd 6e 66 fb bd 9e ea f7 3b 63 d4 54 bc
       -0.06852113 -0.12275396 0.0075658103 -0.01299009
000040 0d cf 90 bd 59 79 96 3b 7e 5f 14 bd a1 d4 07 bb
       -0.07070742 0.0045921025 -0.03622388 -0.0020726102
000050 ad 97 43 bd 5d 41 d6 3c f4 93 33 3b 80 89 a4 bd
       -0.04775207 0.026154215 0.002740142 -0.080340385
000060 04 b5 79 3d 3d 2f 21 bd 18 f5 91 b9 51 9e 20 be
       0.060963646 -0.03935169 -0.00027839164 -0.15685393
000070 87 f6 1c bd 0f 29 8e 3d d0 ef d0 bb a0 47 4c 3d
       -0.038321044 0.06941425 -0.006376244 0.049872994

bn1.weight f4 [16]
000000 44 85 7b 3f 5c fd 7f 3f e5 68 82 3f 96 ff 6f 3f
       0.9825022 0.9999597 1.0188261 0.9374937
000010 74 59 75 3f 25 06 83 3f 23 22 78 3f 26 e0 87 3f
       0.9583962 1.023625 0.9692709 1.061528
000020 4b 66 87 3f 74 72 80 3f cb 09 75 3f 0a 3e 80 3f
       1.0578092 1.0034928 0.9571807 1.0018933
000030 98 08 77 3f 6f 16 84 3f b8 94 76 3f 76 1e 80 3f
       0.9649749 1.0319346 0.96320677 1.0009296

bn1.bias f4 [16]
000000 19 56 4d bb ac 16 b9 bc 8f 6c 7a 3d f8 36 92 bc
       -0.0031331836 -0.022593819 0.061138686 -0.017848477
000010 69 a9 85 3c ea 86 54 3c c9 96 09 bd 24 f5 48 bc
       0.016316133 0.012971619 -0.033591066 -0.012265477
000020 b7 5a 3e bc 73 69 2e bc 89 70 ff 3c 29 d0 93 3b
       -0.011618308 -0.010645258 0.03118159 0.0045108986
000030 37 70 8b bc f9 68 24 3d cc b9 7b ba 29 c7 cd 3c
       -0.017021282 0.040139172 -0.0009602576 0.025119381

bn1.running_mean f4 [16]
000000 38 d2 02 bf 81 94 a5 3e da 4e a5 3e 23 70 54 3d
       -0.5110202 0.32339862 0.3228672 0.051864754
000010 46 70 85 bc 2a d0 2d 3d 56 7a 68 be 67 be ac 3e
       -0.016288888 0.04243485 -0.22702917 0.33739015
000020 ea 7b 8f 3e 67 be 3b be 7b 55 40 3e 82 d5 d8 bd
       0.28024226 -0.18334351 0.18782608 -0.105875984
000030 de d3 52 be 97 c1 c6 3d bf ce eb bd 2f b2 2c 3d
       -0.20588633 0.09704893 -0.11514043 0.042162117

bn1.running_var f4 [16]
000000 11 6d 5c 3f 51 d4 a6 3e 94 80 a7 3e 2f 61 5a 3d
       0.8610392 0.3258386 0.32715285 0.053315338
000010 da 87 6e 3d 79 c7 c9 3d aa ab 6c 3e d0 d1 e9 3e
       0.058235027 0.098524995 0.2311236 0.45667887
000020 55 92 78 3e f6 4d ee 3d 77 ff cb 3d 0a 38 32 3e
       0.24274571 0.116359636 0.099608354 0.1740419
000030 f0 cc 31 3e 58 d7 14 3e 73 28 e9 3d fd 84 c1 3d
       0.17363334 0.14535272 0.11384668 0.094491936

bn2.weight f4 [32]
000000 8a b8 6d 3f a3 6d 81 3f 69 02 88 3f 89 57 76 3f
       0.9285971 1.0111583 1.0625736 0.9622732
000010 2e 47 71 3f b1 e9 6c 3f 49 d9 82 3f a6 02 7a 3f
       0.94249237 0.92544085 1.022256 0.9766029
000020 5f 0f 7c 3f a5 74 6c 3f ea 39 78 3f 50 c9 82 3f
       0.98460954 0.92365485 0.9696337 1.0217686
000030 0e a7 88 3f 42 a2 84 3f f6 d0 6a 3f c5 9a 81 3f
       1.0675981 1.0362017 0.917251 1.0125357
000040 62 dc 70 3f ae 29 82 3f e1 cb 80 3f 9f 8f 83 3f
       0.9408628 1.016897 1.0062219 1.0278205
000050 31 a9 82 3f f2 2d 7e 3f 02 0b 89 3f 7f 62 87 3f
       1.0207883 0.99288857 1.0706484 1.0576934
000060 3e da 73 3f 44 4e 79 3f 35 cb 81 3f 5f 52 79 3f
       0.95254886 0.9738505 1.0140139 0.97391313
000070 40 8a 80 3f 1a 2a 80 3f bf df 74 3f d1 02 78 3f
       1.004219 1.0012848 0.9565391 0.968793

bn2.bias f4 [32]
000000 51 ff 9c bb 2e 75 f5 39 dc 37 e8 3c 4e f6 6b bc
       -0.0047911783 0.00046817347 0.028346948 -0.014401985
000010 b6 32 fc bc 24 c9 d0 3b d7 83 a5 bc be d2 c7 3a
       -0.0307859 0.006371634 -0.020204468 0.0015245301
000020 6f 3a e1 bc 05 c3 3f bd c2 5d 92 bc 73 20 9d 3c
       -0.027493684 -0.046816844 -0.017866973 0.019180512
000030 2b 34 37 3d 63 b2 dd 3c b7 3d d8 bc 5c 8f b2 3b
       0.044727486 0.0270626 -0.026396615 0.0054492187
000040 77 82 dc 3c 43 af 5c bc ef 06 d2 3b 93 f6 8e 3b
       0.02691768 -0.01346952 0.006409518 0.00436289
000050 70 ab bc bb c8 ea 84 ba 89 15 c4 3c b0 2f 0d 3d
       -0.0057577416 -0.0010140771 0.02393605 0.034469306
000060 15 04 4f bc 79 e0 88 bb dd 6c 46 bb b1 ec 16 3c
       -0.012635251 -0.00417715 -0.003027729 0.009211705
000070 70 ae 21 3c b7 1d b2 3c df 48 be bc e5 1c 28 bc
       0.009868249 0.021742685 -0.023228107 -0.010260795

bn2.running_mean f4 [32]
000000 51 09 b7 be e3 cc 55 3f a7 2f aa 3f 8d f8 85 bf
       -0.35749295 0.8351576 1.3295792 -1.0466477
000010 87 ce 93 bf aa af 8a be 58 ef 84 be 4a d1 44 bf
       -1.1547402 -0.27087146 -0.25963855 -0.7688185
000020 ce 3d 69 3e b4 16 35 bd 3a c5 10 3f b4 79 08 3f
       0.22777483 -0.044211105 0.56550944 0.53310704
000030 5c 09 0a 3f ea ee 26 3f 05 0a 59 be bd c6 16 3e
       0.5392053 0.65208304 -0.21195228 0.1472425
000040 13 fd 52 3e 06 df 5e 3e 34 e9 8d 3f 74 22 0c 3f
       0.20604353 0.21764764 1.1086793 0.5474007
000050 7b 14 ad 3f 22 db fa 3e 72 63 7d 3d 63 14 41 3f
       1.3521875 0.4899531 0.061862417 0.7542173
000060 e8 5a 1c bf 63 eb 7c bf 13 fd 37 3e dd 7b c7 3e
       -0.6107621 -0.9879667 0.17967634 0.38961688
000070 65 85 1f 3d 15 63 b1 bd a9 1c 54 bf 2d 07 e4 3e
       0.038945574 -0.086614765 -0.8285623 0.44536725

bn2.running_var f4 [32]
000000 62 fc d1 3f 01 31 5d 40 b7 37 25 40 ad d5 9d 3f
       1.6405146 3.456116 2.5815256 1.2330834
000010 4b 5d 76 40 2b d6 65 40 ef 0e b7 3f 43 89 65 40
       3.8494442 3.5911968 1.4301432 3.5865028
000020 3f 87 9d 3f e6 e7 7d 3f 55 b9 a2 3f 8e 7b e3 3f
       1.2306899 0.99181974 1.2712809 1.7772081
000030 63 8d 2d 40 61 3d 13 40 14 f5 47 3f be 2b 4a 40
       2.7117546 2.3006213 0.78108335 3.1589198
000040 9a 57 b8 3f 15 2b 98 3f 58 29 e7 3f 79 94 d6 3f
       1.4401734 1.1888148 1.8059492 1.676406
000050 ce dd 12 40 73 6c 87 40 9f f1 b1 40 1a 7f 97 40
       2.294788 4.2319884 5.560745 4.7342653
000060 d5 87 0d 40 ce 85 17 41 51 0f 1d 40 25 0d 9e 3f
       2.2114155 9.470167 2.4540598 1.2347761
000070 1b 30 fe 3f f5 ce 1b 40 30 f5 02 40 7c cc 4d 3f
       1.9858431 2.4345067 2.046215 0.80390143

bn3.weight f4 [32]
000000 4c 98 50 3f 40 ba 57 3f db f2 35 3f b1 4c 32 3f
       0.81482387 0.8426857 0.71073693 0.6964827
000010 52 e6 46 3f 34 c4 5d 3f f7 53 3e 3f 5c f3 31 3f
       0.7769519 0.8662751 0.7434687 0.6951196
000020 71 b1 59 3f 1f 9c 61 3f 5d c3 69 3f 3d 96 51 3f
       0.8503638 0.88128847 0.91313726 0.8186987
000030 94 84 4d 3f 7d af 54 3f 1e bb 5b 3f d1 63 69 3f
       0.80280423 0.83080274 0.85832393 0.9116793
000040 94 84 47 3f 08 2a 4e 3f a1 d6 53 3f ea 43 67 3f
       0.77936673 0.80532885 0.8274937 0.90338004
000050 52 a1 5c 3f 8d ee 55 3f 0e 29 4a 3f e1 df 53 3f
       0.86183655 0.83567125 0.78968894 0.8276349
000060 1b 42 49 3f 05 ea 5a 3f c4 68 38 3f a2 91 60 3f
       0.78616494 0.85513335 0.7203486 0.8772222
000070 ed d6 50 3f 5d 36 2c 3f 2c 87 4d 3f 7f 77 64 3f
       0.8157795 0.6727045 0.8028438 0.89244837

bn3.bias f4 [32]
000000 1c 6c 49 be 37 ab 08 be 8a 1b 63 be af 61 06 be
       -0.19670147 -0.13346563 -0.22178474 -0.13123201
000010 ec 07 48 be fe a7 ec bd 07 bd 52 be ec a8 3f be
       -0.19534272 -0.115554795 -0.2057992 -0.18716782
000020 d5 74 0b be 19 d4 de bd f9 35 81 bd 08 47 00 be
       -0.13618787 -0.10880298 -0.063091226 -0.12527096
000030 67 03 dd bd a9 b7 f7 bd 5a 3c 03 be 5f 62 ae bd
       -0.107916646 -0.12095577 -0.12815991 -0.085148565
000040 98 90 33 be 78 3f 38 be 6d 57 0f be 6c 64 c5 bd
       -0.17535627 -0.17992961 -0.13998194 -0.096382946
000050 3f cb 40 be 1d 3c 2b be ec 55 35 be a6 13 39 be
       -0.18827532 -0.1672215 -0.17708558 -0.18073902
000060 93 5d 59 be 02 00 a9 bd 45 ba 3f be 22 67 a6 bd
       -0.21227102 -0.082519546 -0.187234 -0.0812514
000070 56 9a fe bd 24 4d 48 be 19 64 2f be 47 12 b8 bd
       -0.12431781 -0.19560677 -0.17128028 -0.08987861

bn3.running_mean f4 [32]
000000 c8 b1 67 bf a2 cd 2a bf 24 65 97 bf 8b f2 20 be
       -0.9050565 -0.6672002 -1.1827741 -0.15717523
000010 c9 30 94 bf 4f 1c d0 bf 3e 76 5c bf 6f 31 84 3f
       -1.1577388 -1.6258639 -0.86117923 1.0327586
000020 24 92 3d bf 3a 4c 8e bf 1e 2d ca 3f ae c4 76 3f
       -0.7405112 -1.1117013 1.5795019 0.9639386
000030 da 29 ba be eb 6c e7 be 15 b8 1d c0 4f b5 f0 3f
       -0.36360055 -0.45200285 -2.4643605 1.8805331
000040 95 0d c9 bf fd 1d 97 bf 39 b1 84 bf 47 e6 a0 bf
       -1.570727 -1.1806027 -1.0366584 -1.2570275
000050 8e 17 6d bd c7 9d 92 3f fd ae a4 3f 42 8f 99 bf
       -0.05788379 1.14544 1.2865902 -1.1996844
000060 7d be 42 bf 88 2e 94 3c 0d c4 95 be 5e e7 a5 bf
       -0.7607191 0.018088594 -0.29251137 -1.2961233
000070 2a b8 5c bf 6b 26 46 bf d0 b0 9d bf 32 9d 68 3f
       -0.8621851 -0.7740237 -1.2319584 0.9086486

bn3.running_var f4 [32]
000000 1b 4d c3 40 14 0e 35 40 25 b1 d7 40 19 58 50 40
       6.1031623 2.8289843 6.740374 3.255377
000010 6c 72 31 41 f8 f8 3d 41 9f 33 90 40 da 73 ba 40
       11.090435 11.873283 4.5063014 5.826642
000020 d6 9b c4 40 9f 6f 88 40 c7 bb 8e 41 ff 33 c1 40
       6.144023 4.2636256 17.841688 6.037597
000030 a1 42 60 40 2b 8a 29 40 e6 67 9b 41 4f ec 11 41
       3.5040667 2.649058 19.425732 9.120193
000040 9f fb f9 40 90 a7 af 40 73 c9 e7 40 93 e0 b2 40
       7.8119655 5.4892044 7.243341 5.589914
000050 8f 4c 6c 40 17 a8 fa 40 ce 5a 51 41 02 22 8f 40
       3.6921728 7.833019 13.084669 4.4729013
000060 a0 32 92 40 23 76 b7 40 d8 9b 64 40 d4 e4 e8 40
       4.56868 5.733171 3.572012 7.277933
000070 a1 9c 66 40 3f eb b6 40 be 7f 75 40 6d c4 18 41
       3.6033099 5.7162166 3.8359218 9.5479555

fc10.weight f4 [4, 2048]
000000 8a 48 a5 bc af f8 aa bc d3 a1 a3 bc 19 f6 44 3c
       -0.02017619 -0.020870535 -0.019974625 0.012021565
000010 3d c0 13 3d f9 7a 40 bd 84 7d 91 3c d0 da b6 3b
       0.036072005 -0.046992276 0.017760046 0.0055802837
000020 ac f3 d3 bc 4a c7 ed 3c 71 41 d4 3c f7 d3 89 bc
       -0.025873028 0.029025692 0.025910111 -0.016824706
000030 c5 d2 70 bd 17 a3 8a 3c 68 57 09 bc 60 2d 85 3c
       -0.058794755 0.01692347 -0.008382656 0.016256988
000040 15 1f ba bb da 18 27 bc 21 64 a5 3b 8f 7c 7c bd
       -0.005679975 -0.010198796 0.0050473367 -0.061642226
000050 02 ef 2a 3a 1a 55 72 3c de 63 b1 3b 43 1c 9a 3c
       0.00065206 0.014790798 0.0054135164 0.018812304
000060 71 77 0e 3d ac d7 03 bc 07 1c 6d 3c 16 84 e1 3c
       0.034781877 -0.008047026 0.014472014 0.027528804
000070 c5 3d 27 bc 18 3a b5 bb 7b 79 17 3b 92 24 03 bc
       -0.010207598 -0.005530607 0.002311318 -0.0080043245
000080 bf c1 e7 3c 60 f7 0d bd 9e b3 b6 bc 5e bd bb 3c
       0.028290628 -0.034659743 -0.022302445 0.022917446
000090 59 bd 14 bc be 13 fe 3c 34 a4 87 3c df d7 36 3d
       -0.009078347 0.031015273 0.01655779 0.044639464
0000a0 42 04 86 3c 1f e8 c7 3c 26 8a 6b bd 9f 82 5b bc
       0.016359452 0.024402676 -0.057504795 -0.013397842
0000b0 94 d8 97 3c 32 5f 63 3d fd 08 05 bc 5e ba 47 3d
       0.01853589 0.055510707 -0.008119819 0.048761718
0000c0 6c a0 16 bd ec a3 b4 bc cf e9 81 bc 52 f2 43 3b
       -0.036774084 -0.02205082 -0.015858559 0.0029899073
0000d0 ec 9b 93 3c 72 94 41 be 20 cf 2f bd 81 ac 61 3d
       0.018018685 -0.18904284 -0.04292214 0.055096153
0000e0 b4 b0 e5 bc 59 1a e8 3c 71 d8 17 bc a0 f2 e0 3c
       -0.02803836 0.028332876 -0.009267912 0.027459443
0000f0 fd 02 bd 3b 61 60 52 bd 1e 06 85 bd 73 bc 2b 3a
       0.0057681785 -0.051361445 -0.064953074 0.00065512134
000100 86 4b 92 3c e5 0c b6 bc ed 48 87 3c 7e 4d 8f bd
       0.017858278 -0.022222945 0.016514266 -0.06997202
000110 61 e3 01 bd c9 d0 c2 bc da 8c 63 3d 5b ed 4f 3d
       -0.031710986 -0.023781197 0.05555425 0.05076347
000120 dc b2 12 bc 19 1f 51 3c e7 03 1e 3c f4 f3 a8 bc
       -0.008953776 0.012763762 0.009644485 -0.020624138
000130 0c d0 16 3b 23 b4 08 3b ed 71 be 3c 6e da a4 bb
       0.002301219 0.0020859323 0.023247683 -0.0050309217
000140 9b 37 44 3c c1 34 42 3c 70 dc c3 3b 26 ef c0 bc
       0.011976148 0.011853398 0.005977206 -0.023551535
000150 89 e8 e0 bc 9c 5e 58 bb db b1 2c bd bc 6f 09 bd
       -0.027454631 -0.0033015376 -0.042161804 -0.033553824
000160 41 80 b1 bc d8 e3 a6 bb 2d d1 63 3b 11 98 27 bc
       -0.021667602 -0.005093079 0.003476213 -0.010229127
000170 f4 74 bd 3b 47 06 6b bc 24 a7 10 bb 7f b5 29 3b
       0.005781764 -0.014344758 -0.002207228 0.0025895534
000180 69 a2 a5 bb 59 c5 41 3d c5 b8 22 3d 68 81 c9 bb
       -0.005054761 0.047307346 0.03972699 -0.0061494596
000190 80 94 72 3c f2 06 e2 3a e6 82 4f bd ca 1a 93 3c
       0.014805913 0.0017244502 -0.050661944 0.01795711
0001a0 9c 64 f3 3a d3 a4 02 bd c9 e4 98 bd 57 4e a5 3b
       0.0018569413 -0.03189547 -0.07465512 0.005044739
0001b0 83 61 8e bd 4f 9c d1 bc ad db e1 ba bf 54 27 3d
       -0.06952193 -0.025587229 -0.0017231606 0.040852305
0001c0 ab ac d1 bc c5 01 a1 3c f6 de 76 3c 0d 14 0a 3b
       -0.02559503 0.019654164 0.0150678065 0.002106908
0001d0 ee 3c 89 bb 06 9b 7b 3c ac 6d 2b 3c 5a 2f 52 3c
       -0.0041881716 0.015356785 0.0104631595 0.012828672
0001e0 b6 de 6d b9 cc e7 ce bc 03 a1 25 3c 93 56 2f bd
       -0.00022685048 -0.025257014 0.010109189 -0.042807173
0001f0 34 fb f4 3c 6a e6 9d ba 87 45 50 bc 22 5d 1b bd
       0.02990494 -0.0012046818 -0.012711889 -0.037930615
000200 22 20 04 bd da 36 c9 bc 2d d3 8d bd 05 4c 3b 3d
       -0.032257207 -0.024562288 -0.06925044 0.045726795
000210 f5 c4 ab 3c a2 5f 55 bd 8e 7b 04 3d 3c 5e 89 bc
       0.02096794 -0.052093156 0.032344393 -0.016768567
000220 be d2 46 3c 93 9b b1 bc 2c f6 cf 3c d6 79 08 bc
       0.012135206 -0.021680629 0.025385939 -0.008329829
000230 cd 52 66 bc 46 47 22 bc a9 5a ea 3b 4b eb 8a 3d
       -0.014057827 -0.009904688 0.007151921 0.0678316
000240 95 e2 46 3d 11 5f 07 3c bb ec 7c 3c d3 aa fe bc
       0.04855593 0.008262412 0.0154373 -0.031087315
000250 90 9c 1c 3d 6d ba a8 3c 4c 0d 0c 3c 50 8b e2 bc
       0.038235247 0.020596707 0.008548092 -0.02765432
000260 d2 a8 27 bd e3 9c 29 3c f7 51 04 3b af e7 18 bc
       -0.040932484 0.010352346 0.0020190456 -0.009332581
000270 25 75 8d bd 6e 3a 88 3c b9 17 18 bd bf 3a 95 bb
       -0.06907109 0.016629424 -0.037132 -0.004554122
000280 f9 6a d5 bc f9 43 31 3d 60 30 14 bd 98 10 0f bd
       -0.026051985 0.043277714 -0.036178946 -0.034927934
000290 80 18 e4 3b 59 6f 3f 3c d0 d8 4a bc 4a ff 58 bd
       0.0069609284 0.011684262 -0.012380794 -0.052977838
0002a0 87 dd 1e 3d 10 69 4d 3d 0f 44 dd bb 6e bf e6 bc
       0.038785484 0.050149024 -0.006752498 -0.028167453
0002b0 ef 44 28 3e e8 6c bc bc 31 a2 17 bc df d0 a1 bc
       0.16432546 -0.02300115 -0.009254978 -0.019752918
0002c0 cc 9e d8 39 11 7e 4f bc 4e ac e8 bb 89 a3 d7 bc
       0.00041317043 -0.012664334 -0.0071006184 -0.026323097
0002d0 a4 5e f3 bd 18 fd 33 bc 60 c0 a6 bc e6 7c 4b 3c
       -0.11883286 -0.010985635 -0.020355403 0.012419915
0002e0 32 69 35 3c c9 16 57 bd 17 fc c9 3c c2 90 83 3c
       0.011072444 -0.052511964 0.024656339 0.016060237
0002f0 24 37 88 3c b0 ad 4a bc 85 40 6b 3d 28 55 2c bd
       0.016627856 -0.012370512 0.057434577 -0.0420734
000300 39 3f fe bb 26 11 3c 3c 6a ad 8d 3a f9 8b db bc
       -0.0077590016 0.011478698 0.0010809128 -0.026800143
000310 bf 0b 24 3c 79 47 42 3d 83 79 5f bc 8b c7 8a 3c
       0.010012566 0.047431443 -0.0136398105 0.016940853
000320 ca da 16 bd ee 9b a9 bd cb 5a 38 bb 8a b3 95 bb
       -0.036829747 -0.08281694 -0.0028130289 -0.004568522
000330 a0 3f 30 bb 3d 4c 18 3c a8 07 ec 3c 11 e9 35 bd
       -0.0026893392 0.00929552 0.028812245 -0.044411723
000340 03 63 4f 3c f4 0f 53 3b 69 46 24 bd f2 16 b5 bc
       0.012657884 0.0032205554 -0.04010621 -0.022105668
000350 b1 66 e1 3a 30 52 87 3d db a3 cc bc 49 ba 57 bd
       0.0017196742 0.06607473 -0.024980476 -0.05266789
000360 ee ea a9 3c 6b 1f 3f bd b4 4b 81 3b d1 59 83 bb
       0.020741906 -0.046660822 0.003945792 -0.0040085097
000370 24 88 7f 3c b0 27 f2 bc c8 0d 9d bc 3b a5 10 bd
       0.015596423 -0.02955994 -0.01917161 -0.035313826
000380 b0 29 f3 bc c0 d1 11 3c 9e 60 65 bc c3 9f 85 ba
       -0.029682964 0.008900106 -0.014000086 -0.0010194707
000390 d2 78 17 bc a7 7a 79 bc 39 26 8b ba 81 b7 c4 3c
       -0.009245114 -0.0152269965 -0.001061625 0.024013283
0003a0 0f 58 57 3d 60 17 bc 3c 55 c1 c7 3c 59 bb 02 be
       0.052574214 0.022960365 0.02438418 -0.1276678
0003b0 31 dc 20 3c 7e 83 64 3c 75 9f 2a bc 18 f1 a1 3d
       0.009818123 0.013947366 -0.010413994 0.07907313
0003c0 ec 5e 1d b9 64 dc f3 bd 5d f0 a5 3d 3f c5 f8 bb
       -0.00015008048 -0.119072706 0.08102486 -0.007591873
0003d0 8e 79 e1 3b ba fa ea 3c d6 1f 1f bd d8 2e e7 bd
       0.0068809455 0.028684009 -0.03884872 -0.112882316
0003e0 61 2c 01 3d 68 b9 93 bc 8c 5a bc 3b 4f 40 89 3b
       0.031536464 -0.018032745 0.0057480987 0.0041885744
0003f0 49 29 5f 3b d5 b1 c5 ba e9 5a 21 bd e1 7b a1 3e
       0.0034051707 -0.0015082905 -0.03939334 0.31539825

fc10.bias f4 [4]
000000 97 8e 5e ba 43 bf 27 ba f1 8c bb 3b 96 61 87 ba
       -0.00084898755 -0.00063990447 0.0057235886 -0.0010328765

fc11.weight f4 [4, 2048]
000000 88 76 ae bb 0e 05 9e 3a d4 7c 3c 3c 03 ab e7 3d
       -0.0053241886 0.001205595 0.011504371 0.11311915
000010 87 fc 35 3c 90 f0 a6 3c d2 90 cf 3b cf 73 a2 bc
       0.0111075705 0.020378381 0.0063344026 -0.019830612
000020 ba 8b 7f bd 69 30 f2 3c f3 ca 1b bd 78 71 2c bd
       -0.062389113 0.0295641 -0.038035344 -0.0421004
000030 c7 12 e0 bc a5 4b 0f bd 73 ac 0d bd b6 84 5d 3b
       -0.027352704 -0.03498425 -0.03458829 0.0033801026
000040 e9 94 16 bd d4 8a 19 bb fb ed a2 bc a0 28 cd 3a
       -0.036763106 -0.0023428695 -0.019888869 0.0015652366
000050 d5 7a 6c bd e0 73 f2 3b 36 88 83 bc 4d 32 a7 bb
       -0.05773433 0.0073990673 -0.016056161 -0.005102432
000060 82 ac 5d bd 08 c4 ec bc 21 b1 76 bc 6b 23 6a bd
       -0.054119594 -0.028902069 -0.015056879 -0.057162683
000070 32 29 06 bd 6c 45 69 bc 22 9c 3d bd 0b 74 c1 bc
       -0.03275413 -0.014237743 -0.046291478 -0.023614904
000080 70 5a 42 bc a0 3f f8 3c b7 25 ff bb d2 34 b2 bc
       -0.011862382 0.030303776 -0.0077864784 -0.021753702
000090 fe 10 28 bd 87 28 5d 3d f5 89 d6 bc a1 fb 98 bb
       -0.04103183 0.053993728 -0.02618883 -0.0046686684
0000a0 26 98 d1 3c f3 36 4c bd bf cd 25 bc bd d1 16 bd
       0.025585245 -0.04985709 -0.0101198545 -0.036821116
0000b0 d5 a5 a6 bc bb c6 3c bc 51 f2 d1 bc 0e 6a 35 bd
       -0.020342747 -0.01152199 -0.02562824 -0.044290595
0000c0 45 df 54 bd c0 4b 56 bd db 96 29 bd c0 8e 9b bc
       -0.05197074 -0.052318335 -0.041403633 -0.018988967
0000d0 42 62 b1 bc a8 39 99 bb ef 2a 0f bc 90 c5 57 3b
       -0.021653298 -0.0046760626 -0.0087382635 0.0032924153
0000e0 d2 1c ad bb 7e bf 07 bd 89 07 5e bd e0 f4 46 bd
       -0.0052829767 -0.033141606 -0.054206405 -0.048573375
0000f0 c3 c4 ff 3c f4 be 26 bc 59 f5 c8 3c 3d d9 2f bd
       0.031221753 -0.010177363 0.024531053 -0.042931784
000100 40 17 eb bc 97 dd c5 bc 91 95 e5 bd c8 7f 6d 3c
       -0.02869761 -0.024153514 -0.11210168 0.014495797
000110 98 2e a2 bc a8 9c 62 3c 2f 29 80 3c 36 5d fd bc
       -0.019797608 0.013831295 0.015644638 -0.030928236
000120 53 6a 75 bc 6f 7e 0f 3c 47 40 ae bc d8 d5 a6 bd
       -0.014978963 0.008758171 -0.021270884 -0.08146256
000130 0d b3 2a bc f4 29 be bc fd 3d 87 bc b1 a2 a6 bc
       -0.010418666 -0.023213364 -0.01650905 -0.02034125
000140 2c 14 0a bd 6e 47 99 3c e7 9c 43 3b 78 24 2f bd
       -0.033710644 0.018710818 0.002984816 -0.04275939
000150 80 d7 bf 3c ef 67 af bc 12 51 d5 bc 50 6d a3 bd
       0.023418188 -0.021411864 -0.026039634 -0.07979834
000160 97 85 11 3c e3 54 6b 3b bf 70 93 bc 08 0a a7 bb
       0.008881948 0.003590875 -0.017998097 -0.0050976314
000170 cd f9 4b ba 9a fd dd bc e5 47 e3 bb d2 1f 26 3b
       -0.00077810587 -0.027098466 -0.0069360607 0.0025348556
000180 50 2e 9f 3c 7f c0 4c 3c 52 35 15 bd ee 78 04 bd
       0.019431263 0.0124970665 -0.036427803 -0.03234189
000190 fa 61 94 3c 46 3b c4 bc 8e 04 aa 3c 38 37 3a 3d
       0.018113125 -0.023954045 0.020754125 0.045462817
0001a0 c6 78 a1 bc 5c 74 f5 bc ae d6 9c bd f1 46 17 bd
       -0.01971091 -0.029962711 -0.076581344 -0.03693289
0001b0 e9 bd 0d bd eb 83 b9 bd 90 15 71 bc 1d d8 9d 3c
       -0.03460494 -0.090583645 -0.014714614 0.01926809
0001c0 68 b3 40 3d 4a d6 15 3d 3f 27 bf 3b ef b9 ac 39
       0.047046095 0.036581315 0.005833536 0.00032944928
0001d0 03 96 2c 3d 82 60 e8 39 03 bd 23 3b cd 41 1f bc
       0.04213525 0.00044322392 0.0024984486 -0.009720278
0001e0 31 cc 29 bd e3 2a 98 ba 13 a4 a2 3c c0 0e 48 3a
       -0.041454498 -0.0011609461 0.019853627 0.00076315925
0001f0 58 91 aa bd 71 99 e8 bd 4c 81 10 bc cc 8b 5b bc
       -0.08328503 -0.113573916 -0.008819889 -0.013400029
000200 c0 40 89 bc db 09 0c 3d 14 37 c9 bb 08 cc 8e bc
       -0.016754508 0.034189086 -0.006140599 -0.017431274
000210 80 cd 64 bc 94 47 1e bb f0 11 12 bc 4e 88 06 bd
       -0.013965011 -0.002415155 -0.008915409 -0.032844834
000220 b0 b4 9c 3c d2 85 20 bc 5e 70 c7 bc 0c 67 4f bc
       0.019129127 -0.00979753 -0.024345573 -0.012658846
000230 a5 04 08 bd 45 1d 0a bd 59 2a 1a 3d e1 03 8f bc
       -0.033207554 -0.03371932 0.037638042 -0.017457904
000240 71 ce 8c 3c 04 fb 1a bd 19 a5 84 bc 7d bf 9f 3c
       0.017188283 -0.037837043 -0.016192006 0.019500488
000250 98 a4 05 3d cb 8a 1d bc de 72 b3 bb 90 7f d1 3c
       0.032627672 -0.00961561 -0.0054763397 0.025573522
000260 77 1a 11 bd 48 37 7d bc 59 4b 92 bd fc de 17 bc
       -0.03542563 -0.015455075 -0.07143278 -0.009269472
000270 fc 84 4b 3b 9b 37 66 3b 1c b1 b9 bc ff 87 8f bb
       0.0031054607 0.0035128358 -0.02266746 -0.0043802257
000280 b5 d3 93 3c d6 0c 54 bc 79 51 2f 3d b4 60 73 3c
       0.018045286 -0.012942513 0.042802308 0.014854599
000290 2a 84 36 3d 89 1d a2 bd 15 8c bf bb f1 9c ba bc
       0.044559635 -0.0791579 -0.0058455565 -0.022779914
0002a0 f2 cb 5e bd 48 6b 08 bc aa 1c 63 bd d7 39 20 bd
       -0.054393716 -0.008326359 -0.055447258 -0.03911766
0002b0 ed a2 93 3d ea 6a a6 bc 99 40 f5 ba 61 7d 4d bc
       0.0720881 -0.020314652 -0.0018711268 -0.0125421
0002c0 7c d3 94 bc 6e c1 6f 3b a0 f8 a8 3c 8f 4d 41 bd
       -0.01816725 0.00365838 0.020626366 -0.047193106
0002d0 c5 51 8f bc d4 4f 80 bd 24 1a 63 bc 19 34 ac 3c
       -0.017495045 -0.06265226 -0.013861213 0.021020936
0002e0 e4 2b 47 bd f3 d2 69 bd 1d 25 eb 3c 04 c8 76 3b
       -0.04862584 -0.057085942 0.02870422 0.003765584
0002f0 89 73 65 bd b9 9e 4d bb ff e7 8d bd 0d f2 05 3b
       -0.056018386 -0.0031375124 -0.06929015 0.0020438463
000300 36 0e 9a b8 15 11 83 3b 4a cc 50 bc 5a 5f a5 bc
       -7.345939e-05 0.003999839 -0.012744019 -0.020187069
000310 d4 c7 35 3c 9f 3d d7 bc e0 e3 05 3a 84 f4 5b bc
       0.011095006 -0.0262745 0.00051075034 -0.013424996
000320 86 b2 f2 bc 29 be 3c bc ca 61 97 3c b3 74 a5 bc
       -0.029626142 -0.011519947 0.018479247 -0.020197248
000330 0e 7d 85 bc b8 f5 c4 bc dd d2 7d 3c 06 cd d9 bc
       -0.016294982 -0.02404295 0.015492168 -0.02658702
000340 dd 46 87 3c b1 72 64 3b 89 42 5f bd 0f f7 58 3a
       0.016513282 0.00348584 -0.054506812 0.00082765607
000350 99 5b 63 bb 31 b1 ec bc 82 62 04 bd 2f a9 46 bd
       -0.0034692048 -0.028893085 -0.032320507 -0.04850119
000360 4e 16 e5 bc 74 af 4a bd 86 0f 79 3c 64 f0 a4 bc
       -0.027964737 -0.04948373 0.015201455 -0.020134158
000370 88 82 49 bb 3c 43 0d 3b 7e 2b cb bb ce fc 3b bc
       -0.0030747969 0.0021554967 -0.006200253 -0.011473848
000380 7f a2 39 bd 22 75 6e 3b a6 ee 15 bd 72 7f 80 3b
       -0.045320984 0.0036385735 -0.036604546 0.0039214427
000390 9c 10 9b bc c4 bb 57 bb 2e 79 cc 39 05 a7 75 3c
       -0.018928818 -0.0032918314 0.00039000198 0.014993434
0003a0 1d 70 bd bc a9 1b cc 3c 81 52 71 bd 23 4b 61 bd
       -0.023124749 0.024915533 -0.058916572 -0.055003297
0003b0 e0 69 f7 bb 07 f4 8f bd da f3 d7 3b 31 2e 9f bc
       -0.007550463 -0.070289664 0.0065903487 -0.019431205
0003c0 15 d4 bc 3b ce 92 71 bc 2d b3 0b 3d 55 78 24 3c
       0.005762587 -0.014744474 0.034106422 0.010038455
0003d0 06 7d e5 bc 7b 08 44 bd 29 64 60 3d dd 7e 2b bb
       -0.028013717 -0.04785965 0.05478302 -0.0026168146
0003e0 ce fd 19 3d 64 17 e3 bc a0 fb 06 3d 55 7f 8c 3c
       0.037595563 -0.027721114 0.032954812 0.01715056
0003f0 30 5b 02 bd 09 33 a3 3b d5 c0 c0 bc b3 fb 43 3d
       -0.031825244 0.004980449 -0.02352945 0.04784746

fc11.bias f4 [4]
000000 71 23 a9 bc ba 67 90 bc 8b fd 5e bc 3b c8 aa bc
       -0.020646783 -0.017627586 -0.013610254 -0.02084743

fc3.weight f4 [512, 4]
000000 74 bc d1 be 4d 31 97 3e 60 82 ed bd 85 ea 12 3f
       -0.4096409 0.295298 -0.11597133 0.573891
000010 50 b9 89 3f b7 b5 a7 3e 2e f3 2f bf c7 73 f8 3e
       1.0759678 0.32755825 -0.6873044 0.4852583
000020 91 be 7b be c2 dd e8 3e ab cc 75 be e1 20 54 3e
       -0.24584414 0.45481688 -0.24003856 0.20715667
000030 69 b4 6c 3e 64 9c 72 bf ca a7 07 bf 4a 4c f0 3e
       0.23115696 -0.94769883 -0.529904 0.46933204
000040 6d 08 3b 3f 56 6a 38 3f 84 22 03 bf a9 98 2d be
       0.7305973 0.72037256 -0.5122454 -0.16952766
000050 68 23 8c 3e fb 0c 8c 3d db e5 1b 3f b8 71 0e 3f
       0.27370763 0.06838413 0.60897607 0.5564227
000060 cc 44 8c bf b8 22 96 be 1a 2f 5a bf e7 af a1 3d
       -1.0958495 -0.29323363 -0.8522812 0.07894879
000070 ef 41 1b be 58 ea b5 bf a0 42 90 3e 6e d9 32 3e
       -0.1516187 -1.4212141 0.2817583 0.17465755
000080 af 79 9d 3c 2f 61 16 be 1d 1a f7 3e db 7c e6 be
       0.019223062 -0.1468551 0.4826211 -0.45017132
000090 bf ba fa 3e 5f 6a d7 be 56 b4 63 be 98 23 91 3d
       0.489706 -0.42073342 -0.22236761 0.07086867
0000a0 64 0d 17 3f c9 c9 b7 bd 14 6a e2 be ed 4e ff 3c
       0.5900481 -0.08974034 -0.44221556 0.031165564
0000b0 31 4d 77 3f 33 a7 11 bf 46 78 8a bf f3 26 44 3f
       0.9660216 -0.5689575 -1.0817955 0.7662193
0000c0 4b c6 48 3f d4 a6 a7 bf 18 01 88 3f 0a 69 86 be
       0.7842757 -1.3097787 1.0625334 -0.26252013
0000d0 7d 78 a3 3e cf a0 b6 be 3b a3 d4 bd 28 3a 17 3e
       0.31927863 -0.35669562 -0.10382696 0.14768279
0000e0 87 00 78 be 43 a8 88 3f 5d e9 1b bf cc 7d 46 3e
       -0.24218951 1.0676349 -0.6090296 0.19383925
0000f0 82 9f 24 be 5a b5 ee be 9a b7 2f bc 8b 3f 06 3e
       -0.16076472 -0.46622735 -0.010724926 0.13110177
000100 8d 55 f2 be 5a d4 09 3f 49 a2 6d be b6 0d 0f bf
       -0.47330895 0.5383965 -0.23206438 -0.55880296
000110 25 f9 c3 be 75 c3 fd 3e 6a cc 51 bf 07 e4 95 be
       -0.3827602 0.49563184 -0.81952536 -0.29275534
000120 a1 e3 02 3e 27 8a 0c be 7b 30 66 3f 45 49 24 bc
       0.12782146 -0.13724576 0.89917725 -0.010027234
000130 a4 51 8c be 30 ec 2d 3f ba f5 08 bf b4 2b 0b bc
       -0.27406037 0.6793852 -0.5349995 -0.008494306
000140 2a 47 38 3f f8 a5 49 bf c9 94 a2 3e c1 69 58 3d
       0.7198359 -0.78768873 0.3175414 0.05283523
000150 90 42 9f 3e c2 13 84 be d5 01 e6 3e e7 c4 f3 3e
       0.3110547 -0.25796324 0.44923273 0.47611162
000160 3d 24 76 3f a0 38 fa be ff f1 ad 3f 0a e6 2f 3f
       0.96149045 -0.48871326 1.3589476 0.68710387
000170 a4 6f 8d be c5 73 79 3d 7f d9 dc bc 5d 6e ae 3f
       -0.27624238 0.060901422 -0.026959179 1.362743
000180 fe f4 b4 be a1 e6 fa 3e c1 88 5f bf ec 2a 14 3f
       -0.35343164 0.4900408 -0.87318045 0.57877994
000190 32 34 a9 bd 20 a7 78 3d cb b1 29 bf ae f0 54 3e
       -0.082619086 0.060706258 -0.66286916 0.20794937
0001a0 ec 19 0b bf 8a 4d d5 3e 7a ec 8c bf fc 49 12 3e
       -0.5433643 0.4166072 -1.1009667 0.14286035
0001b0 09 82 84 bd 02 6e 8c 3c d5 7f 43 bf 59 6b 9b 3e
       -0.06470115 0.0171423 -0.7636693 0.30355337
0001c0 5c 48 7a 3e 5d 26 4e bd 12 7e 4d 3e 39 c5 8d be
       0.24441665 -0.050329555 0.20067623 -0.2768953
0001d0 be c4 6b 3e fc 62 bb be 1d e2 20 3f db b7 7f bf
       0.2302427 -0.36598957 0.6284502 -0.99889916
0001e0 35 04 24 be 95 ef 80 3e 2a a0 c5 bd cc 1f cc 3e
       -0.1601723 0.25182787 -0.096496895 0.3986801
0001f0 35 cb 05 3e e1 f0 16 3e a8 27 35 bf 1f 64 8b bf
       0.13065799 0.14740326 -0.70763636 -1.088993
000200 ee 21 80 3e 51 5d 90 be 5c 2e f8 be e0 74 20 be
       0.25025886 -0.28196195 -0.4847287 -0.15669584
000210 50 6e 11 3f c7 e7 05 bf 47 aa 01 3d 37 05 28 be
       0.5680895 -0.5230679 0.03165653 -0.1640824
000220 05 bb 89 be 79 04 18 3f 75 b6 34 bf f7 1b e9 3d
       -0.26900497 0.59381825 -0.7059091 0.11382287
000230 83 d0 06 bf ff 16 58 3f 02 1c 6e bf b8 ee 0e be
       -0.52661914 0.8441009 -0.93011487 -0.13958251
000240 25 05 d7 be 9d 37 9c 3e 83 8d c0 be b9 f7 be be
       -0.41996112 0.3051118 -0.37607965 -0.37298372
000250 9e eb e1 3c ed e0 4f bd 5d e3 69 3e 68 4c 10 bf
       0.027578171 -0.050751615 0.22840638 -0.56366587
000260 cb e7 ec 3c 6e a5 8b 3e d9 f9 d7 3e ba 3d cc bf
       0.028919121 0.2727465 0.42182806 -1.5956337
000270 9e 0a 21 bf 34 f7 2d 3f 8d 42 d7 be 9d 1f 54 bd
       -0.62906826 0.6795533 -0.42042962 -0.05178796
000280 bf 83 3c be f9 67 14 bf 5b ce bd 3f 99 2c f5 be
       -0.18409632 -0.5797115 1.48286 -0.47885588
000290 03 60 01 bf 72 af 59 3e a1 99 89 3e f5 2e ec 3e
       -0.5053713 0.21258333 0.26875022 0.46129575
0002a0 f2 a9 8d bb 68 c3 e9 3d 0c 16 11 3f 4a 25 08 bd
       -0.0043232376 0.11414224 0.56674266 -0.033238687
0002b0 60 c5 20 3e 88 25 29 be 54 6b 6b 3e a0 69 60 bd
       0.15700293 -0.16518223 0.22990161 -0.05478823
0002c0 21 42 34 3f 0a 4d 2c bf 18 ff 0c 3f a6 ba c1 bd
       0.70413405 -0.6730505 0.5507674 -0.094594285
0002d0 f3 85 3f bf 99 ae 54 3f 39 9a 20 bf 20 da 2b 3e
       -0.74813765 0.83078915 -0.62735325 0.16782427
0002e0 c5 df 22 bf 2a 1b b2 be fd 33 7e be ed 73 52 bf
       -0.63622695 -0.3478635 -0.2482452 -0.8220814
0002f0 d3 ec de 3d 80 a8 40 be b2 73 17 3e 1e eb 0f 3f
       0.108850144 -0.18814278 0.14790228 0.56218135
000300 dc 2e d3 be c8 87 c1 3e 0d 34 a7 3e e4 97 28 bf
       -0.41246688 0.37798905 0.326569 -0.65856767
000310 81 7d 0b 3f 71 cd 98 bf 09 ad 82 3e 22 8a af be
       0.5448838 -1.1937696 0.2552264 -0.34285074
000320 13 7f c6 3e c0 bc 3a be ee 5f 9f 3d 13 ff 92 bc
       0.38768825 -0.18236065 0.07781969 -0.017943894
000330 c3 b2 96 3e bb 3d 7d 3e 28 c4 cb 3d 59 ad 45 bc
       0.2943326 0.2473058 0.09949523 -0.012065255
000340 00 08 83 3f 52 71 4b 3f 28 79 99 3d 97 84 e8 3b
       1.0236816 0.7946979 0.07493812 0.007095884
000350 d7 98 9f 3e 53 91 7d 3e 93 76 91 be 6a 01 c1 bd
       0.31171295 0.24762468 -0.28410777 -0.09424098
000360 d3 b3 7a 3f b3 2a cd be 40 40 c6 3e de 61 85 bd
       0.9793064 -0.4007164 0.38720894 -0.06512807
000370 38 af 87 bf 27 cf 1a be d5 07 a0 3e 83 d5 8b 3f
       -1.0600348 -0.15118085 0.31255975 1.0924534
000380 d1 c5 0f bd 26 96 c7 3e db f7 86 3f ff a3 59 bf
       -0.03510076 0.38981742 1.054439 -0.85015863
000390 6b c9 0b 3f 66 83 cb bb 4e 3e 5d 3e 08 44 ab 3e
       0.54604214 -0.0062107323 0.21605799 0.3345034
0003a0 70 12 8b 3e 6e e0 ed 3c 8a e4 7d be ec ca 11 be
       0.27162504 0.02903768 -0.24794212 -0.14237565
0003b0 9d ba 59 be 18 00 ae 3e c7 f3 24 bf ce 86 49 3e
       -0.21262594 0.33984447 -0.64434475 0.1968033
0003c0 a5 52 8d 3e ba cc 5b be c9 ec c2 3c 52 81 d4 bd
       0.27602115 -0.21464816 0.023794549 -0.103762284
0003d0 2c 5f d0 bf 20 bb 08 bf 38 56 44 3e 41 67 d8 3d
       -1.6279044 -0.5341053 0.19173515 0.10566569
0003e0 93 ec 98 bf c7 12 22 be 88 89 8f bf e2 de 18 3f
       -1.1947197 -0.15827475 -1.1213846 0.5971509
0003f0 46 cf 8c 3e 8c 63 40 bf 39 39 52 3e ba e3 73 3d
       0.27501887 -0.75151896 0.20529641 0.05954335
