saved_models_2D/dataset_acc/no_freeze/folds/CVAE2D_4_5_100_200_fold_4.pth (torch, 243348 bytes, 37 tensors)

conv1.weight f4 [16, 1, 3, 3]
0	0x3ea5982b	0.32342657
1	0x3d6f66fe	0.05844783
2	0x3f066287	0.5249409
3	0x3e014c5d	0.12626787
4	0x3ba9a055	0.005176584
5	0xbf687791	-0.90807444
6	0x3ecc9eac	0.39964807
7	0x3f9c049b	1.2188905
8	0xbf378696	-0.71689737
9	0xbe94f279	-0.29091242
10	0xbf61778a	-0.8807303
11	0xb96cae3b	-0.0002257162
12	0x3fb4651d	1.4093357
13	0xbda57b7d	-0.08080194
14	0xbeebc45c	-0.46048248
15	0xbe321765	-0.17391737
16	0x3e9f9f7d	0.31176367
17	0x3d1e8f06	0.038710617
18	0xbef8b161	-0.4857283
19	0xbe832e8f	-0.2562146
20	0x3eba3516	0.36368626
21	0x3f1866b5	0.5953172
22	0xbf0784c4	-0.5293696
23	0x3f43f069	0.7653871
24	0xbec48b10	-0.38387346
25	0xbee14a58	-0.44002032
26	0xbec1a623	-0.37822065
27	0xbedd0595	-0.4316832
28	0xbe61e598	-0.2206024
29	0xbf2c998f	-0.6742181
30	0xbe07f5ba	-0.13277331
31	0x3f12a86b	0.57288235
32	0x3eaff937	0.34369823
33	0xbe9d68e0	-0.30744076
34	0x3eabbc5d	0.33542147
35	0xbecfc837	-0.4058244
36	0xbee2ff9c	-0.4433564
37	0xbf5640e7	-0.83692783
38	0xbe5e8c86	-0.21733293
39	0x3f289da0	0.65865517
40	0x3e5c12a6	0.21491489
41	0x3f814fcf	1.0102481
42	0x3e7b18dd	0.24521203
43	0x3eb11f11	0.34594014
44	0xbe0fe091	-0.14050509
45	0xbf17d2e5	-0.59306175
46	0xbdfdb0d7	-0.12387245
47	0x3f2df093	0.6794521
48	0x3edb2871	0.42804292
49	0xbe53e888	-0.20694172
50	0xbf280224	-0.65628266
51	0x3e03d5f3	0.12874584
52	0x3e0df2bd	0.13862129
53	0xbee2211d	-0.44165888
54	0x3eb47cdb	0.35251507
55	0xbea4bebc	-0.3217677
56	0x3ebc969f	0.36833665
57	0x3efe2900	0.49640656
58	0x3f1b5685	0.60678893
59	0xbdb04b7a	-0.08608146
60	0x3eac4dd3	0.33653125
61	0xbe9b79ea	-0.3036645
62	0xbe8ce440	-0.2751789
63	0x3ddf9035	0.10916177
64	0xbb7c09cb	-0.0038457986
65	0x3e14858e	0.14504072
66	0x3e80d0ba	0.25159246
67	0x3e87120f	0.26380965
68	0x3f24c494	0.64362454
69	0xbf15892d	-0.5841244
70	0x3f17daf7	0.5931849
71	0xbd99772d	-0.07493434
72	0xbde9345d	-0.11386941
73	0x3eacc989	0.3374751
74	0xbf3e8fe2	-0.744383
75	0x3ea83d1e	0.3285913
76	0xbf031544	-0.51204324
77	0x3e90e7d6	0.28301877
78	0x3e7cd28b	0.24689691
79	0x3ef38e05	0.4756929
80	0x3e2a9be8	0.16661036
81	0x3e82eb26	0.2557003
82	0xbeea0f51	-0.4571481
83	0xbdecd027	-0.115631394
84	0xbf11f3f8	-0.5701289
85	0xba644b17	-0.0008708699
86	0xbe979457	-0.29605362
87	0x3f0ad367	0.54228824
88	0xbf4059a7	-0.751368
89	0x3eb4f39e	0.35342115
90	0x3f83cccd	1.0296875
91	0xbddbf108	-0.107393324
92	0xbe25e2e8	-0.16199839
93	0x3d807057	0.06271427
94	0x3e854bb0	0.26034307
95	0xbd44c901	-0.048043255
96	0xbe047f4a	-0.12939182
97	0x3d98db9c	0.07463762
98	0x3dada8cb	0.0847946
99	0x3ee98aa1	0.45613578
100	0x3e5517b2	0.2080982
101	0x3ea31637	0.31852886
102	0x3dbae26f	0.0912522
103	0xbfb17a86	-1.3865516
104	0x3f1265b2	0.57186425
105	0xbf1539f2	-0.5829154
106	0xbf0f10e1	-0.5588513
107	0xbf18b44e	-0.59650123
108	0x3dc4ee4d	0.09615765
109	0x3f06009a	0.5234467
110	0xbef43e51	-0.47703794
111	0xbe66b6d6	-0.22530684
112	0xbd30e0cf	-0.043183144
113	0x3da26325	0.079290666
114	0x3f41aeaa	0.7565714
115	0x3fac1ed5	1.3446909
116	0xbe11b441	-0.14228918
117	0xbf0eba68	-0.55753183
118	0xbee814f7	-0.45328495
119	0xbb92bbd5	-0.0044779577
120	0xbeb0337b	-0.34414276
121	0x3e639cdb	0.22227804
122	0xbe907811	-0.28216603
123	0x3f05fd9f	0.5234012
124	0x3d08bf1d	0.033385385
125	0xbc8de4eb	-0.01732107
126	0xbee8348a	-0.45352584
127	0xbe504e82	-0.20342448
128	0xbedb6639	-0.42851427
129	0x3ddced75	0.10787479
130	0xba7ea88a	-0.00097144453
131	0x3eb9999a	0.3625
132	0xbf005d22	-0.5014211
133	0xbd9aac9c	-0.07552454
134	0x3f35d3b8	0.7102618
135	0xbe84af1d	-0.2591485
136	0xbe785392	-0.2425063
137	0xbe9403b7	-0.28909084
138	0xbda09c51	-0.07842315
139	0xbea4d690	-0.32194948
140	0x3b27199f	0.002549745
141	0xbd1eca0c	-0.038766906
142	0x3ef016ba	0.4689234
143	0xbef637af	-0.48089358

conv1.bias f4 [16]
0	0x381d31e8	3.7478196e-05
1	0xbbce3608	-0.006293062
2	0x3babe6f4	0.0052460376
3	0xbc49eb84	-0.012324218
4	0x3be72510	0.0070539787
5	0x3d2ac0fd	0.041687954
6	0xbce1a1a5	-0.027542898
7	0x3d902587	0.07038408
8	0x3d32af0c	0.04362397
9	0xbaa14d23	-0.0012306314
10	0x3b898114	0.0041962955
11	0x3d196840	0.037452936
12	0xbcfb4ac9	-0.030675309
13	0xbcb05345	-0.021524081
14	0x3c94bb13	0.01815561
15	0x3d373b0b	0.044734042

conv2.weight f4 [32, 16, 3, 3]
0	0x3e5be06a	0.21472326
1	0x3e23695c	0.1595816
2	0xbd11f8a8	-0.035637528
3	0xbcf0d8ac	-0.029400192
4	0xbe8a1d78	-0.26975608
5	0xbdb8544b	-0.090004526
6	0x3bd0c148	0.006370697
7	0x3dbae50f	0.09125721
8	0xbdb1d273	-0.08682718
9	0xbe8bf706	-0.273369
10	0x3ea1d761	0.31609634
11	0xbb0cf145	-0.0021506113
12	0xbb9bd9a2	-0.0047561685
13	0xbde75496	-0.1129543
14	0xbe737d47	-0.23778258
15	0xbde74c75	-0.1129388
16	0xbebc7403	-0.3680726
17	0xbd60dea5	-0.05489983
18	0x3e2d4998	0.16922605
19	0x3d3c1cc2	0.045925863
20	0xbd4df9bb	-0.05028699
21	0xbd0acadd	-0.03388487
22	0x3deb655f	0.114939444
23	0x3d8a702a	0.06759675
24	0x3e7759b0	0.24155307
25	0xbd84d149	-0.064852305
26	0x3e009890	0.12558198
27	0xbe03bf16	-0.12865862
28	0xbcca5e85	-0.024703274
29	0xbd86f87c	-0.065903634
30	0xbd4ff438	-0.050770015
31	0x3e408249	0.187997
32	0x3e24879a	0.16067353
33	0xbced6a6b	-0.028981408
34	0xbd496c67	-0.049175646
35	0xbc93ebd7	-0.018056793
36	0x3e2e0e54	0.16997653
37	0xbd754fae	-0.05989044
38	0xbd681fdd	-0.056671012
39	0xbe1e17e0	-0.15438795
40	0x3d12c5af	0.035833057
41	0x3b6cb164	0.0036116475
42	0x3cef786b	0.029232224
43	0xbcebfba2	-0.028806511
44	0xbd721cc7	-0.059109475
45	0xbd50a651	-0.05093986
46	0x3d9dc950	0.07704413
47	0xbe2befdb	-0.16790716
48	0x3da340ae	0.07971321
49	0x3de7c496	0.11316793
50	0xbe0309b4	-0.1279667
51	0x3c9aebd1	0.018911274
52	0xbe251602	-0.16121677
53	0x3da73cf9	0.081659265
54	0x3d125ab3	0.03573103
55	0xbd6798a2	-0.056542046
56	0x3ddcf5e8	0.107890904
57	0xbd65a8b3	-0.056069087
58	0xbe42672d	-0.18984671
59	0xbc0ca452	-0.008584099
60	0xbbbac505	-0.005699756
61	0x3dfb40e7	0.122682385
62	0xbcd7d48a	-0.026346464
63	0x3d029b99	0.03188667
64	0x3d37da3e	0.044885866
65	0xbdfeb221	-0.12436319
66	0xbb00f9de	-0.0019680182
67	0xbd8f7ee5	-0.07006625
68	0xbdbd45b0	-0.092418075
69	0x3dfd925f	0.12381434
70	0xbdaabc0a	-0.08336647
71	0xbd9ca7dd	-0.07649205
72	0x3e170541	0.14748098
73	0x3cfbe550	0.030748993
74	0x3c4315b4	0.01190703
75	0xbde856b9	-0.11344666
76	0xbd44bf8a	-0.04803423
77	0x3da502b2	0.08057155
78	0x3d3babc1	0.045818094
79	0xbe10e9a9	-0.14151634
80	0x3d95b4d0	0.07309878
81	0x3dd13fbb	0.10217234
82	0x3dfba489	0.12287242
83	0x3dba4d6c	0.09096798
84	0x3c853576	0.016260844
85	0xbd299bbe	-0.041408293
86	0xbdfdba7f	-0.12389087
87	0xbc5c0084	-0.013427857
88	0xbdfe2f38	-0.1241135
89	0x3e352a4d	0.17691918
90	0xbde10fe1	-0.10989357
91	0xbeb3ebfd	-0.35140982
92	0x3c50c753	0.012742835
93	0x3e516870	0.20449996
94	0x3df3e4ad	0.11908851
95	0xbd5c1ae8	-0.053736597
96	0x3ad3efa0	0.0016169436
97	0x3dd94fa8	0.10610896
98	0xbe20601a	-0.1566166
99	0x3d0f00b5	0.034912784
100	0xbb4d103d	-0.0031290196
101	0x3d29e0fe	0.041474335
102	0xbd83f5a7	-0.06443339
103	0x3e063481	0.13105966
104	0x3dd9ba7d	0.10631273
105	0x3d4aaed4	0.049483135
106	0x3d6a1b22	0.057154782
107	0x3e5e71c0	0.2172308
108	0xbd46907e	-0.048477642
109	0xbe83af63	-0.25719747
110	0xbd7423af	-0.059604343
111	0xbd3726b7	-0.044714656
112	0x3d042348	0.03226021
113	0x3d7ecbd4	0.062206104
114	0xbda7b1cb	-0.08188208
115	0x3df965bc	0.121776074
116	0xbdd0139a	-0.10159989
117	0x3e5ef52e	0.21773216
118	0xbd65f680	-0.056143284
119	0x3e9a6ecd	0.3016266
120	0x3e422ec0	0.18963146
121	0x3e0cf500	0.13765335
122	0x3dd446ce	0.103650674
123	0x3e02b78d	0.12765332
124	0xbda1f879	-0.079087205
125	0x3d6629a6	0.056192063
126	0x3d72bde3	0.05926312
127	0x3d93ca9d	0.0721638
128	0x3ca8aa30	0.020588964
129	0x3dcb1d56	0.09917705
130	0x3e4179cf	0.18894123
131	0xbe0a6448	-0.13514817
132	0x3d8e724b	0.069553934
133	0x3dd9be59	0.10632009
134	0xbdbba682	-0.09162618
135	0x3d9e84de	0.07740186
136	0x3d0871a8	0.033311516
137	0x3dc18954	0.094500214
138	0x3ca790b6	0.020454746
139	0x3dc5d145	0.096590556
140	0xbc265999	-0.010153198
141	0x3e464623	0.19362693
142	0x3e37c188	0.1794492
143	0x3e13eb99	0.14445342
144	0x3d70e2d0	0.058810055
145	0x3d571b8d	0.05251651
146	0xbd30246c	-0.043003485
147	0x3e297cf1	0.16551568
148	0x3dfd85c0	0.123790264
149	0xbd875579	-0.066080995
150	0x3cefc450	0.029268414
151	0x3c77cae6	0.015124058
152	0xbd47c3b4	-0.04877062
153	0xbc7374c0	-0.014859378
154	0x3e38e207	0.18054973
155	0x3df287e6	0.11842327
156	0xbdc40af5	-0.095724024
157	0x3dd5650f	0.10419666
158	0x3defcd07	0.11709028
159	0xbe3a29f7	-0.18180071
160	0xbda8207d	-0.08209322
161	0xbd97b0c1	-0.0740676
162	0xbd938b26	-0.07204275
163	0xbe0d5001	-0.1380005
164	0x3dae31b2	0.085055724
165	0xbd73ba0b	-0.059503596
166	0xbd2a0412	-0.041507788
167	0x3e019ef3	0.1265829
168	0x3e2285d3	0.15871362
169	0x3c2d6484	0.010583047
170	0x3de96b03	0.11397364
171	0xbcfbec35	-0.03075228
172	0xbe2c8fd9	-0.16851749
173	0x398482d7	0.00025274485
174	0xbe02f50d	-0.12788792
175	0x3df81aa0	0.12114453
176	0xbe46261c	-0.19350475
177	0x3b684c8f	0.0035446023
178	0xbd0ab00f	-0.03385931
179	0xbdc7c2c2	-0.09753944
180	0xbdc11839	-0.09428448
181	0x3da37835	0.07981912
182	0xbce6ce66	-0.02817459
183	0xbdc9efd6	-0.09860198
184	0xbd5537f4	-0.052055314
185	0x3d5d3389	0.054004226
186	0x3cfe9abd	0.031079644
187	0xbc467bc2	-0.012114467
188	0x3e642ad1	0.22281958
189	0xbd3835f2	-0.04497332
190	0x3e09163b	0.13387387
191	0xbe4cb680	-0.19991493
192	0xbe139531	-0.14412381
193	0x3ce58414	0.028017081
194	0x3d69b015	0.05705269
195	0xbd937fed	-0.07202134
196	0x3d5cfd98	0.053952783
197	0xbba2eeed	-0.00497233
198	0x3db60cce	0.08889161
199	0x3e726e90	0.23674989
200	0xbd16430e	-0.036685042
201	0x3d7d5d15	0.061856348
202	0x3e0932df	0.13398312
203	0xbdc63701	-0.0967846
204	0x3bcb745b	0.006208939
205	0x3c8d7e28	0.01727207
206	0x3e02437b	0.12721054
207	0x3e1356f5	0.1438864
208	0x3c027e55	0.00796469
209	0x3bee940c	0.007280832
210	0x3c9456bd	0.018107766
211	0x3e2754c0	0.16340923
212	0xbd75a992	-0.059976168
213	0xbd716424	-0.058933392
214	0xbd3e2b46	-0.046427988
215	0x3e120a9f	0.14261864
216	0xbda3a92a	-0.0799125
217	0x3e853ae2	0.26021487
218	0xbd89ba91	-0.06725038
219	0x3e1864d5	0.14882214
220	0x3e236022	0.1595464
221	0x3c517b68	0.01278577
222	0x3d9ac8c8	0.07557827
223	0xbdb5ffb5	-0.08886663
224	0x3de13d9e	0.10998081
225	0x3e5be69b	0.21474688
226	0xbe44c34f	-0.1921513
227	0x3d7fd683	0.062460434
228	0xbcda00cd	-0.02661171
229	0x3e3f4755	0.18679555
230	0x3e6e9b4e	0.23301432
231	0x3e5d218a	0.21594825
232	0xbe1ba27f	-0.15198706
233	0x3d010af3	0.031504583
234	0xbe18b63e	-0.1491327
235	0x3d9f9722	0.07792498
236	0x3c856524	0.01628358
237	0x3dd88c71	0.10573662
238	0x3df25067	0.11831742
239	0x3d9e3282	0.07724477
240	0x3bfc791f	0.0077048684
241	0x3cadeba9	0.021230536
242	0xbd4eafa3	-0.05046047
243	0xbb13cb63	-0.0022551648
244	0xbc7fdbc9	-0.015616366
245	0x3d81ceb3	0.06338253
246	0xbe96ad2c	-0.29428995
247	0xbdf395e6	-0.11893825
248	0x3d766c79	0.06016204
249	0x3e43746e	0.19087383
250	0x3c1e7e65	0.0096736895
251	0xbb7e92a5	-0.0038844731
252	0x3d0001ef	0.031251844
253	0xbe6173bb	-0.22016804
254	0x3d8a22e0	0.06744933
255	0xbd9351fe	-0.07193373

conv2.bias f4 [32]
0	0xbd3c9775	-0.04604288
1	0x3c86976f	0.016429631
2	0xbbbc9efb	-0.0057562566
3	0x3d7abdd9	0.06121621
4	0xbd8b0e89	-0.06789882
5	0x3c478cd6	0.012179574
6	0xbc346c16	-0.011012098
7	0xbcecb277	-0.028893692
8	0xbbf96185	-0.007610502
9	0x3b3149f1	0.002705213
10	0xbc8d9a8f	-0.017285613
11	0x3cf6fc1a	0.030149508
12	0x3c80fae0	0.015744627
13	0x3c85e9fe	0.016346928
14	0xbc533692	-0.012891429
15	0x3d4924da	0.04910741
16	0x3c531785	0.012884025
17	0xbba17d21	-0.0049282466
18	0x3ca0401e	0.019561823
19	0x3b8a3a7d	0.004218398
20	0x3d06b314	0.032885626
21	0x3c056119	0.008140826
22	0xbc23ff6a	-0.010009626
23	0xbd0f65f4	-0.03500934
24	0xbd3a02c8	-0.04541281
25	0xbd5e264f	-0.054235753
26	0xbd8d1ea9	-0.068906136
27	0xbb0374ae	-0.002005856
28	0x3a90d7ae	0.0011050606
29	0xbd1a3759	-0.03765044
30	0xbc8d25fb	-0.017230025
31	0x3d754a14	0.0598851

conv3.weight f4 [32, 32, 3, 3]
0	0xbdda102f	-0.10647618
1	0x3c9c2729	0.019061642
2	0x3d9d2ac1	0.0767417
3	0x3b8b19c0	0.004245013
4	0x3c6589fc	0.014009949
5	0x3b81c30d	0.0039600194
6	0xbcdf3708	-0.02724792
7	0xbdb24369	-0.08704264
8	0x3d11b2a1	0.035570744
9	0x3cfc1e93	0.030776298
10	0x3d56d681	0.05245066
11	0xbd5867de	-0.05283343
12	0xbb946f69	-0.0045298827
13	0xbcc4a5c1	-0.024004819
14	0x3e37ce09	0.1794969
15	0x3cbf495f	0.023350416
16	0x3b02a9d7	0.0019937658
17	0x3e1727ff	0.14761351
18	0x3d2244ed	0.039616514
19	0xbd25c2e7	-0.040469076
20	0xbdf15060	-0.117829084
21	0xbd2298f2	-0.03969664
22	0xbd97062a	-0.073742226
23	0xbda2485b	-0.07923957
24	0x3cf1674c	0.029468201
25	0xbdc7615b	-0.09735366
26	0x3d24b0d1	0.040207688
27	0xbb982daf	-0.004644118
28	0x3d82ae27	0.06380873
29	0x3dfe0459	0.12403173
30	0xbd262b1f	-0.040568467
31	0x3d25d97b	0.04049061
32	0x3da09557	0.07840984
33	0x3ddde439	0.10834546
34	0xbde8f60a	-0.11375053
35	0x3d10d421	0.035358552
36	0x3e12ab59	0.14323176
37	0xbdf7626c	-0.12079319
38	0x3db190c9	0.08670194
39	0x3d9b494f	0.07582342
40	0xbc8e27e9	-0.017353015
41	0xbb1fff76	-0.0024413741
42	0xbb2cda39	-0.0026375188
43	0xbd807dbe	-0.062739834
44	0x3c351100	0.011051416
45	0xbde47c32	-0.11156501
46	0x3d5aab33	0.053385925
47	0x3d90217e	0.07037638
48	0x3da1b948	0.07896668
49	0x3b657e5a	0.0035017938
50	0x3cd355e7	0.025797797
51	0x3e173a04	0.14768225
52	0xbc7436ab	-0.014905612
53	0xbda48ff4	-0.080352694
54	0x3d00ce5c	0.0314468
55	0xbc5b09de	-0.013369052
56	0x3d087580	0.03331518
57	0x3de2af58	0.110686004
58	0x3d2296bb	0.03969453
59	0xbb5c7667	-0.003363991
60	0xbd693c97	-0.05694255
61	0xbd3ce0b9	-0.04611275
62	0xbd1cb287	-0.038256194
63	0xbd8a7b23	-0.06761768
64	0x3e10831b	0.14112513
65	0x3d2bb313	0.041918825
66	0xbce91945	-0.028454432
67	0x3ded917e	0.11600016
68	0xbb3bc6bd	-0.0028652393
69	0x3df61d52	0.12017311
70	0xbd5cfc5d	-0.05395161
71	0xbb89f37f	-0.004209935
72	0x3e0b05b0	0.13576388
73	0x3de4643f	0.11151933
74	0x3e53ba79	0.20676602
75	0xbdc260b3	-0.094911
76	0x3d2c4d73	0.04206605
77	0x3dde52a2	0.10855605
78	0x3d9a194f	0.075243585
79	0x3d2bafca	0.041915692
80	0x3e18b234	0.14911729
81	0x3e0e02de	0.13868281
82	0x3d0852b2	0.03328199
83	0xbc4f001f	-0.012634306
84	0x3d024b87	0.03181031
85	0x3c53a904	0.012918714
86	0x3d9874cd	0.07444153
87	0xbd721620	-0.05910313
88	0xbd1a5bb6	-0.03768512
89	0xbd960cc3	-0.07326653
90	0xbd3ecf1f	-0.046584245
91	0x3e36dbbe	0.17857262
92	0x3da7030f	0.0815488
93	0x3c8c79cb	0.01714792
94	0xbcd13310	-0.025537044
95	0x3d7bb10b	0.06144814
96	0xbcbb7099	-0.02288084
97	0x3c442a0e	0.011972917
98	0x3d7e0dde	0.062024944
99	0xbab51606	-0.0013815768
100	0xbcaffe9b	-0.02148371
101	0xbdc64887	-0.09681802
102	0xbd80d050	-0.062897325
103	0x3e39c729	0.1814238
104	0xbd4d476f	-0.050116953
105	0xbe2dec46	-0.16984662
106	0x3cf7f34a	0.030267376
107	0xbc35ea89	-0.011103281
108	0xbda3c458	-0.07996434
109	0x3d20e9ba	0.0392854
110	0xbdb05bc9	-0.08611257
111	0x3d2988ef	0.041390356
112	0xbcacb98b	-0.021084568
113	0x3e054c8a	0.13017479
114	0xbcc80b31	-0.024419399
115	0xbd9fb074	-0.07797328
116	0xbce75517	-0.028238816
117	0xbdc443c5	-0.095832385
118	0xbd2c0fed	-0.042007376
119	0xbb638a8a	-0.0034720027
120	0x3c360385	0.011109238
121	0xbdb74893	-0.08949389
122	0x3d7a4f8c	0.061111018
123	0x3de46f31	0.111540206
124	0xbd04814c	-0.03234987
125	0xbe1b8fd3	-0.15191583
126	0x3c331a4a	0.010931561
127	0xbb9476d6	-0.004530768
128	0x3d898956	0.06715648
129	0xbd5e748b	-0.054310363
130	0x3d0e983c	0.03481315
131	0xbdfebd7e	-0.124384865
132	0xbbda30d4	-0.006658653
133	0x3d278841	0.040901426
134	0x3d83f1aa	0.06442578
135	0x3d8c660d	0.06855402
136	0x3d5f963b	0.05458663
137	0x3d369733	0.04457779
138	0xbcd4ed63	-0.025992101
139	0x3aef6d68	0.0018266859
140	0xbd40c6b3	-0.047064494
141	0xbe0e2a14	-0.13883239
142	0xbd27753e	-0.040883295
143	0xbca5d763	-0.020244306
144	0xbe231191	-0.1592467
145	0xbdc76160	-0.0973537
146	0x3c50af90	0.01273717
147	0xbd356a89	-0.044291053
148	0x3df769ac	0.12080702
149	0xbd848f2a	-0.06472619
150	0xbd3a4813	-0.04547889
151	0x3d391dfe	0.04519462
152	0x3d920ea2	0.07131697
153	0x3dc15004	0.0943909
154	0x3da41af2	0.08012952
155	0xbdd370e1	-0.10324264
156	0x3a85a195	0.001019525
157	0xbd985649	-0.074383326
158	0x3c988028	0.018615797
159	0x3c5b63ba	0.013390476
160	0x3d966c1d	0.0734484
161	0xbd9893de	-0.074500784
162	0xbcc256d6	-0.023723047
163	0x3e29774b	0.16549413
164	0x3c1922a7	0.009346641
165	0xbd73d5d8	-0.05953011
166	0x3d8f3b35	0.06993715
167	0xbe0e1d38	-0.13878334
168	0x3d8a99a3	0.06767585
169	0xbdc4db9b	-0.09612199
170	0xbc49367c	-0.0122810565
171	0xbce7d309	-0.028298872
172	0x3c863c8b	0.016386291
173	0xba84a5bb	-0.0010120192
174	0x3cef104d	0.029182578
175	0xbcb076db	-0.02154105
176	0x3db15eea	0.086606815
177	0xbdbd0aa2	-0.09230544
178	0x3dade526	0.08490972
179	0xbca06f9c	-0.01958447
180	0xbdeca60a	-0.11555107
181	0xbe0c9a21	-0.1373067
182	0x3daf08e0	0.08546615
183	0xbdd962e5	-0.10614566
184	0xbdcb9b6b	-0.09941753
185	0x3d3e3ffb	0.046447735
186	0xbe1215de	-0.14266154
187	0x3d9afa6d	0.07567296
188	0xbdd35f5d	-0.103209235
189	0x3cf43fc7	0.029815568
190	0x3e298e91	0.16558291
191	0xbcafb66a	-0.021449286
192	0x3df49018	0.11941546
193	0x3ca83f23	0.020537918
194	0xbd9bf3c7	-0.07614856
195	0x3dcadfb1	0.09905947
196	0xbdccccab	-0.09999975
197	0xbd34f703	-0.04418088
198	0x3c148ab8	0.009066276
199	0xbb491118	-0.0030680355
200	0xbe055ccb	-0.13023679
201	0x3d8777e8	0.06614667
202	0xbdc6608a	-0.09686382
203	0xbb8d9be3	-0.0043215617
204	0x3be85328	0.007089991
205	0x3db3b4d3	0.08774724
206	0xbdad503e	-0.084625706
207	0x3c74ac43	0.0149336485
208	0x3d8067d0	0.06269801
209	0xbe1586a9	-0.1460215
210	0x3d389652	0.04506523
211	0x3d848bec	0.064720005
212	0xbd247335	-0.040148932
213	0x3d628ba4	0.055308953
214	0xbd9d6d6c	-0.07686886
215	0x3cd5a544	0.026079781
216	0x3daa03c4	0.083014995
217	0x3ae3ae10	0.00173706
218	0x3e0d1b57	0.1377996
219	0xbd19f466	-0.037586592
220	0x3d643bdd	0.055721153
221	0xbd9b9f15	-0.07598702
222	0xbe166f58	-0.14690912
223	0xbc8760a6	-0.016525578
224	0xbceb67c3	-0.028736
225	0xbd9f5d5f	-0.07781481
226	0x3d2a70ba	0.04161141
227	0x3e2e0a78	0.16996181
228	0x3dbd5f74	0.09246722
229	0xbcf9f07d	-0.030510182
230	0xbd13723e	-0.03599762
231	0x3b2400f4	0.0025024982
232	0xbbbb65bd	-0.0057189153
233	0xbde0e5ce	-0.10981332
234	0xbc045a06	-0.008078104
235	0xbd318235	-0.043337066
236	0xbe21fcbc	-0.15819067
237	0x3db86afd	0.090047814
238	0xbc38e84f	-0.011285855
239	0xbdd07e86	-0.101803824
240	0xbd8e9659	-0.0696227
241	0x3d00065f	0.031256076
242	0x3dcdafb2	0.10043277
243	0x3d0b0476	0.0339398
244	0x3c2c55f2	0.010518538
245	0x3d2dad35	0.04240151
246	0x3cd64f27	0.02616079
247	0x3d04c537	0.03241464
248	0xbe0547eb	-0.13015716
249	0xbd5722b3	-0.052523326
250	0x3dfb50af	0.122712485
251	0x3d4da392	0.05020482
252	0x3ddb3a13	0.10704436
253	0xbe01439d	-0.12623449
254	0xbd734ef7	-0.05940148
255	0xbe02230b	-0.1270868

conv3.bias f4 [32]
0	0x3cbe2cab	0.023214659
1	0xbc8c9f30	-0.01716575
2	0x3d5428e1	0.051796798
3	0xbd73ffdf	-0.05957019
4	0xbd00b29c	-0.031420335
5	0xbd07b2ca	-0.03312949
6	0x3b76a0a6	0.0037632375
7	0xbd2235ed	-0.03960221
8	0x3d7a55cb	0.061116975
9	0x3d13c7c0	0.03607917
10	0xbb058c77	-0.0020377913
11	0xbc9b7db1	-0.018980833
12	0xbcf30f42	-0.029670361
13	0x3d1f689b	0.03891812
14	0xbcada321	-0.02119595
15	0x3bf24dab	0.0073945126
16	0xbc7d36c8	-0.015454955
17	0xbca156ec	-0.019694768
18	0xbc36f5cf	-0.011167004
19	0xbb703321	-0.003665157
20	0xb9bb01cd	-0.0003566876
21	0xbc956a3d	-0.018239135
22	0x3d0a5945	0.03377654
23	0x3d2e03be	0.042484038
24	0x3d14b996	0.0363098
25	0x3d005bd9	0.031337593
26	0x3d0c68e3	0.034279715
27	0xbd485c1d	-0.04891597
28	0x3d9d0fdb	0.0766904
29	0xbcf78ae1	-0.03021759
30	0x3c57cd57	0.013171515
31	0xbced3249	-0.028954642

bn1.weight f4 [16]
0	0x3f7eb1a0	0.99489784
1	0x3f789081	0.97095495
2	0x3f816565	1.0109068
3	0x3f7dc4ff	0.9912872
4	0x3f770f5b	0.96507806
5	0x3f75427a	0.9580456
6	0x3f84ca05	1.0374151
7	0x3f7dc490	0.99128056
8	0x3f83122c	1.0239921
9	0x3f80a326	1.0049789
10	0x3f82a970	1.0207958
11	0x3f7048bd	0.9386099
12	0x3f840d8b	1.0316633
13	0x3f7e24fc	0.99275184
14	0x3f7da4f6	0.99079835
15	0x3f81df31	1.0146238

bn1.bias f4 [16]
0	0xbb69bc88	-0.0035665352
1	0x3c06c241	0.008225025
2	0x3cd3bbbb	0.025846353
3	0x3c061750	0.008184269
4	0x3b3cdcf7	0.0028818229
5	0xbc5cf369	-0.013485768
6	0x3d25b25f	0.04045331
7	0x3c7ebbed	0.015547735
8	0x3cf61280	0.030038118
9	0x3ba56c17	0.0050482857
10	0x3ceda425	0.029008934
11	0xbc58cd85	-0.013232593
12	0x3d82b0fd	0.06381414
13	0xbb5f2a7d	-0.0034052425
14	0x3ad920f4	0.0016565607
15	0x3cc66b22	0.024221007

bn1.running_mean f4 [16]
0	0x3e2ae4dd	0.16688867
1	0xbcdedf9c	-0.027206235
2	0xbdee285a	-0.1162879
3	0xbe259000	-0.16168213
4	0x3e0fa86b	0.1402909
5	0xbd79ee58	-0.061018318
6	0x3e229e0d	0.15880604
7	0x3e93a929	0.28839996
8	0x3df3d427	0.11905699
9	0xbe2ce8d0	-0.16885686
10	0x3e34ce89	0.17656912
11	0xbe4ff135	-0.20306857
12	0x3e8ec4b7	0.27884457
13	0xbe2670eb	-0.16254012
14	0xbd73a910	-0.059487402
15	0xbe1f82c6	-0.1557723

bn1.running_var f4 [16]
0	0x3e236ec4	0.15960222
1	0x3d3c663c	0.045995936
2	0x3da8465c	0.08216545
3	0x3db59b1f	0.088674776
4	0x3dff30d4	0.12460485
5	0x3d5c852b	0.053837936
6	0x3e2bc166	0.16772994
7	0x3e5eb012	0.21746853
8	0x3d3feed7	0.046858635
9	0x3e0860bf	0.13318156
10	0x3e0d36af	0.13790391
11	0x3ea632ee	0.3246073
12	0x3ee29b77	0.44259235
13	0x3dd72f11	0.10507024
14	0x3d7a4f73	0.061110925
15	0x3e2b7b6b	0.16746299

bn2.weight f4 [32]
0	0x3f7f8d0a	0.99824584
1	0x3f827e42	1.0194781
2	0x3f7aac7b	0.97919434
3	0x3f83d009	1.0297862
4	0x3f7f28b8	0.99671507
5	0x3f7c17ed	0.9847401
6	0x3f76c715	0.96397525
7	0x3f844c82	1.0335848
8	0x3f80fed9	1.0077773
9	0x3f761e9c	0.96140456
10	0x3f807322	1.0035136
11	0x3f81567e	1.010452
12	0x3f782e17	0.9694533
13	0x3f7d7e14	0.99020505
14	0x3f804ad6	1.0022838
15	0x3f82015d	1.0156666
16	0x3f823b7c	1.0174403
17	0x3f809234	1.0044618
18	0x3f799afd	0.9750212
19	0x3f8330a2	1.0249217
20	0x3f761761	0.96129423
21	0x3f74d5b9	0.95638615
22	0x3f7f3d4e	0.9970292
23	0x3f845cbc	1.03408
24	0x3f7ff263	0.9997923
25	0x3f7dedfe	0.9919127
26	0x3f7c8cc2	0.9865228
27	0x3f87cda6	1.0609634
28	0x3f7c6b55	0.98601276
29	0x3f7bea16	0.9840406
30	0x3f72f704	0.94908166
31	0x3f7d8861	0.9903622

bn2.bias f4 [32]
0	0x3c049d8b	0.008094202
1	0x3d6af9ac	0.057367012
2	0xbb261e74	-0.0025347741
3	0x3ca69cdc	0.020338468
4	0x3c86acf4	0.016439892
5	0xbc1e378f	-0.009656801
6	0x3bb7f33f	0.005613714
7	0x3d636763	0.05551852
8	0x3caef9e6	0.021359395
9	0x3b09fe8a	0.0021056258
10	0xbb0db25e	-0.0021621208
11	0x36c78812	5.946503e-06
12	0xbc863797	-0.01638393
13	0x3c7e6343	0.0155265955
14	0x3c54b22f	0.012981935
15	0x3cac8de0	0.021063745
16	0x3c4b95da	0.012425864
17	0x3cbd0c3f	0.023077128
18	0xbcc78ad8	-0.024358198
19	0x3d4731ac	0.048631355
20	0xbc393625	-0.011304413
21	0xbc1b148c	-0.009465348
22	0x3bbf1e08	0.0058324374
23	0x3c82a838	0.015949354
24	0x3be4b0a8	0.006979067
25	0x3c2a7a2b	0.010405104
26	0x3ba7bdd9	0.005119067
27	0x3d30aebe	0.043135397
28	0xbbe87078	-0.0070934854
29	0xbc9d40ed	-0.019195998
30	0xbc2001ac	-0.009766024
31	0xbca5e3eb	-0.020250281

bn2.running_mean f4 [32]
0	0x3f1aad8b	0.60421056
1	0x3f94b965	1.1619078
2	0x3e956c06	0.29183978
3	0x3ef9644b	0.4870933
4	0x3f69c5d9	0.91317517
5	0x3e110cde	0.14165065
6	0x3edef8b4	0.4354912
7	0xbd6b4f87	-0.05744889
8	0x3f130ccf	0.5744142
9	0xbeda844e	-0.42679065
10	0x3ee52a23	0.4475871
11	0x3f48bef9	0.784164
12	0xbf1f8164	-0.6230681
13	0x3e924acd	0.28572693
14	0x3e8dadd6	0.2767169
15	0x3f77d65c	0.9681146
16	0x3ec58a68	0.38582158
17	0xbe90e44b	-0.28299174
18	0xbe92271c	-0.28545463
19	0xbe06d5d2	-0.13167503
20	0xbe2ecb0f	-0.17069648
21	0xbe39cc68	-0.18144381
22	0x3f318d02	0.69355786
23	0x3ed20f93	0.41027507
24	0xbf14e323	-0.58159083
25	0x3dd00589	0.10157306
26	0xbef6bd41	-0.48191264
27	0x3eb74336	0.35793465
28	0xbf8ff1fa	-1.124572
29	0x3f089e2d	0.5336636
30	0xbe8be628	-0.27324033
31	0x3ed692ff	0.41909024

bn2.running_var f4 [32]
0	0x3fad30bd	1.3530499
1	0x3f9d72de	1.230068
2	0x3fa2562c	1.2682548
3	0x400773d0	2.1164436
4	0x403c9752	2.9467359
5	0x3fcb3456	1.5875347
6	0x3fbfccd9	1.498439
7	0x3fb18bc1	1.3870775
8	0x3fe1594c	1.7605376
9	0x3f117127	0.5681328
10	0x40468f03	3.1024787
11	0x3fa12fb0	1.2592678
12	0x404f63fd	3.2404778
13	0x3f70f08d	0.9411705
14	0x3fbf9792	1.496813
15	0x3fb75f59	1.4325973
16	0x3f6755bb	0.9036519
17	0x40041271	2.0636256
18	0x3f3156a2	0.69272816
19	0x3f576411	0.84137064
20	0x3f463c11	0.77435404
21	0x3f23093a	0.63685954
22	0x3f8988ba	1.0744851
23	0x3fc387c7	1.5275811
24	0x3ff78d92	1.9340079
25	0x3f8ac48d	1.0841233
26	0x400c5077	2.1924112
27	0x3ffa0034	1.9531312
28	0x3fd10648	1.6330042
29	0x3f901c35	1.1258608
30	0x3f5a64ea	0.8531023
31	0x3f4ed8e2	0.80799687

bn3.weight f4 [32]
0	0x3f59b5d2	0.8504306
1	0x3f6a1345	0.9143565
2	0x3f6aca91	0.9171534
3	0x3f767976	0.96279085
4	0x3f78ea6f	0.9723272
5	0x3f729aa1	0.94767195
6	0x3f70c23f	0.94046396
7	0x3f701f65	0.93797904
8	0x3f70d8a0	0.94080544
9	0x3f58a109	0.8462072
10	0x3f6d2b46	0.92644155
11	0x3f745072	0.9543525
12	0x3f70dc21	0.9408589
13	0x3f4a5989	0.7904287
14	0x3f707171	0.939231
15	0x3f624b77	0.883964
16	0x3f675a4f	0.90372175
17	0x3f710b57	0.9415793
18	0x3f515968	0.8177705
19	0x3f57dc13	0.8432018
20	0x3f78fa03	0.9725649
21	0x3f6d53b8	0.9270587
22	0x3f6d5a46	0.9271587
23	0x3f716d20	0.94307137
24	0x3f64ca7d	0.8937147
25	0x3f535fa2	0.825678
26	0x3f6d8bba	0.9279133
27	0x3f6ef7aa	0.93346655
28	0x3f56547d	0.8372267
29	0x3f7028c3	0.938122
30	0x3f6f7fdd	0.9355448
31	0x3f75e8bf	0.9605827

bn3.bias f4 [32]
0	0xbe07bac9	-0.13254847
1	0xbdc53d4b	-0.09630831
2	0xbda945d3	-0.08265271
3	0xbd017627	-0.03160682
4	0xbcdb84fa	-0.026796807
5	0xbd242402	-0.040073402
6	0xbd8ef58a	-0.069804266
7	0xbd4907d5	-0.049079735
8	0xbd5c3521	-0.053761605
9	0xbda0a4ba	-0.07843919
10	0xbd1b3149	-0.0378888
11	0xbd3d8452	-0.04626877
12	0xbd4151f7	-0.04719731
13	0xbd684158	-0.05670294
14	0xbd38e746	-0.045142435
15	0xbd87e6e0	-0.06635833
16	0xbd6c34e7	-0.05766764
17	0xbcd9ca1c	-0.026585631
18	0xbda1e058	-0.07904118
19	0xbde1c531	-0.110239394
20	0xbcb98775	-0.022647599
21	0xbd6f89cc	-0.058481023
22	0xbdcb158c	-0.09916219
23	0xbd4ed190	-0.050492823
24	0xbd0ba6c4	-0.034094587
25	0xbd21022f	-0.039308723
26	0xbdc3a3b3	-0.095527075
27	0xbd702557	-0.05862936
28	0xbdc7d444	-0.09757283
29	0xbd66dc7d	-0.056362618
30	0xbda08a0b	-0.078388296
31	0xbd140792	-0.036140032

bn3.running_mean f4 [32]
0	0x3ec5f61a	0.38664323
1	0xbf012ba6	-0.5045723
2	0xbf8c547e	-1.0963285
3	0x3fccc74d	1.5998322
4	0x3f7b4649	0.9815412
5	0x3f0af034	0.5427277
6	0xbfc3160f	-1.5241107
7	0xbfb1a9be	-1.3879926
8	0x3f800b29	1.0003406
9	0x3fb7814e	1.4336336
10	0xbfaa60d2	-1.3310797
11	0x3f966018	1.1748075
12	0xbfa3afee	-1.2788064
13	0x3b0df4b9	0.0021660759
14	0xbeb43891	-0.35199407
15	0xbe8cddad	-0.27512875
16	0x3d4050f5	0.046952207
17	0xbf84e69e	-1.0382879
18	0xbf29cc2d	-0.6632717
19	0xbef0771f	-0.46965882
20	0xbe328107	-0.17432033
21	0xbe21971a	-0.15780297
22	0x3fd40402	1.6563723
23	0xbed24c63	-0.41073903
24	0x3f1f851f	0.623125
25	0x3f40f698	0.7537627
26	0xbdcbf7a3	-0.09959342
27	0xc003c4ad	-2.0588791
28	0xbe30fc49	-0.17283739
29	0xbf5917a9	-0.8480173
30	0xbf60784f	-0.87683576
31	0x3f843aaf	1.0330409

bn3.running_var f4 [32]
0	0x4051a905	3.2759411
1	0x40af218c	5.472845
2	0x40b2864d	5.578894
3	0x40baec30	5.8413315
4	0x40a027c4	5.004854
5	0x4086a4fc	4.2076397
6	0x40af19f0	5.471916
7	0x40c07ae4	6.0150013
8	0x407769f6	3.8658423
9	0x400ff151	2.2491038
10	0x40731291	3.7980082
11	0x410f2c3a	8.9482975
12	0x4096718b	4.70136
13	0x3fc4b2f3	1.5367111
14	0x409be269	4.871388
15	0x400da250	2.2130318
16	0x4082a096	4.082103
17	0x404e5627	3.2240083
18	0x3ff1244e	1.8839204
19	0x3fd2ba9b	1.6463197
20	0x4056d97c	3.3570242
21	0x4020bd0f	2.5115392
22	0x40add8bb	5.4327064
23	0x4093f36c	4.6234646
24	0x40bb8175	5.859553
25	0x40e823ce	7.2543707
26	0x401ae45c	2.420188
27	0x4102282f	8.13481
28	0x3ffac7dd	1.9592243
29	0x40193637	2.393934
30	0x40956e25	4.6696954
31	0x40c3744a	6.1079454

fc10.weight f4 [4, 2048]
0	0xbd406ad0	-0.046976864
1	0x3beb5276	0.007181461
2	0x3ca3c933	0.0199934
3	0x3ad4c280	0.0016232282
4	0x3d807ff3	0.062744044
5	0x3d2d16bc	0.04225801
6	0x39b78210	0.00035001384
7	0xbb1e7e5d	-0.0024184205
8	0xbd351566	-0.04420986
9	0x3d1e8b6a	0.038707174
10	0xbc82e3a7	-0.015977694
11	0x3d33ac78	0.04386565
12	0x3d151c4d	0.036403943
13	0xbc3c9c8d	-0.011511934
14	0xbdda40e2	-0.10656907
15	0x3b4ae56f	0.0030959507
16	0x3b8f0f44	0.0043658335
17	0x3c57f962	0.013182016
18	0x3d27a1b2	0.04092569
19	0xbd5fb8d2	-0.054619618
20	0x3d22fd6c	0.039792463
21	0xbc2e44d0	-0.010636523
22	0x3ae4f2f4	0.0017467425
23	0xbd2ebbc2	-0.04265953
24	0xbce63411	-0.028101
25	0xbd491ed1	-0.049101654
26	0xbc3fd191	-0.011707679
27	0x3cc5e5ac	0.024157368
28	0xbd6a70fe	-0.057236664
29	0x3d06875f	0.032843944
30	0xbcb4d3f8	-0.02207373
31	0xbcc968d3	-0.024586117
32	0x3bc37b04	0.0059655923
33	0xbd5ef48c	-0.054432437
34	0x3c114113	0.008865613
35	0xbd7a40d1	-0.06109697
36	0x3ca192a3	0.019723242
37	0xbda3e472	-0.08002557
38	0xbd53cc06	-0.051708244
39	0xbd7136eb	-0.058890264
40	0x3d1094b9	0.035298083
41	0x3d1d65aa	0.038427033
42	0x3db919b0	0.090381026
43	0xbd1aed37	-0.037823882
44	0xbc8f1512	-0.017466102
45	0xbc4815ca	-0.012212226
46	0xbb2c704e	-0.0026312056
47	0xbd66659d	-0.05624925
48	0xbccfdda5	-0.025374243
49	0x3ce5c20b	0.028046628
50	0xbbb5cfa4	-0.0055484343
51	0x3c40f2b0	0.011776611
52	0xbcf85724	-0.03031499
53	0xbd8daf42	-0.069181934
54	0xbd0c5753	-0.034262966
55	0xbc7a4cc2	-0.01527709
56	0x3c80788f	0.015682487
57	0x3b73c0b6	0.0037193722
58	0x3d9a480e	0.075332746
59	0xbd34b393	-0.044116568
60	0xbd155cbe	-0.0364654
61	0xba6b2b04	-0.00089709484
62	0x3d0dabc4	0.034587637
63	0x3b87dae5	0.0041459673
64	0x3ec08fef	0.37609813
65	0x3c58bde4	0.013228867
66	0x3c9acf39	0.01889764
67	0x3d20f5b7	0.039296832
68	0x3d4a7b34	0.049433902
69	0x3c04c0cd	0.008102608
70	0x3d10c971	0.03534836
71	0x39991b8e	0.00029202964
72	0x3db161e5	0.0866125
73	0xbd381995	-0.044946272
74	0xbdb30295	-0.08740727
75	0xbd82c119	-0.06384487
76	0xbd846cdb	-0.06466075
77	0xbcdc906c	-0.026924334
78	0x3a19caa2	0.00058666815
79	0xbd204607	-0.039129283
80	0x3d5d5dfd	0.054044712
81	0xbd028c69	-0.031872187
82	0xbd1e9665	-0.038717646
83	0x3d124605	0.035711307
84	0xbd98b931	-0.074571975
85	0xbba14ce2	-0.004922495
86	0xbc097d3c	-0.008391675
87	0xb8c297da	-9.2789254e-05
88	0x3cfcf418	0.030878112
89	0x3ba2b7c0	0.0049657524
90	0xbccd6f4c	-0.025077485
91	0x3b8efd94	0.004363725
92	0xbd63747c	-0.05553101
93	0x3d0ccc58	0.034374565
94	0xbd328467	-0.0435833
95	0xbd1f41cb	-0.038881104
96	0x3bea89a9	0.0071575237
97	0x3c191917	0.009344361
98	0xbd402aaa	-0.046915688
99	0xbb7f28d6	-0.0038934252
100	0x3cd6cb51	0.026219996
101	0x3d0312f8	0.032000512
102	0xbcc5dc02	-0.02415276
103	0x3d422631	0.047399703
104	0x3db5572a	0.08854516
105	0x3ccdc944	0.025120385
106	0xbc256177	-0.010094038
107	0xbd8490b7	-0.06472915
108	0x3ba2e1ce	0.0049707657
109	0x3c06cdc7	0.008227772
110	0xbcc61d39	-0.024183856
111	0xbd4462ff	-0.047945973
112	0x3c479cb7	0.01218336
113	0x3d467e86	0.048460506
114	0x3c56d2c0	0.01311177
115	0xbbb3b7e1	-0.0054845666
116	0x3d6d9f9c	0.058013543
117	0xbd773bd9	-0.06035981
118	0xbd052c96	-0.032513224
119	0xbbb796e2	-0.0056027034
120	0x3d1fd44b	0.039020818
121	0xbd49cac5	-0.04926564
122	0xbd10155d	-0.035176624
123	0x3cac48c7	0.021030797
124	0x3d63aabe	0.055582754
125	0x3d1881e0	0.037233233
126	0xbd95553c	-0.07291648
127	0x3c6d299c	0.0144752525
128	0x3d41f73a	0.047354914
129	0xbd43260c	-0.047643706
130	0xbafc371d	-0.0019242499
131	0x3caf6389	0.021409767
132	0x3c10ec53	0.008845407
133	0xbc485dd2	-0.0122294
134	0x3c8abcd3	0.016935742
135	0xbbb0c582	-0.0053946385
136	0xbc646b91	-0.013941661
137	0xbbd50fc9	-0.006502126
138	0x3d8cad29	0.06868965
139	0xbd5f29a1	-0.05448306
140	0xbd8956fb	-0.06706043
141	0xbda7d8d7	-0.08195656
142	0xbd6f29d2	-0.058389492
143	0x3cdb9c8f	0.026808051
144	0x3c7d68a5	0.015466844
145	0x3caf0477	0.021364434
146	0x3b0c4f33	0.002140951
147	0x3bac910c	0.0052663144
148	0x3befa8d5	0.0073138275
149	0x3d6774e9	0.05650798
150	0xbda3b9ce	-0.07994424
151	0x3d2fe078	0.04293868
152	0x3a12e4bc	0.0005603542
153	0xbcbfb48c	-0.023401521
154	0xbcecea78	-0.028920397
155	0xbb8bdddf	-0.0042683925
156	0x3b4404b2	0.0029910025
157	0xbd4c6a01	-0.04990578
158	0xbb8a4ecd	-0.0042208196
159	0xbc40fe58	-0.01177939
160	0xbcd87ae3	-0.026425784
161	0x3d159083	0.03651477
162	0xbc9573af	-0.018243639
163	0xbc49cd78	-0.012317054
164	0x3d457c73	0.048214387
165	0xbd41819b	-0.047242742
166	0x3d81f8c9	0.0634628
167	0x3d033ece	0.032042317
168	0xba8e6d1f	-0.0010866261
169	0xbb29fe47	-0.0025938915
170	0xbd0c067d	-0.034185875
171	0xbcebc660	-0.028781116
172	0x3a846ff2	0.0010104163
173	0x3d274ce4	0.040844813
174	0xbca1ccfb	-0.019751063
175	0xbcbd520d	-0.023110414
176	0xbd192af7	-0.03739449
177	0xba5b9d67	-0.0008377642
178	0x3d016a4e	0.03159552
179	0xbb9b29ca	-0.0047352063
180	0x3ca082be	0.019593593
181	0x3c29bfed	0.0103607
182	0xbcaaa8de	-0.020832475
183	0xbd2d6efd	-0.042342175
184	0xbca125d1	-0.019671353
185	0x3c37cfa8	0.011218943
186	0xbce6a0ab	-0.028152784
187	0xbb96a18e	-0.0045968955
188	0xbbbed86a	-0.0058241384
189	0xbd2d6662	-0.042333968
190	0x3c79e1c7	0.015251583
191	0xbc54b842	-0.012983384
192	0x3c9f388e	0.019436147
193	0x3d430d79	0.04762027
194	0x3c3d0bf5	0.011538495
195	0xbd470879	-0.048592065
196	0x39feb1e7	0.00048579203
197	0x3d870904	0.065935165
198	0xbd56f5ad	-0.05248039
199	0x3d90147c	0.07035157
200	0xbd1c724f	-0.03819495
201	0x3c83e2dd	0.016099388
202	0xbc0df27f	-0.008663773
203	0x3b4427b9	0.0029930903
204	0x3d2cd758	0.042197555
205	0x3d0272ba	0.031847693
206	0x3b66df28	0.0035228226
207	0x3c90d0d9	0.017677711
208	0xbc7e88ab	-0.015535514
209	0x3d54e7c9	0.05197886
210	0xb9dc776a	-0.0004205064
211	0x3d5cb832	0.0538866
212	0xbd124397	-0.03570899
213	0x3cce6174	0.025192954
214	0xbc953311	-0.018212827
215	0x3bdfde89	0.006831948
216	0x3cd55c16	0.026044887
217	0x3c75620a	0.014976988
218	0x3b8923bc	0.004185168
219	0x3cf610b1	0.030037256
220	0xbb482d86	-0.0030544712
221	0xbd227c7c	-0.0396695
222	0x3cc5ae08	0.024130836
223	0xbdb1cedc	-0.086820334
224	0x3ca4f181	0.02013469
225	0xbcb21efa	-0.021743286
226	0xbd15d265	-0.0365776
227	0x3bbd0ff8	0.005769726
228	0xbd64701b	-0.055770975
229	0xbc25fcf2	-0.010131108
230	0x3d166c79	0.03672454
231	0xbd0ebf47	-0.034850385
232	0xbd67baab	-0.056574505
233	0xbca9fff7	-0.020751936
234	0xbcbe7850	-0.023250729
235	0x3c7c5f22	0.015403541
236	0xbd378c38	-0.044811457
237	0xbcf58f3d	-0.029975528
238	0x3c013c0b	0.0078878505
239	0xbd3dd3e2	-0.046344645
240	0x3c14eb5c	0.009089317
241	0xbcbf3c5e	-0.023344215
242	0x3c8ad8b2	0.016949032
243	0x3c4d5515	0.012532492
244	0xbc5a5210	-0.013325229
245	0xbbca3d52	-0.0061718607
246	0xbd7a3d72	-0.061093755
247	0xbd049970	-0.032372892
248	0x3cb6add4	0.022299685
249	0xbd867a25	-0.06566266
250	0x3c98aa32	0.018635843
251	0x3beed9bb	0.007289139
252	0xbd233c9c	-0.039852723
253	0xbce17f0b	-0.0275264
254	0xbcaeed17	-0.021353288
255	0x3ca53e98	0.020171449

fc10.bias f4 [4]
0	0xbc503877	-0.012708775
1	0x3c870587	0.016482128
2	0x3b548559	0.0032428114
3	0x3a6ce0e5	0.00090361974

fc11.weight f4 [4, 2048]
0	0x3d879d93	0.06621852
1	0x3c9cd15a	0.019142795
2	0xbd41daaa	-0.047327675
3	0xbd1c077c	-0.038093075
4	0xbb57d752	-0.0032934737
5	0xbc9bdaf4	-0.019025303
6	0x3d7bc6d3	0.06146891
7	0xbc59fa87	-0.013304359
8	0x3cc61498	0.024179742
9	0xbd479399	-0.048724744
10	0xbc44dad9	-0.012015068
11	0x3cd991a0	0.026558697
12	0x3cc56ff2	0.024101231
13	0x3c03d0c2	0.008045377
14	0xbb58846b	-0.0033037912
15	0x3d13f19f	0.0361191
16	0x3c235ff1	0.009971605
17	0xbcea7ca3	-0.028623885
18	0x3d09fa50	0.033685982
19	0xbd018331	-0.031619254
20	0xbd4ab42e	-0.04948824
21	0xbc8dcd63	-0.01730985
22	0x3c27f270	0.010250673
23	0x3d1dea9b	0.038553815
24	0x3cb74b17	0.022374673
25	0x3cc2d610	0.023783714
26	0xbd078f11	-0.033095423
27	0xbc2f3fed	-0.010696393
28	0xbc763a29	-0.015028515
29	0xbd13f25d	-0.036119808
30	0xbc868015	-0.016418496
31	0xbd293f72	-0.04132027
32	0x3ca1ab32	0.019734953
33	0x3c4f3887	0.0126477545
34	0xbc0ac9b8	-0.008470945
35	0xbd8519a1	-0.06499029
36	0x3c1784ec	0.009248
37	0x3c2f85bb	0.010713036
38	0x3d88bb5f	0.06676363
39	0xbc75ab05	-0.0149943875
40	0xbd008b12	-0.031382628
41	0xbc7d9239	-0.015476757
42	0x3cce3552	0.02517191
43	0x3bdcd648	0.0067394115
44	0xbb0dbd64	-0.0021627778
45	0xbcb63956	-0.022244137
46	0xbc67eb07	-0.014155156
47	0xbc2c4db1	-0.01051657
48	0xbd67f49b	-0.05662976
49	0xbd3570e3	-0.04429711
50	0xbc6ae4a5	-0.01433674
51	0xbc445e52	-0.011985378
52	0xbc7404b6	-0.014893701
53	0xbd84177c	-0.06449792
54	0x3cf18bb7	0.029485567
55	0x3d15bb61	0.03655565
56	0xbd263115	-0.040574152
57	0x3c6985e5	0.014253114
58	0xbc9ca007	-0.019119276
59	0x3caeac73	0.021322465
60	0xbd331e25	-0.04372992
61	0x3b79a0eb	0.00380903
62	0xbbc52fea	-0.0060176747
63	0x3d3ca18f	0.04605251
64	0xbc68bb83	-0.0142048625
65	0xbd55213e	-0.052033655
66	0x3d142f26	0.036177777
67	0x3bc8364e	0.0061099892
68	0xbd2f7ffa	-0.042846657
69	0xbbfe5ee0	-0.007762775
70	0x3cf8a983	0.030354267
71	0xbd223a1e	-0.039606206
72	0xbcc993a5	-0.024606535
73	0x3ba83f87	0.005134526
74	0x3d024dda	0.031812526
75	0xbc9ccee8	-0.01914163
76	0xbce88586	-0.028383981
77	0x3c821593	0.015879428
78	0x3c5c893d	0.0134604545
79	0xbc9cc8db	-0.019138744
80	0x3b751999	0.003739929
81	0x3cad2a5c	0.021138363
82	0xbd5c8c9c	-0.053845033
83	0xbc5d2b88	-0.013499148
84	0x3d512ee0	0.051070094
85	0x3d192420	0.037387967
86	0xbb939076	-0.004503305
87	0x3ca94ed7	0.020667477
88	0xbd291d99	-0.041287992
89	0x3c059a83	0.008154514
90	0xbd8d414e	-0.068972215
91	0x3c8b553d	0.017008418
92	0xbd6b2ce7	-0.05741587
93	0xbd809795	-0.06278912
94	0xbb3ef758	-0.0029139128
95	0xbbf005cb	-0.0073249093
96	0xbc496a1f	-0.012293368
97	0x3c25ce70	0.010120019
98	0xbc44f36b	-0.012020926
99	0x3cc919ff	0.024548529
100	0xbd4967e3	-0.04917134
101	0xbc6112c5	-0.013737385
102	0xbd730961	-0.059335116
103	0xbd1253fe	-0.035724632
104	0xbd079bd9	-0.033107612
105	0xbbc86289	-0.006115262
106	0x3d0d1b83	0.034450065
107	0x3cfcb8a8	0.03084977
108	0x3ce23664	0.027613826
109	0x3d27cac1	0.040964846
110	0x3d6dc96f	0.05805343
111	0x3d077773	0.0330729
112	0xbc97fb09	-0.01855232
113	0x3c2038c0	0.009779155
114	0xbc1cfd6a	-0.009581903
115	0x3d2bb323	0.041918885
116	0x3b6bf183	0.0036002106
117	0xbcaca169	-0.02107306
118	0xbbc5c35e	-0.0060352525
119	0xbd3c85e2	-0.046026118
120	0xbd4079b7	-0.046991076
121	0xbc4c071c	-0.012452867
122	0x3b346c6f	0.0027530452
123	0x3d7c215c	0.06155525
124	0xbc7aee6c	-0.015315633
125	0xbd6a34ac	-0.057179138
126	0x3c111b0f	0.008856549
127	0x3cca5487	0.024698509
128	0x3cd5540e	0.026041057
129	0x3c1936ec	0.009351473
130	0xbcb46ca7	-0.022024466
131	0x3c56123f	0.013065874
132	0xbce90e50	-0.028449208
133	0x3cdff4f4	0.027338482
134	0xbbd1b5b7	-0.006399836
135	0xbc0555d6	-0.008138141
136	0x3cc82416	0.02443127
137	0xbd26d25c	-0.040727958
138	0x3bc09011	0.005876549
139	0xbb615d5d	-0.0034387924
140	0xbd2d389e	-0.042290322
141	0x3d4a0c18	0.04932794
142	0xbc7d5ed6	-0.015464505
143	0x3d3efe20	0.04662907
144	0xbbd3b833	-0.0064611672
145	0xbcb8cc4b	-0.022558352
146	0xbcff6d67	-0.031180097
147	0x3d1df5ea	0.0385646
148	0x3d367d13	0.044552874
149	0x3ccdee97	0.025138183
150	0x3c1525b2	0.009103226
151	0xbbdfb956	-0.0068275137
152	0x3c269a18	0.010168575
153	0xbc46eae0	-0.0121409595
154	0xbcd85e64	-0.026412196
155	0xbc874f9a	-0.01651745
156	0x3c49348f	0.012280597
157	0xbd3c25f9	-0.04593465
158	0xbca33b6b	-0.019925794
159	0xbd5edf8a	-0.054412402
160	0xbbdaef84	-0.0066813845
161	0xbc9b5f0e	-0.018966224
162	0xbd22fb75	-0.03979059
163	0xbc0e6f15	-0.008693476
164	0xbc254954	-0.010088284
165	0xbcd39e24	-0.025832243
166	0xbb9b8215	-0.0047457316
167	0xbc6bd43d	-0.014393863
168	0x3ce05d8b	0.027388355
169	0x3cbb5f37	0.02287255
170	0xbc11ef3c	-0.008907136
171	0xbae5c02f	-0.0017528589
172	0x3d4cad95	0.04997023
173	0xbdb0525b	-0.08609458
174	0x3c82b78d	0.015956664
175	0xbc416781	-0.011804462
176	0x3d3603ee	0.04443734
177	0x3cd4ad7e	0.025961634
178	0xbd1f45e6	-0.03888502
179	0x3d8bff07	0.06835752
180	0x3d724885	0.05915119
181	0xbd8911c6	-0.06692843
182	0x3cb070a6	0.02153809
183	0x3cbb0735	0.022830585
184	0xbd2f2ba8	-0.042766243
185	0xbd2a4b38	-0.04157564
186	0xbbe35261	-0.0069373106
187	0x3ca5edf1	0.02025506
188	0x3d1dc210	0.03851515
189	0xbd03a4c0	-0.03213954
190	0x3c582d12	0.013194339
191	0xbc7117fe	-0.014715193
192	0xbd8cc28a	-0.06873043
193	0xbcc6f5cc	-0.024287127
194	0xbb3da33c	-0.0028936407
195	0xbd489885	-0.04897358
196	0x3abf70d4	0.0014605769
197	0xbd2c7fae	-0.042113952
198	0x39996291	0.00029255872
199	0xbb137abb	-0.0022503573
200	0x3c20d595	0.009816547
201	0x3c82d170	0.015969008
202	0xbc8879ed	-0.016659701
203	0x3d50c1f1	0.050966207
204	0xbd260d5a	-0.040540077
205	0x3cee775e	0.029109653
206	0x3b5b72d7	0.0033485198
207	0xbd03a4da	-0.032139637
208	0xbd0c6a64	-0.03428115
209	0x3d5c8a33	0.053842735
210	0xbca382f8	-0.019959912
211	0xbd6cbfcf	-0.05780011
212	0xbd17202e	-0.036895923
213	0x3ce5e2f3	0.02806232
214	0xbd2a3899	-0.041557882
215	0xbd55c273	-0.052187394
216	0x3cf6d6e6	0.030131768
217	0xbd0f03a3	-0.034915578
218	0x3d22d9c0	0.039758444
219	0xbc22fd50	-0.00994809
220	0x3cbc4230	0.02298078
221	0xbcb993a9	-0.022653418
222	0x3ccf154f	0.025278715
223	0x3d14719e	0.036241166
224	0x3d2bb598	0.04192123
225	0x3b367330	0.0027839653
226	0x3bc74f29	0.0060824347
227	0xbcb38a62	-0.021916572
228	0xbd4c1da3	-0.04983295
229	0xbcb7ea72	-0.02245066
230	0x3d2a1593	0.04152448
231	0x3d24740e	0.04014974
232	0xbc9491bf	-0.018135903
233	0xbcbb550e	-0.022867706
234	0xbc0e24d8	-0.008675776
235	0xbd37a19a	-0.04483185
236	0xbc300f81	-0.010745884
237	0xbd6cac74	-0.05778165
238	0x3cce7f7a	0.02520727
239	0xbc4d9e31	-0.012549923
240	0x3cfc745e	0.030817207
241	0xbc6f39fd	-0.014601228
242	0xba606337	-0.0008559706
243	0xba403959	-0.0007332764
244	0x3cb7a12b	0.022415718
245	0x3caf9584	0.0214336
246	0xbcd20856	-0.02563874
247	0xbd17cd83	-0.037061226
248	0x3c7993cc	0.015232991
249	0x3c49ee0d	0.012324822
250	0x3d24ddbc	0.040250525
251	0x3abf4eb7	0.0014595602
252	0x3ca707e0	0.020389497
253	0xbcd2428b	-0.025666496
254	0xba7c40b2	-0.00096226775
255	0x3c041ef8	0.008064024

fc11.bias f4 [4]
0	0xbb86f81b	-0.004118932
1	0xbbc52682	-0.0060165534
2	0xbc301772	-0.010747777
3	0xbc213ec1	-0.009841622

fc3.weight f4 [512, 4]
0	0x3f37bea5	0.71775275
1	0xbeeae490	-0.45877504
2	0xbefeb282	-0.49745566
3	0xbe9611ca	-0.29310447
4	0x3e5c46c4	0.2151137
5	0x3ff32491	1.8995534
6	0xbe97a11b	-0.296151
7	0x3953c7f1	0.00020197012
8	0xbf5611ff	-0.8362121
9	0xbf304fbf	-0.6887168
10	0x3f0a22db	0.53959435
11	0x3ed5862a	0.41703922
12	0x3f3d3fd3	0.73925513
13	0xbd4635a5	-0.048391003
14	0xbe37c9bd	-0.17948051
15	0xbebfc876	-0.37457627
16	0xbf6284c9	-0.88483864
17	0x3e691b82	0.227644
18	0xbf58d75a	-0.847036
19	0xbf6ca225	-0.9243491
20	0x3ee24433	0.44192657
21	0x3fa80e77	1.3129414
22	0xbf812a45	-1.0091025
23	0x3d17b192	0.03703458
24	0xbe7b09c3	-0.24515443
25	0xbeb95e8d	-0.3620495
26	0xbfaa0a3e	-1.3284376
27	0x3ea3eff9	0.32019022
28	0xbeb3f190	-0.35145235
29	0x3d93024c	0.071781725
30	0x3f1f776b	0.6229159
31	0x3ea688d6	0.32526273
32	0x3c51c609	0.012803563
33	0xbed313d3	-0.41226062
34	0xbf395410	-0.72393894
35	0x3f53a5f8	0.82675123
36	0x3efca000	0.4934082
37	0x3e2fbf0a	0.1716272
38	0x3f1542ec	0.5830524
39	0x3eea347a	0.4574316
40	0xbf4c2fd6	-0.7976049
41	0xbe74abe5	-0.23893698
42	0x3e754ce8	0.23955119
43	0x3da8459a	0.082164004
44	0xbfb272f3	-1.394133
45	0x3fa4bc8a	1.2870038
46	0xbe797e3d	-0.24364562
47	0xbd57de43	-0.0527022
48	0x3ff12581	1.883957
49	0xbf13eb95	-0.57781345
50	0x3eb76a9b	0.3582352
51	0xbe62ed94	-0.22160941
52	0x3f6f1da5	0.9340461
53	0xbd6de7ff	-0.058082577
54	0xbf4815a1	-0.78158003
55	0xbcb8a05a	-0.0225374
56	0x3f32f3b5	0.6990312
57	0x3f3f9fe5	0.74853355
58	0xbf505956	-0.81386316
59	0xc0083147	-2.1280077
60	0xbedd051c	-0.4316796
61	0xbf31c022	-0.69433796
62	0xbf111bbe	-0.56682956
63	0x3fcbacdc	1.5912127
64	0xbfc22862	-1.5168574
65	0xbf3551da	-0.7082802
66	0x3da539eb	0.080676876
67	0x3eca871a	0.395562
68	0xbf3d0c19	-0.73846585
69	0x3efd42ab	0.49464926
70	0x3edf338f	0.43594024
71	0x3f00f646	0.50375783
72	0x3f32d1fe	0.6985167
73	0x3f3616ed	0.7112873
74	0x3f5d1e6d	0.8637455
75	0xbe073077	-0.13202082
76	0x3f94dbe8	1.162961
77	0x3e956e55	0.2918574
78	0x3e8c964c	0.27458417
79	0xbf40ee2f	-0.7536344
80	0xbf5e48e2	-0.8682996
81	0xbea8b394	-0.32949507
82	0xbd98d010	-0.0746156
83	0xbee41e10	-0.44554186
84	0x3f26637a	0.6499554
85	0xbfdb26a7	-1.7121171
86	0x3ec131c4	0.3773328
87	0xbf1b190a	-0.6058508
88	0x3f1ea394	0.6196835
89	0x3e31e9b5	0.17374308
90	0xbed06aa4	-0.4070636
91	0xbd3d828f	-0.04626709
92	0xbf3314e8	-0.69953775
93	0xbefcd8f7	-0.4938428
94	0x3cab22be	0.02089059
95	0x3e1664e3	0.14686923
96	0xbf90f510	-1.1324787
97	0xbeb15412	-0.34634453
98	0xbf6148ad	-0.8800152
99	0xbf358713	-0.7090923
100	0xbe2f6a50	-0.17130399
101	0xbf24fbc1	-0.64446646
102	0xbe48c92f	-0.19607995
103	0xbe384e75	-0.17998679
104	0x3dfd7708	0.12376219
105	0xbf84620f	-1.0342425
106	0x3f0a7246	0.5408062
107	0x3dad03b4	0.08447972
108	0x3f7e8f61	0.9943753
109	0x3ee87cb0	0.4540763
110	0xbe78b490	-0.24287629
111	0x3dc2e64d	0.09516583
112	0x3f95f33b	1.1714853
113	0xbedfae15	-0.43687502
114	0xbe90caff	-0.28279874
115	0xbef9d713	-0.487969
116	0x3e1df716	0.15426287
117	0xbdc841de	-0.09778188
118	0x3d17fb5c	0.03710495
119	0xbe6b4e0a	-0.22978988
120	0xbe931e01	-0.2873383
121	0xbf2f40fc	-0.68458533
122	0x3e9fa0d5	0.31177393
123	0xbdc1fc09	-0.094719
124	0xbeef570a	-0.46746093
125	0xbef16ade	-0.47151846
126	0x3fa19bf3	1.2625717
127	0x3d192786	0.037391208
128	0x3ee12104	0.439705
129	0xbf98a2a1	-1.192463
130	0x3e71e829	0.23623718
131	0xbf15b9b0	-0.5848646
132	0x3ede84fc	0.43460834
133	0x3fb3d07f	1.4048003
134	0xbf03b080	-0.5144119
135	0x3fe2599d	1.7683598
136	0x3f206825	0.6265891
137	0xbfa7ff7c	-1.3124843
138	0x3e86807e	0.26269907
139	0x3f92ac10	1.1458759
140	0xbea6e01d	-0.3259286
141	0x3cc820cb	0.0244297
142	0xbf15c4e3	-0.5850355
143	0xbd4b2b85	-0.04960205
144	0x3eb0f4ac	0.3456167
145	0xbef9594a	-0.48700935
146	0xbe074ce9	-0.13212933
147	0x3ebd111a	0.3692711
148	0x3f628987	0.884911
149	0xbf6089fc	-0.8771055
150	0x3f8085e2	1.0040858
151	0xbeb9768b	-0.36223254
152	0x3f030ad0	0.51188374
153	0x3e8bb3a6	0.27285498
154	0x3eb299d6	0.34882993
155	0x3f37d475	0.7180856
156	0x3d000cc1	0.031262163
157	0xbf069efb	-0.52586335
158	0xbdf4f77b	-0.11961266
159	0xbf092481	-0.53571326
160	0xbee0afbe	-0.4388408
161	0xbf0cb979	-0.5497051
162	0xbf136214	-0.5757153
163	0xbf3eb7f9	-0.7449947
164	0xbe888688	-0.2666514
165	0x3f0bb983	0.54579943
166	0xbd9f3e98	-0.07775611
167	0x3fc76a83	1.557938
168	0xbf91a809	-1.1379405
169	0x3ea1acb0	0.31577063
170	0xbebd2ebd	-0.3694972
171	0xbf05ce3d	-0.5226782
172	0x3fe2f03e	1.7729566
173	0x3f73d00c	0.9523933
174	0xbf601c57	-0.87543243
175	0xbe9cf14f	-0.30652854
176	0x3f659d75	0.89693385
177	0xbf2d05a3	-0.67586726
178	0xbf5aacb1	-0.85419756
179	0x3fef4637	1.8693303
180	0xbf29ff43	-0.66405123
181	0xbdc10a0a	-0.09425743
182	0xbeb3fa6b	-0.3515199
183	0xbf5e1416	-0.867494
184	0x3ed43dc5	0.41453376
185	0x3f20380a	0.6258551
186	0x3f036ee1	0.5134106
187	0xbea4ade1	-0.3216391
188	0xbef46d07	-0.4773943
189	0xbf2beabd	-0.6715506
190	0x3f20fa73	0.62882155
191	0x3eeac8c0	0.45856285
192	0xbd9e4e20	-0.07729745
193	0x3e82b6fd	0.25530234
194	0xbd8e9097	-0.06961172
195	0xbf916483	-1.1358799
196	0xbff72e14	-1.9310937
197	0x3f38cc18	0.7218642
198	0x3d83991f	0.0642569
199	0x3f5f3f68	0.87206125
200	0x3ef39315	0.47573152
201	0x3f876d59	1.0580245
202	0x3f00d8c3	0.5033075
203	0xbf416de5	-0.7555831
204	0xbecd761f	-0.40129182
205	0xc0052371	-2.0802882
206	0x3fe55627	1.7916917
207	0x3f12294d	0.5709427
208	0x3f66f1e1	0.9021283
209	0x3e1a604f	0.15075801
210	0xbf2b9849	-0.67029244
211	0xbe5a1c9c	-0.21299976
212	0xbe55ef9e	-0.20892188
213	0xbf306e69	-0.6891847
214	0xbe7c7f1f	-0.24657868
215	0x3f135c42	0.5756265
216	0xbf4ac0ee	-0.7920064
217	0xbf30700e	-0.6892098
218	0xbf7ff3c9	-0.9998136
219	0x3e1d4368	0.15357745
220	0x3d85beef	0.06530558
221	0x3d171a5d	0.036890376
222	0x3e1a5dde	0.1507487
223	0x3ecefc5b	0.40426907
224	0xbe925c76	-0.28586167
225	0xbf5546c5	-0.8331111
226	0x3eafb0b5	0.34314504
227	0x3f40a0eb	0.7524554
228	0x3f128c24	0.5724509
229	0xbf38bedd	-0.72166234
230	0x3db7af35	0.08968965
231	0xbc544ef0	-0.012958273
232	0xbec17e03	-0.37791452
233	0xbf3f6b27	-0.74772877
234	0x3f3f3688	0.74692583
235	0xbf841435	-1.0318667
236	0x3fc71ace	1.5555055
237	0xbf7d77ba	-0.99010813
238	0x3f1745da	0.5909096
239	0x3dc8b7c8	0.098006785
240	0x3e86228c	0.26198232
241	0x3dd1af6d	0.10238538
242	0x3e0d21eb	0.1378247
243	0xbff9faff	-1.9529723
244	0x3e69cfe6	0.22833213
245	0x3fd97264	1.6988034
246	0x3cb837c2	0.022487525
247	0xbf9ab2bf	-1.2085799
248	0x3f3c5525	0.7356742
249	0xbe7678cd	-0.2406952
250	0x3eb73721	0.35784248
251	0x3e37b3f9	0.17939748
252	0x3eb608b9	0.3555353
253	0x3f2ae70a	0.6675879
254	0x3fad9811	1.3562032
255	0x3f145cd8	0.5795417
