saved_models_2D/dataset_noacc/VAE_patch_folds/CVAE2D_64_5_100_5_fold_4.pth (torch, 52990 bytes, 49 tensors)

conv1.weight f4 [3, 1, 5, 5]
-0.3663388 -0.20177162 -0.024994837 0.1207676 -0.29383895 -0.23286736 0.22365062 -0.1084007
-0.327933 -0.1856505 -0.08500439 0.11866833 0.100811444 -0.01413277 -0.17438154 -0.62842625
-0.2852001 -0.13831982 0.9211934 0.02815343 -0.14014867 -0.22494824 0.112182036 -0.26292273
-0.43421412 0.91661394 -0.035272755 -0.1972043 0.003778553 -0.1755694 0.43468302 -0.13647617
0.49864456 -0.27002886 -0.40163484 -0.18564256 -0.30586725 -0.3169163 0.16619612 0.10866769
-0.056364086 0.15895672 0.050062448 -0.4706498 -0.22557083 0.74934787 0.09941434 -0.07807967
0.28894532 -0.55051404 0.3304308 0.035411764 0.37082893 0.104220696 0.37626776 0.090235546
0.14075498 -0.057174515 0.238036 -0.048751798 0.056239158 0.066282205 -0.037699047 0.06648972
0.26564762 0.15439074 0.10773384 -0.40317252 0.2816171 0.20076604 0.07874529 0.5487715
0.42993805 0.16700228 0.2140763
00000000: c290 bbbe 389d 4ebe f9c1 ccbc 0155 f73d
00000010: 0f72 96be c874 6ebe ab04 653e 3001 debd
00000020: d6e6 a7be 2a1b 3ebe c816 aebd 6208 f33d
00000030: 3b76 ce3d 228d 67bc 1391 32be 8be0 20bf
00000040: bf05 92be b6a3 0dbe 55d3 6b3f 06a2 e63c
00000050: 2283 0fbe d558 66be b2bf e53d cf9d 86be
00000060: 5051 debe 36a7 6a3f 2a7a 10bd edef 49be
00000070: 9aa1 773b 77c8 33be c68e de3e 69c0 0bbe
00000080: 574e ff3e 3941 8abe 15a3 cdbe 1519 3ebe
00000090: a29a 9cbe da42 a2be 512f 2a3e 2a8d de3d
000000a0: 07de 66bd 8dc5 223e 480e 4d3d 03f9 f0be
000000b0: 0afc 66be 43d5 3f3f bf99 cb3d 3ce8 9fbd
000000c0: a4f0 933e 7dee 0cbf 3a2e a93e ed0b 113d
000000d0: 4add bd3e a971 d53d 2ba6 c03e 6acd b83d
000000e0: 1322 103e d32f 6abd b6bf 733e f7af 47bd
000000f0: 085b 663d f7be 873d 516a 1abd c32b 883d
00000100: f702 883e 9b18 1e3e 8fa3 dc3d a16c cebe
00000110: 1e30 903e 9d95 4d3e 3645 a13d 4a7c 0c3f
00000120: d720 dc3e a502 2b3e d136 5b3e

conv1.bias f4 [3]
0.035331417 0.0316969 0.058966808
00000000: adb7 103d 9cd4 013d 2e87 713d

conv2.weight f4 [4, 3, 3, 3]
-0.2465539 0.20319535 0.12840585 -0.1430805 -0.19173181 -0.024914384 -0.34479687 -0.2743108
-0.59205693 -0.11166392 -0.24346958 0.1273387 0.17728873 -0.10071819 -0.04440073 0.056566373
-0.084394105 -0.18761294 0.44785088 -0.43088502 0.22552441 0.15758865 0.41798216 -0.053785563
0.31784987 -0.0029787458 0.47095993 0.40442112 0.14694355 0.036206618 -0.0038409685 0.035213273
-0.13319387 0.31702545 -0.1902322 0.049038146 0.32646278 0.28089404 -0.22319306 0.06360032
0.69122434 0.21067402 0.14592795 -0.036409214 0.17351337 -9.507594e-05 0.3021607 0.2897463
-0.10381308 0.11344507 -0.18450323 0.2595902 -0.4193499 0.02556786 -0.45740613 -0.23338103
0.021500496 0.06003724 -0.028304085 -0.10291848 -0.15157394 -0.072133 0.033627808 0.13786355
-0.14965323 0.042711277 0.03634096 0.25493398 -0.15184681 0.051415052 -0.00040444234 0.15238419
0.40404546 0.8206713 -0.010289811 0.4438779 -0.345412 0.28790465 0.21917945 -0.049105365
0.017753804 -0.7044475 -0.08569271 -0.4397498 -0.56619126 -0.23213801 -0.34801129 -0.2494913
-0.115229554 -0.5017655 0.06334474 -0.039080422 -0.31526187 0.067723155 -0.0964559 -0.16319638
-0.21207607 -0.3005462 -0.20001437 -0.15538698 0.34446967 0.19946843 -0.0036149784 -0.22109433
0.07642444 -0.3446999 -0.11809553 0.45873797
00000000: a078 7cbe 7112 503e d37c 033e b283 12be
00000010: 5855 44be 4019 ccbc 3789 b0be 7772 8cbe
00000020: 0b91 17bf 0eb0 e4bd 1750 79be 1465 023e
00000030: 2d8b 353e 5745 cebd 8add 35bd 24b2 673d
00000040: d1d6 acbd 9b1d 40be b64c e53e f69c dcbe
00000050: dfef 663e eb5e 213e c201 d63e 404e 5cbd
00000060: 38bd a23e 1037 43bb a921 f13e 4910 cf3e
00000070: 5f78 163e 644d 143d c2b8 7bbb cb3b 103d
00000080: f963 08be 2951 a23e 3bcc 42be 39dc 483d
00000090: 2126 a73e 58d1 8f3e b98c 64be e240 823d
000000a0: 14f4 303f eeba 573e 236e 153e d421 15bd
000000b0: 7dad 313e 8263 c7b8 cfb4 9a3e a159 943e
000000c0: f49b d4bd e455 e83d 6aee 3cbe 02e9 843e
000000d0: 08b5 d6be b073 d13c 2331 eabe 70fb 6ebe
000000e0: cf21 b03c 9ce9 753d f8dd e7bc edc6 d2bd
000000f0: 3336 1bbe 77ba 93bd 50bd 093d 1a2c 0d3e
00000100: b23e 19be 05f2 2e3d 42da 143d b586 823e
00000110: bb7d 1bbe 9798 523d 550b d4b9 9a0a 1c3e
00000120: 0cdf ce3e 8417 523f 9896 28bc f743 e33e
00000130: d7d9 b0be 3d68 933e 9470 603e b522 49bd
00000140: 6d70 913c ac56 34bf a97f afbd e326 e1be
00000150: e9f1 10bf 96b5 6dbe 892e b2be a67a 7fbe
00000160: 79fd ebbd b473 00bf e3ba 813d cb12 20bd
00000170: 016a a1be 70b2 8a3d ac8a c5bd f41c 27be
00000180: 782a 59be 31e1 99be 91d0 4cbe c41d 1fbe
00000190: 545e b03e 7441 4c3e 46e9 6cbb 8d66 62be
000001a0: 6b84 9c3d 817c b0be 12dc f1bd b4df ea3e

conv2.bias f4 [4]
0.055680137 -0.016178034 -0.056061063 0.00308477
00000000: db10 643d cc87 84bc 49a0 65bd da29 4a3b

conv3.weight f4 [12, 4, 3, 3]
0.3307841 -0.113988705 -0.2249463 -0.051764786 0.19239287 -0.6646415 0.28363279 0.020765359
0.043064333 0.13565026 0.3368045 0.14443907 0.13042632 0.20802593 -0.074453495 0.08784926
0.093515694 0.077678405 0.3662741 -0.013126216 -0.85114723 0.20601276 -0.09229065 0.00044055303
0.256841 -0.0050174096 0.13990927 0.2642838 -0.039330084 -0.020437798 0.21651873 0.19469503
0.13580899 0.18278567 -0.24874245 0.117490776 0.02782623 0.21720009 0.30283695 0.41770616
0.20938668 0.25292075 -0.106191196 0.07680196 0.26828617 -0.04103099 0.08110941 -0.14927073
0.041301586 -0.25889432 0.09577085 -0.2394275 -0.3601534 0.44002488 0.18543048 0.30419517
0.46744764 0.21699573 -0.14908636 0.013097594 -0.18770209 0.113309585 0.24269472 0.31364796
0.34649742 0.24479468 -0.18159702 0.35326084 0.49486533 0.4000522 0.07020743 0.064943224
0.55830485 0.10741389 -0.259053 0.3597925 -0.19042803 0.010682874 0.03328523 0.07416332
-0.41831958 0.14962949 0.23594554 -0.057683334 0.32684633 0.0014784634 0.15363386 0.36678576
0.29703665 -0.12495794 0.7474626 0.16628475 0.0026746967 0.28875408 0.45575488 -0.017962698
-0.03236121 0.5563191 0.043292087 0.19429593 0.17556547 0.13093524 -0.143073 0.1450626
0.04964066 0.20009464 -0.22286361 -0.05558715 0.057298847 -0.1852267 -0.011224397 -0.2562734
-0.20442998 -0.3206917 -0.36227074 -0.29455742 0.7031797 -0.014031012 -0.042598832 -0.11396638
0.10526708 0.075711526 -0.11406422 0.10976402 -0.23892656 0.3891777 0.23213339 -0.09847025
-0.2115729 0.10733858 0.1875232 -0.4079746 -0.35627282 0.23721321 -0.4526663 0.1325595
-0.109801106 -0.4056224 0.15216686 -0.2832319 0.09649703 0.12927265 0.43304446 0.05971644
-0.21895005 0.05186797 0.05926642 -0.13200131 0.13055536 0.013960298 -0.55890447 0.19872633
-0.009991244 -0.04728292 0.1534234 -0.10471182 -0.10580527 -0.025164861 -0.023674795 -0.00074490387
0.14212114 -0.020684352 -0.024366906 -0.0874716 0.13768595 -0.22640294 0.18144757 0.13869955
0.12620561 -0.24732561 0.37420955 -0.20160174 -0.037021473 -0.37686324 0.0058736713 -0.20798321
0.06425227 0.02281286 0.11557307 -0.3351595 0.2923622 0.26423228 0.18423851 0.1413088
-0.10348393 0.07757537 0.021810248 0.47349435 -0.20887084 0.20598586 0.3451314 0.117017284
0.11088211 0.053276144 0.2765656 0.36608914 0.36598817 -0.07301409 0.2786355 0.20043689
0.34129766 0.34524864 0.053235456 0.44429848 0.11864468 -0.025706869 0.029425798 -0.46549085
-0.011306245 0.27117085 0.45459378 0.06625444 0.20370471 -0.2359595 -0.13784581 0.05286494
0.3219673 0.28470272 0.48461267 0.43337515 0.19345659 0.018918678 -0.42348468 0.115141995
-0.33848146 0.2724335 0.37194672 0.53767246 0.07104673 0.55952066 0.39910692 0.21373877
0.32459357 0.105714835 0.5243172 -0.22527424 0.15416245 -0.3191584 -0.036318388 0.060468297
0.027009571 -0.21819521 -0.4581155 0.23635215 0.070534 0.4583988 0.5288281 0.013476995
-0.17363495 -0.17077485 -0.01361618 -0.10123564 -0.019636162 -0.13259798 -0.08289442 -0.24882647
00000000: 895c a93e e972 e9bd 5358 66be 5007 54bd
00000010: a302 453e f225 2abf 5138 913e 1d1c aa3c
00000020: 3a64 303d e7e7 0a3e a471 ac3e d6e7 133e
00000030: 7a8e 053e c004 553e 137b 98bd 50ea b33d
00000040: 2885 bf3d db15 9f3d 4788 bb3e 570f 57bc
00000050: c9e4 59bf 02f5 523e e102 bdbd 07fa e639
00000060: aa80 833e 1569 a4bb 6044 0f3e 3550 873e
00000070: 9518 21bd 2b6d a7bc 16b7 5d3e 225e 473e
00000080: 8311 0b3e 2b2c 3b3e 57b6 7ebe 019f f03d
00000090: d5f3 e33c b369 5e3e 720d 9b3e 95dd d53e
000000a0: 7669 563e d47e 813e c57a d9bd 594a 9d3d
000000b0: ce5c 893e 1d10 28bd b11c a63d 6dda 18be
000000c0: da2b 293d cc8d 84be 8223 c43d 7c2c 75be
000000d0: 0766 b8be f14a e13e 7de1 3d3e 78bf 9b3e
000000e0: 4c55 ef3e 2134 5e3e 18aa 18be 4a97 563c
000000f0: fa34 40be db0e e83d f784 783e 7796 a03e
00000100: 1c68 b13e 75ab 7a3e 92f4 39be 9bde b43e
00000110: fd5e fd3e a4d3 cc3e eac8 8f3d f400 853d
00000120: 11ed 0e3f d0fb db3d 98a2 84be b936 b83e
00000130: 91ff 42be 3907 2f3c 1856 083d f0e2 973d
00000140: fc2d d6be 7938 193e b59b 713e 5c45 6cbd
00000150: 6758 a73e 00c9 c13a 3252 1d3e 58cb bb3e
00000160: 3015 983e f3e9 ffbd b559 3f3f 8d46 2a3e
00000170: f749 2f3b 93d7 933e b458 e93e 8226 93bc
00000180: 308d 04bd ee6a 0e3f 0b53 313d 83f5 463e
00000190: 6fc7 333e e313 063e ba81 12be 4a8b 143e
000001a0: 0154 4b3d 9ce5 4c3e 5c36 64be 5aaf 63bd
000001b0: 32b2 6a3d 11ac 3dbe 89e6 37bc 4436 83be
000001c0: 1856 51be b431 a4be 8d7b b9be 3bd0 96be
000001d0: 9603 343f 54e2 65bc 1d7c 2ebd 3567 e9bd
000001e0: 4496 d73d a50e 9b3d 809a e9bd f5cb e03d
000001f0: 2aa9 74be 4d42 c73e 60b4 6d3e c5aa c9bd
00000200: 91a6 58be 54d4 db3d 1506 403e 0ce2 d0be
00000210: 6469 b6be 05e8 723e e1c3 e7be adbd 073e
00000220: 67df e0bd bdad cfbe a1d1 1b3e c603 91be
00000230: 3ca0 c53d 0d60 043e 01b8 dd3e 3a99 743d
00000240: 7134 60be 8273 543d 58c1 723d 5a2b 07be
00000250: 4eb0 053e bcb9 643c 5d14 0fbf ea7e 4b3e
00000260: 51b2 23bc bcab 41bd 061b 1d3e 2773 d6bd
00000270: 6fb0 d8bd 8a26 cebc a5f1 c1bc a745 43ba
00000280: 3488 113e 3b72 a9bc 1b9d c7bc 4f24 b3bd
00000290: 8cfd 0c3e 2cd6 67be 64cd 393e 4107 0e3e
000002a0: 0b3c 013e ed42 7dbe 6598 bf3e b070 4ebe
000002b0: d4a3 17bd 38f4 c0be ed77 c03b 8df9 54be
000002c0: b296 833d 09e2 ba3c 93b1 ec3d 079a abbe
000002d0: 80b0 953e 7449 873e 05a9 3c3e 41b3 103e
000002e0: 62ef d3bd d6df 9e3d 68ab b23c da6d f23e
000002f0: 3de2 55be f5ed 523e 10b5 b03e c2a6 ef3d
00000300: 2916 e33d 1638 5a3d 029a 8d3e 0970 bb3e
00000310: cd62 bb3e 6988 95bd 50a9 8e3e 543f 4d3e
00000320: 91be ae3e 6ec4 b03e 6c0d 5a3d 177b e33e
00000330: fbfb f23d 3697 d2bc 5f0e f13c d154 eebe
00000340: d43d 39bc e8d6 8a3e 84c0 e83e 68b0 873d
00000350: f897 503e 5e9f 71be 7427 0dbe e888 583d
00000360: e6d8 a43e 8ec4 913e 271f f83e 59e3 dd3e
00000370: 7c19 463e 58fb 9a3c fcd2 d8be 91cf eb3d
00000380: 714d adbe 677c 8b3e cd6f be3e e7a4 093f
00000390: f380 913d bf3c 0f3f be57 cc3e 56de 5a3e
000003a0: 2131 a63e 0581 d83d a739 063f 4aae 66be
000003b0: c3dc 1d3e bb68 a3be 97c2 14bd 9bad 773d
000003c0: 2d43 dd3c 916e 5fbe 1d8e eabe 4c06 723e
000003d0: 2174 903d 3fb3 ea3e 4761 073f 9dce 5c3c
000003e0: 5ccd 31be 9adf 2ebe 6616 5fbc a254 cfbd
000003f0: 04dc a0bc c4c7 07be 8dc4 a9bd 5ecc 7ebe

conv3.bias f4 [12]
0.016159158 0.0018330262 0.017144037 0.048530977 -0.15990804 -0.024271104 -0.03895487 0.01273447
0.0013707778 -0.07001153 0.014178593 -0.11193838
00000000: 3660 843c 2742 f03a a771 8c3c 6bc8 463d
00000010: efbe 23be 32d4 c6bc 248f 1fbd 3da4 503c
00000020: acab b33a 3462 8fbd 544d 683c f33f e5bd

conv4.weight f4 [16, 12, 3, 3]
0.0034694711 -0.07632195 0.24960162 -0.122567736 -0.45986524 -0.036349196 -0.039607793 -0.09555893
-0.010651201 0.006955858 0.14341842 0.064853474 0.04128079 -0.27396414 0.06081705 0.01718685
-0.01638422 -0.07135339 -0.031759523 -0.21183518 -0.09195394 0.011420019 -0.03750726 -0.07279435
-0.40218282 0.09207846 0.27095193 0.012269769 -0.005520759 0.040081743 0.11815759 0.03427036
0.06513169 0.074685924 0.19431524 -0.124118045 0.063886896 -0.15295398 -0.015870294 0.019089712
0.2109091 0.04645735 0.06952017 -0.07866983 -0.13469686 -0.16075414 -0.23730761 -0.012321864
-0.06382571 -0.16299483 0.048092086 -0.029305447 0.24353403 0.11218352 -0.053523194 0.07931999
0.08421313 -0.03237811 -0.062415127 -0.19005091 0.008273395 0.028709153 -0.22485538 0.013040841
0.1514491 -0.13731155 0.106723055 -0.18875676 -0.27764818 -0.016078671 -0.083172396 0.07885913
0.090667844 -0.006049229 0.10396262 0.04078957 -0.08323656 -0.095161185 -0.17935346 -0.04984293
0.006245043 -0.10551653 -0.16511346 -0.017386675 -0.27188236 -0.04084268 0.0076694414 -0.08954568
-0.06749596 -0.15241644 -0.10188023 0.15446503 -0.14123294 0.11302003 0.13046375 0.11759378
-0.12486217 0.17372027 -0.11507506 0.05117036 -0.14177248 -0.020175967 0.26081285 0.34438306
0.17223078 0.18442261 0.20973222 0.0022585844 0.066304974 -0.019128988 0.15288967 -0.44946918
-0.52770823 -0.13473539 0.01734948 -0.19169992 0.012422084 -0.17961247 0.103376865 0.10469769
-0.026152648 0.109617464 0.0069048926 -0.08178288 -0.22062023 0.016802534 0.0031755688 -0.078235514
-0.17783931 0.26187074 -0.067135446 -0.16475292 -0.24864297 0.2436587 0.3721649 -0.101491004
-0.25926092 -0.11556495 0.2681414 -0.09676037 -0.22003575 0.25980404 0.3576914 -0.14473541
-0.03399998 -0.18004441 -0.11349759 -0.046018388 0.2591184 -0.11084094 -0.13796423 -0.16372685
-0.17289867 -0.09693826 -0.04585088 0.20479411 0.029390112 -0.018467763 -0.025306808 0.11240679
0.2898888 0.22709511 -0.16307491 -0.021750016 0.07496898 -0.062226355 -0.26106223 -0.0083369445
-0.099964574 -0.07857288 -0.23395942 -0.046876468 0.15039684 -0.22973715 0.17369582 -0.36556542
-0.028207397 0.16537584 0.13070613 -0.03962746 -0.1571257 0.05361474 -0.01971621 -0.28086218
-0.008665374 -0.114199795 -0.12761797 -0.061056376 -0.11837777 -0.0063036853 -0.0635167 -0.14452747
-0.011775763 -0.030616986 0.07152051 -0.13875982 0.03696178 0.0424546 0.04833434 0.20758046
-0.060464025 -0.072644815 0.00200394 -0.13924864 -0.112253405 -0.00051268365 0.040899374 -0.07236092
-0.21321914 0.057400785 0.1410046 0.07287077 0.2133738 0.1157919 0.2980599 0.09420692
-0.108550146 -0.31051302 0.122069076 -0.16206166 0.018102704 -0.39951986 -0.115275204 0.23261555
-0.1964756 -0.22588302 0.07487191 0.00015839444 -0.24319953 -0.30914918 0.025443047 -0.3265457
0.110402204 0.06541025 0.065955676 -0.25464502 0.13849212 -0.1637958 -0.009945714 0.114269294
-0.28407955 -0.21254894 -0.03389452 0.23182482 -0.14621781 -0.12319683 0.029805964 -0.078398965
0.028599638 -0.011066461 -0.15981098 -0.12117712 0.37478682 0.27408394 0.018418923 0.22069012
00000000: 1160 633b af4e 9cbd 9197 7f3e cb04 fbbd
00000010: 7573 ebbe e5e2 14bd c83b 22bd 66b4 c3bd
00000020: 6082 2ebc f7ed e33b 47dc 123e e6d1 843d
00000030: 0c16 293d 0745 8cbe 4d1b 793d 70cb 8c3c
00000040: 3338 86bc ba21 92bd 4616 02bd 52eb 58be
00000050: 5952 bcbd 081b 3b3c 36a1 19bd 3415 95bd
00000060: e8ea cdbe a293 bc3d 36ba 8a3e 2407 493c
00000070: 7ce7 b4bb c12c 243d 9bfc f13d 145f 0c3d
00000080: c363 853d eff4 983d 93fa 463e 9a31 febd
00000090: 22d7 823d f89f 1cbe 6b02 82bc 0762 9c3c
000000a0: 8ef8 573e 104a 3e3d 9760 8e3d a61d a1bd
000000b0: f9ed 09be bc9c 24be c400 73be a5e1 49bc
000000c0: 0eb7 82bd 1ee8 26be 35fc 443d fa11 f0bc
000000d0: fc60 793e 79c0 e53d 233b 5bbd 8572 a23d
000000e0: ef77 ac3d e99e 04bd 01a7 7fbd b59c 42be
000000f0: 228d 073c 752f eb3c 7d40 66be 40a9 553c
00000100: 7915 1b3e 669b 0cbe 9e91 da3d 7449 41be
00000110: e727 8ebe 6bb7 83bc 4a56 aabd e580 a13d
00000120: 10b0 b93d 9c38 c6bb 5bea d43d f712 273d
00000130: ee77 aabd dee3 c2bd 6fa8 37be 1a28 4cbd
00000140: 38a3 cc3b 0d19 d8bd 8113 29be 806e 8ebc
00000150: 2a34 8bbe a74a 27bd f04f fb3b ba63 b7bd
00000160: 523b 8abd 0e13 1cbe 95a6 d0bd 152c 1e3e
00000170: 5e9f 10be 0c77 e73d 4a98 053e 02d5 f03d
00000180: bdb7 ffbd bae3 313e 79ac ebbd 0398 513d
00000190: ce2c 11be 1248 a5bc 4389 853e fa52 b03e
000001a0: 445d 303e 48d9 3c3e 0bc4 563e c204 143b
000001b0: e7ca 873d 65b4 9cbc 1c8f 1c3e d320 e6be
000001c0: e317 07bf 13f8 09be 7f20 8e3c fc4c 44be
000001d0: ff85 4b3c 55ec 37be 40b7 d33d be6b d63d
000001e0: 143e d6bc 1f7f e03d 7042 e23b c87d a7bd
000001f0: 45ea 61be 78a5 893c 341d 503b f139 a0bd
00000200: 821b 36be ec13 863e 4f7e 89bd fdb4 28be
00000210: 439c 7ebe ab81 793e 668c be3e 84da cfbd
00000220: d9bd 84be 51ad ecbd d449 893e 4d2a c6bd
00000230: 0d51 61be 0905 853e 5423 b73e 8535 14be
00000240: 9043 0bbd 905d 38be 6d71 e8bd c77d 3cbd
00000250: 2bab 843e 9300 e3bd 7f46 0dbe 03a8 27be
00000260: 590c 31be 9187 c6bd 22ce 3bbd 8cb5 513e
00000270: 88c3 f03c b549 97bc 3950 cfbc 8835 e63d
00000280: 4e6c 943e 9f8b 683e 1cfd 26be 172d b2bc
00000290: 5689 993d 10e1 7ebd f3a9 85be ae97 08bc
000002a0: 3aba ccbd d1ea a0bd 0f93 6fbe 8a01 40bd
000002b0: a101 1a3e 3740 6bbe 51dd 313e 642b bbbe
000002c0: 3313 e7bc 4958 293e d4d7 053e 6750 22bd
000002d0: 8fe5 20be 219b 5b3d e483 a1bc 2bcd 8fbe
000002e0: 36f9 0dbc 95e1 e9bd 49ae 02be 4016 7abd
000002f0: 0b70 f2bd 258f cebb 0b15 82bd 02ff 13be
00000300: 21ef 40bc 79d0 fabc 5879 923d 0e17 0ebe
00000310: 3c65 173d e0e4 2d3d 3bfa 453d f98f 543e
00000320: 20a9 77bd cec6 94bd 8954 033b 3297 0ebe
00000330: 1de5 e5bd 9e65 06ba 1a86 273d f631 94bd
00000340: 1e56 5abe 161d 6b3d 8363 103e 453d 953d
00000350: a97e 5a3e 4e24 ed3d 4f9b 983e 8fef c03d
00000360: 8a4f debd 90fb 9ebe 5aff f93d 7ef3 25be
00000370: 1f4c 943c de8d ccbe 6815 ecbd c532 6e3e
00000380: e630 49be e14d 67be 7256 993d af16 2639
00000390: 4c09 79be cd48 9ebe f06d d03c ff30 a7be
000003a0: 8d1a e23d cff5 853d c513 873d d560 82be
000003b0: e1d0 0d3e 16ba 27be 59f3 22bc 0506 ea3d
000003c0: e072 91be 6ea6 59be fbd4 0abd 7c63 6d3e
000003d0: 1fba 15be 9f4e fcbd a32b f43c a38f a0bd
000003e0: ca49 ea3c 1a50 35bc 7da5 23be b62b f8bd
000003f0: 0fe4 bf3e bb54 8c3e 48e3 963c 97fc 613e

conv4.bias f4 [16]
-0.018831268 0.0049114996 -0.03319551 0.015885776 0.015767163 0.054606467 -0.043087337 -0.054812875
-0.030376272 0.0061002714 -0.039240256 -0.010587875 -0.063184395 -0.11604418 -0.014028838 -0.012359467
00000000: 0844 9abc a5f0 a03b 04f8 07bd e322 823c
00000010: 232a 813c 08ab 5f3d 597c 30bd 7783 60bd
00000020: a9d7 f8bc c9e4 c73b 64ba 20bd c478 2dbc
00000030: d266 81bd 92a8 edbd 36d9 65bc 5d7f 4abc

bn1.weight f4 [3]
0.9384265 0.79276055 1.1345619
00000000: b83c 703f 5bf2 4a3f 5339 913f

bn1.bias f4 [3]
0.17300043 -0.16534819 0.47786438
00000000: 0627 313e 0951 29be a4aa f43e

bn1.running_mean f4 [3]
-0.48901972 0.040485755 0.8552394
00000000: cb60 fabe 64d4 253d f8f0 5a3f

bn1.running_var f4 [3]
0.6067628 0.27695617 1.4276224
00000000: cf54 1b3f 33cd 8d3e 55bc b63f

bn2.weight f4 [4]
1.2069745 0.88070077 1.2764745 0.9294865
00000000: 247e 9a3f 9b75 613f 8463 a33f d4f2 6d3f

bn2.bias f4 [4]
0.9205078 -0.4604659 0.36619547 0.31754342
00000000: 66a6 6b3f 30c2 ebbe f97d bb3e 0d95 a23e

bn2.running_mean f4 [4]
0.3489411 0.518213 0.6114127 -1.1729573
00000000: 68a8 b23e 9ba9 043f 8b85 1c3f 7723 96bf

bn2.running_var f4 [4]
3.8014631 0.5124898 4.6273565 1.4959172
00000000: 2c4b 7340 8832 033f 4e13 9440 377a bf3f

bn3.weight f4 [12]
0.98450553 0.7563972 0.9886793 1.0114324 1.2549869 0.97676986 1.0065455 0.9804917
0.9814625 0.8786671 0.7953546 1.334749
00000000: 8e08 7c3f 3fa3 413f 161a 7d3f 9e76 813f
00000010: 69a3 a03f 970d 7a3f 7cd6 803f 8101 7b3f
00000020: 2041 7b3f 54f0 603f 5c9c 4b3f 0ed9 aa3f

bn3.bias f4 [12]
-0.5541422 0.21201485 0.5620838 0.15463684 -0.15942068 0.2262204 -0.15052722 0.047833126
0.15182418 -0.16518334 -0.114485145 0.9825164
00000000: 43dc 0dbf 6c1a 593e b9e4 0f3f 1f59 1e3e
00000010: 2d3f 23be 52a6 673e cf23 1abe abec 433d
00000020: cc77 1b3e d225 29be 3077 eabd 3286 7b3f

bn3.running_mean f4 [12]
0.24394405 2.9369729 1.7031857 -1.0384636 -0.7364521 2.09539 1.0464938 1.1540817
2.6799073 1.7082374 1.6127522 -1.6805805
00000000: 78cc 793e 5df7 3b40 fd01 da3f 60ec 84bf
00000010: 2088 3cbf df1a 0640 82f3 853f f3b8 933f
00000020: 9a83 2b40 86a7 da3f aa6e ce3f 431d d7bf

bn3.running_var f4 [12]
1.3286126 22.460163 12.658251 2.8951952 0.5750121 14.7117405 6.0629416 4.9883013
15.832234 11.50103 9.836717 6.4328966
00000000: fa0f aa3f 6aae b341 3288 4a41 e14a 3940
00000010: fe33 133f 4a63 6b41 9e03 c240 2aa0 9f40
00000020: d550 7d41 3804 3841 3163 1d41 4ada cd40

bn4.weight f4 [16]
0.7839776 0.71474123 0.9266677 0.7703385 0.8074096 0.77205473 0.83897924 0.6160004
0.73893505 0.712204 0.85718167 1.0200444 0.65897745 0.8283387 0.9692455 0.83321464
00000000: c2b2 483f 48f9 363f 183a 6d3f e734 453f
00000010: 65b2 4e3f 61a5 453f 58c7 563f 34b2 1d3f
00000020: d92a 3d3f 0053 363f 4270 5b3f d190 823f
00000030: bfb2 283f 010e 543f 7920 783f 8e4d 553f

bn4.bias f4 [16]
0.048399147 0.012450731 -0.22381124 -0.06677389 -0.050902423 -0.001421301 -0.23724283 0.31056693
-0.12609893 -0.108395666 -0.02811245 -0.10355046 -0.003375961 -0.06519179 -0.1133246 -0.10786413
00000000: 2f3e 463d 27fe 4b3c c62e 65be c0c0 88bd
00000010: 0f7f 50bd f34a baba c9ef 72be a102 9f3e
00000020: 1420 01be 8cfe ddbd 154c e6bc 4312 d4bd
00000030: 3a3f 5dbb 4683 85bd ba16 e8bd dee7 dcbd

bn4.running_mean f4 [16]
0.6067327 0.22770214 0.40483472 0.060559522 0.79319954 0.7995241 1.4236386 -2.0129173
1.9571959 -1.4153824 1.5302936 -0.067521445 -1.427556 0.5475434 0.65291435 2.4138622
00000000: d652 1b3f c02a 693e 7f46 cf3e 430d 783d
00000010: 200f 4b3f 9dad 4c3f ca39 b63f a3d3 00c0
00000020: 6585 fa3f 402b b5bf a9e0 c33f af48 8abd
00000030: 28ba b6bf ce2b 0c3f 6525 273f b87c 1a40

bn4.running_var f4 [16]
6.320052 2.1363583 16.231628 1.2898808 0.8311692 2.400379 4.0105906 5.0847974
2.738147 4.5622783 9.9501295 5.8014183 5.022617 11.8400955 9.494352 4.792709
00000000: de3d ca40 18ba 0840 60da 8141 d01a a53f
00000010: 81c7 543f cf9f 1940 c256 8040 a9b6 a240
00000020: cd3d 2f40 2ffe 9140 bb33 1f41 38a5 b940
00000030: 47b9 a040 0871 3d41 dee8 1741 df5d 9940

fc5.weight f4 [64, 16]
-0.11152596 -0.038625542 -0.073284626 -0.0014615308 0.0024933023 0.11243512 -0.12893224 0.0013931356
-0.060363244 0.0036846497 0.05443137 0.10206177 0.0018309996 -0.008910151 -0.06750127 0.17429006
0.037421975 -0.10155868 -0.28077337 -0.00021947474 0.0034810281 0.10310135 0.124616094 0.0008357007
-0.082856 0.002776121 0.13034254 -0.11906351 0.005388087 -0.13851579 0.28038317 -0.011137402
-0.14341061 0.114158675 0.054226864 0.003472841 0.0056223124 0.006228898 -0.042443424 -0.012678308
-0.06858861 0.004156101 0.06045509 -0.09979976 0.0043726936 -0.2798077 0.27349105 0.13445605
0.37243944 0.16631187 0.82873565 -0.01654654 0.00987484 -0.29216915 -0.15844177 -0.0010891851
-0.062325582 -0.0077616735 -0.16712461 0.057568174 -0.0092298 -0.17210494 -0.66057444 0.18781675
0.12992609 0.220846 0.25457388 0.0016389217 -0.000992297 -0.27234572 0.13324094 -0.016563967
0.31764707 0.0032894758 -0.2240604 -0.37853536 -0.00065752916 -0.0786931 0.44766322 -0.39914632
0.17152661 -0.047583167 0.3827345 -0.012344523 0.01108653 0.08076644 -0.14959192 -0.0012612181
-0.010821725 0.00019016 0.012113212 0.038338006 -0.0007530546 -0.23215224 -0.35691088 0.12815118
-0.10753131 0.1611221 0.39611673 9.5827396e-05 0.0068900413 -0.039738584 -0.1757403 -0.010785472
0.02010605 0.0027170733 -0.021855313 0.071064055 -0.001515426 -0.16687073 -0.20611231 0.13335034
0.0016617734 0.074822076 0.5861325 -0.33326468 -0.08494644 -0.6074977 0.9226203 2.7185311
0.97886974 -1.2959923 -0.3018359 1.0994488 -1.1326251 -0.4308899 -0.35848647 -0.037665207
-0.48314935 0.15356427 0.52417564 0.010215979 -0.027066387 0.14294544 -0.013492182 0.0026506009
-0.15126128 -0.018873658 0.0943193 0.32843763 -0.014938145 -0.11129754 -0.47089192 0.12142582
-0.14014398 0.13395403 0.30105832 0.0004328235 0.0010998517 -0.0022727132 -0.0046299095 -0.0072303023
0.074971125 0.000572724 0.018460577 0.015247553 -0.0048474004 -0.14471184 -0.08242072 -0.08370626
-0.19002701 -0.20052733 0.06512724 -0.008352999 0.007149932 0.50526667 0.028776828 0.0007726843
-0.08058605 0.0054799556 0.3832403 0.15067422 0.004318484 -0.39108536 -0.2812083 -0.007124432
-0.2884495 0.17286226 0.19487934 0.008062118 -0.008696904 -0.0050100577 0.11864366 -0.010227467
0.121283114 -0.001685384 0.055631176 0.035146173 -0.0037184267 -0.02787134 -0.0028070295 -0.25916195
-0.0550521 0.28103423 0.47126025 0.0033940584 0.004177165 -0.26936328 -0.15217434 -0.012124768
-0.0016942661 -0.0014180412 -0.12655331 0.083193436 -0.0070079784 -0.032672767 -0.24222563 0.1307618
0.036742467 -0.021743892 0.25119615 -0.0034578876 -0.0010783807 0.091809854 0.10762248 -0.002790662
0.05499146 -0.0021124987 0.04941688 -0.060889892 -0.0031300473 -0.21724983 -0.04915534 -0.17541525
-0.12383985 -0.14523493 -0.210611 -0.00065264234 0.0013178068 0.18603897 0.0199361 0.009109908
-0.08846923 0.0030943349 0.20441473 0.31660312 -0.00043698217 0.2120651 -0.43985257 -0.008628738
0.21389532 0.0626704 -0.22963388 0.0027599875 0.0031841188 -0.2427929 -0.03421133 -0.006394872
0.18150808 0.0060910494 -0.2754689 -0.3605081 0.0060495096 0.1035495 0.63213855 -0.058693312
00000000: b967 e4bd d135 1ebd 4016 96bd d690 bfba
00000010: ac66 233b 6244 e63d d006 04be e099 b63a
00000020: 733f 77bd 2a7a 713b 6ef3 5e3d c305 d13d
00000030: 27fe ef3a e2fb 11bc 1b3e 8abd 1879 323e
00000040: c947 193d fffd cfbd 87c1 8fbe cd22 66b9
00000050: f621 643b cd26 d33d b936 ff3d ed12 5b3a
00000060: 68b0 a9bd 95ef 353b 8478 053e 92d7 f3bd
00000070: 8d8e b03b 15d7 0dbe 628e 8f3e a679 36bc
00000080: 3bda 12be 06cc e93d fd1c 5e3d 9b98 633b
00000090: 603b b83b c91b cc3b 28d9 2dbd aeb8 4fbc
000000a0: 2f78 8cbd e72f 883b c29f 773d d163 ccbd
000000b0: d048 8f3b f442 8fbe 0507 8c3e d9ae 093e
000000c0: 62b0 be3e a94d 2a3e 0528 543f 9c8c 87bc
000000d0: 15ca 213c 3297 95be 8f3e 22be fdc2 8eba
000000e0: 1c49 7fbd a355 febb b722 2bbe 9bcc 6b3d
000000f0: 9638 17bc 473c 30be 681b 29bf 0953 403e
00000100: 580b 053e 7425 623e 8257 823e 16d1 d63a
00000110: f60f 82ba e670 8bbe 5070 083e 28b1 87bc
00000120: a3a2 a23e 3f94 573b 1770 65be 63cf c1be
00000130: 095e 2cba d929 a1bd 1d34 e53e e85c ccbe
00000140: aca4 2f3e 91e6 42bd c7f5 c33e af40 4abc
00000150: 47a4 353c e068 a53d a02e 19be 754f a5ba
00000160: 9b4d 31bc b065 4739 7e76 463c 5008 1d3d
00000170: a468 45ba 51b9 6dbe 06bd b6be 103a 033e
00000180: 6039 dcbd 31fd 243e d0cf ca3e f1f6 c838
00000190: dbc5 e13b edc4 22bd 44f5 33be 8cb5 30bc
000001a0: 71b5 a43c ed10 323b ea09 b3bc 088a 913d
000001b0: 42a1 c6ba 29e0 2abe 1b0f 53be fe8c 083e
000001c0: ddcf d93a 513c 993d c80c 163f aba1 aabe
000001d0: 66f8 adbd f884 1bbf d830 6c3f 6afc 2d40
000001e0: 3597 7a3f 13e3 a5bf 3c8a 9abe bdba 8c3f
000001f0: dcf9 90bf 9a9d dcbe 8a8b b7be d546 1abd
00000200: 5a5f f7be f43f 1d3e 6030 063f ec60 273c
00000210: 54ba ddbc 4a60 123e 500e 5dbc b4b5 2d3b
00000220: 3de4 1abe ee9c 9abc 7a2a c13d fa28 a83e
00000230: 1fbf 74bc f7ef e3bd bf18 f1be 1aae f83d
00000240: e781 0fbe 3f2b 093e 5124 9a3e 96ec e239
00000250: e628 903a cdf1 14bb 7fb6 97bb 2cec ecbb
00000260: 768a 993d db22 163a a33a 973c dfd0 793c
00000270: f1d6 9ebb 572f 14be 32cc a8bd 306e abbd
00000280: 7196 42be 0957 4dbe 6e61 853d 04db 08bc
00000290: fa49 ea3b 2859 013f 62bd eb3c f78d 4a3a
000002a0: 4d0a a5bd 3391 b33b 1338 c43e 584a 1a3e
000002b0: 1282 8d3b 573c c8be 89fa 8fbe 1174 e9bb
000002c0: a7af 93be ce02 313e 738e 473e f916 043c
000002d0: 767d 0ebc 692b a4bb 72fb f23d 1b91 27bc
000002e0: 4863 f83d 1ae8 dcba 84dd 633d 6ff5 0f3d
000002f0: d9b0 73bb 7052 e4bc 24f6 37bb e0b0 84be
00000300: 507e 61bd b8e3 8f3e 0649 f13e da6e 5e3b
00000310: 9ae0 883b fce9 89be 97d3 1bbe f7a6 46bc
00000320: 2312 deba 91dd b9ba 3197 01be 5261 aa3d
00000330: 2fa3 e5bb e1d3 05bd ff09 78be 6ce6 053e
00000340: 457f 163d 3f20 b2bc c89c 803e ba9d 62bb
00000350: 7458 8dba ce06 bc3d 2d69 dc3d 8ae3 36bb
00000360: ba3e 613d d971 0abb 5b69 4a3d ae67 79bd
00000370: 7b21 4dbb bd76 5ebe 1c57 49bd 0ea0 33be
00000380: bf9f fdbd 77b8 14be 69aa 57be 1616 2bba
00000390: 42ba ac3a 0081 3e3e 0851 a33c b941 153c
000003a0: 5b2f b5bd 53ca 4a3b 1852 513e ce19 a23e
000003b0: c11a e5b9 9827 593e 5b34 e1be 8d5f 0dbc
000003c0: 6007 5b3e 5759 803d 2525 6bbe e8e0 343b
000003d0: a6ac 503b b49e 78be 2e21 0cbd 138c d1bb
000003e0: 41dd 393e 6d97 c73b 420a 8dbe 8594 b8be
000003f0: f73a c63b c311 d43d d5d3 213f 6668 70bd

fc5.bias f4 [64]
-0.00905431 -0.009927701 0.00068494317 0.020558037 0.026901241 0.0028995052 0.009054993 -0.66076887
0.017939685 0.013341357 -0.009288447 0.017322967 0.016257545 0.011754125 -0.0134139 0.0008404783
-0.0042853146 -0.006500414 -0.024053631 -0.0012647423 0.0018202347 0.00022712414 0.018530976 -0.009009981
-0.0061530964 -0.008000708 -0.0320727 0.00020058955 0.0018683781 -0.005840551 0.0043629915 -0.014497945
0.086993076 0.004086366 -0.0007274153 0.015191266 -0.009418474 0.006969918 -0.00296236 0.011660665
-0.019256392 -0.028847508 -0.009587377 0.0062040747 -0.010297817 0.012465457 0.0023893365 0.032640204
-0.0046727713 0.026127055 -0.0047059273 -0.0127218515 -0.0033081947 -0.00600259 0.0020278448 -0.027980572
0.004014323 0.19327985 -0.00089013955 0.02423064 0.0019559097 0.01400104 0.015093835 0.0032156294
00000000: 8758 14bc cca7 22bc c28d 333a 5469 a83c
00000010: fe5f dc3c a005 3e3b 655b 143c 2628 29bf
00000020: 3ff6 923c b595 5a3c 922e 18bc e5e8 8d3c
00000030: 8b2e 853c 6094 403c f9c5 5bbc 8b53 5c3a
00000040: d36b 8cbb 6d01 d5bb 1f0c c5bc b6c5 a5ba
00000050: f194 ee3a 2c28 6e39 46ce 973c 999e 13bc
00000060: ea9f c9bb 6715 03bc aa5e 03bd 5955 5239
00000070: 5ee4 f43a 1862 bfbb 6df7 8e3b ca88 6dbc
00000080: 6d29 b23d ece6 853b 04b0 3eba cae4 783c
00000090: f14f 1abc e963 e43b 2724 42bb 600c 3f3c
000000a0: 95bf 9dbc 9c51 ecbc 6014 1dbc 8d4b cb3b
000000b0: 2db8 28bc eb3b 4c3c 6a96 1c3b bcb1 053d
000000c0: 0c1e 99bb 6808 d63c 2e34 9abb 506f 50bc
000000d0: 4cce 58bb 60b1 c4bb 97e5 043b 8337 e5bc
000000e0: 958a 833b 27eb 453e 4158 69ba 567f c63c
000000f0: b82e 003b 9e64 653c 224c 773c 4fbd 523b

fc6.weight f4 [64, 16]
-0.10035981 0.08981427 0.10534887 0.0041142856 -0.0031453886 -0.04070796 0.12048637 -0.004015431
-0.020261088 -0.0019424085 0.06733367 0.031808462 -0.0034494903 -0.045292616 -0.05203931 -0.10743563
0.042700518 0.046625257 -0.0497192 0.001960605 0.00087954686 -0.114578195 -0.071455166 -0.00081652397
0.0021976887 0.0008187227 -0.098058335 -0.038261283 0.00089079124 0.08242142 0.09947452 0.08342609
-0.3118248 -0.034956615 -0.21484452 0.0045943325 4.3943463e-05 0.17476867 -0.07315642 0.0035247859
-0.2118334 0.0024145553 0.21870843 0.28958872 0.0007532847 0.047250014 -0.21027167 0.24499173
-0.038056936 0.11660319 0.18302588 0.0026105917 1.8581917e-05 -0.094700195 0.00013410284 -0.0059133107
-0.017114978 -0.0012823439 -0.01771626 -0.0059256977 -0.002571103 -0.0759234 -0.019447638 0.012760222
0.17519607 0.02229876 -0.07067648 3.5322268e-05 0.0008597768 -0.16599683 -0.041275453 3.495574e-05
0.09545552 0.00081724045 -0.1850158 -0.14616266 0.0017402646 0.12961313 0.20316406 -0.021330852
-0.1664178 0.030921357 0.19239987 -0.0008433595 -0.00087813 0.1549954 0.09167936 -0.0086145075
0.17265213 0.0028775998 0.09397178 -0.022591038 -0.0017800455 -0.17119026 -0.015124767 -0.26980868
-0.115631975 -0.019338368 0.1598447 -0.003603187 0.0046885875 0.11950622 -0.08657846 -0.002596995
0.1241349 0.0041176854 0.047533643 0.20440236 -0.002751051 0.07261605 -0.39361867 -0.08816498
0.51454496 0.7933494 -0.7088721 1.21124 0.23423071 0.50217515 0.12937935 -0.27392608
1.3116466 0.40358835 0.3931027 -1.0238792 -0.16421998 -0.34229687 -0.26307204 0.8753766
-0.03230247 -0.23396492 -0.86594343 0.015493092 -0.03245928 0.108628735 0.28134394 0.031167084
-0.36242634 -0.014588301 0.10213287 -0.120912954 0.0016107077 0.14428844 0.5905078 0.2485396
-0.12574103 -0.076392904 -0.08154913 -0.00032542393 -0.0025464064 0.19393277 0.16876327 0.00070863665
0.027139066 0.00083447725 0.17719676 0.027628765 0.00028363522 -0.08215361 -0.01382037 -0.1999689
0.63941634 0.11140587 0.63467824 -0.010775623 0.00041739488 -0.43788585 0.013784099 -0.004154609
0.29357836 -0.0087418975 -0.4632927 -0.3501584 -0.0058324453 0.017661339 -0.01984769 -0.29123342
-0.24538776 -0.124774985 0.02785738 -0.002984716 0.00011982306 0.36247557 0.22689477 0.004142954
-0.2666191 -0.0023023994 0.46196342 0.25197437 -0.0023858151 -0.30921194 -0.37727568 -0.026887318
0.007868363 -0.087231085 -0.14387062 0.00062236603 -0.003029129 0.010163606 -0.063477196 0.013175844
-0.24150604 -0.0051284963 0.057816498 0.23505895 -0.0017597262 0.17875804 -0.3120603 0.26648802
0.014695752 0.032917045 -0.040778928 0.0018043603 -0.0014079007 -0.06511134 0.043749887 -0.0022869515
0.116532385 0.0013378254 -0.06802551 -0.06959703 8.336107e-05 0.09123032 0.11267114 -0.1429055
0.22444738 0.01670485 0.028141418 -0.0031373464 0.0026450737 -0.15248002 -0.09889971 -0.0022985768
0.2084407 0.0022296098 -0.25361514 -0.19983144 0.0021973313 0.10507433 0.21433803 -0.07155068
0.15855597 0.0756895 0.001936833 0.001856283 -0.00351026 -0.27819407 -0.11210654 0.003097352
0.10100893 -0.0022906556 -0.27300543 -0.004470622 -0.002569805 0.36456057 -0.043341443 0.012976691
00000000: 7289 cdbd 8bf0 b73d 26c1 d73d 21d1 863b
00000010: dd22 4ebb 64bd 26bd 8fc1 f63d e093 83bb
00000020: 95fa a5bc 6a98 feba 3ce6 893d 9749 023d
00000030: d810 62bb c084 39bd 2c27 55bd 3607 dcbd
00000040: bde6 2e3d 20fa 3e3d 5ca6 4bbd 7e7d 003b
00000050: 6491 663a f9a7 eabd 1657 92bd ff0b 56ba
00000060: 1907 103b 8d9f 563a cfd2 c8bd ddb7 1cbd
00000070: fd83 693a 90cc a83d 4cb9 cb3d 4cdb aa3d
00000080: 80a7 9fbe ab2e 0fbd 3400 5cbe 0e8c 963b
00000090: ef4f 3838 8ff6 323e 08d3 95bd 1800 673b
000000a0: dbea 58be 843d 1e3b 1af5 5f3e f944 943e
000000b0: 1578 453a 3b89 413d 7551 57be 1ddf 7a3e
000000c0: 97e1 1bbd a7cd ee3d 236b 3b3e 7616 2b3b
000000d0: 5de0 9b37 2df2 c1bd f59d 0c39 72c4 c1bb
000000e0: b634 8cbc 5214 a8ba b121 91bc 5b2c c2bb
000000f0: f37f 28bb ba7d 9bbd a750 9fbc 4010 513c
00000100: 9966 333e e4ab b63c d5be 90bd ff26 1438
00000110: a562 613a 13fb 29be 7310 29bd 719d 1238
00000120: 2f7e c33d 143c 563a c874 3dbe aaab 15be
00000130: 9719 e43a 4eb9 043e 3d0a 503e 0abe aebc
00000140: 6e69 2abe c94e fd3c 7904 453e e614 5dba
00000150: 4f32 66ba 1db7 1e3e 63c2 bb3d dd23 0dbc
00000160: b8cb 303e 1d96 3c3b 4774 c03d d710 b9bc
00000170: 6a50 e9ba 804c 2fbe dfcd 77bc 5d24 8abe
00000180: 75d0 ecbd 7f6b 9ebc 54ae 233e 7223 6cbb
00000190: b9a2 993b adbf f43d 0c50 b1bd 5932 2abb
000001a0: 703a fe3d a6ed 863b a3b2 423d da4e 513e
000001b0: fa4a 34bb b9b7 943d 6388 c9be d78f b4bd
000001c0: 38b9 033f f218 4b3f a478 35bf ea09 9b3f
000001d0: 2dda 6f3e 8d8e 003f 057c 043e 0a40 8cbe
000001e0: 09e4 a73f 22a3 ce3e c244 c93e 790e 83bf
000001f0: 4829 28be 8941 afbe 61b1 86be ae18 603f
00000200: 984f 04bd 8094 6fbe 78ae 5dbf bdd6 7d3c
00000210: 06f4 04bd be78 de3d 500c 903e 1d52 ff3c
00000220: f28f b9be c503 6fbc 0a2b d13d 36a1 f7bd
00000230: 621e d33a 59c0 133e 852b 173f 2a81 7e3e
00000240: 42c2 00be e273 9cbd 3b03 a7bd a99d aab9
00000250: 9ce1 26bb 5096 463e 47d0 2c3e cdc3 393a
00000260: bf52 de3c d2c0 5a3a 1173 353e b855 e23c
00000270: e0b4 9439 2740 a8bd d56e 62bc a6c4 4cbe
00000280: cab0 233f c328 e43d 467a 223f 3d8c 30bc
00000290: cbd5 da39 9332 e0be b4d6 613c 6323 88bb
000002a0: e74f 963e 2d3a 0fbc b334 edbe f647 b3be
000002b0: 191e bfbb 83ae 903c 9f97 a2bc 8c1c 95be
000002c0: ee46 7bbe 078a ffbd 2935 e43c 3a9b 43bb
000002d0: 8449 fb38 6696 b93e 1a57 683e 9ec1 873b
000002e0: 4c82 88be dae3 16bb 7886 ec3e c902 813e
000002f0: 565b 1cbb 0751 9ebe 472a c1be cb42 dcbc
00000300: 4eea 003c 36a6 b2bd d252 13be 4726 233a
00000310: 5a84 46bb 4185 263c 5500 82bd 7fdf 573c
00000320: 5c4d 77be f20c a8bb fed0 6c3d 4bb3 703e
00000330: 9da6 e6ba 590c 373e 5ec6 9fbe 1e71 883e
00000340: 74c6 703c 06d4 063d ce07 27bd 4980 ec3a
00000350: 4f89 b8ba 1859 85bd 1533 333d aee0 15bb
00000360: 88a8 ee3d f959 af3a f550 8bbd e388 8ebd
00000370: 22d2 ae38 f6d6 ba3d 20c0 e63d d255 12be
00000380: 89d5 653e 9cd8 883c d588 e63c f09b 4dbb
00000390: f958 2d3b b923 1cbe ee8b cabd b8a3 16bb
000003a0: 7b71 553e a51e 123b d8d9 81be 9da0 4cbe
000003b0: 1a01 103b 3631 d73d 6e7b 5b3e 2a89 92bd
000003c0: 7f5c 223e 1903 9b3d 55dd fd3a 864e f33a
000003d0: 640c 66bb 746f 8ebe 1d98 e5bd f2fc 4a3b
000003e0: c5dd ce3d d31e 16bb 5ec7 8bbe 4c7e 92bb
000003f0: 2c6a 28bb afa7 ba3e cc86 31bd 309c 543c

fc6.bias f4 [64]
0.008470963 -0.0019819462 -0.016901327 0.007669897 0.0010713786 0.013667186 0.00455171 -1.3038362
-0.029213976 0.0011635931 0.032907702 -0.0060142423 -0.015256864 0.0051264055 0.00547878 0.0035635468
-0.0031150067 0.002825279 0.015206092 -0.010725629 -0.007245368 -0.01752929 -0.003127804 0.003939815
-0.0071226857 -0.0009304591 -0.009291864 0.006539449 0.005513576 -0.0067464523 -0.00261109 0.018755423
-2.3794823 0.0033646275 -0.0012790042 -0.005213981 0.007830014 0.014087225 0.0073399264 0.0013166763
-0.0016317707 0.0018631694 -0.011421961 0.0121013485 0.0052805934 -0.007583608 0.021098895 -0.031174183
-0.0027689352 0.015257065 -0.015145596 -0.00015434221 0.033616215 -0.004940296 0.011828607 0.0006700765
-0.0022131954 -1.6148981 0.0028902069 0.0002893737 -0.01358826 0.004634812 0.0017149047 0.0008655899
00000000: cbc9 0a3c 8ae3 01bb a774 8abc c253 fb3b
00000010: 806d 8c3a 55ec 5f3c 8326 953b 1be4 a6bf
00000020: 2652 efbc b583 983a 3aca 063d 1f13 c5bb
00000030: edf7 79bc 68fb a73b 5687 b33b 658a 693b
00000040: 2425 4cbb 5128 393b f922 793c 8cba 2fbc
00000050: 8d6a edbb 9699 8fbc d8fb 4cbb 9019 813b
00000060: 6b65 e9bb 0eea 73ba e73c 18bc e048 d63b
00000070: 3aab b43b 5811 ddbb d21e 2bbb f9a4 993c
00000080: 7049 18c0 1581 5c3b 42a4 a7ba 0bda aabb
00000090: 7649 003c 1bce 663c c483 f03b 5394 ac3a
000000a0: 24e1 d5ba 9735 f43a 2d23 3bbc bc44 463c
000000b0: d408 ad3b ea7f f8bb 97d7 ac3c 0061 ffbc
000000c0: 0677 35bb c5f8 793c 3c25 78bc ecd6 21b9
000000d0: 28b1 093d 35e2 a1bb c6cc 413c 13a8 2f3a
000000e0: 420b 11bb fbb4 cebf a069 3d3b 15b7 9739
000000f0: 4ba1 5ebc 9fdf 973b a7c6 e03a c1e8 623a

fc_decode.weight f4 [16, 64]
0.048835825 0.09837245 -0.17596409 0.21128187 -0.022555301 -0.06663187 -0.020264324 -0.029711697
-0.05666199 -0.060104124 0.028207548 0.0036703423 0.13960688 -0.07048617 -0.07671329 -0.019039111
0.076555975 0.087705806 -0.027719602 -0.056320492 -0.019736344 -0.17740403 0.09489871 0.014362947
0.011145759 0.05922966 -0.08513269 0.043441452 0.059439395 0.008769839 -0.0072574364 0.07625356
-0.081141606 0.060045186 0.11497545 -0.1700287 0.024082277 0.03376084 0.07228646 0.0424029
0.06539413 0.07338387 -0.040962834 0.22808033 -0.10536312 -0.036633085 -0.20314446 -0.16632387
-0.09111558 0.010543371 0.0543596 -0.09444634 -0.060349688 -0.1353816 0.13640067 0.013023863
0.14070277 -0.6151382 -0.04751859 -0.11742133 -0.033728518 -0.076265216 -0.038512126 0.017521158
0.02636784 -0.03792872 -0.046109837 -0.09580443 -0.031893905 -0.1137469 -0.043548074 0.3573868
0.16099878 0.08210981 0.116734475 0.035478644 -0.12219704 -0.010476387 0.15930003 -0.04298406
0.042949744 -0.092606574 -0.05175162 -0.11607853 -0.00498698 0.006250312 -0.025403121 0.01730635
-0.02478486 0.15002829 0.04080143 -0.034580056 0.028351285 -0.0073993406 0.053449675 -0.20463687
0.38474736 0.09685173 -0.21133079 0.16892897 -0.045520782 0.029125383 -0.066367425 0.06837949
0.050596163 -0.30471954 0.008863906 0.046152014 -0.11597548 -0.06099286 0.13206005 0.044462122
-0.05568565 0.1839582 -0.074663065 -0.09294185 0.08401641 -0.10105157 0.034921374 -0.10535188
0.05212673 -0.09416012 0.01304834 0.14609703 -0.09806825 0.12553704 0.021038774 -0.033226352
-0.1777893 0.053063072 -0.009639047 0.16274722 -0.10241739 -0.028308315 0.0040757624 -0.24288975
0.027537454 -0.11717484 -0.02269323 -0.046495333 0.0931676 -0.054889243 -0.16129422 0.013293279
-0.06458264 0.01708778 0.087051034 0.058950152 -0.014805227 -0.023725647 0.0004581659 -0.08271582
0.061753996 -0.062258072 0.20949908 0.11217672 0.014721976 -0.13143185 0.017186433 -0.09988049
0.8255892 -0.100901596 -0.027305722 0.049318135 -0.09754451 -0.004988633 0.04017223 -0.21587104
-0.016507728 0.12636408 0.039198387 0.049347587 -0.07848319 0.23311462 0.05825205 0.039545987
-0.020156518 -0.05715967 0.15254915 -0.06043663 -0.057664964 0.023784444 0.0732413 -0.05064577
-0.049759425 0.3254494 0.040614154 -0.017638613 -0.1378796 0.055549737 0.015693601 0.007459576
-0.014448089 0.04387082 0.01578446 -0.03169464 0.03470092 0.028016323 -0.040404547 0.6403423
-0.09594366 0.02820739 -0.16251032 0.022693058 0.030717494 0.120448865 -0.08544443 0.026007935
-0.012882445 0.06234835 -0.026366597 0.10644995 -0.004882627 0.010562406 -0.092973255 0.038359065
-0.0028643103 -0.101977214 0.01724669 0.023246389 -0.15078796 -0.04340656 -0.006283278 0.046665527
-0.033910085 0.026750576 -0.094394945 -0.09195283 0.028406756 0.0034289716 -0.020106003 0.08819327
-0.097293556 0.21801762 -0.10207169 -0.03249025 0.05410753 -0.033549536 -0.05365657 0.030938877
-0.027847745 -0.1444287 -0.16021335 0.048929337 0.03789892 0.09071087 0.08187786 0.12724192
-0.0018104546 0.48163167 -0.019094482 -0.023696128 0.049793057 -0.027916543 0.045290377 0.0033680531
00000000: 1308 483d 7f77 c93d ee2f 34be 465a 583e
00000010: e5c5 b8bc 4a76 88bd 5e01 a6bc f265 f3bc
00000020: 6716 68bd be2f 76bd 8413 e73c 208a 703b
00000030: 1bf5 0e3e 0e5b 90bd db1b 9dbd e9f7 9bbc
00000040: 61c9 9c3d 1a9f b33d 3814 e3bc 51b0 66bd
00000050: 1dae a1bc 67a9 35be 415a c23d 9152 6b3c
00000060: b49c 363c cd9a 723d 0c5a aebd aaef 313d
00000070: b976 733d 5faf 0f3c cacf edbb d42a 9c3d
00000080: 922d a6bd f1f1 753d 4078 eb3d 011c 2ebe
00000090: 3248 c53c ce48 0a3d ec0a 943d aaae 2d3d
000000a0: 5ced 853d 484a 963d a5c8 27bd e48d 693e
000000b0: 9fc8 d7bd 930c 16bd 1a05 50be ce50 2abe
000000c0: ce9a babd 1abe 2c3c 2ca8 5e3d 156d c1bd
000000d0: 3c31 77bd 79a1 0abe 9eac 0b3e 0a62 553c
000000e0: 6314 103e b279 1dbf daa2 42bd 987a f0bd
000000f0: ea26 0abd f030 9cbd e4be 1dbd 8888 8f3c
00000100: 5e01 d83c 255b 1bbd abdd 3cbd 1d35 c4bd
00000110: 2fa3 02bd 22f4 e8bd 775f 32bd 67fb b63e
00000120: dddc 243e 3029 a83d 7c12 ef3d 0e52 113d
00000130: 7142 fabd 27a5 2bbc 8c1f 233e 0e10 30bd
00000140: 12ec 2f3d 84a8 bdbd 82f9 53bd 95ba edbd
00000150: d269 a3bb 6bcf cc3b 351a d0bc 0cc6 8d3c
00000160: 9e09 cbbc 04a1 193e 661f 273d d1a3 0dbd
00000170: f440 e83c 2b76 f2bb 0cee 5a3d 548c 51be
00000180: 9bfd c43e 335a c63d 1967 58be b7fb 2c3e
00000190: 0074 3abd 5b98 ee3c a5eb 87bd 8c0a 8c3d
000001a0: ec3d 4f3d 3304 9cbe eb39 113c e509 3d3d
000001b0: 8d84 edbd a6d3 79bd c03a 073e ea1d 363d
000001c0: a316 64bd 8a5f 3c3e f3e8 98bd 4c58 bebd
000001d0: cc10 ac3d 20f4 cebd b709 0f3d bac2 d7bd
000001e0: d782 553d 05d7 c0bd b4c8 553c 769a 153e
000001f0: 02d8 c8bd c88c 003e 8259 ac3c 5b18 08bd
00000200: 660e 36be aa58 593d 18ed 1dbc 35a7 263e
00000210: 35c0 d1bd d7e6 e7bc f98d 853b 17b8 78be
00000220: 3a96 e13c 5df9 efbd 27e7 b9bc e471 3ebd
00000230: a8ce be3d 8bd3 60bd 502a 25be 0ecc 593c
00000240: e743 84bd acfb 8b3c d047 b23d b775 713d
00000250: 9f91 72bc 4a5c c2bc fc35 f039 e966 a9bd
00000260: c2f1 7c3d 5202 7fbd ed86 563e e8bc e53d
00000270: 7134 713c 1296 06be 90ca 8c3c 248e ccbd
00000280: d059 533f 7fa5 cebd 40b0 dfbc d001 4a3d
00000290: 6bc5 c7bd b077 a3bb a38b 243d 4c0d 5dbe
000002a0: 373b 87bc 9665 013e 7d8e 203d b220 4a3d
000002b0: cbbb a0bd 99b5 6e3e b499 6e3d f9fa 213d
000002c0: 481f a5bc 4220 6abd d835 1c3e 668c 77bd
000002d0: 1932 6cbd 98d7 c23c 89ff 953d f071 4fbd
000002e0: 8ad0 4bbd 4ea1 a63e 075b 263d da7e 90bc
000002f0: 4f30 0dbe 1f88 633d de8f 803c 756f f43b
00000300: adb7 6cbc e4b1 333d 694e 813c 3dd2 01bd
00000310: 8d22 0e3d 7d82 e53c 3d7f 25bd 79ed 233f
00000320: 1c7e c4bd 2f13 e73c 1b69 26be cbe6 b93c
00000330: 41a3 fb3c e5ad f63d 7dfd aebd 980e d53c
00000340: e410 53bc fc60 7f3d c3fe d7bc 6e02 da3d
00000350: 72fe 9fbb f10d 2d3c c368 bebd 651e 1d3d
00000360: 27b7 3bbb 6ed9 d0bd ee48 8d3c 366f be3c
00000370: 2968 1abe 14cb 31bd f5e3 cdbb 5a24 3f3d
00000380: 4de5 0abd 0624 db3c 2352 c1bd c451 bcbd
00000390: 49b5 e83c 99b8 603b 58b5 a4bc ac9e b43d
000003a0: d841 c7bd 0340 5f3e f60a d1bd 7f14 05bd
000003b0: db9f 5d3d 3d6b 09bd fec6 5bbd 8773 fd3c
000003c0: f420 e4bc 1ee5 13be f80e 24be 216a 483d
000003d0: e63b 1b3d 9fc6 b93d 94af a73d b54b 023e
000003e0: c74c edba 6d98 f63e 086c 9cbc 621e c2bc
000003f0: cef3 4b3d 3cb1 e4bc 6782 393d 8eba 5c3b

fc_decode.bias f4 [16]
0.25205424 -0.9377804 -0.012905462 -0.23045044 0.48839095 0.5796424 0.43956345 0.5633423
-0.1634465 -0.64781463 0.47930473 0.3975258 0.5752266 -0.58984274 -0.3353825 -0.103628255
00000000: 410d 813e 6012 70bf 6e71 53bc 33fb 6bbe
00000010: 610e fa3e 7263 143f 760e e13e 3337 103f
00000020: 855e 27be 2ed7 25bf 6e67 f53e 8088 cb3e
00000030: 0d42 133f efff 16bf 41b7 abbe 0d3b d4bd

deconv1.weight f4 [16, 12, 3, 3]
-0.13307233 -0.111821935 -0.053093463 0.007717193 -0.02600336 -0.030806972 -0.20599493 0.039602127
-0.11366539 -0.23049985 0.026385935 -0.07518721 0.0019285294 0.01211001 -0.025150828 -0.003693006
-0.049706917 0.03222261 0.046188027 0.0014049269 -0.043197393 -0.08504447 9.891386e-05 -0.061732303
-0.0038901132 -0.10663629 -0.043445997 0.029557899 -0.030691871 0.01119458 -0.070463926 0.018796273
-0.12855661 -0.040822305 0.010953233 0.08769032 0.01512111 -0.07434787 -0.15896848 -0.016470253
-0.021568188 -0.00046843322 0.044740684 -0.007173382 0.07476179 -0.031808637 -0.016037883 0.019001232
0.10208045 0.0021781705 0.11382561 0.014560498 0.068539955 0.0456248 -0.0077654496 0.0121628875
-0.06683594 -0.01680153 0.00058428745 -0.025297172 0.015062934 0.023109643 0.042769227 0.048766892
0.0629105 -0.041130405 0.041662488 0.0034201504 0.042913027 0.05879359 -0.079631016 0.026273029
0.01603716 0.029438155 -0.06315359 -0.04790374 0.011415532 -0.021661064 -0.0075966725 0.015672099
0.0070253257 -0.041222103 -0.031147636 0.017049478 -0.04409268 0.01691837 -0.081154965 -0.0077300323
-0.0011722005 -0.023445606 -0.00079125626 0.0042809746 -0.052605562 0.0019371846 0.0022534986 0.0013810783
-0.013835345 -0.019126453 -0.002109889 0.012236603 -0.03954774 -0.052610062 0.003266929 -0.010126994
-0.008279566 0.008325066 -0.01199935 -0.0061234003 0.010258174 -0.17472938 0.07382081 -0.055566814
0.046539 -0.06380326 0.23880656 -0.087414704 0.15146239 0.24291769 0.044852197 0.08614212
-0.0375685 0.008539662 0.044456296 0.023337824 -0.04202261 -0.07070349 -0.10105864 0.0705877
0.052961342 -0.037158143 0.008152698 0.08399283 0.11792665 -0.015546385 -0.15820883 0.09906665
-0.060034785 -0.15389155 0.3674267 0.04223133 -0.12737086 0.18665476 -0.06572223 -0.02259796
0.13463223 0.09616721 0.026545446 -0.013756334 -0.013831511 0.045808792 0.03214763 0.10057637
-0.026419358 0.10342224 -0.12498442 0.14192595 0.015610257 0.14141864 0.17366 -0.05142859
0.10540402 -0.025318328 0.039135277 -0.023356246 0.1026189 -0.003378579 0.011523413 -0.0058358014
-0.020017982 0.011661964 -0.0029517198 0.063534856 -0.1670087 0.35565287 0.06075619 -0.00074490067
-0.03521128 0.019735789 -0.08064939 0.100187816 -0.03935936 0.00063091476 0.08849625 0.0035703795
-0.020046543 -0.046612058 -0.013164044 -0.004118181 0.031080585 -0.024550011 -0.07815876 -0.035592426
-0.020575741 0.07678532 0.2481798 -0.07384528 -0.08923459 -0.09427954 0.05007592 -0.049263436
0.08624763 -0.009826501 0.0010897389 -0.015784515 0.017593885 -0.069696285 -0.025742477 -0.027917912
0.027742209 0.09112879 -0.0011099725 -0.0024603587 -0.013131376 0.023060352 -0.010902423 -0.04461682
0.17760019 -0.07411761 0.058904182 -0.0527879 0.03750143 0.012402152 0.13188565 -0.12003582
0.028225267 0.09749367 -0.0350591 -0.013903659 -0.043710124 0.020305844 0.08453871 0.013747336
-0.04998564 -0.04379896 -0.12286408 -0.05847957 0.046600256 -0.11664668 0.04338518 0.082164004
-0.02100111 -0.06822698 -0.08601607 0.10752243 0.07647156 -0.14921206 0.07869518 0.03276191
-0.057070475 0.104796864 -0.04528535 -0.06606041 0.13563733 0.14976104 0.11266626 0.16404039
00000000: 1d44 08be e602 e5bd 8878 59bd 82e0 fc3b
00000010: 0005 d5bc e75e fcbc 56f0 52be d735 223d
00000020: 66c9 e8bd 2708 6cbe 5127 d83c c1fb 99bd
00000030: b5c6 fc3a 1069 463c 1c09 cebc 5c06 72bb
00000040: 7b99 4bbd dbfb 033d a82f 3d3d 8625 b83a
00000050: c0ef 30bd cc2b aebd f96f cf38 03db 7cbd
00000060: 45f1 7ebb 2164 dabd 6ef4 31bd 6823 f23c
00000070: 856d fbbc 7969 373c 644f 90bd a4fa 993c
00000080: 58a4 03be 4a35 27bd 3075 333c fc96 b33d
00000090: 88be 773c b243 98bd a2c8 22be a0ec 86bc
000000a0: c5af b0bc 0b98 f5b9 0242 373d b10e ebbb
000000b0: b61c 993d c649 02bd e161 83bc 79a8 9b3c
000000c0: 8e0f d13d a3bf 0e3b 671d e93d 288f 6e3c
000000d0: ad5e 8c3d 12e1 3a3d 5075 febb d946 473c
000000e0: 48e1 88bd 5da3 89bc de2a 193a 043c cfbc
000000f0: 86ca 763c 6f50 bd3c c92e 2f3d cbbf 473d
00000100: 38d7 803d 5b78 28bd 49a6 2a3d 9a24 603b
00000110: 92c5 2f3d 8cd1 703d 9615 a3bd 893a d73c
00000120: 5d60 833c 4928 f13c ab56 81bd b636 44bd
00000130: 3608 3b3c 8b72 b1bc 82ed f8bb c662 803c
00000140: b434 e63b 82d8 28bd 5429 ffbc 59ab 8b3c
00000150: 879a 34bd 6598 8a3c 9334 a6bd 364c fdbb
00000160: 86a4 99ba 0011 c0bc 4f6c 4fba 6b47 8c3b
00000170: ee78 57bd 21e9 fd3a 6faf 133b 4c05 b53a
00000180: a5ad 62bc 14af 9cbc 1046 0abb 087c 483c
00000190: d0fc 21bd a67d 57bd f919 563b b1eb 25bc
000001a0: 04a7 07bc dc65 083c ec98 44bc cea6 c8bb
000001b0: e611 283c 42ec 32be 5d2f 973d 079a 63bd
000001c0: ae9f 3e3d 49ab 82bd b589 743e 7b06 b3bd
000001d0: f518 1b3e 6abf 783e f0b6 373d 486b b03d
000001e0: 6de1 19bd f0e9 0b3c ce17 363d f72e bf3c
000001f0: e61f 2cbd fecc 90bd d5f7 cebd 4990 903d
00000200: feed 583d 2333 18bd e592 053c 6f04 ac3d
00000210: 8783 f13d 44b6 7ebc 7f01 22be 75e3 ca3d
00000220: 09e7 75bd bf95 1dbe 5a1f bc3e c2fa 2c3d
00000230: 826d 02be 6d22 3f3e 6099 86bd 5b1f b9bc
00000240: 08dd 093e 50f3 c43d d675 d93c 3f62 61bc
00000250: 909d 62bc 00a2 3b3d 3cad 033d fcfa cd3d
00000260: 696d d8bc 0acf d33d d5f7 ffbd 0955 113e
00000270: 2ac2 7f3c 0cd0 103e edd3 313e c9a6 52bd
00000280: 10de d73d 6268 cfbc 504c 203d 9955 bfbc
00000290: dc29 d23d 266b 5dbb b2cc 3c3c 403a bfbb
000002a0: c0fc a3bc d211 3f3c a471 41bb 901e 823d
000002b0: 5404 2bbe 2218 b63e 7cdb 783d 7045 43ba
000002c0: b439 10bd f3ac a13c 822b a5bd 452f cd3d
000002d0: 4837 21bd f963 253a 863d b53d 07fd 693b
000002e0: a638 a4bc 49ec 3ebd 01ae 57bc cef1 86bb
000002f0: b69c fe3c 1b1d c9bc b311 a0bd 5dc9 11bd
00000300: 758e a8bc 9f41 9d3d d822 7e3e 323c 97bd
00000310: a0c0 b6bd a215 c1bd 681c 4d3d 75c8 49bd
00000320: 99a2 b03d 55ff 20bc 92d5 8e3a 874e 81bc
00000330: 0d21 903c edbc 8ebd e3e1 d2bc 1bb4 e4bc
00000340: a143 e33c bba1 ba3d 7f7c 91ba f83d 21bb
00000350: fc24 57bc 10e9 bc3c 14a0 32bc 20c0 36bd
00000360: d3dc 353e f9ca 97bd 8345 713d 2038 58bd
00000370: 199b 193d 6532 4b3c 080d 073e 57d5 f5bd
00000380: ad38 e73c c3aa c73d 219a 0fbd 2ccc 63bc
00000390: 6309 33bd 7158 a63c a222 ad3d 823c 613c
000003a0: bebd 4cbd 8a66 33bd 2aa0 fbbd 4688 6fbd
000003b0: e9df 3e3d 74e4 eebd a9b4 313d 9a45 a83d
000003c0: 850a acbc 96ba 8bbd 3129 b0bd b834 dc3d
000003d0: 1f9d 9c3d 0ccb 18be f02a a13d 5a31 063d
000003e0: bbc2 69bd bd9f d63d 227d 39bd ae4a 87bd
000003f0: 83e4 0a3e f55a 193e 91bd e63d 34fa 273e

deconv1.bias f4 [12]
-0.028859675 0.17119697 -0.01348608 0.05889775 0.09986195 -0.07536015 -0.60963976 0.07924754
0.19994152 -0.11324069 0.11990469 0.067895666
00000000: 206b ecbc 424e 2f3e b8f4 5cbc c43e 713d
00000010: 6c84 cc3d 6c56 9abd 5a11 1cbf 894c a23d
00000020: 78bd 4c3e bcea e7bd 9790 f53d e20c 8b3d
