saved_models_2D/dataset_noacc/VAE_patch_folds/CVAE2D_3_5_100_200_fold_0.pth (torch, 41265 bytes, 49 tensors)

conv1.weight f4 [3, 1, 5, 5]
000000 28 c4 97 bd ff b9 1f be ef 2a 7a be e4 0a a7 be
       -0.07410461 -0.15598296 -0.2443044 -0.32625496
000010 24 26 b7 3c 55 dc 1b bf 15 c2 b4 3e 1c a9 2c bd
       0.022357054 -0.60883075 0.35304323 -0.042153463
000020 46 88 a3 bc 58 ac 59 3e 4e f1 86 be 0f 6e 18 3e
       -0.019962441 0.2125715 -0.26355976 0.14885734
000030 c9 d1 33 be 38 ff b9 3e 21 9c 55 bd d4 d1 9f bd
       -0.17560495 0.3632753 -0.05215085 -0.078036934
000040 6d 4c 32 3e fb 73 f8 bd 4f 56 1d be 89 e1 dc be
       0.17411967 -0.121314965 -0.15364955 -0.4314082
000050 55 bc e1 bd 7e 9d fd bc 3c b4 43 be 68 ca 9a bd
       -0.110222496 -0.030958887 -0.19111723 -0.07558137
000060 d7 46 24 be 0f 98 1e be eb 95 85 3e f4 ee 1e 3e
       -0.16042648 -0.15487693 0.2609094 0.15520841
000070 f6 36 9e 3d dd 10 54 be 42 ef 67 3e 68 c9 04 3e
       0.07725327 -0.20709558 0.22649863 0.12967455
000080 ed c3 b4 be ce c6 d4 bc df b2 b8 3e 0e c2 73 be
       -0.3530573 -0.025973704 0.36073968 -0.23804495
000090 95 1b 29 bd b8 9f 2e 3f e9 79 b0 3b ba c6 dc bd
       -0.04128607 0.6821246 0.0053856266 -0.107800916
0000a0 f8 8b 73 3e 3d 5c d2 bc e9 f3 47 3d 94 e4 8d 3d
       0.23783863 -0.025678748 0.048816595 0.069283634
0000b0 91 42 d0 3d 26 57 7d be 72 8f 34 bd 6d ad 84 3c
       0.101689465 -0.24740276 -0.044082113 0.016195977
0000c0 ae 84 30 ba 1c 37 c4 3d a6 d5 9b be 69 e8 f7 be
       -0.0006733638 0.09580824 -0.30436438 -0.48419502
0000d0 ba 17 e8 be 09 d1 f0 be b1 b3 ff be 98 4d 25 be
       -0.45330602 -0.4703448 -0.4994178 -0.16142881
0000e0 5d 9f e5 3e 9b af 2a be cd a5 9a bd 42 2d a9 be
       0.44848147 -0.1666855 -0.07551155 -0.3304234
0000f0 c6 b2 e2 bd 76 17 6b 3e 77 96 99 3e c4 1a a5 bd
       -0.110692546 0.22958168 0.29997608 -0.08061746
000100 43 4f 3b be bd 2f 94 3e 1c 36 27 3f b0 3d 08 bf
       -0.18291955 0.2894267 0.6531694 -0.5321913
000110 ef 1d ec bd 9b 48 ad 3e 9d 6e 33 bd ba 13 f7 bb
       -0.11529147 0.33844456 -0.04380666 -0.0075401934
000120 39 61 dc 3e eb 11 94 3d f9 3b bf be
       0.43042925 0.0722998 -0.37350443

conv1.bias f4 [3]
000000 c8 f2 52 bc 12 41 26 3a 7c 2f 7c 3c
       -0.012875266 0.00063420937 0.0153921805

conv2.weight f4 [4, 3, 3, 3]
000000 ba 43 42 3e 23 d2 dc be 9a 05 9b 3d 98 80 d8 be
       0.18971148 -0.43129072 0.07569428 -0.4228561
000010 6b 35 9b be c2 fe 8c be 95 65 bf be d3 96 9c be
       -0.30314192 -0.27538115 -0.37382188 -0.3058382
000020 7d 07 5c be bb 17 e0 bc 1b 3f 01 3f d6 15 46 3e
       -0.21487232 -0.027355066 0.50486916 0.19344267
000030 eb 2a a1 bc 45 16 63 3c f7 8e 62 3e 42 ad 1e 3e
       -0.019673785 0.01386029 0.2212485 0.1549578
000040 a8 18 5d bd fb e5 8f 3e 17 13 b5 3c 5f f4 7f bd
       -0.053978592 0.2810515 0.02210383 -0.06248891
000050 fd e4 d6 be 2e d9 33 bd f0 56 60 3e 58 e7 a9 be
       -0.4197158 -0.04390829 0.21908164 -0.33184314
000060 99 57 98 3d 39 53 75 bd 64 26 f6 bc 17 78 cd bd
       0.07438583 -0.05989382 -0.030047603 -0.10032671
000070 61 11 dd be 24 c1 5d 3e c1 42 31 be 87 38 0b 3e
       -0.43177322 0.21655709 -0.17310621 0.13595782
000080 fb 1e 8b be af 7e 32 3e cf 71 ba be bf 94 0b bf
       -0.27172074 0.17431138 -0.36414954 -0.54523844
000090 68 48 86 be 6a b5 d1 be 2e 86 21 3e ee aa d5 3e
       -0.26227117 -0.4095872 0.15773842 0.41731972
0000a0 e8 63 5a 3e e7 ad 88 3b 49 2f 58 3e 1a e1 c6 3d
       0.21327174 0.0041711214 0.21111788 0.097109035
0000b0 23 70 03 3d f6 c8 10 be a6 7b 32 be c1 f5 d3 be
       0.032089364 -0.1413916 -0.1742998 -0.41398433
0000c0 43 85 0a bf 5b c6 cd bd fc ed 00 bf 68 9d c3 be
       -0.5410959 -0.10047599 -0.50363135 -0.3820603
0000d0 83 63 7a be 1a 7b 0d 3e f7 06 e8 3d 98 e0 86 3d
       -0.24452023 0.13816491 0.113294534 0.065858066
0000e0 5e 88 58 3e 5d bc c0 3e d2 7f 72 3e 41 cc a3 be
       0.2114577 0.3764371 0.23681572 -0.3199177
0000f0 f7 94 52 bd 79 43 69 bd b0 2a 15 bf e4 03 d8 3d
       -0.051411595 -0.056949113 -0.5826826 0.10547617
000100 8f 11 77 be 9e 96 89 3d 9c b6 62 3e f6 c9 2b bd
       -0.24127792 0.06718181 0.22139972 -0.04194065
000110 42 3c f0 3d 68 ee a9 bd 0f a5 bd be 90 72 11 3d
       0.11730243 -0.082974255 -0.37039992 0.035509646
000120 dd ed 84 bd 61 72 05 bf 84 fe 62 3d 5d a2 db 3e
       -0.06490681 -0.52127653 0.055418506 0.4289731
000130 fc 93 50 3e 43 2b 5c be de b1 08 3e f6 07 d3 bd
       0.20368952 -0.21500878 0.13349101 -0.10304253
000140 ef 4c 06 bf b3 93 75 be 0e b3 4d be 3f 1a 61 bf
       -0.5246114 -0.23982124 -0.20087835 -0.87930673
000150 62 3f ce be cb 3f 76 3d 3f 7b c2 be e9 6b b9 bd
       -0.40282732 0.06011943 -0.37984654 -0.09053785
000160 2f ae 43 be 92 90 f5 be 05 7f be be e3 35 e2 3e
       -0.19109415 -0.4796186 -0.37206283 0.44181737
000170 ca 6f 2e bc 41 f7 e7 bd 1d 7c 56 3e f8 6a 11 3e
       -0.01064677 -0.11326457 0.20945783 0.14200962
000180 d3 b7 8e 3e 4a 0f 84 be 6e 2b cf bc 4f 91 a8 3e
       0.27874622 -0.25792915 -0.025289264 0.32923362
000190 8e aa 16 3e c3 4a a2 3b 6d 3d 17 3e 74 48 bd 3e
       0.14713499 0.00495276 0.14769526 0.3696934
0001a0 d0 ae 8d bd 4f 88 d6 bd 3a 97 a3 3e 7a 07 1e 3c
       -0.069181085 -0.104752176 0.31951314 0.009645337

conv2.bias f4 [4]
000000 f9 97 8a bb 60 0c 9f bb 55 7f 65 3c 60 dc 3d 3b
       -0.0042295423 -0.00485377 0.014007409 0.0028970465

conv3.weight f4 [12, 4, 3, 3]
000000 75 dd 91 be d4 58 a2 3e 56 c1 c2 3c b2 22 df bd
       -0.2848927 0.31708395 0.02377383 -0.108952895
000010 4c d3 8c be e0 35 8c bc d0 42 fe ba e8 6a 06 bf
       -0.27504957 -0.017115533 -0.0019398574 -0.52506876
000020 7e d4 1d be 2b 26 bf be 94 45 b4 3d 0d 46 5f be
       -0.1541309 -0.37333807 0.088023335 -0.21804066
000030 ee 27 c8 bd 46 7f b4 3e f6 10 81 be 9a 6c d3 bd
       -0.09773241 0.35253352 -0.25208253 -0.103234485
000040 3a 91 3a 3d ee bb 4e 3e 45 ee da be 11 39 33 be
       0.045548655 0.20188877 -0.4275991 -0.17502238
000050 38 bb dc 3e c3 2e ac 3c 52 0d c6 3e 5c 1d 19 3e
       0.43111587 0.021018391 0.38682038 0.14952606
000060 f3 18 6b 3e 2b 1f 9d 3d d9 69 57 be c1 a5 68 3e
       0.22958736 0.076719604 -0.21036471 0.2271948
000070 9a 29 99 bd 7f 60 a2 be 33 7a 43 be 04 93 ca 3e
       -0.07478638 -0.31714246 -0.19089584 0.3956529
000080 cc d3 09 3e de c5 cb bd 5d bc 23 3d 6b 51 b1 be
       0.134597 -0.099498495 0.03997456 -0.3463243
000090 49 c2 b8 be fa cc 87 bd 2a 04 8d be c6 d2 a1 bd
       -0.36085728 -0.06630893 -0.2754224 -0.0790153
0000a0 bb 98 fe be 40 9c 2e be 6a fe ef 3c a6 8f 16 3d
       -0.497259 -0.17051792 0.029296119 0.036758088
0000b0 aa 94 ea 3e 4b 3c 92 be 4f c4 4c be d8 ce 79 be
       0.45816547 -0.28561625 -0.19996761 -0.24395311
0000c0 f9 e5 23 3e 10 75 82 be 89 e9 81 3c da af f4 bd
       0.16005696 -0.25479937 0.015858429 -0.119476035
0000d0 ed a7 88 bd 96 c8 44 be 98 1e 14 3e 8c 88 9f be
       -0.06672654 -0.19217142 0.14464796 -0.31158864
0000e0 61 08 7d bc c2 ed d9 be df 9d ca bc 02 bc 0b be
       -0.015443892 -0.42564207 -0.024733482 -0.13645938
0000f0 83 8d 97 be 3e a1 38 be 48 a1 85 be 85 d8 dc be
       -0.29600152 -0.18030259 -0.2609961 -0.4313394
000100 81 01 ba 3d 89 2c 0d bb 94 84 ca be e3 03 d1 bd
       0.09082318 -0.0021541438 -0.39554274 -0.102058195
000110 fb 60 93 3d 15 4c 2f 3e 2a d5 99 3c 60 96 3a 3e
       0.07196232 0.17118867 0.018778402 0.18221426
000120 10 60 b9 bd f6 1d 76 3e 6b be fd bd d4 49 f5 3e
       -0.090515256 0.24034867 -0.12389835 0.4790789
000130 db ad ad 3e 2b c8 19 3e 1e 26 7c 3d 8f d3 cb be
       0.33921704 0.15017764 0.06155979 -0.39809844
000140 d6 c9 d0 bd e1 90 61 3e 16 e2 87 bd 05 81 84 3e
       -0.10194747 0.22027923 -0.06634919 0.25879684
000150 b4 6a 56 be 23 74 2b 3e e2 22 18 be bd a4 72 3e
       -0.20939142 0.16743521 -0.14857057 0.23695655
000160 e0 0d 3b 3d b0 b6 d2 be e6 c5 5b bd 71 ca 36 be
       0.04566753 -0.41155005 -0.053655528 -0.17850663
000170 52 09 0e be 55 08 1c 3d 14 4b 98 bd 0e 32 d7 3d
       -0.13870743 0.038093884 -0.07436195 0.10507594
000180 d2 cc 9f be 6e e5 34 be 6c 22 a0 3d 3b 2a 60 bd
       -0.31210953 -0.17665645 0.078190655 -0.054727774
000190 1f 28 f4 3e 45 9f 8a bd 11 90 53 3e 50 5d 45 3f
       0.4768686 -0.067686595 0.20660426 0.7709551
0001a0 d4 9f 6f be 17 9a 69 bb df 0b 88 be e4 81 48 bd
       -0.23400813 -0.0035644823 -0.26571557 -0.048952
0001b0 52 11 82 be bf a5 db 3d 3d dd 75 be ba d2 24 be
       -0.2540384 0.10724973 -0.24010177 -0.16096011
0001c0 4c 10 0b bd ad a4 0f 3e 1a 2a b8 be 7d 9e 43 be
       -0.03395109 0.14027663 -0.3596962 -0.19103427
0001d0 ca 31 b9 bd 03 13 1e 3e 4a 74 da 3e 9e e1 2c 3d
       -0.090427 0.1543694 0.42666847 0.042207353
0001e0 9b d5 e3 3e f2 c8 ca be 18 77 55 3b cf 4b c0 be
       0.44498906 -0.39606434 0.0032572206 -0.37557837
0001f0 c6 b5 28 be 76 39 00 be db d7 d2 3b bf b0 46 be
       -0.16475591 -0.1252192 0.0064344234 -0.19403361
000200 34 0c d9 3b c2 36 05 be 98 54 51 3e 2b f7 d5 bd
       0.006623769 -0.1300917 0.20442426 -0.10447534
000210 8b 5d ae be c7 ef b9 be 20 82 cf bd 29 2c 06 3e
       -0.34055743 -0.36315748 -0.10132241 0.13102783
000220 6a 7d 06 be 7d a5 ff bd c1 aa 47 be e7 8a 51 3e
       -0.13133779 -0.12482736 -0.19498731 0.20463143
000230 57 d1 41 be d1 b0 12 3e a3 e6 ec 3d 5e 12 8e bd
       -0.18927513 0.14325263 0.11567428 -0.06937097
000240 96 a2 a5 3e 5b 4e 2b 3e 6d be c3 bd e9 8b 03 bd
       0.32350606 0.16729109 -0.09557805 -0.03211585
000250 5a 3e a2 3e d6 26 27 3e 61 d7 87 be 7e 71 1b 3f
       0.31688195 0.16323408 -0.2653151 0.6072005
000260 3c aa b8 3d 29 05 4d 3e 9e f6 22 bd 09 aa bc 3b
       0.09016845 0.200215 -0.039785974 0.0057575745
000270 47 58 d5 bd a7 72 1f 3f a8 be ad 3e ad 5c 14 3e
       -0.10417228 0.6228432 0.33934522 0.14488478
000280 a9 f6 67 3e ac 3d 46 3e df f9 d6 be ca c1 0c 3e
       0.22652687 0.19359463 -0.41987512 0.137458
000290 ab db 15 3e d8 fc 0d 3e 8c 50 0e 3e 30 49 be 3e
       0.14634578 0.13865983 0.13897914 0.37165213
0002a0 6d 17 01 3d 58 00 9f 3e d8 9f 32 3e f0 78 d4 bd
       0.03151648 0.3105495 0.17443788 -0.103746295
0002b0 07 64 29 be f7 43 42 3e ed 71 d8 bd aa a4 48 3c
       -0.16542064 0.18971239 -0.105686046 0.01224629
0002c0 d9 a0 7f 3b 12 04 2c be f9 16 29 bd 96 86 8e be
       0.0039005785 -0.16798428 -0.041281674 -0.27837056
0002d0 c1 45 e5 3d 86 9e 9c be d9 74 a6 3e 4c f5 f9 bb
       0.11194945 -0.30589694 0.32511023 -0.0076281186
0002e0 ee 9b 48 be 7d 47 59 3e dc 78 03 3d eb f5 3c 3d
       -0.19590732 0.21218677 0.032097682 0.046132963
0002f0 42 01 34 3e 05 19 87 bd c9 c3 43 be 12 13 67 3e
       0.17578605 -0.06596569 -0.19117655 0.22565868
000300 85 bf 2d be 7d 6f 06 be 3e d9 0a 3f 79 37 4e be
       -0.1696759 -0.13128467 0.54237735 -0.20138349
000310 78 08 0e 3b 54 22 c6 be a3 91 24 3e ae 27 a0 bd
       0.0021672528 -0.38698065 0.16071181 -0.07820068
000320 0f c5 64 3e 73 4c c3 be 43 3a cf 3e 4a e8 d7 bd
       0.22340797 -0.38144264 0.40474138 -0.105423525
000330 a3 51 83 3e ad 1c 0e be cd 0b 7c 3e 2b 67 fb bd
       0.2564822 -0.13878126 0.24613877 -0.12275537
000340 81 ea 0b 3c a3 a3 c3 3c 29 c8 51 be 2b 21 fa 3e
       0.008539797 0.023881739 -0.20486511 0.4885343
000350 29 87 d8 3e 49 1c 0f 3e ae 27 b3 3e a7 03 a0 3e
       0.4229062 0.13975634 0.3499121 0.31252787
000360 eb 91 a5 3e de 6f 8f 3c c9 b4 c3 3d f3 be b7 3d
       0.3233789 0.017509397 0.095559664 0.089719675
000370 9b c4 89 3e aa 57 19 3f 4b 6c 3c be 72 49 af 3e
       0.2690781 0.5989939 -0.18400685 0.34235722
000380 05 a0 9f 3e 8b 9f 83 be 4b ab 03 3f 45 e2 18 bf
       0.31176773 -0.2570766 0.5143325 -0.5972026
000390 d7 a6 ed 3c 97 5d 0b be 49 ac 28 be 36 41 09 3f
       0.02901022 -0.1360992 -0.16471972 0.5361513
0003a0 b4 f5 a5 bd 2b e0 7a 3d 29 fe c7 be ac fc a8 3e
       -0.08103505 0.06124894 -0.39061096 0.33005273
0003b0 ff ae 3d be 79 c5 2f 3e 38 bc 79 be 59 a2 0e be
       -0.18523787 0.17165174 -0.24388206 -0.13929118
0003c0 b9 0e 36 3e c9 6d e3 3d db 46 c1 be b6 71 3b bf
       0.17779054 0.11104924 -0.3774937 -0.73220384
0003d0 24 71 b4 3e 77 92 ee bd b5 a9 25 3d 72 55 6a 3f
       0.3524257 -0.1164903 0.04044505 0.9153663
0003e0 87 62 03 3e 0d 88 3a 3e a1 ef 84 be 94 46 05 3e
       0.12830554 0.18215962 -0.25964072 0.13015205
0003f0 ae ed 86 3e 06 ee 76 be 13 fc 68 bd 18 e2 c1 be
       0.2635321 -0.24114236 -0.05688102 -0.37867808

conv3.bias f4 [12]
000000 93 27 1c 3a 5c e5 b2 3b 3d 99 83 3b f0 fe d6 bb
       0.0005956825 0.0054594707 0.00401607 -0.0065611526
000010 3f 0c 77 3b 8a a7 d2 bb 5e d8 3b 3b eb 44 3e bc
       0.0037696508 -0.0064286636 0.00286629 -0.011613111
000020 cf 7d df 39 d9 57 c3 3b b8 4d 43 3b f9 51 80 3b
       0.0004262761 0.0059614 0.0029800963 0.003916022

conv4.weight f4 [16, 12, 3, 3]
000000 e4 d6 23 be 3c 40 25 3d 6c 33 22 be 26 0c 62 3e
       -0.15999943 0.04034446 -0.15839928 0.22074947
000010 13 d6 e5 bd f5 d4 e1 3c 2b 4c 20 be 91 ab c7 bd
       -0.11222472 0.027567366 -0.15654056 -0.097495206
000020 08 7c c2 bd f6 d5 84 3d 98 46 2b bd d4 4f 4c 3d
       -0.09496313 0.06486122 -0.04181537 0.049880818
000030 ae fb b1 bd 68 7a 6d 3e f9 67 17 3c b7 c5 1b 3d
       -0.08690582 0.23191226 0.009241098 0.038030352
000040 72 cf 27 3e eb ad 14 3d 15 b8 4a be cc 61 39 bd
       0.16387728 0.036298674 -0.19796784 -0.045259282
000050 1f c4 eb bd 92 a4 12 be 78 47 27 3e 07 03 03 3e
       -0.115120165 -0.14320591 0.16335857 0.12794124
000060 f3 83 5e bd 9f c5 ca 3d 8a d6 73 be 97 5e 89 be
       -0.054325055 0.099009745 -0.23812309 -0.2682998
000070 01 a4 d9 3d 8c 2e 4a bd 9b ab f0 3c 89 b2 b1 3e
       0.106269844 -0.049360797 0.029378703 0.34706524
000080 ac 22 5e 3d ca dc 9d bd ee b1 81 3d 57 d8 66 be
       0.054232284 -0.07708128 0.063327655 -0.22543465
000090 06 53 46 3d 3e ac 16 be b4 6e 3b be c8 41 06 be
       0.04841902 -0.14714143 -0.18303949 -0.13111031
0000a0 74 11 27 3d 97 27 21 be 54 f9 68 3d 4f d4 f8 bd
       0.04078813 -0.15737759 0.056878403 -0.1214987
0000b0 50 e3 b3 bd f4 9c 7b bd 1b 9c 21 be 56 82 37 be
       -0.08783591 -0.06142898 -0.15782206 -0.17920813
0000c0 66 12 cd bd a7 0b 1d be c8 3e 91 bd 2c 07 70 3d
       -0.10013275 -0.15336476 -0.07092053 0.05860059
0000d0 e8 4f 1f 3e 84 9d 5d bd 7f 77 68 3d 17 d2 05 be
       0.15557826 -0.054105297 0.056754585 -0.13068424
0000e0 f1 89 ac bd ba 46 89 3e 91 2c 90 ba 4a 4d 8b 3d
       -0.08424748 0.26811773 -0.001099961 0.06801851
0000f0 6a 02 85 be e9 4f 85 bd a3 3b 60 be 92 a3 ba 3d
       -0.25978404 -0.06509382 -0.2189775 0.0911323
000100 06 86 ff bc f2 ed f5 bc a6 75 dd 3d d1 bd 53 3e
       -0.031191837 -0.030020688 0.10813455 0.20677878
000110 93 82 d8 3a cb 77 b6 3c fb 64 54 bd 73 33 de bd
       0.0016518406 0.022273919 -0.051854115 -0.10849657
000120 5a c3 0a 3c ed 96 32 be 7c c4 80 3d 6b ad 40 bd
       0.008469427 -0.17440386 0.062874764 -0.047040384
000130 ad b7 9b bc 85 e5 d2 3d d2 64 be 3c ca 33 4c 3c
       -0.019008482 0.102976836 0.023241434 0.012463519
000140 97 c6 3c bc c6 a6 36 be 42 e8 5f bd 70 ce e4 3d
       -0.011521957 -0.17837057 -0.054664858 0.11172187
000150 66 52 0c 3d 81 13 43 3d 0e fb 85 bc 99 51 9d bd
       0.03425827 0.047626022 -0.016355064 -0.07681579
000160 f6 de 02 bf 3a 4e ab 3d 13 2a 9c bc d5 d1 4f be
       -0.5112146 0.0836453 -0.019063031 -0.20294888
000170 b0 60 ce 3c f4 3d b6 3b 70 9f 86 be 47 5d cf bd
       0.025192589 0.0055615846 -0.26293516 -0.10125213
000180 57 58 6a 3e 85 34 1f be 0e 7a 0c 3e e6 06 93 be
       0.22885261 -0.15547378 0.13718435 -0.287162
000190 da c2 e9 3d 2e 96 ab bd c8 05 f7 bc 27 35 21 3e
       0.11414118 -0.08378254 -0.030154124 0.15742932
0001a0 83 88 a6 3d d2 0a f7 bd 12 0c 20 bd 46 f8 22 3d
       0.08131506 -0.12062611 -0.03907401 0.039787553
0001b0 d5 28 09 be f6 a7 c1 3c 6c 11 00 3e 71 e4 39 be
       -0.13394482 0.02363966 0.12506646 -0.1815355
0001c0 46 b9 be 3b 27 59 f2 3d 5a 63 14 be b1 b7 2e 3e
       0.005820426 0.11833411 -0.14491025 0.1706226
0001d0 03 1b af 3b 26 e0 11 3d 31 02 28 3e c6 74 21 3e
       0.005343796 0.035614155 0.16407086 0.15767202
0001e0 cd f2 20 3e 8b 68 92 3d d0 35 64 3d 63 33 97 bc
       0.15717621 0.07148846 0.055715382 -0.01845712
0001f0 e3 fc 51 be 38 be 94 bd 83 29 53 3e 33 fd 0d 3d
       -0.20506625 -0.07262844 0.20621304 0.034665298
000200 f6 bc 05 3e 04 80 39 3d 51 57 0b 3c 5c 61 33 bd
       0.13060364 0.0452881 0.008504705 -0.04379402
000210 d8 38 e3 3d 10 40 11 3d 0c e6 b3 3d 63 af 32 3d
       0.110948265 0.035461485 0.08784112 0.043624293
000220 12 09 a1 3d 8e ef 84 3c 8d 65 a5 bd a8 a6 92 3d
       0.07863058 0.01622751 -0.0807601 0.071606934
000230 c5 8c d7 3d 30 42 ac 3d 78 15 58 be f7 7e b5 3e
       0.105248965 0.08411062 -0.2110194 0.3544843
000240 6a f8 60 be c3 5c ba 3d e1 c2 4a 3d 60 67 78 bd
       -0.21969762 0.09099724 0.049502257 -0.06064546
000250 b9 1f 4f 3b 17 8a be 3c da e9 e3 bc 6f ae 10 bc
       0.0031604602 0.023259206 -0.02782147 -0.008830651
000260 26 a4 58 bd fe 64 21 be b5 90 56 be c4 88 03 3c
       -0.05289092 -0.15761182 -0.20953639 0.008028213
000270 ac 69 26 bd a0 6b e2 bd 6f ff 11 3e af 51 06 bd
       -0.04062812 -0.11055684 0.14257596 -0.032792743
000280 fb ef 75 bd df 38 43 3d 60 3f 5f be 5c e0 a5 be
       -0.060043316 0.04766166 -0.2180152 -0.32397735
000290 11 5d c6 bd f1 c0 44 3d d1 53 fe bd 6c 41 b2 bd
       -0.0968572 0.048035566 -0.124183305 -0.087038845
0002a0 c1 e5 a4 be 2a 2c bc 3c 73 60 e5 3c b7 2d aa bd
       -0.32206538 0.022970278 0.028000092 -0.08309501
0002b0 c1 38 ba bc 64 87 6d bb d3 6e 37 3e 14 df f3 3c
       -0.02273214 -0.003624403 0.1791337 0.029769458
0002c0 b6 93 5b 3d 2d a8 e8 bd 29 2c 3b be fa c2 f6 3d
       0.053607665 -0.11360202 -0.18278565 0.120489076
0002d0 a1 ab 4e 3e 99 eb 68 3e 2e 44 3b 3d d1 67 79 be
       0.20182659 0.22746123 0.045719318 -0.24356009
0002e0 e8 34 b4 3c 93 93 36 bd 39 aa a1 3d ad 5c 05 be
       0.021997884 -0.04457433 0.078937955 -0.13023634
0002f0 a2 c7 fc 3d ca 14 f5 3c bd 1d 47 be 70 36 98 3e
       0.123427644 0.02991714 -0.19444938 0.29729033
000300 a6 a3 00 bd 86 0f 0f bc ba 3b f0 bc 4c a3 bc bd
       -0.031406067 -0.008731728 -0.029325355 -0.09210834
000310 3f d5 96 bd 95 17 03 3e ec ad 48 bc ce 63 a2 be
       -0.07364892 0.12801965 -0.012248497 -0.3171677
000320 fc 12 ac 3c 96 4f 3d 3e a1 64 18 bd 48 13 6d bd
       0.021005146 0.18487391 -0.037205342 -0.057879716
000330 b4 21 85 be 42 85 3e bd 7c d0 71 be 2f e6 24 be
       -0.26002276 -0.046513803 -0.23614687 -0.16103433
000340 63 91 d7 bd fb f5 12 3e 7f 97 e4 3c 97 cb 32 3b
       -0.10525777 0.14351647 0.02790427 0.0027281994
000350 fa 4b fb bd 50 4d ac 3b fe 3c 5a 3d 88 43 a0 3d
       -0.12270351 0.00525824 0.053280823 0.078253806
000360 fe cb 50 bd fd 7a de bc 4e d1 4c bd 17 19 1e be
       -0.050975792 -0.027158255 -0.050004296 -0.15439259
000370 92 39 18 3c 44 7f d4 bd 29 cc f4 bd 57 bb ec bd
       0.00929107 -0.103758365 -0.11953003 -0.1155917
000380 85 87 12 3e cd dd bd bc ba 06 ae 3d 01 9f 1d 3e
       0.14309509 -0.023177052 0.08497377 0.15392686
000390 ab 65 8f 3e cd 15 9e 3d 90 68 6a 3d 4b 40 a0 3d
       0.28007254 0.07719002 0.057228625 0.07824763
0003a0 47 3c 05 be e4 f8 c6 3d 29 b3 7e bd 63 5c 67 be
       -0.13011275 0.09715441 -0.06218258 -0.22593836
0003b0 96 41 3c be 64 6a 83 bd 01 a6 07 bd 14 58 bd bd
       -0.18384394 -0.06416777 -0.033117298 -0.09245315
0003c0 aa cb 3b be 30 86 ae bb d9 1d c7 3d ec 62 61 bd
       -0.1833941 -0.005326055 0.0972249 -0.05502598
0003d0 b9 63 b0 bd ce 27 dd bc a8 1f 1b 3e 98 71 6c 3e
       -0.086127706 -0.02699652 0.15148795 0.23090208
0003e0 80 ac e7 3d b0 ed 18 3e cd a6 b1 bc b6 1d 0e bd
       0.11312199 0.1493442 -0.021685982 -0.034696303
0003f0 fd ab ad 3b fc df 70 be f8 2b 0c bd f8 55 e0 bc
       0.0053000436 -0.23522943 -0.03422162 -0.027384743

conv4.bias f4 [16]
000000 75 5e 90 3c f1 a6 5b bc 4f 52 6c b9 b1 b4 84 bc
       0.017623166 -0.013406501 -0.00022537376 -0.016199442
000010 6f 44 67 bc 68 a2 40 bb 9f 56 9a 3c 33 0f d8 3c
       -0.014115437 -0.0029393677 0.018840132 0.026374435
000020 18 2a 43 bd 73 65 74 3c 7d c3 0f 3c 4d a3 ae bb
       -0.047647566 0.0149167655 0.008774635 -0.0053295256
000030 01 8d ce bc 6d 2c 40 bc 4c f0 8b bc 7d c6 57 3c
       -0.02521372 -0.011729342 -0.017082356 0.013169882

bn1.weight f4 [3]
000000 35 d8 84 3f 50 55 74 3f fe 63 79 3f
       1.0378481 0.95442677 0.974182

bn1.bias f4 [3]
000000 7f 8b 6e 3d f3 19 18 3d f7 4f c9 3b
       0.058238503 0.037134122 0.0061435658

bn1.running_mean f4 [3]
000000 bf f4 e1 be 1c a5 5a 3e 06 48 9b be
       -0.4413204 0.21352047 -0.30328387

bn1.running_var f4 [3]
000000 a9 ba d2 3e 17 43 10 3e 5b 71 05 3f
       0.41158035 0.14088093 0.5212609

bn2.weight f4 [4]
000000 01 f4 84 3f 4c ec 7e 3f 9d 77 6e 3f 5f 7e 78 3f
       1.0386964 0.9957931 0.93151265 0.97067827

bn2.bias f4 [4]
000000 c5 e6 c8 3d da fa 40 bb db de 97 bd 78 5d 0f 3d
       0.09809641 -0.0029446394 -0.07415553 0.035001248

bn2.running_mean f4 [4]
000000 4a 24 03 bf c2 a8 6a bf f6 93 42 be 06 cc 10 bf
       -0.5122725 -0.91663754 -0.19001755 -0.56561315

bn2.running_var f4 [4]
000000 8c 74 12 40 cd b5 7f 3f a8 20 cd 3d 81 ef 7a 3f
       2.2883635 0.9988678 0.10015994 0.98021704

bn3.weight f4 [12]
000000 1f d0 7e 3f 12 38 93 3f fa 1e 78 3f a9 58 7f 3f
       0.9953632 1.1501486 0.96922266 0.9974466
000010 51 c0 83 3f fe 27 77 3f 82 5c 84 3f e9 d0 75 3f
       1.0293065 0.965454 1.0340731 0.96021897
000020 81 d1 83 3f 99 ba 7e 3f 64 a8 85 3f f0 3b 80 3f
       1.029831 0.99503475 1.0442014 1.0018291

bn3.bias f4 [12]
000000 04 c3 e9 3c 4b 83 b8 3d 07 29 d5 bc 01 3b cd 3c
       0.028535374 0.09009417 -0.02602054 0.02505255
000010 02 52 9f 3d 7d 52 07 3c 01 00 0a 3d 5b 72 97 bc
       0.077793136 0.008259413 0.03369141 -0.018487146
000020 00 bf 56 3d c1 51 1e 3d 2b fe 82 3c 09 df b7 3c
       0.052428246 0.038652185 0.015990337 0.022445219

bn3.running_mean f4 [12]
000000 f3 6b e2 be aa 02 79 bf a2 86 a5 3e 89 5a 14 bf
       -0.44222984 -0.9726969 0.3232928 -0.57950646
000010 a4 d6 56 3f 52 a4 0b 3f e6 73 3b 3f 09 b2 9e be
       0.83921266 0.5454761 0.7322372 -0.30995205
000020 9d fc 16 bf 38 24 05 3f 4a 25 02 3f e5 54 25 bf
       -0.5897921 0.5200839 0.5083815 -0.64582664

bn3.running_var f4 [12]
000000 da 02 c8 3f 20 8f 66 40 7d 06 a0 3f f4 c7 8c 3f
       1.562587 3.6024857 1.250198 1.0998521
000010 b1 98 6d 40 dc 68 97 3f 59 fe 5f 40 29 82 24 3f
       3.7124445 1.1828876 3.4998991 0.6426111
000020 4b 71 ba 3f 9e 75 28 40 37 bf 04 40 c0 34 da 3f
       1.4565824 2.6321788 2.0741708 1.7047348

bn4.weight f4 [16]
000000 81 42 91 3f 40 32 6c 3f 9f 30 85 3f 18 0e 77 3f
       1.134842 0.92264175 1.0405463 0.9650588
000010 dc 7e 64 3f 3e 6d 91 3f d8 94 6a 3f af 8d 71 3f
       0.8925607 1.1361463 0.9163337 0.94356817
000020 af 17 69 3f 89 1b 69 3f bc 2f 76 3f b0 c9 72 3f
       0.91051763 0.9105764 0.96166587 0.94839
000030 e3 02 74 3f e6 aa 8d 3f 63 94 5d 3f ca 87 6d 3f
       0.95316905 1.1067779 0.86554545 0.9278532

bn4.bias f4 [16]
000000 c7 2c 33 3e db ba cc bd 23 06 d3 3d 4f ce 5e bd
       0.1749755 -0.09996577 0.10303905 -0.05439597
000010 23 d6 eb bd 87 0f 0c 3e c4 30 f6 bd ea 74 16 3e
       -0.11515453 0.13677798 -0.1202102 0.14693037
000020 fd e1 f2 bd ac 67 f9 bd d1 74 56 bd 14 c1 26 bd
       -0.1185951 -0.12177977 -0.0523575 -0.040711477
000030 7a 04 74 bd 4c de f5 3d 2e 1d e5 bd 91 b6 b1 bd
       -0.05957458 0.120052904 -0.11187206 -0.086774

bn4.running_mean f4 [16]
000000 fc 74 45 bf 32 22 53 be 8a 6c 8c 3c 21 1f 43 be
       -0.7713163 -0.20618513 0.0171416 -0.19054843
000010 e7 19 af be f7 d9 16 bf 6c 7d a2 3e 7a 33 3c be
       -0.3419945 -0.5892634 0.31736314 -0.18379012
000020 1f 6b 3a bf 04 4b 01 3e 70 74 64 3e 18 f8 3e be
       -0.72819704 0.12626272 0.22310042 -0.18649328
000030 4d 52 66 be 3e 6a fb 3d 38 29 dd bd 1a a6 ad 3e
       -0.22492333 0.122761235 -0.107988775 0.33915788

bn4.running_var f4 [16]
000000 2d 78 36 40 c2 b9 0e 40 f7 14 8d 40 90 85 d3 3f
       2.851085 2.2300878 4.408809 1.6525135
000010 ad 4e 09 40 d9 b5 8d 40 68 17 45 40 c9 03 91 40
       2.145427 4.428448 3.0795536 4.531712
000020 7e 5f 2a 40 b4 80 5d 3f 8e e0 9d 40 fc 56 86 40
       2.6620784 0.8652451 4.9336615 4.198118
000030 4b 53 e3 3f 89 96 23 40 44 53 19 40 58 35 79 40
       1.7759794 2.556063 2.3957071 3.8938808

fc5.weight f4 [3, 16]
000000 d7 f5 66 be 56 97 2e 3f 14 cc 81 be ff 4a ce bd
       -0.22554718 0.6819967 -0.25351012 -0.10072898
000010 1f b9 2e 3e 9e 5b db 3d 6b 1c 2d 3f 4e 34 e6 be
       0.17062806 0.10710834 0.6762149 -0.4496178
000020 85 78 5b 3f 79 a0 f2 3e b9 70 f4 3d 55 ea 10 3e
       0.85730773 0.47388056 0.11935563 0.1415189
000030 0d e1 56 be ab 1d 10 be f2 ee 97 bd 7a 7f d6 3d
       -0.20984288 -0.14073817 -0.07418622 0.10473533
000040 57 84 dd bd d4 e5 1e 3e 50 2a 0e bf f0 7e 78 be
       -0.108162574 0.1551736 -0.55533314 -0.24267173
000050 32 ae 21 3e 8d 02 aa 3d 44 7a 69 3e a5 da f4 3e
       0.15789106 0.08301268 0.22800547 0.47823063
000060 04 57 0a be ab 23 e8 3e 65 b0 c4 be 7d 52 77 3e
       -0.13509756 0.45339713 -0.38415828 0.2415256
000070 fc 38 5e be fc 6a 98 3e ca bb 3e bf 96 cc 32 bd
       -0.21701425 0.29769123 -0.74505293 -0.04365214
000080 c3 67 c5 be b0 03 11 bf 16 f7 d8 3e a0 da de be
       -0.38555726 -0.5664625 0.42376012 -0.43526173
000090 c3 a6 df 3e ca 8e ac bd bf 03 14 bc 3a 95 9c be
       0.43681917 -0.08425672 -0.009034096 -0.305826
0000a0 a6 af ca 3e c3 62 eb 3e 06 df 20 3f f1 68 67 bd
       0.39587134 0.45973787 0.62840307 -0.056496564
0000b0 ea d0 5f be 66 6e 1d bc 2e 91 82 3d f9 92 17 3f
       -0.21857038 -0.009608841 0.06375347 0.5920864

fc5.bias f4 [3]
000000 4e 83 2a be f2 ea f9 3d 81 2c 8e bd
       -0.16651651 0.122030154 -0.06942082

fc6.weight f4 [3, 16]
000000 9e d0 04 bf 81 4e 74 bf bf 98 cb 3d 4a cb 07 be
       -0.51880825 -0.9543229 0.099412434 -0.13261142
000010 01 25 16 be a6 11 be 3e 09 26 87 be 8f 77 a3 3e
       -0.14662553 0.3712284 -0.26396206 0.31927153
000020 e8 7c 29 3f f7 03 a1 be da e7 73 3e 63 01 21 3e
       0.66206217 -0.31448337 0.23818913 0.15723185
000030 42 9c 84 3d 33 75 e3 bd da c2 9b be f1 ae 2a bf
       0.06475116 -0.11106338 -0.30422097 -0.6667319
000040 7a b6 dc ba 72 5b 89 3e 37 34 ce be 30 f0 9c 3e
       -0.001683905 0.2682758 -0.40274212 0.30652
000050 cd 80 4e 3e 20 9b 13 bf d9 e0 b4 3e 67 e5 0e bf
       0.20166321 -0.57658577 0.35327795 -0.5581879
000060 df 59 cf 3d 71 c7 8e 3e 45 3a 6f be cb 30 af bc
       0.101245634 0.27886537 -0.23362072 -0.021385571
000070 c8 ea 43 3e 24 bf f6 bd 44 56 90 be f0 d3 13 3f
       0.1913253 -0.12048176 -0.28190815 0.57745266
000080 36 3b 94 be 65 f1 82 3d b3 d3 cd 3e e8 37 09 3e
       -0.28951424 0.063936986 0.40200576 0.13400233
000090 4f 2d 10 bf ee f8 69 be 7e 6b f5 be fe e8 8b bc
       -0.56319135 -0.22848865 -0.47933573 -0.017078873
0000a0 6e 5d e4 3d 8c 0c ad be 6b 70 29 3f 48 92 78 3e
       0.11150633 -0.33798635 0.6618716 0.24274552
0000b0 c4 16 0e be 66 79 50 be 67 8b 1b be 7f f5 8d bd
       -0.13875872 -0.2035881 -0.15189897 -0.0693159

fc6.bias f4 [3]
000000 28 38 57 be 39 58 26 be 3c 44 c3 3d
       -0.21017516 -0.16244592 0.09534499

fc_decode.weight f4 [16, 3]
000000 46 e6 64 bf 44 eb 54 3f 39 4a bb 3e 52 99 04 bf
       -0.8941387 0.83171487 0.36580065 -0.5179645
000010 bd d6 f2 bf 15 d0 2d 3f 38 04 34 bf 0e 60 3d 3f
       -1.8971783 0.67895633 -0.7031894 0.7397469
000020 e0 f4 fe 3d b2 d9 a8 be 87 68 e2 3e 3d 1f 86 bf
       0.1244905 -0.32978588 0.44220373 -1.0478283
000030 47 ff 6e be 71 cf 00 3f f5 ad a0 be f5 d1 c2 3d
       -0.23339568 0.5031653 -0.3138272 0.095127024
000040 b8 3b 9c bd b4 a8 bc bf c6 75 90 3e 50 4e bd be
       -0.07628578 -1.4738984 0.28214854 -0.3697381
000050 89 8e b8 3d 42 a1 dc bd e9 4b 6f 3e 87 22 8b 3f
       0.090115614 -0.10772945 0.23368801 1.0869912
000060 9d af 18 bf 34 65 6c be 22 df 7a 3a b4 cc 5d 3f
       -0.59642965 -0.23085481 0.00095699925 0.8664048
000070 24 ca bc be 97 e8 f6 bf 66 5b 36 3e be bb bb be
       -0.3687297 -1.9289731 0.17808303 -0.36666673
000080 3f d6 28 be cf 80 18 be af e0 4c 3e 1d 2a 93 bd
       -0.16487978 -0.14892887 0.20007585 -0.07185767
000090 78 fd 08 3f 35 7c 72 3d 47 bf 90 be 38 cd ce 3e
       0.5351176 0.059200484 -0.28270933 0.40390944
0000a0 0e 0e 94 bf 4b 48 0b bf 41 c8 18 be 79 88 ab be
       -1.1566789 -0.54407185 -0.14920141 -0.33502558
0000b0 09 21 91 be de 2e 44 3f 0b db 87 be a3 6d 1b 3f
       -0.28345516 0.76634014 -0.26534304 0.6071417

fc_decode.bias f4 [16]
000000 41 4b 40 3c ee a4 99 3c 26 e7 49 bd 7e fb 50 bd
       0.011736692 0.018755402 -0.049292706 -0.05102109
000010 e2 23 e3 bc 4e 1b 81 39 45 40 00 3d f5 13 33 3d
       -0.027727071 0.0002462514 0.031311292 0.043720204
000020 44 1c d1 3c ce cf 55 3b 13 41 31 3d a9 a6 23 bd
       0.025526173 0.0032625082 0.04327495 -0.03995386
000030 b6 c1 9f 3d 10 a6 c9 3c f0 c9 82 3c 32 43 1d 3d
       0.07800619 0.024615318 0.015965432 0.03839416

deconv1.weight f4 [16, 12, 3, 3]
000000 03 b2 18 bd 0d 03 ff bd fe 2a db bd 04 a2 6c bd
       -0.03727914 -0.12451754 -0.107015595 -0.057771698
000010 34 9a 2d bd c9 ac a2 3d 47 5b 18 3d 53 b7 0a bd
       -0.042383388 0.079431124 0.037196424 -0.033866238
000020 fc fc 3d bd b4 6b b2 3c ad c9 cb bc 37 de 17 3d
       -0.046383843 0.021779872 -0.02487644 0.037077155
000030 cb b6 90 bd 46 11 9e 3b 54 18 c6 bd 95 1d d2 3c
       -0.07066115 0.0048238365 -0.09672609 0.025648871
000040 1b 5e 54 bd 4a 39 b6 bd c6 5c 8f 3c 98 08 9b 3d
       -0.05184756 -0.08897646 0.017500293 0.075699985
000050 45 c0 53 bd 9d 53 9c 3d 64 94 9d bd 1a ed 91 3d
       -0.051697034 0.076331355 -0.07694319 0.07125302
000060 e0 9b 90 3d 71 b1 85 3d d1 88 8c 39 9c 10 01 bb
       0.07060981 0.06527985 0.00026804817 -0.0019693738
000070 85 81 44 bd 73 e6 2b bc 00 3e db bb 31 94 05 3d
       -0.047975082 -0.010491955 -0.0066907406 0.03261203
000080 79 89 da bb c0 bf 05 be 2a 85 e9 3c 3d 45 00 bd
       -0.00666922 -0.13061428 0.02850588 -0.03131603
000090 00 23 04 3d 7f 5d 28 bd d6 83 d2 3d 8d 8a 28 3d
       0.03225994 -0.04110479 0.10279052 0.041147757
0000a0 1d 2d 8b 3c d7 9a bf bd 6b bf 77 3d f5 90 67 3d
       0.016989285 -0.09355705 0.060485285 0.056534726
0000b0 5e 3a 00 bc 4e 47 4b 3d 63 2f 5d 3b ee e9 21 3d
       -0.007826416 0.04962855 0.0033750169 0.039529733
0000c0 c7 e3 74 bd 3b f6 ce 3c e0 fa 8b 3d 7d 41 d9 bd
       -0.059787538 0.025263896 0.0683496 -0.10608194
0000d0 f0 45 c6 3c 83 2f 29 bd c3 99 30 3c 9d 7a 15 3d
       0.02420327 -0.041305076 0.010778847 0.036493886
0000e0 b4 d3 4f bd b1 bc 0a bc 45 5c 87 3d 0e 93 5c 3c
       -0.050739005 -0.008467839 0.06609396 0.013462795
0000f0 03 21 d7 bd 0f 3c 07 be 6d 01 1f bd 7a 53 d3 bd
       -0.10504343 -0.13206504 -0.03881972 -0.10318656
000100 11 8a 7c bd 17 b6 eb 3c 08 4c ea 3c 0f 2a 6c bd
       -0.061655108 0.02877335 0.028600708 -0.057657298
000110 76 d1 81 bd 3f 51 cf bc 5c 06 ae bd 0c 38 81 bd
       -0.0633878 -0.025307296 -0.08497307 -0.06309518
000120 64 d7 10 be 26 39 c4 bc f7 be 6d bd 80 cc 0b 3d
       -0.14144665 -0.023953032 -0.058043446 0.034130573
000130 df ee 97 3c a8 c8 a5 3c ba e1 15 bd aa d5 f5 3d
       0.01854652 0.020237282 -0.036592223 0.12003644
000140 a7 61 29 3b 4a 05 a0 3c ab ef 54 bd 21 29 11 bd
       0.002584556 0.019533772 -0.051986378 -0.035439614
000150 dd 29 9b bc da 8f b9 bd 57 bd 02 3d 7f 3f 81 3d
       -0.01894086 -0.09060641 0.03191885 0.06310939
000160 8b 2d 41 bd 5a f8 eb bc 4a c3 81 bd 1c a3 bc 3d
       -0.047162574 -0.028804947 -0.063360766 0.09210798
000170 e9 de e4 bd b0 51 20 bc 6c 8b 8e bd 13 e8 c1 3d
       -0.11175329 -0.009785101 -0.06960186 0.09468093
000180 8b d5 c6 3d 89 73 85 bc f6 fb c0 3d f3 eb 0e bd
       0.09708699 -0.016290443 0.09423058 -0.034892987
000190 16 cd 8d bd e2 aa 16 3d 2d db eb 3c 4b 0d a5 bd
       -0.06923883 0.03678406 0.028791035 -0.08059176
0001a0 22 c4 13 bd eb 1e 0c 3d e7 bc 43 3d f1 39 b3 3b
       -0.03607572 0.034209173 0.047787573 0.0054695536
0001b0 86 21 b6 3d 79 9f f3 3d 09 7a ef 3c 96 61 91 3c
       0.08893113 0.11895651 0.029232996 0.017746728
0001c0 69 8c 70 3d 25 70 4c 3d 8b e4 4b bd 40 92 ae bc
       0.058727656 0.049911637 -0.049778502 -0.021309972
0001d0 ed 6f 86 bd df 46 85 3c fb c8 b1 3d 5e 96 30 bc
       -0.06564317 0.016269146 0.08680912 -0.010778038
0001e0 ac ef 25 3d 59 4b 14 bd 04 19 65 bd 5a 9d 26 bd
       0.040511772 -0.03620467 -0.05593206 -0.040677406
0001f0 13 3c 88 3d 67 15 74 3d 1b cc 3b bc 6d b6 3b bd
       0.06652083 0.059590723 -0.011462237 -0.04582827
000200 5c 99 a5 bd 74 e6 34 bc 84 ff 87 bc f4 b7 60 3c
       -0.080858916 -0.011041272 -0.016601332 0.013715733
000210 55 f5 ea bc 29 2d 94 bd fa 29 32 3c 2d 83 35 bc
       -0.028681437 -0.07235176 0.010874266 -0.011078638
000220 84 c4 82 3d 59 d7 19 3c 0e fe 85 3d a5 52 9f 3c
       0.06385139 0.009389722 0.06542598 0.019448588
000230 32 c3 67 bd a4 62 cb 3d 04 17 41 bc d2 a5 1d bc
       -0.056582637 0.099309236 -0.0117852725 -0.009622054
000240 3a d5 70 3c ac 61 8a bd 7d b8 3f bd 39 23 f3 3c
       0.014699275 -0.06756911 -0.0468068 0.029679881
000250 b2 26 82 bb 9b be f4 3d 49 a9 7a bd f4 2c 6a bd
       -0.003971898 0.119504176 -0.0611966 -0.057171777
000260 e5 f2 b7 3d 46 48 8e bd 41 fa 26 3c 9a f1 ad bb
       0.08981875 -0.06947379 0.010191501 -0.005308342
000270 fa fa 1b 3d 03 3a 8f 3d cf 7a 1a 3d 47 8e 3c 3d
       0.038081147 0.06993487 0.037714776 0.046034124
000280 ee 99 82 ba 8f eb 4b bd 17 48 a5 bc da 71 c8 3d
       -0.0009964088 -0.049785193 -0.020175977 0.097873405
000290 4e 68 ab 3c 71 d4 80 bc 55 92 90 3a 2f e6 8b bd
       0.02092376 -0.0157263 0.0011029938 -0.068310134
0002a0 83 9a a2 3c 03 0b 98 3d ce 4d 45 3d 26 c5 89 bc
       0.019849068 0.07423975 0.048169903 -0.01681764
0002b0 bb e9 c9 3d 61 b5 b6 3d 05 71 a4 bb 40 c1 89 bd
       0.09859034 0.08921314 -0.005018356 -0.06726313
0002c0 f8 10 06 3d 39 bd 65 bd 4f 8d 4d 3c 95 14 ad ba
       0.032731026 -0.05608866 0.012545898 -0.0013204986
0002d0 20 ad 75 3d 39 93 49 3d 2a c6 6c 3d 8f 16 75 3c
       0.059979558 0.049212668 0.05780617 0.014958992
0002e0 66 6a 57 3c a9 e8 2c 3b fb 2a 81 bd 25 6a 75 3c
       0.013147926 0.0026383793 -0.06307026 0.01497892
0002f0 10 92 c0 bc be 53 6c bd 87 3f 7e 3d c9 ae 16 3d
       -0.023507148 -0.05769705 0.062072303 0.036787782
000300 b2 61 f6 3c c7 67 25 3d d1 7a 06 3b 60 62 e0 bc
       0.030075882 0.040382173 0.0020519982 -0.027390659
000310 34 ca 76 bc 5c d0 2a 3d 7f c3 e2 3b bc 43 a1 bb
       -0.015062857 0.041702613 0.0069202776 -0.0049214046
000320 1f 46 e7 3d 55 b8 3a bd 02 f5 4d bc be ce 8c bc
       0.112926714 -0.04558595 -0.012570621 -0.017188426
000330 b9 af 00 bd bb 22 82 3d 92 08 a5 ba 27 6b 09 bd
       -0.031417582 0.063542806 -0.0012591055 -0.033549454
000340 10 32 8d 3c 4b 67 03 bd 0e 78 83 bd 9a af fd bc
       0.017235786 -0.03208093 -0.06419383 -0.030967522
000350 5a 11 23 bd 05 2d 1d 3d e7 27 5f 3d 8f f7 0e 3d
       -0.03981147 0.038373012 0.054481413 0.03490406
000360 45 3c 1e bc 32 f6 9e bd 5f df ad 3d 7c f2 79 3c
       -0.009657924 -0.07761802 0.0848987 0.015255567
000370 60 35 94 3d 47 9a ef 3b 30 93 5f 3c d9 a4 de bc
       0.07236743 0.0073120925 0.013645932 -0.027178215
000380 53 05 4a bd 2a 3c 37 3c 02 91 83 bd d2 d5 85 bc
       -0.049321484 0.011183778 -0.064241424 -0.016337309
000390 95 76 a8 3c b6 b9 8a bd ad f3 ce bd 16 69 4e bd
       0.020564357 -0.06773703 -0.10105071 -0.050393187
0003a0 f7 c3 4f bd 7c 22 22 3d 41 b6 fb 3d 28 a4 2f bd
       -0.050723996 0.039583668 0.122906215 -0.04288116
0003b0 a0 76 f3 3d 9d 2b 07 3c 13 5a 8f 3c a5 84 c1 3d
       0.1188786 0.008250144 0.017499005 0.09449128
0003c0 14 0d 99 3d 5f fb 90 bc 80 e8 0d bd b9 f2 76 bd
       0.074731976 -0.017697988 -0.034645557 -0.060290072
0003d0 c6 6b fd bd f3 da 88 bd d9 a6 e1 bd 06 71 3e 3c
       -0.12374072 -0.06682386 -0.11018152 0.011623627
0003e0 d3 c3 31 bd e0 fa b6 bd 33 a4 73 bc d6 d3 59 bd
       -0.043399643 -0.08934569 -0.014870691 -0.053180538
0003f0 80 dc e9 bc 18 82 7f bd b7 2c f1 3d 3f bb 5f 3d
       -0.028547525 -0.062379926 0.11776107 0.05462193

deconv1.bias f4 [12]
000000 cb fc 85 3b e3 d8 ad 3d 90 db c2 3c 83 f2 c7 bc
       0.004088973 0.084886335 0.023786336 -0.02440763
000010 43 7f 9c 3d e6 db 05 bd 5e 5f b0 bd 45 55 52 3c
       0.07641461 -0.032680415 -0.0861194 0.012837713
000020 c1 18 a1 bd 0c d9 49 bd 2d 89 7f 3d 80 2e 32 3d
       -0.078660496 -0.049279258 0.06238668 0.043501377

deconv2.weight f4 [12, 4, 3, 3]
000000 c5 cf 6b bc 97 5c bd 3c 89 8f fa bd 20 d2 a5 3d
       -0.014392798 0.02311544 -0.122344084 0.08096719
000010 57 f3 d3 bd 63 b3 9d bd 73 4a 28 3e 54 cc 2c 3e
       -0.10349148 -0.07700231 0.1643465 0.1687482
000020 22 e5 4a be 87 9c 53 3e 67 cd bb 3d b3 d8 69 bc
       -0.1981397 0.20665179 0.09170037 -0.0142728565
000030 cf d2 1d bd 8d 46 99 3d 69 60 dc 3d 12 b7 ea bd
       -0.03853112 0.074841596 0.10760576 -0.11460699
000040 0d 2e c2 3d 9f e3 41 bd 47 01 1e bd 26 af 7d 3d
       0.0948144 -0.047336217 -0.038575437 0.061934613
000050 10 f0 87 bd cc 83 d2 3d e4 08 a9 3a f7 ef 28 3e
       -0.06637585 0.102790445 0.0012896326 0.1649779
000060 03 88 f7 3d db 3c 07 3e 0a a7 d0 3c e9 b9 06 3e
       0.12086489 0.13206808 0.025470275 0.13156857
000070 d9 ac 4b be 83 86 c5 bc 25 bd f6 bc eb 40 d6 3c
       -0.19890155 -0.024111992 -0.030119488 0.026154002
000080 61 b7 70 bd 5d 01 ab 3d b0 70 20 3e 4d ec 96 3d
       -0.058768634 0.083498694 0.15667987 0.073692895
000090 10 ba b3 3d 7c 6a 00 3d 96 24 9f 3d e6 1f 3b 3e
       0.08775723 0.03135155 0.0777065 0.18273887
0000a0 fa 06 00 bb 71 7e 99 3c de 4f 06 3d 96 ae 19 3e
       -0.0019535408 0.01873705 0.03279101 0.15008005
0000b0 0b 65 c7 3b 88 bd df 3b e3 87 d8 bd 01 df b6 3d
       0.0060850433 0.006828014 -0.10572793 0.08929253
0000c0 c4 47 ed bd c9 fa 28 3d 07 c8 b9 3d f3 c3 d6 3d
       -0.11585954 0.041254792 0.09071355 0.10486593
0000d0 41 ec 10 3e d3 a9 25 3d 03 36 0c 3d 67 ce fb bd
       0.14152624 0.04044516 0.034231197 -0.122952275
0000e0 0f f2 1d 3e ff f1 5f 3d 75 38 ea 3c a2 c9 6f 3e
       0.1542437 0.054674145 0.028591374 0.2341676
0000f0 d1 d8 8c 3d f7 5f 47 3e 8f ee b3 bd 4a f1 22 bd
       0.06877292 0.19470201 -0.08785736 -0.039780892
000100 0e 98 1f 3e b6 2c c8 bd 94 ca 9b 3c d3 1c 9f 3d
       0.15585348 -0.09774153 0.019017495 0.0776917
000110 54 8b b1 3d fc a7 31 be 63 23 b1 3d 4b 4d 8a 3d
       0.08669153 -0.17349237 0.086493276 0.06753024
000120 03 4b 0a be 60 91 7e 3d 3d 17 a0 bd 00 6d 04 be
       -0.13505177 0.06215036 -0.07816932 -0.12932205
000130 57 6e 76 3a af 61 3a be f3 ef d2 bd 70 b4 97 3d
       0.0009400597 -0.18201326 -0.10299673 0.074074626
000140 87 a3 58 3c ed 35 05 be bc 68 9c bd 7c 7e 16 be
       0.013222582 -0.13008852 -0.07637164 -0.14696687
000150 08 17 9d bd b8 44 96 bb e5 40 48 be 1e 0e a3 bd
       -0.076704085 -0.0045858286 -0.19556005 -0.07961677
000160 78 e7 9f bd 10 7a d7 bd ae 16 8f bd d0 ef 04 be
       -0.07807821 -0.105213284 -0.06986748 -0.12982106
000170 aa 9d 2c bd fa 70 55 bd c5 33 0e bd 60 8f 40 bd
       -0.042142548 -0.052109696 -0.03471734 -0.047011733
000180 3a cb 0d 3c 19 5f 90 bc d2 10 e6 bd 45 66 03 3e
       0.00865441 -0.017623471 -0.11233677 0.12831981
000190 7b cd f9 ba b8 b6 6d 3d 28 0c 3c 3e b1 bf 27 bd
       -0.001905843 0.058035582 0.18364012 -0.040954296
0001a0 e4 db 0f bd c3 b4 88 bd 3d 07 82 3d 13 94 8e 3d
       -0.035121813 -0.066751026 0.06349037 0.06961837
0001b0 9c c0 0e bc 22 12 5a be 4b 16 9d 3d eb cc aa bd
       -0.008712914 -0.2129598 0.07670268 -0.08339866
0001c0 c9 cf 88 bd f7 a5 37 3d f3 d6 bc 3d 10 4a db 3d
       -0.06680257 0.04483601 0.09220686 0.10707486
0001d0 0f c9 44 3c f6 2d a8 bd ac 44 4c 3d c0 ec 4c 3d
       0.012010827 -0.08211891 0.049870178 0.05003047
0001e0 7b b0 13 be b3 70 31 bd 13 e0 33 3d bb 66 79 be
       -0.1442279 -0.04332037 0.043914866 -0.24355595
0001f0 e7 77 a1 3d db 2e f4 3d 1e ce b3 3d 5c 96 0e be
       0.07884198 0.119229995 0.08779548 -0.13924545
000200 05 77 0f bd 17 c2 22 3e 51 6f 48 3d 69 10 58 bd
       -0.035025615 0.15894352 0.048934285 -0.052750025
000210 32 6e 18 3d 90 d9 91 3d bd 07 1b bc 3d a6 cd 3d
       0.037214465 0.07121575 -0.009462294 0.10041473
000220 8a 61 5f bd 46 03 e0 3d 64 9d 35 be 27 e4 f3 bd
       -0.05453638 0.10938124 -0.17735821 -0.11908751
000230 9a 69 96 3d 33 eb 73 3e b1 9d 53 be 6f 80 04 3e
       0.07344361 0.2382019 -0.20665623 0.12939619
000240 ca a3 69 3c 74 6a 11 bd 3a 6c de 3d 06 8a 2c 3d
       0.014260242 -0.035501912 0.10860486 0.042123817
000250 66 d4 4a be 2f cd ec 3d f7 23 a2 bd 72 eb 94 3c
       -0.19807586 0.11562573 -0.07917016 0.018178675
000260 be 78 83 be b8 32 cb 3c 3e 09 10 be b7 15 4e bc
       -0.25678056 0.024804458 -0.14066026 -0.012578419
000270 06 98 0b 3d 9e e0 14 be b7 f9 8a 3b 7e 9d 19 bd
       0.034080528 -0.1453881 0.004241194 -0.037503712
000280 ae ac ff bd e1 98 39 3c 4d 1f 9b bd e9 ef b9 3d
       -0.12484108 0.011327953 -0.075743295 0.09078962
000290 53 ca e8 3c 66 f1 8a bc 62 8c b7 3d 4c 7c 65 3d
       0.028416788 -0.01696081 0.08962323 0.05602674
0002a0 1b 04 68 3d cf 0f 47 bb 65 aa 99 3b 5e 66 fa 3c
       0.05664454 -0.0030374413 0.004689502 0.03056639
0002b0 06 9b cc bd 50 f8 ca bd 89 a5 e7 3b 73 a9 31 3d
       -0.09990506 -0.09910643 0.007069294 0.04337449
0002c0 73 3f 13 3d 65 87 52 bd 83 5a bb 3d de aa c1 3d
       0.03594918 -0.051398654 0.09148123 0.094564185
0002d0 15 9b 40 3e 49 6c 0c be 49 04 01 3e 27 6c cc 3d
       0.18809159 -0.13713183 0.12599291 0.09981566
0002e0 5d b1 1c 3d ea dd 94 bb 9b 8d 69 3d 46 eb 84 bd
       0.038255084 -0.004543056 0.05701981 -0.06490187
0002f0 d2 41 35 be 8d 6a b6 bd 74 8e e5 3d 73 04 29 3d
       -0.1770089 -0.08907042 0.112088114 0.04126401
000300 7e 5f c7 bd d3 61 4a bc 01 5b 81 bd cc e1 da bd
       -0.097350106 -0.012352425 -0.06316186 -0.106875986
000310 c7 4e 06 3e 6b 9a e8 bd 1c c5 1a bd e9 31 1a be
       0.13115989 -0.11357578 -0.037785634 -0.15058102
000320 28 7d aa 3d 9c 33 0b 3d fe f0 fc 3d aa 5c ad bc
       0.08324653 0.033984765 0.12350653 -0.02116235
000330 97 b4 07 3e 64 e5 99 3d 74 92 c8 3d c4 f1 d5 3d
       0.13252483 0.07514456 0.09793559 0.10446504
000340 52 df f9 3d 38 33 72 bc 70 c8 49 bd fd 38 c8 3c
       0.12200798 -0.014782719 -0.049263418 0.024441237
000350 e7 a7 92 3d ed 1b e8 bc 78 9f 9d bd 00 c1 a1 bd
       0.07160931 -0.028333629 -0.07696432 -0.0789814
000360 30 24 a2 bd ca 8d 4a 3d 7b 95 02 3d 48 c2 47 3d
       -0.079170585 0.049451627 0.031880837 0.048769265
000370 41 76 a5 bd ab 48 f7 bd ac 58 b5 3c da d0 01 3e
       -0.08079196 -0.12074407 0.022137009 0.12677327
000380 32 b9 d4 3d 63 2a 1c 3d 1a 16 35 3d 4e 61 80 bd
       0.10386886 0.03812636 0.04421053 -0.062685594
000390 34 82 25 bb db 60 9c bb 2f 85 29 bd e8 6c 3f 3d
       -0.002525461 -0.0047722883 -0.04138678 0.04673472
0003a0 e2 80 a5 3c 4e 24 0f be 7b e6 97 3d fa 52 57 bc
       0.020203058 -0.13978693 0.074170075 -0.013142342
0003b0 ab c0 47 bd 53 78 fc bb 86 f6 da bd 25 b0 ab bb
       -0.048767727 -0.0077047735 -0.10691552 -0.005239504
0003c0 82 bd f4 bd d7 c5 81 3d 3d 18 84 3c b9 0c 8c 3b
       -0.11950208 0.06336563 0.016124839 0.0042739776
0003d0 59 b8 1e 3d 71 81 d8 3d 7b 15 ed bd ed a0 35 3d
       0.038750026 0.10571564 -0.11576363 0.044342924
0003e0 c3 26 11 be 73 61 83 3d d7 b8 e5 bd d9 23 78 bd
       -0.14174943 0.06415071 -0.11216896 -0.060581062
0003f0 c8 c4 30 3e e7 0a d6 bd 79 2d c1 3d 2f c0 4a 3c
       0.17262566 -0.10451298 0.09432501 0.012374922

deconv2.bias f4 [4]
000000 99 09 39 bd ee 94 3e bd d4 4e 33 3e 96 66 98 bd
       -0.04517517 -0.04652875 0.1751054 -0.07441442

deconv3.weight f4 [4, 3, 3, 3]
000000 c8 61 f0 3d 48 16 bf bd d3 48 00 3b a7 60 fc 3c
       0.117374 -0.09330422 0.0019574657 0.030807806
000010 13 5f 0e be 18 38 5a 3d 39 5f 7b bd 8c 94 8f 3d
       -0.13903455 0.05327615 -0.06137011 0.07010755
000020 59 ee 39 3d 79 b7 1c 3e 87 36 e1 3d 98 e2 2d 3e
       0.04539332 0.15304364 0.109967284 0.1698097
000030 8c 29 ed 3c ba b8 48 3e f3 15 c8 3d 6c 18 fe bd
       0.028950475 0.19601718 0.097698115 -0.12407002
000040 fa fa 81 bd 70 8f 40 3e 0b a7 43 3d 93 2e e7 3c
       -0.06346698 0.18804717 0.047766726 0.02822045
000050 7c 41 0e 3e 26 fc 12 be 31 2b 13 3e 02 88 1a 3e
       0.13892168 -0.14354 0.14371945 0.15090945
000060 f7 eb 46 be 38 86 37 3b 41 93 4e 3d ea 34 6c 3d
       -0.19425951 0.0028003585 0.0504334 0.05766765
000070 4a 19 6f 3e 27 8d 0a 3d 06 93 9b 3c db 32 9b bd
       0.23349491 0.03382602 0.018991005 -0.07578059
000080 b5 ff 39 3d e5 99 0b 3e ff d4 da 3d 18 11 30 3e
       0.045409877 0.13632925 0.10685157 0.17194021
000090 05 21 82 bd 77 10 11 3e dc 72 c3 3d 9a bc b3 bd
       -0.06353954 0.14166437 0.09543392 -0.08776207
0000a0 43 46 9c 3d 09 d6 3e 3e bb 47 0e 3d f0 0c 1e bd
       0.07630589 0.18636335 0.034736376 -0.038586557
0000b0 f1 34 af 3d 83 d1 05 be 78 9f af 3c c1 dd 41 be
       0.0855502 -0.13068204 0.021438345 -0.18932249
0000c0 5f 7b 3f 3d 55 dd 3a 3e c5 43 0f 3e 99 ef 84 bc
       0.046748515 0.18248494 0.13990696 -0.01622753
0000d0 d3 ec 69 bc 43 25 3a 3e bc 29 a1 3d c1 f7 eb 3b
       -0.014277655 0.18178277 0.07869288 0.0072011654
0000e0 1a 08 dc bd b6 91 29 3e ad 99 10 3e 4f b1 c0 3b
       -0.10743733 0.1655949 0.14121123 0.005880512
0000f0 13 b0 e0 bc 24 c1 0f 3e da 5d 03 be 2c 7e d9 3d
       -0.027427709 0.14038521 -0.1282877 0.106197685
000100 8c 11 b6 bd f2 70 a5 3d f8 d9 04 be a6 3e ce 3d
       -0.088900656 0.08078183 -0.12973773 0.10070543
000110 28 ee da 3c 53 ad 0b be 55 ca 32 3e 14 80 cd 3d
       0.02672489 -0.13640337 0.17459996 0.100341946
000120 a3 ab ff bd af 3b 2e bd 2f 41 a9 3b 90 7b d6 3d
       -0.12483909 -0.042537387 0.005165241 0.104727864
000130 a4 79 de bd 1d 44 26 3e 1c 66 02 3e 54 48 0d be
       -0.10863045 0.1623692 0.12734264 -0.13797122
000140 8b e1 1f 3d 63 c6 7f 3c e9 64 cf bd 37 4d 04 be
       0.039033454 0.015611264 -0.10126669 -0.1292008
000150 f1 a2 98 3d ae ca 3c bd ed fd 29 3c 45 76 e9 bd
       0.074529536 -0.046091728 0.010375482 -0.11399511
000160 a7 64 16 be f9 11 e5 bd 87 0f 91 3d 38 36 67 bd
       -0.14686833 -0.11185069 0.0708304 -0.05644819
000170 d1 4a e8 bd 1c 21 35 bd 42 93 38 be 3a e3 ac 3d
       -0.11342395 -0.04422103 -0.18024924 0.084417775
000180 32 ed fa 3d 43 f1 26 be 31 74 b1 bb 1d cd ef 3d
       0.12252273 -0.16302972 -0.0054154624 0.11709044
000190 0b e6 ff 3c 07 c1 0c be 20 f0 5d 3d 36 1d 3c be
       0.031237623 -0.13745509 0.05418408 -0.18370518
0001a0 d6 e1 1d 3e af c1 26 be 07 1b e1 bd c3 34 95 bc
       0.15418181 -0.16284822 -0.10991483 -0.018213635

deconv3.bias f4 [3]
000000 f2 dc 37 3e 7b 35 0e 3c e0 fb 32 3d
       0.17955378 0.008679743 0.043697238

deconv4.weight f4 [3, 1, 5, 5]
000000 ee 56 cf 3c 91 35 db bc f7 7a b5 bd fe 6a 22 3d
       0.025310006 -0.02675894 -0.08861344 0.039652817
000010 6e f0 57 be 72 ef 20 bd ed 86 fa bc 48 cf d3 bd
       -0.2108781 -0.039290853 -0.030581916 -0.1034227
000020 d7 47 4a be f7 27 fd bd 32 65 41 be f9 3e 89 3c
       -0.19753967 -0.12361138 -0.18886259 0.01675366
000030 4b 06 95 bc 7a 50 64 bc 87 91 d1 bb bf f7 6c bd
       -0.018191477 -0.013935203 -0.006395522 -0.057853457
000040 4c 88 fd bb da dc 4c be c9 a1 9b 3d 6d 97 c8 3d
       -0.007737195 -0.20006123 0.075992174 0.09794507
000050 1f dd c3 3d d3 5e 4f be ee e6 17 be ec 94 62 be
       0.0956366 -0.20251016 -0.14834186 -0.22127122
000060 47 cf 81 3d cf 37 91 3c 42 7a 53 be dc 23 fb 3d
       0.06338363 0.017726807 -0.20652106 0.12262699
000070 3f da 93 3c e0 da 7d 3d 27 35 73 3c 0d 7f 68 3d
       0.018048404 0.061976314 0.0148442155 0.05676179
000080 63 b6 c3 bd 23 b5 ad bd c1 f0 05 be 18 9c 89 bd
       -0.09556272 -0.08481815 -0.13080122 -0.06719226
000090 32 42 b5 3d 2f 01 84 3d 16 6c 62 3d 4d b2 68 be
       0.088505164 0.06445538 0.05527886 -0.22724266
0000a0 cb e9 03 be 98 3c 2c be e2 96 82 bd 6f 39 37 be
       -0.12882154 -0.1681999 -0.06376435 -0.17893003
0000b0 70 88 fc 39 ee b6 93 bc 97 d0 1e be 85 2c 2e 3d
       0.0004816684 -0.018031564 -0.15509258 0.042522926
0000c0 eb b1 e9 bd 9d 77 14 bc 1e 47 3d 3d ff ba 2b be
       -0.11410888 -0.009061721 0.0462104 -0.16770552
0000d0 9d 50 2a be 2a 11 22 be c3 b0 97 bd ea a3 de 3d
       -0.16632314 -0.1582686 -0.074067615 0.10871108
0000e0 48 2e 0a 3e 03 16 03 3e 76 d6 85 3b 4a 50 fd 3d
       0.13494217 0.12801366 0.0040844036 0.123688295
0000f0 e9 49 dd 3d c7 d3 97 3d bf 6a ea bd d2 9e 67 3d
       0.10805113 0.0741344 -0.114461415 0.056547947
000100 54 3d cf bb 6e b9 25 be 31 cf 16 be c5 6d 99 3d
       -0.0063244496 -0.16184017 -0.14727475 0.0749164
000110 f4 d1 f9 3d 27 4c 17 3c d7 e2 91 bd 43 fc 7f 3d
       0.121982485 0.009234465 -0.071233444 0.062496435
000120 e0 71 4a 3d e5 93 4e 3c 7c 36 37 bd
       0.049425006 0.012608503 -0.044729695

bn5.weight f4 [12]
000000 d9 dc 8b 3f 49 00 86 3f e7 66 80 3f 05 a0 88 3f
       1.0926772 1.0468837 1.0031403 1.0673834
000010 d1 53 67 3f 9d 07 83 3f f8 c5 70 3f 0e 27 83 3f
       0.9036227 1.0236698 0.94052076 1.0246294
000020 c0 b2 6f 3f 3b 11 8a 3f 28 b3 65 3f 63 bf 6e 3f
       0.93632126 1.0786508 0.89726496 0.9326078

bn5.bias f4 [12]
000000 a3 16 12 3d 21 73 bb 3c c0 f4 b9 bc a3 7d 09 bb
       0.03566612 0.022882046 -0.022699714 -0.0020979426
000010 4f e7 d7 bb 5c 02 89 3c b2 b2 e2 bc dc 0f 2c 3d
       -0.0065888534 0.016724758 -0.0276731 0.042007312
000020 99 91 b7 bc 42 73 96 3c 21 0b 83 bd 9d 7a 59 3c
       -0.022408294 0.018365506 -0.06398607 0.013273862

bn5.running_mean f4 [12]
000000 fd c5 06 3c 77 a8 b4 3d f5 cf ae 3c 12 e4 9a bc
       0.008225915 0.088211946 0.021339396 -0.01890758
000010 ea 54 a0 3d c8 eb ed bc f3 5c a8 bd 06 b2 70 3c
       0.07828696 -0.029043093 -0.08220854 0.014690882
000020 fd 93 ac bd da 97 46 bd 85 75 7f 3d e4 db 3f 3d
       -0.08426664 -0.04848466 0.062367935 0.046840563

bn5.running_var f4 [12]
000000 43 19 cb 3d 5a b0 da 3d b0 03 07 3e a4 ab 07 3e
       0.09916928 0.10678168 0.13185 0.1324907
000010 f4 3f 19 3e ec 5e d2 3d 5e 13 d5 3d 4c 7c a0 3d
       0.14965802 0.10272011 0.104040846 0.07836208
000020 15 26 12 3e 48 cf 9a 3d 6e 8f d4 3d 98 47 de 3d
       0.1427234 0.07559067 0.103789195 0.10853499

bn6.weight f4 [4]
000000 c0 d0 72 3f a3 5d 82 3f 17 9d 82 3f dc c7 7f 3f
       0.9484978 1.0184826 1.020419 0.99914336

bn6.bias f4 [4]
000000 7c 49 44 3c 24 e9 0e 3c f4 35 17 3c 0a 55 26 3c
       0.011980411 0.008722577 0.009229172 0.010152111

bn6.running_mean f4 [4]
000000 81 cc a5 bd 37 09 ac bd 98 02 4b 3e 82 c6 5f bc
       -0.08095647 -0.08400195 0.19825208 -0.013658168

bn6.running_var f4 [4]
000000 c2 53 cc 3d 4b 7a 4f 3d 33 26 b2 3d 24 e1 50 3d
       0.09976913 0.050653737 0.08698692 0.05099596

bn7.weight f4 [3]
000000 e0 8d 82 3f cd ff 82 3f 9a b9 75 3f
       1.0199547 1.0234314 0.9598633

bn7.bias f4 [3]
000000 eb 1c 97 3d df 2a 6b 3c 05 31 50 bd
       0.073785625 0.014353483 -0.050828

bn7.running_mean f4 [3]
000000 45 e5 72 3e a9 e6 19 3e 32 d2 8f 3d
       0.23720272 0.15029396 0.070225134

bn7.running_var f4 [3]
000000 d4 3a 07 3e 0e 2d 58 3e 0f d6 81 3e
       0.13206035 0.21110937 0.25358626
