saved_models_2D/best_patch_fold_CVAE2D_364_1.0.pth (torch, 444890 bytes, 29 tensors)

conv1.weight f4 [16, 1, 3, 3]
-0.45847067 -0.13245383 -0.3348816 0.08288048 0.3464441 0.065067515 1.2775654 -0.31452575
1.4407833 0.17391351 0.1799123 -1.0792091 0.2907965 0.93949026 -0.6346021 0.060381148
-0.0007717344 0.43557867 -0.25514022 0.33268118 -0.3046009 -0.89390266 -0.5808907 -1.1158702
-0.13171025 -0.11733623 -0.46165353 -0.23074183 -0.27811286 -0.3174885 0.15996768 0.024750615
-0.13440458 0.25902435 0.7032878 0.39794672 -0.28418928 -1.0087302 -0.48121753 -0.15861396
0.19465251 0.52931947 -0.21246588 0.74267143 0.67067355 -0.84689105 -0.043715514 -0.7331153
0.13434757 -0.065405644 -0.025151148 -0.50042415 -0.05737506 -0.11029847 0.23339657 1.1880053
-0.2600543 -0.07744951 0.5820174 -0.060175266 -0.4762794 0.38117063 0.08119762 -0.384001
-0.43869302 0.42246607 -0.0011090451 -0.37673277 -0.3107241 -0.19316848 -0.6132548 0.6204364
0.12615497 0.029021958 0.36008972 -0.5247823 -0.4242464 0.08712364 -0.25542828 -0.5198838
-0.3983168 0.04057593 -0.6669513 -0.032105856 -0.04833719 -0.8383046 0.4480624 -0.51506335
-0.20473209 -0.08011356 -0.48014113 -0.3745113 -0.22961265 -0.3392983 -0.6511169 -0.3127471
0.2920495 0.13595062 -0.097480856 0.3550426 0.4478372 -0.031512946 1.2608905 1.0384822
-0.049674634 0.13324454 -0.16504633 -0.17634305 -0.28232518 -0.17200875 -1.0086517 0.12867677
-0.5695554 0.7512748 0.4844398 0.17400828 0.10411015 0.4051255 -0.61554474 -0.50520784
0.41238612 0.5380388 -0.34440577 0.5254334 -0.17991196 -0.3172115 -0.3944827 0.17978828
-0.479603 -0.12535922 -0.18323092 -0.387016 0.067244045 0.41109365 0.4795045 0.6875609
-0.059138015 0.31843665 0.041609384 -0.22703809 -0.3188908 0.5804557 0.68555146 -0.12011846
00000000: abbc eabe faa1 07be 9a75 abbe 3ebd a93d
00000010: 1f61 b13e 1e42 853d 4387 a33f 8509 a1be
00000020: 966b b83f 6216 323e ee3a 383e 8623 8abf
00000030: 47e3 943e 6f82 703f 4975 22bf 3952 773d
00000040: 384e 4aba 2b04 df3e bda1 82be 3055 aa3e
00000050: a6f4 9bbe ced6 64bf 41b5 14bf d6d4 8ebf
00000060: 0ddf 06be fa4d f0bd da5d ecbe 9647 6cbe
00000070: cf64 8ebe da8d a2be 91ce 233e cdc1 ca3c
00000080: 5ba1 09be d79e 843e ab0a 343f acbf cb3e
00000090: 4281 91be 121e 81bf 2562 f6be b36b 22be
000000a0: fd52 473e 7b81 073f a890 59be b71f 3e3f
000000b0: 43b1 2b3f dacd 58bf 0a0f 33bd 72ad 3bbf
000000c0: 6992 093e 65f3 85bd c809 cebc cc1b 00bf
000000d0: 1c02 6bbd 2ae4 e1bd 83ff 6e3e 8f10 983f
000000e0: d625 85be d99d 9ebd 18ff 143f 577a 76bd
000000f0: e5da f3be cc28 c33e f04a a63d c79b c4be
00000100: 5f9c e0be 794d d83e 615d 91ba 1ee3 c0be
00000110: 3b17 9fbe f5cd 45be 44fe 1cbf ebd4 1e3f
00000120: c52e 013e 75bf ed3c ae5d b83e 2258 06bf
00000130: d336 d9be e16d b23d 7fc7 82be 1b17 05bf
00000140: 2ef0 cbbe f232 263d 52bd 2abf 6e81 03bd
00000150: 38fd 45bd 219b 56bf 6f68 e53e 31db 03bf
00000160: 4aa5 51be 9412 a4bd 0fd5 f5be f2bf bfbe
00000170: 941f 6bbe 82b8 adbe 99af 26bf 6320 a0be
00000180: 8387 953e a436 0b3e 0ba4 c7bd 25c8 b53e
00000190: eb4a e53e b813 01bd dc64 a13f fcec 843f
000001a0: a177 4bbd 4271 083e e801 29be 4693 34be
000001b0: ed8c 90be 1023 30be 801b 81bf d8c3 033e
000001c0: 62ce 11bf 8c53 403f 7e08 f83e 3a2f 323e
000001d0: b437 d53d 9c6c cf3e 5794 1dbf 4d55 01bf
000001e0: 4624 d33e e9bc 093f f455 b0be ce82 063f
000001f0: d73a 38be 8c69 a2be a3f9 c9be 6b1a 383e
00000200: 868e f5be 2b5e 00be e3a0 3bbe f626 c6be
00000210: 3fb7 893d de7a d23e 9d81 f53e fe03 303f
00000220: b43a 72bd 210a a33e 9a6e 2a3d ac7c 68be
00000230: a845 a3be bf98 143f 4d80 2f3f ab00 f6bd

conv1.bias f4 [16]
-0.016822021 -0.027355852 -0.008947746 0.10115981 -0.014628328 0.0021835233 0.078771316 -0.028762296
0.0523376 0.0054248334 0.019913776 0.0033593022 -0.08883457 -0.0063067903 0.079329 -0.0037600808
00000000: 56ce 89bc 6119 e0bc 9199 12bc e02c cf3d
00000010: a8ab 6fbc 7119 0f3b db52 a13d e89e ebbc
00000020: f45f 563d cdc2 b13b 3722 a33c bd27 5c3b
00000030: e6ee b5bd 31a9 cebb 3e77 a23d b06b 76bb

conv2.weight f4 [32, 16, 3, 3]
-0.0986897 -0.04589421 -0.0063297316 0.1579272 -0.038439576 0.09481572 0.27062914 0.24863015
0.0772006 0.01613958 -0.0028061005 -0.13461821 0.06363365 -0.08094085 0.033580273 0.03579183
-0.11927764 -0.05783272 -0.16390608 -0.2018937 -0.22609521 -0.0883633 -0.32467803 -0.07336408
-0.24510816 -0.124983504 -0.030574525 0.124836765 -0.2005703 0.05192487 0.118334524 0.08365916
0.24334161 0.17180815 0.12060859 0.14953835 -0.1966151 -0.14881268 0.053792395 0.123688325
-0.11513388 -0.16298279 0.24619636 0.13669401 -0.023440776 -0.15267946 0.00038114595 0.13188763
-0.10581882 -0.13961741 -0.14329563 0.02790126 -0.09915529 0.109428965 -0.00880976 0.17824095
0.061381552 -0.0561523 -0.008183414 -0.0032565903 -0.006589439 0.2442859 0.25082982 -0.067611456
-0.18469068 -0.20388314 -0.120961756 -0.28451934 0.1130753 -0.12589912 -0.080765486 -0.09760369
0.018324424 0.11766228 -0.041159347 -0.19517386 0.024627386 -0.21839163 -0.25355765 0.07369924
-0.15408407 -0.19877753 -0.05927541 -0.042728137 0.024179347 -0.08334245 0.08487811 0.0019920825
-0.0078522945 0.10014952 0.104802385 -0.22567877 -0.13082251 -0.074728526 0.07795791 -0.01466866
-0.029367791 -0.008702194 -0.18322943 0.2587118 -0.10639943 0.06019332 0.20526089 0.22980875
0.033012625 0.12961002 0.11737102 0.026828488 -0.12416924 -0.1929899 -0.2733618 -0.04316217
-0.19893625 0.15579526 -0.05949509 -0.0019478498 -0.11223734 0.16979359 0.09517399 -0.007156694
0.04277802 0.11293689 -0.064345285 -0.021811496 0.17183428 0.050925836 0.18955994 -0.008606425
-0.11481501 -0.073325954 -0.05923506 -0.24893433 -0.042524524 -0.066945754 -0.1969291 -0.04043051
0.20231517 -0.065676786 0.106203936 -0.103918225 0.07095349 0.21415423 0.06873222 0.09606482
0.023601407 0.1519186 -0.0573484 0.043178502 0.06280616 -0.035085913 -0.08654916 -0.1280405
-0.41034266 -0.17806827 -0.032400843 0.22661723 0.06523886 0.08163769 0.10346331 -0.025979387
0.0025351918 0.016228596 0.21856318 -0.010671881 0.07255886 0.08906264 0.017648257 0.16780634
0.18991174 -0.037426706 0.25931942 -0.0084498655 0.10043472 -0.081363544 0.23165956 0.18623385
-0.045181386 -0.026940595 0.102958165 0.0007019443 0.3139197 0.04209858 0.04095146 -0.004563299
0.005944009 0.047359046 0.11412124 0.086419284 -0.021900041 0.02082657 0.043646734 0.08917291
-0.18119444 -0.06788368 0.012106309 -0.09356182 0.09749976 0.32806465 -0.11700822 0.16534308
-0.021334173 -0.009952958 -0.15040666 0.010827438 -0.20439751 -0.07172241 -0.24320886 0.3103123
-0.01905286 -0.17315893 0.010850078 -0.12519275 -0.13010193 -0.045459826 0.23223583 0.071299545
-0.1329518 0.14475895 0.09856747 0.02581729 -0.07544357 0.09083652 0.16354471 0.23475528
0.02585517 0.014626564 0.12513548 -0.048730515 -0.12682211 0.11774402 0.023422448 -0.102869436
-0.06849464 -0.04904196 0.06355524 0.11583979 0.04888395 0.30058047 -0.039727077 0.17920446
0.05968589 0.02032029 0.17016768 -0.090741895 -0.035697456 -0.011424684 -0.18572631 -0.1455878
-0.096935324 -0.012611178 -0.24257182 -0.21873155 0.17292461 -0.009520947 0.15819386 -0.15569675
00000000: d31d cabd 91fb 3bbd a369 cfbb abb7 213e
00000010: d172 1dbd bf2e c23d e78f 8a3e e798 7e3e
00000020: 591b 9e3d 2737 843c 8ee6 37bb 5bd9 09be
00000030: 5c52 823d 51c4 a5bd 788b 093d 749a 123d
00000040: d647 f4bd 01e2 6cbd ffd6 27be 39bd 4ebe
00000050: 8185 67be d1f7 b4bd 333c a6be e83f 96bd
00000060: a2fd 7abe 5af7 ffbd 6d77 fabc 6baa ff3d
00000070: 4d62 4dbe 2caf 543d 5f59 f23d 7e55 ab3d
00000080: 8b2e 793e 7aee 2f3e a301 f73d 9520 193e
00000090: 7855 49be 5a62 18be 6a55 5c3d 4e50 fd3d
000000a0: 50cb ebbd f6e4 26be e61a 7c3e 84f9 0b3e
000000b0: df06 c0bc 0158 1cbe 8bd4 c739 8d0d 073e
000000c0: 8ab7 d8bd def7 0ebe 17bc 12be 2f91 e43c
000000d0: ee11 cbbd 4b1c e03d d056 10bc cc84 363e
000000e0: 396b 7b3d f4ff 65bd ba13 06bc 856c 55bb
000000f0: 39ec d7bb 1526 7a3e c46c 803e e077 8abd
00000100: 8e1f 3dbe bec6 50be ccba f7bd 85ac 91be
00000110: 0694 e73d b3eb 00be 6068 a5bd 72e4 c7bd
00000120: 1a1d 963c ecf8 f03d b496 28bd a8db 47be
00000130: 5fbf c93c 0ea2 5fbe 4fd2 81be a1ef 963d
00000140: 37c8 1dbe 568c 4bbe c6ca 72bd b303 2fbd
00000150: c413 c63c 72af aabd 93d4 ad3d 998d 023b
00000160: e9a6 00bc 311b cd3d a2a2 d63d 5618 67be
00000170: 56f6 05be 450b 99bd 66a8 9f3d d254 70bc
00000180: b994 f0bc a693 0ebc 7fa0 3bbe e075 843e
00000190: f2e7 d9bd 458d 763d e92f 523e fc52 6b3e
000001a0: 3f38 073d 7db8 043e 3860 f03d 6bc7 db3c
000001b0: 714c febd 259f 45be 14f6 8bbe d1ca 30bd
000001c0: f2b5 4bbe cb88 1f3e 20b1 73bd fe4e ffba
000001d0: b1dc e5bd 5fde 2d3e 95ea c23d b382 eabb
000001e0: 0138 2f3d 754b e73d 76c7 83bd 06ae b2bc
000001f0: 53f5 2f3e 9c97 503d 001c 423e f601 0dbc
00000200: 2224 ebbd eb2b 96bd 76a0 72bd a4e8 7ebe
00000210: 322e 2ebd db1a 89bd c8a7 49be 769a 25bd
00000220: b52b 4f3e 8d81 86bd 7381 d93d 14d3 d4bd
00000230: 1050 913d 3f4b 5b3e 7ac3 8c3d a2bd c43d
00000240: bd57 c13c 8d90 1b3e 28e6 6abd f1db 303d
00000250: 84a0 803d 3fb6 0fbd b040 b1bd 0d1d 03be
00000260: 6f18 d2be 8757 36be bfb6 04bd 590e 683e
00000270: f49b 853d a931 a73d 92e4 d33d b9d2 d4bc
00000280: 7625 263b d5f1 843c 07cf 5f3e 1dd9 2ebc
00000290: bd99 943d 7966 b63d 1493 903c 6dd5 2b3e
000002a0: 3978 423e bf4c 19bd 84c5 843e 4e71 0abc
000002b0: b8b0 cd3d eea1 a6bd 2a38 6d3e 16b4 3e3e
000002c0: 1e10 39bd 86b2 dcbc bbdb d23d af02 383a
000002d0: 15ba a03e 906f 2c3d b8bc 273d ba87 95bb
000002e0: f6c5 c23b 8ffb 413d 66b8 e93d 98fc b03d
000002f0: b767 b3bc 7c9c aa3c ebc6 323d 49a0 b63d
00000300: 098b 39be 9906 8bbd 8a59 463c 579d bfbd
00000310: f4ad c73d 17f8 a73e 01a2 efbd b24f 293e
00000320: 01c5 aebc bb11 23bc 3404 1abe 9165 313c
00000330: 954d 51be 33e3 92bd be0b 79be 41e1 9e3e
00000340: be14 9cbc 9350 31be 87c4 313c 8732 00be
00000350: 7139 05be 1534 3abd 3bcf 6d3e 7f05 923d
00000360: 8424 08be b13b 143e bedd c93d c87e d33c
00000370: 2982 9abd 7f08 ba3d 4478 273e b063 703e
00000380: 39ce d33c 42a4 6f3c 8423 003e a699 47bd
00000390: a8dd 01be c723 f13d 6fe0 bf3c 36ad d2bd
000003a0: eb46 8cbd 39e0 48bd 4029 823d 693d ed3d
000003b0: 893a 483d afe5 993e dcb8 22bd 6081 373e
000003c0: 3179 743d bd76 a63c 7040 2e3e e3d6 b9bd
000003d0: 7f37 12bd 992e 3bbc 0a2f 3ebe f814 15be
000003e0: 0786 c6bd 1d9f 4ebc bf64 78be 2afb 5fbe
000003f0: 2613 313e bffd 1bbc 92fd 213e f86e 1fbe

conv2.bias f4 [32]
0.03357923 0.019301603 -0.03012759 -0.016971674 0.026324008 -0.005565698 -0.010213774 0.016664365
-0.058852773 0.010373252 -0.00011907541 0.017504675 -0.03226989 0.0077290493 -0.00019000875 -0.022405744
-0.03401561 -0.015813954 0.0039879223 0.017467422 -0.047677103 -0.040565737 -0.014714362 -0.03809105
0.035797216 -0.016302032 0.021948868 -0.037788983 0.026935743 -0.011884992 0.0022421894 0.06538786
00000000: 608a 093d 651e 9e3c 23ce f6bc 2e08 8bbc
00000010: 72a5 d73c 7560 b6bb ac57 27bc b583 883c
00000020: 9b0f 71bd 93f4 293c 20b8 f9b8 f765 8f3c
00000030: 6f2d 04bd f743 fd3b 163d 47b9 408c b7bc
00000040: f453 0bbd 448c 81bc 1ead 823b d717 8f3c
00000050: 1149 43bd 4228 26bd 8214 71bc 5c05 1cbd
00000060: 1aa0 123d d78b 85bc 1dce b33c 9fc8 1abd
00000070: 59a8 dc3c 45b9 42bc b2f1 123b 12ea 853d

conv3_mu.weight f4 [64, 32, 4, 4]
-0.031176576 0.06495035 0.02683211 -0.04709385 0.01838671 0.014711474 -0.09140047 -0.12332018
-0.107202485 -0.035728242 -0.10489844 -0.085790634 -0.06986418 -0.0308741 -0.14731923 -0.065225236
-0.08396253 0.012367423 -0.064193055 0.0045232447 0.052432604 -0.13955362 -0.077861026 -0.056522314
-0.09986575 0.0680335 -0.044270176 -0.015476124 0.049057238 -0.037331253 -0.047369238 -0.055915136
0.054519303 0.063328624 0.06860676 -0.029963175 -0.07919742 -0.08162851 -0.080502205 -0.11474416
-0.014265087 0.03212946 -0.18538551 -0.11605509 -0.09196603 -0.03253637 -0.11628016 -0.2443643
-0.0712463 0.066109255 0.103545316 0.03192439 -0.09776892 -0.096522495 0.027928071 0.07216957
-0.06774808 -0.051588472 -0.15044053 -0.118100345 0.050998084 -0.030146506 -0.06762588 -0.019593064
-0.059661683 -0.11856653 -0.09718857 -0.024994392 -0.03777701 -0.05753858 -0.022906322 -0.052692886
-0.16082096 -0.10139722 -0.047028698 -0.020080164 -0.17676231 -0.1410268 0.02360618 -0.12228909
0.0035881605 0.09906305 -0.0007807347 -0.049153868 -0.057046477 -0.034658466 0.017466836 0.0019330634
-0.021529986 -0.073822156 -0.007366 -0.08751763 -0.09719072 -0.032578245 -0.1634496 -0.049608853
-0.06261898 -0.052865297 -0.06966661 0.003007145 0.015864274 0.0064113704 0.036151074 -0.07001782
0.08722419 -0.06625755 -0.037298944 0.019615373 0.064206325 -0.10783999 -0.005677304 -0.041632712
0.016440071 0.048201133 0.040521607 -0.023459308 -0.13126908 -0.027765693 -0.04659001 -0.16033706
-0.16481636 0.01944326 -0.12436062 -0.008966447 -0.03439218 -0.12596862 -0.07232769 -0.10302772
-0.10388095 -0.058444913 -0.15444833 -0.022898177 -0.08635708 -0.0147427 -0.036965355 -0.11085507
-0.04560062 -0.026162624 -0.07375388 -0.09409182 -0.060599584 -0.015643902 0.029599823 -0.07332089
-0.019670619 -0.1002067 -0.06368467 -0.048762895 -0.12659594 -0.098938726 0.19457987 -0.25803822
-0.06658405 0.02223288 -0.03838251 -0.076692775 -0.051313575 -0.03669562 -0.08360491 -0.089370295
-0.03200765 -0.035467964 -0.07593071 -0.01070753 -0.06986332 -0.013095408 0.03413881 -0.08056091
-0.00079116155 0.003788382 0.03254033 -0.07913195 0.029813984 0.018387597 -0.04550054 -0.105038166
0.15443198 -0.12717152 0.013566747 -0.019927023 -0.06327384 -0.01742063 0.022502525 -0.049400132
-0.13234821 -0.16265325 0.0500091 -0.057951815 -0.058620922 0.088752575 -0.15666193 0.1175808
-0.2310306 -0.10048026 -0.14712447 -0.1081238 -0.01353742 0.051413972 0.018615272 0.0066260668
-0.10471914 -0.123011746 0.022060081 -0.1626939 -0.2007992 0.035207324 0.08166508 -0.11887944
-0.013345925 -0.00592812 -0.056981593 -0.11424023 -0.06815487 0.030624278 -0.107231885 -0.07450494
0.007753934 0.117888995 -0.15508837 -0.20606989 0.043067947 -0.063298084 -0.11851869 -0.018277727
-0.1434047 -0.10667019 -0.052484617 -0.086412035 0.025580727 -0.033958565 -0.10289502 -0.09858722
0.11013721 0.07541968 -0.020921301 0.0324687 0.014394343 -0.037187688 -0.016338056 -0.050169464
0.12031786 -0.06583714 -0.08221691 -0.13607669 0.16974016 -0.09544132 -0.02733084 -0.027880434
0.057939548 0.0042526796 -0.14678705 -0.16497295 0.07930365 -0.06519684 -0.079369456 -0.09430049
00000000: 0566 ffbc b004 853d 03cf db3c 7be5 40bd
00000010: ba9f 963c 6508 713c 2b30 bbbd 4a8f fcbd
00000020: fa8c dbbd c757 12bd fed4 d6bd 00b3 afbd
00000030: f414 8fbd aeeb fcbc dada 16be cf94 85bd
00000040: 8cf4 abbd bba0 4a3c a677 83bd ba37 943b
00000050: 92c3 563d 25e7 0ebe 9a75 9fbd f183 67bd
00000060: 6a86 ccbd 2655 8b3d a554 35bd 928f 7dbc
00000070: 3ef0 483d a8e8 18bd 3f06 42bd 4507 65bd
00000080: a24f 5f3d 70b2 813d b381 8c3d 5575 f5bc
00000090: 4232 a2bd d92c a7bd 57de a4bd fcfe eabd
000000a0: 1db8 69bc 2e9a 033d b3d5 3dbe 4bae edbd
000000b0: b058 bcbd db44 05bd 4b24 eebd a33a 7abe
000000c0: 95e9 91bd 4a64 873d 910f d43d 26c3 023d
000000d0: 123b c8bd 96ad c5bd 69c9 e43c a4cd 933d
000000e0: 81bf 8abd 6f4e 53bd 150d 1abe 98de f1bd
000000f0: 5ee3 503d cef5 f6bc 707f 8abd a281 a0bc
00000100: cf5f 74bd 02d3 f2bd cd0a c7bd 0ac1 ccbc
00000110: 11bc 1abd 93ad 6bbd 0aa6 bbbc 7fd4 57bd
00000120: 40ae 24be 58a9 cfbd 2aa1 40bd 287f a4bc
00000130: 2e01 35be 5469 10be bf61 c13c b472 fabd
00000140: 5827 6b3b 91e1 ca3d 38aa 4cba 9155 49bd
00000150: 91a9 69bd 09f6 0dbd 9c16 8f3c d85e fd3a
00000160: a75f b0bc 1230 97bd 7d5e f1bb 713c b3bd
00000170: ee0b c7bd c470 05bd 555f 27be a732 4bbd
00000180: 613e 80bd 4889 58bd 5ead 8ebd 8513 453b
00000190: cbf5 813c 7916 d23b 2613 143d 8165 8fbd
000001a0: 99a2 b23d 0ab2 87bd c7c6 18bd 6bb0 a03c
000001b0: 9b7e 833d 36db dcbd ae08 babb 1087 2abd
000001c0: 54ad 863c 8d6e 453d fcf9 253d bc2d c0bc
000001d0: 676b 06be e174 e3bc 2bd5 3ebd 662f 24be
000001e0: 9fc5 28be 7947 9f3c c8b0 febd 01e8 12bc
000001f0: d1de 0cbd ebfd 00be 8a20 94bd 3200 d3bd
00000200: 89bf d4bd ef63 6fbd b427 1ebe f594 bbbc
00000210: fbdb b0bd 5e8b 71bc fc68 17bd fc07 e3bd
00000220: b7c7 3abd 0053 d6bc 460c 97bd 36b3 c0bd
00000230: 4537 78bd a427 80bc 547b f23c 4329 96bd
00000240: 4724 a1bc 2c39 cdbd 1c6d 82bd 9abb 47bd
00000250: 5ea2 01be 63a0 cabd f23f 473e 961d 84be
00000260: 385d 88bd bb21 b63c fb36 1dbd 1a11 9dbd
00000270: 2f2e 52bd 254e 16bd 0d39 abbd c607 b7bd
00000280: 741a 03bd db46 11bd 8f81 9bbd a36e 2fbc
00000290: 8014 8fbd 1f8e 56bc 23d5 0b3d 1efd a4bd
000002a0: f465 4fba 8146 783b 0249 053d ef0f a2bd
000002b0: 753c f43c 96a1 963c c65e 3abd 401e d7bd
000002c0: 6b23 1e3e 4039 02be 1047 5e3c ff3d a3bc
000002d0: b795 81bd b6b5 8ebc 3757 b83c cb57 4abd
000002e0: 4a86 07be 938e 26be 58d6 4c3d e25e 6dbd
000002f0: 7e1c 70bd e9c3 b53d fc6b 20be 34ce f03d
00000300: 4993 6cbe 98c8 cdbd cca7 16be 0370 ddbd
00000310: 0ecc 5dbc 7597 523d 0e7f 983c 7a1f d93b
00000320: fd76 d6bd 95ed fbbd 58b7 b43c 3b99 26be
00000330: 4e9e 4dbe 8e35 103d 0540 a73d 1077 f3bd
00000340: dea8 5abc ad40 c2bb 8865 69bd c8f6 e9bd
00000350: c894 8bbd c4df fa3c 649c dbbd 0c96 98bd
00000360: b614 fe3b c96f f13d 7ccf 1ebe fc03 53be
00000370: 0468 303d 6da2 81bd edb9 f2bd 2cbb 95bc
00000380: afd8 12be e775 dabd 1cfa 56bd cbf8 b0bd
00000390: ac8e d13c 2318 0bbd a0ba d2bd 19e8 c9bd
000003a0: 9e8f e13d a275 9a3d 2663 abbc e6fd 043d
000003b0: 40d6 6b3c 1e52 18bd 63d7 85bc 7f7e 4dbd
000003c0: 3669 f63d 9fd5 86bd 5761 a8bd b057 0bbe
000003d0: 5dd0 2d3e bd76 c3bd ede4 dfbc 8265 e4bc
000003e0: 0552 6d3d 105a 8b3b 584f 16be abee 28be
000003f0: f469 a23d ec85 85bd 748c a2bd 9e20 c1bd

conv3_mu.bias f4 [64]
-0.10153671 -0.068119735 0.0074309027 -0.09036293 -0.09938501 -0.002591435 -0.0007654672 -0.0176175
-0.07134807 0.032764982 -0.053308584 0.0022188807 0.0034492144 -0.0122754965 -0.10163264 -0.09285859
-0.014203145 0.0043121395 -0.022631347 -0.061059 0.010752358 0.015214128 -0.1210415 -0.021554168
-0.01852976 0.009328522 0.021956652 -0.011699533 -0.0034976236 -0.0026890824 -0.0046840096 -0.012207072
-0.073572434 -0.006469554 -0.08916876 -0.14172406 -0.06136729 -0.12434588 0.023137318 -0.010153539
0.0130924145 0.009997808 -0.01313547 0.0070929253 -0.004788155 -0.09413996 -0.06704308 -0.021151023
-0.0030107785 -0.0017465943 0.0030078997 -0.008699832 -0.014737764 0.014976559 0.011340074 0.012341126
-0.016927628 -0.006596564 0.022648204 0.015691541 -0.0026731472 0.00841239 0.023441823 0.008342939
00000000: 7bf2 cfbd 5c82 8bbd ee7e f33b 3310 b9bd
00000010: 5e8a cbbd 11d5 29bb a2a9 48ba 9352 90bc
00000020: f01e 92bd 9334 063d 1a5a 5abd a46a 113b
00000030: 370c 623b 2a1f 49bc c624 d0bd a52c bebd
00000040: 4fb4 68bc d94c 8d3b 6065 b9bc 0119 7abd
00000050: a82a 303c ae44 793c 9be4 f7bd 5e92 b0bc
00000060: b9cb 97bc a8d6 183c 70de b33c 66af 3fbc
00000070: 6338 65bb 513b 30bb 527c 99bb 2c00 48bc
00000080: 25ad 96bd 8dfe d3bb 1c9e b6bd 1d20 11be
00000090: 445c 7bbd 0da9 febd 798a bd3c 075b 26bc
000000a0: 9181 563c d9cd 233c 2836 57bc c56b e83b
000000b0: f5e5 9cbb 74cc c0bd e24d 89bd e944 adbc
000000c0: 7b50 45bb fbed e4ba 2f20 453b bd89 0ebc
000000d0: aa76 71bc 3e60 753c b8cb 393c 6f32 4a3c
000000e0: cfab 8abc fd27 d8bb ba88 b93c 8c8b 803c
000000f0: f82f 2fbb 1fd4 093c 1109 c03c d3b0 083c

conv3_var.weight f4 [64, 32, 4, 4]
0.09675272 -0.19823454 -0.12797359 -0.076427676 0.05117187 0.02504939 -0.06790812 -0.03771955
-0.00011220728 -0.015190555 0.043154415 0.03026974 -0.015902463 -0.06341002 -0.18080418 0.058321737
-0.09313925 -8.686571e-05 -0.038370244 -0.1563457 -0.02480545 -0.0054924316 -0.019512255 0.017128719
0.08661314 -0.026800264 -0.025334217 -0.009895747 -0.060851064 -0.22127208 -0.14097694 -0.010908627
-0.07992793 -0.006882965 -0.026485905 0.11443682 -0.31398445 -0.039217725 -0.13214591 -0.024940543
0.028028745 -0.05453046 -0.109125115 0.019046891 0.03428606 0.074262194 -0.040988926 0.06302896
-0.054205414 -0.084067926 -0.023453852 -0.056772865 0.072674334 -0.15577437 -0.062019594 0.014265518
0.07631503 0.12980762 -0.024036793 -0.06785998 -0.022054093 -0.059106972 0.0018645365 -0.07058471
-0.033906132 0.10201511 -0.11185919 -0.034270283 -0.021475313 0.058404893 0.0022395258 -0.03205404
-0.026364071 -0.059072174 0.07026259 -0.055106703 -0.1745392 0.019779919 -0.18714026 -0.0799684
0.0023197546 -0.073427945 -0.015012141 -0.024509938 -0.09952241 -0.13243024 -0.045338705 -0.130244
-0.041594047 -0.09907402 0.034835633 -0.18513882 0.006788964 -0.096237995 0.03169657 -0.026825296
-0.046024844 -0.09524798 -0.06646376 -0.033508398 -0.084580064 -0.114318036 0.12823969 0.014934473
0.03684244 -0.026396139 -0.048846394 -0.000831667 -0.040188495 -0.1295228 -0.05996995 -0.10616138
0.016031535 0.04583274 -0.041377116 -0.08012762 -0.007360106 -0.10346108 0.015780853 -0.043747988
-0.06262248 -0.011554661 -0.040706895 -0.027324198 -0.035423137 -0.015965175 -0.1392894 -0.13733135
0.072464384 -0.02530183 0.038797207 -0.00553969 -0.1065841 -0.026987702 0.0046008946 -0.056470595
-0.11124702 -0.03758172 0.0132401865 -0.025484934 -0.032056406 0.006541942 -0.07485663 -0.1033916
-0.038650345 -0.13037841 -0.0661632 0.07345277 3.9388888e-05 -0.020716459 -0.023446381 0.08689217
-0.02859849 -0.039629232 0.036039423 0.03950775 -0.09622358 0.04834269 -0.15447013 0.085347034
-0.15807436 -0.07379196 -0.03214383 -0.04197132 -0.14256822 -0.09234797 -0.007984046 0.038945302
-0.32336572 0.026057627 0.029387346 0.030565903 -0.18303646 -0.070519485 0.053570203 -0.11140996
0.010766075 -0.083936095 -0.04153644 -0.0081255445 -0.05185028 -0.047357675 -0.086713165 0.14196946
0.029972713 -0.075694 -0.049173154 -0.066685595 0.07597673 -0.1535278 0.039694693 0.0051759807
0.00060254085 -0.008193733 0.016089143 0.04976894 0.024619723 0.0014517633 -0.13650292 -0.0525837
-0.111496456 -0.11403318 0.046984576 0.08198128 -0.27368522 -0.07406359 -0.03709231 -0.019469177
0.04020199 -0.011251311 0.022423359 -0.021287153 -0.05216549 -0.090636894 -0.11826152 0.0834464
0.02776854 0.07961378 0.15225507 -0.20507187 0.026902268 0.009071941 -0.07485894 -0.00561423
-0.10554485 -0.0038390988 -0.0733179 -0.051319897 -0.053083662 -0.035671815 0.039364163 -0.105119176
0.11639994 -0.088738136 0.09388124 -0.057779975 -0.1307012 0.05798482 -0.070562705 -0.034502152
0.06442277 0.02952417 0.052943718 0.060611974 -0.08339096 -0.23233657 -0.01658643 0.02858702
0.028038468 0.033968776 -0.046397403 -0.013967423 0.030094756 0.025448814 -0.037650533 -0.06470057
00000000: 4a26 c63d fffd 4abe 820b 03be 1d86 9cbd
00000010: 9899 513d 6134 cd3c 6a13 8bbd d17f 1abd
00000020: d350 ebb8 cee1 78bc afc2 303d 3ff8 f73c
00000030: e245 82bc 1ddd 81bd bb24 39be c6e2 6e3d
00000040: cbbf bebd ac2b b6b8 1e2a 1dbd 1619 20be
00000050: cd34 cbbc dbf9 b3bb 2ad8 9fbc 8751 8c3c
00000060: 3b62 b13d 3a8c dbbc b489 cfbc c521 22bc
00000070: f73e 79bd 2695 62be 425c 10be 19ba 32bc
00000080: 41b1 a3bd 7f8a e1bb f8f8 d8bc da5d ea3d
00000090: 92c2 a0be c4a2 20bd 4251 07be 1c50 ccbc
000000a0: 8a9c e53c 555b 5fbd fd7c dfbd 3a08 9c3c
000000b0: 8a6f 0c3d c716 983d 01e4 27bd 5415 813d
000000c0: 7f06 5ebd ce2b acbd 4b22 c0bc aa8a 68bd
000000d0: 48d6 943d 5183 1fbe 4208 7ebd ebb9 693c
000000e0: 0e4b 9c3d 4aec 043e cfe8 c4bc 2cfa 8abd
000000f0: c9aa b4bc 271a 72bd 7763 f43a b78e 90bd
00000100: 28e1 0abd 4ced d03d 6e16 e5bd ff5e 0cbd
00000110: ffec afbc f839 6f3d 02c5 123b 194b 03bd
00000120: 77f9 d7bc aaf5 71bd d5e5 8f3d 91b7 61bd
00000130: 67ba 32be 7f09 a23c b2a1 3fbe 79c6 a3bd
00000140: 0607 183b 6461 96bd 7cf5 75bc 11c9 c8bc
00000150: 68d2 cbbd cb9b 07be 14b5 39bd af5e 05be
00000160: 855e 2abd 52e7 cabd cfaf 0e3d 0895 3dbe
00000170: f575 de3b 6d18 c5bd 43d4 013d b9c0 dbbc
00000180: 8c84 3cbd 5f11 c3bd 271e 88bd 1a40 09bd
00000190: 5038 adbd 931f eabd 4451 033e b8af 743c
000001a0: 19e8 163d b73c d8bc 2813 48bd 3a04 5aba
000001b0: b19c 24bd a0a1 04be 0da3 75bd 236b d9bd
000001c0: 9154 833c 1cbb 3b3d 0d7b 29bd f319 a4bd
000001d0: 0b2d f1bb 67e3 d3bd d946 813c 1731 33bd
000001e0: 3740 80bd c34f 3dbc 46bc 26bd ffd6 dfbc
000001f0: da17 11bd 66c9 82bc e1a1 0ebe 97a0 0cbe
00000200: 3568 943d c945 cfbc d2e9 1e3d 4a86 b5bb
00000210: c448 dabd 5015 ddbc 1ac3 963b b64d 67bd
00000220: 7ad5 e3bd 4aef 19bd 5eed 583c c8c5 d0bc
00000230: 944d 03bd c95d d63b 6f4e 99bd fabe d3bd
00000240: d34f 1ebd eb81 05be 9280 87bd 686e 963d
00000250: 7f35 2538 90b5 a9bc a012 c0bc 86f4 b13d
00000260: 6147 eabc 4352 22bd 139e 133d e1d2 213d
00000270: de10 c5bd fc02 463d 6b2d 1ebe 6dca ae3d
00000280: 3fde 21be 3d20 97bd 40a9 03bd 1eea 2bbd
00000290: 67fd 11be ef20 bdbd 84cf 02bc 1c85 1f3d
000002a0: 3190 a5be ce76 d53c bbbd f03c 5865 fa3c
000002b0: e96d 3bbe 856c 90bd 6e6c 5b3d e82a e4bd
000002c0: 3164 303c b0e6 abbd 1d22 2abd 0121 05bc
000002d0: f660 54bd 1ffa 41bd ac96 b1bd 7160 113e
000002e0: 5689 f53c 7505 9bbd ca69 49bd 7592 88bd
000002f0: b099 9b3d 6436 1dbe e796 223d 469b a93b
00000300: d5f3 1d3a 023f 06bc 61cd 833c 84da 4b3d
00000310: 4daf c93c 1849 be3a 6cc7 0bbe 0162 57bd
00000320: 4158 e4bd 3a8a e9bd e672 403d cde5 a73d
00000330: 7820 8cbe a7ae 97bd 1bee 17bd d37d 9fbc
00000340: d8aa 243d 6b57 38bc 31b1 b73c 6562 aebc
00000350: 7bab 55bd d69f b9bd 1933 f2bd f2e5 aa3d
00000360: d97a e33c 8d0c a33d c1e8 1b3e 5cfe 51be
00000370: 2562 dc3c 7aa2 143c a54f 99bd 93f7 b7bb
00000380: e627 d8bd 6499 7bbb b227 96bd d034 52bd
00000390: 416e 59bd 9c1c 12bd 513c 213d b948 d7bd
000003a0: 1763 ee3d 57bc b5bd cf44 c03d b2aa 6cbd
000003b0: 89d6 05be 7e81 6d3d 2e83 90bd 2152 0dbd
000003c0: 16f0 833d acdc f13c 83db 583d 4344 783d
000003d0: e1c8 aabd a3e9 6dbe 44e0 87bc 532f ea3c
000003e0: eeb0 e53c d822 0b3d 340b 3ebd 9ed7 64bc
000003f0: 4789 f63c 087a d03c 7237 1abd bc81 84bd

conv3_var.bias f4 [64]
-0.04290742 -0.044673745 -0.06596909 -0.044542227 -0.048368197 -0.040806632 -0.028934764 -0.051214334
-0.046026822 -0.041687295 -0.066579744 -0.053284086 -0.051227383 -0.058722764 -0.045748048 -0.046896793
-0.061123237 -0.054376643 -0.04293301 -0.048867967 -0.04864886 -0.055742104 -0.058234543 -0.0433956
-0.04632043 -0.06656686 -0.039923467 -0.05293965 -0.048686255 -0.043747514 -0.05531808 -0.060979024
-0.046641983 -0.05221643 -0.04394027 -0.040339854 -0.052992333 -0.05172274 -0.059703037 -0.05742546
-0.08043543 -0.043324973 -0.05399598 -0.054557145 -0.07289809 -0.041606374 -0.052579507 -0.044618182
-0.040552758 -0.070310585 -0.06731287 -0.044861965 -0.065861665 -0.034380555 -0.05323047 -0.078926384
-0.03990749 -0.04233816 -0.05461339 -0.047248945 -0.04284163 -0.04309493 -0.047710765 -0.056699377
00000000: b1bf 2fbd d1fb 36bd cd1a 87bd e971 36bd
00000010: bb1d 46bd db24 27bd 9908 edbc 1fc6 51bd
00000020: 9f86 3cbd 4cc0 2abd f65a 88bd 6a40 5abd
00000030: ced3 51bd 4887 70bd 4e62 3bbd da16 40bd
00000040: 5c5c 7abd 0bba 5ebd 86da 2fbd c729 48bd
00000050: 0744 47bd d551 64bd 5887 6ebd 96bf 31bd
00000060: 7eba 3dbd 3554 88bd ca86 23bd 3fd7 58bd
00000070: 3d6b 47bd 9830 33bd 3695 62bd 24c5 79bd
00000080: aa0b 3fbd e5e0 55bd b6fa 33bd 673b 25bd
00000090: 7d0e 59bd 39db 53bd 2c8b 74bd f636 6bbd
000000a0: 55bb a4bd 8775 31bd e42a 5dbd 5077 5fbd
000000b0: 984b 95bd 726b 2abd 9c5d 57bd 8ec1 36bd
000000c0: a61a 26bd fffe 8fbd 54db 89bd 2ec1 37bd
000000d0: 7be2 86bd a0d2 0cbd 3108 5abd 28a4 a1bd
000000e0: 0976 23bd c76a 2dbd 4ab2 5fbd 1c88 41bd
000000f0: b47a 2fbd 4f84 30bd 5d6c 43bd 9b3d 68bd

bn1.weight f4 [16]
0.96566206 0.8985575 0.99661773 0.98450696 0.98121077 1.0874426 0.87443566 0.86143804
0.98769593 0.84444404 1.109908 1.0348179 0.90410775 0.9314331 0.98511904 0.9594524
00000000: a135 773f dd07 663f 5722 7f3f a608 7c3f
00000010: a130 7b3f 5231 8b3f 04db 5f3f 3487 5c3f
00000020: a4d9 7c3f 7c2d 583f 7711 8e3f ea74 843f
00000030: 9b73 673f 6672 6e3f c330 7c3f ac9e 753f

bn1.bias f4 [16]
0.075811885 0.17090778 0.15969627 0.026322236 0.22545063 0.03592351 0.08420546 0.13773061
0.08663407 0.033936866 0.09742189 0.103423856 0.19207378 0.14796181 -0.04376095 -0.039553393
00000000: 4343 9b3d 7302 2f3e 6b87 233e bba1 d73c
00000010: 88dc 663e 8824 133d ea73 ac3d 4109 0d3e
00000020: 346d b13d 6201 0b3d 2185 c73d e3cf d33d
00000030: fdae 443e 4d83 173e af3e 33bd bd02 22bd

bn1.running_mean f4 [16]
0.7317127 0.17743148 -1.4153525 0.3399016 -0.0005827865 -0.833992 0.7560527 -0.57022005
-0.57275534 -0.7720674 -0.81640476 1.1686187 -0.24565297 -0.021286264 -0.09699654 0.5793047
00000000: 8651 3b3f 99b0 353e 452a b5bf 9507 ae3e
00000010: 24c6 18ba 8080 55bf ab8c 413f f1f9 11bf
00000020: 18a0 12bf 36a6 45bf e7ff 50bf 4c95 953f
00000030: 748c 7bbe 8860 aebc 1fa6 c6bd 504d 143f

bn1.running_var f4 [16]
0.87698025 0.2447759 1.9806577 0.21970087 0.3820919 0.7244493 0.55943626 0.36082187
0.49446112 0.6430959 0.76232713 1.5383544 0.19316414 0.241313 0.1285063 0.42306778
00000000: c781 603f 89a6 7a3e 3186 fd3f 44f9 603e
00000010: 8da1 c33e 8275 393f 3737 0f3f a5bd b83e
00000020: 022a fd3e efa1 243f df27 433f cce8 c43f
00000030: d2cc 453e c11a 773e 2897 033e 579c d83e

bn2.weight f4 [32]
0.84120363 0.90831935 0.8216216 0.75737065 0.83028936 0.788235 0.9732704 0.8165269
0.8508559 0.8226235 0.8262769 0.7662401 0.8334385 0.89634144 0.8408406 0.88258094
0.883037 0.8238417 0.7714632 0.8337313 0.79036224 0.76754504 0.8102013 0.94994384
0.8769629 0.83895373 0.7624468 0.80141246 0.8544817 0.9263389 0.82940257 0.8242237
00000000: 1f59 573f 9e87 683f cb55 523f 0be3 413f
00000010: d88d 543f c5c9 493f 4028 793f e807 513f
00000020: b1d1 593f 7497 523f e286 533f 5028 443f
00000030: 3a5c 553f a276 653f 5441 573f d3f0 613f
00000040: b60e 623f 4ae7 523f 9d7e 453f 6a6f 553f
00000050: 2e55 4a3f d57d 443f 5a69 4f3f 852f 733f
00000060: a480 603f acc5 563f b72f 433f 5e29 4d3f
00000070: 50bf 5a3f 8c24 6d3f ba53 543f 5300 533f

bn2.bias f4 [32]
-0.21387553 -0.15862334 -0.17557128 -0.20479047 -0.14035688 -0.22318973 -0.17615522 -0.15370655
-0.15654516 -0.21824332 -0.1881211 -0.22261994 -0.1411465 -0.20586114 -0.16631635 -0.14105146
-0.20574196 -0.20284256 -0.20087059 -0.1861582 -0.2475408 -0.18125361 -0.21748433 -0.09075182
-0.15862541 -0.15923218 -0.21429028 -0.24903175 -0.23531507 -0.17823428 -0.18979478 -0.23896906
00000000: 3002 5bbe 286e 22be f5c8 33be 98b4 51be
00000010: b7b9 0fbe d98b 64be 0962 34be 4065 1dbe
00000020: 604d 20be 2d7b 5fbe d1a2 40be 7bf6 63be
00000030: b588 10be 43cd 52be d54e 2abe cb6f 10be
00000040: 05ae 52be f6b5 4fbe 05b1 4dbe 41a0 3ebe
00000050: 567b 7dbe 8c9a 39be 36b4 5ebe 17dc b9bd
00000060: b36e 22be c30d 23be e96e 5bbe 2e02 7fbe
00000070: 6ff6 70be 0c83 36be 9059 42be 4eb4 74be

bn2.running_mean f4 [32]
-0.38850266 0.47046036 -0.7339558 -0.18921435 -0.2736834 -0.86859703 0.097275555 -0.8036522
0.3716308 -0.19658694 0.27422464 -0.9530496 -0.034424298 0.5633935 -0.44415075 0.91496944
-0.5753267 0.37852192 -0.7121959 -0.35153064 -0.8755153 -0.27941543 0.2840101 0.4373811
-0.29592758 -0.90494466 -0.4400973 0.11703175 0.606147 0.22071838 -0.19938637 -0.24895367
00000000: d2e9 c6be 2ee0 f03e 87e4 3bbf 68c1 41be
00000010: 3b20 8cbe 605c 5ebf 6838 c73d 27bc 4dbf
00000020: 6446 be3e 164e 49be 2c67 8c3e 0ffb 73bf
00000030: 7e00 0dbd 8e3a 103f ba67 e3be 703b 6a3f
00000040: 9c48 13bf a0cd c13e 7852 36bf d3fb b3be
00000050: c521 60bf 8a0f 8fbe c669 913e 6af0 df3e
00000060: d283 97be 74aa 67bf 6f54 e1be 58ae ef3d
00000070: 732c 1b3f 0004 623e f12b 4cbe b6ed 7ebe

bn2.running_var f4 [32]
5.867059 2.2523158 6.7301416 3.6751769 2.3270917 4.0090747 3.3461187 2.0207853
1.4859308 3.811575 1.8291156 6.5997005 1.7058563 3.0338888 3.2168887 2.430592
3.0142596 6.0084724 3.2191007 2.7649925 2.1038215 6.660377 2.9302938 4.143763
4.345406 2.3503237 3.6314971 5.4360147 2.635072 2.451629 9.608455 1.7251679
00000000: f3be bb40 f125 1040 525d d740 1936 6b40
00000010: 12ef 1440 574a 8040 cf26 5640 8c54 0140
00000020: fb32 be3f d8f0 7340 7620 ea3f bf30 d340
00000030: 8059 da3f 3c2b 4240 81e1 4d40 d28e 1b40
00000040: a1e9 4040 6845 c040 bf05 4e40 a3f5 3040
00000050: 03a5 0640 cf21 d540 ef89 3b40 b599 8440
00000060: 910d 8b40 b46b 1640 736a 6840 d5f3 ad40
00000070: 05a5 2840 7de7 1c40 3bbc 1941 4dd2 dc3f

deconv1.weight f4 [64, 32, 4, 4]
0.005137189 -0.0015899092 -0.0023450428 0.0024848275 -0.004291182 -0.0034944853 -0.0058722864 0.010699034
-0.0044316677 0.0039278986 0.005305673 0.0027673068 -0.0018430324 0.004941514 -0.007175403 0.0002416286
0.015775286 0.0005739065 -0.0020964504 0.0064102537 0.0015535346 -0.0012238901 -0.0020273314 -0.0009605115
0.004714976 0.0018211951 -0.0024114714 -0.00062043156 -0.008192024 0.0061582113 -0.006530809 -0.009128161
0.00071936654 -0.003522589 0.0062650237 -0.0032199903 -0.010215836 0.009467129 -0.010813653 0.0018563712
-0.0027394511 0.0002284207 0.0027276587 0.0011814666 0.006666519 -0.0069417786 -0.0013041298 -0.0053102872
0.007769966 0.009558303 -0.0023834114 -0.0009128943 -0.0050993063 -0.005044244 -0.004006204 0.0008525977
-0.008072701 -0.006396985 0.0059930324 0.0072232177 -0.0063807108 0.008635675 -0.0018738565 0.0046496685
-0.0057229195 0.0042332103 -0.0021034095 -0.0011995207 -0.00060697715 -0.0074791517 0.0010821761 0.0011018002
-0.005073005 -0.005317179 -0.0036588542 -0.0048192297 -0.0009463216 0.0017626487 -0.0005831529 -0.0065122964
0.003482124 -0.0031160514 0.006070248 0.0016854728 0.0056004645 0.0060990173 0.006140598 0.00552314
0.0053536207 0.0039707716 0.00070035394 0.0018603771 -0.003825001 0.0030147892 0.0026126716 -0.004817018
0.0008665709 0.010837715 0.004732194 -0.0040582516 0.0016170752 0.0045342003 -0.0051188674 -0.0037239147
-0.00772054 -0.0026604903 -0.0005949746 -0.004965894 0.0019206036 -0.004500299 -0.0050094808 -0.007802872
-0.00525123 -0.004430384 0.002027459 0.0016059608 0.00068518496 -0.0009536762 0.0065610837 -0.006735337
-0.0004747695 0.0014429105 -0.0014499046 -0.0030602608 -0.0040533883 -0.003961819 -0.0011162016 -0.0003498046
0.0034234216 -0.008173491 -0.0026534258 0.001829557 -0.0049109794 0.0055781724 -0.0028420244 0.001791847
-0.006790416 -0.009027429 0.0062099015 -0.00080977444 -0.0020700574 0.0033843827 0.0134015605 -0.0015175183
-0.0045348643 -0.0021475758 0.00073784724 0.00021072547 0.0030142285 0.010313938 -0.001144138 0.0065665795
0.0052884296 -0.0025474778 0.0021351227 -0.004508999 -0.009333938 0.008827101 0.0051784143 -0.0045204842
0.0014717705 -0.010899113 -0.0048340755 -0.0023878287 -0.0062970775 -0.0006181792 0.0054641357 -0.00033682486
0.00025897604 0.0026526626 0.0053112577 -0.0010470113 0.003159723 -0.0033985202 -0.0005667342 0.0048736404
0.006115419 0.00015572931 0.0026281953 -0.000807079 0.0022300202 0.0009944966 -0.0047876528 -0.0046188473
-0.0013901953 0.0019206466 0.0028280504 -0.0013234917 0.005822074 0.0041364715 -0.0034275989 -0.005395722
0.006321042 -0.0038882107 0.003811299 -0.00010820248 0.009632919 -0.007125927 -0.003559982 0.0060340334
0.0075398595 0.0043755127 0.013892263 -0.00672077 0.00260326 0.0036079986 0.0016085654 -0.00082069606
0.0052309325 0.00024321792 0.0019595332 -0.00946825 0.006663803 -0.0023187462 -0.012450357 -0.00074476725
0.009178126 0.00022305227 0.00045638793 -0.0047913543 0.00399825 -0.0076034195 0.005177829 0.004594409
-0.0045677326 1.4551677e-05 -0.009336364 -0.0008860198 -0.004038603 0.009160159 0.002275373 -0.008047543
-0.0034676825 0.0013194366 -0.0023195073 0.0065106126 -0.00038789975 0.0011152269 -0.0027878985 0.003633841
0.0073411344 0.004458165 -0.0048664245 0.0054647997 0.0041327775 0.003904285 0.0016829203 0.006230828
-0.005586003 -9.512325e-05 0.012076001 -0.0021085 0.006211467 -0.0008181235 0.001712625 0.0020104216
00000000: dd55 a83b 8064 d0ba 4aaf 19bb 7dd8 223b
00000010: 0b9d 8cbb bc03 65bb 4f6c c0bb 004b 2f3c
00000020: 8637 91bb 9ab5 803b 36db ad3b b45b 353b
00000030: e891 f1ba 6dec a13b a51f ebbb af5d 7d39
00000040: 2c3b 813c 3772 163a 9a64 09bb 1b0d d23b
00000050: f99f cb3a f06a a0ba fadc 04bb d6ca 7bba
00000060: 1680 9a3b 2bb5 ee3a c709 1ebb 75a4 22ba
00000070: d737 06bc d2ca c93b 6600 d6bb 488e 15bc
00000080: df93 3c3a 3ddb 66bb d44a cd3b 7906 53bb
00000090: 5260 27bc 041c 1b3c bf2b 31bc 7b51 f33a
000000a0: 5d88 33bb 3784 6f39 85c2 323b 71db 9a3a
000000b0: d172 da3b dc77 e3bb 56ef aaba eb01 aebb
000000c0: 339b fe3b 6e9a 1c3c 0233 1cbb 4d4f 6fba
000000d0: 1518 a7bb 304a a5bb 7a46 83bb dd80 5f3a
000000e0: 5d43 04bc cd9d d1bb 3361 c43b beb0 ec3b
000000f0: 4815 d1bb a57c 0d3c 319c f5ba 3f5c 983b
00000100: 5487 bbbb beb6 8a3b 5bd9 09bb 3c39 9dba
00000110: 8c1d 1fba ac13 f5bb ced7 8d3a 486a 903a
00000120: 733b a6bb bb3b aebb 63c9 6fbb a1ea 9dbb
00000130: 9112 78ba ad08 e73a bbde 18ba 1a65 d5bb
00000140: 5934 643b ab36 4cbb eee8 c63b 15eb dc3a
00000150: 1a84 b73b 44da c73b 1237 c93b 75fb b43b
00000160: 6d6d af3b 3f1d 823b f597 373a e6d7 f33a
00000170: deac 7abb c593 453b 5b39 2b3b 13d8 9dbb
00000180: 972a 633a ac90 313c 8510 9b3b 15fb 84bb
00000190: 0af4 d33a a193 943b 2cbc a7bb ec0c 74bb
000001a0: 95fc fcbb 9f5b 2ebb 12f8 1bba f0b8 a2bb
000001b0: c3bc fb3a 3f77 93bb 9226 a4bb 3caf ffbb
000001c0: 8312 acbb c12c 91bb 1edf 043b 1a7f d23a
000001d0: fc9d 333a 2000 7aba 5cfe d63b 1ab4 dcbb
000001e0: 7cea f8b9 0b20 bd3a ba0a beba a88e 48bb
000001f0: 49d2 84bb 26d2 81bb 834d 92ba fb65 b7b9
00000200: 7c5b 603b 1bea 05bc 19e5 2dbb bfcd ef3a
00000210: 48ec a0bb 1ac9 b63b 4241 3abb 69dc ea3a
00000220: 2382 debb c8e7 13bc 6e7c cb3b 0b47 54ba
00000230: cda9 07bb 85cc 5d3b 3892 5b3c 77e7 c6ba
00000240: 3399 94bb 58be 0cbb 176c 413a 30f6 5c39
00000250: 5d8a 453b cbfb 283c e7f6 95ba 762c d73b
00000260: 904a ad3b 96f3 26bb 6aed 0b3b 3ac0 93bb
00000270: 60ed 18bc 8c9f 103c b0af a93b 9220 94bb
00000280: 6ce8 c03a 3192 32bc 2a67 9ebb 1e7d 1cbb
00000290: b757 cebb 4e0d 22ba 7e0c b33b de97 b0b9
000002a0: 2dc7 8739 4bd8 2d3b 0f0a ae3b df3b 89ba
000002b0: 5b13 4f3b b5b9 5ebb e390 14ba 0fb3 9f3b
000002c0: da63 c83b 454b 2339 cd3d 2c3b 2892 53ba
000002d0: 8825 123b c559 823a bee1 9cbb b359 97bb
000002e0: 3737 b6ba 35be fb3a d056 393b 0379 adba
000002f0: 19c7 be3b 3d8b 873b 91a1 60bb 99ce b0bb
00000300: be20 cf3b 5ad1 7ebb fdc6 793b c4ea e2b8
00000310: 64d3 1d3c 9c80 e9bb 964e 69bb 24b9 c53b
00000320: ed10 f73b 7660 8f3b 609c 633c e839 dcbb
00000330: 759b 2a3b 2c74 6c3b 80d6 d23a fb23 57ba
00000340: 3e68 ab3b 5008 7f39 836b 003b b820 1bbc
00000350: 085c da3b 1bf6 17bb 95fc 4bbc 7c3c 43ba
00000360: da5f 163c 23e3 6939 5a47 ef39 cb00 9dbb
00000370: c003 833b 1b26 f9bb c7aa a93b b28c 963b
00000380: ebac 95bb fa22 7437 8df7 18bc c843 68ba
00000390: 4256 84bb 7e14 163c 6d1e 153b d7d9 03bc
000003a0: 0f42 63bb f2f0 ac3a e002 18bb fa56 d53b
000003b0: 065f cbb9 ce2c 923a 2db5 36bb bc25 6e3b
000003c0: e68d f03b cc15 923b 8776 9fbb 1012 b33b
000003d0: 406c 873b 08df 7f3b 6f95 dc3a f92b cc3b
000003e0: ca0a b7bb e87c c7b8 6bda 453c c32e 0abb
000003f0: 9089 cb3b 5777 56ba 297a e03a 47c1 033b

deconv1.bias f4 [32]
-0.0047350507 -0.0739977 0.026112488 -0.08290627 -0.025072316 0.04300223 -0.006825943 0.016949438
-0.012951867 0.0709023 -0.031732667 -0.01217732 -0.021286745 -0.09819722 0.032780666 0.03146824
0.058514945 -0.0017128923 0.064812265 0.06387269 0.040532924 -0.03843684 -0.053233523 -0.0076932744
0.004574967 -0.03590684 -0.016864816 0.0015167445 0.0011843207 -0.008885294 -0.001504281 -0.011966363
00000000: 7c28 9bbb 1b8c 97bd dbe9 d53c c3ca a9bd
00000010: 7564 cdbc 1b23 303d 29ac dfbb 8cd9 8a3c
00000020: 1134 54bc 3a35 913d 1dfa 01bd 6283 47bc
00000030: 8a61 aebc a01b c9bd 0545 063d d7e4 003d
00000040: 5ead 6f3d 2183 e0ba 4bbc 843d afcf 823d
00000050: da05 263d f36f 1dbd 650b 5abd dd17 fcbb
00000060: 9be9 953b 0d13 13bd 1528 8abc 80cd c63a
00000070: 353b 9b3a a093 11bc 4b2b c5ba 900e 44bc

deconv2.weight f4 [32, 16, 3, 3]
-0.0092880195 -0.15584186 0.08944758 -0.0903385 -0.046888188 0.09987227 -0.041526478 0.15306696
-0.017913284 -0.07275284 -0.07107645 0.015851887 -0.0048261327 -0.11307621 -0.07832103 -0.013935207
-0.019780664 -0.044543765 -0.030452315 -0.05837636 -0.03334892 -0.048547227 0.0016942737 -0.02955191
0.009570984 -0.007890938 -0.03043026 0.070360824 0.09321712 0.17828584 -0.026490409 -0.12019366
-0.017575499 -0.002316377 -0.058421355 -0.047570266 -0.047452815 -0.11519711 -0.042148203 -0.062204745
-0.051832445 -0.06362347 -0.10478302 -0.07501175 0.0141228475 -0.043150835 -0.095004044 0.0026543073
0.00086409977 -0.14401357 -0.060113106 -0.06477431 0.08415711 0.11998821 -0.008828101 -0.08185407
0.029152332 -0.0046703164 -0.116535 0.012512231 0.014516962 -0.055269245 0.017091023 -0.07598357
0.16404416 0.0034651344 -0.04252566 0.13773735 -0.048037875 0.031364646 0.02665541 0.12662777
-0.10440198 -0.16424845 -0.075132325 -0.0069224383 0.045109116 -0.02315111 -0.010670164 -0.15512769
0.11264977 -0.09308858 -0.09019916 -0.024477482 -0.05706188 -0.07390741 -0.0034807038 -0.093860924
-0.06724294 -0.030388497 0.0718333 -0.13704441 -0.06030049 0.016800586 0.020349337 -0.03870843
0.015443964 -0.08819762 -0.067102335 0.0067008473 0.048599537 0.021055635 -0.059437532 -0.15174893
-0.08024807 -0.05888381 -0.105660826 -0.056320336 -0.055075623 -0.066017196 -0.062173896 -0.027517715
0.08204711 0.11028334 -0.061353467 0.0344672 0.049703594 -0.023089383 -0.0859817 -0.07666188
-0.018178413 -0.07329557 -0.11831711 0.053610086 -0.0738259 -0.06898741 0.040402234 0.04957075
0.024245081 0.026751576 0.118434265 0.16956109 -0.021252992 -0.0577078 -0.023598231 -0.041165493
-0.11551821 -0.05610414 -0.08365839 -0.076803245 -0.058959555 -0.04092651 -0.06245878 -0.0442348
0.023425637 -0.0034972914 0.108557045 -0.14739579 0.17463787 0.1255985 0.06439949 0.11535171
0.10012256 -0.022224627 -0.05745079 -0.04637501 -0.057778776 -0.036351696 -0.08497573 0.045215655
-0.048115037 -0.07938589 -0.017958965 -0.062017336 -0.08360601 0.03160595 -0.062181577 -0.017256705
0.048543498 0.0119962795 0.012767516 0.021934258 0.051876824 -0.015643934 0.03522732 0.07890122
0.124312826 -0.0063714795 -0.10770566 -0.02999613 -0.00065848714 -0.10411319 -0.016983995 -0.024201112
-0.050522193 -0.1690608 0.037213467 -0.031087158 -0.08318318 0.0929836 -0.0061984635 0.09856228
-0.007544733 -0.0796446 0.04633022 -0.079629146 0.02138938 0.14796855 -0.015125375 -0.041997455
-0.04314485 -0.072707415 -0.06362278 0.028977852 -0.036012515 -0.0070956424 -0.03387592 0.003954291
0.06720943 -0.0642926 0.115576126 0.076994516 -0.05613225 0.015544006 0.12363985 -0.094208024
0.05117109 0.11183678 -0.10878963 0.10921321 0.15360385 0.005235809 -0.02417718 0.026730852
-0.046620272 -0.110894695 -0.074262716 -0.066391505 -0.14923869 -0.06846677 -0.025212834 -0.0180076
-0.043582432 0.039049443 -0.0378816 -0.08465248 0.016210157 -0.0106695155 -0.025751395 -0.0065421355
-0.064451054 -0.05957139 -0.03185367 0.045232464 0.0044651097 -0.02808523 -0.113992244 -0.13979107
-0.04338142 -0.015061553 -0.079235345 -0.055236876 0.035350945 0.027808694 0.04335002 0.052992128
00000000: c72c 18bc 0295 1fbe 4b30 b73d 6403 b9bd
00000010: d40d 40bd d589 cc3d ab17 2abd 96bd 1c3e
00000020: e1be 92bc 71ff 94bd 8890 91bd d1db 813c
00000030: 8924 9ebb 8094 e7bd c766 a0bd 7f50 64bc
00000040: 0f0b a2bc 8673 36bd 2277 f9bc 0d1c 6fbd
00000050: e198 08bd 75d9 46bd 6412 de3a d916 f2bc
00000060: 9ecf 1c3c fe48 01bc e148 f9bc 5619 903d
00000070: 9ee8 be3d 9090 363e 6a02 d9bc 1828 f6bd
00000080: 7efa 8fbc 5bce 17bb 3b4b 6fbd 0ad9 42bd
00000090: e25d 42bd 76ec ebbd 98a3 2cbd 67ca 7ebd
000000a0: 424e 54bd 064d 82bd 7b98 d6bd c39f 99bd
000000b0: 8463 673c eebe 30bd 7b91 c2bd e3f3 2d3b
000000c0: c184 623a 4b78 13be 2939 76bd 65a8 84bd
000000d0: 905a ac3d 61bc f53d bda3 10bc 1ba3 a7bd
000000e0: dfd0 ee3c 7409 99bb e7a9 eebd 1a00 4d3c
000000f0: 8dd8 6d3c 0162 62bd 7902 8c3c 469d 9bbd
00000100: 31fb 273e 4f17 633b 632f 2ebd 050b 0d3e
00000110: 5dc3 44bd 3778 003d 725c da3c b6aa 013e
00000120: b5d0 d5bd bf30 28be fade 99bd 9fd5 e2bb
00000130: 56c4 383d 66a7 bdbc e9d1 2ebc cbd9 1ebe
00000140: ecb4 e63d 3aa5 bebd 56ba b8bd 0085 c8bc
00000150: b8b9 69bd c55c 97bd 851c 64bb 283a c0bd
00000160: abb6 89bd 4cf1 f8bc 561d 933d 5f55 0cbe
00000170: a6fd 76bd 62a1 893c a7b3 a63c bb8c 1ebd
00000180: ae08 7d3c f4a0 b4bd f36c 89bd c892 db3b
00000190: 4f10 473d de7c ac3c c574 73bd 1264 1bbe
000001a0: 1a59 a4bd 2630 71bd b464 d8bd 27b0 66bd
000001b0: fa96 61bd 0634 87bd 0eaa 7ebd d56c e1bc
000001c0: 5108 a83d 3bdc e13d c64d 7bbd 7b2d 0d3d
000001d0: ff95 4b3d f225 bdbc 2c17 b0bd e700 9dbd
000001e0: e5ea 94bc fd1b 96bd 3e50 f2bd 4096 5b3d
000001f0: 0932 97bd 4549 8dbd d07c 253d b30a 4b3d
00000200: 9f9d c63c 1f26 db3c aa8d f23d 6ca1 2d3e
00000210: c11a aebc 045f 6cbd 1451 c1bc 269d 28bd
00000220: d094 ecbd 74cd 65bd 1755 abbd 054b 9dbd
00000230: 937f 71bd 8ea2 27bd c7d4 7fbd 8d2f 35bd
00000240: 1fe7 bf3c d032 65bb 2853 de3d ecee 16be
00000250: 45d4 323e e59c 003e e1e3 833d 843d ec3d
00000260: 0f0d cd3d 6c10 b6bc 8551 6bbd b9f3 3dbd
00000270: 70a9 6cbd 84e5 14bd c107 aebd 0d34 393d
00000280: 4614 45bd 1295 a2bd ae1e 93bc e405 7ebd
00000290: a139 abbd 3e75 013d 1cb2 7ebd ef5d 8dbc
000002a0: 8cd5 463d 0b8c 443c d82e 513c 79af b33c
000002b0: cb7c 543d b527 80bc 864a 103d f696 a13d
000002c0: b997 fe3d d8c7 d0bb c994 dcbd 72ba f5bc
000002d0: 539e 2cba 4c39 d5bd 0522 8bbc 6941 c6bc
000002e0: 5cf0 4ebd 461e 2dbe 266d 183d 7faa febc
000002f0: f15b aabd 306e be3d 7b1c cbbb 05db c93d
00000300: cf39 f7bb b51c a3bd c2c4 3d3d 9b14 a3bd
00000310: c838 af3c 1185 173e 6cd0 77bc 8605 2cbd
00000320: a7b8 30bd a0e7 94bd a94c 82bd f662 ed3c
00000330: dc81 13bd 9082 e8bb 7ac1 0abd ff92 813b
00000340: 19a5 893d d7ab 83bd 2db3 ec3d 4daf 9d3d
00000350: eeea 65bd 49ac 7e3c e436 fd3d 23f0 c0bd
00000360: c798 513d af0a e53d 19cd debd 2dab df3d
00000370: 544a 1d3e 2691 ab3b 390f c6bc a9fa da3c
00000380: e6f4 3ebd c21c e3bd 0d17 98bd 45f8 87bd
00000390: 07d2 18be 4e38 8cbd 258b cebc ad84 93bc
000003a0: 7e83 32bd 4ff2 1f3d bd29 1bbd 485e adbd
000003b0: 2acb 843c 31cf 2ebc 97f4 d2bc 695f d6bb
000003c0: eafe 83bd 2101 74bd fe78 02bd ad45 393d
000003d0: 0e50 923b ff12 e6bc c474 e9bd 6425 0fbe
000003e0: b7b0 31bd bbc4 76bc 2446 a2bd 1040 62bd
000003f0: 27cc 103d 0fcf e33c ca8f 313d 460e 593d

deconv2.bias f4 [16]
0.38352522 -0.2545113 0.045702226 0.3568748 0.20110969 0.43577713 0.03778348 0.426466
0.3666692 0.30587628 -0.009928736 0.18551195 0.40458876 0.4264628 0.34590662 0.58385926
00000000: 6b5d c43e 4e4f 82be 4232 3b3d 4bb8 b63e
00000010: b3ef 4d3e 2e1e df3e dac2 1a3d c059 da3e
00000020: 11bc bb3e d19b 9c3e 23ac 22bc d8f6 3d3e
00000030: 4226 cf3e 5559 da3e ac1a b13e cd77 153f

deconv3.weight f4 [16, 1, 3, 3]
-0.19268563 -0.2638606 -0.12313913 -0.30143967 -0.53625506 -0.29049575 -0.15197062 -0.358917
-0.19695276 0.18677585 0.09707162 0.24879508 0.32836506 0.2844522 0.41400856 0.14195044
0.13806956 0.12384225 0.10719327 0.27361906 0.20810287 0.19698833 0.45637208 0.31697604
0.1260963 0.23902203 0.17316538 -0.08942933 -0.2654718 -0.16680084 -0.23857832 -0.49625042
-0.3054981 -0.20292845 -0.32674137 -0.19736846 0.08426937 0.37063807 0.08429496 0.10898505
0.5298211 0.09088506 0.10833776 0.3206411 0.12914482 -0.19054794 -0.35084528 -0.17413045
-0.29640257 -0.62233585 -0.3130262 -0.12179198 -0.27681875 -0.09427404 0.1028432 0.20237514
0.208111 0.28492987 0.5512707 0.3594592 0.20730415 0.3314722 0.20310071 -0.17523028
-0.19958413 -0.15422261 -0.2405676 -0.37336826 -0.30744943 -0.18289873 -0.2911901 -0.28378493
-0.20174006 -0.29325208 -0.20540491 -0.3097121 -0.56150407 -0.2815518 -0.1326101 -0.24319856
-0.12181831 0.22420467 0.30555895 0.075551495 0.24802326 0.39518407 0.093554854 0.03739182
0.24071532 -0.040894855 0.19933885 0.21655548 0.09245784 0.32793832 0.38452303 0.19169284
0.24503912 0.2339402 0.1632798 0.07104744 0.23003791 0.0062213484 0.299113 0.55930537
0.25101817 0.08708796 0.257652 0.15126741 -0.14159808 -0.23713444 -0.06426473 -0.29370838
-0.53185177 -0.2246646 -0.19517814 -0.3298308 -0.12462116 -0.1803721 -0.3028676 -0.14035136
-0.29129094 -0.50985634 -0.24717489 -0.14413045 -0.263007 -0.13539805 -0.0083546415 -0.2201576
-0.15995646 -0.3006816 -0.6891805 -0.3781376 -0.07113691 -0.24391136 -0.081307985 -0.09608097
0.01833422 0.10149726 0.14092597 0.43650168 0.3694497 0.21189041 0.22810651 0.29124704
00000000: 624f 45be bd18 87be 5e30 fcbd 4d56 9abe
00000010: 0348 09bf dcbb 94be 309e 1bbe f8c3 b7be
00000020: fcad 49be 2b42 3f3e 7ccd c63d 23c4 7e3e
00000030: 771f a83e b8a3 913e eef8 d33e 755b 113e
00000040: 1b62 0d3e 01a1 fd3d 2588 db3d cc17 8c3e
00000050: eb18 553e 4fb7 493e 9aa9 e93e af4a a23e
00000060: 631f 013e 31c2 743e 4452 313e b926 b7bd
00000070: ebeb 87be d7cd 2abe e04d 74be 8914 febe
00000080: 3f6a 9cbe 7acc 4fbe a54a a7be f51a 4abe
00000090: 6b95 ac3d 46c4 bd3e d6a2 ac3d 8e33 df3d
000000a0: 5ba2 073f f221 ba3d 30e0 dd3d 122b a43e
000000b0: 8a3e 043e 001f 43be fea1 b3be 414f 32be
000000c0: 14c2 97be 6751 1fbf f844 a0be 136e f9bd
000000d0: 30bb 8dbe bf12 c1bd 759f d23d 6e3b 4f3e
000000e0: 0d1b 553e 54e2 913e 1420 0d3f 090b b83e
000000f0: 8a47 543e b9b6 a93e a2f9 4f3e 916f 33be
00000100: c85f 4cbe 88ec 1dbe 5a57 76be 202a bfbe
00000110: 036a 9dbe ce49 3bbe de16 95be 424c 91be
00000120: f294 4ebe 2325 96be aa55 52be 9692 9ebe
00000130: bbbe 0fbf 8f27 90be f1ca 07be 0b09 79be
00000140: e17b f9bd e995 653e 3972 9c3e beba 9a3d
00000150: cff9 7d3e 9155 ca3e b099 bf3d 2a28 193d
00000160: 147e 763e 5d81 27bd 7c1f 4c3e b8c0 5d3e
00000170: 895a bd3d 88e7 a73e 34e0 c43e 214b 443e
00000180: 89eb 7a3e 058e 6f3e d232 273e 5281 913d
00000190: 0f8f 6b3e 74dc cb3b 5725 993e a32e 0f3f
000001a0: 7485 803e 2c5b b23d f7ea 833e d8e5 1a3e
000001b0: 16ff 10be 5fd3 72be 3a9d 83bd f260 96be
000001c0: 7027 08bf 7a0e 66be c7dc 47be 95df a8be
000001d0: 6139 ffbd 77b3 38be 7611 9bbe 44b8 0fbe
000001e0: 1624 95be f285 02bf 6a1b 7dbe ef96 13be
000001f0: daa8 86be c9a5 0abe e8e1 08bc fe70 61be
00000200: a0cb 23be f0f2 99be 226e 30bf 409b c1be
00000210: 3ab0 91bd e6c3 79be cd84 a6bd 19c6 c4bd
00000220: a531 963c ccdd cf3d e64e 103e 267d df3e
00000230: 8328 bd3e cdf9 583e c194 693e 551e 953e

bn5.weight f4 [32]
0.9676713 0.99096155 0.98674893 1.0285417 0.9127326 0.9934616 1.0620472 1.0616868
0.97715276 0.9208633 0.9472107 0.9579007 1.0814093 1.0770512 0.9571267 1.0096773
0.9713449 1.0225369 0.9703773 0.92985106 0.94678056 1.0129786 1.0184104 1.0105728
0.9314252 1.0777948 0.94906175 0.9588988 1.0650809 1.0974268 0.94016343 0.9597087
00000000: 4eb9 773f a8af 7d3f 949b 7c3f 41a7 833f
00000010: d8a8 693f 8053 7e3f 2af1 873f 5ae5 873f
00000020: af26 7a3f b2bd 6b3f 677c 723f fb38 753f
00000030: 9f6b 8a3f d0dc 893f 4106 753f 1b3d 813f
00000040: 0faa 783f 7de2 823f a66a 783f b80a 6e3f
00000050: 3660 723f 48a9 813f 465b 823f 735a 813f
00000060: e271 6e3f 2ef5 893f b6f5 723f 647a 753f
00000070: 9254 883f 7b78 8c3f 8dae 703f 78af 753f
