saved_models_2D/best_patch_fold_CVAE2D_32_2_100_200.pth (torch, 46612 bytes, 49 tensors)

conv1.weight f4 [3, 1, 5, 5]
00000000: 591e a53d a3ef 1cbd 5f26 dcbe 832e 923d
00000010: 6548 c8be 9d07 893e bbfe 72be cff7 033f
00000020: ff42 8cbe 0e49 3cbe ff21 423e aca3 cebe
00000030: 335c adbe 4f75 d13d 2367 af3d fd80 09be
00000040: f756 77bb a483 32be 139d f3be 52e7 90be
00000050: 5a3e 063e 27de a1bd e1d1 7ebe 53dd 413e
00000060: d906 f0be 0625 413f 6ecf 2d3d 46b6 45bd
00000070: a99b 5e3e 7e94 7b3e 488e 0b3f 374d 493d
00000080: d49d b83e 67f5 fc3d b7c9 df3e 1ef0 c53e
00000090: b57f 96be 78c4 23be 97d2 383d 97e2 643e
000000a0: 2d77 cabd e57d c43e 9901 7abc 924f 28be
000000b0: 728f e53d 3736 f53e 6a48 2e3e 19b3 6c3e
000000c0: b5bb d33c 343e e03e 378b d8be bb78 3d3e
000000d0: fdf4 703e cf4f b7bd 3538 95be 4794 ee3c
000000e0: ecaf 113d f55c d73d 05b6 f23d d6b9 993d
000000f0: 2b56 aebb ace1 3fbe c454 b23d a0a1 fcbc
00000100: f57c eebd 9798 d93e 9a36 8dbd 74fd 913e
00000110: cdca de3c b34a ac3d ceae 533e 4395 e43d
00000120: 9e52 973e 8e99 803e f56b 0e3f
0.08062429 -0.038314473 -0.42998025 0.07137778 -0.39117733 0.2676362 -0.23729984 0.5155
-0.27394864 -0.18387243 0.18958281 -0.40359247 -0.33859405 0.10227453 0.08564594 -0.13428111
-0.0037741044 -0.1743303 -0.47580776 -0.28301483 0.13109723 -0.079037 -0.2488475 0.18932085
-0.46880224 0.7544712 0.04243415 -0.048269533 0.21739067 0.24568364 0.5451398 0.049145903
0.36057913 0.12351494 0.43708584 0.38659757 -0.29394308 -0.15992916 0.04512271 0.22352062
-0.09886012 0.383773 -0.01525917 -0.16436604 0.11209001 0.47892925 0.17019811 0.23115195
0.025846342 0.43797457 -0.42293712 0.18503086 0.23530956 -0.08950769 -0.29144445 0.029123439
0.035568163 0.10515777 0.11851124 0.075061485 -0.0053203306 -0.1873843 0.08707574 -0.030838788
-0.116449274 0.4249923 -0.0689518 0.28513682 0.027196312 0.08412685 0.20672151 0.11161282
0.2955522 0.25117153 0.5563348

conv1.bias f4 [3]
00000000: 812b 083d 3c9a 133d 0838 49bd
0.033244614 0.03603576 -0.0491257

conv2.weight f4 [4, 3, 3, 3]
00000000: f62d 18be f975 9cbc 05b7 84be 116c 033d
00000010: 84a0 413e 3fa3 26be 0ba2 84bd 213e 8dbe
00000020: e11b 46be 3b48 983e 7b47 8d3e 5bc7 053f
00000030: 0913 e43c a80b 6dbe 5aea 3d3d aa43 d9bb
00000040: caaf 8f3e b6a7 1ebc a63d c4be 874a afbd
00000050: 0336 403b 3659 c03d e6d4 16bd 41d3 b23e
00000060: f303 fd3d eb9d ad3e 8c7c 633e 4b6d 9fbc
00000070: 3994 99bc 26fe 3abe efa2 0ebf 61e7 3ebe
00000080: fcd0 763b de6d e7be 1fb5 763e 0956 163e
00000090: ea7f 1c3e 6af0 953e 0a0e 41be a0b7 e83e
000000a0: a198 723e 28c6 743d 770c cb3e 219b a83e
000000b0: cfd4 fe3e 7c7f 013e 701f e03e 2589 ad3e
000000c0: e0b2 143f 359c e13e d2a5 483d 04bd a13e
000000d0: dbbd a33e fe15 69be 4703 e53e a0c3 913e
000000e0: dbdd a0be b5b9 373e 319e 5cbd 1b94 a0be
000000f0: 576c 343f f7c1 11bd 0e8f 59bc 6b97 c13d
00000100: ea65 89be 1dab 97be a51a b2be 10cd 9bbe
00000110: 6428 e1be 244a 183d cdcd fb3e 87ac 9bbd
00000120: 3c49 113f cac5 8c3d becb 163e 7f47 623e
00000130: 9937 d13e b059 d73e 673f 763e 7eb2 2ebe
00000140: d10f 2fbe 46ef e33e cce8 233e 1201 973c
00000150: 3054 f5be a4fa 37be 02a5 5e3d 1f92 dc3c
00000160: c933 c1bb 6a6e 043f f541 22bf 8b81 39be
00000170: 14d0 8f3e 8b8d 57be f4fa 033e 9aad f5bd
00000180: 2e07 39be 3110 98bd 0e55 c5be c17a 02be
00000190: e53e 8e3d c45c 9f3e 5059 9bbe 58fc 5fbc
000001a0: 20e4 9dbe 8a97 653d 6b3b 8ebc 7439 abbe
-0.14861283 -0.019099222 -0.25920883 0.032085482 0.18908888 -0.16273211 -0.0647622 -0.27586463
-0.19346572 0.29742607 0.27593598 0.5225732 0.027841108 -0.23148978 0.046366073 -0.0066303806
0.28063804 -0.00968354 -0.38328284 -0.08559137 0.0029329068 0.09392016 -0.03682413 0.349268
0.12354269 0.33909544 0.2221548 -0.019461295 -0.018747436 -0.18261012 -0.55717367 -0.18642952
0.0037661185 -0.4520101 0.2409253 0.14681257 0.1528317 0.29284984 -0.18853012 0.45452595
0.23691036 0.05975929 0.39657947 0.32930854 0.49771735 0.12646288 0.43773985 0.33893695
0.5808544 0.4406449 0.048986264 0.3158952 0.31980786 -0.22762296 0.44729063 0.28469563
-0.31419262 0.17941935 -0.0538618 -0.31362996 0.70477813 -0.03558537 -0.013278736 0.09452709
-0.26835567 -0.29622737 -0.34785953 -0.30429888 -0.43976128 0.03718008 0.4918045 -0.07601266
0.5675237 0.06873663 0.14726159 0.22097586 0.4086273 0.42060614 0.24047624 -0.17060277
-0.17095877 0.4451849 0.16006774 0.018433128 -0.47915792 -0.17966706 0.054356582 0.026925145
-0.005896066 0.5173098 -0.6338189 -0.18115823 0.2808844 -0.21050088 0.128887 -0.119960025
-0.18069145 -0.07424963 -0.38541454 -0.1274214 0.0694559 0.31125462 -0.30341578 -0.013671003
-0.30838108 0.056052722 -0.017362317 -0.3344227

conv2.bias f4 [4]
00000000: b80d c63d ca7b 36bc 0396 71bd 5f3c 923c
0.096705854 -0.011137912 -0.058980953 0.017851053

conv3.weight f4 [12, 4, 3, 3]
00000000: 063f ebbe 6c61 d1be 8947 1f3e a2be d8bd
00000010: bc5c a7bd eda6 7f3d 25fa 21bf 6fa7 523e
00000020: 5372 0d3e 50a9 a73e 2f18 85bd 0849 9cbe
00000030: a0d4 433e de2d 293e 258e cc3e 2df8 0fbf
00000040: d68d b2be d98b 0dbe 4c4a ee3b 2de5 553d
00000050: 3509 88bd 4565 d43d 24d3 93bd 52f7 753d
00000060: a995 0f3e b3db 1d3e d697 8ebd 4746 223e
00000070: 4a5f 4f3e c4b1 d5bd ead5 1d3d a4bd 1dbd
00000080: 662f fa3d c48a 8d3d d4d0 5dbd 3e88 fa3c
00000090: 6529 b43e 43bb a83e 6e75 1f3f fc10 393e
000000a0: d8ce 063f 1c85 9ebd 9d40 cf3e 1eb5 de3d
000000b0: 296a 033f 4fd7 f63d a282 06be b6b3 a4be
000000c0: bace 553e c469 01bd d89d dfbe b4a4 583c
000000d0: a582 64be f7fe 5dbe a6cb df3c f4e5 733d
000000e0: ba74 133d 6b40 8dbc a9f2 173d 594f 36be
000000f0: 4948 c33b beed a3bd b26d 493d 891d 22be
00000100: e4af 19be db82 a2bd 4cc4 c93d 24d5 da3d
00000110: 114b 09be 6c26 763d a8bd 92be c861 623d
00000120: 8fcb 91be 3bb0 27be 1013 86be 3da3 2cbe
00000130: 9f02 6f3d 005a 86be c0e9 483d f841 0bbe
00000140: 0b7f 29bf da6a c4be 822a b3be d48d 973e
00000150: cf22 473e 4c26 a53c 516b 36be ba39 e73e
00000160: 4655 3fbe 7efc 203d 9523 5abe eeac 77be
00000170: 71eb 9f3c 8e8b 99bd 2ada 5abc 631f 8f3c
00000180: 8ba7 93bd 0fd9 8c3d c63a 8d3e e7ae 4abe
00000190: 7e4c 783e 89c2 083d 213a 5ebe 5242 fe3c
000001a0: 95f1 003f d35f 4abe 95da f13e 6eb4 d73d
000001b0: 4786 1bbd 8557 1c3d 8710 233c 5abd 5bbd
000001c0: 1825 883e a182 a8bd e190 d13d d3a5 aebc
000001d0: d1be 433e fe69 c83e bdd7 573d a88d 2fbe
000001e0: 2c99 df3d 0bc1 87be 01af 8abe 4157 3c3f
000001f0: 7a2b c43d afb0 293e 2a97 0c3d b9fd 6d3d
00000200: 8a3e 8fbc 9298 b7bb 0f53 c43e 30ac b33e
00000210: 3daa b53d 051d 7d3d 991d 0e3e edf6 cc3d
00000220: e1ba c83e 6d5d 8f3e b61c 9cbe 8a00 09bf
00000230: 1109 23be c909 6ebd 8f85 b53d 2087 373c
00000240: e97b d13e 7884 993c 4448 9fbf c99c 3c3e
00000250: 1964 82be 26a9 d4be 416d 8b3e bc53 81bd
00000260: b80b a4bd 8513 dfbe 5fdd 423e f8a7 1abe
00000270: 3fbf d7be ceef 713e 480c 393e 0972 aabe
00000280: df5d 34be 2b04 163f 323f 90bc f84b 3f3d
00000290: 1b4d 3b3e b7de 923d a305 793e 46b4 51ba
000002a0: 9854 90bc ef7f 23be e2f6 453d 8464 4c3e
000002b0: 1f75 1b3e a76b ad3d abc9 da3e f63d 083e
000002c0: 119d 01be 68f3 65bd 1443 383e cf0c 91be
000002d0: 1edf 2ebe be29 863e 860c 28be 4e66 683e
000002e0: 876e 19bd f818 563d c4f8 213d 13b6 743e
000002f0: 12be 1b3e 95b9 133f 223b 063e 4329 1bbc
00000300: 4f21 0c3f ad45 1b3e edb4 0d3e 43e8 97bd
00000310: 2db6 5fbe d06a a93d 0188 d83d ad43 df3c
00000320: 6098 bf3c 2e6a 133e 963d f3bb 68dc dfbb
00000330: 4196 ed3d 27f4 743d ae96 a9bd 605b c2bc
00000340: 6b2f 89bd 8d59 8cbe 0384 39be 0520 0bbe
00000350: 1112 94be 79ce f9be 09eb efbe 2ff3 4b3e
00000360: 4593 72be b3d0 d3be b305 003e 907e c3be
00000370: 8ff1 823e fe69 a23e 8bce a1be 086f 743d
00000380: 50b6 6f3d 232f 833b 1698 3b3e c38e 1c3e
00000390: 85e8 b4be b5bb c93e 19f9 923c bbdc b23d
000003a0: 9230 0d3e 635e 49be c6b0 0f3e 969a 823c
000003b0: d398 7f3d af7e 503e 724a 023f 0e05 ce3d
000003c0: a16a ae3d d0b3 4abd cfb7 d63d 78e3 28bd
000003d0: 805f 63be e2cc 043e f471 76bd 230d cb3d
000003e0: 7c0a 1e3e 0a13 ddbd 75f3 053d c823 85bd
000003f0: 022a dc3e 5e23 dabd 7717 fb3b ec8f 863e
-0.4594652 -0.4089464 0.15554632 -0.10583235 -0.081719846 0.062415052 -0.63272315 0.20571683
0.13813142 0.32746363 -0.06498753 -0.30524468 0.19124079 0.16521403 0.39952198 -0.5623806
-0.34873837 -0.13822879 0.0072720405 0.052220512 -0.06642381 0.10370878 -0.07218006 0.060050316
0.14021935 0.1541584 -0.06962554 0.15847121 0.20251194 -0.10434297 0.038534082 -0.038510934
0.12216072 0.06911233 -0.054154232 0.030582543 0.35187832 0.3295537 0.6228856 0.18072885
0.5265937 -0.07740232 0.40478984 0.10874389 0.5133386 0.120527856 -0.1313577 -0.3216836
0.20879641 -0.031595007 -0.43675113 0.013222862 -0.22315462 -0.21679293 0.027318787 0.059545472
0.03599999 -0.017242631 0.037096653 -0.17803706 0.005959545 -0.0800433 0.04917688 -0.1583158
-0.15008503 -0.07935115 0.09851894 0.106851846 -0.13407542 0.060095236 -0.2866032 0.055269033
-0.28475615 -0.1637582 -0.2618642 -0.16859145 0.05835211 -0.2624054 0.049051046 -0.13599384
-0.6620948 -0.3836277 -0.34993368 0.29600394 0.19446872 0.020159863 -0.17814375 0.4516123
-0.18684873 0.039303295 -0.21302636 -0.24187061 0.019521447 -0.07497321 -0.013357678 0.017471021
-0.07209691 0.06877338 0.27583903 -0.19793282 0.2424793 0.03338865 -0.21701862 0.031037483
0.50368625 -0.19763117 0.47237077 0.10532461 -0.037969854 0.038169403 0.009952671 -0.053647377
0.265908 -0.082280405 0.102327116 -0.021319306 0.1911576 0.39143366 0.05269598 -0.17143881
0.10917887 -0.26514468 -0.27086642 0.7357064 0.09578605 0.16571306 0.03432385 0.058103297
-0.017485876 -0.0056029046 0.3834462 0.35092306 0.08870361 0.061795253 0.13878478 0.10008035
0.39205077 0.28000966 -0.30490655 -0.5351645 -0.15921427 -0.0581148 0.08863365 0.01120165
0.40914848 0.018739924 -1.2443929 0.18419184 -0.25466993 -0.415353 0.27231792 -0.06314799
-0.08010048 -0.4356958 0.19029759 -0.15103137 -0.42138097 0.23626634 0.18071091 -0.33290127
-0.17613934 0.5860011 -0.017608259 0.04670331 0.18291132 0.07171386 0.24318556 -0.000799958
-0.017618462 -0.15966772 0.04833115 0.19960219 0.15181397 0.08467799 0.42731985 0.13304886
-0.12657572 -0.056140333 0.17994338 -0.28330085 -0.170773 0.26203722 -0.16411027 0.22695276
-0.037458923 0.052269906 0.039543882 0.23897581 0.15209225 0.5770505 0.13108495 -0.009470287
0.54738325 0.15163298 0.13838549 -0.07417347 -0.21846838 0.08272326 0.10572816 0.02725395
0.023388088 0.14395973 -0.007423113 -0.0068316944 0.11600924 0.059803154 -0.08280693 -0.023725212
-0.066984974 -0.27412072 -0.18116765 -0.13586433 -0.28920034 -0.4879034 -0.46859005 0.19916986
-0.23688991 -0.41370162 0.12502174 -0.38182497 0.2557492 0.3172149 -0.31602892 0.0596762
0.058523476 0.004003422 0.18319735 0.15288834 -0.35333648 0.39401022 0.017941045 0.08733507
0.1378806 -0.19664912 0.14032277 0.015942853 0.062401604 0.20360826 0.50894845 0.10059558
0.085164316 -0.04948789 0.104842775 -0.041232556 -0.22204399 0.12968782 -0.060167268 0.09914615
0.15433687 -0.10794647 0.03270288 -0.06500965 0.430008 -0.10651277 0.0076627093 0.2628168

conv3.bias f4 [12]
00000000: fca5 d83d c142 943c b8c6 5f3d 36d5 233c
00000010: 68c6 72bc 476f 353d f9ae e4bb ecbe 5ebc
00000020: b8ee 8fbd 477f a33b 0f67 173e 9539 513c
0.10578534 0.018098237 0.054632872 0.009999564 -0.014817812 0.044295575 -0.006978866 -0.013595324
-0.07027954 0.004989538 0.14785407 0.012770076

conv4.weight f4 [16, 12, 3, 3]
00000000: 0c7e 17ba 8811 9bbe 53a5 ca3e 5793 c53e
00000010: ed6d b03d ca55 69bd 7fc5 28bd d69a a3be
00000020: ce3e 66bc 8ae5 9a3d f0dc ab3e d4aa bb3c
00000030: ddb9 33be fe3e 8c3c 5482 a33c 8c07 2c3e
00000040: 2f84 05be b4a4 f2bb 0b7f ab3e 1404 013d
00000050: 9187 903e ed1f 91bd 8aa1 8cbe 5ce9 2b3e
00000060: d29b 4d3d 7aab 753d ae54 f3bd 7a96 dfbd
00000070: 79af b3bd 4275 66be 51d2 48be 99cf e73d
00000080: 691b 2fbd afb9 39bd 6b4e 4a3e 62d2 a2bd
00000090: beb5 8cbd d572 163f 89c6 f73d c639 16be
000000a0: a71e 4cbe d4ba 463e 2d7c 183d 8d4c ed3e
000000b0: 4295 4c3e 8b2d 703c 0911 683e 5dac 73bc
000000c0: fc68 88bd 755b 643c 57b1 83bd 0f0e b83d
000000d0: d2ac 103e 2764 6f3d bd9d 0c3e 1b10 653e
000000e0: 1fd6 423d f15b e83c c697 74bd 3591 493d
000000f0: 9716 e03d 73c7 8f3d 4e08 ba3d f8ef 9b3d
00000100: 3854 d83d 9357 e4bd 0c0a 61bd e078 8fbd
00000110: c5e1 41be c456 3f3b aa65 783e d8c0 663e
00000120: 1ac9 c13d d534 8dbe 077a 7bbe d303 a23e
00000130: 4650 f83e 29df e33e c595 8a3d 54b1 3bbe
00000140: 872d d53c c6e2 1cbd 8627 1fbe c4ef e4bd
00000150: ad1b 463d a253 49bd 5efb 14be 4c97 683d
00000160: e30f e0bc 51c3 6e3b 0809 55bc c713 f23c
00000170: 64f0 163e d705 35bd 57dc 173d b4b0 8c3d
00000180: a8af 2fbd 412f 26be f78d 80bd f68e a03b
00000190: 53d2 c7bc 2cd8 ec3d b316 9abd 815c 2dbe
000001a0: b3cb 373e 04f4 5bbc 68bc 39be b1c8 30be
000001b0: 857b 893e d9b8 bc3e f96f 1cbd 04f2 d9bd
000001c0: afd5 00be 373a 01bd a15a be3d 579e 0ebc
000001d0: b583 783e a1b6 0fbf 640c 4dbd 8fc7 243e
000001e0: d9c1 e53d a59e 253d 39cf 0cbd 1a1d 9a3c
000001f0: fa14 963e 5dbf 113e 9145 813e 9472 0dbd
00000200: 7acc aa3d 0dde 83be 74ad dabb f64d 46bd
00000210: 2d15 e3be 5954 1c3c fde4 db3d 22f1 94be
00000220: e204 74bd dcde b03c 0e68 073e 3fab 643c
00000230: 221d 19be 2ef2 81bd c573 39be c774 6b3d
00000240: 8777 1a3f 45c4 e73e ece7 703b 7274 053e
00000250: faa0 9abd d8be 39be ea23 f43c a43e 2bbe
00000260: 0478 5ebd 88d6 b4be 85b9 67be 1d77 ccbd
00000270: 57e0 10bd 781f ee3b 5418 063d a24c 5a3e
00000280: 3cb7 323d e71a 08be 5cd0 6bbe a5d5 743e
00000290: bdca c03d 366a 11be 46fe 80be a192 bcbd
000002a0: b847 973d 9812 a53c 1790 b5bd 1a0b 273e
000002b0: ea9e 3d3e 6aa3 46bd 9b78 8dbe 670c 58be
000002c0: 95a7 9d3d 4222 d33d 3cd6 983d 94bd f9bd
000002d0: e881 24bd c9fe fc3d dda3 b23d de14 d9be
000002e0: facc cbbd 980e 45be ae55 f63e 447d f3bd
000002f0: cd1f 133d 255f 62bd 9167 913c 6b12 fcbd
00000300: 83dc 88bd bb6c 19be 854b e93d 1d82 083d
00000310: 8e94 53be 6408 93bd 47df 11bf 906d a0bd
00000320: e775 983d 1aba 8f3c 44fe 293e 49f8 be3b
00000330: fd74 13be c829 a93d 499b 423c 93df 54be
00000340: 6c7e 0bbe 5924 9eb9 e7ab 31bd 4d1f 2d3e
00000350: 9c73 8e3d eb13 853d 9d3a 49bd d2f2 cb3c
00000360: 7832 cf3b 0484 033e 450d c03e db1d 063e
00000370: 6204 42bc be00 4d3e 2faf 9b3e f4cd 833e
00000380: 13ba 013e 5a98 053e 5744 113e 721d 473e
00000390: 60bd b1bd da86 813d 337c a9bd 9aa1 d2bd
000003a0: 97eb 4e3e 38ec 643e f957 833d 1af1 913e
000003b0: e689 083d 694c 2b3d b5c8 60bd 72b3 fbbd
000003c0: 4e25 033c bc68 3b3e 6d6a a63e c619 d33d
000003d0: 3334 183e 2825 e0bd 7452 1e3e 4e9f f3bb
000003e0: 2583 d9bd d078 1c3e 1d61 5f3e fcb8 9fbb
000003f0: b5c1 47bd f428 54be 49be d7be 0b3f f5bd
-0.00057789753 -0.30286813 0.39579257 0.38588974 0.08614717 -0.05696658 -0.041203972 -0.31954068
-0.01405306 0.07563312 0.33567 0.022908606 -0.1755137 0.01711988 0.019959606 0.16799754
-0.13038705 -0.007404888 0.33495364 0.03149803 0.2822843 -0.070861675 -0.27466995 0.16788238
0.05019743 0.059977986 -0.11881386 -0.10917373 -0.08773703 -0.22505668 -0.1961148 0.11318893
-0.04275075 -0.045343097 0.19756477 -0.079502836 -0.06870602 0.5876897 0.120984145 -0.14670476
-0.19933568 0.19407207 0.0372278 0.46347466 0.19978812 0.014659296 0.22662748 -0.014872638
-0.06660649 0.013937821 -0.06430309 0.089870565 0.14128426 0.058445122 0.13732047 0.22369425
0.047567483 0.028364154 -0.059715055 0.049210746 0.10941809 0.07020464 0.09083615 0.0761413
0.105629385 -0.11149516 -0.054941222 -0.07005477 -0.1893378 0.0029196003 0.24257532 0.22534502
0.09462185 -0.2757937 -0.24558268 0.31643543 0.48498744 0.44506195 0.067668475 -0.18329364
0.026022686 -0.038302206 -0.1554242 -0.11178544 0.048366237 -0.049152024 -0.14549014 0.056784913
-0.027351325 0.0036432336 -0.0130026415 0.029550446 0.14740139 -0.044195022 0.037075367 0.06869641
-0.04289213 -0.16228963 -0.06277078 0.004899855 -0.024392283 0.11564669 -0.07523861 -0.16929819
0.17948799 -0.013424877 -0.18138278 -0.17264058 0.2685205 0.36859778 -0.038192723 -0.10641864
-0.12581514 -0.03154966 0.0929463 -0.008704743 0.24268992 -0.56138045 -0.050060645 0.1609175
0.11218614 0.0404345 -0.03437731 0.018812705 0.2931288 0.14233156 0.25248387 -0.0345331
0.08339782 -0.2575535 -0.0066735093 -0.048414193 -0.44352093 0.009541594 0.107370354 -0.2909022
-0.05957497 0.021590643 0.13223287 0.013956844 -0.1495252 -0.0634502 -0.18110569 0.057484414
0.60338634 0.4526693 0.003675933 0.13032702 -0.07550235 -0.18139207 0.029802281 -0.16723114
-0.054313675 -0.35319924 -0.22629364 -0.099836566 -0.035370197 0.007266935 0.032738045 0.21318296
0.043631777 -0.13291512 -0.23028702 0.23909624 0.09413669 -0.14200673 -0.25193995 -0.09207655
0.07386726 0.020150468 -0.088653736 0.16312829 0.18517652 -0.048495688 -0.27631077 -0.21098481
0.07697979 0.103092685 0.07462737 -0.12194362 -0.04016295 0.12353284 0.08722661 -0.42398733
-0.099512056 -0.19243848 0.48112243 -0.11889127 0.035919 -0.05526652 0.01774958 -0.123082004
-0.06682684 -0.14982884 0.11391357 0.03332721 -0.20662138 -0.07179335 -0.5698132 -0.078333974
0.07444363 0.017544795 0.16600901 0.0058279377 -0.14400096 0.08259922 0.011877843 -0.20788412
-0.13622445 -0.0003016319 -0.04337683 0.16906472 0.069556445 0.0649794 -0.049128164 0.02489606
0.006323155 0.12843329 0.37510124 0.13097326 -0.011841865 0.20019814 0.30407092 0.25743067
0.12668638 0.13046399 0.14186226 0.19444826 -0.086786985 0.06324549 -0.08275642 -0.10284729
0.20207058 0.22355735 0.06413264 0.28504258 0.033334635 0.041820917 -0.05487891 -0.12290086
0.0080045 0.18301672 0.3250307 0.1030765 0.14863662 -0.10944587 0.15461141 -0.007434762
-0.10620717 0.15280461 0.2181439 -0.004874347 -0.048768718 -0.20718747 -0.42137364 -0.11974915

conv4.bias f4 [16]
00000000: 672d 4dbd 2dbd 31bd 2689 34bd 76a7 79bd
00000010: 2597 313d 3374 ddbc 82b2 f93d a805 d0bd
00000020: 6a69 91bd a431 0d3e 593d 843d d799 0ab8
00000030: 04f7 a7bd 9d6c 9cbd 8053 ecbc a4fb ff3c
-0.050092127 -0.043393303 -0.044076107 -0.06095072 0.043357033 -0.027032947 0.12192251 -0.10157329
-0.07100184 0.13788468 0.06457014 -3.304504e-05 -0.08201411 -0.07637904 -0.02884841 0.031247921

bn1.weight f4 [3]
00000000: 7da7 4f3f 4f39 823f 8859 553f
0.8111494 1.0173739 0.8333974

bn1.bias f4 [3]
00000000: 6a6e 053f b0e3 033f ff08 8abe
0.52121603 0.515193 -0.26959988

bn1.running_mean f4 [3]
00000000: d2c3 ffbe a9b5 773f 4bb1 ba3e
-0.49954087 0.96761566 0.3646339

bn1.running_var f4 [3]
00000000: 1981 443f 2a84 f93f c1a1 003f
0.7675949 1.9493458 0.50246817

bn2.weight f4 [4]
00000000: c40c 203f 382d 483f f495 843f c848 8a3f
0.6251948 0.78194 1.0358262 1.0803461

bn2.bias f4 [4]
00000000: 5468 bb3e 3c48 4f3f 7e55 1bbf e00f 17be
0.36603034 0.80969596 -0.60677326 -0.1475215

bn2.running_mean f4 [4]
00000000: cc1d 9b3e 1782 683f 3974 713d e48e fbbe
0.3029617 0.908235 0.05894873 -0.49132454

bn2.running_var f4 [4]
00000000: c56f 3340 17a9 5741 b56f 3e3f 93c3 4340
2.8036969 13.478782 0.743892 3.058812

bn3.weight f4 [12]
00000000: 92bb 773f 8fcc 5d3f eaee 713f d49c 4d3f
00000010: 7c35 8b3f cf32 823f 4f2f 0f3f 411b 7a3f
00000020: 6a74 673f 78db 393f 323d 823f 2a8c 563f
0.96770585 0.86640257 0.9450518 0.80317426 1.0875697 1.0171756 0.5593156 0.97697836
0.9041201 0.7260051 1.0174925 0.83807623

bn3.bias f4 [12]
00000000: 4bd2 ae3e 3c8c 87be ffc0 813e e92a 83bc
00000010: 4d45 bc3d 4df3 0d3e 4ba3 babe c171 b43d
00000020: b75e 413e 7234 85bf 1480 7ebf bd2d 2dbe
0.34144816 -0.26474178 0.25342557 -0.016011672 0.091929056 0.13862343 -0.36452708 0.08810759
0.18883787 -1.040663 -0.9941418 -0.16911979

bn3.running_mean f4 [12]
00000000: ccda dbbe 58be 423e fdd4 e5be 5e9c 2e3f
00000010: 904c f3be 4ad3 473f 145e 853d 2fec b7be
00000020: 3b91 ab3e 95ef 333e 519e c33d a731 573f
-0.42940366 0.19017923 -0.4488906 0.6820735 -0.4751935 0.78056777 0.065120846 -0.3592238
0.3350924 0.17571862 0.09551681 0.8406014

bn3.running_var f4 [12]
00000000: 6cab 713f ab98 5c3f 0f31 d03f 5827 7d3f
00000010: 534f 7d3f 2d40 3f40 9189 813d 8ab5 593f
00000020: 7475 d13e d5ca c83d b796 c93d 94c2 3d40
0.94402194 0.8617045 1.6264971 0.9888816 0.98949164 2.988292 0.06325067 0.8504263
0.40909922 0.09804312 0.098432 2.965001

bn4.weight f4 [16]
00000000: ba31 683f 3406 3b3f 7e24 4d3f 9f90 363f
00000010: db4c 613f 0761 5e3f 0927 453f 4e13 403f
00000020: 432e 283f 59f7 f53e a394 333f a71f 643f
00000030: fd92 693f ed90 553f 0764 593f 7bd9 1f3f
0.90700877 0.7305634 0.8013381 0.71314424 0.880079 0.868668 0.7701269 0.75029457
0.6569559 0.48040274 0.70148677 0.891108 0.9123991 0.83424264 0.84918255 0.62441224

bn4.bias f4 [16]
00000000: 6f44 50be b60a 613e 7bb6 dcbd 3f7f ad3e
00000010: 7f81 96bd 1a04 7fbe a194 473e 1059 203f
00000020: 2e22 16be 678c f63d fc07 f33e aafd d9bd
00000030: 7704 89be e6b7 813d 6619 143f 3de0 633e
-0.20338605 0.21976742 -0.10776993 0.33886144 -0.07348918 -0.24903908 0.19490291 0.626359
-0.14661476 0.12038498 0.4746703 -0.10644086 -0.2676122 0.06333904 0.57851255 0.22253509

bn4.running_mean f4 [16]
00000000: 5d77 863f 69c2 6a3e a444 a43f f1d1 883d
00000010: 6cab e1be 116d fbbe 30be adbe 8c5e c4be
00000020: f828 c2bd d440 043f 6d64 4abe 299b d8bc
00000030: 1a0f 453f 92a2 75bd b548 4fbe 8690 12bf
1.0505177 0.22925724 1.2833447 0.06680668 -0.44076097 -0.4910665 -0.33934164 -0.38353384
-0.094804704 0.5166142 -0.19764872 -0.026441174 0.7697617 -0.059969492 -0.2024258 -0.57251775

bn4.running_var f4 [16]
00000000: c876 2d3f d4d9 0440 43b3 0c3f 9550 0140
00000010: 924c 723f cca8 a73f 2f12 913f e601 733f
00000020: 3a57 423f 1882 9f3f 79ec c33f c03b 8a3f
00000030: 1668 a23e 406d bf3f 0233 4740 a61b 9c3f
0.6775937 2.0757952 0.5496103 2.0205433 0.9464809 1.3098388 1.1333674 0.9492477
0.7591435 1.2461576 1.5306541 1.0799484 0.31720036 1.4955215 3.1124883 1.2195938

fc5.weight f4 [32, 16]
00000000: 0f48 983a 3ade 4737 fd15 f13a 23ae 353a
00000010: d2b1 393a 37d8 b037 9379 c33a 5fb7 b13a
00000020: 6ab0 08ba 91d7 4dbb 9d52 45ba 2878 7a39
00000030: 335a e3ba 2f78 1dba 1eb6 78b9 c7ee bb3a
00000040: c9d0 41ba 107b a4b9 5555 b6ba 9d2d bfb9
00000050: 4c29 8739 e529 c9b9 d3a7 4aba 1645 a6b9
00000060: cb3a 7bb8 43ce 063b 0106 cc39 93b2 d3b9
00000070: e069 b43a 7f79 53ba 4fd8 263a a265 90ba
00000080: da44 db39 6030 b2b9 4602 4bba 82f2 e6b9
00000090: 791a 50b8 dec6 6e3a 9b85 9bba 87bf b3ba
000000a0: 7c2e a8b9 b8aa e13a b60c 86b7 1849 973a
000000b0: 7b66 06b9 81e5 983a 5a4b 303a 1498 17ba
000000c0: eedf 91ba 45bd d0b9 19ae 86ba a529 53ba
000000d0: f545 e7b9 1d2b 8039 b27d 7aba 5a32 3338
000000e0: c914 623a 33d0 003b 0535 7036 65f8 2139
000000f0: f878 df3a c01e 0eba 7515 aab9 eef0 a9ba
00000100: 9ae8 4eba 222c 3bb9 66b5 ffb9 34cd dcb9
00000110: ee3f 8839 8b87 f4b9 0205 29ba 888c a5b7
00000120: 95d6 b739 caad bc3a e2c7 083a 922d 8a37
00000130: d28c 433a eba5 47ba 36ee 49b8 50c2 4bba
00000140: 3ff2 8bbe ecb7 0ebf 02d2 853f 7f07 96bc
00000150: 0965 8abf 4411 dcbe f332 a8be f8fd 2e3e
00000160: 1328 4fbf 9ec0 25bf 76f2 ad3f 3843 c73e
00000170: e763 9ebf d690 613f 8ebb 23be e3ce bd3e
00000180: 5660 0a3f e60c 163f 91ca 133f d11c 603f
00000190: 3a1e 0fbf 78bb c2be 25f8 8f3e bf42 8f3d
000001a0: a0fd fa3e 909d c03f 8ff2 1d3f 5eb2 053d
000001b0: d3d7 e8bb 9942 373f dfbd 1e3e 6fa1 16bf
000001c0: 5940 f239 41fe 283a 1100 1c3b 2a3d 093a
000001d0: e2b0 223a 828f e0b9 9753 163a 2f66 b939
000001e0: 87b8 97ba 4b55 2cbb d17d b638 a94d c8b9
000001f0: 2202 15bb 3dd3 95b9 2bf2 083a 81bf 8f3a
00000200: 7db3 193a 869a 1eba c56c 9237 e0eb e838
00000210: 65ef b3b7 b438 0c3a cce6 ed39 a603 2d3a
00000220: 65eb 00b9 d7e2 04ba 5a58 4dba e6e6 8639
00000230: adf6 81b9 fed3 c7b9 4ad1 3fb8 989d 82b9
00000240: d02d 91ba 5520 ceb9 539b 81ba f39d 6bba
00000250: 32ef 8fb9 166e c338 b5be f938 b610 213a
00000260: be7b 3a3a 2fe0 523b 2d56 2a38 5d29 8c3a
00000270: fc03 a43a 5ddb 083a 6ea4 e5ba b6c8 10ba
00000280: 7174 db3a 21df 6038 f073 ff3a 784a 473a
00000290: 201f 923a 6076 b33a 0165 d3b7 960b 0eba
000002a0: f709 c3ba 48f9 5ebb 5905 2cba 78ed 343a
000002b0: bcb2 1dbb 9ac9 0c3a ea72 cc3a 0e7b c73a
000002c0: cc3e a1ba 061d 253a 374e 8039 ef6c 0fba
000002d0: 510a 8b39 107e b5ba a247 4439 fbfb 4c3a
000002e0: 1304 473a a3ff 143a 270b 3b3a 45cf 1bba
000002f0: c0ba 1b3a acef 98ba 4cbb 4eba 68de 3fb9
00000300: 798c fbb8 309e a1b7 869a 9939 25bc 3cb9
00000310: fd2b 3b3a c769 41ba bfe5 593a edc1 2c3a
00000320: 4b2b 42ba c820 6038 8c5b 02b9 38bc e239
00000330: e2c0 fd39 7a6e d2b9 5310 5f38 0522 e6b9
00000340: b7d4 24bf 74ab 0d3f 0cd7 313f 38d3 97bf
00000350: 4282 9bbe a027 623e 792f da3d ee12 133f
00000360: 1a74 c03f 400f 853d 79ed 5fbe 941f 27bf
00000370: b85f 8a3e ed3d 1f3e 0eaf 293f bd89 eb3e
00000380: cd31 dc39 c817 d438 ddad e839 8203 b039
00000390: 7804 bc39 483a 9a39 7e50 0a3a 039d da38
000003a0: 30c7 84b8 9eef 3bba 4e55 e8b9 5c5f 2d38
000003b0: 3e57 cdb9 8e31 5539 ba11 14b8 ab81 583a
000003c0: 78e6 d839 622f 12ba 573f 7939 0841 1338
000003d0: 1202 133a 1670 3f38 da9a 6fb9 7e78 3039
000003e0: 5956 16ba 496b 38ba a0c9 43b9 1bf6 2cb8
000003f0: 3569 3cba 9aec 81b9 846b 9339 0a97 a1b9
0.0011618155 1.19130655e-05 0.0018393394 0.00069305504 0.0007083687 2.1081518e-05 0.0014913551 0.0013558677
-0.0005214276 -0.0031409005 -0.0007527264 0.0002388662 -0.0017345607 -0.00060069835 -0.00023718967 0.0014338129
-0.0007393477 -0.00031372206 -0.0013910929 -0.00036464343 0.00025779975 -0.0003836892 -0.0007730696 -0.0003171346
-5.989782e-05 0.002056972 0.00038914385 -0.00040378104 0.0013764463 -0.00080671156 0.000636463 -0.0011016617
0.00041822233 -0.00033986848 -0.0007744174 -0.000440497 -4.961572e-05 0.0009108613 -0.0011865379 -0.0013713696
-0.0003207809 0.0017217016 -1.5979964e-05 0.0011542169 -0.00012817413 0.0011665077 0.00067250954 -0.0005782854
-0.0011129358 -0.00039813868 -0.0010275274 -0.0008055217 -0.00044111875 0.00024446184 -0.0009555473 4.272382e-05
0.0008624313 0.0019655346 3.5793648e-06 0.0001544669 0.0017049601 -0.0005421452 -0.00032440913 -0.0012965479
-0.00078929367 -0.0001785015 -0.00048772543 -0.00042114558 0.00025987573 -0.00046640294 -0.00064475846 -1.9734973e-05
0.00035064356 0.0014395055 0.0005217773 1.6472102e-05 0.00074596435 -0.0007615971 -4.8143986e-05 -0.000777279
-0.27333257 -0.5574939 1.0454714 -0.018314121 -1.0812083 -0.42981923 -0.3285137 0.17089069
-0.80920523 -0.64747036 1.3589618 0.3891847 -1.2374238 0.8811163 -0.15989515 0.37071905
0.54053247 0.5861343 0.57730967 0.8754397 -0.559055 -0.38033652 0.28119007 0.06995153
0.49021626 1.5048084 0.6169824 0.032640807 -0.0071058064 0.71585995 0.15502118 -0.5884008
0.0004620578 0.0006446578 0.002380375 0.00052352494 0.0006206167 -0.0004283153 0.0005734502 0.00035362082
-0.0011575379 -0.0026295956 8.7018714e-05 -0.00038204834 -0.0022736867 -0.0002857688 0.0005224074 0.0010967107
0.00058632327 -0.00060502475 1.7455206e-05 0.00011106557 -2.144994e-05 0.00053490256 0.0004537612 0.000659997
-0.00012294723 -0.0005069202 -0.0007833295 0.00025730504 -0.00024788585 -0.00038114184 -4.5732864e-05 -0.0002491295
-0.0011076275 -0.0003931547 -0.0009888209 -0.0008988075 -0.000274533 9.31883e-05 0.00011908767 0.0006144153
0.0007113776 0.003217708 4.0611416e-05 0.001069348 0.0012513394 0.0005220676 -0.0017520317 -0.00055230723
0.0016743076 5.3613567e-05 0.0019489508 0.0007602344 0.0011148192 0.0013691895 -2.5200194e-05 -0.00054185966
-0.0014880289 -0.0034023095 -0.0006562076 0.00069018407 -0.0024062833 0.0005370617 0.0015598212 0.0015219168
-0.001230204 0.00062985753 0.00024472337 -0.00054712495 0.00026519832 -0.0013846774 0.00018718702 0.00078195304
0.00075918547 0.0005683845 0.0007135146 -0.00059436663 0.00059406087 -0.0011668107 -0.0007886186 -0.00018298032
-0.00011994778 -1.9266357e-05 0.00029297563 -0.00017999166 0.00071400387 -0.0007378128 0.0008312128 0.00065901765
-0.0007406964 5.343629e-05 -0.0001243187 0.00043246313 0.0004839963 -0.00040136633 5.3182546e-05 -0.00043894365
-0.6438708 0.5533974 0.6946876 -1.1861334 -0.30372816 0.22085428 0.10653586 0.5745076
1.5035431 0.06497049 -0.21867932 -0.6528256 0.27026153 0.15550967 0.6628274 0.46003523
0.00041998774 0.00010113377 0.00044380027 0.0003357195 0.00035861484 0.00029416592 0.00052762765 0.00010424296
-6.331352e-05 -0.00071691896 -0.00044314045 4.1335225e-05 -0.00039165647 0.00020331723 -3.530246e-05 0.0008259068
0.00041370443 -0.00055765186 0.00023770086 3.5108096e-05 0.00056079135 4.5642337e-05 -0.00022850503 0.00016829555
-0.00057349127 -0.00070350297 -0.0001867176 -4.12372e-05 -0.0007187308 -0.0002478108 0.0002811813 -0.00030820846

fc5.bias f4 [32]
00000000: 2cc4 90ba d551 c739 315d 283a 12a7 8a3a
00000010: 0f8e b939 32ec a0be e3e7 a5bf 7921 87ba
00000020: 9763 ed38 23f7 333a 3c67 7cba 0203 c0b8
00000030: a39b f7b9 2d8a 06bf 24b9 d1b9 e832 5639
00000040: b314 1b3e 9b97 73b9 2525 5fb9 3b0c 4f3f
00000050: c078 e939 c91f fbb8 3351 993a 25ab 8b3a
00000060: f486 a1b8 0209 e4b8 70a2 08ba feda 20b9
00000070: 1b5a 3f3a 1d4c 35ba e426 74b9 5e39 12b9
-0.0011044792 0.00038017207 0.0006422578 0.0010578355 0.00035391792 -0.31430203 -1.2961391 -0.0010309658
0.00011319591 0.00068651343 -0.000962842 -9.155834e-05 -0.0004722747 -0.5255459 -0.00040001527 0.00020427594
0.15144615 -0.00023230763 -0.00021280775 0.8087804 0.0004453119 -0.00011974533 0.0011697173 0.0010655863
-7.702215e-05 -0.00010873565 -0.00052121934 -0.0001534037 0.00072994985 -0.0006915944 -0.00023284141 -0.00013945016

fc6.weight f4 [32, 16]
00000000: bcd8 7536 94d9 a5b6 4723 2336 0b0c 6b34
00000010: 0987 c736 5317 8e36 2cb5 9d35 cc24 9f36
00000020: a438 b8b6 eef2 f8b5 20e3 4ab6 4edd 8736
00000030: 99fe 8db5 4462 6536 79e0 c2b4 037e 0ab5
00000040: ef58 fa35 cfea d535 b312 c636 8b89 ee36
00000050: 906d 6936 868d 3d36 aeaa bb36 b22d b336
00000060: c6cb 2ab7 9f67 30b7 25ad 09b7 5a8e c036
00000070: dadf b5b6 88e8 d336 8c42 be36 2991 dc36
00000080: 86f9 e0b6 7cfc 98b6 2707 0636 80c7 8cb4
00000090: 0d68 c335 9d0d a5b4 0c3b 0935 df57 a135
000000a0: 6018 a8b2 b67e 3c37 c4a3 5635 5330 4ab6
000000b0: e13f aab6 ca57 0c36 e7af 2bb4 c9cc 98b5
000000c0: 644f 86b6 6c45 f7b6 ebf0 9336 9c9b 96b4
000000d0: a5bc 4736 d2d3 db37 0aab 9db6 f2a6 8336
000000e0: 3d99 49b7 b286 bd36 b3af 87b7 cc44 ea36
000000f0: 6498 f736 8c9f fe36 1211 4e36 06b2 61b7
00000100: 2453 5db6 0e98 09b7 0ce6 b136 8a67 a4b6
00000110: 999a 96b6 759a d637 1d10 7535 b18e 0eb6
00000120: 513e 5eb5 2388 0837 5ee5 8bb7 c7fb 8536
00000130: 9e2b 2f36 a22e 4937 e2f9 9bb6 bf8f 12b7
00000140: ab57 8b3f df23 28bf 2b4e a23f 97c5 a2be
00000150: 28c5 d83d aee7 b93e ce0e 62bf 9ca7 223e
00000160: 79b9 dd3e 4dca 81bd 0200 cabe 1f41 503f
00000170: 2464 0f3f b79c 783e d8ad 6ebe a680 08be
00000180: 0644 a43f 01f3 67bf 7e6b b33f 2f54 2cbf
00000190: f13b 433e 0ec7 b83f d353 2abf 1134 d63d
000001a0: e014 9c3c 7c5b 373f 4d09 58bf 2890 003f
000001b0: d8a8 563f 09bd d2bd 0605 82bf a59f 973d
000001c0: 95ad 53b6 2d62 4936 e1ea c835 adb8 bcb6
000001d0: 1cb4 5237 3bfd f2b5 5eb8 9ab6 12bc 7136
000001e0: 691c 9db7 faa6 f3b6 44d9 5e36 970c 0cb7
000001f0: 34a7 ed36 0246 3237 d034 04b6 a1ff 0ab6
00000200: 40b7 48b4 3c1e 05b6 8d0d 9536 f6cb 6335
00000210: 92e2 a2b6 9de5 5137 21d0 bb35 2def c5b4
00000220: 94d0 27b4 921f 89b6 e328 b8b6 8647 4435
00000230: 2032 1c34 15e2 4736 8487 6cb6 8950 8336
00000240: a65d 4db8 f977 8eba 3459 a93a 7cec 06ba
00000250: 84c5 14bb 6401 c63b 2d30 ac3a 6267 98b9
00000260: 8c73 923a 32ed 27ba 87dc 95bb 96b0 da3a
00000270: dd64 e439 43bb 0e3b 8bbb 94ba 0108 deb9
00000280: 75f4 603d a259 683c 1ae4 2f3d a340 9cbb
00000290: 622d 87bd 19c9 4a3e 8594 823d e3d4 dcbc
000002a0: 5fa1 513d 821e 23be f4bd 05be cb60 8a3d
000002b0: 8c42 a43c b6a5 9c3d e9f0 debb f914 7b3d
000002c0: dafd bdb5 bd97 0836 ec96 a035 e61f adb5
000002d0: 0a91 0236 841a 9f36 6822 54b5 ba03 f0b5
000002e0: b2d8 6436 334d 8436 3cda 00b6 6c46 b736
000002f0: 72c1 d336 18f4 b234 4499 e0b4 bcfd db35
00000300: f438 a2b5 7167 7636 4a26 5036 61ed f035
00000310: 25e6 8e35 5cc7 ccb6 0795 87b5 3387 e4b5
00000320: 81de 0436 dd92 22b5 b0cd 7736 67f8 d635
00000330: 97bd 98b6 5a88 d2b5 6c26 9fb6 a86a dcb5
00000340: faa8 1b3f d9a0 42bf 6d93 ac3f 4410 84be
00000350: f2df 45be 7163 153f 3bba 21bf 030d 613e
00000360: 60a4 0d3f 5c4f b73e bb0f fdbe cb0b 463f
00000370: 3efe 723f 042d 1a3f 985a edbe 537b 01bf
00000380: b0f7 68b5 f500 8db7 982d 9037 4c31 f3b6
00000390: 0793 a6b7 ab97 9638 2b59 1337 7f96 38b6
000003a0: 5e3f 2b37 9ce0 a7b6 c4ff 54b8 21fa 9d37
000003b0: 5c9a 0837 9cb8 9937 a5ae 54b7 c4e0 17b7
000003c0: 2d8e d3b5 d981 5fb5 fb8a 9a36 5ee4 d0b3
000003d0: 5c4f 0db7 2036 8337 a7ea 0ab3 c179 00b5
000003e0: e071 5e35 a0b0 cf35 4e28 17b7 2aa9 e135
000003f0: 0215 8435 0a0d f236 3dad 97b3 4bb6 9fb4
3.6634e-06 -4.9427126e-06 2.4309427e-06 2.1890462e-07 5.9463823e-06 4.234645e-06 1.175014e-06 4.742853e-06
-5.490221e-06 -1.8548142e-06 -3.023255e-06 4.049077e-06 -1.0579416e-06 3.4180857e-06 -3.629864e-07 -5.159238e-07
1.8652335e-06 1.5938075e-06 5.9030367e-06 7.108965e-06 3.478348e-06 2.8245572e-06 5.592904e-06 5.3399353e-06
-1.0180234e-05 -1.0514544e-05 -8.20615e-06 5.738618e-06 -5.42028e-06 6.31536e-06 5.6701883e-06 6.57341e-06
-6.7047686e-06 -4.559346e-06 1.997172e-06 -2.6222187e-07 1.4558915e-06 -3.074355e-07 5.11224e-07 1.2021009e-06
-1.9568859e-08 1.1235175e-05 7.995952e-07 -3.0128474e-06 -5.0738313e-06 2.0912726e-06 -1.5989609e-07 -1.1384483e-06
-4.0027535e-06 -7.3692554e-06 4.408988e-06 -2.8052898e-07 2.9763116e-06 2.6205471e-05 -4.698876e-06 3.923539e-06
-1.2016212e-05 5.6483195e-06 -1.617507e-05 6.9817524e-06 7.3789142e-06 7.5883636e-06 3.0706328e-06 -1.3452494e-05
-3.297996e-06 -8.201239e-06 5.301792e-06 -4.8996344e-06 -4.488346e-06 2.5582713e-05 9.129306e-07 -2.1242706e-06
-8.2792127e-07 8.1379285e-06 -1.6676899e-05 3.9930196e-06 2.610242e-06 1.1991391e-05 -4.64845e-06 -8.735747e-06
1.0886129 -0.65679735 1.2680105 -0.31791374 0.105844796 0.3630957 -0.8830384 0.1588425
0.43305567 -0.06337414 -0.3945313 0.81349367 0.5601218 0.24278532 -0.23308504 -0.13330325
1.2833259 -0.9060517 1.4017179 -0.67315954 0.19065835 1.4435747 -0.66534156 0.1045915
0.019052923 0.7162397 -0.8438919 0.50219965 0.83851385 -0.10289962 -1.0157783 0.07403497
-3.1542488e-06 3.000848e-06 1.496952e-06 -5.6243357e-06 1.255891e-05 -1.8104105e-06 -4.611021e-06 3.602127e-06
-1.8729088e-05 -7.261403e-06 3.3207043e-06 -8.347582e-06 7.0826154e-06 1.0625927e-05 -1.9700274e-06 -2.0712398e-06
-1.8693117e-07 -1.9836143e-06 4.4421236e-06 8.486089e-07 -4.8543525e-06 1.2510832e-05 1.3993159e-06 -3.6868133e-07
-1.5628967e-07 -4.0865934e-06 -5.488387e-06 7.311977e-07 1.4546868e-07 2.9784908e-06 -3.524562e-06 3.9134798e-06
-4.8963026e-05 -0.0010869495 0.0012920261 -0.0005146933 -0.0022700736 0.0060426462 0.0013136916 -0.00029068725
0.0011173352 -0.0006405889 -0.004573408 0.0016684707 0.00043562698 0.0021779097 -0.0011347396 -0.00042349103
0.054920632 0.014181526 0.042942144 -0.0047684475 -0.06600453 0.19803275 0.06375984 -0.026956981
0.051179286 -0.15929607 -0.13060743 0.06756743 0.020051263 0.07648794 -0.006803621 0.061299298
-1.4155478e-06 2.0353903e-06 1.1964853e-06 -1.2898788e-06 1.9455933e-06 4.741656e-06 -7.902622e-07 -1.7882478e-06
3.410078e-06 3.9428937e-06 -1.9200515e-06 5.462023e-06 6.31081e-06 3.3332685e-07 -4.1834767e-07 1.6390618e-06
-1.2086516e-06 3.6717067e-06 3.1016702e-06 1.795048e-06 1.0646805e-06 -6.1028823e-06 -1.0101656e-06 -1.7026672e-06
1.9799047e-06 -6.0563417e-07 3.6925594e-06 1.6016537e-06 -4.552024e-06 -1.5685903e-06 -4.743042e-06 -1.6422318e-06
0.6080471 -0.76026684 1.3482491 -0.2579366 -0.1932371 0.5835486 -0.6317479 0.2197762
0.5532894 0.35802734 -0.49426064 0.77361745 0.9491919 0.6022494 -0.4635818 -0.505788
-8.678717e-07 -1.6808955e-05 1.7187369e-05 -7.2477033e-06 -1.9857207e-05 7.180808e-05 8.782644e-06 -2.7505737e-06
1.0207148e-05 -5.003136e-06 -5.078294e-05 1.8832334e-05 8.142171e-06 1.8324987e-05 -1.2676847e-05 -9.052634e-06
-1.5762104e-06 -8.3262927e-07 4.605737e-06 -9.7272945e-08 -8.422732e-06 1.564162e-05 -3.2344044e-08 -4.786089e-07
8.2867155e-07 1.5474106e-06 -9.0096855e-06 1.681304e-06 9.84088e-07 7.21368e-06 -7.062997e-08 -2.9748693e-07

fc6.bias f4 [32]
00000000: 0a17 e2b6 1d64 0eb7 09be f735 d46e 0cb6
00000010: 10c0 5137 1ea9 ddbf 4886 03c0 3b12 21b7
00000020: 7009 4536 9169 223b ab44 e63c dccd 8934
00000030: 7745 7cb6 b5ba c7bf ccd1 ec37 b7e5 d235
00000040: 2be0 4dbf 1ac5 aeb6 bafa afb6 26df 8cbf
00000050: 3206 36b6 6661 d1b6 f845 23b7 3bec 1cb7
00000060: 4976 0b36 346f afb6 201e 96b5 6f32 fcb4
00000070: dae5 8637 62d2 23b6 7d3b 02b6 f9d5 86b5
-6.738007e-06 -8.487169e-06 1.8458242e-06 -2.0926136e-06 1.2502089e-05 -1.7317235 -2.0550709 -9.600592e-06
2.936078e-06 0.002478216 0.028108915 2.566802e-07 -3.759136e-06 -1.5603853 2.8231087e-05 1.5713075e-06
-0.8042018 -5.2085497e-06 -5.244595e-06 -1.10056 -2.712372e-06 -6.240024e-06 -9.731848e-06 -9.353326e-06
2.0781465e-06 -5.228352e-06 -1.1184638e-06 -4.6975353e-07 1.6081078e-05 -2.4411352e-06 -1.9406136e-06 -1.0046052e-06

fc_decode.weight f4 [16, 32]
00000000: 68d9 893d 4e33 0ebd 1447 f1bc 8c7f b93d
00000010: 1fba 93bd d70d 41bf 427b 1d3e 128d 333e
00000020: e662 1f3d 4d04 f4bc b8a2 0d3e 2043 03bd
00000030: 7ed5 b6bc 591d 623f 8677 2e3d f14c 0ebc
00000040: f45a 85bb 0828 8c3d ee85 033d d0e2 6d3c
00000050: 6fe2 93bd f556 15bd f5d4 e93b 6b55 aabd
00000060: 0f58 9bbd e572 1abd b6e8 0a3e a474 bb3d
00000070: adbf 84bd a5e5 2b3d 70f9 9a3d 4636 fcbd
00000080: 4d77 81bd 6705 b43c de1a 893d caff b13c
00000090: 7fa2 6ebb a810 1d3f 6a4c b3bf e036 edbe
000000a0: 07ac 77bd 510e b1be 2bad 85bd 2e04 863c
000000b0: 49fc 0e3e dc9c 1a3f 411d 3fbd 472b f8bd
000000c0: 7203 e1be 7046 5fbe f568 ad3d e470 653c
000000d0: 2aa5 1e3e 8afc 853b 6e42 31be b78a 82bb
000000e0: a7f5 adbd 434b 05be 2267 d7bd 0dab 84bc
000000f0: 3bfc 003c ce1d 003d cf02 5ebe 3ba9 a43e
00000100: 2185 d1bd a9fb 65bd 9538 ae3d 73a8 25bb
00000110: 9678 2abd 2b6b f5bd 088a c73e 79cd 36bd
00000120: fdd5 26be 08f0 e8bd 4094 86bd eaca fdb8
00000130: 2941 87bc 5234 f23e c879 b53d d67b ddbd
00000140: 9ee3 dbbd 55a9 c6bc dd27 833d ce2b 5c3e
00000150: 35e3 703b 71c9 04be 643b e63d 25da 81bd
00000160: 09c3 af3c d96a 42be 0c2b 39be b03c 973d
00000170: 2a53 ae3d b297 d63d f01a 3abe f1cc f03d
00000180: 5954 3cbe 7357 743d 9c0c 443e 4f9c 90be
00000190: 08eb d73d cf39 293e ebb5 2e3f e214 79bd
000001a0: 91a8 80be 5db4 343d 63a4 5bbe 4a27 a13c
000001b0: 0bc4 373e ffe8 d23d bb7e aa3d 7b0d 47bc
000001c0: 2acf 26bf df8d f9bb 2445 c2bd dc33 c33d
000001d0: b70f 50bd c8f6 adbd e6dd 393e 8b7b ed3d
000001e0: 966e 5d3e 7fbe 1dbe e49d a8be 30f3 0dbd
000001f0: 387b 733e 9d3f bf3d 4f10 bcbe edaf 213e
00000200: 0703 42be 6b50 d43c 577e 5c3e 1404 843e
00000210: 50be 7d3d fa2d d23e b86a 7cbc e75d 9c3e
00000220: f573 39be 9fa3 453e 5ce8 c53d d2d1 483d
00000230: dae6 aabc c053 89be 392e 973d 9319 b2bc
00000240: 4bb4 0a3d 9630 0d3e 6c9e 23be 9ddc 0ebf
00000250: 33ae a4bd 3aa8 193d 6d51 033f fab5 883a
00000260: 5b13 cfbd 2ff5 48be ccb8 4a3d a6e5 1f3e
00000270: f99e 763e 0819 a1bd 3d35 843d 8b84 70be
00000280: f4d5 42be 22de f73d 10b7 f93d dd94 dabd
00000290: 28c9 bc3d c884 3cbf 12c4 a2be 0ee4 cabd
000002a0: 7d73 b5be 5e40 87be 0d56 cfbd 2846 0f3e
000002b0: 1e72 833e b4c6 3cbf f88f a03d c2aa 04be
000002c0: 6581 30be 67eb 53bb 915c cbbc 5911 88be
000002d0: c808 97bd ea5b c43c f3fa 823e 8eae 143b
000002e0: 119b 8abd 1951 9dbe 9c07 2fbe 0a19 653d
000002f0: bef3 693e e2ac 4d3d 49ef 66be d45c 773e
00000300: 0ffb 963d 23a6 8fbd c845 f43c 917c 143e
00000310: dff9 663d 0b99 c5be 6cf0 fdbe d3f8 273e
00000320: 6576 3e3e d73d a23e 4399 1b3e 0ce6 babc
00000330: 5793 59be de3f 88be e549 bbbd 4367 223e
00000340: 3c4f 46be 0d8c dc3c 5578 d7bd 3d69 fc3e
00000350: 2f74 b23d d882 fb3d c041 353b abd2 3b3d
00000360: ecf0 bd3c 2f7f 963e 1733 283e 6fad 03bd
00000370: c428 22bd 660c 13be b381 823e ec0a 5bbe
00000380: 706a 0dbd 83e5 71bd 6312 203e a2dd 803e
00000390: dfa8 0b3c 3337 6cbf 7efa 94be f404 87bd
000003a0: 2286 b53c 7b4c febc af14 2b3e 7def 53bc
000003b0: b0bc 5cbd 4483 11bd 0627 18bd da3a 2cbc
000003c0: c936 78be 6cab a8bd d649 ffbc bf26 ecbd
000003d0: defd fa3d cc5d 613d 269f 243d a1a3 ebbc
000003e0: b153 f3bd 4ddc 39bc 68a6 c53d 648c ad3d
000003f0: 8fd6 053d 11c1 52bd c259 be3c ea51 90bc
0.0673092 -0.034716897 -0.029452838 0.09057531 -0.07213234 -0.7541174 0.1537905 0.17534283
0.038912676 -0.029787207 0.13831604 -0.032046437 -0.022318598 0.8832603 0.042594455 -0.008685336
-0.0040696803 0.06843573 0.032110147 0.014519408 -0.07220923 -0.03645988 0.007135982 -0.083170734
-0.07585155 -0.03770723 0.13565335 0.09153107 -0.06481872 0.041967053 0.07567108 -0.12315039
-0.06321583 0.021975232 0.06694578 0.021728415 -0.0036412773 0.6135354 -1.4007695 -0.4633093
-0.060466792 -0.34581235 -0.0652717 0.016359415 0.13963427 0.603956 -0.046658758 -0.121176295
-0.4394794 -0.21804214 0.084672846 0.014003966 0.15492693 0.004088943 -0.17310497 -0.0039838213
-0.0849412 -0.13016991 -0.10517718 -0.016194845 0.007872636 0.031278424 -0.21680759 0.32160363
-0.102304704 -0.056148205 0.08506886 -0.0025277406 -0.041618906 -0.11983331 0.38972497 -0.044629548
-0.16292568 -0.11373907 -0.06571245 -0.00012101776 -0.016510563 0.47305542 0.088611186 -0.108146355
-0.10736774 -0.024250666 0.06404088 0.21501085 0.003675652 -0.12967469 0.112417966 -0.06340436
0.021455305 -0.18986072 -0.18082827 0.07384622 0.08511956 0.10478152 -0.18174338 0.117578395
-0.18391551 0.05965371 0.19145435 -0.28244254 0.105428755 0.16525958 0.68246335 -0.06081093
-0.25128606 0.04411732 -0.21449427 0.019672055 0.17945878 0.10298347 0.08324953 -0.01214921
-0.6515986 -0.0076157893 -0.09485844 0.09531376 -0.050796237 -0.084943354 0.18151054 0.115958296
0.21624216 -0.154047 -0.3293296 -0.03465575 0.23777473 0.09338305 -0.36731192 0.15789767
-0.18946467 0.025917253 0.2153257 0.2578436 0.061949074 0.41050702 -0.015406303 0.30540392
-0.1811064 0.19300698 0.0966346 0.049028225 -0.020862032 -0.2682171 0.07381863 -0.02174071
0.033863347 0.13788065 -0.15978402 -0.5580538 -0.08041038 0.03751395 0.5129612 0.001043021
-0.10111114 -0.1962478 0.049492642 0.15614948 0.24084081 -0.078661025 0.06455467 -0.23488061
-0.19026929 0.12102915 0.121931195 -0.10672925 0.09218055 -0.7364011 -0.31790215 -0.09906779
-0.35439673 -0.26416296 -0.10123835 0.13991606 0.25673002 -0.73740697 0.0783996 -0.12955764
-0.1723686 -0.0032336356 -0.024824413 -0.26575735 -0.07374722 0.02396961 0.25582084 0.002268705
-0.06767858 -0.30725935 -0.17092746 0.055932082 0.22846887 0.050213702 -0.22552218 0.24156505
0.073721044 -0.0701411 0.02981843 0.14500643 0.05639064 -0.38593325 -0.4959749 0.16403513
0.18599851 0.31687805 0.15195183 -0.022814773 -0.21247612 -0.26611227 -0.09144954 0.15859704
-0.19366163 0.02692225 -0.105209984 0.4929904 0.087135665 0.12280816 0.0027657598 0.045855206
0.02318617 0.29393908 0.16425739 -0.03214782 -0.03958966 -0.14360198 0.25489578 -0.21390885
-0.034525335 -0.05905677 0.15632014 0.25169092 0.008524149 -0.9227173 -0.2909736 -0.065927416
0.022158686 -0.031042328 0.16707109 -0.012935516 -0.053890884 -0.035525575 -0.03714659 -0.010512078
-0.24239649 -0.08235821 -0.031163137 -0.11530828 0.122554526 0.055021092 0.04019084 -0.028764548
-0.11881197 -0.011344028 0.0965088 0.08474043 0.032675322 -0.051453654 0.02323616 -0.017617185

fc_decode.bias f4 [16]
00000000: 91b3 783f 0333 9cbd a5fd 83bd 4333 c13d
00000010: 0a7b 443e 99d6 b23e 296e dabe 14af 8fbf
00000020: 0e8e bb3e 2b94 55bf b9b3 623e 4095 89bf
00000030: 77b4 c03e 4efd 943e cd75 0cbf 22ef d83d
0.97148997 -0.07626917 -0.06444863 0.094336055 0.1918756 0.3492935 -0.4266217 -1.1225305
0.36631817 -0.8342921 0.22138871 -1.0748672 0.37637684 0.29099506 -0.5486725 0.10592486

deconv1.weight f4 [16, 12, 3, 3]
00000000: 9882 b8bd 84fd 2e3a 1424 163d 1fe1 cdba
00000010: 204c f9bd 7bf4 763c 4b9e 003e b885 cd3d
00000020: b3ac 053c 5c88 423e a8c1 51bd d3c2 30be
00000030: 02c4 673e 0a7a 4b3e c75c 63bc a5fe 3fbc
00000040: a4a5 01be 6584 8fbd 12da 30be 5d08 88bd
00000050: 86d1 cc3d c5ea 98bd e6d8 d5bd ef07 91bd
00000060: e2af 663e f767 0c3e a020 7d3d 8340 003e
00000070: f63f 62bd 38ed 263d a069 873d eda1 87bc
00000080: 5f7d 823d 8e8c 85bd 301d 63bc ae7b 28bd
00000090: e4d4 1a3e a094 7dbe 7cdf cbbc bb26 a63e
000000a0: 20be 163e 5da1 0c3c 16fb a73c 1873 27bd
000000b0: 9997 4d3d 1a7d 2f3e 8a38 70bb 9b60 1e3d
000000c0: ff1f ddbd 1ba5 18be 4d85 9ebd c8ab 413e
000000d0: 6261 163e d375 723c 92f4 4a3c 9bb4 3d3e
000000e0: f6f0 2dbe 6d0a f03d 1276 d73d ba32 4c3c
000000f0: 16bb 73bd fb9b fcbd d288 a43b ab71 97bd
00000100: 779c 14be 149e d7bc ddd5 253e 3534 72bd
00000110: b5da 4b3e 38e5 aabd 6bb6 b93d c02e 2f3d
00000120: 60d5 0b3e aeb6 983c eecd 0cbb 0d36 193e
00000130: de10 a5ba b97d a6bc e3fc 023c ea38 013d
00000140: 7491 0fbc 826c 9b3d a3d2 9b3c 4daa ad3d
00000150: 8c5c 753e 24fe 07be b615 403e 416e af3c
00000160: 03ce 973d 72c8 2f3e 389a 9fbe 7f1a 213e
00000170: 3cd3 2c3d fc15 24be 5dff bf3c 74dd 76bc
00000180: b447 81be 7899 7fbc 894b 293d 272a aabe
00000190: 7dfd 093d c3b5 a8bd 1729 ff3a a6ee 5dbd
000001a0: 1875 f43d 7cac 3d3e 53b9 c83d 5679 a33d
000001b0: a29f 8a3d 2d6b 833d 05a7 b3bd 7210 193e
000001c0: 8c7f 7bbe 140d 943a 04a2 a93d c772 bdbb
000001d0: 55b7 363d 8579 27bd 20be e13d 066d 423d
000001e0: 204c 30be 2b66 1d3d 2f89 1aba 4d45 82bc
000001f0: 9880 c2bd a337 cb3c f42d a03d 097b 4d3d
00000200: ad66 38be 803a 58bd 8337 dabd c0e2 acb9
00000210: 6346 8c3d e3a2 843c efd4 273d aa0e 8d3d
00000220: 7ab9 583d 49ba 0e3e 5b7f 813d a063 2cbe
00000230: cd4e 2f3d e6ac c1bd 025b b7bd 397e abbd
00000240: ba14 6abd 8cb7 9ebd 9ecb 033e cca1 a5bd
00000250: 528c 1bba f8f9 f13d b627 093d dfa2 a2bc
00000260: 6052 8b3d 0341 593c b29a 68bc ae9b fc39
00000270: 5fa7 9abb 335b 63be 283b 0f3d e337 013e
00000280: 2b69 02be 0fcd 0b3e d029 82bd 996b 17be
00000290: b66c b6bc a0fa ecbc 7bd5 8abe 7eab aabc
000002a0: 4fa8 d7bd 15c6 eb3c 0fe7 943d 195f b53d
000002b0: daf6 353d c670 c53d 0f1e 8f3d 7bcb 23bd
000002c0: 5485 3d3e f1a1 8bbd c14a 3dba 8dd5 bbbd
000002d0: 26cf 76bd e418 c73c b6ac b4bd 20b6 703d
000002e0: eaef b7be d6a9 833d 4447 a5bc 8e1a 9abc
000002f0: 02c0 1f3a 8b84 abbd fa14 34be 827b fdbd
00000300: 95b5 e2bc 3027 8abd 0ad5 403e 962a babc
00000310: a9b9 b53d 3177 ccbc 9eff b83d c92b d8bd
00000320: bdee a43c e95b dc3d 3088 963b 7906 13bc
00000330: e1f9 8a3c 81d7 833d 261b 863d 9003 ac3d
00000340: 8321 e33c f8f0 8cbd 2eae 2c3e 3d96 16bd
00000350: 4514 92bb e3e6 a9bd 92e2 753d 4453 1bbe
00000360: 000c 91bd af6b 443c 7dbc 85bc e6c0 92bd
00000370: dc70 303d 2e8b 253d ed74 ff3c f1b1 99bb
00000380: 5cb0 473d d852 263d e381 62bd 288d 083c
00000390: 5aca 213e 166c e0bc 81a2 40bd b3d1 cc3c
000003a0: 6aeb 32bd 8f4e d7bd 50a4 0ebd 26e5 14bd
000003b0: eb03 873c 4a0b 4cbd 5a42 173d 02de 9bbc
000003c0: 4d87 533d af9e 5a3d 52b7 bc3c af53 353d
000003d0: b783 473c ec11 c8bc 8660 ebbb 5340 e13d
000003e0: ed2f b2bd 1f67 a13c bfc7 013d a08b 46bd
000003f0: 7c8b 173e 6b9b 9d3d 880c 86bc 2ec1 003e
-0.09009284 0.000667535 0.0366555 -0.001570735 -0.12172723 0.015072937 0.12560384 0.100352705
0.0081588505 0.1899733 -0.051210076 -0.1726182 0.22633365 0.19870773 -0.0138771 -0.011718427
-0.12660843 -0.07007674 -0.17270687 -0.0664222 0.10000901 -0.07466654 -0.10441761 -0.07081591
0.22528031 0.13711534 0.06179869 0.1252461 -0.05523678 0.040753573 0.06611943 -0.016556704
0.06371569 -0.06520949 -0.013861939 -0.041133575 0.15120274 -0.24763727 -0.02488684 0.32451424
0.14720964 0.008583394 0.02050547 -0.040881246 0.050193403 0.17137566 -0.0036654794 0.03866635
-0.107971184 -0.14906733 -0.07740269 0.18913186 0.14685586 0.014798599 0.012387412 0.18525927
-0.1698645 0.117207386 0.10520567 0.012463266 -0.05950459 -0.123344384 0.005021193 -0.07394727
-0.14512812 -0.026320495 0.16194864 -0.05913182 0.19907649 -0.08344501 0.090679966 0.042769194
0.13655615 0.018641796 -0.0021485048 0.14962025 -0.0012593528 -0.020323621 0.007994863 0.031548418
-0.008762706 0.075890556 0.019021338 0.08479748 0.23961085 -0.1328054 0.18758282 0.021414878
0.074123405 0.17166308 -0.31172347 0.15732764 0.042193636 -0.16024011 0.023437196 -0.015067447
-0.25250018 -0.015600555 0.0413318 -0.33235285 0.03368901 -0.08237793 0.0019467202 -0.05418267
0.11936396 0.18522829 0.09800973 0.07982127 0.06768729 0.064169265 -0.08772091 0.1494768
-0.24560374 0.0011295401 0.08282855 -0.005781505 0.044608433 -0.040887374 0.110225916 0.047467254
-0.1721654 0.038427513 -0.0005895076 -0.015902186 -0.094971836 0.024806803 0.07821265 0.050166164
-0.18007918 -0.052790165 -0.10655119 -0.00032975338 0.06849363 0.016190952 0.040974554 0.068875626
0.05291126 0.1393825 0.06323119 -0.16834879 0.04279976 -0.09456806 -0.08952905 -0.083736844
-0.057148673 -0.077498525 0.12870643 -0.08087501 -0.000593369 0.11815256 0.033485137 -0.019853054
0.06802821 0.013260129 -0.0141970385 0.00048181176 -0.004719659 -0.22202758 0.034968525 0.12618975
-0.12735431 0.13652442 -0.06355631 -0.14787139 -0.022268634 -0.028928101 -0.27115998 -0.020833727
-0.10530149 0.028780976 0.072706334 0.08856029 0.04442487 0.096406505 0.06988155 -0.039988976
0.18507892 -0.06817997 -0.0007220917 -0.09171591 -0.060256146 0.024303861 -0.088220045 0.058767438
-0.35925227 0.06428878 -0.020175584 -0.01881149 0.000609398 -0.0837489 -0.17586127 -0.12377073
-0.027674476 -0.06745756 0.18831268 -0.022725385 0.088733025 -0.024959179 0.0903313 -0.10555226
0.02013337 0.10759718 0.0045938715 -0.008973711 0.016964855 0.064375885 0.06548147 0.08399117
0.02772594 -0.06881899 0.1686332 -0.036764372 -0.0044579827 -0.08295991 0.060030527 -0.15168482
-0.07082367 0.011988564 -0.01632523 -0.07165699 0.04307638 0.040415935 0.031183684 -0.0046904017
0.048752174 0.04060635 -0.05529965 0.0083344355 0.15799847 -0.02739529 -0.047029976 0.025002336
-0.04368154 -0.10513031 -0.03482467 -0.036351345 0.01648136 -0.049815454 0.036928512 -0.01902676
0.051642705 0.05337399 0.023036633 0.04426926 0.012177399 -0.024422608 -0.0071831373 0.10998597
-0.08700547 0.019702492 0.031684633 -0.048473 0.14799303 0.07695659 -0.016363397 0.12573692

deconv1.bias f4 [12]
00000000: a309 47be a4a3 e53d ef24 d2bc f406 a83d
00000010: 1304 cd3c 0cd5 62bb e057 ecbd ee8a 32be
00000020: e38b 0bbf fe84 8bbc 9ac3 a9bd 6bf3 6abd
-0.1943727 0.112128526 -0.025652377 0.08204451 0.025026357 -0.003461185 -0.11540198 -0.1743581
-0.54510325 -0.017031189 -0.08289261 -0.057361048
