saved_models_2D/dataset_acc/VAE_folds/CVAE2D_4_5_100_200_fold_6.pth (torch, 243348 bytes, 37 tensors)

conv1.weight f4 [16, 1, 3, 3]
0.6651766 -0.31651348 -0.59076357 0.008137287 -0.5504074 -0.05657593 -0.041657038 1.0723308
-0.011877664 -0.13948472 0.17371702 -0.5878794 0.4212808 0.4380078 -0.19246115 -0.93470615
-0.20574749 1.0909345 0.609771 -0.03679858 0.13493522 0.06872268 -0.29311216 0.6979506
-0.10791559 -0.031879578 0.2398425 0.10656803 0.06575244 0.41507012 0.06988699 0.38748318
-0.3435276 0.031248175 0.40349042 -0.20347571 0.24092533 -0.14409724 0.8796782 -0.08293279
-0.63690615 -0.20505919 -0.1504277 -0.47142527 0.13920699 -0.032277204 -0.48998863 0.70881796
-0.38823205 0.034701068 1.4551426 -0.5346894 -0.75082463 0.108094946 -0.4052083 0.04252224
0.67743444 0.059262604 -0.060066495 0.32361475 0.6846319 -0.8991459 -0.38762328 0.15201119
-0.13597651 0.4248014 -0.95180774 -0.06289174 -0.28956708 0.80480415 -0.64081657 -0.016959097
0.694064 0.3097607 -0.29531357 0.3274785 0.08273629 -0.36582875 0.09476148 0.021131936
-0.8254828 0.44817048 0.42089 0.47383127 -0.18171643 -0.06254878 0.13114041 -0.11249939
-0.16595578 0.5096997 -0.09585899 0.0015387146 0.04553885 0.40877306 -1.1261958 0.6241433
0.17837483 0.5386217 0.0036078803 -0.66380495 -0.37465897 -0.17618504 -0.29872414 -0.23124237
-0.5706886 0.19082947 0.49264827 0.35604954 -0.400838 0.42925385 0.33912623 0.40893734
-0.11012837 1.4763938 0.4542765 0.23414576 0.36144412 -0.31030762 0.22319576 0.09621236
0.7254029 -0.1048169 0.2055436 0.4954749 0.51793826 -0.12499135 -0.31738037 0.32903755
0.23100825 -0.021236274 -0.8107897 0.035550244 -0.60467374 0.043317106 0.19705369 0.086191624
0.93097085 -0.5860412 0.1605084 -0.041795608 0.179046 0.46540648 0.40807503 -0.9487703
00000000: 0349 2a3f 0e0e a2be 483c 17bf 4152 053c
00000010: 80e7 0cbf 2abc 67bd 92a0 2abd 2342 893f
00000020: 899a 42bc 15d5 0ebe e0e2 313e 447f 16bf
00000030: 1eb2 d73e 8f42 e03e 8914 45be e748 6fbf
00000040: 78af 52be bea3 8b3f f419 1c3f 1cba 16bd
00000050: 752c 0a3e 7abe 8c3d cc12 96be e4ac 323f
00000060: d902 ddbd 2994 02bd 4699 753e 5740 da3d
00000070: 37a9 863d 1284 d43e e920 8f3d 3264 c63e
00000080: d9e2 afbe 2cfc ff3c 4c96 ce3e f05b 50be
00000090: 21b5 763e 3a8e 13be 9732 613f abd8 a9bd
000000a0: 480c 23bf 09fb 51be b809 1abe a75e f1be
000000b0: 478c 0e3e 1a35 04bd cadf fabe 1875 353f
000000c0: 5ac6 c6be b522 0e3d 1d42 ba3f 68e1 08bf
000000d0: 0b36 40bf e260 dd3d 7677 cfbe cd2b 2e3d
000000e0: 586c 2d3f 58bd 723d 4908 76bd d5b0 a53e
000000f0: 0944 2f3f 6d2e 66bf 8f76 c6be d2a8 1b3e
00000100: 6d3d 0bbe 927f d93e aca9 73bf 62cd 80bd
00000110: 2342 94be a507 4e3f 8e0c 24bf ceed 8abc
00000120: 2eae 313f f498 9e3e 5733 97be 43ab a73e
00000130: a571 a93d e84d bbbe 4f12 c23d e21c ad3c
00000140: d752 53bf 9a76 e53e e57e d73e 039a f23e
00000150: df13 3abe 9319 80bd ac49 063e 1566 e6bd
00000160: 50f0 29be ae7b 023f b851 c4bd b2ae c93a
00000170: f286 3a3d b44a d13e 2f27 90bf dbc7 1f3f
00000180: e4a7 363e 1de3 093f 3072 6c3b 1fef 29bf
00000190: 4dd3 bfbe da69 34be 5ff2 98be cdca 6cbe
000001a0: a618 12bf cd68 433e 653c fc3e 204c b63e
000001b0: a33a cdbe 29c7 db3e f4a1 ad3e 3c60 d13e
000001c0: fc8a e1bd 79fa bc3f ee96 e83e e8c3 6f3e
000001d0: 340f b93e a4e0 9ebe 6e8d 643e fc0a c53d
000001e0: 01b4 393f 3eaa d6bd 057a 523e e3ae fd3e
000001f0: 9a97 043f 77fb ffbd ae7f a2be 9c77 a83e
00000200: 6d8d 6c3e b2f7 adbc ea8f 4fbf 229d 113d
00000210: e6cb 1abf 476d 313d 71c8 493e 3c85 b03d
00000220: 1b54 6e3f cc06 16bf 505c 243e df31 2bbd
00000230: d657 373e c249 ee3e 36ef d03e 9ce2 72bf

conv1.bias f4 [16]
0.08993241 0.014025239 0.0996084 0.033537116 0.100388676 -0.02827388 -0.05025395 -0.10593609
0.11222921 -0.09591406 0.035893556 -0.003981587 0.0573235 -0.10581452 -0.08173386 0.016147422
00000000: 7c2e b83d 1eca 653c 7dff cb3d 375e 093d
00000010: 9498 cd3d a09e e7bc 16d7 4dbd 05f5 d8bd
00000020: 6ed8 e53d 976e c4bd 1f05 133d f977 82bb
00000030: 0ccc 6a3d 48b5 d8bd 1564 a7bd 9947 843c

conv2.weight f4 [32, 16, 3, 3]
0.030805549 0.034665026 0.008536508 0.11654499 -0.12013793 0.10166072 -0.06992555 -0.060398836
0.02529133 0.071490176 0.09708821 -0.01103499 0.1451917 -0.044949226 0.050446752 0.02045426
-0.005264912 -0.1365808 0.029751122 0.09427788 -0.036786254 -0.07364687 0.18420905 0.1529808
0.051103204 0.026692184 -0.23319748 -0.06573252 -0.0042177676 0.08114504 0.2231214 -0.11878767
-0.05758933 0.08424691 -0.16574465 0.06794088 -0.011227146 -0.14073099 -0.012921656 -0.15332228
-0.019193776 -0.008333975 -0.018405328 -0.08003829 -0.088022314 0.030680012 0.1013681 0.24520881
-0.08498182 0.0009797165 0.0593149 0.1937127 -0.10400225 0.22503783 -0.075855225 -0.28944805
-0.2982468 0.16178145 0.10750577 -0.07105384 0.072270565 0.16112296 -0.00061057956 0.02907491
0.0076410784 -0.120317414 -0.15161788 -0.12701541 -0.22759159 0.043929808 -0.032233436 0.0049153217
0.06465226 0.15475278 -0.013664907 0.099450104 0.36401844 -0.22852595 0.3234049 0.21257134
0.06276231 0.1683353 0.25967443 -0.19493929 0.051911365 -0.05583471 -0.026263634 -0.017252164
0.15467836 -0.119149745 -0.059710957 0.0862233 0.1305503 0.04898819 0.11813345 -0.080879316
0.08025416 0.16815713 -0.11942278 0.11848997 -0.06952837 -0.14670159 0.05223934 -0.41106653
-0.07627863 -0.17132448 0.108808205 0.012434271 -0.23532264 0.032463856 -0.015270777 -0.09686564
0.03801849 -0.03826718 -0.07312466 -0.033624943 0.10246171 0.11190328 0.12294166 0.03935661
-0.022926921 -0.13590965 0.092653446 -0.055508364 0.15700006 -0.23850754 0.08605571 0.029603366
-0.15349765 -0.03556027 -0.13653126 0.036883663 -0.06599553 0.006521458 -0.25948843 0.13499925
0.16743965 0.015855765 0.05552062 -0.06624518 -0.083481215 -0.019682685 0.018263517 -0.05479922
0.089615256 0.034437396 -0.05039994 -0.2234196 0.20969415 0.0638288 -0.16235545 0.19985755
0.053572204 0.073945776 0.06786617 0.05243361 -0.020316945 0.019233229 -0.060658105 -0.31036758
0.050693862 0.030114304 0.10213978 0.123284146 0.105811104 0.11850707 -0.07523198 0.036596112
-0.1735755 0.04524376 -0.23675436 0.18479325 -0.14085592 0.14854695 -0.06041913 -0.028549556
0.08841072 -0.031641696 0.07299382 -0.019582704 0.04770695 -0.20318301 0.18329678 0.055140894
0.059096295 0.13050066 0.122738495 -0.015962461 0.052308135 0.046908647 0.060497276 0.029737849
-0.026362386 0.16207106 -0.011952686 -0.35501215 0.11360318 -0.017107552 0.033357833 0.11364777
0.0071393005 -0.0083361175 0.20650396 -0.014965836 -0.07721014 -0.09389791 -0.16681728 -0.17698124
0.119230784 0.109440826 0.0671663 0.10252516 0.05913051 0.033235714 -0.042657655 -0.06013328
0.033304952 -0.15671644 0.15806626 0.24775505 0.12400797 0.10407665 0.21779959 -0.033089597
-0.09149287 0.007329132 0.026688183 0.22367871 0.054705553 0.07646475 0.2030031 0.10139051
0.08993494 0.008049251 0.050995626 0.028832918 0.020795891 0.044697646 -0.038690057 0.071921885
0.12875997 -0.056433395 0.0009158906 -0.0022241268 0.11657779 0.06622208 0.1474328 0.0055645043
0.054468744 -0.020076461 0.05194557 -0.019122098 -0.08157095 0.0031863293 -0.06387364 0.12234915
00000000: eb5b fc3c eafc 0d3d b6dc 0b3c 24af ee3d
00000010: e00a f6bd 7f33 d03d 2035 8fbd c564 77bd
00000020: c32f cf3c 7169 923d 2fd6 c63d 1acc 34bc
00000030: 22ad 143e ae1c 38bd 41a1 4e3d b18f a73c
00000040: 4885 acbb d6db 0bbe a0b8 f33c c314 c13d
00000050: 2fad 16bd 2cd4 96bd 4ca1 3c3e 00a7 1c3e
00000060: 9851 513d 91a9 da3c 52cb 6ebe c59e 86bd
00000070: 3335 8abb 5f2f a63d f079 643e f346 f3bd
00000080: cae2 6bbd a589 ac3d f7b8 29be 9724 8b3d
00000090: 10f2 37bc c91b 10be 5ab5 53bc 8400 1dbe
000000a0: 443c 9dbc 3a8b 08bc c5c6 96bc 1deb a3bd
000000b0: 0b45 b4bd a654 fb3c 149a cf3d 0518 7b3e
000000c0: f30a aebd d569 803a 2ef4 723d 9f5c 463e
000000d0: 22ff d4bd 5170 663e fc59 9bbd 8932 94be
000000e0: ceb3 98be 09aa 253e fc2b dc3d ad84 91bd
000000f0: 9702 943d 6bfd 243e 4d0f 20ba 812e ee3c
00000100: 0362 fa3b fa68 f6bd b841 1bbe 5410 02be
00000110: c50d 69be beef 333d 3507 04bd b510 a13b
00000120: 6768 843d 8377 1e3e c6e2 5fbc 7fac cb3d
00000130: a060 ba3e b502 6abe 5495 a53e 4dac 593e
00000140: 8789 803d 1760 2c3e 0cf4 843e 2a9e 47be
00000150: 03a1 543d f0b2 64bd d526 d7bc 6954 8dbc
00000160: 0164 1e3e c804 f4bd 7a93 74bd d795 b03d
00000170: faae 053e d7a7 483d f3ef f13d 0ea4 a5bd
00000180: 4b5c a43d 6231 2c3e ee93 f4bd dfaa f23d
00000190: e464 8ebd f138 16be ebf8 553d 5077 d2be
000001a0: f837 9cbd af6f 2fbe d6d6 de3d 1db9 4b3c
000001b0: 6bf8 70be d2f8 043d 4832 7abc 7e61 c6bd
000001c0: 47b9 1b3d 0cbe 1cbd 62c2 95bd 4fba 09bd
000001d0: 72d7 d13d 8c2d e53d d6c8 fb3d 6634 213d
000001e0: 3dd1 bbbc e62b 0bbe 17c1 bd3d bd5c 63bd
000001f0: a0c4 203e 523b 74be fa3d b03d c282 f23c
00000200: 7d2e 1dbe a5a7 11bd dace 0bbe 5313 173d
00000210: aa28 87bd f4b1 d53b abdb 84be 3e3d 0a3e
00000220: 4d75 2b3e f3e3 813c 9769 633d 8eab 87bd
00000230: 33f8 aabd 953d a1bc 5f9d 953c 2675 60bd
00000240: 3488 b73d 3a0e 0d3d 2b70 4ebd 1cc8 64be
00000250: 10ba 563e adb8 823d 8240 26be 75a7 4c3e
00000260: 876e 5b3d e270 973d 6bfd 8a3d a0c4 563d
00000270: b96f a6bc 018f 9d3c a274 78bd 80e8 9ebe
00000280: 5ea4 4f3d 46b2 f63c a92e d13d 667c fc3d
00000290: 7eb3 d83d d6b3 f23d 3913 9abd cee5 153d
000002a0: c7bd 31be 8551 393d bc6f 72be 713a 3d3e
000002b0: 893c 10be b11c 183e 0d7a 77bd c2e0 e9bc
000002c0: ae10 b53d b99a 01bd c97d 953d e86b a0bc
000002d0: 5d68 433d 350f 50be 27b2 3b3e 6bdb 613d
000002e0: f50e 723d f7a1 053e 525e fb3d b5c3 82bc
000002f0: 0e41 563d 4823 403d fecb 773d ca9c f33c
00000300: eef5 d7bc f5f5 253e 33d5 43bc 27c4 b5be
00000310: c9a8 e83d 2325 8cbc 39a2 083d 29c0 e83d
00000320: cbf0 e93b 3694 08bc c675 533e 4433 75bc
00000330: 5a20 9ebd 8c4d c0bd 26d2 2abe 923a 35be
00000340: 452f f43d 8322 e03d 7c8e 893d b6f8 d13d
00000350: d532 723d 2c22 083d cbb9 2ebd 504e 76bd
00000360: c66a 083d 467a 20be 1fdc 213e 80b3 7d3e
00000370: e4f7 fd3d 2426 d53d db06 5f3e f588 07bd
00000380: 9d60 bbbd 3729 f03b 2da1 da3c 080c 653e
00000390: ee12 603d 8d99 9c3d 0be0 4f3e d4a5 cf3d
000003a0: cf2f b83d 01e1 033c cae0 503d 0333 ec3c
000003b0: 255c aa3c e114 373d 7779 1ebd c84b 933d
000003c0: a7d9 033e b426 67bd 6118 703a a8c2 11bb
000003d0: 56c0 ee3d 719f 873d a0f8 163e 7256 b63b
000003e0: 9e1a 5f3d 6477 a4bc e1c4 543d f2a5 9cbc
000003f0: ac0e a7bd bcd1 503b 2fd0 82bd 3192 fa3d

conv2.bias f4 [32]
0.005721053 0.0043312064 0.013206487 0.0042969882 0.047201622 0.039594434 -0.05886559 -0.0041349586
-0.089778714 -0.035123892 0.105160765 -0.011562048 0.16174966 0.053048566 -0.0067131347 0.050517105
-0.019523077 -0.012875473 -0.07685726 -0.0414028 0.0030498318 0.07267456 0.03217915 -0.0477294
0.016116632 0.1527156 -0.116412565 0.08304113 0.09671338 -0.15921426 0.02669625 0.08747389
00000000: ac77 bb3b cbec 8d3b 0560 583c c0cd 8c3b
00000010: 7d56 413d c62d 223d 0b1d 71bd 8c7e 87bb
00000020: e7dd b7bd 12de 0fbd 875e d73d bf6e 3dbc
00000030: b4a1 253e 7449 593d dbf9 dbbb 06eb 4e3d
00000040: dcee 9fbc a6f3 52bc 5767 9dbd fb95 29bd
00000050: b0df 473b 66d6 943d 49ce 033d e77f 43bd
00000060: 0707 843c 7a61 1c3e b669 eebd 7811 aa3d
00000070: aa11 c63d 1009 23be 18b2 da3c 8325 b33d

conv3.weight f4 [32, 32, 3, 3]
-0.061697144 0.07416927 0.06522523 -0.016946921 -0.08620057 0.179103 0.018496752 0.06677442
-0.015882926 0.10867424 0.022820648 0.09083147 0.07246829 0.077026255 -0.054427944 0.09942474
-0.016872175 0.08921346 -0.030097637 -0.07483651 -0.039780606 -0.024718147 0.0517103 -0.07354708
-0.12809359 -0.06085965 -0.06390673 0.035499252 0.028662834 0.07206936 0.037603125 -0.1318236
0.091850676 0.038681876 -0.039339855 0.079618946 -0.11561348 0.18248068 -0.037179757 0.10711511
0.05825129 -0.12706366 -0.077990085 0.03844139 -0.009495772 -0.032567322 0.111081615 0.037405483
0.011270831 0.10722975 0.19372463 0.032972097 0.026225168 0.14098634 0.07805816 0.06721029
0.16985075 0.037014652 0.12432781 0.1766692 0.046411265 -0.05217169 -0.045232948 0.13441226
0.12323335 0.02492832 0.057745848 0.01708337 0.09341714 -0.10962294 0.16666113 0.102607004
-0.13802557 -0.029310413 0.088070065 0.1515055 -0.054360766 0.24160622 0.10233523 -0.014844433
-0.048501875 -0.15544537 0.047258366 0.06548751 0.0041841716 0.019800216 0.04422117 -0.00445212
-0.07201005 -0.014341277 0.06817718 -0.13345228 -0.07218035 0.067196146 -0.17448486 -0.04062066
0.112164155 -0.11736671 -0.12847868 0.07695785 -0.019599246 -0.011132139 0.08693128 -0.04081203
0.10468911 0.04100997 0.062029045 0.0088570975 0.12104449 -0.11371215 -0.036178887 -0.062007148
-0.17188041 0.06463324 0.044922628 -0.20380223 0.029048285 0.11424011 0.015578278 0.046794984
0.03239065 -0.02055185 -0.0078072664 -0.15344492 0.0036718415 -0.16784051 -0.16537744 -0.09566487
-0.11639248 0.07333568 0.0130760055 -0.25957537 -0.14238897 0.06004938 0.03417706 -0.10418642
0.024777208 -0.0034272873 0.13417427 0.021771587 0.030846661 0.11046359 0.016748482 -0.04861118
-0.11934902 0.053747065 0.21714781 -0.02045603 0.13765648 0.042618882 0.10972324 -0.04127379
-0.06891854 -0.004753593 -0.15613772 -0.0013364257 -0.10941674 -0.063096225 -0.1787738 -0.11131998
0.0232277 0.008389966 0.11394606 0.044396646 0.13944548 0.01276093 0.017459687 -0.0009852829
0.041042577 0.05144789 0.16336074 0.05965927 -0.11679584 0.12506343 -0.117019795 -0.07039094
0.02497928 0.013574014 0.07577696 -0.021348814 0.07137998 0.07044818 0.10792487 0.032351308
-0.07398695 0.14938495 -0.21481955 0.117167346 0.11767676 -0.07195085 0.12015354 0.15466204
-0.05545446 -0.038855396 0.12566602 -0.04666441 0.03310186 0.0039703804 0.0036097302 -0.08670387
0.09623666 -0.009773639 0.04962576 0.16752274 0.0844651 -0.012567575 0.025348026 -0.014097143
-0.16192916 -0.19019987 -0.05635639 0.18188499 -0.04148189 -0.03281885 0.11315418 -0.097630486
0.06051238 -0.010193736 0.09612475 0.19176412 -0.032349985 -0.17514944 0.15482199 0.11094441
-0.12999763 0.053387523 -0.066770464 -0.046892185 -0.03741703 -0.11240316 -0.049276926 0.0070464574
-0.13934776 -0.23419215 0.052945938 0.013935951 0.1198504 0.012095414 -0.025160365 0.120000765
-0.028895801 0.07349554 0.09335172 0.13490699 0.11580709 -0.016674392 -0.1852928 -0.12316328
-0.101952866 0.055301327 0.10260698 -0.059833758 0.096017025 0.037515514 -0.04119934 0.09614169
00000000: 25b6 7cbd 0fe6 973d ce94 853d 45d4 8abc
00000010: ed89 b0bd c766 373e 8086 973c 07c1 883d
00000020: e91c 82bc 9a90 de3d 5ef2 ba3c da05 ba3d
00000030: 416a 943d f1bf 9d3d d6ef 5ebd 339f cb3d
00000040: 8437 8abc 8cb5 b63d 528f f6bc e243 99bd
00000050: fdf0 22bd b67d cabc 2ece 533d da9f 96bd
00000060: f72a 03be f847 79bd 88e1 82bd aa67 113d
00000070: 52ce ea3c 1a99 933d bc05 1a3d c4fc 06be
00000080: 351c bc3d e370 1e3d d422 21bd 420f a33d
00000090: c3c6 ecbd 37dc 3a3e cd49 18bd 2b5f db3d
000000a0: e898 6e3d fa1c 02be 44b9 9fbd b874 1d3d
000000b0: 2894 1bbc 5065 05bd c27e e33d 7e36 193d
000000c0: 4ba9 383c 459b db3d c05f 463e c00d 073d
000000d0: 2ad6 d63c b95e 103e f5dc 9f3d 8ca5 893d
000000e0: 5bed 2d3e ad9c 173d 949f fe3d c5e8 343e
000000f0: bd19 3e3d fbb1 55bd 2f46 39bd 5ea3 093e
00000100: c461 fc3d 7a36 cc3c e986 6c3d 6cf2 8b3c
00000110: 7c51 bf3d fe81 e0bd 37a9 2a3e 9f23 d23d
00000120: 9356 0dbe 641c f0bc 145e b43d 4224 1b3e
00000130: 65a9 5ebd 9f67 773e 2295 d13d 1136 73bc
00000140: e7a9 46bd 122d 1fbe fd91 413d 511e 863d
00000150: 601b 893b 1034 a23c 4221 353d 17e3 91bb
00000160: 017a 93bd adf7 6abc 7aa0 8b3d b7a7 08be
00000170: 4bd3 93bd 229e 893d 29ac 32be d961 26bd
00000180: 52b6 e53d f55d f0bd ea8f 03be 149c 9d3d
00000190: 998e a0bc 9363 36bc 0709 b23d 842a 27bd
000001a0: 3e67 d63d 12fa 273d 2b12 7e3d 5c1d 113c
000001b0: 2ce6 f73d eae1 e8bd 5030 14bd 35fb 7dbd
000001c0: 6b01 30be 6f5e 843d ca00 383d 88b1 50be
000001d0: abf6 ed3c b8f6 e93d 093c 7f3c 19ac 3f3d
000001e0: 0fac 043d 5a5c a8bc 19d4 ffbb aa20 1dbe
000001f0: 47a3 703b 62de 2bbe b458 29be f2eb c3bd
00000200: 2e5f eebd 0431 963d be3c 563c 10e7 84be
00000210: 6ace 11be 57f6 753d 3ffd 0b3d b15f d5bd
00000220: 92f9 ca3c 579c 60bb fb64 093e 545a b23c
00000230: 23b2 fc3c bc3a e23d 1d34 893c 841c 47bd
00000240: 426d f4bd e225 5c3d ff5b 5e3e 6793 a7bc
00000250: d2f5 0c3e 2391 2e3d 94b6 e03d b50e 29bd
00000260: 2a25 8dbd 07c4 9bbb 91e2 1fbe 012b afba
00000270: e215 e0bd 9838 81bd 7b10 37be bbfb e3bd
00000280: 0448 be3c 1176 093c 8d5c e93d 42d9 353d
00000290: ccca 0e3e 3813 513c 9e07 8f3c 9c24 81ba
000002a0: 431c 283d 06bb 523d 0a48 273e 475d 743d
000002b0: a832 efbd a110 003e 13a8 efbd 2029 90bd
000002c0: 59a1 cc3c 8b65 5e3c f330 9b3d b5e3 aebc
000002d0: ab2f 923d 2347 903d b707 dd3d ce82 043d
000002e0: 7886 97bd 5ef8 183e a8f9 5bbe 6ff5 ef3d
000002f0: 8300 f13d f85a 93bd 0f13 f63d ba5f 1e3e
00000300: 3724 63bd d626 1fbd 98ae 003e 2e23 3fbd
00000310: d195 073d f719 823b 3991 6c3b cc91 b1bd
00000320: ba17 c53d 9d21 20bc 6244 4b3d 158b 2b3e
00000330: 0afc ac3d 3be8 4dbc aaa6 cf3c b4f7 66bc
00000340: c2d0 25be c1c3 42be f5d5 66bd 0f40 3a3e
00000350: eae8 29bd 0f6d 06bd 61bd e73d 7ef2 c7bd
00000360: d4db 773d a103 27bc 0edd c43d d05d 443e
00000370: 6b81 04bd 605a 33be a889 1e3e d336 e33d
00000380: 191e 05be e0ac 5a3d f4be 88bd 0512 40bd
00000390: 9a42 19bd a133 e6bd 9ad6 49bd f8e5 e63b
000003a0: 2eb1 0ebe 11d0 6fbe d7dd 583d 9d53 643c
000003b0: 2074 f53d d82b 463c 1c1d cebc f6c2 f53d
000003c0: e3b6 ecbc d484 963d 302f bf3d 0f25 0a3e
000003d0: 452c ed3d bc98 88bc 65bd 3dbe 083d fcbd
000003e0: aacc d0bd a583 623d 9c23 d23d 3e14 75bd
000003f0: 93a4 c43d dea9 193d a4c0 28bd efe5 c43d

conv3.bias f4 [32]
0.054947756 0.12271996 -0.0020405767 -0.03825283 0.016989822 -0.011851511 0.011802466 -0.039159928
0.017739378 0.12735018 -0.08354487 0.0075944997 -0.06385067 0.051636335 0.09803194 0.010088219
-0.004864586 0.06290671 0.12883167 -0.10644528 0.026847187 0.0007450399 -0.071195744 0.034821723
-0.08659894 0.104155906 -0.21514481 0.018465469 -0.15412475 -0.013612478 -0.020984692 0.13121828
00000000: e610 613d 9a54 fb3d 32bb 05bb 00af 1cbd
00000010: 3d2e 8b3c d72c 42bc 215f 413c 2966 20bd
00000020: 2c52 913c 1668 023e 9319 abbd 48db f83b
00000030: 24c4 82bd 9f80 533d f8c4 c83d 0f49 253c
00000040: 1b67 9fbb 3cd5 803d 73ec 033e fcff d9bd
00000050: a2ee db3c c84e 433a 13cf 91bd 39a1 0e3d
00000060: c95a b1bd b14f d53d ec4e 5cbe e544 973c
00000070: e1d2 1dbe df06 5fbc 17e8 abbc 165e 063e

bn1.weight f4 [16]
0.94569665 0.8556488 1.0111469 0.97558516 1.0024222 1.075597 0.9726813 0.9543818
1.1689397 1.0087767 0.9446377 0.96296966 1.0101887 1.0161226 0.9920249 0.9881495
00000000: 2d19 723f cd0b 5b3f 436d 813f f3bf 793f
00000010: 5f4f 803f 2aad 893f a401 793f 5e52 743f
00000020: d19f 953f 981f 813f c7d3 713f 2e85 763f
00000030: dd4d 813f 4e10 823f 58f5 7d3f 5ef7 7c3f

bn1.bias f4 [16]
0.001762534 -0.02600474 -0.021553406 -0.09858493 -0.019443307 -0.006073647 0.010531645 -0.05900162
-0.0075892224 -0.06304678 0.07266999 -0.056593817 -0.069766015 -0.017635453 -0.05207688 -0.02761041
00000000: d404 e73a e407 d5bc c590 b0bc e5e6 c9bd
00000010: 9247 9fbc 7205 c7bb ec8c 2c3c afab 71bd
00000020: 03af f8bb ac1e 81bd 01d4 943d ebce 67bd
00000030: 7ce1 8ebd 3a78 90bc 914e 55bd 3a2f e2bc

bn1.running_mean f4 [16]
0.11883872 0.024977328 0.30459374 0.18410058 0.030385073 -0.011327473 -0.045267366 -0.22206986
0.11870185 0.1390862 0.12817141 -0.2094767 0.5703345 0.17113042 -0.22956644 0.12181776
00000000: b761 f33d 419d cc3c b6f3 9b3e dd84 3c3e
00000010: 1eea f83c de96 39bc 466a 39bd 4866 63be
00000020: f519 f33d 9d6c 0e3e 5e3f 033e 0f81 56be
00000030: 7101 123f d03c 2f3e 7713 6bbe 977b f93d

bn1.running_var f4 [16]
0.039228864 0.024527172 0.17400965 0.09902587 0.056539852 0.12948444 0.019441675 0.07224457
0.08509421 0.2375808 0.039051764 0.22289816 1.1205778 0.33281904 0.11775146 0.09848024
00000000: 72ae 203d 35ed c83c 962f 323e 13ce ca3d
00000010: 5596 673d 9297 043e 2644 9f3c f6f4 933d
00000020: e045 ae3d 6248 733e bef4 1f3d 6a3f 643e
00000030: 186f 8f3f 4267 aa3e ad27 f13d 02b0 c93d

bn2.weight f4 [32]
0.99305683 0.99673724 0.93729496 0.9748557 0.9727566 0.99929535 1.0098343 1.07653
1.0642171 1.0524721 0.95814914 1.0108974 0.89930755 0.9011067 0.948419 1.0372982
1.1388947 0.9779022 1.0440581 0.82756567 1.0513628 0.9782342 1.0280361 0.93680024
0.9416691 0.9041065 0.9611389 0.9517123 0.89308685 1.037459 0.98828566 0.9736285
00000000: f938 7e3f 2c2a 7f3f 90f2 6f3f 2590 793f
00000010: 9406 793f d2d1 7f3f 4042 813f bccb 893f
00000020: 4438 883f 68b7 863f 4349 753f 1665 813f
00000030: 0539 663f eeae 663f 96cb 723f 30c6 843f
00000040: 4dc7 913f cc57 7a3f b2a3 853f 58db 533f
00000050: 0e93 863f 8e6d 7a3f b096 833f 24d2 6f3f
00000060: 3a11 713f 8673 673f 330d 763f 6ba3 733f
00000070: 57a1 643f 75cb 843f 4a00 7d3f b83f 793f

bn2.bias f4 [32]
0.0037253872 -0.03107192 -0.025507629 -0.025499515 0.007759849 -0.0343466 0.0013010927 -0.011884444
-0.023098608 -0.047372125 -0.0343052 0.012337184 -0.063484505 -0.025078023 -0.06808627 -0.039011396
0.021214245 -0.025721382 -0.016211752 -0.038958903 -0.049307976 -0.015577695 0.029349769 -0.031175949
-0.05204361 -0.07478518 0.011159553 -0.04253544 -0.091228105 0.0060896585 0.0016040232 -0.066276856
00000000: a025 743b 8a8a febc 60f5 d0bc 5ce4 d0bc
00000010: 5546 fe3b 05af 0cbd 6d89 aa3a f9b6 42bc
00000020: 4b39 bdbc 4609 42bd 9c83 0cbd e621 4a3c
00000030: 2a04 82bd 6d70 cdbc d070 8bbd 6aca 1fbd
00000040: 7fc9 ad3c a6b5 d2bc 82ce 84bc 5f93 1fbd
00000050: 29f7 49bd 9739 7fbc ed6e f03c b464 ffbc
00000060: ae2b 55bd f928 99bd 8fd6 363c a439 2ebd
00000070: cdd5 babd c28b c73b 163e d23a 29bc 87bd

bn2.running_mean f4 [32]
-0.009357449 0.825191 -0.96210575 1.2855347 -0.009298779 0.36726704 0.65984213 0.67091006
0.43861887 0.032375585 -0.24447237 0.7747728 -0.35962448 -0.5334396 -1.3472483 0.26700208
0.13058242 -0.22592671 0.41975838 -0.0021548034 0.1752097 0.672666 0.61832887 0.40917435
-0.5501389 -0.4195637 0.12276039 -0.70022535 -0.6143571 0.3778853 -0.0647071 1.0503069
00000000: fc4f 19bc b83f 533f 904c 76bf 678c a43f
00000010: e859 18bc 6d0a bc3e 6aeb 283f c3c0 2b3f
00000020: a792 e03e 439c 043d f756 7abe 8357 463f
00000030: b320 b8be 7f8f 08bf a272 acbf 7fb4 883e
00000040: 66b7 053e 5559 67be 92ea d63e 9a37 0dbb
00000050: 2c6a 333e d733 2c3f cd4a 1e3f 4d7f d13e
00000060: e7d5 0cbf 0ed1 d6be cd69 fb3d f841 33bf
00000070: 8246 1dbf 2f7a c13e 2885 84bd 7570 863f

bn2.running_var f4 [32]
2.0602508 1.6917198 2.2693243 6.884752 2.3898602 1.8750246 2.74889 2.6996684
1.6796969 2.5493553 3.0902958 2.0978053 2.677761 1.8821063 7.0112705 2.304164
2.2383485 1.5650814 5.629901 1.7250507 4.3342714 4.348244 2.4853876 0.97951835
2.3655026 2.3611815 5.1024795 2.103075 2.5248382 3.2190068 2.2779973 3.9373593
00000000: 26db 0340 468a d83f 9c3c 1140 e34f dc40
00000010: 78f3 1840 ce00 f03f d0ed 2f40 5ec7 2c40
00000020: 4f00 d73f a328 2340 68c7 4540 7142 0640
00000030: 7060 2b40 dce8 f03f 545c e040 6c77 1340
00000040: 1a41 0f40 9654 c83f 2628 b440 76ce dc3f
00000050: 5ab2 8a40 d124 8b40 9710 1f40 b7c1 7a3f
00000060: 6564 1740 991d 1740 8347 a340 c898 0640
00000070: f396 2140 3504 4e40 b5ca 1140 b2fd 7b40

bn3.weight f4 [32]
0.73877615 0.69018936 0.7777455 0.6764044 0.834074 0.6752293 0.76928073 0.6259506
0.70022887 0.8427801 0.67253125 0.68309265 0.7687478 0.64620245 0.8117977 0.6522662
0.7081795 0.48301595 0.73951906 0.72555506 0.7972414 0.4369828 0.68340296 0.71411866
0.7720374 0.66614026 0.82766 0.79903305 0.7878553 0.75508994 0.73960865 0.7918826
00000000: 6f20 3d3f 40b0 303f 541a 473f d728 2d3f
00000010: e085 553f d4db 2c3f 95ef 443f 4c3e 203f
00000020: 3342 333f 70c0 573f 022b 2c3f 29df 2e3f
00000030: a8cc 443f 866d 253f f9d1 4f3f ebfa 263f
00000040: 404b 353f de4d f73e 1f51 3d3f fabd 393f
00000050: 0318 4c3f 36bc df3e 7ff3 2e3f 7bd0 363f
00000060: 3ea4 453f 2b88 2a3f 87e1 533f 6e8d 4c3f
00000070: e3b0 493f 934d 413f fe56 3d3f d1b8 4a3f

bn3.bias f4 [32]
-0.1658383 -0.28371176 -0.09542988 -0.2717346 -0.15358527 -0.25923002 -0.20945871 -0.22816491
-0.22956873 -0.11827012 -0.26134545 -0.1865962 -0.21772309 -0.27262276 -0.20042309 -0.21838644
-0.24487656 -0.28510377 -0.17718233 -0.24848652 -0.17556047 -0.15933906 -0.21452351 -0.23658025
-0.2199583 -0.2527579 -0.17319827 -0.19637889 -0.16633445 -0.2253796 -0.2280793 -0.2218882
00000000: 84d1 29be ab42 91be be70 c3bd cc20 8bbe
00000010: 7545 1dbe ccb9 84be 587c 56be 10a4 69be
00000020: 1114 6bbe 9b37 f2bd 12cf 85be 1313 3fbe
00000030: cdf2 5ebe 3695 8bbe b63b 4dbe b2a0 5fbe
00000040: ecc0 7abe 1ff9 91be 496f 35be 4073 7ebe
00000050: 20c6 33be c729 23be 0dac 5bbe 1842 72be
00000060: c03c 61be 7c69 81be e35a 31be 8c17 49be
00000070: 9453 2abe e9c9 66be 9f8d 69be a936 63be

bn3.running_mean f4 [32]
1.3566678 -2.2447865 -0.48157227 -1.0341039 -1.1286592 -0.9423644 -1.1649338 -0.96585774
-1.085565 -0.42494616 -0.8604764 -0.41710728 -1.0242836 -0.53525144 -1.1114087 -1.1261739
-0.5783089 0.87158734 -0.8236025 -1.0011693 -1.3148044 1.4967088 -0.8576806 -2.1500971
-1.3859195 -0.33695966 -0.93316597 -1.7473586 1.3548738 -1.6418647 -1.883197 -1.6217642
00000000: 4aa7 ad3f 95aa 0fc0 a490 f6be 845d 84bf
00000010: e877 90bf cb3e 71bf 8d1c 95bf 7442 77bf
00000020: cbf3 8abf 8b92 d9be 2e48 5cbf 168f d5be
00000030: ba1b 83bf 3d06 09bf a442 8ebf 7726 90bf
00000040: 0d0c 14bf 5920 5f3f 9dd7 52bf 5126 80bf
00000050: 834b a8bf 2794 bf3f f590 5bbf 319b 09c0
00000060: cf65 b1bf fa85 acbe f7e3 6ebf 72a9 dfbf
00000070: 816c ad3f 9f28 d2bf 990c f1bf f895 cfbf

bn3.running_var f4 [32]
15.110679 23.824368 7.669895 6.911664 10.014528 5.2142954 11.802196 4.108004
9.375844 9.734791 10.431236 3.8335502 15.056251 3.5993617 15.464369 17.427357
7.435741 9.1034975 11.94125 17.929565 8.947623 8.555566 5.441023 21.817759
10.735804 2.4923425 9.760715 18.3763 16.081945 21.71772 17.40994 16.192423
00000000: 57c5 7141 4e98 be41 c86f f540 5a2c dd40
00000010: 823b 2041 82db a640 cbd5 3c41 c574 8340
00000020: 7503 1641 b4c1 1b41 58e6 2641 e358 7540
00000030: 67e6 7041 f15b 6640 0e6e 7741 3a6b 8b41
00000040: 97f1 ed40 eda7 1141 5c0f 3f41 c06f 8f41
00000050: 7729 0f41 99e3 0841 dc1c ae40 c58a ae41
00000060: dac5 2b41 8a82 1f40 e32b 1c41 aa02 9341
00000070: d3a7 8041 e4bd ad41 8f47 8b41 158a 8141

fc10.weight f4 [4, 2048]
-0.006711 0.06553001 -0.011637046 0.014401174 -0.0137239145 -0.038628854 0.007907597 -0.0008345802
0.02833694 0.03840227 0.02211243 0.017961226 0.0020766116 -0.02371339 -0.009232523 -0.059612337
0.0010050455 -0.00028290646 -0.027704827 -0.010626126 -0.0019666597 -0.00013285017 -0.00974159 0.021585004
-0.017453287 -0.0015224662 0.006047223 -0.0067871804 0.025202043 0.027872192 -0.012436984 0.03706744
-0.015980454 0.022843404 0.012313254 0.025303079 -0.004403415 -0.021846272 0.024232678 0.035970043
-0.03495128 0.07642427 -0.009842458 -0.039465345 0.023673885 -0.026954947 0.07757652 -0.14905898
-0.0032981508 -0.2197212 0.052265685 -0.016564233 -0.004562188 -0.016002566 -0.03959194 0.74164623
-0.042412344 0.018131522 0.018523108 0.0034034674 -0.014593846 -0.018227464 -0.0013544748 -0.97469825
-0.0044858255 -0.028418902 0.0059946473 0.04961413 -0.03446925 0.03365104 -0.06625854 -0.03333019
-0.0052026105 -0.01921398 0.03088393 0.00029227062 0.08973126 -0.039403606 -0.06173752 0.077500336
0.012596097 -0.0033232227 -0.007212362 -0.012166682 0.0037183014 0.048682474 -0.01927387 0.0034150567
0.009396887 0.0056718616 0.047225427 0.14135773 -0.021490473 -0.2528927 0.05431184 0.032110687
8.6034415e-05 -0.006031351 0.043485124 -0.009585565 -0.011072616 -0.081718706 -0.0009847814 0.043849092
-0.0010178249 -0.05004141 0.0153560955 0.051772796 -0.06584236 0.06500233 -0.0009892026 -0.029068548
0.07685986 0.008050993 -0.02270627 0.0041108285 -0.17679787 0.06777945 -0.0032742696 0.011336075
-0.0002153918 -0.06537971 -0.0074473443 -0.024024561 0.14773189 0.05621247 -0.00937307 0.050356742
0.082567565 0.043977622 -0.006682349 -0.00993644 0.12100822 0.09506542 -0.37997687 -0.06611844
0.005757979 0.026793338 -0.037042927 -0.006731388 -0.011432967 -0.0015925084 -0.0663457 -0.06876182
-0.048919275 0.0021045075 -0.0056803343 0.011857689 0.01858221 0.0033895685 -0.011168042 0.072658055
0.01698031 0.025158668 -0.0012105424 0.020510808 -0.033214327 0.042955052 0.0051754573 0.01774698
-0.016825685 -0.010483624 0.011865978 0.00015259691 -0.008124802 0.076880954 0.022385735 -0.022874255
-0.0051738233 -0.043200903 -0.02174505 -0.031749092 0.03285464 -0.0443792 0.000815374 0.34541225
0.035288796 0.08717166 0.03326346 0.05254992 -0.014504176 -0.016277703 -0.13978589 0.0038508172
-0.033434346 -0.026506757 0.0053370562 -0.015995085 -0.006572309 -0.017815499 -0.08304612 -0.25943133
-0.001710351 0.0058932514 -0.009925016 0.0015725615 -0.006516127 -0.05324928 -0.06710888 -0.042074796
0.023006173 -0.04960294 -0.011564727 -0.014626138 -0.040827546 0.019848555 -0.024161585 0.00081331964
-0.024890335 -0.0068173693 0.022679074 0.016841348 0.07445017 -0.057249248 -0.008567512 0.017979896
-0.024767648 -0.0042574136 -0.0028114684 -0.003954997 0.048417967 0.03340607 -0.01116713 0.015774377
0.015791072 -0.0076899286 0.03251162 -0.021156747 0.0046642907 -0.0055627027 0.00043150797 0.02160354
-0.013030519 0.025321163 0.009636415 -0.024012757 0.030188402 0.06330996 0.004204833 -0.0011722927
0.057041567 0.009696644 -0.0120033 -0.015103672 -0.07046036 0.061187547 0.018010948 0.044683937
0.044849772 0.036514618 0.021176854 -0.013388905 0.003196076 -0.0072486126 0.023947023 -0.027973723
00000000: f3e7 dbbb 9934 863d 4fa9 3ebc e7f2 6b3c
00000010: 45da 60bc 4a39 1ebd de8e 013c bbc7 5aba
00000020: df22 e83c b34b 1d3d 2025 b53c 6c23 933c
00000030: c317 083b 9542 c2bc 0244 17bc 112c 74bd
00000040: bbbb 833a 1053 94b9 3cf5 e2bc 3419 2ebc
00000050: 13e3 00bb b24d 0bb9 319b 1fbc 09d3 b03c
00000060: 32fa 8ebc 7d8d c7ba c927 c63b ff66 debb
00000070: 8474 ce3c 3954 e43c 7ec4 4bbc 07d4 173d
00000080: 71e9 82bc 1722 bb3c 88bd 493c 6748 cf3c
00000090: 864a 90bb f4f6 b2bc 9c83 c63c 5355 133d
000000a0: 1329 0fbd 5484 9c3d 4342 21bc 6aa6 21bd
000000b0: bcef c13c 9fd0 dcbc 70e0 9e3d eba2 18be
000000c0: ca25 58bb 98fe 60be 8b14 563d b7b1 87bc
000000d0: 687e 95bb d017 83bc 282b 22bd 87dc 3d3f
000000e0: 91b8 2dbd 8f88 943c c6bd 973c b50c 5f3b
000000f0: 071b 6fbc c351 95bc a288 b1ba d385 79bf
00000100: d5fd 92bb c2ce e8bc bf6e c43b 3038 4b3d
00000110: a12f 0dbd acd5 093d 8fb2 87bd 3d85 08bd
00000120: a97a aabb a366 9dbc 4c00 fd3c e63b 9939
00000130: 06c5 b73d ad65 21bd 7be0 7cbd 7fb8 9e3d
00000140: dc5f 4e3c 6dca 59bb ad55 ecbb c356 47bc
00000150: bfae 733b 4667 473d 3ce4 9dbc 25cf 5f3b
00000160: 67f5 193c 06db b93b 736f 413d 15c0 103e
00000170: ca0c b0bc 277b 81be 1876 5e3d 7f86 033d
00000180: 606d b438 a4a2 c5bb 751d 323d c60c 1dbc
00000190: eb69 35bc 235c a7bd c813 81ba 1b9b 333d
000001a0: 8968 85ba 39f8 4cbd 2298 7b3c b60f 543d
000001b0: 5cd8 86bd f11f 853d 22a8 81ba 2a21 eebc
000001c0: b468 9d3d 50e8 033c 8002 babc 21b4 863b
000001d0: 800a 35be f4cf 8a3d 2195 56bb f2ba 393c
000001e0: ccda 61b9 cce5 85bd da08 f4bb 28cf c4bc
000001f0: 0747 173e 0c3f 663d 8191 19bc df42 4e3d
00000200: 2f19 a93d e121 343d 9bf7 dabb 73cc 22bc
00000210: 28d3 f73d a9b1 c23d 548c c2be 1b69 87bd
00000220: 6ead bc3b b47d db3c 53ba 17bd fa92 dcbb
00000230: 5751 3bbc b7bb d0ba 41e0 87bd ffd2 8cbd
00000240: 945f 48bd c7eb 093b 1922 babb c146 423c
00000250: b839 983c 8623 5e3b 2afa 36bc bfcd 943d
00000260: 4b1a 8b3c 8d19 ce3c 10ab 9eba 4806 a83c
00000270: bf0b 08bd a3f1 2f3d e296 a93b 1d62 913c
00000280: 05d6 89bc 82c3 2bbc 8569 423c 6c02 2039
00000290: e41d 05bc c373 9d3d 4a62 b73c ca62 bbbc
000002a0: 2d89 a9bb 6ef3 30bd ad22 b2bc 560b 02bd
000002b0: 9692 063d f7c6 35bd d3be 553a e0d9 b03e
000002c0: fc8a 103d 0e87 b23d 443f 083d 963e 573d
000002d0: eca2 6dbc d158 85bc 0824 0fbe fe5d 7c3b
000002e0: 74f2 08bd b324 d9bc 79e2 ae3b 2008 83bc
000002f0: 865c d7bb cff1 91bc 1614 aabd 2fd4 84be
00000300: db2d e0ba 2d1c c13b 899c 22bc 681e ce3a
00000310: 3c85 d5bb eb1b 5abd 6170 89bd 9f56 2cbd
00000320: 7177 bc3c 742c 4bbd fb79 3dbc 78a2 6fbc
00000330: c93a 27bd 7099 a23c 84ee c5bc f534 553a
00000340: d1e6 cbbc 3d64 dfbb 77c9 b93c def6 893c
00000350: 5579 983d 307e 6abd c05e 0cbc 934a 933c
00000360: 86e5 cabc c681 8bbb 9d40 38bb eb98 81bb
00000370: eb51 463d ced4 083d 57f6 36bc 4439 813c
00000380: 475c 813c ccfb fbbb e82a 053d ea50 adbc
00000390: e8d6 983b 5547 b6bb 053c e239 e8f9 b03c
000003a0: f57d 55bc 546e cf3c 0ee2 1d3c 67b6 c4bc
000003b0: ab4d f73c a7a8 813d b2c8 893b 9ea7 99ba
000003c0: 6ba4 693d acde 1e3c 7da9 44bc 6475 77bc
000003d0: 854d 90bd cb9f 7a3d b28b 933c 8106 373d
000003e0: 65b4 373d 5a90 153d 157b ad3c 235d 5bbc
000003f0: 4275 513b c585 edbb 8c2c c43c 2629 e5bc

fc10.bias f4 [4]
0.0032762154 0.002280699 -0.0014660741 -0.00093344186
00000000: c6b5 563b c877 153b 4929 c0ba 39b2 74ba

fc11.weight f4 [4, 2048]
-0.020962024 -0.06281305 0.006273343 -0.05408833 0.008125369 -0.02495628 -0.055494875 -0.020270558
0.0053363913 0.019561494 -0.060148302 0.0010615129 -0.055608153 0.0052090394 -0.071076795 0.09196456
-0.056593366 0.0017864837 0.023876421 0.0069282665 -0.076025195 -0.06477074 0.0071378937 -0.060800772
-0.04321746 -0.035249647 0.014196905 -0.023227643 -0.07338112 -0.05091103 -0.00572247 -0.031216066
-0.013137715 0.030137483 -0.017023819 0.005466304 -0.056851253 -0.020484898 -0.0056719445 -0.061871342
0.0052204696 -0.020201808 -0.046104144 -0.041261654 -0.04833754 -0.061178915 0.048612908 -0.053588122
0.006750438 0.2074544 0.04571335 -0.02244002 -0.035892397 -0.012149831 -0.055892818 -0.007664435
-0.06855512 0.014312375 -0.02952281 -0.06849574 -0.047702685 -0.005141135 0.00940782 0.056992795
-0.048904285 -0.024878155 0.013537106 -0.027275104 0.0039084777 -0.020372378 -0.01291789 0.07989204
-0.046289828 -0.051203888 0.06253856 -0.047687322 -0.024595883 -0.048328277 -0.005885463 -0.023214148
-0.050718475 -0.058406338 -0.03856474 0.039799396 -0.03823266 -0.16717392 -0.02376417 -0.035014056
-0.11670901 -0.05647093 -0.09883223 0.010955024 0.013943082 -0.52482575 0.066427164 -0.061735064
-0.04677699 -0.008847249 -0.023527626 0.022201434 0.030211408 0.05799163 -0.015876267 0.029215442
-0.022399805 -0.028600039 -0.047486164 -0.059544384 0.024885196 -0.032242704 -0.033498973 -0.01602101
0.029433608 0.0017853691 0.0032750792 0.0041249646 -0.1016147 -0.08647663 -0.06606393 -0.027264286
-0.058292713 -0.01821356 -5.3456897e-05 -0.024404947 -0.00031188654 0.02128442 0.02011615 -0.07500903
-0.013310417 0.02206296 0.04217031 0.0051160646 0.17645824 -0.052317206 0.329322 -0.143627
0.07973068 0.021392653 -0.06305841 0.039387453 0.032994356 0.0018996767 -0.009957745 -0.0466597
0.03885113 -0.02629422 0.026845038 0.013908729 -0.03193663 0.020603739 -0.051063422 -0.012772031
0.049150504 -0.018000012 -0.026803363 -0.038586643 -0.07475982 0.008062756 -0.029257657 0.012911403
-0.07679576 0.00948022 -0.021417504 -0.054509744 -0.031945445 0.0054183733 -0.02781944 -0.00486186
0.014118671 -0.01855194 -0.019010063 0.0316184 -0.050853364 0.017909627 -0.07087789 -0.20552008
0.03192138 0.013659341 -0.019020462 -0.0538541 -0.020527301 -0.05716218 -0.0021061625 -0.013077197
-0.012964972 -0.05071338 -0.05425489 -0.05804184 -0.021345505 0.056005795 0.08960447 0.087060034
-0.034945145 -0.037755687 -0.040041726 -0.03568396 0.00096759625 -0.023816898 -0.037117966 -0.027672011
-0.0075522684 -0.040043183 0.0043173074 0.0016421947 -0.020501759 -0.011298068 -0.024347562 -0.057427485
-0.09916069 -0.05110147 -0.0032528227 -0.037949618 -0.09112078 -0.044752754 -0.008815713 -0.0685459
-0.045147665 -0.018871631 0.014324007 0.00014310698 0.038522284 0.005074409 -0.02460772 0.05145111
-0.06475102 -0.03313772 -0.045482837 -0.014595778 0.014376476 0.0074675 -0.034176648 -0.050626896
-0.066891864 -0.09695405 -0.0617599 -0.08069876 -0.011647896 0.05534322 0.06110121 0.0076169036
-0.03860449 -0.061016478 -0.00698747 -0.06459628 0.07050068 -0.06416916 0.009682919 -0.070977435
0.009150551 -0.06494045 -0.026809683 -0.1253997 0.0019178982 0.10253391 0.026327873 -0.067527816
00000000: 8db8 abbc 21a4 80bd 9e90 cd3b ba8b 5dbd
00000010: 4520 053c 1d71 ccbc 984e 63bd 710e a6bc
00000020: e5dc ae3b 6d3f a03c 115e 76bd 7622 8b3a
00000030: 60c5 63bd 97b0 aa3b b690 91bd ea57 bc3d
00000040: 72ce 67bd 7228 ea3a 7c98 c33c 8306 e33b
00000050: 19b3 9bbd 86a6 84bd fee4 e93b 3b0a 79bd
00000060: cb04 31bd ef61 10bd 239a 683c e647 bebc
00000070: d748 96bd 1688 50bd 8f83 bbbb d6b8 ffbc
00000080: 923f 57bc e2e2 f63c 8975 8bbc ae1e b33b
00000090: dcdc 68bd f2cf a7bc b8db b9bb ce6c 7dbd
000000a0: 7910 ab3b 437e a5bc b3d7 3cbd fb01 29bd
000000b0: 96fd 45bd be96 7abd 541e 473d 387f 5bbd
000000c0: c732 dd3b ed6e 543e ec3d 3b3d 22d4 b7bc
000000d0: e803 13bd 1610 47bc deef 64bd f125 fbbb
000000e0: a066 8cbd 747e 6a3c d2d9 f1bc 7f47 8cbd
000000f0: e463 43bd f776 a8bb 4223 1a3c 4771 693d
00000100: dc4f 48bd 46cd cbbc bdca 5d3c 0a70 dfbc
00000110: b012 803b f9e3 a6bc 8fa5 53bc 709e a33d
00000120: 679a 3dbd 2bbb 51bd 3714 803d c853 43bd
00000130: 4e7d c9bc dff3 45bd d8da c0bb 992b bebc
00000140: 2dbe 4fbd 7c3b 6fbd 10f6 1dbd b104 233d
00000150: da99 1cbd a42f 2bbe 14ad c2bc e66a 0fbd
00000160: 2205 efbd 104e 67bd 8d68 cabd b37c 333c
00000170: 8671 643c fb5a 06bf f70a 883d e8dd 7cbd
00000180: 3b99 3fbd 0df4 10bc 02bd c0bc c8df b53c
00000190: ea7d f73c a288 6d3d f20e 82bc 3955 ef3c
000001a0: cc7f b7bc a14a eabc da80 42bd d0e4 73bd
000001b0: 0adc cb3c ed10 04bd 3836 09bd 7e3e 83bc
000001c0: c01e f13c 0c03 ea3a b6a2 563b b62a 873b
000001d0: 5e1b d0bd a91a b1bd 874c 87bd 5a59 dfbc
000001e0: 57c4 6ebd 9b34 95bc e836 60b8 e2ec c7bc
000001f0: b484 a3b9 aa5c ae3c a0ca a43c 569e 99bd
00000200: ef13 5abc 61bd b43c c6ba 2c3d a9a4 a73b
00000210: 78b1 343e 914a 56bd e59c a83e f512 13be
00000220: d749 a33d a53f af3c c524 81bd bd54 213d
00000230: 1725 073d 93fe f83a cf25 23bc 3e1e 3fbd
00000240: 5d22 1f3d fa66 d7bc 20ea db3c 70e1 633c
00000250: fccf 02bd 2cc9 a83c e127 51bd c841 51bc
00000260: 0a52 493d c374 93bc ba92 dbbc 070d 1ebd
00000270: ad1b 99bd a619 043c c1ad efbc 598a 533c
00000280: 1847 9dbd ed52 1b3c c373 afbc 9c45 5fbd
00000290: 3ad9 02bd 9c8c b13b 98e5 e3bc 3d50 9fbb
000002a0: 0052 673c 3dfa 97bc feba 9bbc 4c82 013d
000002b0: 9e4b 50bd 36b7 923c 6d28 91bd db73 52be
000002c0: febf 023d 6ecb 5f3c cdd0 9bbc 1e96 5cbd
000002d0: df28 a8bc e422 6abd 8b07 0abb bd41 56bc
000002e0: 096b 54bc d5b8 4fbd 603a 5ebd 48bd 6dbd
000002f0: c5dc aebc 5566 653d 8c82 b73d 884c b23d
00000300: a422 0fbd b5a5 1abd cb02 24bd 5829 12bd
00000310: 49a6 7d3a a81b c3bc 0209 18bd 6ab0 e2bc
00000320: 0579 f7bb 5204 24bd 3378 8d3b e93e d73a
00000330: 4ef3 a7bc 881b 39bc 8a74 c7bc 1539 6bbd
00000340: c314 cbbd c64f 51bd 4f2d 55bb 0f71 1bbd
00000350: 889d babd aa4e 37bd c86f 10bc cb61 8cbd
00000360: c2ec 38bd ae98 9abc 3daf 6a3c fd0e 1639
00000370: 8bc9 1d3d 3a47 a63b 2196 c9bc 66be 523d
00000380: 2f9c 84bd 6bbb 07bd 364c 3abd 2123 6fbc
00000390: 508b 6b3c eeb1 f43b d0fc 0bbd 265e 4fbd
000003a0: 9afe 88bd d88f c6bd f3f7 7cbd 6445 a5bd
000003b0: d1d6 3ebc 92af 623d 4345 7a3d 3897 f93b
000003c0: be1f 1ebd 6aec 79bd 26f7 e4bb 0e4b 84bd
000003d0: a962 903d 1f6b 83bd 1ba5 1e3c 9e5c 91bd
000003e0: 31ec 153c 80ff 84bd fb9f dbbc c768 00be
000003f0: fc61 fb3a 4cfd d13d 8dad d73c 064c 8abd

fc11.bias f4 [4]
-0.0456961 -0.045857284 -0.054010537 -0.04824025
00000000: d52b 3bbd d9d4 3bbd 273a 5dbd 9297 45bd

fc3.weight f4 [512, 4]
0.26103726 -0.9080496 -1.2447295 -0.7434997 -0.077462025 0.298371 0.5762563 0.66309345
-1.1996195 -0.28114563 -0.57675916 1.2486619 0.28677097 0.13005567 -0.7258241 1.5494633
-0.92580616 -0.37621307 -0.025563339 1.2853255 -1.4230337 -1.4714329 0.129848 -0.2627999
-0.7014027 -0.6016802 0.04427693 -0.49258646 0.023535624 0.6461611 -0.46793172 -0.4199947
0.2205613 -0.75170255 0.006933557 -0.36522585 0.9125664 0.62575763 0.49021837 0.33757982
0.3047573 -0.050528124 0.15292339 0.10485048 0.10541111 0.8894542 -0.30171975 -0.92205936
-0.19621794 0.48742834 -0.03687742 -1.0184072 -0.36515737 -1.1021602 0.38463697 0.18884069
-0.23797964 -0.5068034 0.59301114 0.4485434 0.5479144 1.2287719 -0.4278506 -0.2987156
0.11277494 1.4453183 -0.089100316 -0.67932016 0.14757657 0.3218069 0.022146968 -0.06267204
-0.15232028 -0.21326838 -1.1820375 -0.085645296 -0.013937101 0.09962438 0.005453215 0.14811057
-0.1832116 -0.31447506 -0.21393646 0.051583454 -0.42452437 -0.44660643 0.26736927 -0.037123963
-0.3920422 0.16116537 -0.34947354 1.3366129 0.36884806 -0.13223454 0.19416717 0.79085654
-0.005595175 -0.509197 1.4726473 -0.88661325 -0.35695717 -0.55246943 -1.9144009 0.027680732
-0.07960422 -0.5452442 -0.25066456 -0.35371864 -0.16646853 -0.43673 -0.8308218 0.036215622
-0.58828586 0.12486074 -0.031866193 -0.2509109 -0.39823297 1.0947222 0.22511503 0.35880092
-0.34806874 -0.3410229 0.18747501 -0.79561347 0.382874 0.14599167 0.0039096856 0.9532197
0.03035145 0.5325855 0.009810037 -1.215581 0.0033899616 -0.0620633 1.7593266 0.24497221
-0.08318731 -0.1925534 0.377022 -0.007149966 -0.0037157894 0.18927257 1.5856391 -0.010456647
-0.21261972 -0.5060578 0.15760154 0.03750234 -0.38483402 0.17528182 -0.11456902 -0.27037135
-0.32570484 -0.004149658 -0.0546465 -1.694709 -0.09499318 0.11001423 -0.69517046 -1.2898355
0.89983135 -1.4487888 0.2966536 0.66846067 0.6904269 -1.2456168 -0.21638213 -0.331226
0.08405827 -0.9257326 -0.594647 0.13097928 -0.749547 0.40302736 -0.1399303 -0.72985476
-0.33647066 0.6456031 -0.09459996 0.015438079 -0.549912 -0.07926439 0.093706094 -0.016574958
-0.067688845 0.074376814 -0.052925978 -0.27912536 0.46405196 0.49372518 -0.22359134 -0.84272814
-0.6297351 -0.082890816 -1.1058216 -1.258579 -0.384042 0.73915374 -0.074591376 -0.6304284
-0.52343726 -0.59383404 0.22092222 0.0037320158 -0.0038599418 0.6111853 -0.13851851 -0.37510875
0.279689 0.672003 -0.46720558 -0.43254477 -0.854315 0.335204 -0.08021605 -0.043608386
-0.34730375 0.047558624 0.016384758 0.056088198 -1.0398499 -0.716033 0.2965916 0.4025709
-0.03878271 -0.42903212 0.26188767 -0.96910506 -0.09227772 -1.28148 0.33761495 0.14828876
0.5634925 1.1299856 -0.29875955 -0.36630163 -0.08950124 0.028512228 0.39131948 0.019131254
0.32978275 0.31740814 -0.17668562 0.07306017 0.01924408 0.27065295 -0.1724426 0.3115947
-0.0073333294 -0.26293623 -0.041783895 0.16556883 0.99687743 -0.6569519 -1.4889544 0.416122
00000000: ada6 853e f075 68bf 4c53 9fbf ff55 3ebf
00000010: 69a4 9ebd 15c4 983e 8885 133f 7ec0 293f
00000020: 228d 99bf 52f2 8fbe 7da6 13bf 27d4 9f3f
00000030: a5d3 923e 502d 053e 9ccf 39bf d054 c63f
00000040: a201 6dbf 009f c0be 356a d1bc 8c85 a43f
00000050: f825 b6bf ea57 bcbf e0f6 043e b58d 86be
00000060: 218f 33bf b707 1abf ba5b 353d 4b34 fcbe
00000070: c8cd c03c d06a 253f bf94 efbe 8c09 d7be
00000080: d2da 613e 946f 40bf e432 e33b e2fe babe
00000090: f49d 693f a731 203f e7fd fa3e 43d7 ac3e
000000a0: 2609 9c3e 94f6 4ebd f397 1c3e d9bb d63d
000000b0: c8e1 d73d 45b3 633f 037b 9abe 150c 6cbf
000000c0: 5bed 48be 3590 f93e c70c 17bd 2b5b 82bf
000000d0: e8f5 babe 9613 8dbf 23ef c43e 745f 413e
000000e0: efb0 73be debd 01bf 94cf 173f 7ba7 e53e
000000f0: 1e44 0c3f 6648 9d3f 3c0f dbbe 40f1 98be
00000100: 8cf6 e63d 3100 b93f 3a7a b6bd ede7 2dbf
00000110: 501e 173e e0c3 a43e 8f6d b53c 335a 80bd
00000120: d9f9 1bbe 0763 5abe 014d 97bf cd66 afbd
00000130: 7058 64bc de07 cc3d e2b0 b23b 4caa 173e
00000140: d29b 3bbe e002 a1be 2912 5bbe 2c49 533d
00000150: 425b d9be 99a9 e4be a0e4 883e 4c0f 18bd
00000160: c1b9 c8be 8908 253e 32ee b2be 2216 ab3f
00000170: a7d9 bc3e 7e68 07be c2d3 463e 9375 4a3f
00000180: bb57 b7bb bc5a 02bf b57f bc3f 16f9 62bf
00000190: 17c3 b6be a36e 0dbf 170b f5bf b4c2 e23c
000001a0: 8a07 a3bd 2095 0bbf 1b57 80be 9c1a b5be
000001b0: ba76 2abe 139b dfbe bdb0 54bf d556 143d
000001c0: e799 16bf fdb6 ff3d 2086 02bd 6577 80be
000001d0: 31e5 cbbe db1f 8c3f 8e84 663e c1b4 b73e
000001e0: 1136 b2be 8e9a aebe 73f9 3f3e 53ad 4bbf
000001f0: 1008 c43e d77e 153e d21c 803b 3506 743f
00000200: 9ba3 f83c 8657 083f 47ba 203c 2998 9bbf
00000210: 1e2a 5e3b 1636 7ebd 9d31 e13f ffd9 7a3e
00000220: 1c5e aabd b82c 45be 0709 c13e 434a eabb
00000230: 9a84 73bb abd0 413e 39f6 ca3f 5b52 2bbc
00000240: fcb8 59be 018d 01bf 4c62 213e 0e9c 193d
00000250: f708 c5be 147d 333e 2aa3 eabd 1d6e 8abe
00000260: c9c2 a6be dbf9 87bb 02d5 5fbd 39ec d8bf
00000270: c98b c2bd 244f e13d b1f6 31bf 5419 a5bf
00000280: 595b 663f e971 b9bf fbe2 973e 3d20 2b3f
00000290: d1bf 303f 5f70 9fbf 4793 5dbe 7496 a9be
000002a0: be26 ac3d d0fc 6cbf c93a 18bf 6f1f 063e
000002b0: 50e2 3fbf 9a59 ce3e e349 0fbe c3d7 3abf
000002c0: e245 acbe 3f46 253f a0bd c1bd ffef 7c3c
000002d0: 08c7 0cbf 5e55 a2bd fbe8 bf3d 35c8 87bc
000002e0: 73a0 8abd df52 983d e9c8 58bd 85e9 8ebe
000002f0: 3898 ed3e 8cc9 fc3e 21f5 64be 08bd 57bf
00000300: 5236 21bf a9c2 a9bd 908b 8dbf 1e19 a1bf
00000310: 27a1 c4be 2e39 3d3f 5dc3 98bd c163 21bf
00000320: fcff 05bf 8205 18bf 6f39 623e d694 743b
00000330: 14f7 7cbb a476 1c3f ccd7 0dbe 410e c0be
00000340: 6633 8f3e 6308 2c3f 9235 efbe 8276 ddbe
00000350: 63b4 5abf dc9f ab3e 5048 a4bd b59e 32bd
00000360: ccd1 b1be d5cc 423d 5439 863c bdbc 653d
00000370: cd19 85bf f04d 37bf dbda 973e c61d ce3e
00000380: 9eda 1ebd 19aa dbbe 2416 863e 4517 78bf
00000390: 1afc bcbd 8907 a4bf dedb ac3e 02d9 173e
000003a0: 0b41 103f 5ea3 903f 03f7 98be e38b bbbe
000003b0: 6d4c b7bd 7a92 e93c 075b c83e 26b9 9c3c
000003c0: 49d9 a83e 5283 a23e 13ed 34be 92a0 953d
000003d0: c3a5 9d3c 0693 8a3e cb94 30be 5789 9f3e
000003e0: 6d4c f0bb 949f 86be 9725 2bbd e08a 293e
000003f0: 5c33 7f3f 002e 28bf 0f96 bebf f10d d53e
