saved_models_2D/dataset_acc/VAE_folds/CVAE2D_4_5_100_200_fold_2.pth (torch, 243348 bytes, 37 tensors)

conv1.weight f4 [16, 1, 3, 3]
000000 ac 49 4f 3d 3a 70 78 bd 53 8c 40 3d e3 4b 6a be
       0.05060737 -0.060653903 0.047008824 -0.22880511
000010 33 70 f7 3e 0f 07 05 3f 26 37 de 3e 54 ba 11 3f
       0.4832779 0.51963896 0.4340145 0.5692494
000020 57 e1 24 bf 2c d6 82 3e 02 bf 5b 3f bb c3 7a be
       -0.6440634 0.25554025 0.8583833 -0.24488728
000030 6c a5 14 3e 46 15 5b 3d b1 ca 12 3f 22 df 82 be
       0.14516228 0.053487085 0.5734053 -0.25560862
000040 33 ec 0e bf 7b 7f 99 3e 55 6e 79 3e e2 a8 fe 3d
       -0.5582916 0.29980072 0.24358495 0.124345556
000050 19 6a 5f be a9 1b 44 bf 47 dd c5 3e 89 8c 53 bf
       -0.21817817 -0.76604706 0.38645384 -0.82636315
000060 79 d3 00 be a0 d9 2a bf 3d d8 27 be 36 79 86 3f
       -0.1258067 -0.6673832 -0.16391082 1.0505741
000070 71 2f de be 52 1b a2 3d e0 ac 59 be e2 d9 bc be
       -0.4339557 0.07915367 -0.21257353 -0.3688498
000080 37 b3 08 be f0 28 7e 3e 1f 47 55 bf db 77 f3 3e
       -0.13349615 0.24820304 -0.8331165 0.4755238
000090 3f ea 06 3e 28 cb 55 3f 0c ec eb 3e 17 04 9e bd
       0.13175295 0.83513117 0.46078527 -0.07715624
0000a0 fa c5 89 be 63 93 4c be 7b 75 b2 be 08 4c 87 be
       -0.26908857 -0.19978099 -0.34855255 -0.26425195
0000b0 6c 5f 49 3e 48 a5 3c 3e 4b 84 d7 be 56 31 01 3f
       0.19665307 0.18422425 -0.4209312 0.50465906
0000c0 3d cb e0 be ac 68 37 be ae 1f 91 be 00 60 8c be
       -0.43905059 -0.17911023 -0.28344482 -0.27416992
0000d0 1e 31 9e be d9 34 d1 3e b1 01 34 3d b1 81 07 3f
       -0.30896848 0.40860632 0.043946926 0.5293227
0000e0 01 5a 1a 3e a5 5a 9c be f5 8e f5 3d 63 d9 0e 3e
       0.15073396 -0.30537906 0.119901575 0.13950114
0000f0 1d cd c5 be 7c 7b 1f 3c bc a2 aa be f3 c7 d7 3e
       -0.38633052 0.009734031 -0.3332728 0.42144737
000100 3a 8f 3a 3e 57 f3 eb be f8 6b 71 3f 50 76 cc be
       0.18218699 -0.4608409 0.9430537 -0.39934015
000110 09 7a 75 3e 1e 4c 9c bd 1a e1 56 bf 0f f0 bf bf
       0.23972334 -0.07631706 -0.8393723 -1.4995135
000120 87 6b 18 bf de fa 11 3f 92 7d 3a 3e 01 ae 85 be
       -0.59539074 0.5702342 0.18211964 -0.26109317
000130 4f ea 39 bf ce 5f 31 3f 0a 8a 94 bc 0b 9b 82 3e
       -0.7262315 0.6928681 -0.018132228 0.25508913
000140 9b 40 65 bd 52 2e 89 be 7d 6b d2 be 71 95 c7 bd
       -0.055969816 -0.26793152 -0.41097632 -0.097453006
000150 1f f3 25 3e 47 a4 72 3e 18 75 ca 3e bf 48 06 bf
       0.16206025 0.2369548 0.3954246 -0.5245475
000160 5f 19 e8 3d 9e 65 4a 3e fc 8e 2b 3f 31 bf b7 be
       0.11332964 0.19765326 0.6701505 -0.35888055
000170 b9 44 12 3e 64 ee c0 3e 91 09 23 3e fd 51 97 3c
       0.14284028 0.37681878 0.15921618 0.018471712
000180 d1 fe c0 bd 23 fd 68 3d b8 bf bf be 81 c2 c0 bc
       -0.09423602 0.056882035 -0.37450957 -0.023530247
000190 8b cd dc be 35 27 8e 3d 8e 4c 13 3f 22 26 2f 3e
       -0.43125567 0.06941072 0.5753869 0.1710439
0001a0 00 ab 56 be 62 ef cf 3e 69 5e b6 3d 1e aa 85 be
       -0.20963669 0.40612322 0.08904726 -0.26106352
0001b0 12 90 8b be 7f 69 a5 bf 46 11 ac 3e 9d 2c b5 3e
       -0.27258354 -1.292282 0.3360693 0.353856
0001c0 c0 62 03 bf 61 29 e6 be a9 b7 6f 3e ed ee d1 be
       -0.51322556 -0.44953445 0.23409905 -0.41002598
0001d0 43 b9 ab 3c 49 6a f2 be 4c 8a 23 bf 24 ec 29 3f
       0.020962363 -0.47346714 -0.638829 0.66375947
0001e0 49 d8 95 3e 1b f2 16 3e de fa ec 3e 8b 0f 7b 3e
       0.29266575 0.14740793 0.46285146 0.24517648
0001f0 46 79 8f be 15 7f d1 bd 0a 57 6e be e8 35 d9 bd
       -0.28022212 -0.10229317 -0.2327539 -0.10605985
000200 31 27 e0 bd 68 53 b2 bd fc d7 17 3f 05 da 2e 3e
       -0.10944975 -0.08707315 0.5931394 0.17075355
000210 fd 64 c0 be 55 4f fa 3d af 73 a1 be 07 67 69 bd
       -0.37577048 0.12222163 -0.31533572 -0.05698302
000220 82 be 3a 3e b8 f3 44 3d 6a 2b da 3e 84 bf 49 be
       0.18236735 0.04808399 0.42611247 -0.19701964
000230 eb 55 bc 3e c3 66 0c 3d ef ae ab 3e cb b2 24 be
       0.367843 0.03427769 0.335319 -0.16083829

conv1.bias f4 [16]
000000 c5 ee 0b bc 92 3e 1f bd f9 f7 d0 3b ff 75 07 3d
       -0.008540814 -0.03887803 0.006377217 0.033071514
000010 3a 00 88 bc 82 cd a2 bd 5c a8 18 bd b9 8c 85 bc
       -0.01660167 -0.07949354 -0.037269935 -0.016302453
000020 81 e8 84 3c 97 8e 8d 3d 7f f5 9f 3d c1 41 46 3d
       0.016224148 0.069119625 0.078104965 0.04840255
000030 7a f7 2a 3c ee c6 38 bd 11 05 2d 3b 9b a5 55 bd
       0.01043498 -0.04511159 0.0026400725 -0.052159887

conv2.weight f4 [32, 16, 3, 3]
000000 c5 e7 fe bc d5 0b 22 bd 15 5a 39 bd 45 9c 15 3e
       -0.031116376 -0.039562065 -0.045251925 0.14610393
000010 61 80 8f 3d ea 8a 3d 3d 86 e5 23 3e 83 59 1f 3e
       0.07006908 0.046275057 0.16005525 0.1556149
000020 bb 87 05 bd c4 57 02 3e 63 46 19 3e 6f 41 f5 bd
       -0.032600146 0.12728792 0.14968257 -0.11975371
000030 ab 74 fa 3d d3 d8 5a 3c 76 0e d1 3c e6 a5 24 3e
       0.12229284 0.013357359 0.02551959 0.1607891
000040 67 1b 56 3c 50 92 09 be 06 9c 02 3e 6c 0d 30 be
       0.013068057 -0.1343472 0.1275483 -0.1719262
000050 36 55 6f 3c 8a 28 c7 bd 58 b6 32 bd 32 f7 3a bd
       0.014607718 -0.09724529 -0.043630928 -0.0456459
000060 46 1a 42 bd d4 c5 69 be 3a 53 8f bd 3a e0 3c 3d
       -0.047388338 -0.22829372 -0.06998296 0.046112277
000070 83 20 34 3d 9b 1b f4 bd d2 b0 cf bc e3 e3 2d 3e
       0.043976318 -0.11919328 -0.02535287 0.16981463
000080 c7 0f 92 bd 60 70 26 be e0 03 fe 3c 45 fe 94 bd
       -0.071319155 -0.16253805 0.031007707 -0.072750606
000090 d7 2b 77 3d d3 0a 45 bd 7b 0f 87 3d 93 91 22 bd
       0.060344543 -0.048106026 0.065947495 -0.03968961
0000a0 f1 65 87 3c 43 6c 06 be 73 54 21 bd 84 5c cd 3d
       0.016528102 -0.13127236 -0.039387178 0.100274116
0000b0 9a 73 db bd 1d f6 63 3d 5f 87 2a be de e8 49 bd
       -0.107154086 0.055654634 -0.16653202 -0.049294345
0000c0 f3 14 90 3d 90 83 d9 bd d3 0e 15 be 20 97 d3 bd
       0.07035246 -0.10620797 -0.14556436 -0.10331559
0000d0 63 7e 4e be 64 37 02 be 60 6e 23 be 40 1e 03 3e
       -0.201654 -0.12716442 -0.15960073 0.12804508
0000e0 e7 df 27 bd 2c c4 4f be a1 1b 18 be d6 b2 94 3d
       -0.040985014 -0.20289677 -0.1485429 0.07260673
0000f0 08 b7 8f 3b 0d 1e 6e bb c7 6d 13 3c 0a c4 cf 3d
       0.0043858327 -0.003633383 0.008998341 0.10144813
000100 03 07 aa 3c 19 73 ed bb dc c7 b6 bd cf 99 ab 3a
       0.020755297 -0.0072463867 -0.08924839 0.0013092103
000110 21 82 f4 bd a1 48 63 3d b5 b5 56 3e 2c a5 94 3d
       -0.119388826 0.055489186 0.20967753 0.072580665
000120 10 36 01 be bb 40 95 be 5f 7e 09 3e ee 5f 47 3d
       -0.1261828 -0.29150948 0.13427113 0.04867547
000130 7e f7 0e be 9c c8 e6 bb 50 0f e5 bb 33 0b 9f bc
       -0.13961598 -0.0070429575 -0.006990351 -0.01941452
000140 59 bd f3 3d f5 1a a4 bd de 07 de bd 0e e4 77 3b
       0.119013496 -0.08012954 -0.10841344 0.003782514
000150 00 2b 26 3e 0a b3 9e 3d ce cb 0f 3e c5 4a 50 3e
       0.1622734 0.07748993 0.14042589 0.20341022
000160 0d d2 4f bb 18 83 07 3d 53 43 87 3d df e4 a6 3d
       -0.0031710893 0.033084005 0.06604638 0.081491224
000170 6a 70 84 bd a2 e1 02 3e 01 59 c7 bd 09 c7 52 be
       -0.06466754 0.12781385 -0.09733773 -0.20583738
000180 9c 80 64 3d c0 a4 aa bb d7 cb 1e 3d 74 b9 0a 3d
       0.055786714 -0.005207628 0.038768616 0.033868268
000190 d1 72 22 3d 75 50 8f 3d 00 f3 03 3e 6d 59 6b 3c
       0.03966028 0.06997768 0.12885666 0.0143645825
0001a0 61 f8 a7 bd 08 b2 f2 bd e0 1a 3c 3e b0 a3 de bd
       -0.082016714 -0.11850363 0.18369627 -0.10871065
0001b0 b1 0d 26 be 69 49 44 bd bc 84 29 3d 87 7b ca bd
       -0.1621616 -0.047921572 0.04138635 -0.09886842
0001c0 24 f2 29 bd 9d 31 ca 3c 5d e8 3b 3d 5e 36 91 bd
       -0.04149069 0.02468186 0.045875896 -0.07090448
0001d0 8e e7 82 be c7 12 16 3e 08 c9 f1 3c e2 62 f5 bd
       -0.25567287 0.146556 0.029514804 -0.11981751
0001e0 0f e5 72 3d 54 d5 0b be 56 cf 05 3e c9 86 75 3d
       0.05930048 -0.13655597 0.13067374 0.059942994
0001f0 b1 9a 2d 3d b7 5d 4d 3e f8 12 10 3e c5 74 b5 3d
       0.042383853 0.2005528 0.14069736 0.08860163
000200 b6 0b bb ba cd 37 1f bd 9b b3 a5 bd e8 86 89 bd
       -0.0014270458 -0.038871575 -0.08090898 -0.067151845
000210 22 9a 72 bc 7f b7 31 bb 67 af 13 be 1d 90 a8 bd
       -0.014807256 -0.0027117429 -0.1442238 -0.082306124
000220 ed e5 51 bb a2 fa 15 3d 36 1d 2e 3d a4 cb 6e 3e
       -0.0032027916 0.036615975 0.042508326 0.2331987
000230 cf 54 1d bc 4e 01 3a 3e bb 62 de bd bc cd e5 3c
       -0.0096027395 0.1816456 -0.10858675 0.028052203
000240 1c 9b 97 bd cf fc 20 3e 20 2c 7b 3d 99 34 6b be
       -0.07402632 0.15721439 0.061321378 -0.22969283
000250 f4 0b 97 bc 81 e9 8d bd 3b 53 f9 bc 95 e3 f8 bc
       -0.018438317 -0.06929303 -0.030435195 -0.030381957
000260 9d bb 4d be ad 05 6f 3e 56 48 5a 3e 8f f2 7b 3e
       -0.200911 0.23342009 0.21316656 0.24604248
000270 b4 ea 18 be 8f 99 46 3c b9 55 39 3e e5 8e 03 3e
       -0.14933282 0.012121572 0.18099107 0.12847479
000280 07 8d 82 bd fa 8f 69 bd 2f 9a 89 3d 47 1c bb 3d
       -0.06374555 -0.057022072 0.06718861 0.09136253
000290 57 ca cd bd 55 71 51 bd 1b 14 89 3c a1 86 a6 bd
       -0.10048359 -0.051133472 0.01673322 -0.08131147
0002a0 1f 3e a5 3c ea 54 a4 bd 1b 2d 22 3d ad fe ee bd
       0.020171223 -0.080240086 0.039593797 -0.11669669
0002b0 f1 b2 23 3d 87 b7 ab be 2d 88 59 3e ed 6b 87 3d
       0.039965574 -0.33538458 0.21243353 0.06612382
0002c0 5b 15 1d 3e 14 72 87 3e dd 4f 8a 3e ab cb 2d be
       0.15340178 0.26454222 0.27014056 -0.16972224
0002d0 84 64 f3 bd 27 c2 35 3e 0a 76 46 3e 67 b0 05 3e
       -0.11884406 0.17749844 0.19380966 0.13055573
0002e0 3d 38 43 3e 47 8d 05 bd e5 d4 f2 3c 7b 6d a5 3d
       0.19064422 -0.032605436 0.029642532 0.08077522
0002f0 a9 4a 8f 3d 9f db f5 3c 65 ec 8a be aa b5 0d be
       0.06996662 0.03001195 -0.2713348 -0.1383883
000300 cd 26 4d 3e dc a4 9e 3d 39 0c 0a bd 65 b4 a0 3d
       0.20034333 0.07746288 -0.033703063 0.078469075
000310 11 a9 18 3b 5d a5 ab 3c 90 cc 28 bd ec f8 e4 3d
       0.002329413 0.020952875 -0.04121071 0.111802906
000320 47 9b c0 bc d8 a5 97 3c 4c 3f f9 bc 03 4b 03 3e
       -0.023511542 0.018511698 -0.03042569 0.12821583
000330 db fc 44 be 49 02 b2 bd 89 ca 34 3d 91 1d 22 3d
       -0.19237082 -0.08691842 0.044138465 0.039578978
000340 aa 4f 2e be 14 83 b4 be 12 99 80 3d c0 cf 11 3d
       -0.17022577 -0.35256255 0.06279196 0.035598516
000350 da 89 5a 3d 41 36 11 3d 4a 7a e2 3c a7 cc e6 bd
       0.05335412 0.03545213 0.027646203 -0.11269503
000360 92 b2 1e 3d 4d 26 06 3e 43 de a7 bd 1b de 66 3d
       0.038744517 0.13100548 -0.0819669 0.05636416
000370 3f 48 05 bd 87 b5 b4 bd 67 3e 99 bc 2f 92 98 bd
       -0.032539602 -0.08823686 -0.018706514 -0.07449757
000380 c2 f7 76 3e fd 98 9e bd ea 53 f2 bd 32 fd 4d 3d
       0.2411795 -0.07744024 -0.118324116 0.050290294
000390 b8 ba a2 3c 30 f6 da 3d fd 48 5d be 09 0a 43 3c
       0.019864425 0.10691488 -0.21609874 0.011904248
0003a0 25 90 03 3e 36 71 09 3e 22 2d 03 be f2 ce 0c 3d
       0.12847956 0.13422093 -0.12810186 0.034377046
0003b0 4c 3b 43 bd 41 8e c0 3d 1a 05 9a 3e 1d cd 92 bd
       -0.04766397 0.09402133 0.30082017 -0.071680285
0003c0 88 c8 a4 3e 43 5f 68 bd ab ba 22 3d 35 12 ab 3d
       0.32184243 -0.056731474 0.0397288 0.08353082
0003d0 e1 14 ad bd 55 31 fe bd 7a cd f6 3b a1 7d 3a be
       -0.08451248 -0.12411753 0.007531819 -0.18211986
0003e0 85 1d 19 bd 1b ee 03 3c 07 7a 0f be 18 15 c1 3d
       -0.037381668 0.008052374 -0.14011393 0.094278514
0003f0 61 83 33 be ee 08 be be d5 3d c4 3d 50 51 c5 bd
       -0.17530586 -0.37116188 0.09582106 -0.0963465

conv2.bias f4 [32]
000000 d9 23 07 3d bb df 52 bd 4c f4 6d bc 47 e9 61 bd
       0.03299317 -0.051482897 -0.014523577 -0.05515411
000010 36 cf 7b 3d f0 a6 18 3d d4 c2 77 3c b2 8d ca 3d
       0.06147691 0.03726858 0.015122134 0.098903075
000020 1b 90 45 bd 79 3f a0 3c e9 3d 58 bd d6 87 13 3d
       -0.048233133 0.019561516 -0.052793417 0.036018215
000030 17 88 b3 bd 68 84 05 3d b5 96 04 bd 1c 2e 2f bd
       -0.087661915 0.032596976 -0.032370288 -0.042768583
000040 bc dc bb bd 63 82 bd bb 16 75 e0 3b 9e 42 d6 ba
       -0.09172961 -0.0057833656 0.006849895 -0.0016346758
000050 de 1b 89 bd f2 a8 31 bc 4c a5 8e bd f1 4f 12 3d
       -0.06694768 -0.010843502 -0.069651216 0.03572077
000060 b8 1f 08 3d 78 0a 66 3d 88 a1 35 bb 31 0b 8f bb
       0.033233374 0.056162328 -0.0027714688 -0.004365348
000070 fa 6f 37 bd 22 35 8f 3b 28 e9 bd 3c 34 05 57 3d
       -0.044784524 0.0043703476 0.023182467 0.052495196

conv3.weight f4 [32, 32, 3, 3]
000000 13 8c 52 bd 9f 04 9b 3b 93 e8 a5 bd 36 93 9e 3d
       -0.051403116 0.0047307755 -0.08101001 0.07742922
000010 c1 92 36 3d 4e 5e da bd 74 a3 5d 3d d9 77 91 bd
       0.04457355 -0.106625184 0.05411096 -0.07102937
000020 91 43 09 be dc cf e4 bb 37 45 2a 3d 17 ec 1e 3d
       -0.13404681 -0.0069827866 0.041569915 0.03879937
000030 d2 49 df bc 0e 5c 2f bd 87 48 dd bd b8 fe 1c 3e
       -0.02725688 -0.0428124 -0.10804849 0.15331542
000040 3b 64 48 3b 2b 22 10 3c 96 b9 c4 bc 67 f2 0f be
       0.003057732 0.008797209 -0.024014276 -0.14057313
000050 b0 b2 d4 bd 4f 69 d2 bc 04 90 df bd 29 49 1f 3e
       -0.103856444 -0.02568498 -0.10916141 0.15555252
000060 c6 cf fb bd 38 37 8a bd 39 f9 01 3e fb 6d a2 bd
       -0.12295489 -0.067488134 0.12692727 -0.07931133
000070 8f 62 ff bd 77 07 e8 ba 9a 6b 63 3d db d8 bf 3d
       -0.124699704 -0.001770242 0.05552254 0.09367534
000080 13 f9 9a bd bf 66 49 3d b8 9f 8c 3d 8a 35 ee bc
       -0.075670384 0.049170252 0.068664014 -0.029078264
000090 56 e3 02 3e ea de eb bd 6b 66 3d be 04 6b 4c bb
       0.12782034 -0.11517127 -0.184961 -0.0031191716
0000a0 d8 34 5d be 7c 0d 76 3d 40 4e 64 3c 0e 5b b9 bd
       -0.2160219 0.060071453 0.013934672 -0.090505704
0000b0 ae 24 62 bd f8 61 57 bd 75 c3 a2 bd 4d 7e b6 bd
       -0.05521076 -0.052583665 -0.07947437 -0.08910809
0000c0 02 ac cd 3d 8e f5 76 bc f4 54 55 bd e5 51 1a 3d
       0.100425735 -0.015073193 -0.05208297 0.037675757
0000d0 e6 ef d8 3b 9c b6 13 be e8 19 75 bd 12 cd c6 bd
       0.006620395 -0.14425129 -0.05983916 -0.09707083
0000e0 e5 96 57 3d 67 08 96 bc e1 01 4b bd 28 44 38 bc
       0.05263414 -0.018314553 -0.04956234 -0.0112467185
0000f0 8f a6 e0 bc 0a 8c 86 bd 5d de 97 bb c0 1c 6b 3d
       -0.027423171 -0.06569679 -0.004634662 0.057400465
000100 9c 8c a1 bd 79 95 25 3e 92 6a 78 bd f0 de cd bd
       -0.07888147 0.161703 -0.06064851 -0.100522876
000110 8c f2 5b bb 4d 49 4b bd fe 10 d8 bc ba a8 bc bd
       -0.0033561317 -0.049630452 -0.02637529 -0.092118695
000120 7b 76 fe bd ba 74 0e 3e 5c 0f 39 3d 8d 48 89 3d
       -0.12424942 0.13911715 0.045180663 0.06703291
000130 06 80 23 3e 21 76 86 bd 58 ec 5f 3d 96 29 86 bd
       0.15966806 -0.065655 0.054668754 -0.06550901
000140 75 99 d1 bd 49 fe a8 bc d4 8c d8 3d 5b dc 2a 3d
       -0.10234348 -0.020629065 0.10573736 0.041714054
000150 29 bc 70 3c 6e 51 9a bd 97 db c3 bd dd 0c 87 bd
       0.014693298 -0.07535063 -0.09563368 -0.0659425
000160 e3 1a 50 3a 6b 8a b2 bd 75 b9 41 3c 51 e5 17 be
       0.0007938577 -0.087178074 0.011824002 -0.14833571
000170 f6 38 f0 bb d7 27 d9 bd 11 e4 08 be 7d b6 e6 bc
       -0.007331009 -0.10603302 -0.1336825 -0.028163189
000180 4d 45 c3 bd e4 bb ee bd 36 53 5d bd 07 65 01 bd
       -0.095347025 -0.11656931 -0.054034434 -0.031590488
000190 eb 8f 0e 3c 01 a2 08 bd 98 5c 3a bd f4 17 97 3c
       0.008701305 -0.033357624 -0.04549846 0.018444039
0001a0 08 1d 3f be 60 a5 96 bc d5 e8 61 bc 6a 68 98 bc
       -0.18663418 -0.018389404 -0.013788422 -0.018604476
0001b0 4c b0 28 3d c6 70 51 bc 80 49 53 bd 09 42 01 bd
       0.041183755 -0.012783235 -0.051583767 -0.031557117
0001c0 8a 29 85 3d b5 fd 43 bc 96 a9 a8 bd 07 30 29 3d
       0.065020636 -0.011962344 -0.08235471 0.041305568
0001d0 bf 39 3d 3d 77 5c cf 3d 0f b9 cf 3c d8 89 9f 3d
       0.04619765 0.10125058 0.025356798 0.077899635
0001e0 d9 b0 65 bd 6c fa 76 bd 0e 06 46 be be 2a 80 3d
       -0.05607686 -0.060297415 -0.19338247 0.062581524
0001f0 21 ec fc ba 32 56 d9 bd e8 bc 86 3c db 90 ee bd
       -0.0019296446 -0.106121436 0.0164475 -0.11648723
000200 cb 8f eb bd 42 d4 77 bb 18 ac 9b 3d c1 63 cc bd
       -0.11502036 -0.0037815724 0.07601184 -0.09979964
000210 6f 97 58 3d 2f c6 1e bd c2 96 6b be bb 64 30 3c
       0.052878793 -0.03876322 -0.23006728 0.0107662035
000220 78 76 26 3d 8e 23 92 3d a1 6e df 3d e0 21 56 bd
       0.040640324 0.07135688 0.10909773 -0.0522784
000230 ff 5b f3 3d e0 a8 3f b8 8b a9 eb 3c 56 8f 67 bc
       0.11882781 -4.5695226e-05 0.028767368 -0.014133295
000240 a7 32 26 3d b9 8d 3e 3d b9 b7 d6 3d 11 f0 fb bd
       0.04057565 0.046521876 0.10484261 -0.123016484
000250 1c 3e 92 3c 23 75 02 3e af 4a c9 bd 42 a2 18 3e
       0.017851882 0.12739997 -0.09828698 0.14905646
000260 59 da bf 3d 67 fb 3f be c7 1c 0e bd 91 f0 eb bd
       0.093678184 -0.18748246 -0.034695413 -0.11520494
000270 a7 05 97 bd 71 74 86 bd b3 95 0c 3e ba 7e 61 3d
       -0.07374125 -0.06565178 0.1372898 0.055052496
000280 f9 96 3e bd 1d c8 e8 3c 6c 0b 3f 3c 00 7e 4d bd
       -0.046530697 0.028415734 0.011660438 -0.05016899
000290 2b 25 2b 3e 1f 42 14 3e 28 02 35 bd d5 91 36 3c
       0.16713397 0.14478348 -0.04419151 0.0111431675
0002a0 30 4c 1b 3c 1d 94 0d bd d6 ac 1c bd 95 8b c6 bc
       0.009478614 -0.03456508 -0.038250767 -0.02423648
0002b0 8b ee 15 be 52 03 cd 3c c3 60 87 bd d4 a9 5a 3d
       -0.14641778 0.025025997 -0.06610253 0.053384617
0002c0 17 3e b3 bd dc 70 ab bd 27 8d 79 3e 60 2a 38 3c
       -0.08752077 -0.083711356 0.24370252 0.011240572
0002d0 80 0e 12 bd ad 7d b2 3d e8 db 3c bd 30 a3 d1 bd
       -0.03565836 0.08715377 -0.046108156 -0.10236204
0002e0 7d c2 9e bc fc f2 c7 bd 89 05 83 bd 12 c3 1c be
       -0.019379849 -0.097631425 -0.0639754 -0.15308788
0002f0 f6 9b 2a 3d 7a a9 e7 bd d8 3d cd bd c0 77 48 3d
       0.041652642 -0.11311622 -0.100215614 0.048942327
000300 ab c7 d0 3c b7 03 1f be 1d ac bf bd cf 36 3a 3e
       0.025485834 -0.15528761 -0.09359 0.1818497
000310 74 e7 78 bd f3 08 38 3d 7a c4 cc 3d e6 e5 65 ba
       -0.060767606 0.04493041 0.099984124 -0.0008769914
000320 3a c9 08 3d d2 fd 93 3d bf fc 54 bd ce ac 2e 3e
       0.03339503 0.07226147 -0.05199885 0.17058107
000330 c3 63 07 bd e9 fb 71 3d 53 70 87 3d 5b ce de 3d
       -0.033054125 0.05907813 0.06613221 0.10879203
000340 f9 d8 eb bd 5e 88 05 3d 36 e4 96 3d fd ca e3 bd
       -0.115159936 0.032600753 0.073677465 -0.11122701
000350 d8 6e b0 3d 35 6a 04 bd a4 ff 36 be 84 da bf bd
       0.08614892 -0.03232785 -0.17870957 -0.093678504
000360 eb ba 1c 3d 84 6b b2 3d 5d 84 72 bd 96 31 fe 3c
       0.038264196 0.08711913 -0.059208263 0.031029504
000370 53 13 a4 bc 90 09 18 bd 55 87 7f 3d ef 8f 0f be
       -0.020028746 -0.037118495 0.062384922 -0.1401975
000380 c4 e8 8e bd f4 d5 06 be 36 48 53 bd 40 11 86 bc
       -0.0697799 -0.13167554 -0.051582538 -0.016365647
000390 15 bc 81 3d 3c ec 38 bc 24 eb 19 bc e7 37 c5 ba
       0.06334702 -0.011286791 -0.009394441 -0.0015046567
0003a0 26 7a 98 3d 41 a2 6e bd 82 af d3 bd 7b 0f 07 3d
       0.07445173 -0.058260206 -0.1033621 0.032973748
0003b0 4d 32 68 3c 72 27 2a 3e dc 1c da 3c c4 ee aa 3c
       0.014172149 0.1661661 0.02662509 0.020865805
0003c0 5a d3 00 3d e6 b9 1c bd 6a eb ff 3c 96 a0 85 bd
       0.03145156 -0.038263224 0.031240184 -0.0652477
0003d0 d7 a4 2a 3e 50 9b 22 be 81 c3 e8 3c e8 c9 de bc
       0.16664444 -0.1587956 0.028413536 -0.027195886
0003e0 96 00 7a 3d e2 60 c3 bd d2 66 9b 3d fd 5b d2 3b
       0.061035715 -0.09539963 0.07587971 0.0064196573
0003f0 ef 30 b2 3d c7 bb 96 bd b2 aa e9 3d 88 55 48 3b
       0.087007396 -0.073600344 0.11409511 0.0030568559

conv3.bias f4 [32]
000000 a5 02 93 bd 1b c5 be bc bc b6 52 3c 26 0c 20 bd
       -0.07178239 -0.023287347 0.01286095 -0.039074086
000010 3c 94 8f bc 89 f9 3d 3c 0a e5 8e bd 0c 3f 89 bc
       -0.017526738 0.011595138 -0.069772795 -0.016753696
000020 16 e7 79 3d e4 ca d2 bc b9 28 83 bc 90 2a 2d bd
       0.061011396 -0.025731511 -0.016010629 -0.04227692
000030 d4 5e f2 bc 4b a0 b1 bd 52 a5 2a bc 27 5f 1a bd
       -0.029586233 -0.086731516 -0.010415392 -0.0376884
000040 2e f7 24 3c 9d fd 87 3c fa e8 d2 bd 74 0e 51 bc
       0.010068698 0.016600424 -0.10298343 -0.012759794
000050 f3 e7 d8 3d fb 08 82 bd bf c4 a4 bd 10 4c a8 3d
       0.10591116 -0.06349369 -0.08045339 0.08217633
000060 47 ec 78 3c 43 cb a6 bc 73 b5 94 bc f8 95 c0 3d
       0.015193052 -0.020360595 -0.018152928 0.09403604
000070 b7 7c 45 bc e5 ef c9 bc 27 43 22 bd ea 95 a3 bc
       -0.01205366 -0.024650523 -0.039614823 -0.019968946

bn1.weight f4 [16]
000000 40 df 85 3f 82 a0 87 3f 00 2c 80 3f ae e2 66 3f
       1.0458755 1.0595858 1.0013428 0.90189636
000010 f9 bb 7b 3f d1 72 81 3f 35 31 81 3f a4 84 7c 3f
       0.983337 1.0113164 1.0093142 0.98639894
000020 3c 94 83 3f 2d a7 6b 3f 69 66 81 3f d0 4c 80 3f
       1.0279613 0.92051965 1.0109378 1.0023441
000030 29 aa 7c 3f ff a7 6f 3f af 15 6c 3f 25 fb 85 3f
       0.98697144 0.93615717 0.92220587 1.0467268

bn1.bias f4 [16]
000000 de 0f f8 3c 7e 6e 5e 3d 20 bb 88 3c 87 9a 6b 3c
       0.030281004 0.054304592 0.01669079 0.014380104
000010 4c 11 cd 3c 6a b2 75 3b b4 df 06 3d dc 74 90 bc
       0.025032662 0.0037490376 0.032928184 -0.017633848
000020 b2 e9 d4 3c 93 04 a5 3b d4 e5 4f 3c 1e f0 e7 bb
       0.02599034 0.0050359457 0.012689073 -0.0070781847
000030 34 a1 e7 bc 61 f3 92 3c 9d 91 20 bd 4f 0f 54 bc
       -0.02827511 0.017938318 -0.039201368 -0.012943103

bn1.running_mean f4 [16]
000000 70 87 38 3e 1d d5 11 3e f5 70 a2 be 4b 0f 39 3c
       0.18020415 0.14241453 -0.31726804 0.01129515
000010 37 7f 6f 3d 91 04 57 be c1 a8 2b bd e6 59 83 be
       0.05847093 -0.20997836 -0.041908983 -0.25654525
000020 f0 38 bf 3c bf db 19 3d c1 fd 31 3e 8d a6 e1 3d
       0.02334258 0.03756308 0.17381956 0.11018095
000030 ad 72 9f be b4 bb a9 3b cc c6 53 bd 78 dc d7 3d
       -0.31142178 0.0051798467 -0.05170326 0.10540098

bn1.running_var f4 [16]
000000 4c 37 25 3e e1 6d 25 3e 71 d4 e3 3e ec 61 d4 3c
       0.16134375 0.16155197 0.44498017 0.025925599
000010 26 e4 71 3d 7e aa c1 3d 90 dd be 3c a7 e1 c3 3e
       0.05905547 0.09456347 0.023299009 0.38258097
000020 ab 7f 02 3d cd 48 ab 3c c2 1f 6f 3d df ac 26 3d
       0.031860035 0.020908738 0.058379896 0.040692206
000030 0c 45 f0 3e d0 01 df 3c 7e 52 60 3c d2 3d d5 3d
       0.4692768 0.027222544 0.013691543 0.10412182

bn2.weight f4 [32]
000000 90 a3 81 3f 60 6d 84 3f 80 f4 86 3f b0 81 7e 3f
       1.012804 1.0345879 1.0543365 0.9941664
000010 bf d1 80 3f 74 66 71 3f fe c6 7a 3f 15 2e 82 3f
       1.006401 0.94296956 0.9795989 1.0170313
000020 21 9e 7b 3f 46 33 81 3f 68 cf 83 3f bd 55 86 3f
       0.9828816 1.0093772 1.029767 1.0494915
000030 9a 9c 81 3f e1 64 7e 3f e7 69 87 3f c9 1a 7e 3f
       1.0125916 0.9937268 1.0579194 0.9925962
000040 5d 7e 75 3f 01 8b 80 3f c1 4e 73 3f 2e 14 6a 3f
       0.9589594 1.0042421 0.95042044 0.9143704
000050 a6 7b 7c 3f 22 b7 7e 3f a8 42 7a 3f ea b3 76 3f
       0.9862617 0.9949819 0.9775796 0.9636828
000060 d6 d2 80 3f 44 72 72 3f 7a 52 82 3f b4 61 83 3f
       1.0064342 0.94705606 1.018142 1.0264192
000070 59 91 82 3f 75 56 84 3f b1 3e 7f 3f 4e 70 78 3f
       1.0200607 1.0338885 0.99705034 0.97046363

bn2.bias f4 [32]
000000 af e7 fc 3c c7 75 f9 3c 82 68 c4 3c 3e f4 af 3b
       0.030872194 0.030451668 0.023975614 0.005369692
000010 9c ab 80 3b 99 0a 87 bc 46 56 19 bc 5b 61 e3 3c
       0.0039267074 -0.016484546 -0.009358948 0.027756384
000020 9f 47 76 3b 81 cf 5b 3b 23 35 b9 3c e7 f6 4c bc
       0.003757931 0.003354043 0.022608345 -0.012510038
000030 8a 6e 89 3d e7 9e bd 3c f5 51 0f 3c 48 c3 0a 3c
       0.06710537 0.02314706 0.008747567 0.00846941
000040 97 f2 6c bc e0 a6 d9 3c d9 eb f2 bc f5 f5 b9 bb
       -0.014462135 0.02656883 -0.029653477 -0.0056750723
000050 ea 88 b5 3c e6 dd 35 3b a6 a2 71 bc f8 32 d8 bc
       0.022160012 0.002775067 -0.014748251 -0.026391491
000060 1c ba 94 3c b1 c6 c6 bc af 1e 96 ba 58 7d 58 bc
       0.01815515 -0.024264665 -0.0011453236 -0.013213478
000070 1d a0 bc 3b 39 11 c0 3c 96 34 6b 3c 7e 49 18 3a
       0.0057563917 0.023445712 0.014355799 0.0005809291

bn2.running_mean f4 [32]
000000 4b 30 a8 bd 19 5c 2c bc 0d 98 46 3f 56 d3 04 3f
       -0.08212336 -0.010520005 0.7757576 0.51884973
000010 db 9a 7f 3e 90 af d5 be 71 36 89 3e c1 0d 12 3f
       0.24961416 -0.41735506 0.26799348 0.57052237
000020 a9 c7 b9 bf 5d 15 10 bd 10 31 4b 3e a9 cf b6 3e
       -1.4514056 -0.035176624 0.19842935 0.35705307
000030 25 71 45 3e d4 0c cc 3e 1b 99 1a 3e d4 bf 5f bf
       0.19281442 0.39853537 0.15097468 -0.8740208
000040 62 93 9c be 51 09 ad 3e 2b 45 81 be be 02 d3 be
       -0.30581194 0.3379617 -0.25248083 -0.4121303
000050 ab a7 4a bf 70 50 5c 3e 14 31 28 bf c8 aa 65 3e
       -0.7916209 0.2151506 -0.6569989 0.22428429
000060 a2 76 01 3f ee ea da 3e 82 e2 10 bd a9 b7 c0 3e
       0.50571644 0.42757362 -0.035372265 0.37640122
000070 f3 0a 8a 3f f0 24 01 3f ca a6 ca 3c e2 82 cd 3d
       1.0784591 0.5044699 0.024737734 0.100347295

bn2.running_var f4 [32]
000000 9b 50 04 40 db 92 37 40 94 45 8f 40 d1 ce ea 3f
       2.0674198 2.8683383 4.4772434 1.8344365
000010 0e da 09 40 be 54 93 3f c8 b7 48 3f 2c 56 1d 40
       2.153934 1.1510236 0.7840543 2.4583845
000020 0d d6 cb 40 8d b4 dc 3f b1 76 a7 3f 0d 5d 71 40
       6.3698792 1.72426 1.3083097 3.7713044
000030 5d ab a4 3f f6 98 cd 3f 1d fc 8e 3f cc dd 1b 40
       1.2864796 1.6062305 1.1170689 2.4354124
000040 07 70 a4 3f 2e 8f 93 3f a6 e3 9e 3f 50 35 61 3f
       1.2846688 1.152807 1.2413223 0.87971973
000050 fb d0 c6 3f 74 af 06 40 d8 7a 01 40 72 4f 6f 3f
       1.5532526 2.1044588 2.0231228 0.934806
000060 e3 16 10 40 f3 18 45 3f 4a e7 88 3f 1f 75 79 3f
       2.251397 0.76991194 1.0695584 0.9744434
000070 d8 a1 b5 40 ac 30 87 40 13 6a 08 40 9c d9 51 3f
       5.6760063 4.2246914 2.1314743 0.8197267

bn3.weight f4 [32]
000000 3a fd 59 3f 63 46 4a 3f d1 b3 53 3f 22 dd 36 3f
       0.8515202 0.7901365 0.82696253 0.7143117
000010 3e 11 4e 3f 91 4a 3f 3f 1a cd 56 3f dd 41 42 3f
       0.8049506 0.74723154 0.8390671 0.7588175
000020 16 1f 57 3f 05 06 43 3f 85 92 62 3f 0e 19 44 3f
       0.8403181 0.7618106 0.8850482 0.7660073
000030 4f 17 51 3f be 48 46 3f 06 98 59 3f ad b5 41 3f
       0.8167619 0.77454746 0.84997594 0.7566784
000040 16 15 56 3f 90 a3 5f 3f f1 97 53 3f ca b6 49 3f
       0.83625925 0.8735895 0.8265372 0.7879454
000050 be 9a 49 3f 31 73 5c 3f 61 2f 4c 3f 25 a0 58 3f
       0.7875174 0.8611327 0.79759794 0.8461936
000060 65 fc 63 3f ce 01 53 3f 0a 16 57 3f ea d8 5e 3f
       0.89057 0.8242463 0.84018004 0.87049735
000070 f7 43 2f 3f 4e 67 51 3f b6 17 6b 3f ce 7e 5b 3f
       0.6846308 0.81798255 0.91833055 0.85740364

bn3.bias f4 [32]
000000 28 3b 07 be bd cb 39 be 35 54 fd bd 30 1e 4b be
       -0.1320616 -0.18144126 -0.12369577 -0.19835734
000010 e6 6e 01 be 99 09 5f be e8 61 26 be 93 f5 0f be
       -0.1263996 -0.21781005 -0.16248286 -0.14058523
000020 ce 8c 1e be 6e 6c 45 be 7b 52 c3 bd 06 46 55 be
       -0.154834 -0.19279644 -0.09537216 -0.20827493
000030 bf 58 c6 bd ee a8 41 be c5 ad e3 bd 1e bb 21 be
       -0.09684896 -0.18912098 -0.11117128 -0.15794036
000040 d9 4b 9b bd 1b 9c f4 bd cc 5c f6 bd b6 b2 e0 bd
       -0.07582826 -0.11943837 -0.12029418 -0.109715864
000050 35 7a 0f be b9 eb f2 bd 64 77 34 be 09 65 e0 bd
       -0.14011462 -0.11861367 -0.17623669 -0.10956771
000060 7f f9 b3 bd 69 59 ca bd e0 16 03 be a0 f1 bb bd
       -0.08787822 -0.09880335 -0.12801695 -0.09176946
000070 21 2a 9c be 79 e2 24 be 3d 93 73 bd d3 0b d1 bd
       -0.30500892 -0.16102017 -0.05946659 -0.102073334

bn3.running_mean f4 [32]
000000 21 80 b8 bf 7f c2 4b bf e6 5a 6f 3f 67 56 31 bf
       -1.4414102 -0.7959365 0.93498075 -0.69272465
000010 71 ac 82 3c 2a d6 73 bf 1f 2d ed bf 6c 30 1d 40
       0.015951367 -0.95248663 -1.8529395 2.4560804
000020 80 9a 23 3d 25 c7 aa bf f5 9e e7 bf 66 e9 1b c0
       0.039942265 -1.3342024 -1.8095385 -2.4361205
000030 96 b0 57 3f b9 2e 72 bf 8f 9f 94 bf 7c 6d 70 bf
       0.84253824 -0.94602543 -1.1611193 -0.9391706
000040 20 48 f9 3d ba 0a 4f 3e 96 6d a6 3f 2f 31 9a 3e
       0.1217196 0.20218936 1.3002193 0.3011565
000050 08 75 7a bf 75 b8 0a c0 e0 be 4c bf dd f3 f9 3f
       -0.97834826 -2.1675084 -0.7997875 1.9527546
000060 63 ee 30 be 5a a5 d9 3f 4f 7e d8 bf 46 8b 82 be
       -0.17278437 1.7003586 -1.6913546 -0.25496882
000070 59 35 50 bf d8 0e d7 bf b6 80 fc bf 28 91 4b 3f
       -0.813314 -1.6801405 -1.972678 0.79518366

bn3.running_var f4 [32]
000000 49 ae 1f 41 a6 fe 84 40 80 bb 06 41 df a9 12 40
       9.98005 4.156085 8.420776 2.291618
000010 7e c4 86 40 ba 2b d5 40 77 2a 3b 41 4a 6a 45 41
       4.211486 6.6615877 11.697867 12.3384495
000020 08 99 02 41 a9 4d 9a 40 09 d1 46 41 b3 f3 8e 41
       8.162361 4.82198 12.426034 17.868994
000030 28 d8 d1 40 a9 1b a2 40 b1 f2 9a 40 2a ab 30 40
       6.5576363 5.0658765 4.8421254 2.760447
000040 8f 96 89 40 21 f0 2d 40 cd 76 d9 40 9a 9f 57 40
       4.2996287 2.7177813 6.795752 3.3691163
000050 f4 66 7b 40 5e af 5f 41 b9 18 ca 40 29 78 9c 41
       3.9281588 13.980314 6.315518 19.558672
000060 06 2a 6c 40 43 b4 11 41 d0 d3 47 41 fe c2 7f 40
       3.690065 9.106509 12.489212 3.9962764
000070 b4 1d 88 40 5a fb 47 41 3a 71 2c 41 1c 00 18 41
       4.253626 12.498865 10.777643 9.500027

fc10.weight f4 [4, 2048]
000000 ba 27 a1 3c f5 49 eb 3c 32 18 51 3d 34 cf 71 3d
       0.019672263 0.028721789 0.051048465 0.059035495
000010 63 b5 47 bd cd 47 a3 3b fb 86 fc 3b bb 97 22 3d
       -0.04875697 0.0049829246 0.0077065206 0.039695483
000020 9b 57 03 bd ea 6c 32 3d 9d f2 f1 bc fa 87 47 3b
       -0.03206597 0.0435609 -0.029534632 0.0030446039
000030 1a 1c 97 bd e8 ef 8e 3c 95 3b 8c bc 2c 24 09 bd
       -0.07378407 0.01744838 -0.017118255 -0.03348176
000040 0e bd 90 bc 3d ab b2 bc aa c0 b9 bc 90 10 bf 3c
       -0.017668273 -0.021810168 -0.022674877 0.023323327
000050 32 3c 6d bc 16 23 82 bc 1b d8 a4 3c ad 5a 53 3c
       -0.014479684 -0.01588587 0.020122578 0.012900037
000060 cf 61 65 3c 2c 43 b2 3c 11 15 a6 bd dc c1 90 bc
       0.01400037 0.021760546 -0.08109487 -0.017670564
000070 1b e5 91 3d c1 e4 99 bd 2d 6f 2d 3c b8 14 ee 3c
       0.071237765 -0.075143345 0.010585588 0.029062614
000080 dd 30 46 bb 86 b4 de 3c c3 bf a9 bc 01 62 88 3c
       -0.0030241527 0.02718569 -0.020721322 0.016648294
000090 7e 97 0c bd 4b b5 19 3d 37 1a da bc e0 ab 8c 3c
       -0.03432416 0.03752641 -0.026623828 0.0171718
0000a0 4e c0 5c ba fb b6 13 bd de e4 0c bd bf a4 af 3c
       -0.00084209896 -0.036063176 -0.034397952 0.021440862
0000b0 d5 67 29 bc e4 c0 a1 b7 95 1a 96 3a 9b da 81 bb
       -0.010339697 -1.9282517e-05 0.0011452014 -0.0039628274
0000c0 ab 6a a2 bb 5d 13 27 3d e7 3c 37 3c 0e 44 5d 3c
       -0.0049565635 0.04078995 0.011183954 0.013504995
0000d0 ac d4 92 bd b2 4a 3e bd b2 96 3d bc 21 15 31 3d
       -0.0716947 -0.046457954 -0.011571573 0.04323304
0000e0 c5 47 42 3d 6c 43 3c bd 34 38 d2 3c ef e9 7e 3c
       0.047431726 -0.045962736 0.025661565 0.015558704
0000f0 96 c9 f7 3c cf 6e 8b bc 28 12 3e 3d e2 52 15 3c
       0.03024749 -0.017020611 0.046404034 0.009113999
000100 69 96 3a 3d 4a 5a 95 3c ee ba 92 bb 6a 6f 93 bc
       0.0455536 0.01823153 -0.00447785 -0.017997462
000110 f9 75 0e bc 01 fe 35 3c cd b6 5c 3c 5e 1c 39 3d
       -0.008695119 0.0111079225 0.0134713175 0.04519307
000120 8a f4 0d 3d 86 a2 3d bc 08 a2 02 bc 8e b7 b7 3c
       0.03465704 -0.011574393 -0.007973202 0.022426393
000130 c2 93 4e 3b 15 18 e4 bb 29 6c 67 bc 14 b6 a9 3b
       0.0031521176 -0.0069608786 -0.0141249085 0.005179176
000140 f1 fc 8d 3c 02 30 03 3c de 18 bf bc 2e a9 64 3c
       0.017332526 0.008007051 -0.023327287 0.013956351
000150 3d 04 3c 3c a3 9a 75 3c d9 e3 84 3c c0 8b b1 3c
       0.01147562 0.014990482 0.016221927 0.021673083
000160 cf 13 37 3d 66 bc 1e 3c da 01 3f 3d d3 3c 39 bc
       0.044696625 0.009688472 0.046632625 -0.0113060055
000170 fb a2 17 3d da 9f a0 3b 75 5e 82 3c 92 ce 51 bc
       0.037020665 0.0049018683 0.015914181 -0.012805598
000180 ae 0b 40 bd dd 51 f3 bc 12 a6 e6 bb bc e4 6e 3d
       -0.04688614 -0.029702121 -0.00703884 0.058323607
000190 2f 95 52 bd 72 51 59 3c 20 fc 0a ba a5 0a 66 3d
       -0.051411804 0.013264047 -0.0005301852 0.056162495
0001a0 7e f4 81 bc a1 94 7f 3c e1 74 9e bc e5 0c 0f bc
       -0.015863653 0.015599401 -0.019342842 -0.008731102
0001b0 46 61 e1 3b 61 4c ef bb 5f 55 09 3d 0a a0 d9 3c
       0.006878051 -0.0073028062 0.03352868 0.02656557
0001c0 55 a8 05 bd 4e 11 35 bd 08 2e 93 3c ae 3d bc 3b
       -0.032631237 -0.044205956 0.017966285 0.0057446575
0001d0 20 02 c3 39 90 ca e5 bb d9 64 27 bd d3 e8 6f bc
       0.00037194882 -0.0070126727 -0.04086766 -0.014642912
0001e0 30 de fc b9 b3 ea d1 bc b3 87 58 3c 74 b8 07 bd
       -0.00048230728 -0.025624609 0.013215947 -0.033134893
0001f0 28 c0 35 bc c3 1b 89 3c 98 2f c7 39 9b 36 34 bb
       -0.011093177 0.01673687 0.00037991698 -0.0027498368
000200 e2 0c 8c 3a 78 54 57 bc ae e5 d3 bc 82 97 17 bd
       0.0010684992 -0.0131426975 -0.025866356 -0.037009723
000210 fa a9 d4 3c 60 91 6b bc f3 0e eb 3c d3 fb 34 3d
       0.025959957 -0.014377922 0.028693652 0.04418547
000220 bb d3 6b 3c ca b7 bb 3c 12 fc f6 bc 6e 45 14 bc
       0.014393742 0.022914786 -0.030149493 -0.009049756
000230 87 6e 81 bc 65 bd 03 3c b1 f9 0b 3d 31 36 9f 3c
       -0.015799774 0.008040761 0.03417367 0.01943502
000240 3b 07 7d bb a1 82 37 3d c9 ce 6c 3c ac 15 72 bc
       -0.0038609046 0.04480231 0.014453598 -0.014775675
000250 48 d6 2a bb 15 26 32 bc be bf d3 bc 07 85 3f bd
       -0.0026067663 -0.010873337 -0.025848266 -0.046757724
000260 57 dd aa 3d 63 31 4f bb f1 c3 ac 3c 04 f1 70 3c
       0.083429985 -0.003161513 0.021089526 0.0147059
000270 f6 74 24 3c fe 23 ae 3c f6 b0 73 bc 2a 1a 8d 39
       0.010037651 0.021257397 -0.014873734 0.0002691311
000280 96 5c 88 3c ed 93 c3 3b c0 dc 0a 3d 4f b5 82 bb
       0.01664571 0.005968562 0.03390193 -0.003988899
000290 de e6 f2 bb 30 13 eb 3a a2 af 84 3c e9 3b 32 3b
       -0.0074127754 0.0017934795 0.01619703 0.0027196354
0002a0 25 be 3a bd f4 5c a1 3c 7f 56 18 3d 1d 53 b0 3b
       -0.045591492 0.019697644 0.037191864 0.0053810016
0002b0 a4 dc d7 3c bc c4 08 3d a9 92 c2 3c fd 2c 1a 3d
       0.026350327 0.033390746 0.023751574 0.03764056
0002c0 b8 bf 85 bd c9 9c 49 3d 59 71 3e bd be da 55 bb
       -0.06530708 0.049221788 -0.046494815 -0.0032631601
0002d0 51 5a fe bc 96 bf 1f 3c 0a cc 71 3d 58 21 61 3e
       -0.031048926 0.0097502675 0.059032477 0.21985376
0002e0 dd d9 b6 bc f0 be 78 3c 1f 28 aa 3a 2d 3e 1b bd
       -0.022320682 0.015182242 0.0012981928 -0.037901092
0002f0 5c 5f 11 bb 2a 4c 5b 3d 80 55 84 bc 02 e2 69 be
       -0.0022182083 0.053539433 -0.01615405 -0.22840121
000300 15 29 de bb 5b 6d 02 3c 28 9f bb 3c f2 a9 da ba
       -0.0067797997 0.007960643 0.02290304 -0.0016682728
000310 69 84 38 bb 7a a5 5f 3d c2 95 0d bd 40 ac 12 bc
       -0.0028155094 0.05460117 -0.03456665 -0.0089522
000320 24 3f 6d bd 22 fe 6e bc a0 df da 39 0f 5f d6 bc
       -0.057921544 -0.014586957 0.00041746814 -0.026168374
000330 0d 35 d3 3a d0 e0 bc ba f7 05 9c 3c 3a b9 29 3c
       0.0016113833 -0.0014410261 0.019045813 0.010359103
000340 54 ce a0 bc ca f4 01 bc 93 1c 41 3c 8c b9 39 3c
       -0.019629635 -0.007931897 0.011786598 0.011335742
000350 aa 80 a2 bb c7 f0 93 3c 73 dc eb bb 7d ec 59 3c
       -0.0049591856 0.018059148 -0.0071979105 0.013301012
000360 c1 1c 82 3b a1 7e 1c bc 5a 0b a8 3c a2 37 13 3c
       0.003970713 -0.009551675 0.020513225 0.008985432
000370 d9 f7 5a 3b fe 65 2b bb ff ff 85 bc 95 77 a0 ba
       0.003341189 -0.0026153321 -0.01635742 -0.001224267
000380 e8 6c 91 3d 2d 30 bf 3a 8e a3 c0 bb c3 62 97 bb
       0.0710085 0.0014586501 -0.0058788722 -0.0046199276
000390 df d8 50 bb b5 2f 94 bc 8e 8d 38 3b fc f0 ad 3c
       -0.0031867546 -0.018089155 0.0028160545 0.021233074
0003a0 ac 5f 21 bd 37 74 39 bc 79 eb 8f bb 3c e6 b2 bc
       -0.03939788 -0.011319212 -0.004392084 -0.0218383
0003b0 75 0f 98 bb c9 e0 f3 3d 6d 84 73 3d ce 98 bc bc
       -0.0046405145 0.11908109 0.059452463 -0.023022082
0003c0 ea a8 33 be 10 07 e3 bb 7e cc f4 3c 79 95 a1 3a
       -0.17544904 -0.006928332 0.029882666 0.0012327872
0003d0 30 4e 77 3c 2b c6 81 bd 87 ac d1 bc 28 a5 9b 3a
       0.015094325 -0.06336626 -0.025594963 0.0011874782
0003e0 c7 3b 4e 3d 8b ce d0 bb 02 d7 44 3b 0e 39 c2 3b
       0.050349977 -0.006372278 0.0030035381 0.0059272116
0003f0 6f ee 8b 3c 32 17 72 3c 17 96 3e 3d 81 66 09 bd
       0.017081467 0.014776038 0.046529856 -0.03354502

fc10.bias f4 [4]
000000 56 09 14 3a d2 79 86 3b 8d e4 e6 3a cb 08 09 3b
       0.0005647143 0.0041038776 0.0017615721 0.0020909782

fc11.weight f4 [4, 2048]
000000 89 17 57 bc 0d c0 9d 3b c1 f1 ff bc 42 6d 27 bd
       -0.01312817 0.004814154 -0.031243207 -0.04087568
000010 9c 6a 8d 3c e6 b3 95 bc 4e 4b b2 bd 89 12 ab 3b
       0.01726275 -0.018274259 -0.087057695 0.0052207154
000020 91 3f a6 bc 83 76 21 3d a2 14 89 bc 68 d1 11 bd
       -0.020293983 0.039419662 -0.016733471 -0.035600096
000030 ac cc 4c bd 78 73 98 ba 77 db 7f ba 4b a6 cf bc
       -0.049999878 -0.0011631092 -0.0009760181 -0.02534785
000040 f2 e9 54 3c e1 ee 21 bd da 3b b1 39 9e 9d 8f bd
       0.01299523 -0.039534453 0.00033804664 -0.07012485
000050 a8 2c 50 3c 17 79 10 3b ea 53 97 bc bb 33 80 3d
       0.012705959 0.0022044831 -0.01847263 0.06259867
000060 27 d8 4c bd c3 d8 a5 bd d5 0c 55 bc 6e dd 63 3c
       -0.050010826 -0.08097985 -0.013003548 0.013907773
000070 ac 7b 4c 3a 5b ce ae bc 81 d9 70 bc bc f6 38 bd
       0.0007800411 -0.021338632 -0.0147002945 -0.04515718
000080 e0 77 01 bd 56 70 81 bc b4 91 d0 3c 30 7a 49 3c
       -0.031608462 -0.015800636 0.025460102 0.012297198
000090 a2 58 a1 3c d8 91 8c 3b 03 c9 ae 3b 1c 6a c8 bc
       0.019695584 0.004289847 0.005334021 -0.02446466
0000a0 b9 3d 2d bd cd 61 03 bd 9f c3 90 bc f1 2f 8f bd
       -0.04229519 -0.032075692 -0.017671404 -0.06991566
0000b0 d9 be e9 bb c2 a0 d6 bb 38 3e 05 bc 77 25 90 bd
       -0.0071333465 -0.0065499255 -0.00813251 -0.07038396
0000c0 de 95 b3 bc b6 c2 bc bb 2e 41 51 bd f3 45 95 3d
       -0.021922048 -0.005760516 -0.05108755 0.072887324
0000d0 a8 57 b4 3d 2c 92 e2 bc 8a 2a bb bc 6d d8 6f 3d
       0.088057816 -0.02765759 -0.022847433 0.05855601
0000e0 ff ed 26 3b 87 3e 80 3c 24 e2 7b 3c 38 51 30 3c
       0.0025471447 0.015654815 0.01537374 0.010761552
0000f0 8c f6 ed 3c 2d fe ab bc d4 89 16 bd 03 46 0e bd
       0.029048227 -0.020995224 -0.036752537 -0.034734737
000100 0d aa 42 bd 9f 5d 01 bc fe 76 10 3c 4e 0e d2 bc
       -0.047525454 -0.007895856 0.008817432 -0.025641587
000110 8b fe c0 bc 8f 38 2c bd c8 d3 20 bc cc 6c 7d 3c
       -0.023558876 -0.042046126 -0.009816118 0.015467834
000120 27 30 e9 bc 72 26 8b bb 35 e0 53 bd 71 73 12 bd
       -0.028465344 -0.0042465264 -0.051727492 -0.035754625
000130 4f 10 13 bc 27 cf f7 bc 31 b1 1e bd 08 ad 4e bd
       -0.008976056 -0.030250145 -0.0387432 -0.050457984
000140 bf c1 2e bd b1 92 e3 bb 9f 32 f4 bb 82 8e 2b bd
       -0.04266524 -0.006944977 -0.0074523236 -0.041883953
000150 e2 c7 bc bc a0 03 bd bd 09 0a 75 bd 73 e5 96 3c
       -0.02304453 -0.09229207 -0.059824023 0.018419957
000160 0d 41 a8 3b 87 27 36 bd 4c 76 9a bc c6 37 c8 ba
       0.005134708 -0.04447129 -0.018855236 -0.0015275411
000170 4d 31 99 bc d0 0c cd bc ad e4 62 b9 7f 31 48 bd
       -0.018700266 -0.025030524 -0.00021638228 -0.04887533
000180 99 75 ca 3a 8b 5c b0 3b 19 d4 d6 bc 15 4f 48 bd
       0.0015446424 0.0053821257 -0.026224183 -0.048903544
000190 6c c6 34 3d 9d 2f 15 bd 3e 14 73 bb 57 5d 9c 3c
       0.044134542 -0.03642236 -0.0037090923 0.019087477
0001a0 c0 c7 ed bd 03 1f 9c 3a df 16 d2 3b b1 7f 17 3c
       -0.11610365 0.0011911098 0.006411418 0.009246753
0001b0 ea b7 98 bd e8 e7 f1 bc 19 a7 26 3d f5 27 10 3c
       -0.07456954 -0.029529527 0.0406867 0.008798589
0001c0 30 23 44 bd 73 00 9b bc f2 71 99 bd b1 3f 40 bb
       -0.04788512 -0.018921113 -0.074924365 -0.0029334838
0001d0 ab 19 a9 bd df c9 69 3c 80 6f 0b 3d 3c af 2e ba
       -0.08256849 0.014269321 0.03404188 -0.0006663685
0001e0 bb de 4f bd df 91 21 bd d8 f8 6c bc 1b 4b 52 3d
       -0.05074952 -0.039445754 -0.014463626 0.051341157
0001f0 5c 75 8a 3b 07 26 6d bd 1f 66 b3 3d 2b 59 d4 3c
       0.004225416 -0.057897594 0.087597124 0.025921425
000200 af d0 30 bd a6 85 53 bc c6 89 db bc 75 f5 b3 bb
       -0.043167766 -0.012910282 -0.026799094 -0.0054919072
000210 6b c7 fb bb f0 04 1c 3d 36 52 9c bb 49 7b 52 bb
       -0.0076836846 0.038090646 -0.0047705425 -0.003211694
000220 c1 9f 6b 3c 1d 5d 9f bd 41 fd 92 bc ac 61 cc bc
       0.01438135 -0.07781432 -0.017943026 -0.024948917
000230 24 c1 5f 3d be 30 31 bd 2b 15 18 3d 79 d4 d6 bc
       0.054627553 -0.043259375 0.037129562 -0.026224362
000240 bb 14 af 3c d7 6e bb 3a f8 7f d9 3c 1c 8e 16 bd
       0.02137219 0.0014300001 0.026550278 -0.03675662
000250 72 21 94 bc 4f f1 42 bd 1c c6 1b bd 78 84 d1 3c
       -0.018082354 -0.04759341 -0.03803073 0.025575861
000260 da 00 f4 3b ee 68 1c bc 03 f4 c4 3a 59 70 14 3d
       0.0074463906 -0.009546502 0.0015026334 0.036239956
000270 15 f0 06 3c ab 21 cb 3c 7b a6 ee 3a 25 f3 0e bc
       0.008235951 0.024796328 0.0018207574 -0.008724962
000280 4c d4 0a 3d 84 35 b8 bd f6 82 38 bb 1d 7c 97 bb
       0.03389387 -0.08994582 -0.002815423 -0.0046229498
000290 13 31 4e 3c 21 e0 0d bd 1c db 64 3d 63 f0 2f 3d
       0.012584942 -0.034637574 0.05587302 0.04295386
0002a0 67 c2 1f 3c 2b 3d d9 bc ee 20 48 bc c4 bd 07 bd
       0.009750939 -0.026518425 -0.012214882 -0.03313996
0002b0 3c 30 88 bc 5f 19 92 3c 43 7a a4 bb eb 54 f3 bc
       -0.016624562 0.017834364 -0.0050194575 -0.029703578
0002c0 ea b4 37 bd 7d 6e 03 3e ad b8 d6 3b f6 3d 4b 3c
       -0.044850267 0.12835117 0.006552777 0.012404909
0002d0 c6 71 01 bc d4 02 06 3c 8f c5 59 3d 8a 39 7b bc
       -0.007900661 0.008179385 0.053166922 -0.015333543
0002e0 3e b8 93 3d 28 f7 c7 3d e1 25 43 3d e9 01 68 3c
       0.07212876 0.09763938 0.047643546 0.014160612
0002f0 00 4e 55 3c 9b 32 99 bc 4b 1e 10 bb 0b 80 51 3d
       0.013019085 -0.018700888 -0.0021990712 0.051147502
000300 79 65 d7 bd ff db 23 3d df 93 7d 3d 80 35 9d 3c
       -0.10517401 0.040004726 0.0619086 0.01919055
000310 a5 1c 39 bd 14 1e ff bb 9c e8 d7 3c db 82 c5 3c
       -0.045193333 -0.007785568 0.026356034 0.024110248
000320 01 aa 5c bd 7d 48 d7 bb 40 c8 c3 bc ab af eb bc
       -0.053873066 -0.0065699206 -0.023899198 -0.028770288
000330 e7 21 47 3b 16 ad 9e bd 3c 4d 40 bc 58 73 02 3d
       0.0030385198 -0.07747857 -0.011737164 0.03184828
000340 76 c7 f5 bc 93 74 55 bd 16 5c 9a 3c 9b 4a 26 3c
       -0.030002337 -0.052113127 0.018842738 0.010149623
000350 a2 8a 7b bd b3 d5 8a 3b 16 0e a9 3c 2c 8d 15 bd
       -0.061411507 0.0042369007 0.0206366 -0.036511585
000360 c8 c4 e2 ba de 86 2e bc 0e 6e 87 bc fa 98 3a bd
       -0.0017301077 -0.010652272 -0.01653197 -0.045556046
000370 24 40 16 bd cb 45 41 bc 82 ce fe 36 c9 e6 22 3d
       -0.036682263 -0.011796425 7.5938306e-06 0.039770875
000380 4b 7f 81 3b c1 fd 8f bc de 89 5a 3b 78 69 e5 bc
       0.003951942 -0.017577054 0.0033346335 -0.028004393
000390 9c 66 ed 3b d1 57 4d bb b9 fe 95 bc 08 47 12 bd
       0.007244898 -0.003133286 -0.018309938 -0.035712272
0003a0 b9 1b 00 bd 1c 65 6f 3d af fa 1c 3c 0a 6e 27 bd
       -0.03127644 0.058446035 0.009581252 -0.040876426
0003b0 18 81 02 bd 7f 3b c1 3b 14 36 0d bd 74 74 b1 bc
       -0.031861395 0.005896985 -0.0344754 -0.021661974
0003c0 f4 ba 89 3b 37 1b 1a 3d ba ad bc 3c 1a 90 ad bc
       0.0042031948 0.03762361 0.023032058 -0.021186877
0003d0 18 be 71 bc bf bb 0f bd 14 3a b1 bd 7f d8 e5 3c
       -0.014754795 -0.035091158 -0.08653656 0.028057335
0003e0 ae 18 81 bc 30 17 2b bd e2 b3 9c bc 48 80 22 3c
       -0.015758839 -0.04177016 -0.019128744 0.00991828
0003f0 62 72 a5 3c fb e0 03 bd cf 12 94 bc 06 ef ff bb
       0.020196144 -0.03219698 -0.018075375 -0.0078104762

fc11.bias f4 [4]
000000 f2 0b b9 bc d8 e3 93 bc 6b 18 a5 bc 1b 3c bb bc
       -0.022588704 -0.01805298 -0.020153245 -0.022855809

fc3.weight f4 [512, 4]
000000 e1 34 80 be 3b 6c 17 be 57 71 a9 be 31 af 22 3f
       -0.25040343 -0.1478738 -0.33094284 0.6354857
000010 1b f6 80 3f 60 fe 92 3f f5 3d 38 3f 13 69 b3 3f
       1.0075105 1.1483879 0.7196954 1.4016441
000020 ce f8 4d bf ef a1 9f bd 48 f6 e5 3e 84 66 ba 3f
       -0.8045777 -0.07794558 0.4491446 1.4562535
000030 e8 03 1b be 6f 5c 29 3f 34 b0 18 3f 89 c9 c4 be
       -0.15138209 0.6615667 0.59643865 -0.3843501
000040 7c f7 be 3e 99 58 17 3f 5d 05 b8 bd 2f 12 ad 3e
       0.3729819 0.59119564 -0.08985398 0.33802935
000050 cb f3 bc 3e 21 83 f3 3c a9 09 f1 3d f4 2f b5 be
       0.3690475 0.029725613 0.11769421 -0.35388148
000060 5a 94 35 bf d1 b0 25 bf 1c 0e 19 3f d5 79 af 3d
       -0.7092949 -0.64722925 0.59787154 0.085681595
000070 26 6e 1a be e0 50 01 3f 45 11 6f be 5a cc 93 bd
       -0.15081081 0.5051403 -0.23346432 -0.07216711
000080 f2 27 12 40 e3 17 06 bd 95 3b 91 3e 7b 36 8d 3e
       2.283688 -0.032737624 0.2836577 0.27580628
000090 85 fe 98 bf 1f d4 92 bf 53 c3 9d 3e b8 07 0f bf
       -1.1952673 -1.1470984 0.30813083 -0.5587115
0000a0 d4 ab 36 be 66 af f4 be 78 c2 1c bf d2 39 5b bf
       -0.17838985 -0.47790068 -0.61234236 -0.856351
0000b0 ff b6 e3 3f 84 e5 30 bf e6 c1 8a bf d5 b1 65 bd
       1.7790221 -0.69100213 -1.0840423 -0.056077797
0000c0 c0 42 71 bf 9b 03 7a 3e c5 17 54 3f b8 36 21 3f
       -0.9424248 0.24415438 0.8284877 0.6297412
0000d0 fe fd bb 3c 9f ad 20 be ff b8 c0 bc eb 8c c9 3e
       0.022948261 -0.15691231 -0.023525713 0.39365324
0000e0 c1 16 10 be f1 75 c6 3e 33 a8 e2 bc fd f9 42 3e
       -0.1407118 0.38761857 -0.027668094 0.19040675
0000f0 ce af 9c bf 8a 31 eb be 5c ab 97 3e 8c ba 03 bf
       -1.2241151 -0.45936233 0.29622924 -0.5145652
000100 01 9c aa 3e 0e 72 50 bf 48 18 ee be 6a bb 4e be
       0.33322147 -0.81424034 -0.465029 -0.2018868
000110 aa 11 1b bf 2f 59 96 bf b2 4a b0 be 5d d7 de 3e
       -0.6057383 -1.1745967 -0.34431988 0.43523684
000120 1f 0b 80 bd 0b 97 d3 be 96 00 b0 3f 9f 08 8d 3c
       -0.06252121 -0.41326174 1.3750179 0.017216025
000130 d3 fb b0 bd cc f7 3b 3c 3b aa 26 3f 2a 91 34 3d
       -0.08641782 0.011472654 0.651035 0.04408375
000140 00 58 2e 3e 34 89 ca bc 92 1f b1 be 43 14 92 be
       0.17025757 -0.024723627 -0.345944 -0.28531083
000150 35 09 33 3e e1 17 6f bf 48 7b 27 bf f5 09 a8 be
       0.17483981 -0.9339581 -0.6542249 -0.32820097
000160 74 f7 94 be 70 ec 9f be e1 bd 4a bf a9 6b 24 bf
       -0.29095042 -0.31235075 -0.7919598 -0.64226776
000170 e7 3b d6 be 91 84 11 bf 85 1b 58 bf 94 d4 87 bf
       -0.41842577 -0.56842905 -0.8441699 -1.0611749
000180 c6 4c e7 3c 5a dd c5 3f af 12 7d 3e bf 07 2b 3e
       0.02823485 1.5458176 0.24714158 0.16702174
000190 3c c8 87 bf 78 02 3c be 85 bc 8e be 8d 35 a7 bf
       -1.0607982 -0.18360317 -0.27878204 -1.3063217
0001a0 38 6b 3b 3e 7f 76 31 bf 16 7f 9d 3f 16 d3 1c 3e
       0.1830262 -0.69321436 1.2304409 0.15314898
0001b0 28 7a 3a bc 10 03 26 be 6e 38 bd 3e ed 0d 62 3d
       -0.011381663 -0.16212106 0.36957115 0.055189062
0001c0 7c 07 c5 3d 48 9d 7f 3e 46 b5 6a 3f 0c 29 e0 3e
       0.09620568 0.24962342 0.9168285 0.43781316
0001d0 65 47 c3 3e 26 af 81 3f be f2 a9 3e 2a f0 c1 3f
       0.38140407 1.0131576 0.3319301 1.5151417
0001e0 56 a7 ec be fd 22 47 bf 3b 09 6f be b3 8b 6a bd
       -0.46221417 -0.7778776 -0.23343365 -0.057262134
0001f0 fb bc 17 3f 4e ce 35 be 05 77 a7 3e 76 13 07 40
       0.59272736 -0.1775448 0.32707992 2.1105628
000200 df fc 57 bf 16 25 e1 be e1 28 51 bf ca a0 0f 3f
       -0.84370226 -0.43973607 -0.81703 0.5610472
000210 78 42 d7 3e a6 e5 43 bf d8 24 8e be a0 7e 6b be
       0.420429 -0.7652229 -0.27762485 -0.22997522
000220 b5 38 05 3e e7 36 d8 be 3b 9f 43 be e7 96 18 be
       0.13009913 -0.42229387 -0.1910371 -0.14901315
000230 2a fe 05 3f b1 37 a9 3f 15 02 92 be 87 1d a2 3e
       0.5234095 1.3220121 -0.28517213 0.31663153
000240 f1 53 6c 3d 4a 10 fc 3e 79 ba 1c 3e 06 25 5b be
       0.05769724 0.49231178 0.15305509 -0.21400842
000250 e2 66 df 3e e8 9a a1 bc 15 bd 75 3e 1b 50 0f bf
       0.4363318 -0.019727185 0.2399791 -0.55981606
000260 75 75 d3 bb 49 b5 21 3f 22 9d 10 3e 1a 8e 6d be
       -0.006453211 0.63167244 0.14122441 -0.23198739
000270 42 f4 a1 be 72 3a 19 bf 59 d6 bd be 1f 50 dd be
       -0.31631666 -0.59854805 -0.37077597 -0.4322519
000280 15 b3 36 be 2d c3 d8 3e 9b b8 a8 bd 77 60 a6 3f
       -0.17841752 0.42336407 -0.08238336 1.2998189
000290 5a ad 9e be 2b bb 22 bf 56 db 90 be 1b f3 97 bf
       -0.30991632 -0.63566846 -0.2829234 -1.1871065
0002a0 43 ad f4 be eb e2 69 bf ce a9 4f bf 68 07 48 3e
       -0.47788438 -0.91361874 -0.81118476 0.19534075
0002b0 b4 dc ed 3e 26 9c 6e bf 5e 6b e1 be 67 b5 0d be
       0.46457446 -0.93207014 -0.44027227 -0.13838731
0002c0 f0 37 c5 3e ba 91 a0 bf 61 7d f8 be e7 07 8c be
       0.3851924 -1.2544472 -0.48533157 -0.2734978
0002d0 f9 78 35 3f 4f 1a 88 3d 5b 76 58 3f 2f 44 8a 3d
       0.70887715 0.06645643 0.84555596 0.06751286
0002e0 a5 90 25 bf df 95 50 be 68 f1 99 be 24 01 1a 3f
       -0.64673835 -0.20369671 -0.3006699 0.6015799
0002f0 20 fb f4 bc c9 8d 60 3e 5d 49 00 3f cf 94 77 bf
       -0.029904902 0.21929087 0.50111943 -0.9671144
000300 fe 4a bd 3f 3b 03 96 3e 09 1a 04 bf ef 89 53 be
       1.4788511 0.2929934 -0.51602226 -0.20658086
000310 f2 9e a1 bf f7 d8 4c bf 08 e7 97 be f2 0a 81 3e
       -1.2626631 -0.8001856 -0.2966845 0.25203663
000320 25 d5 f2 3e 85 4c b4 be 1a 60 22 bf dd 5d 32 bd
       0.4742824 -0.3521463 -0.6342789 -0.043546546
000330 9f c8 23 3f c7 5a ef be f1 a7 38 3e 32 1b db bc
       0.63978 -0.46748945 0.18032815 -0.026746366
000340 32 e8 9f 3e 44 eb c4 3d 97 9f 4c 3d 1e 0e d9 3c
       0.31231838 0.09615186 0.049956884 0.02649599
000350 62 11 a1 bd 6b 9f a8 bf b5 17 37 be 05 e2 36 be
       -0.07864644 -1.317365 -0.17880137 -0.17859657
000360 59 b8 01 3f 21 c0 be 3c a7 02 12 3e 7a 92 c2 3d
       0.5067192 0.023284974 0.14258824 0.095005944
000370 9c 53 5a be a5 01 5a bf 43 da 73 3f da 35 89 bf
       -0.21320957 -0.8515876 0.95254916 -1.0719559
000380 5a d9 98 3f 68 e3 cc 3f 10 ee 4c 3f 57 7d 02 3f
       1.194133 1.6006899 0.80050755 0.50972503
000390 09 d5 81 bf 53 0c 8a be 36 e0 8d be 6f fe c4 be
       -1.0143138 -0.26962528 -0.27710122 -0.38475367
0003a0 19 28 af 3d 2a 3e a6 3e d1 de 5d be 73 b7 40 3e
       0.0855257 0.32469302 -0.21667029 0.1881998
0003b0 5f e9 fa be 84 d5 02 bf ff 0b 8f be af 79 ad bd
       -0.49006173 -0.5110705 -0.2793884 -0.08470475
0003c0 c0 18 28 40 6d 25 8d 3f 8c 4f 4b 3f 80 00 87 3e
       2.6265106 1.1027046 0.79418254 0.2636757
0003d0 c0 48 9d bf 7d 7b 8a bf 36 85 3e bf 43 e4 ca bd
       -1.2287827 -1.0818936 -0.74422014 -0.09906819
0003e0 db 3f a8 be 0c c5 35 bd ca 6a 4d bf 6f dc 59 3d
       -0.32861218 -0.04437737 -0.8024107 0.053188737
0003f0 ee 1b 14 3f 5e ec a4 bf 22 cb 7f be e2 5f a7 3f
       0.5785512 -1.2884634 -0.24979833 1.3076136
