saved_models_2D/dataset_acc/VAE_folds/CVAE2D_4_5_100_200_fold_4.pth (torch, 243348 bytes, 37 tensors)

conv1.weight f4 [16, 1, 3, 3]
000000 b9 6c ff 3d ec 25 17 bf 46 5b 51 be 6f 3e 04 3e
       0.12471909 -0.5904224 -0.20444974 0.12914442
000010 9f 9a c3 be ea ed 83 be a9 03 c4 be d5 e0 94 3f
       -0.38203904 -0.25767452 -0.38284042 1.1631113
000020 7c 33 53 bc c4 ba 84 3f 0a 4c ba 3e b3 ae 1e bf
       -0.012890693 1.0369496 0.36386138 -0.6198532
000030 0b b2 06 3f 5d ce a4 3f 6d 01 a4 3e c1 c7 45 bf
       0.5261542 1.2875477 0.32032338 -0.77257925
000040 a8 ea 50 be 85 81 0d bf b4 e9 0e 3d 6f fc 1c 3e
       -0.20402014 -0.55275756 0.034890845 0.15330671
000050 f3 1d 61 3f 85 3a 2f 3e bd df 06 bf 24 53 4c 3f
       0.87936324 0.17112167 -0.5268515 0.7981436
000060 97 e0 09 3e 92 d0 00 3d 4f 51 9d be b8 d2 8e be
       0.1346458 0.03144891 -0.30726096 -0.2789514
000070 56 a8 28 bf 8c c9 d5 bd 58 20 9f be 3b 1d db bd
       -0.6588186 -0.10438833 -0.31079364 -0.10698935
000080 7b 03 ce 3f 37 0d e5 3d bd b7 ba be 28 0d 05 be
       1.6094812 0.11184161 -0.36468306 -0.129933
000090 8f 1e 9e be 6b 62 c7 bd 44 b5 11 3f 60 98 74 bf
       -0.3088269 -0.097355686 0.56917214 -0.95545006
0000a0 68 fe 89 3e 71 9b d8 bd c9 3d 60 bd 06 f5 a3 bf
       0.2695191 -0.10576523 -0.054746423 -1.280915
0000b0 07 f7 11 bf 84 81 85 bf 57 bb 69 bf 09 64 8c bd
       -0.5701756 -1.043015 -0.9130148 -0.06855018
0000c0 5c 79 0a be ed b5 3c be 85 b6 ef be 46 88 ba 3e
       -0.13522857 -0.18428774 -0.4681894 0.36432093
0000d0 86 6c ad 3d 9c 8f 2d 3f 2b 64 ae 3e a0 4f 9e be
       0.08467965 0.67797256 0.34060797 -0.30920124
0000e0 85 8b ab 3c 4d 13 2f 3e 10 a5 60 3e 12 20 8d 3f
       0.020940552 0.17097206 0.21937966 1.1025412
0000f0 78 e3 ac be 27 6c f9 3e 63 a9 07 3f c0 a0 8d 3e
       -0.33767295 0.48715326 0.5299284 0.27661705
000100 ee 80 66 be 7a 4f d1 be d9 91 e8 3e d7 97 98 bd
       -0.2251012 -0.40880948 0.45423773 -0.07450836
000110 bd 71 17 be fc a2 7a 3e e9 9b b5 3e c3 23 00 3f
       -0.14789481 0.24476236 0.35470513 0.5005457
000120 84 31 54 bf 97 0b ff be 30 78 63 bf 76 2b 3b 3e
       -0.82888055 -0.4981353 -0.88855267 0.18278298
000130 00 4b 24 bf 0f 74 14 bf 65 df f6 be 8e 02 bf 3e
       -0.6417694 -0.5798959 -0.48217312 0.37306637
000140 00 05 30 3e 56 4f a3 3d 3c 6b 47 bf 67 11 14 bf
       0.17189407 0.079741165 -0.77898 -0.57839054
000150 93 7d a2 bf 54 83 6d be 1b 70 2a 3f 48 1e 88 be
       -1.2694572 -0.23194629 0.6657731 -0.26585603
000160 b1 6f c9 3e e9 94 5d 3f 94 25 ee bd eb 1f 3f bf
       0.39343026 0.86555344 -0.11628261 -0.7465808
000170 dd e4 e6 be 14 6a 2a bf be 8b 10 3e c1 19 35 bf
       -0.45096484 -0.6656811 0.14115807 -0.7074242
000180 6a 48 24 3c bf 69 0b be c7 bb 0c 3f e1 ee 20 be
       0.0100270305 -0.13614558 0.54974025 -0.15716125
000190 9e 29 0b bf 64 e6 d7 be dc 37 fe be 66 39 9a 3e
       -0.5436038 -0.42167962 -0.49651992 0.30121917
0001a0 4e 7b 4e be 84 c0 4c 3f 75 4f 05 be 02 72 37 be
       -0.20164225 0.79981256 -0.13018592 -0.17914584
0001b0 01 10 a7 be 3d e8 9c be 68 c1 cb 3e 44 f8 81 be
       -0.32629398 -0.30645934 0.39795995 -0.25384724
0001c0 14 70 a4 3d 35 b3 c1 be 20 b4 3d 3f 18 5e 2a bf
       0.0802919 -0.37832037 0.74102974 -0.66549826
0001d0 5f 41 76 be 1c 8c b4 3e f0 eb 37 3f 46 4a 96 3d
       -0.24048375 0.35263145 0.7184439 0.07338385
0001e0 38 b9 3c bf 97 c2 75 be 74 4d 0a be 63 c9 fc 3e
       -0.7372012 -0.24000011 -0.13506109 0.49372396
0001f0 ca a4 7e bf 3c e5 56 bf 5d e2 2e bf 8f af cb be
       -0.994702 -0.83943534 -0.6831415 -0.39782378
000200 5d e9 0b 3e 94 ca 75 bc bb a0 98 be ae fb 0a 3f
       0.1366324 -0.015001912 -0.29810128 0.5429028
000210 fb 99 1a be 02 47 98 be 4a 83 9d 3e 78 d4 c0 3e
       -0.15097801 -0.29741675 0.30764228 0.376621
000220 cb c5 76 be 96 8f b6 be 43 49 3d be 01 2f b6 3e
       -0.2409889 -0.35656422 -0.18484978 0.35582736
000230 6c 86 e8 3e ed b0 2e 3e 33 a6 58 3e d5 d3 ad 3e
       0.45415056 0.1705968 0.2115715 0.33950678

conv1.bias f4 [16]
000000 05 8c 59 bc 8d 32 a0 3c 99 37 ca 3c 66 1c 0a bc
       -0.013278012 0.019555354 0.024684714 -0.008429622
000010 90 0c 00 3d 78 d4 22 3c f1 e0 17 bc 77 85 be bd
       0.03126198 0.009938352 -0.009269939 -0.093028
000020 2b 62 41 3c c6 7a a6 3b 2c 9a 1b bd 5d 1e db bd
       0.01180319 0.0050805537 -0.037988827 -0.10699151
000030 b9 02 ce 3a 55 16 84 bd 4b 2c 51 3d 40 06 88 3d
       0.0015717364 -0.06449572 0.05106763 0.06641817

conv2.weight f4 [32, 16, 3, 3]
000000 b8 81 9b bd f5 1c d2 3d af 16 90 bd 59 8b 50 bd
       -0.07593101 0.10259429 -0.070355766 -0.050914142
000010 5a 85 04 be b1 34 62 bd e0 8c 30 bd 44 ea e3 3d
       -0.12941495 -0.05522603 -0.0431031 0.11128667
000020 e2 5c f4 bc 12 ec ba 3d 4c d7 51 3e d9 6d 0f be
       -0.029829446 0.09127058 0.20492285 -0.14006747
000030 31 c8 ac 3d a7 aa c2 3d 41 61 20 3d 2b 9b 28 3d
       0.08436621 0.095052056 0.03915525 0.041163605
000040 a7 aa 91 3d 54 c8 93 bd 38 7d a9 bd 15 21 21 3d
       0.071126275 -0.07215944 -0.08275837 0.03933819
000050 3a 88 b9 3c ff 3f 23 3e 01 65 63 3b be be 8b 3b
       0.022647966 0.15942381 0.0034697654 0.0042646816
000060 cb c0 0a bd 1c 71 01 bd f2 dc d6 3d e4 33 a3 3d
       -0.033875268 -0.03160201 0.10491361 0.07968882
000070 33 9e 9f bd 9c 32 32 3d e3 df 85 3d a7 6b a1 be
       -0.07793846 0.043505296 0.06536844 -0.31527445
000080 a9 2a 78 3e 4d 32 6c bd 38 51 48 be a9 82 2f 3d
       0.24235024 -0.057665158 -0.19562232 0.042849217
000090 59 d0 f1 bb 4a 10 e5 3d c5 49 1f bd 39 2e af bd
       -0.0073795733 0.111847475 -0.03888871 -0.08553738
0000a0 4c 21 d6 3d af a7 ce bd c0 30 40 3e 73 99 3b 3e
       0.104555696 -0.10090577 0.18768597 0.18320255
0000b0 18 2c 06 3e 76 54 ca bd 99 ac ec bc ed 3e b5 3d
       0.13102758 -0.09879391 -0.028890895 0.08849893
0000c0 b1 57 86 bd 26 a0 c9 bd 0d 44 b8 3c 85 7a 36 be
       -0.065596946 -0.09844999 0.022493387 -0.17820175
0000d0 22 5d 3a 3e bf 07 bf 3d 1b f1 1e 3d 31 b4 9a 3d
       0.1819959 0.09327649 0.038804155 0.075539
0000e0 a5 73 f1 bb eb 13 92 3d 63 53 7d 3c 4d 0c 5c be
       -0.007368522 0.07132705 0.0154617755 -0.21489067
0000f0 27 de 71 bc 3b 88 6a 3e 4c de 1b bd 28 e0 b1 3d
       -0.014762438 0.2290353 -0.038053796 0.086853325
000100 dc ce b9 bd 49 30 93 bb 06 8b b0 bb 62 fe a4 bc
       -0.090726584 -0.00449184 -0.0053876666 -0.02014083
000110 ed 1c a7 bd 9c 1f fb 3c 65 cf b9 3d 12 41 dd bc
       -0.08159814 0.030654721 0.090727605 -0.027008567
000120 9e c0 e3 bc 46 bd 30 be 4d 11 9a bc c5 a0 ff 3c
       -0.027801808 -0.17259702 -0.018807078 0.03120459
000130 45 3f 43 3e 1d 01 0c 3d 85 e8 06 be fd 0d 4c 3e
       0.19067104 0.03418075 -0.13174637 0.19927211
000140 14 e0 32 be 12 1b 14 3e 54 d3 4c be 3b d4 48 be
       -0.17468292 0.14463452 -0.2000249 -0.1961221
000150 fe 35 eb 3b 2a 91 35 be f3 84 0c bc 31 12 14 be
       0.007178067 -0.17731157 -0.008576619 -0.14460064
000160 d6 d4 14 3e 11 ee f8 3d 0a 8e ae bb f8 5a 2b 3e
       0.14534315 0.121547826 -0.005326991 0.1673392
000170 cc 3f 72 3d 1c 24 86 be 4c 4d c8 bd 96 8a 77 3d
       0.059142873 -0.26199424 -0.09780368 0.0604349
000180 7a d0 5b 3e 8b 20 6e be c0 74 9b bc c8 bf b2 3d
       0.21466246 -0.23254602 -0.01897657 0.087279856
000190 d2 61 0e 3d 77 b3 d2 3d 75 3a d2 bd 0e ab ed 3d
       0.034761257 0.102881365 -0.10265056 0.11604892
0001a0 13 2d 78 bc d6 a6 7a bd 2a 0f 7c 3d 87 da f1 bc
       -0.015147465 -0.061194263 0.0615379 -0.029523147
0001b0 fa d4 8f 3d 00 e7 bc bd ad 05 39 3d 88 33 d8 3c
       0.07023044 -0.09223747 0.04517143 0.02639176
0001c0 fc aa a1 b9 3f 52 1a 3e 34 98 43 3c f1 fb 04 3e
       -0.00030835706 0.15070437 0.0119381435 0.12986733
0001d0 9c 73 56 3e 61 59 f0 bd 19 de aa 3d 4a 58 d7 bd
       0.20942539 -0.11735798 0.08343143 -0.10514887
0001e0 d6 44 16 3e e3 56 b5 bd 26 ec e2 3d bd a4 12 3e
       0.14674696 -0.08854463 0.11080198 0.14320655
0001f0 9e eb c0 bb 6d 69 c8 bd 17 ad 21 bd 15 86 9b be
       -0.0058874628 -0.09785733 -0.039471712 -0.30375734
000200 db 4c fc bd 8b 9a df bd 33 4c 27 be d6 d7 a2 3d
       -0.123193465 -0.109181486 -0.16337661 0.07951324
000210 85 a4 3a bd ce 04 6b 3d 14 d9 ed 3b c7 c1 0d bb
       -0.045567054 0.05737763 0.0072585437 -0.0021630393
000220 d2 75 95 3d 5b 6f 29 be 36 f6 9a 3d 9d 37 42 bd
       0.07297863 -0.16546385 0.07566492 -0.04741632
000230 47 5e 93 bb 58 bb 63 be 92 09 df bd 3e 63 a1 be
       -0.0044973227 -0.22239435 -0.10890497 -0.31521028
000240 60 6d 45 3c 72 df dd 3b bf 39 90 3e 01 ac c8 bd
       0.012050003 0.0067710215 0.28169057 -0.09798432
000250 97 50 15 bb 51 46 03 3e 5d 82 59 3d 67 68 d1 bb
       -0.002278363 0.12819792 0.05310284 -0.0063906196
000260 d4 af 08 3d 3e 8c 0a bd 60 b1 fd bc 43 77 9a be
       0.033370808 -0.03382515 -0.030968368 -0.30169114
000270 1e 46 a8 bd 8b 87 f1 3d 1f 35 fb bc b8 17 0e be
       -0.08216499 0.11793431 -0.030664979 -0.13876235
000280 c3 9b 42 3c 4a 1c 99 3d 20 27 4b be 59 94 a5 bd
       0.011877957 0.07476099 -0.19839144 -0.08084936
000290 fd af 4f be 11 2d 28 bd a6 9c 0a 3e 29 62 6f bd
       -0.20281978 -0.041058604 0.13536319 -0.058443222
0002a0 51 bc 8d be 1e a9 63 3c f2 6d 15 3e fe 18 7b bd
       -0.27682737 0.013895301 0.14592722 -0.06130313
0002b0 11 49 a2 be 45 4b 33 3e ae e1 91 bd 59 17 c6 bc
       -0.3169637 0.17509182 -0.07123123 -0.024181055
0002c0 51 4e f1 bd a3 09 37 bd b5 57 09 3d 78 82 fb 3c
       -0.11782516 -0.044686925 0.03353091 0.03070186
0002d0 5a c8 11 3d a2 ec 75 3b 5d a0 a9 3c f7 83 01 bd
       0.03559146 0.0037525077 0.02070635 -0.031619992
0002e0 b4 de b5 bd 42 ba bf bb d2 09 db bc 03 63 ab bd
       -0.08880368 -0.005851061 -0.026738081 -0.08368494
0002f0 2d 7a 8a 3d 49 39 19 be 5f d3 9d 3c 02 2b 29 bc
       0.067615844 -0.14963259 0.019265829 -0.010325195
000300 4f af 28 3e 69 da 86 3d 7c d9 0a be f1 69 1b ba
       0.16473125 0.06584627 -0.13559526 -0.0005928567
000310 44 af 7e bd 52 fe a9 3d 90 e6 ff 3c ed e6 92 3d
       -0.062178865 0.08300461 0.03123787 0.07172952
000320 37 8c e9 bd 7b 4d e2 3d 00 26 aa bc be a9 61 3c
       -0.11403697 0.110499345 -0.020770073 0.01377338
000330 4d c3 94 be e2 b4 37 be 82 e6 a1 bd 3d 5b e3 3c
       -0.29055253 -0.17940095 -0.07905294 0.027753467
000340 7c f5 6b 3d 16 61 19 3e c1 44 60 bd 6b 9a 01 be
       0.05760716 0.14978442 -0.05475307 -0.12656562
000350 ce b3 90 3c db e5 a7 bd 4a 49 18 3c 60 63 6c bd
       0.017663863 -0.08198138 0.009294817 -0.05771196
000360 4c 50 3b be 21 de 54 3d 3a 27 82 3e 8b 28 af 3d
       -0.1829235 0.05196965 0.25420552 0.08552655
000370 16 5c 9c bd 0c d8 31 bd 84 ff 6d bd fb f0 a5 bd
       -0.076347515 -0.04341893 -0.058105007 -0.08102604
000380 b9 4b 6f 3d 71 71 18 3e f1 70 21 3e d1 44 8f 3b
       0.058421824 0.14887024 0.1576574 0.004372217
000390 b6 92 73 3c fe 4e 23 3d c7 fd 01 be 02 9a 4b 3e
       0.014866522 0.039870255 -0.12694465 0.19882968
0003a0 76 56 e8 3d 78 9f 27 be 22 51 69 be 4c fc 33 be
       0.11344616 -0.16369426 -0.22784856 -0.17576712
0003b0 e9 03 db 3d 61 e4 e8 3d 4a 6f a7 3d 4a 0b 03 3e
       0.10694105 0.11371685 0.081755236 0.12797275
0003c0 70 44 ca bc 3c a5 9a bd 73 ab 17 3e 0d 88 3c 3e
       -0.024690837 -0.07551047 0.14811496 0.18411274
0003d0 c3 7a 0b 3d 79 37 17 3e 57 f9 01 3d ec 49 12 3e
       0.03405262 0.14767255 0.03173193 0.14286011
0003e0 19 ab 4d 3b 23 83 fd bc b3 78 88 3d 7c 57 90 bc
       0.00313825 -0.03094632 0.066636465 -0.01761984
0003f0 64 19 28 3e 5b 75 18 3e 3a 30 83 3d f4 c3 01 3e
       0.16415936 0.14888518 0.06405683 0.12672406

conv2.bias f4 [32]
000000 ef e2 0d bb f8 6c 44 3d da 59 eb 3c 7a 6e 2d bd
       -0.0021650156 0.047955483 0.028729368 -0.042341687
000010 67 66 b3 b9 ec 75 7c bd 2e 49 8a 3d b1 b3 ce 3a
       -0.00034217836 -0.061635897 0.06752239 0.0015770105
000020 cb c6 55 3d 10 93 8d 3d ea 31 09 3d d9 b3 84 bc
       0.052191537 0.069128156 0.033494867 -0.01619904
000030 89 be 2f bc f0 3b 53 3d 94 8c a8 bc a7 14 6d bd
       -0.010726579 0.051570833 -0.020574845 -0.057881024
000040 78 aa e4 bc c5 7d de 3c 70 a0 e9 3c b7 ad 3a bd
       -0.027913317 0.027159581 0.028518885 -0.045575824
000050 a8 ad 9f 3c 4b a9 69 bd 25 9e 43 3d d9 c6 b3 bc
       0.019491985 -0.057046216 0.04775824 -0.021945404
000060 bd 20 c4 3c e5 1c e6 bc 9c a2 98 3d 38 0f 1a bd
       0.023941392 -0.02808995 0.0745289 -0.03761217
000070 2c 3f ae 3d a8 ce b5 bc 4e d3 23 3d 70 3c d1 3b
       0.08508143 -0.022193268 0.039996438 0.0063853785

conv3.weight f4 [32, 32, 3, 3]
000000 88 6f b4 bd 2b 17 8a 3d b6 90 73 bb 10 66 d2 bc
       -0.088103354 0.067427 -0.0037165112 -0.025683433
000010 2e 86 43 3e 5a d7 a9 bc 5e dd 9a bc ef e6 15 3e
       0.19094154 -0.02073257 -0.018904384 0.14638875
000020 e3 5f 97 bc d3 10 27 3e da 99 8b bc 3a f1 43 bc
       -0.01847834 0.16315012 -0.017041136 -0.011959368
000030 f1 49 01 3e db 48 1a bc 07 c0 1b 3d 5a 53 7e bc
       0.12625863 -0.009416784 0.03802493 -0.015522802
000040 0f 67 2c bc a9 9a 88 bd b0 9a 5e bc 8c 58 b3 bd
       -0.010522618 -0.06670124 -0.013586685 -0.08757123
000050 84 55 cd bb 9f c6 cf 3d ed 4a 88 bd 08 15 8f 3d
       -0.006266298 0.10145306 -0.06654916 0.06986433
000060 18 90 8b 3d e2 5e ee bd ee ad 00 bd f9 54 6f 3c
       0.06814593 -0.11639191 -0.031415872 0.014607661
000070 91 50 2d be 22 c2 cb 3d 03 60 ee 3c c6 17 a5 bd
       -0.16925265 0.09949137 0.029098516 -0.08061175
000080 65 4e 1d be 16 18 90 3d 92 e9 86 bd 9a 4c 29 bd
       -0.15361936 0.07035844 -0.06587519 -0.04133282
000090 1a a8 f9 bb 37 36 17 3d 0a 5c 3e be d0 09 a6 bc
       -0.007618916 0.036916938 -0.18589798 -0.02026835
0000a0 3c d2 80 3e 4b 6a 4a 3d af d5 e2 3d 4c 4b 7d bc
       0.25160396 0.049417775 0.11075913 -0.015459847
0000b0 f4 1e a7 3c 27 9f db bd 6b 6b 35 bd 35 95 8a 3d
       0.020400502 -0.10723715 -0.044291895 0.0676674
0000c0 5a 76 10 3e 0f b5 bf bc 1c fe cd bd 5b 0e 95 3d
       0.14107648 -0.023401765 -0.10058233 0.07278129
0000d0 d0 07 a5 bb 01 1f ff bd 5c f7 21 3d a2 47 04 3d
       -0.0050363317 -0.124570854 0.03954254 0.032294877
0000e0 ad f3 6b bd 5f 47 e9 bc ab 0b d3 ba 07 8c 37 3e
       -0.057605434 -0.028476415 -0.00161015 0.1792451
0000f0 41 c7 0c 3e fc eb 38 3c da cc bd 3d 3f 15 8a be
       0.13747884 0.011286732 0.09267588 -0.26969334
000100 b2 34 cd bd ca 22 0d bd 71 e1 d5 3d a5 db c4 bc
       -0.100198165 -0.034457006 0.1044339 -0.024030516
000110 55 b8 92 bd ce 0b 17 3c 52 7a 23 3e b8 52 d4 3d
       -0.07164065 0.009219123 0.1596463 0.1036734
000120 0f cd 87 bd e4 5e 56 3c 1b 8f 09 3e 52 c8 94 bc
       -0.06630909 0.013084147 0.13433497 -0.018161926
000130 e3 7d 52 3d 60 76 b2 ba dd 25 44 3e 48 49 52 bd
       0.051389586 -0.0013615601 0.19155069 -0.051339418
000140 be ed ad bd e4 b5 1c 3e bc 90 97 3d c1 03 52 3e
       -0.08492611 0.15303761 0.07400653 0.20509245
000150 73 91 9e bd 4a cd 17 3e 48 77 56 bd 6f ec 95 bd
       -0.07742586 0.14824405 -0.05235985 -0.07320487
000160 d0 14 8a bd 01 4c 0c bd 6c 2c 95 3d fb c5 fb 3c
       -0.06742251 -0.03425217 0.072838634 0.030734053
000170 67 a0 cd 3d 81 cf a9 bc f3 5a bd 39 a9 fb 63 be
       0.1004036 -0.020728828 0.00036116652 -0.2226397
000180 5d a2 22 be 3e 90 5c be 4a b1 a2 3d 3c 50 0f bc
       -0.15882249 -0.21539399 0.079439715 -0.008747157
000190 24 30 fc bc 8d 03 f2 bd a1 a7 15 3e fb 07 e3 3c
       -0.030784674 -0.118170835 0.14614727 0.027713766
0001a0 bb 78 58 3d a0 ac 5b 3b 22 89 59 3d ed 56 8a 3a
       0.052849513 0.003351964 0.053109296 0.001055447
0001b0 14 16 8c 3e 4f d6 26 bd dd dd 84 bd 62 60 0c 3e
       0.27360594 -0.040731724 -0.064876296 0.13708642
0001c0 52 19 7b 3d b1 f4 19 bd 29 d6 88 bd 70 19 54 3d
       0.061303444 -0.03758687 -0.06681473 0.05178207
0001d0 9c 4c 71 bd 2e 98 05 bb de c7 46 bd da d2 f9 3d
       -0.05891095 -0.0020384896 -0.048530452 0.1219842
0001e0 25 a8 d3 3d 3e 39 4d bd 89 cc 2e 3d c1 c9 a6 bd
       0.103348054 -0.05010342 0.04267553 -0.0814395
0001f0 0b 28 43 3d 27 ad 88 bc c0 a4 4f 39 ca fe c7 3c
       0.04764561 -0.016684128 0.00019802433 0.024413485
000200 a9 a6 79 3c 05 66 05 3d 82 10 0b bd ac e9 ab 3d
       0.015237489 0.032567997 -0.03395129 0.08394179
000210 ab a3 ee bc 90 6d de 3d 08 fe 85 bd a2 60 22 3e
       -0.029130777 0.10860741 -0.06542593 0.15857175
000220 4c 21 cf bd 38 33 39 be df 4b 8b 3e db 87 00 bb
       -0.10113773 -0.18085945 0.27206323 -0.0019612226
000230 d8 09 12 bc 8f c9 a6 bd b8 3e 1a bd ec f4 00 3e
       -0.00891348 -0.08143913 -0.03765747 0.1259343
000240 7c 8f 46 3a c2 d4 18 be 6e e2 b5 3d e1 b9 4c bd
       0.00075744814 -0.1492491 0.08881079 -0.049981955
000250 45 7d f9 bd 0d 3d 11 bd 48 65 b1 bd 15 1b f2 3d
       -0.121820964 -0.035458613 -0.08661896 0.11821572
000260 49 52 05 3e be 93 4f be 46 88 05 be 0c f5 f0 bd
       0.1301967 -0.20271203 -0.13040265 -0.11765489
000270 1f b4 84 3e 72 1e 08 be 8a 65 ba bd 6e 99 41 bc
       0.2591867 -0.13292864 -0.09101398 -0.011816366
000280 22 60 71 3d 25 0e d3 bd aa 71 67 3e 22 f3 51 3d
       0.05892957 -0.10305432 0.22601953 0.05125726
000290 9a 0a 66 be a2 77 2b bc 72 76 14 3e 0a 2e 86 bd
       -0.22464982 -0.010465534 0.14498308 -0.0655175
0002a0 85 53 9c bd c6 9e bd 3c 70 58 0a 3e 4c 81 ec 3d
       -0.076331176 0.023146998 0.13510299 0.11548099
0002b0 d1 38 92 bd 47 95 51 bd d1 f0 2d 3d 75 bd e8 3d
       -0.07139743 -0.051167753 0.04246599 0.11364261
0002c0 96 81 83 3d 0e 37 bc 3c e5 38 d9 3c fe 46 e6 bc
       0.06421201 0.02297547 0.026516387 -0.028110024
0002d0 5a 70 7b 3d 79 a7 3a bd 7d ba 46 be 44 e8 98 3d
       0.061386444 -0.04556987 -0.19407077 0.07466176
0002e0 c3 db 06 3e 06 54 8b 3d 6a 47 e7 bd f1 4a 55 bc
       0.1316977 0.068031356 -0.11292918 -0.013018356
0002f0 97 13 0a be 39 86 ee 3d 4a 86 3f be 85 e7 53 3e
       -0.13484035 0.11646695 -0.18703571 0.20693786
000300 0a c8 ad 3d a9 10 c2 3d 78 1c af 3d 99 b8 4e 3c
       0.0848542 0.09475834 0.08550352 0.012617254
000310 6a 8c b4 bd d5 cc e8 bd 9f b1 14 3d c7 d5 97 bc
       -0.08815844 -0.113671936 0.036302205 -0.018534554
000320 d1 a3 06 3e 1b e3 24 be b7 bf d0 3c 9a fd 4f bd
       0.13148428 -0.16102259 0.025482042 -0.050778963
000330 ee 7e da bd 1b 23 13 be 6b ff e4 3c 4f 87 c1 bc
       -0.10668741 -0.1436886 0.027953824 -0.02362409
000340 05 9f ba bc be 38 46 3d 57 e9 1c 3e 7a 31 b4 bd
       -0.022780905 0.048393957 0.15323387 -0.087984994
000350 c3 d4 e3 bc 45 4e 2e be 65 eb 81 bd d9 b1 2f be
       -0.027811414 -0.17022045 -0.06343726 -0.17157687
000360 28 f4 55 3d 7a dd 00 bd 3a 53 ad bd bc e2 0b 3e
       0.0522348 -0.031461217 -0.0846314 0.13660711
000370 b0 26 40 be a9 6f 4a bd 8f 54 19 be ec 0f c8 bd
       -0.18764758 -0.049422894 -0.14973663 -0.09768662
000380 0e d1 73 bd 2e cb 28 bb ef 03 05 be 12 7f dd bd
       -0.059525542 -0.002575587 -0.12989782 -0.10815252
000390 ed 17 ad 3c 39 a0 2a be be bd 65 be 8a 0d 0b 3d
       0.021129573 -0.16662683 -0.22435662 0.03394846
0003a0 94 2e 6c 3d b8 1d e9 bd fd e9 41 bd b7 13 7b bc
       0.057661608 -0.113826215 -0.04734229 -0.015324525
0003b0 bd 77 ae bd a8 4c ea 3d 5e 40 ba bc 3a 15 e9 bd
       -0.08518932 0.11440402 -0.02273577 -0.11381002
0003c0 c9 78 9f bb 39 59 09 bc 56 29 1a bd bf 73 db 3d
       -0.0048666936 -0.008383089 -0.037637077 0.10715436
0003d0 8f 9c fc 3d 05 96 31 be 6d ef bb 3d 33 95 da bd
       0.12334549 -0.17342384 0.09176526 -0.10672989
0003e0 98 aa 41 3d c2 9d a3 3c 25 45 20 be a3 00 bc bc
       0.04728183 0.019972686 -0.15651377 -0.022949522
0003f0 53 2b 30 bd 11 47 b8 bd 5a e8 cd bd bd 23 87 3c
       -0.043010067 -0.0899793 -0.10054083 0.016496534

conv3.bias f4 [32]
000000 ba 7b 6b bd 55 4a 6d bd 61 74 18 3c 71 ef d6 3d
       -0.05749104 -0.057932217 0.009305091 0.104948886
000010 2f 94 85 bd 7c 55 81 3c 71 3b 11 bd 05 b7 ae 3d
       -0.065224044 0.015787832 -0.03545708 0.08531002
000020 14 aa 31 bd fe 48 4e 3d a4 6a ba bc 18 e8 1e 3d
       -0.04337509 0.05036258 -0.022755928 0.03879556
000030 ce 99 b2 bd a7 54 bb ba 54 18 ee bc 1d 08 83 3d
       -0.08720742 -0.0014292196 -0.029064335 0.06398032
000040 85 e0 20 bd 82 35 c1 bd 72 74 9a 3b a4 7c 45 3c
       -0.03927662 -0.09434034 0.0047135884 0.012053642
000050 f0 f0 fc 3c 40 4e 4f 3c f9 d9 fb 3d b0 00 56 bd
       0.030876607 0.012652934 0.12297434 -0.05224675
000060 1e d5 e9 bd b7 c6 98 bd 60 e2 35 3d da 2a 16 bb
       -0.11417602 -0.07459777 0.04440534 -0.0022913725
000070 76 6a 75 bb af 4f 92 bd 6c 4c 9e bd 45 53 34 3d
       -0.003744749 -0.07144105 -0.0772942 0.044024725

bn1.weight f4 [16]
000000 49 5c 63 3f cd 1d 7a 3f 92 ec 83 3f c2 d6 73 3f
       0.8881269 0.9770172 1.030657 0.9524957
000010 b5 da 76 3f d5 9a 75 3f bf 19 8d 3f 1e 5b 84 3f
       0.9642747 0.9593938 1.1023482 1.0340307
000020 59 67 80 3f 71 48 79 3f 52 c3 6d 3f 5c 73 64 3f
       1.0031539 0.9737616 0.9287616 0.89238524
000030 da 9f 6b 3f f7 f8 7a 3f 05 d2 7d 3f c0 5a 86 3f
       0.9204079 0.9803614 0.9914859 1.0496445

bn1.bias f4 [16]
000000 5f 20 4b 3c cc 07 86 bb ce fd 5f 3d f0 9f 23 3c
       0.012397855 -0.004090285 0.054685406 0.009986863
000010 74 99 1d bc a8 66 19 bd 82 c2 5e 3d f0 0b ec 39
       -0.009619106 -0.037451416 0.054384716 0.00045022322
000020 f7 10 77 bc 30 67 e6 bc 4c 18 51 bd 69 d4 7f bc
       -0.015079728 -0.028125376 -0.051048562 -0.015614607
000030 4a be 54 bd 55 7a da bc f9 cd 35 3c 5d 56 4b bd
       -0.051939286 -0.02666966 0.011096471 -0.04964291

bn1.running_mean f4 [16]
000000 3d f5 a2 bd 42 3a 79 3e 23 1d 7a 3e f3 7d 3c bd
       -0.07956932 0.2433863 0.24425177 -0.046018552
000010 74 33 c1 be 9f fd 85 be 5a b9 b2 3e d7 4f 82 3d
       -0.37734568 -0.2617006 0.34907037 0.063628845
000020 3d a4 00 bf a4 7f 33 be 3d 72 c2 be a9 86 8b be
       -0.5025061 -0.1752916 -0.37977782 -0.27251175
000030 0c e8 1b be bd cd 8c be 7d dc b2 bd 72 a2 7d 3e
       -0.15225238 -0.27500716 -0.08733461 0.24768999

bn1.running_var f4 [16]
000000 ab 27 30 3d 91 ec a4 3e 19 73 5d 3e de ea 5e 3d
       0.04300658 0.32211736 0.21625938 0.054423206
000010 28 47 3e 3f c0 38 d0 3e 04 1f 10 3f 73 50 04 3e
       0.74327326 0.40668297 0.56297326 0.12921314
000020 36 36 8f 3f 99 05 82 3e eb 80 03 3f ad 40 14 3e
       1.1188419 0.25394896 0.5136859 0.14477797
000030 6d df e1 3d 6b 7f 85 3e 7a f2 f6 3d d8 e5 15 3e
       0.11028943 0.26073775 0.120579675 0.1463846

bn2.weight f4 [32]
000000 f3 24 67 3f 59 fa 78 3f a8 ed 81 3f 6d f3 80 3f
       0.90290755 0.97257 1.0150652 1.0074288
000010 88 7b 80 3f e7 0b 7a 3f 38 3c 62 3f 2d 6a 71 3f
       1.0037699 0.9767441 0.88373137 0.94302636
000020 b4 24 86 3f 08 6e 6e 3f 34 aa 74 3f 20 72 85 3f
       1.0479951 0.93136644 0.9557221 1.0425453
000030 7a 7e 7d 3f 52 37 6e 3f 6a ce 80 3f 92 22 82 3f
       0.9902111 0.9305316 1.0062993 1.01668
000040 74 1f 8a 3f 0a 81 8e 3f 7b d6 83 3f ce 00 74 3f
       1.0790849 1.113313 1.0299829 0.9531373
000050 2d 97 84 3f 64 f5 82 3f a8 75 7d 3f f3 91 73 3f
       1.0358635 1.0231137 0.99007654 0.95144576
000060 f7 b4 72 3f 8f 07 81 3f 90 70 84 3f 45 05 71 3f
       0.9480738 1.0080432 1.0346851 0.94148666
000070 4c 40 82 3f 1b de 7c 3f fb 87 77 3f 73 46 82 3f
       1.0175872 0.98776406 0.96691865 1.0177749

bn2.bias f4 [32]
000000 7c 4c b3 bc 9f 9b bf bc ce 96 88 3c 9a e6 b6 3c
       -0.021887057 -0.023389636 0.016673472 0.022326756
000010 4d 63 e8 bc 49 7d 9c 3c b9 f3 62 bd 6d 11 8a bc
       -0.028367663 0.01910271 -0.055408213 -0.016854012
000020 05 72 f7 3c 5c c5 a2 bc 4e 34 13 bd 03 df f0 3b
       0.030205736 -0.019869499 -0.035938554 0.007350804
000030 8e f0 86 bc 38 cc 82 ba 54 72 f4 bc c8 a9 19 bd
       -0.016472127 -0.0009979075 -0.029839672 -0.03751543
000040 f6 70 67 3c 81 03 3f 3d 48 04 ca 39 97 01 04 bd
       0.014126053 0.0466342 0.00038531632 -0.03222808
000050 04 55 da bc c9 05 42 bc 85 c6 33 bc 69 42 23 bd
       -0.026651867 -0.0118422 -0.010972624 -0.039858256
000060 34 cb 15 bd f8 75 d2 bc b8 86 96 b8 9f bb 48 bd
       -0.036570743 -0.025691018 -7.177651e-05 -0.049007054
000070 a8 6b 41 bc 4a eb af 3c c6 c7 f2 bc cd 9b e5 bc
       -0.011805452 0.0214745 -0.029636275 -0.028028393

bn2.running_mean f4 [32]
000000 e8 41 6c bd a2 41 5e be 7b f1 56 3f 32 b2 ad bd
       -0.05768004 -0.21704724 0.8396222 -0.08481254
000010 bd 0f 8a bc 7f d1 f2 3e 17 da 39 3e f0 9f 49 be
       -0.016853208 0.47425458 0.18149601 -0.19689918
000020 e7 06 e0 3e 90 94 7c be d2 3a d7 3e 5d b1 11 3f
       0.43755266 -0.24666047 0.42037064 0.5691126
000030 6b e1 b1 3d 1b 4f 74 3f 1a da c0 3e f5 51 1c 3e
       0.08685573 0.95433205 0.37666398 0.15265639
000040 1e f1 01 3e 10 60 f8 3e 9e 77 ba 3e a1 31 19 bf
       0.12689635 0.4851079 0.36419386 -0.5984135
000050 27 38 d7 3e 33 f2 ec bd c4 e1 84 3e 6f d7 fb be
       0.42035028 -0.11569633 0.25953496 -0.491878
000060 f5 d7 a4 3e b9 0b 69 bd 4f 02 35 3f 59 6e 60 bf
       0.32196012 -0.056895945 0.7070665 -0.8766838
000070 77 88 48 3f 23 45 e7 be 68 99 8c be 4b 86 7b bf
       0.7833323 -0.45169935 -0.2746079 -0.9825179

bn2.running_var f4 [32]
000000 32 b2 6c 3f a7 04 0a 40 e0 dc 12 40 b2 e8 f9 3f
       0.92459404 2.156534 2.2947311 1.9524138
000010 44 0e 28 40 aa 2f 37 40 62 5b f7 3e 00 8d 91 3f
       2.6258707 2.8622842 0.48311907 1.1371155
000020 d7 a4 0f 40 3d a6 94 3f 86 bc 4d 40 a1 e2 00 40
       2.244436 1.1613232 3.2146316 2.0138323
000030 bc 05 17 40 28 47 54 3f e3 d9 02 40 0d b1 e2 3f
       2.359725 0.82921076 2.0445487 1.7710282
000040 19 17 5f 3f 40 d9 f9 3f 21 e3 10 40 d7 bc 47 3f
       0.8714462 1.9519424 2.2638628 0.7802252
000050 44 1b 16 40 b2 73 21 40 6e aa 1f 40 98 dc fd 3f
       2.3454142 2.5226865 2.4947772 1.9832945
000060 eb 22 3c 3f 67 b7 5f 3f 68 c2 cc 3f 1d 7d 80 3f
       0.7349078 0.87389225 1.5996828 1.0038182
000070 45 b3 df 3f d6 d8 f8 3f d9 0d 64 40 7b 19 8e 3f
       1.7476584 1.9441173 3.5633452 1.1101526

bn3.weight f4 [32]
000000 f9 f4 56 3f 43 5c 3b 3f 1a 6e 43 3f 7b b2 56 3f
       0.8396755 0.73187655 0.76339877 0.8386609
000010 d1 65 5c 3f 71 13 4b 3f e1 23 64 3f 42 83 36 3f
       0.8609286 0.7932654 0.89117247 0.71294034
000020 c9 8f 55 3f 18 c5 5d 3f 3e 20 33 3f 7a e0 4d 3f
       0.83422524 0.86628866 0.6997107 0.8042065
000030 17 be 33 3f 32 dc 3d 3f 1c b1 6c 3f 01 28 52 3f
       0.7021193 0.74164116 0.9245775 0.8209229
000040 c8 d2 53 3f 81 69 50 3f 04 3d 49 3f eb 2a 25 3f
       0.827435 0.81410986 0.7860873 0.6451861
000050 62 d7 4e 3f c5 39 41 3f 33 e6 39 3f 46 da 67 3f
       0.807974 0.75478774 0.7261688 0.90567434
000060 37 54 57 3f 85 46 43 3f 6b de 5f 3f f9 9a 4a 3f
       0.84112877 0.7627948 0.8744876 0.7914272
000070 86 bc 5a 3f 25 e1 41 3f 6b 18 52 3f 6a ad 3b 3f
       0.85443914 0.7573417 0.8206851 0.73311484

bn3.bias f4 [32]
000000 bb 13 de bd df 75 52 be 90 69 11 be cf 35 ee bd
       -0.10843607 -0.20552777 -0.14200425 -0.11631357
000010 77 f8 18 be 4b 7d 27 be 3e 19 ec bd ae 5b 24 be
       -0.14938532 -0.16356389 -0.11528252 -0.16050598
000020 c4 b3 2e be d3 0a d3 bd 22 18 3f be 31 71 40 be
       -0.17060763 -0.10304799 -0.1866155 -0.18793179
000030 67 f3 73 be 9b a9 25 be 25 fc a0 bd e0 8f da bd
       -0.2382332 -0.1617798 -0.07860593 -0.10671973
000040 46 27 1c be cb a9 0d be c1 d2 06 be c0 ea 41 be
       -0.15249357 -0.13834302 -0.13166334 -0.18937206
000050 79 69 14 be 8f 96 31 be 6d c8 45 be 16 e3 85 bd
       -0.1449336 -0.1734259 -0.19314738 -0.06537454
000060 df 74 d1 bd f5 ad 39 be af 96 ca bd 79 87 25 be
       -0.102273695 -0.18132766 -0.09892022 -0.1616496
000070 32 15 0f be a9 4e 26 be 19 36 1c be fa f4 20 be
       -0.13972929 -0.16240944 -0.15255012 -0.15718451

bn3.running_mean f4 [32]
000000 84 48 01 bf ec 91 91 bf 3c f7 d3 3f dc 62 a8 bf
       -0.50501275 -1.1372657 1.6559825 -1.315517
000010 c7 7b c8 3f eb 84 8f bf 83 d4 1b c0 63 07 77 bf
       1.5662774 -1.1212438 -2.4348457 -0.96495646
000020 e2 df 01 c0 05 f6 d7 bf 38 c3 64 be b2 38 0f c0
       -2.0292897 -1.6871954 -0.22340095 -2.2378354
000030 ae 51 03 c0 15 78 3e bf 18 d1 b4 bf f4 3c 7e 3f
       -2.0518603 -0.7440198 -1.412631 0.9931176
000040 e2 da b3 bf 7f 58 73 be 2c b4 29 bf 54 65 e1 bc
       -1.4051173 -0.23764227 -0.66290545 -0.027514137
000050 68 e6 bb bd c7 55 9c bf 75 b4 6d bf f3 cb b9 3f
       -0.09174806 -1.2213677 -0.9285348 1.4515365
000060 f5 a1 8b be f6 8f c0 3f 69 e2 d1 3e 73 65 46 bf
       -0.27272 1.5043933 0.4099305 -0.7749855
000070 83 e3 83 3f ba b0 34 bf 62 2a 14 c0 05 4b e7 3c
       1.0303806 -0.70582163 -2.3150868 0.028234014

bn3.running_var f4 [32]
000000 17 3e b7 40 3c 61 fd 40 ee 9f e6 40 f7 0e 2d 41
       5.7263293 7.9181194 7.2070227 10.816154
000010 54 da 83 41 d8 9e a2 40 52 18 96 41 34 90 94 40
       16.481606 5.08189 18.761875 4.642603
000020 c2 ee 4d 41 30 69 0e 41 fa 41 8d 40 2a d4 66 41
       12.8707905 8.900681 4.414304 14.426798
000030 a3 91 6d 41 17 ef d5 40 ba f4 01 41 32 c0 19 41
       14.848056 6.685436 8.122248 9.609423
000040 72 ee c5 40 b0 29 c4 40 f0 fd 17 40 bd 8b 41 40
       6.185357 6.130089 2.374874 3.024154
000050 2e c0 90 40 26 a0 69 40 45 78 01 41 22 4b 74 41
       4.5234594 3.6503997 8.091863 15.268343
000060 44 96 d8 40 3c e7 1f 41 82 71 63 40 e3 85 2f 40
       6.768343 9.993954 3.553803 2.7425468
000070 27 1e 3d 41 07 7b 81 40 4a 53 17 41 03 a9 35 40
       11.819861 4.046268 9.457834 2.8384407

fc10.weight f4 [4, 2048]
000000 9e 8e 15 bd ed db 84 bc 7f 51 0c 3e 25 20 2e 3c
       -0.036512963 -0.01621815 0.13702963 0.010627781
000010 63 65 e3 3c 0c 7a b6 bb 18 b7 29 3f ad 26 b1 be
       0.027758306 -0.0055687483 0.66295004 -0.3459982
000020 ee bd 7a bc 51 50 80 bd db b4 05 bd 78 e0 e4 bc
       -0.015304072 -0.06265319 -0.03264318 -0.027939066
000030 21 81 ef 3b fc 21 ae 3b 71 3c e5 3c 94 d1 08 3d
       0.0073090945 0.00531411 0.027982922 0.033402994
000040 99 78 76 3d 89 0a bc 3b a8 8f d0 3c e8 6e 9c bc
       0.060173605 0.0057385606 0.025459126 -0.019095853
000050 de f9 84 bc 93 f3 aa 3c 70 48 63 3c 45 4e 60 3d
       -0.016232427 0.020868098 0.013872251 0.054762144
000060 0f 77 39 3d 2f a7 38 bc 8e da b6 3b c7 c7 ad 3a
       0.04527956 -0.011270328 0.005580253 0.0013258391
000070 8a 62 49 bd 62 e5 94 bc 90 7b 98 3b 25 c4 d2 3c
       -0.04916624 -0.018175784 0.0046534017 0.025728295
000080 bf b0 be bb c7 ff 16 bb 09 07 e1 3b b1 3c 01 3d
       -0.0058194096 -0.0023040639 0.0068672937 0.03155202
000090 53 fb 12 3d 84 47 b9 3b 2c 93 0c 3c e3 1d 0a bd
       0.035884213 0.0056542773 0.00858001 -0.03371991
0000a0 ea 2f d6 bc 28 52 f6 3c ec 6d 4e bc 39 1e 7f bb
       -0.026145894 0.030068472 -0.01259945 -0.0038927926
0000b0 51 16 87 3e 88 59 bc bc e0 6c 4a 3d 5e 2a 41 ba
       0.26384214 -0.02299191 0.049420238 -0.0007368679
0000c0 18 d4 92 bd cc ae 70 bd 48 df 41 3d cd 0c 38 3c
       -0.0716936 -0.05876045 0.04733208 0.011233521
0000d0 1a 11 ca 3c b2 d7 24 ba 54 13 fa bb 6d 4f f2 3d
       0.024666358 -0.00062882446 -0.0076316986 0.118315555
0000e0 43 67 6c 3d 87 93 e4 3c 51 b2 9b bc f0 8f e1 3a
       0.057715666 0.027902378 -0.019005926 0.0017209034
0000f0 ef d6 9e bb 1a 0d 17 3d 4c e3 8b bc d7 09 4d bd
       -0.0048473994 0.03687773 -0.017076157 -0.050058212
000100 dc e2 a4 3c 3f ef 99 bc 9b f9 87 bc 26 37 b5 bd
       0.020127706 -0.01879084 -0.016598513 -0.08848409
000110 f6 bd 92 bb 56 c3 46 3a 3c 46 0d 3d d5 e8 ef bc
       -0.0044782115 0.0007582208 0.03449081 -0.029285828
000120 d6 03 a0 3c 84 2e a9 bc 16 20 8e 3c 16 dd 41 3c
       0.01953308 -0.020652063 0.017349284 0.011832496
000130 b9 43 33 3d ce b0 af bb 67 b2 3b 3d 30 2d 88 3b
       0.043765757 -0.005361653 0.045824435 0.0041557774
000140 9e 05 51 38 1c bd 01 bb 96 b9 78 bc 14 91 b7 bc
       4.9834714e-05 -0.0019796556 -0.015180966 -0.022408046
000150 01 e9 9c 3d d1 ec c7 3c 2b 7f d5 bc 31 d5 02 3d
       0.076616295 0.024404915 -0.026061615 0.031941596
000160 14 06 e1 bc 7d f3 33 bb dc cb 30 bd 3b 1d 1a 3d
       -0.027468719 -0.0027458363 -0.043163165 0.037625533
000170 54 9a 69 3c a1 d8 18 bc 8a b8 11 bd 34 64 55 3d
       0.014257986 -0.009328992 -0.03557638 0.052097514
000180 c5 40 e2 bc f5 c2 35 bc 12 72 f3 3a 9c 20 7f 3c
       -0.027618775 -0.011093845 0.0018573424 0.0155717395
000190 8d 3d 45 3d 8b 2b f8 bc ef 96 89 3b 8d 90 3c bd
       0.048154403 -0.0302942 0.004198901 -0.046036292
0001a0 7c 31 68 3c 55 a8 31 3a 0f fd ed bb ec a6 b0 bc
       0.014171954 0.00067770976 -0.007262833 -0.02156397
0001b0 06 b0 12 bc b3 4b 2f bd a2 b5 19 bc 0f 17 8e bc
       -0.0089531 -0.0427968 -0.009381684 -0.01734498
0001c0 07 7c 84 bc c6 92 1b 3c da ff 59 3a 28 7b 82 3a
       -0.016172422 0.009495443 0.0008316018 0.0009954916
0001d0 51 fa 22 3d 4e ab 82 3c ec 5c d2 bc db 77 ee 3c
       0.0397895 0.015950825 -0.025679074 0.029109886
0001e0 b6 14 1e 3c 73 e2 b6 bc 5f 12 9d bc 5a c9 24 3c
       0.009648493 -0.022324776 -0.0191738 0.010057772
0001f0 44 d0 5a bd a0 c2 f9 3c 23 f0 5f bc 9a 18 57 3d
       -0.053421274 0.030488312 -0.013668093 0.052513696
000200 06 70 6b 3c 8f 3c aa bc fd 9c 1a 3e f2 1b 15 bd
       0.01436997 -0.02078083 0.15098949 -0.036403604
000210 dd 9f 55 3d 7b d4 83 3d 97 d1 59 be 2b 0a 1e be
       0.05215441 0.06437012 -0.21271358 -0.15433566
000220 31 a7 ea bc 43 ba 6a bc 5b 2e 02 3d e7 4a ef bc
       -0.028644176 -0.014326635 0.03178249 -0.02921052
000230 ba ca 4e bc 33 15 98 bd b9 35 30 bd 00 1d 22 3d
       -0.012621576 -0.074259184 -0.043019984 0.039578438
000240 67 e8 95 3c 53 36 e2 bc d2 c5 40 3c e4 85 e9 bc
       0.018299295 -0.027613794 0.011765914 -0.028506227
000250 24 65 d9 3c 1e d8 01 3c 9b 87 20 3d 15 d4 a4 bb
       0.026537485 0.0079250615 0.039191823 -0.005030165
000260 1e 4d dd bb f3 ab 48 3d d4 64 07 3d ec 9b 0c bd
       -0.006753578 0.04899211 0.03305514 -0.034328386
000270 c2 53 62 bc ae ec d0 3c c1 0d 60 3c 71 e1 64 bd
       -0.013813915 0.025503483 0.013675154 -0.05587906
000280 ac 2a a5 3d 1f 59 63 bb f3 27 5f 3a 02 81 a9 bc
       0.0806478 -0.0034690571 0.0008512728 -0.020691399
000290 36 e3 e6 bb d2 d5 a7 bb 63 27 cd 3c 80 be a4 3b
       -0.0070461286 -0.005121925 0.025043195 0.005027592
0002a0 c4 7a c6 3c e1 ac 82 3c 94 a1 62 3e f2 66 8c bc
       0.024228461 0.015951576 0.2213195 -0.017138932
0002b0 74 3c 5e bc 5a 13 d0 bc de 70 01 ba 97 73 cf bc
       -0.013564218 -0.025399853 -0.0004937778 -0.025323672
0002c0 da 54 e2 3d 04 fd 9f bc 25 08 bb bc 37 dd c0 3c
       0.110513404 -0.019529827 -0.022831032 0.023542983
0002d0 3b db 0f bd 73 d9 50 3d ca 27 55 3d 84 d7 a7 be
       -0.035121184 0.050988626 0.0520399 -0.32781613
0002e0 c2 41 15 3d c9 cf 2a bd 7d 55 b8 bc bc 6c 72 3c
       0.036439665 -0.041702066 -0.022501701 0.014796432
0002f0 fb f5 02 3d 9e 8b a7 3b 50 e5 dd bd a4 38 bf be
       0.031972867 0.005113079 -0.108347535 -0.373479
000300 d1 50 2e 3d d4 f7 86 bb 1b 35 f4 bc 21 54 29 bc
       0.04255754 -0.004118899 -0.029810479 -0.010334999
000310 16 e4 a6 bd 64 40 61 bd ea 26 be bb 53 2d 5e 3d
       -0.08148973 -0.05499305 -0.0058029788 0.054242443
000320 d0 f0 0b bd f8 cd 6b 3d 4f 79 34 bd 87 33 26 bb
       -0.034165204 0.057569474 -0.044061 -0.0025360303
000330 17 21 8c 3d 12 bf 29 3c dc af 18 bb 72 fe 3a bc
       0.06842249 0.010360496 -0.002329818 -0.011413204
000340 61 47 0a bc 39 05 92 bb f5 d5 05 bb 8e fd 8f 3c
       -0.00843987 -0.004456189 -0.0020421718 0.017576959
000350 b2 bd df bc 75 b0 97 bc bf 29 c2 3c 7e b3 cd ba
       -0.027312133 -0.018516758 0.023701547 -0.0015693752
000360 e8 11 2a bd 85 9f a6 3c ef 56 11 bb d4 ae fe 3c
       -0.041520983 0.020339737 -0.002217706 0.031089224
000370 98 ef 0e 3c 3e 54 a4 bb 99 2d aa bc fe 23 bf bc
       0.008724116 -0.0050149253 -0.020773696 -0.023332592
000380 dc 4f 35 3c ed 56 88 ba df 56 3c 3d dc 0f 33 3c
       0.011066403 -0.0010401882 0.045981284 0.010929074
000390 b5 32 ab 3c fd 3a c6 bc b6 7d a4 3c be 41 7e 3d
       0.020898202 -0.02419805 0.020079475 0.062074415
0003a0 1b 67 dc bc ce 2b 3e 3c e4 c3 13 3d 4b b8 37 bd
       -0.026904633 0.011607124 0.036075488 -0.04485349
0003b0 9d b0 a4 3c bf a1 c8 bb 6b 25 51 bb 6c 74 39 bd
       0.020103747 -0.0061227973 -0.0031913172 -0.045277044
0003c0 41 cc 87 3d 26 36 6b bd 34 b2 3c 3c 9f 3f 3c 3d
       0.06630755 -0.057424687 0.011517096 0.04595911
0003d0 54 a3 9c 3d 40 b9 51 bc 66 be 10 bd 5e f2 ac 3c
       0.0764834 -0.012800515 -0.035337828 0.021111663
0003e0 e9 b9 c3 3c 2e 51 d0 bc 3d 16 7f 3c ac 58 74 3c
       0.02389236 -0.025429334 0.015569267 0.014913719
0003f0 2d ea a3 3c 0f e7 65 39 2b f6 27 bc 87 19 d0 bc
       0.020009125 0.00021925218 -0.010251562 -0.025402797

fc10.bias f4 [4]
000000 59 25 1b 3a 18 fc 52 3a 5b 64 5a 3a 8f 06 74 bb
       0.0005918346 0.0008048429 0.0008330994 -0.0037235355

fc11.weight f4 [4, 2048]
000000 3d 0d c7 ba aa 78 bf bd 66 a6 36 bc df 22 92 3d
       -0.001518644 -0.09349187 -0.011148071 0.071355574
000010 4c 51 84 3c 12 44 81 3d 32 03 80 3d 24 12 e6 bb
       0.016152047 0.063118115 0.062506095 -0.0070212055
000020 3e ab 1c 3d bb 36 80 bd f8 41 2e bd f0 72 3f 3b
       0.038249247 -0.06260439 -0.04254338 0.0029212795
000030 5f 7e d2 3c 61 03 a2 bd de 2e 91 3c fc a2 7e bd
       0.025695024 -0.07910801 0.017722543 -0.062167153
000040 3d de 98 3d 6a 3a 63 bd 47 8d 2b bc 25 b2 04 bd
       0.074642636 -0.05547563 -0.010470695 -0.032396454
000050 12 24 27 bd 48 47 dd 3c 35 91 ca bb 6e 57 80 bd
       -0.040805884 0.027011529 -0.006181861 -0.06266676
000060 b7 85 b2 3c e1 c3 00 bd b8 d8 ab bb 8e c4 29 bd
       0.021792276 -0.031436805 -0.0052443407 -0.041447215
000070 f6 c9 fe bc 14 68 17 bd f5 de 84 bb fe bd 4a bc
       -0.031102162 -0.03696449 -0.004054899 -0.012374399
000080 de 6d fa bc cf 33 30 bd 37 91 7c bd cb be 71 bd
       -0.030569967 -0.04301816 -0.061661925 -0.059019845
000090 4c 36 87 3c 45 f7 4b bc 45 45 c2 3c 9b f0 2d 3c
       0.016505383 -0.01244909 0.02371467 0.010616447
0000a0 8a 00 72 3d 2f 9c c8 3b 5f 17 e6 bc af 91 b6 3a
       0.059082545 0.006122134 -0.028087316 0.0013928915
0000b0 bb 76 4b bd 64 4f 90 bc 4b 43 08 bd c5 22 3d bd
       -0.049673777 -0.017615981 -0.0332673 -0.046175737
0000c0 73 4b b7 bd 56 3e 83 bc 3c 9c 00 3d 64 eb 86 bc
       -0.08949938 -0.016020935 0.031398997 -0.016469665
0000d0 00 d4 79 bd 62 c4 b3 3b 89 af 2b 3d be f2 6b bc
       -0.060993195 0.005486057 0.04191545 -0.014401136
0000e0 99 ff 42 3c 3c ae cd 3c 99 03 03 3d a7 ee 3a 3d
       0.01190176 0.025107495 0.031985853 0.045637753
0000f0 b7 d3 87 3c 6b dc 0b bd 51 af 18 3d ef e5 c8 3b
       0.016580446 -0.034145754 0.03727657 0.006130926
000100 09 41 92 bd ca 86 5b bd 41 d4 3a bd 91 c9 b8 bd
       -0.07141311 -0.05359534 -0.045612577 -0.09022821
000110 69 56 85 bd 22 ca d7 bc 84 f0 be 3c 7f b5 7c 3c
       -0.06510622 -0.026341502 0.023308046 0.015424131
000120 cc 16 6d bd 8e 3e 6f bb 0c 1c 45 3c 4c f7 2c bd
       -0.05788307 -0.0036505791 0.012030613 -0.04222803
000130 34 de 6a bd 53 53 8b 3b 50 c5 38 3d 51 8f 53 3c
       -0.057340816 0.0042518764 0.045110047 0.012912587
000140 5e e8 66 bd c0 a2 b7 bc 56 02 e6 3b cb 9d 0d 3c
       -0.056373946 -0.022416472 0.0070193214 0.008643578
000150 f0 d5 f3 bc b0 bc 49 3c 10 c6 96 bc 0a 89 ab bc
       -0.0297651 0.012313053 -0.01840499 -0.020939369
000160 0c 78 e4 3a 94 1d 14 3d 28 93 0b bd 50 33 d5 bc
       0.0017430796 0.03616102 -0.034075886 -0.026025444
000170 08 d3 20 3c 47 31 82 bd 9c cf f9 bc 29 f0 d2 3c
       0.009815939 -0.06357055 -0.030494504 0.025749283
000180 2a 71 c9 bd 4c ba 0d b9 76 74 99 bc 1c 3f cf 3c
       -0.098360375 -0.00013516209 -0.01873229 0.025298648
000190 14 12 38 3d df 22 9b bc 39 f7 c1 bc f3 ce 57 3c
       0.044939116 -0.018937526 -0.023677455 0.013171899
0001a0 bf e3 41 bc d2 28 66 3c d7 96 04 bd d6 d0 a8 bd
       -0.011834084 0.014047818 -0.032370415 -0.08242957
0001b0 49 ea 4a bb 1d 9f 0f bd 07 0c 2a bc ac 1b e6 bc
       -0.0030962399 -0.03506385 -0.010378844 -0.028089367
0001c0 3d dc fe bb bf 41 2c bd dc 71 8d bd 10 9f bb 3b
       -0.0077777193 -0.042054888 -0.069064826 0.005725749
0001d0 16 56 20 bd 67 6d 18 3d 8b 01 a4 3c bc ac a3 bd
       -0.039144598 0.03721371 0.020020267 -0.07991931
0001e0 2d 8f 96 3b 23 d6 4f bb 26 f4 3b 3c bc 88 b1 bd
       0.0045947046 -0.0031713329 0.011471784 -0.08668658
0001f0 ca ec 11 bc 28 d1 57 3d 36 cc 8a 3c 49 f8 2b bd
       -0.008906553 0.0526897 0.016943078 -0.04198483
000200 3e 93 02 3c 98 54 8a bc 5a 0e 78 3c 57 05 29 3c
       0.007969676 -0.01688604 0.01514014 0.0103162145
000210 90 74 a1 bb 1b 40 44 3d 3d 1e 0e bd 1c 2d a4 bc
       -0.0049272254 0.0479127 -0.034696806 -0.020041041
000220 d0 1c 86 bc 11 26 01 bd fa 01 f2 3c bc f8 b4 bc
       -0.01637116 -0.031530444 0.029541958 -0.022091262
000230 d9 a2 9c 3c 1a 87 43 3d 77 28 4c bc 03 d4 c3 bc
       0.01912062 0.047736265 -0.012460819 -0.023904806
000240 b5 ed 11 3c b2 6b b2 bd ca 7c 4e bd c4 ed 00 3d
       0.008906771 -0.087119475 -0.050411977 0.03147675
000250 22 e0 90 bd 23 dd df bc 18 90 4f 3a 7d 4a 4c bc
       -0.07074 -0.027327126 0.0007917895 -0.012468931
000260 8e a0 90 3d c0 71 41 3c e2 46 64 bd 27 cb 91 ba
       0.070618734 0.011806905 -0.05573166 -0.0011123166
000270 a4 90 61 bd 4f bd de bc 6a 74 fe bc 44 e8 03 3d
       -0.05506958 -0.027189879 -0.03106137 0.032203928
000280 08 8e e7 bc c0 1e 4f bb c6 4d 17 3d af f3 03 bd
       -0.028265968 -0.0031604022 0.036939405 -0.032214817
000290 f1 02 a9 bc 71 f8 84 bd 45 45 30 3c 69 d4 2c 3d
       -0.020631285 -0.06492699 0.010758703 0.042194758
0002a0 67 d0 0c 3d 55 4a 56 bc c7 ab 17 bd a5 d0 03 3d
       0.034378435 -0.013079246 -0.037029054 0.0321814
0002b0 a4 96 e9 b9 74 ba 15 bc 22 c3 08 bd a7 93 47 ba
       -0.0004455346 -0.009138692 -0.03338922 -0.00076132495
0002c0 79 b9 c3 bc ca 8e bb 3c a9 c2 11 3d b7 a9 97 3c
       -0.023892151 0.022895236 0.035586033 0.018513544
0002d0 19 15 58 bd e1 32 59 3c 87 a6 29 3c f3 c6 c0 3c
       -0.052754495 0.013256759 0.010354645 0.023532366
0002e0 aa a8 67 3d e9 df 4c bd 87 25 e0 bc 09 77 94 bc
       0.056557335 -0.050018225 -0.027361644 -0.018123167
0002f0 5b 58 fc 3c 60 a8 c4 bc 7e 08 3a bd 57 d5 4c bc
       0.03080385 -0.024006069 -0.045418255 -0.012502036
000300 dc 8f f6 bc bc d6 ca bb 7f 2f 20 bd b7 ec 31 3d
       -0.030097894 -0.006190149 -0.039107796 0.04343864
000310 83 f9 2e 3c 02 4e 90 bc 95 c1 06 bd 02 9c a8 bc
       0.010679605 -0.017615322 -0.032899458 -0.020582203
000320 6b d7 ab bc 6c ea 05 bd a9 4a 58 bd 24 d6 6d b9
       -0.020976743 -0.032694265 -0.052805576 -0.00022681855
000330 31 9f 3e bd 3a 65 31 bd 68 80 06 3c cd 98 34 bd
       -0.046538536 -0.043309428 0.008209325 -0.044091035
000340 8e 77 51 bc 0b 42 eb bc 53 e5 1f bd 65 3a f7 3b
       -0.012784852 -0.028718015 -0.03903706 0.007544803
000350 23 78 8e bd e7 70 b2 b9 82 9b 46 bc 06 8f 4f bd
       -0.06956508 -0.00034034924 -0.012122037 -0.050673507
000360 b9 38 22 bd 43 dc c6 bc 8b 64 c2 bc 30 5b 11 bc
       -0.039604876 -0.02427495 -0.023729583 -0.008871838
000370 a9 a1 21 bd 04 d7 29 bb ed 1b 91 bc f6 02 ab bc
       -0.03946081 -0.0025915513 -0.017713511 -0.020875435
000380 59 cf 30 bd 84 00 db 3c af 08 99 bb cd 45 58 3c
       -0.043166492 0.026733644 -0.0046702246 0.013200236
000390 2f 10 c9 3c 1f 55 39 bd ee 0b 88 bd 33 0c 52 3c
       0.02454385 -0.045247193 -0.066429004 0.012820291
0003a0 de 82 3e bc 58 6a b1 39 f9 2f fa bc 4a e0 3e 3c
       -0.011627881 0.00033839303 -0.030540453 0.011650154
0003b0 91 1f a3 3a 7a 2e 26 bc 3e b6 b5 3c 59 db 11 bd
       0.0012445321 -0.010142917 0.022181626 -0.035609577
0003c0 77 86 2d bd ba f6 9b bd af 41 1b bd ca 1b 6f bd
       -0.042364564 -0.07615419 -0.037904438 -0.05837611
0003d0 9d f1 95 3c 64 60 f9 bc 0b b1 64 3c ce 13 da 3b
       0.018303687 -0.03044147 0.013958226 0.006655193
0003e0 32 5f 84 3c 39 d9 03 bd 50 d9 85 ba 3e 2c 75 bc
       0.016158674 -0.03218958 -0.0010211859 -0.014964161
0003f0 24 8b 4c bd c3 e2 3f bd fe 80 82 bc 5e e6 1d bc
       -0.049937382 -0.046847116 -0.015930649 -0.009637443

fc11.bias f4 [4]
000000 a7 c7 c9 bc 54 bb e8 bc 92 3d d0 bc 56 e3 9e bc
       -0.024631334 -0.028409638 -0.025419984 -0.019395512

fc3.weight f4 [512, 4]
000000 2b 46 0b bf 18 07 cb bc d5 26 54 bf 22 18 11 3f
       -0.5440394 -0.024783656 -0.8287175 0.5667745
000010 a3 9d cd be 16 cc 51 3e e3 17 64 be 4b 1b 53 bf
       -0.4015933 0.20488009 -0.22274737 -0.8246352
000020 34 a8 70 3f f9 a9 88 3e 61 b6 e0 3d 5a db 58 3f
       0.9400666 0.2669218 0.10972286 0.84709704
000030 fd 71 59 3f 35 e5 61 3e d3 83 b3 3e e0 bc 2f be
       0.8493956 0.22060092 0.3506151 -0.17161894
000040 5e 7e ab be 10 84 d6 bd 9e 81 ed 3e 63 7f 05 3f
       -0.33494848 -0.10474408 0.46387953 0.521475
000050 d0 61 2c be 47 0f 2f 3f 9c f2 a4 3d 32 71 02 bf
       -0.16834188 0.68382686 0.080540866 -0.5095397
000060 44 31 94 3e 83 e8 d5 3e e3 21 f3 3e 75 88 7c bf
       0.28943837 0.41778955 0.4748679 -0.98645717
000070 5a 98 a2 be b5 f5 14 be 71 33 ad 3e 4a f2 d4 bd
       -0.3175686 -0.14546855 0.3382831 -0.103977755
000080 fd 9c ea 3e 50 5e d6 be fc 32 6b 3f ef 2e 19 3f
       0.45822898 -0.4186883 0.9187467 0.5983724
000090 7d 45 48 bd 00 b2 51 bd c6 19 94 be ef c4 34 bf
       -0.048894394 -0.051195145 -0.28925914 -0.70612997
0000a0 d7 f7 8c 3c ee ca 02 bd 2d 12 fe be 7c 64 a1 bf
       0.017208023 -0.03193181 -0.49623242 -1.260879
0000b0 68 2d 99 3d 0d eb 42 bd 94 91 be 3e b9 51 29 3f
       0.07479364 -0.047587443 0.37220442 0.66140324
0000c0 7f b3 cd 3e 6f a8 77 bf 37 1e eb 3d 87 80 a6 be
       0.40176007 -0.96741384 0.114803724 -0.32519934
0000d0 84 cb ad 3e 86 86 aa be 8b ba 69 3d 88 6e bc bd
       0.33944333 -0.33305758 0.057062667 -0.0920077
0000e0 09 30 09 bf 78 cb 85 bf 2c 2e 7e 3e 60 e1 06 3e
       -0.5358892 -1.0452719 0.248223 0.13171911
0000f0 25 03 ef 3e ed 07 2a 3e a6 98 b5 3e e8 7b a1 3d
       0.46682087 0.16604586 0.35468024 0.07884961
000100 99 12 e5 3d 53 ad 84 be 97 d5 5f 3f 33 11 5f 3e
       0.11185188 -0.25913486 0.8743529 0.21783905
000110 dc bb c3 3d eb 39 a6 3e 70 64 6b 3e d7 ff 88 bf
       0.09557316 0.32466063 0.22987533 -1.0703076
000120 78 be 2d bf 17 b6 91 3d de 3e 9b be 51 ba 5a be
       -0.6786876 0.07114809 -0.303214 -0.21360137
000130 99 2d 09 3f 5e 58 9b bd 0a 7a 47 be 58 7b 84 3e
       0.535852 -0.07585214 -0.19480148 0.25875354
000140 d1 98 82 bf e6 d5 a4 3d 30 a2 31 bf 7d ee b9 bf
       -1.0202886 0.080486104 -0.69388103 -1.4525906
000150 88 c6 1a bf f2 dd 36 be bd 13 0e be 7e 10 56 3d
       -0.60459185 -0.17858103 -0.13874717 0.052261822
000160 0f 70 c9 be fc ae 6b bf dc f5 47 be 6e ce bd bc
       -0.39343306 -0.9206388 -0.19527382 -0.023169722
000170 d0 e9 c7 be 3d ec d0 be 31 62 22 bd 79 49 51 3d
       -0.39045572 -0.40805236 -0.039644424 0.05109546
000180 ef 91 34 3e 9a 65 d2 3e 9a 3a c4 3e 7a 4d 01 bf
       0.17633794 0.4109314 0.3832596 -0.50508845
000190 5d f0 6a bc ee 69 3d bc ac 32 56 bd 25 18 ae 3e
       -0.014339534 -0.0115609 -0.05229442 0.34002796
0001a0 fe 06 20 3f 38 06 d4 3d 06 56 9e 3e 5c e8 33 3f
       0.6251067 0.10352749 0.30925006 0.7027643
0001b0 c3 1c cd 3e 48 9d 9d bd f1 c6 c4 3e 19 b8 db bf
       0.40061006 -0.07696015 0.3843303 -1.7165557
0001c0 c6 bc 73 bf 90 d7 0b 3f 60 5e 31 be d7 f9 53 3f
       -0.9520992 0.546258 -0.17321157 0.828031
0001d0 ee 07 73 be c1 eb 5a be f8 be 8c be 60 8d fb be
       -0.23733494 -0.21378995 -0.27489448 -0.49131298
0001e0 44 71 d7 3c 8f 9f 3c 3f 7c 3a 21 be 8c d0 1e be
       0.026299126 0.7368097 -0.15744966 -0.15509242
0001f0 b2 ac 3d 3f f8 6d 78 be 35 0e be 3e 1a 25 05 3f
       0.7409164 -0.242607 0.37120214 0.5200974
000200 62 6a 83 3e 07 70 ca bc 8f 92 35 3e 4b 27 ca 3b
       0.256671 -0.024711622 0.17731689 0.006169235
000210 b8 3a b0 3b 21 b5 a5 bd 42 3d 54 3e 6c 74 ae 3f
       0.0053780936 -0.08091188 0.20726493 1.3629279
000220 8e 94 99 3e 27 08 af bd a7 f3 05 3e 44 52 e0 3e
       0.2999615 -0.08546477 0.13081227 0.43812764
000230 fb 16 6e 3e 3c 50 2f be 28 ea 12 be e1 c5 3d 3f
       0.23250954 -0.1712045 -0.14347136 0.74130064
000240 7f 58 7f be b4 a6 81 3d 8f 3e f1 be 86 c1 c6 be
       -0.24936102 0.06330624 -0.4711804 -0.38819522
000250 c0 dc e9 3e c6 ae da 3e a4 8c 00 3f 67 30 0d 3f
       0.4567623 0.42711467 0.502146 0.5515198
000260 b2 48 52 3e 06 65 f5 be 60 39 3a be af 1b 53 3e
       0.20535544 -0.47928637 -0.1818595 0.20616029
000270 e5 83 4c 3e b7 29 b5 3f ea 95 b0 bd dd d4 1e 3b
       0.19972189 1.4153355 -0.08622344 0.0024235763
000280 3f 98 37 3f 37 72 7e be 3d e9 e9 3d 32 cc 98 3e
       0.71716684 -0.24848257 0.1142144 0.2984329
000290 97 2c 3e be 1f be 99 bd ef 05 08 bf 0a d6 23 3f
       -0.18571697 -0.07506966 -0.53134054 0.6399847
0002a0 05 dc a4 be e2 b2 00 bd 8f 96 bb 3d 1d 90 a8 3f
       -0.32199112 -0.031420596 0.09159576 1.316898
0002b0 9c a8 3b be 35 90 92 3c 0b 47 0d bf 63 de a0 be
       -0.18326038 0.017891029 -0.5518653 -0.31419668
0002c0 b0 b3 c0 bf 8a 9b 13 3e ba 4f 32 bf b6 30 41 bf
       -1.5054836 0.14414802 -0.69652903 -0.7546495
0002d0 f1 01 24 3f cb 18 56 be dc 1a 66 be 7c cd 69 3e
       0.6406546 -0.20907895 -0.22471184 0.22832292
0002e0 77 be 07 bf 87 bf 3e 3e f9 ed 8c be 52 51 7c 3e
       -0.53025 0.1862775 -0.2752531 0.24640396
0002f0 b7 80 63 bf ee a1 4b 3f 25 02 59 bf b0 cb 0f 3e
       -0.8886828 0.7954396 -0.847689 0.14042544
000300 a2 c4 f8 3e a1 b9 19 3c cb af 89 3e 4f 42 9a 3d
       0.4858752 0.009382636 0.26891932 0.075321786
000310 7d 7b 79 be 02 2a b7 bc fa 4d 1f bf f7 8a a2 bf
       -0.24363513 -0.022358898 -0.6222836 -1.2698659
000320 f8 58 86 bf ab 5f c0 3d 26 61 59 be 44 45 42 bf
       -1.0495901 0.09393247 -0.21228465 -0.7588694
000330 f9 2e 6f 3f 59 d3 ec bc 1d dd e4 be 2f bc 3b 3e
       0.9343105 -0.028909372 -0.44699946 0.18333505
000340 8e 89 c8 3c fe 83 c5 be 94 64 dc 3e 60 b1 00 3f
       0.024479654 -0.38577265 0.43045485 0.5027065
000350 48 95 c6 bf 46 5f 4f 3d 0e cf d9 be 7c 58 68 bf
       -1.5514307 0.05062797 -0.42540783 -0.90760016
000360 35 5f 7e bf 20 7a 5f bd a8 a4 13 3e ca c3 91 3c
       -0.99364024 -0.054559827 0.1441828 0.017793555
000370 91 bc d3 bd ab e3 01 bc 46 15 90 3f f2 23 c8 bd
       -0.103387006 -0.007927815 1.1256492 -0.09772481
000380 24 dd b3 3e 87 f3 1e 3e e8 cd f7 be 6c 6d 35 3e
       0.35129654 0.15522586 -0.48399282 0.17717522
000390 e8 e4 e8 bc f2 a0 09 be 8f 26 00 bf 43 f1 36 3d
       -0.028429464 -0.13440302 -0.50058836 0.04466368
0003a0 26 30 37 3d 2a 61 2b bf 57 d4 97 3f 13 6c fa 3e
       0.044723652 -0.66945136 1.1861676 0.4891058
0003b0 82 79 bd 3e f3 c9 d3 bc e1 f8 9d bf 22 7b c6 be
       0.37006766 -0.025853133 -1.2341577 -0.38765818
0003c0 25 36 0d bf d7 8a 64 3d b4 e9 99 3f 19 dc a4 3e
       -0.55160743 0.05579647 1.2024446 0.3219917
0003d0 bc 50 b5 3e e0 d5 8b be f6 c5 64 bd b4 8c 4c 3e
       0.35413158 -0.2731161 -0.055852853 0.19975549
0003e0 02 d0 4b bf 71 62 2c bc 06 f4 90 3e 59 40 a8 bd
       -0.7961427 -0.010521517 0.28311175 -0.08215398
0003f0 71 58 69 bf 70 17 a2 3c 73 ab a8 be ed 4e ad be
       -0.91150576 0.019786566 -0.32943305 -0.33849278
