saved_models_2D/dataset_acc/VAE_folds/CVAE2D_4_5_100_200_fold_6.pth (torch, 243348 bytes, 37 tensors)

conv1.weight f4 [16, 1, 3, 3]
000000 69 f8 85 3e 16 fc e1 bd 29 12 15 bf ef ed 12 3e
       0.26166084 -0.1103441 -0.58230835 0.14348577
000010 b3 ab 14 3f 53 6f c4 3d 20 71 10 3e 06 cd b3 bd
       0.5807449 0.09591546 0.14105654 -0.087793395
000020 41 5f 2d 3f 63 7c 0e 3e 8a e8 75 3e ae f4 b3 3e
       0.6772347 0.13914637 0.24014488 0.35147613
000030 bc 72 00 3f df d3 85 be b7 8a 10 3e 65 fa 7a 3e
       0.5017507 -0.26138207 0.14115416 0.2450958
000040 c5 40 5f 3e 65 23 8c bd 13 36 ae be ec 85 63 3e
       0.21802051 -0.068426885 -0.3402563 0.22219056
000050 7f ab 5e bf 28 cc 94 3e 10 d1 5d bf ae 71 8f 3d
       -0.8698043 0.2906201 -0.8664713 0.070041046
000060 64 1c e7 be c5 c1 57 3e e4 e6 9c 3e e7 32 d6 3e
       -0.45138848 0.21070011 0.30644906 0.4183571
000070 1b a1 fc 3e f9 05 8f be d5 53 64 3e 3d d2 49 3e
       0.49341664 -0.27934244 0.22297604 0.19709106
000080 b9 02 46 3f 49 4e bf bd f3 03 88 3f 22 9f b2 be
       0.77347904 -0.093411036 1.0626205 -0.34887034
000090 40 ef 06 bf 47 fc 08 bf bd ce 65 3e aa 64 46 3d
       -0.52708817 -0.53509945 0.22442146 0.048435844
0000a0 76 9a 2e 3f 37 37 05 bf 50 4c 57 bd 18 58 3b 3e
       0.6820444 -0.52037376 -0.05256301 0.18295324
0000b0 16 be 35 3d ca 2b ef 3e 3f cd 15 3e e9 2b 3a 3f
       0.044370733 0.46713096 0.14629076 0.7272325
0000c0 10 70 ab be 59 b7 db 3e a3 cd e5 be 6b f3 0c 3f
       -0.33483934 0.4291332 -0.4488345 0.55058926
0000d0 d7 f6 4d 3f 2c 8b 95 3e 73 00 1d bd cb 0d 3e 3f
       0.8045477 0.29207742 -0.038330507 0.74239796
0000e0 d1 f4 c5 bd 9a e6 24 bf 1c dd 96 3f c9 fe 52 3f
       -0.09665836 -0.6441437 1.1786227 0.8242002
0000f0 e2 42 0f 3e b5 10 61 3f e2 4b 08 bf 27 c2 a4 be
       0.13990358 0.8791612 -0.5324079 -0.32179376
000100 6f 25 80 be 23 96 81 3e c7 99 2b 3f 47 bb 9b bc
       -0.2502856 0.25309858 0.6703152 -0.0190102
000110 48 0a 81 bd e6 23 38 bf 3f f0 c6 bd 15 16 80 be
       -0.06300789 -0.71929777 -0.09713792 -0.25016847
000120 ba 56 27 be 68 c2 16 bd 87 2c 8d be a9 b7 c9 3e
       -0.16341677 -0.036806494 -0.27573034 0.39397934
000130 73 9b 2f bf 47 14 85 3e 70 d8 81 3d a1 01 91 3d
       -0.6859657 0.25992033 0.0634011 0.07080389
000140 ea 9f f6 be b2 cd d2 3e 78 7d 27 3f 7b a4 11 bf
       -0.4816888 0.41172558 0.65425825 -0.568916
000150 9e 40 06 3f 22 e3 03 3f 20 41 bf 3e 86 7e 78 be
       0.5244235 0.5151845 0.37354374 -0.24267015
000160 11 27 0b 3f cf f3 0c bf e3 e3 41 bf 8e 5b 2b 3d
       0.54356486 -0.5505952 -0.7573835 0.04183536
000170 d5 1f 06 ba 24 10 b3 be ff 11 45 3d 33 fd 22 bf
       -0.00051164377 -0.34973252 0.048112866 -0.636676
000180 21 3c 0f 3f 6d c3 db be 58 20 bb 3e 88 ee 69 bf
       0.55951124 -0.42922536 0.36548114 -0.91379595
000190 5d e0 63 bd 6f 18 17 3f 8f 57 06 3f ac c5 7b 3f
       -0.05563389 0.5902166 0.52477354 0.983485
0001a0 32 49 2d 3f 8b d5 22 3f ea 5b a8 3d 0e 4d 80 3c
       0.6768981 0.6360709 0.08220656 0.015661743
0001b0 f6 da 60 bc ea aa 32 bf 18 02 24 bf a9 e9 73 3e
       -0.013724079 -0.69792044 -0.64065695 0.23819603
0001c0 7a 4b a1 3d 3d be df bb 4a fd e5 3d 4e 31 14 3f
       0.07875724 -0.006828098 0.11229952 0.57887733
0001d0 1b fa d1 3e ce 8c 72 3d 52 86 aa 3e 2e 7a b7 be
       0.41011128 0.059216313 0.33305603 -0.35835403
0001e0 00 3c 83 bd a8 f2 c1 bc 2c 6f 96 3e cf d5 1a 3f
       -0.064079285 -0.023675278 0.29381692 0.60482496
0001f0 2d 8e 0b 3e 3b 43 ac be ef 00 8f bf 37 34 ef bc
       0.13628455 -0.33645043 -1.117216 -0.029199703
000200 f0 6d da 3d 60 c1 1b 3f 32 d2 04 bf 08 2f 9c 3e
       0.106655 0.6084194 -0.5188323 0.30504632
000210 58 b1 2b bf f7 b6 99 be 85 4a 59 be eb b1 09 3f
       -0.6706748 -0.30022404 -0.21219833 0.53787106
000220 d6 fc 4a bd a9 4e 8e bf fb 9b 6e be e8 53 a6 bf
       -0.04955753 -1.1117755 -0.2330169 -1.2994356
000230 b4 d8 3c 3e 31 23 34 bf ab 30 63 bd 6c c0 29 be
       0.1844204 -0.703662 -0.055466335 -0.1657731

conv1.bias f4 [16]
000000 3a da 3f 3d 5a 00 d3 3b 36 86 03 bd 9e 44 07 3d
       0.046838976 0.006439251 -0.032110415 0.033024423
000010 38 f4 9b bc dc 1a a4 bb dd 0e 9c 3c 37 31 53 3d
       -0.019037351 -0.0050080847 0.019050056 0.051560607
000020 50 2f 08 bd 9d 52 5b bd 51 19 ce bd 2e cc 0a 3d
       -0.033248246 -0.053545583 -0.100634225 0.033886127
000030 51 69 05 3c 7a d1 0c bc 91 43 4c 3d de e1 51 bb
       0.008142785 -0.008594865 0.049869124 -0.0032025496

conv2.weight f4 [32, 16, 3, 3]
000000 f1 6c 92 3d b9 b8 cd bc 1e 54 06 be bf 44 0c 3e
       0.07149685 -0.025112497 -0.13118026 0.136981
000010 6c 82 47 be 24 63 74 bd 73 2b 09 bd 10 71 a0 bd
       -0.19483346 -0.05966486 -0.033488702 -0.07834065
000020 08 67 91 bd a9 e8 90 bc 06 5e 33 be ac 52 97 bd
       -0.0709973 -0.017689066 -0.17516336 -0.07388815
000030 35 e4 c5 bd ea 87 74 be ce a5 06 3e eb cf 2a 3c
       -0.09662668 -0.23879972 0.13149187 0.010425548
000040 35 90 9d bd 3f eb ac bd 7a 68 86 bc e0 75 06 3d
       -0.07693521 -0.08443307 -0.01640724 0.032827258
000050 04 06 64 be 24 56 61 3d 6d cd 01 3e e4 d8 77 3d
       -0.2226792 0.05501379 0.1267602 0.060509577
000060 9b 7e 5e 3d 83 f3 d1 3c 65 86 71 3d ba 1a 91 be
       0.05431996 0.02562881 0.05896606 -0.28340703
000070 24 58 f0 3d 1c 5e c0 3d 5e ed 8e bd da 07 88 be
       0.117355615 0.0939295 -0.06978868 -0.2656849
000080 f7 f5 36 3d 15 47 c1 bc 00 e6 21 be 8c c3 95 bd
       0.044668164 -0.023593465 -0.15810394 -0.07312688
000090 8c a7 1d 3c ba 36 95 bd 52 d4 1e bc c6 5d 21 3d
       0.009622466 -0.07285829 -0.009694176 0.03939607
0000a0 ca d3 4b 3d 2e ba a3 3d 40 b8 d4 bd e7 09 aa bd
       0.049762525 0.07994495 -0.103867054 -0.0830267
0000b0 b5 96 be bd 39 c2 10 3c 4b d6 24 3d e6 87 9c bd
       -0.09306089 0.008835369 0.04024343 -0.07643108
0000c0 c2 a7 b3 3d 5a db e1 3d ac 78 52 be 0d 74 2d bc
       0.08772232 0.11028166 -0.20553845 -0.010586751
0000d0 16 95 a4 bd 8e d2 38 3e 5b 72 5e be f1 74 24 3c
       -0.080362484 0.1804907 -0.2172331 0.010037647
0000e0 31 87 7c 3d 7d 86 09 3d d0 94 a7 3c ab 27 04 be
       0.061652366 0.033575524 0.020456702 -0.12905757
0000f0 62 14 0e be 42 af 7e bd 66 ac f7 3c a9 ee 37 3d
       -0.13874963 -0.062178858 0.030233573 0.04490534
000100 40 3e 14 3e 88 8d 92 bd eb 5d 9a 3c 07 c0 85 3b
       0.14476871 -0.07155901 0.018843612 0.0040817293
000110 13 02 9f 3d 09 fb f4 bd 2e 3c 2e 3b b3 8a d5 bc
       0.077640675 -0.11961944 0.0026586163 -0.026067114
000120 15 6b a5 3e dc 67 87 3d dc 2a c8 3d 1e 80 80 bd
       0.3230826 0.066116065 0.097738 -0.062744364
000130 d2 8f a4 bd 3a fb 03 3d 5d b3 7e 3e e7 6d b2 3d
       -0.08035244 0.03222201 0.24873109 0.087123685
000140 78 1d 32 be a4 5f 0a be ad 14 a0 3d b7 4e b9 3b
       -0.17394054 -0.13513047 0.078164436 0.0056551355
000150 49 d1 51 3d 14 a8 9d bd 09 a5 46 3e f3 6c f5 bd
       0.05122498 -0.07698074 0.19398893 -0.11983671
000160 1a 49 7d be ba db 8a 3d 70 ad cc bd e0 0f 24 3d
       -0.24734917 0.06780191 -0.09994018 0.040054202
000170 c0 d6 0a 3e 3c f8 16 3b 1a 17 51 3d be d5 4f be
       0.13558483 0.0023036143 0.051047422 -0.2029638
000180 2b 33 b3 bd 49 e2 98 bd 66 5e b3 bb 67 e0 a2 3c
       -0.08749994 -0.074650355 -0.0054738997 0.019882394
000190 3b d0 74 3e ed ea 19 bd 85 4e 29 be 58 ec 05 3e
       0.23907559 -0.03757756 -0.16533859 0.13078439
0001a0 f9 34 a4 bd 4c 61 90 be 24 11 7f 3e c7 a2 54 3e
       -0.08017916 -0.28199232 0.24908882 0.2076522
0001b0 62 53 9a bd 4e 4a 94 3d 51 1e 80 3d 13 6e 57 3e
       -0.07535435 0.07240735 0.062557824 0.21038084
0001c0 6a 61 c2 3d 97 0c 2d be 88 18 04 3e 99 7b 64 3d
       0.094912365 -0.16899334 0.12899983 0.055781934
0001d0 b8 77 c4 bc d4 2c cc 3d 2e cb 5a be 3d c0 73 3e
       -0.023982868 0.09969488 -0.2136657 0.23803802
0001e0 13 b2 fb 3c c6 fd 6f be 6d b6 29 be 98 50 e9 bd
       0.03072456 -0.2343665 -0.16573496 -0.11392325
0001f0 f0 a7 a5 bd 61 8a 24 3c ae 92 0c bd ad 7c c7 bd
       -0.08088672 0.010042758 -0.034319572 -0.09740577
000200 0e be 43 3d 20 86 d6 3d 43 1f 13 3e ec b7 c8 3d
       0.047788672 0.10474801 0.14367394 0.09800705
000210 97 c2 c1 3d 82 23 02 3d d8 46 5d bd 4c a0 e8 bd
       0.09460943 0.031772144 -0.05402264 -0.11358699
000220 1f 40 93 3b 7f ad 90 3b 3f 54 24 bd 6a d1 38 be
       0.004493728 0.0044152136 -0.040119406 -0.18048635
000230 df 67 a3 3d 2c 06 f4 3d 0e d4 60 3e 74 7e 1c 3c
       0.07978796 0.1191524 0.21955892 0.009551633
000240 b4 91 51 3e 41 b2 43 3e df 9b ce bc 9b c5 79 bd
       0.20465738 0.19110967 -0.02522081 -0.060979467
000250 21 f8 9d 3c 03 a2 a8 3c 0f 96 97 bd 89 19 88 bd
       0.019283356 0.020585066 -0.07401668 -0.066454954
000260 0d c2 f6 3d 00 4e e4 3c a5 0b a8 bb 8e 11 6b 3c
       0.12048731 0.027869225 -0.0051283413 0.014347447
000270 03 55 59 3d b7 83 62 3d 9c c0 aa 3d 8e fc 07 be
       0.05305959 0.055301394 0.083375186 -0.13279936
000280 29 11 98 bd be 56 d6 3d ec ea 43 be 0a 38 c5 bd
       -0.07425148 0.104657635 -0.19132584 -0.09629829
000290 1b a5 11 be 5a b7 8d be b1 53 0d be 9f eb 19 be
       -0.14223139 -0.2767895 -0.13801457 -0.15031289
0002a0 56 a5 dd bd 4a f4 47 be f0 8f 60 be 92 36 d1 bc
       -0.10822551 -0.19526783 -0.21929908 -0.025538716
0002b0 b9 ad 96 3e 1e 6b 96 3e e8 8f a8 bd 2f d3 6f 3e
       0.29429415 0.293786 -0.08230573 0.23420404
0002c0 13 7a 34 3e 76 a4 51 be df c0 de bc f4 02 f0 bd
       0.17624693 -0.20472893 -0.027191577 -0.11719313
0002d0 9c 65 9b bd 10 a1 f3 3d bf a1 52 be 18 4f 0d 3e
       -0.0758774 0.118959546 -0.20569514 0.13799703
0002e0 83 1f c3 3c cc 0d 2c be 95 f3 24 3d b8 19 5e bd
       0.023818737 -0.16802138 0.04027136 -0.054223746
0002f0 c5 c0 0d be 4d ce f8 3d 9f 77 89 3d c4 ce ad 3d
       -0.13843067 0.12148724 0.06712269 0.08486703
000300 b6 de 38 3e 55 af 6b 3e 44 37 7b 3c 8d 32 0d 3d
       0.18053707 0.23016103 0.015333001 0.034472037
000310 8c e2 ac 3e e6 99 0b bc dd 2e ae bc 87 bd 1c bd
       0.33766592 -0.008520579 -0.02126258 -0.038266685
000320 3b 4b 00 3e 25 82 34 3c b5 91 bd 3c dd 35 a1 bd
       0.12528698 0.011017357 0.023140768 -0.07871602
000330 02 43 41 3e b2 1b 74 3c 7d 03 9a bd 30 4c 3b 3e
       0.18873218 0.014899181 -0.075201966 0.18290782
000340 e2 97 42 3d 9f 96 28 3e e9 2a 15 3e f1 54 a7 bd
       0.047508128 0.16463707 0.1456715 -0.08170498
000350 5d b6 e8 3b 73 b0 95 3d f5 94 fe bc d0 f4 a3 3c
       0.0071018175 0.07309046 -0.031076888 0.020014197
000360 c8 a7 d6 bd cc 6f c7 3d 1a 2e 39 3e 0d 85 0e 3e
       -0.104812205 0.097381204 0.18083993 0.13917942
000370 a5 a0 55 3d 17 6b e8 bb 20 b1 b4 3d 22 d2 c0 bd
       0.052155156 -0.007092844 0.088228464 -0.0941508
000380 c2 ae f2 3c 2d 14 5c 3d bc 2f 3d 3e f2 1b 8b 3e
       0.029624347 0.05373018 0.1847524 0.27169758
000390 f2 8c 3d 3d 4a fd 65 3c 35 0a 3f bd f3 b3 07 3c
       0.046276994 0.01403744 -0.046640594 0.008282649
0003a0 43 b2 30 3c e9 72 54 3c d2 ec 14 bb 13 f3 ac bd
       0.010784688 0.01296685 -0.0022724164 -0.084448
0003b0 75 50 f5 bd 91 eb 48 bc b2 c5 85 bd db f0 f4 3d
       -0.119782366 -0.012263195 -0.06531848 0.11960002
0003c0 ba 75 8a be 65 a7 93 be f7 a1 d4 bd ac 04 22 bd
       -0.27042943 -0.2883865 -0.10382455 -0.039555237
0003d0 3b 05 02 3e ed 17 14 be d8 da e3 bd 49 a0 c9 bd
       0.12697308 -0.14462252 -0.111257255 -0.09845025
0003e0 bd 8a 02 bd c4 1c 8d 3e 6b 5e 1a be 9b c9 98 bd
       -0.031870592 0.2756101 -0.1507508 -0.07460328
0003f0 f8 5d 74 3c b1 77 e5 3d 00 44 c8 bd bc 69 21 bd
       0.014914982 0.1120447 -0.09778595 -0.039407477

conv2.bias f4 [32]
000000 7c 18 d9 bd ca a6 7d bd 6a b9 24 bd 52 46 d3 3d
       -0.10600373 -0.06192664 -0.040215887 0.10316147
000010 94 bc 45 3c b4 40 a7 bc a1 2d 86 3d 6e 1e 50 bd
       0.012068886 -0.020416595 0.06551672 -0.05081027
000020 f6 71 8b bd 29 56 be bb e3 0f 91 3d 69 07 b9 3d
       -0.06808846 -0.005808611 0.07083108 0.090346165
000030 8f 01 13 ba 23 2b e7 3d 8c 0f ab bc ee c5 66 bd
       -0.0005607837 0.112875246 -0.020881437 -0.056341104
000040 65 ae ef bc 77 b2 f2 3b d2 ee 63 bd 08 f2 61 3d
       -0.029257962 0.0074065286 -0.05564768 0.05516246
000050 65 c3 ac bc 77 61 b1 bd 76 49 2d bd e1 47 c5 3d
       -0.021089265 -0.08661168 -0.042306386 0.096328504
000060 f7 18 06 bd ac af 08 bd 8e 0b d2 bc 31 c2 3e 3d
       -0.032738652 -0.03337066 -0.025640275 0.046571914
000070 a9 c6 a2 bc 9f 2b 69 3c 47 53 e4 3c 43 a9 a8 bd
       -0.01987012 0.0142315915 0.027871741 -0.08235409

conv3.weight f4 [32, 32, 3, 3]
000000 92 d9 dc 3c 7a 2d c0 bd e2 75 b3 3b 72 87 15 3e
       0.026959214 -0.09383674 0.005476699 0.1460245
000010 ad 1c 4e 3d 8e ea 3b bc 84 e5 fa bd df dd ae bc
       0.050320316 -0.011469496 -0.12250808 -0.02134603
000020 77 a6 ef bd 2c d1 28 bc e1 1d df 3d 9e 81 a5 3c
       -0.117016725 -0.010303777 0.10894371 0.020203408
000030 25 7c 87 3c d3 f1 e3 bc 86 6b 98 3d 6c 82 04 3d
       0.016538689 -0.027825272 0.074423835 0.032350942
000040 bd 4c 84 3d 27 2d 56 3d 58 3a 3d bc 71 56 09 3e
       0.06459949 0.052289154 -0.011549555 0.13411881
000050 ec 95 bd 3c 09 e3 75 3e 5f bf 19 3e 88 0e 91 3d
       0.023142777 0.24012388 0.15014409 0.0708285
000060 5c 8c 9e 3d 6a d8 43 3d 11 55 65 3d ba 37 d7 bd
       0.07741615 0.04781381 0.05598933 -0.10508676
000070 8e 90 ab bd 63 41 d9 bd 19 9f 8d 3c 62 0a bc bd
       -0.08377181 -0.10608175 0.017287778 -0.09181668
000080 01 fa b0 3d 20 64 f0 bd 5e 0d 02 3d 5b 51 c5 bd
       0.086414345 -0.11737847 0.03175103 -0.09634658
000090 51 47 f5 bd 23 82 cb bd ca 9d 13 be 15 6d 57 3d
       -0.11976493 -0.09936931 -0.1441566 0.052594263
0000a0 35 69 66 bd fb 89 bf 3c f8 6b 64 3d 4a 02 6d bd
       -0.056252677 0.023381224 0.05576703 -0.05786351
0000b0 41 a0 78 be 71 53 1f bc 3d 63 a1 bd 00 76 27 3d
       -0.24279882 -0.009724484 -0.07880256 0.040884018
0000c0 66 10 07 3e 25 73 22 bd 32 b3 c4 3d db 01 e8 3d
       0.1318985 -0.03966059 0.09604491 0.11328479
0000d0 86 6f d2 3c d8 be 0f 3c 0f 9a ce bd 97 fc c1 3c
       0.025687944 0.008773528 -0.10087978 0.023680015
0000e0 9c b6 a0 3b 62 c4 a0 3c 06 71 07 3e e0 a9 af 3d
       0.0049045812 0.019624893 0.13226709 0.08577323
0000f0 32 5f 01 bd be b4 a0 3d 02 1d bc bd d8 ef ef 3c
       -0.031584926 0.07846974 -0.0918522 0.029289171
000100 11 39 29 3d 76 84 4a 3d 73 de bc 3d 11 aa 73 3d
       0.04131419 0.04944273 0.09222116 0.05948836
000110 da 5d 8b 3d 9a a1 dd bc f0 4a 9f bd 0b f3 a9 bb
       0.0680501 -0.027054597 -0.07777965 -0.0051864437
000120 d0 40 58 be 40 00 f0 bd ad a1 96 bd cc e8 d8 bb
       -0.21118474 -0.11718798 -0.07355056 -0.0066195484
000130 ab e0 50 bd 99 2a 92 bd a8 a6 64 bd eb 11 6a bd
       -0.05099551 -0.07137031 -0.055823 -0.057145994
000140 71 68 d8 3a 6a ab 29 bc 67 ed 11 3d 02 84 88 bd
       0.0016510618 -0.01035581 0.035626795 -0.066658035
000150 a8 62 d0 bc 6c cd 2b bd 43 a3 17 3a 0e 6e 24 bd
       -0.025437668 -0.041943952 0.0005784521 -0.04014402
000160 02 bc 33 bd ae e6 20 3c 0b 4e fb bc 0a 12 f7 bd
       -0.04388047 0.009820623 -0.030676862 -0.120639876
000170 a3 f9 84 bc f9 32 ed bb 35 14 40 3e be a8 04 3c
       -0.016232317 -0.0072387424 0.18757708 0.008096872
000180 03 15 82 bd f6 c1 0e 3d d4 6f 84 3c 28 a6 92 3d
       -0.06351664 0.034852944 0.016166605 0.07160598
000190 0a d1 a0 bd d3 f8 ce bc 8f 8f 2c bd a0 63 e1 3d
       -0.07852371 -0.025265133 -0.042129096 0.1100533
0001a0 5c 51 2e 3e e3 21 10 bc 35 ea c5 bc 83 b3 bf b9
       0.17023224 -0.008797142 -0.02415953 -0.00036564106
0001b0 b9 16 1f be 96 57 8b bd 34 38 3a bd f4 8e 7e be
       -0.15536012 -0.06803815 -0.045463756 -0.2485922
0001c0 2c 97 87 3b 81 64 ee bc e3 40 9a 3c 83 90 71 3d
       0.004137894 -0.029100658 0.018829769 0.058975708
0001d0 49 95 a8 3d 0b da 9b bd ce c9 4e bd a2 cc 9a bd
       0.08231599 -0.07609948 -0.050485425 -0.07558562
0001e0 de 78 86 3c 21 5f 82 bd fb af ae bc fd 71 79 be
       0.016415056 -0.06365801 -0.021324148 -0.2435989
0001f0 eb b0 66 bd 2f 48 43 3c cc e1 db bd cc c0 c7 bd
       -0.056321066 0.011919065 -0.10736427 -0.0975357
000200 b2 82 ab bd d3 2c 43 ba 78 69 d4 3d 7b 49 0c be
       -0.083745375 -0.0007445339 0.10371679 -0.13699906
000210 4f 00 a8 3c be 34 05 3e 15 b0 19 be 1f 35 2d be
       0.02050796 0.13008401 -0.15008576 -0.16914795
000220 c9 a2 91 3d 61 c5 f0 3d 17 a3 80 3c d8 a3 83 3d
       0.07111127 0.11756397 0.015702767 0.06427735
000230 67 d1 c9 bd f6 a1 ab 3d bf 2b 04 bd 37 09 94 bc
       -0.098543935 0.08380501 -0.032268282 -0.0180708
000240 b6 2b af 3d 5c 47 07 3c 50 9c 2c 3b 0c e2 1c 3d
       0.08553259 0.0082567595 0.0026338287 0.038301513
000250 c5 5c 9f bd d7 64 59 3d 0a 91 f4 bc 7c da 8f bc
       -0.07781366 0.053074684 -0.029854316 -0.017560236
000260 10 f2 e6 bd da 41 f9 bd 1c 3c 05 3d 97 34 ae 3d
       -0.112766385 -0.12170763 0.032528028 0.085061245
000270 7a 8b 16 bd b1 c2 2b bb a9 97 b6 bd 0f c0 18 3e
       -0.03675411 -0.0026208574 -0.08915646 0.14917015
000280 62 5d b9 3d db 8e 1e 3c 7e 04 4d be 04 e3 2e be
       0.090510145 0.009677614 -0.20021245 -0.17078787
000290 f3 12 a5 3b f4 28 65 bb 99 d1 62 3d a7 25 04 3e
       0.0050376593 -0.0034967037 0.05537567 0.12904988
0002a0 91 62 3e 3d 78 23 d9 bd 55 6e ce bc bf 97 51 bd
       0.04648072 -0.10602468 -0.025199095 -0.051170107
0002b0 36 e2 ac 3c 21 b4 09 bd 05 ab 54 bd 6a 4b 81 3d
       0.02110396 -0.03361905 -0.05192091 0.06313212
0002c0 6a 9d d0 3b 00 35 44 bc 35 be aa 3c c4 1b 72 bd
       0.0063664215 -0.011975527 0.02084265 -0.05910851
0002d0 a7 cc 19 bd 4c ce 28 be a3 b2 f6 bd 7c 39 cc bd
       -0.037548687 -0.16484946 -0.12045791 -0.09971902
0002e0 ea 15 c1 3d ce 37 a5 bc 70 aa 3c 3d 49 c1 c6 3d
       0.09428008 -0.020168211 0.04606098 0.09704835
0002f0 1a c9 07 3e 55 02 2c 3d 6f 8a 7d 3c 35 a6 1f be
       0.13260308 0.04199441 0.0154749 -0.15590747
000300 5b e5 0b 3d 24 76 97 bd 5f a1 8b 3c 98 6f b2 3d
       0.034154277 -0.073955804 0.017044721 0.08712691
000310 08 fa ba bc 7e 2a f2 bc d6 67 a5 bd f9 9e 9c bd
       -0.022824302 -0.029561277 -0.08076446 -0.07647509
000320 d6 89 c2 bb 4f 63 03 3b f9 74 72 be e2 6e c2 3b
       -0.0059368415 0.0020048206 -0.23677434 0.0059336284
000330 d0 ad f1 bc df 45 b0 bc 25 86 eb 3c e5 7b 80 bd
       -0.029501826 -0.021517692 0.028750489 -0.06273631
000340 fa 5e 35 3c 58 f7 95 3d 5f 41 85 3c 2d c8 12 3e
       0.011070007 0.07322568 0.016266523 0.14334174
000350 c8 fb 06 bd d2 02 d7 3d ed db 59 3d 35 a3 99 bd
       -0.03295496 0.10498585 0.053188253 -0.075018324
000360 49 53 11 3e 0c 63 46 3e be 2e 92 3d 8a af 3e 3a
       0.14191927 0.19373721 0.071378216 0.0007274082
000370 ce 93 6a 3d a9 db 2f be 84 50 63 3d 8b 6b 09 3e
       0.057269864 -0.17173637 0.055496708 0.1341993
000380 6c 45 44 ba 21 f2 e9 3d 4b a9 42 3c 66 0c e1 bd
       -0.00074871513 0.114231355 0.011881183 -0.10988693
000390 9f 7c 90 3d 9c 10 85 3d 16 43 8a 3c ae ac c2 3d
       0.070550196 0.064973086 0.016877692 0.09505592
0003a0 34 ba 64 bd 84 f1 81 3d ad 50 bc bd fe 0e 60 3d
       -0.05584164 0.063448936 -0.09195075 0.054701798
0003b0 12 3b 95 bd 48 fa e5 3c 41 65 1d be 28 2c b7 bc
       -0.072866574 0.028073445 -0.15370657 -0.022359923
0003c0 97 05 fc 3d d5 57 a1 bc d8 d8 26 3c 37 a7 21 3d
       0.12305754 -0.019695202 0.0101835355 0.03946611
0003d0 65 fc 62 bb 16 d9 96 3d e3 ce 8f 3d 0e cd eb 3c
       -0.0034635302 0.073656246 0.070218824 0.028784301
0003e0 81 4d f0 bc 97 6e 23 bd 8f b8 d2 bd c3 bf 34 be
       -0.029333832 -0.03990039 -0.10289108 -0.17651276
0003f0 97 0b 23 3c 43 b9 96 be b0 05 cf bc 3e b9 03 3e
       0.009951494 -0.29438218 -0.025271267 0.12863633

conv3.bias f4 [32]
000000 4f ca 8b bd 80 b1 00 3e d3 2f cd 3c 6e 0f c8 bc
       -0.06825697 0.12567711 0.025047218 -0.02442142
000010 b7 b9 56 3c 2f 8f 45 bd c2 52 16 bc cb d8 05 3e
       0.013105801 -0.048232254 -0.009175004 0.13070981
000020 3b 4e 30 3e 14 40 96 3d 81 47 94 bd 09 b8 5e 3c
       0.17217343 0.07336441 -0.07240201 0.013593682
000030 b9 f0 e2 bb 03 f5 b5 3a 66 46 2c 3d af 5a 53 bc
       -0.006925669 0.0013882223 0.042059325 -0.012900039
000040 62 51 c7 3c e7 13 e7 bc 7f 00 1f 3d d5 13 43 3d
       0.024330799 -0.028207732 0.038818832 0.047626335
000050 d1 c4 f4 3d ae 20 8b bc a4 23 08 be 96 3f 8f bd
       0.11951602 -0.016983356 -0.13294846 -0.0699455
000060 0d a3 ca bd 70 5d 47 3d 26 00 c0 3c cd fe 34 bd
       -0.09894381 0.048673093 0.02343757 -0.04418831
000070 5a ed cc bb 88 ae fe 3c 7f 81 35 3c d3 dc d7 3d
       -0.0062538804 0.031089082 0.011078238 0.10540166

bn1.weight f4 [16]
000000 f7 07 86 3f d3 66 88 3f 46 76 7c 3f 10 6b 86 3f
       1.0471181 1.065638 0.9861797 1.0501423
000010 9a 73 6c 3f ab 59 85 3f be 39 86 3f 6a 87 64 3f
       0.92363894 1.041799 1.0486372 0.89269125
000020 00 50 76 3f 20 43 76 3f 06 48 70 3f b1 93 7b 3f
       0.9621582 0.96196175 0.938599 0.98272234
000030 68 32 76 3f f5 73 7b 3f 1b c5 72 3f 9c 55 7d 3f
       0.96170664 0.9822381 0.9483201 0.98958755

bn1.bias f4 [16]
000000 49 60 8c 3d 08 fe fd 3c 1d f9 b6 bb 0e 33 44 3d
       0.068543024 0.03100492 -0.005583896 0.047900252
000010 0c e2 01 bd bd df b9 3d d2 96 7c 3c 1d 1f b2 bd
       -0.031709716 0.09075878 0.015416818 -0.08697341
000020 47 5e 1b bd bd 89 b3 bc 0c 9c 73 bc e5 d5 b1 bc
       -0.037931707 -0.021916265 -0.014868747 -0.021708438
000030 c3 d4 c0 3c d6 13 da 3c 6f 12 90 bd 1e 5e ae bc
       0.023538953 0.026620787 -0.07034766 -0.021285113

bn1.running_mean f4 [16]
000000 3f e6 68 3e b9 28 7f 3e 1b 38 86 be 4d 4b db 3e
       0.22744082 0.24917878 -0.2621468 0.42830887
000010 2c ed bb bd 00 05 d7 3e 20 c3 d4 3e ec 43 9e bd
       -0.09176096 0.41996002 0.4155512 -0.07727799
000020 a9 05 2f be 5d 05 5c 3e 95 18 93 be da cd e2 3e
       -0.17092003 0.21486421 -0.28729692 0.44297677
000030 ef b2 8d 3c 39 f6 c2 3d 35 37 7a be fa c3 f0 be
       0.017297236 0.095196195 -0.24435122 -0.47024518

bn1.running_var f4 [16]
000000 e3 6c 1d 3e 05 c7 74 3e 95 39 6b 3e 97 bc 2a 3f
       0.15373568 0.23904045 0.22971185 0.66694015
000010 80 1d 00 3d 0d 47 3a 3f 4f 31 37 3f 71 ee 8f 3d
       0.031278133 0.72764665 0.71559614 0.07027901
000020 b6 b4 b1 3d 82 dc b3 3e 69 55 26 3e 3f 19 40 3f
       0.08677046 0.35129172 0.16243519 0.7503852
000030 ef 78 75 3d 8a 66 67 3d 3e 8a ba 3e 81 4d 6d 3f
       0.059929784 0.056494273 0.36433595 0.92696387

bn2.weight f4 [32]
000000 d7 a7 76 3f 9a 5f 8b 3f 0d ae 82 3f d9 4b 6c 3f
       0.96349853 1.088855 1.0209366 0.92303234
000010 81 76 77 3f 26 89 7d 3f 6d 69 7d 3f e5 7c 71 3f
       0.966652 0.99037397 0.9898899 0.943312
000020 0e eb 76 3f 06 4f 7b 3f 15 08 8a 3f 9d 53 83 3f
       0.96452415 0.98167455 1.0783716 1.0259892
000030 05 36 6d 3f 4d 53 79 3f bd 84 82 3f 2f 3e 7e 3f
       0.9266055 0.9739273 1.0196759 0.99313635
000040 2b 96 7d 3f b9 d5 87 3f 31 2a 6d 3f 99 6f 5a 3f
       0.99057263 1.0612098 0.92642504 0.85326535
000050 4a 38 6f 3f f8 b4 6b 3f ca d5 7d 3f 13 42 7b 3f
       0.93445265 0.9207301 0.9915434 0.98147696
000060 12 99 86 3f 63 d0 89 3f 2b 1d 83 3f 62 3a 6e 3f
       1.0515463 1.076672 1.0243276 0.93057835
000070 6b bd 72 3f 3b 1c 7f 3f f2 8d 81 3f 54 0e 82 3f
       0.9482028 0.9965245 1.0121443 1.0160623

bn2.bias f4 [32]
000000 00 fc 59 bc a9 ba a4 3d b8 b4 9b 3c 1b b4 af bc
       -0.01330471 0.08043415 0.019007072 -0.021448186
000010 d9 3c 31 bc 97 a3 7d 39 44 2f 21 39 0f fa 45 bd
       -0.01081773 0.00024188902 0.00015371764 -0.048334178
000020 85 33 9b bc 5b 90 b2 39 72 d3 7f 3d 1c ab 7d 3d
       -0.018945465 0.0003405836 0.06245751 0.06193076
000030 6f 6c 50 bd e7 2c 10 bc 3d c3 e8 3b e9 87 ba bc
       -0.05088466 -0.008799768 0.0071033523 -0.022769885
000040 ed 81 9f 3c c1 68 c9 3c e6 2a 57 bd 66 18 d8 bd
       0.019471133 0.024586083 -0.052531146 -0.10551529
000050 e0 0b 0e bd ba 78 29 bd 4b 11 f8 bb 2a 9f 99 bc
       -0.034679294 -0.0413749 -0.007570421 -0.018752653
000060 8a 19 0b 3d f4 44 24 3d 25 55 1f 3d 35 26 0d bd
       0.033959903 0.04010482 0.03889956 -0.034460265
000070 5e 54 19 bd 6a 65 22 bc fb 95 f9 bb a0 de 61 3d
       -0.037433974 -0.009911874 -0.007616756 0.055143952

bn2.running_mean f4 [32]
000000 d0 fa 34 bf 20 96 fe bd 7e 39 7b 3f 08 9f e1 be
       -0.7069521 -0.12430978 0.981346 -0.44066644
000010 36 c9 d1 bf 51 17 72 be 32 25 1e bf ad 75 51 bf
       -1.638953 -0.23641707 -0.61775506 -0.81820184
000020 5c 7e e1 bf 11 1e 66 bf c7 6a be 3f b3 36 1d 3f
       -1.7616687 -0.8988963 1.4876336 0.6141159
000030 4e 7c 6d bf 33 7c 4d bf 79 f2 8a bd 49 56 c9 3e
       -0.927678 -0.8026764 -0.06784529 0.39323643
000040 29 70 9c bd bc 82 b5 3d 2c 76 06 bf 63 8b 38 3e
       -0.0763858 0.08862826 -0.52524066 0.18021922
000050 e0 80 2d bf a1 b4 28 bf 63 64 38 bf 6f 8e c6 3e
       -0.6777477 -0.6590062 -0.7202818 0.38780543
000060 ab c5 32 3f 7c a6 98 3e df a3 92 3e 5a a0 ec be
       0.6983287 0.29814517 0.2864065 -0.4621609
000070 9e b1 d2 bf d2 8e 46 3e 92 90 b9 3f e9 9c 93 3d
       -1.6460454 0.19390419 1.4497244 0.072076626

bn2.running_var f4 [32]
000000 cd f7 65 40 a5 20 91 40 1a 88 5a 40 d2 ae 8b 3f
       3.5932496 4.535235 3.414557 1.0912726
000010 57 ef 82 40 13 e9 1c 40 42 22 f0 3f bc 14 d4 3f
       4.0917163 2.4517257 1.8760455 1.6568828
000020 7b 54 27 41 cd 80 67 40 93 a6 97 40 cf 95 ad 3f
       10.458125 3.6172364 4.739084 1.3561343
000030 fe 89 65 40 1b f6 b6 40 8d 60 0e 40 1a 4f d4 3f
       3.5865474 5.717542 2.224643 1.658664
000040 3f bb c0 3f a0 93 ce 3f 34 9a 33 40 8d a5 64 3f
       1.5057143 1.6138802 2.8062868 0.8931511
000050 ad f1 85 40 32 9b 41 40 43 7a 87 40 e6 85 e4 3f
       4.1857514 3.0250974 4.2336745 1.7853363
000060 70 fd d7 3f 4e 3e 00 40 51 38 81 40 64 fe 13 40
       1.6874218 2.0038028 4.0381246 2.3124018
000070 0d 28 ad 40 73 35 69 3f 3e 63 2a 40 b2 70 9e 40
       5.411139 0.9109718 2.6623073 4.9512568

bn3.weight f4 [32]
000000 fe 65 50 3f 6e cf 46 3f 89 7c 5b 3f e2 24 3d 3f
       0.8140563 0.7766026 0.857369 0.73884404
000010 7e 63 36 3f 29 7a 61 3f 48 94 54 3f 48 7c 4b 3f
       0.71245563 0.88077027 0.8303876 0.79486513
000020 c6 15 50 3f 64 11 66 3f fc 2a 61 3f d5 7c 58 3f
       0.81283224 0.89870286 0.87956214 0.8456548
000030 ce 34 36 3f b0 b5 4e 3f 6d 43 43 3f bd 9d 58 3f
       0.71174324 0.80745983 0.7627476 0.8461569
000040 71 b8 30 3f 6f 0b 6a 3f e6 95 4f 3f 88 e3 23 3f
       0.69031435 0.91423696 0.810881 0.6401906
000050 60 79 63 3f da 4b 4f 3f 53 9b 48 3f d6 cf 48 3f
       0.8885708 0.80975115 0.78362006 0.7844213
000060 c8 05 58 3f f1 44 5c 3f a3 39 59 3f 8e 72 56 3f
       0.8438382 0.86042696 0.8485357 0.83768547
000070 47 49 67 3f 2e 9f 5b 3f ad 4f 44 3f 66 fd 3e 3f
       0.9034619 0.85789764 0.76684076 0.74605405

bn3.bias f4 [32]
000000 05 da 3b be 58 88 fb bd a4 54 05 be 14 9d 25 be
       -0.18344887 -0.12281865 -0.13020569 -0.16173202
000010 56 31 25 be e7 2e fb bd a6 dd 42 be 68 fd 15 be
       -0.16132101 -0.12264805 -0.19029865 -0.14647448
000020 1b f6 a3 bd ae f9 b1 bd 34 9e 87 bd 55 11 27 be
       -0.08005925 -0.08690201 -0.06621972 -0.16315205
000030 47 dc 01 be 93 79 04 be d9 c7 f8 bd a1 2b 18 be
       -0.12681685 -0.12937002 -0.12147493 -0.14860393
000040 2a 7e 82 be 61 54 59 bd aa 90 2f be c1 fa 8c be
       -0.2548688 -0.053058986 -0.17145029 -0.2753506
000050 30 0a b6 bd b6 6b 46 be 04 01 21 be 9c e5 cc bd
       -0.08888662 -0.19377026 -0.15723044 -0.10004732
000060 96 4f c2 bd e3 99 9e bd 32 b8 be bd 6c 09 13 be
       -0.09487836 -0.07744195 -0.09312476 -0.14359063
000070 41 69 a5 bd 62 14 02 be 8d e9 01 be a5 2e 2b be
       -0.08076716 -0.12703088 -0.12686749 -0.16717012

bn3.running_mean f4 [32]
000000 4a 7b 8f 3b 5a be 19 bf d9 6c 94 be cf e8 5e bf
       0.004378711 -0.6005608 -0.28989294 -0.8707399
000010 4e f8 c6 3e 94 7c dc bf cc 78 a9 bf 26 0d 47 bf
       0.38861316 -1.7225518 -1.3239989 -0.7775444
000020 81 eb ee 3d 41 26 ad bf 87 fd 38 3e 98 d4 19 bf
       0.116660126 -1.3527299 0.18065463 -0.6009002
000030 88 40 0f bb 27 29 83 3f b1 6c b6 3f 6a 27 8f bf
       -0.0021858532 1.0246934 1.425192 -1.1183903
000040 25 1e 62 bf 58 09 97 bf a0 0b 3c bf 1c d3 0b 3d
       -0.88327247 -1.1799726 -0.7345524 0.034136876
000050 8f 8b e5 be f5 aa 9f bf 21 c8 02 bd a5 c2 ba be
       -0.44833037 -1.2474047 -0.03192914 -0.36476627
000060 da 36 20 be 62 bb 4a bf e1 dd a9 bf 5d 51 03 3f
       -0.15645924 -0.79192173 -1.3270837 0.51296026
000070 e2 87 b6 bf a2 25 b3 3e de b1 d0 be ad 11 87 be
       -1.4260218 0.3498965 -0.40760702 -0.26380673

bn3.running_var f4 [32]
000000 8e 8a aa 40 f6 7c 1f 40 6b ee 43 40 84 0a b1 40
       5.3294134 2.492002 3.0614269 5.5325336
000010 76 34 2a 40 df da fd 40 47 3f f0 40 68 a8 b2 40
       2.659452 7.9329677 7.5077243 5.5830574
000020 ab 82 a6 40 5c af 3a 41 70 73 9b 40 f9 40 90 40
       5.2034507 11.667812 4.8578415 4.507931
000030 17 1e 3e 40 04 77 ef 40 d0 d2 85 40 a2 47 9c 40
       2.9705865 7.4832783 4.181984 4.8837442
000040 b6 59 a9 40 34 b9 74 41 aa c3 08 41 61 61 2c 41
       5.292201 15.295216 8.54777 10.773774
000050 43 38 8f 40 9c c4 ba 40 3a 8d 0d 40 19 30 57 40
       4.475618 5.8365 2.2117448 3.3623106
000060 3c 94 4b 40 68 d1 2a 41 dc fd ea 40 1c 59 c3 40
       3.1809225 10.676125 7.3434887 6.1046276
000070 ab 9f 0c 41 6a 72 dd 40 2e d4 83 40 05 eb eb 40
       8.788981 6.9202166 4.119651 7.372439

fc10.weight f4 [4, 2048]
000000 83 87 b7 ba d6 ad 32 3c 02 b3 92 bc 05 54 08 bc
       -0.0014002178 0.0109057035 -0.017907623 -0.008320813
000010 d1 ab a5 3c 3e ae ad bd 00 7c e4 bb a1 dc 0b 3d
       0.02022353 -0.084805 -0.0069727898 0.034145955
000020 06 33 fd bb 1e f4 43 3b 62 19 f7 ba 00 8f aa ba
       -0.0077270297 0.0029900144 -0.0018852169 -0.0013012588
000030 ad ac 26 3c 2c 68 5c 3c 9e 87 8d bc 7c 98 03 3d
       0.010173005 0.013452571 -0.017276581 0.032127842
000040 b6 34 ad bc 70 f6 d7 b8 a5 70 01 bc b6 d4 95 ba
       -0.021143299 -0.000102979015 -0.007900392 -0.0011431191
000050 ab 7f 2f 3d 04 05 96 3c da 02 99 3c 87 c9 44 bc
       0.042846363 0.018312939 0.018678118 -0.0120109385
000060 ab 9d 81 bd 01 42 8b bc 98 fc 1d bc 6d 7a eb bb
       -0.06328901 -0.016999247 -0.009642743 -0.007186225
000070 59 af 19 3d 33 5f a1 bc 9d b6 d5 bb e7 d9 01 3d
       0.03752074 -0.019698715 -0.0065220133 0.03170195
000080 6d 31 90 bc 81 ab 1d 3c 5d 86 09 3c a3 dd 16 bb
       -0.017601693 0.009623409 0.008393851 -0.002302029
000090 04 65 4e 3c f4 2c 08 3c 6a de 85 3c e2 fd a3 bc
       0.012597326 0.008311499 0.016341407 -0.020018522
0000a0 f5 00 4c 3c 0a 52 77 3b 86 73 f1 bc 41 f9 2e bd
       0.0124514 0.0037738108 -0.029474031 -0.042718176
0000b0 5a 0e 24 bd cb fe 53 bb 7e 94 7b bd 3c 82 d1 bc
       -0.04005275 -0.0032347913 -0.06142091 -0.025574796
0000c0 60 ca c0 3b 19 95 a3 bd c1 6b a0 3c 61 14 88 3b
       0.0058835 -0.079874225 0.019582631 0.00415282
0000d0 bd 2a 54 bb c3 1e ce 3c 78 eb af bc 54 76 57 3d
       -0.0032374107 0.025161153 -0.021474585 0.05260308
0000e0 79 c8 11 bd 82 28 ec bc 7f f8 d0 3b f1 9a bc bc
       -0.035591576 -0.02882791 0.0063772793 -0.0230231
0000f0 6a 98 a0 3c a0 ce 3f 3a c5 7e cb 3c 6d f6 24 3d
       0.019603927 0.00073168613 0.024840722 0.040274072
000100 a4 65 32 bc 95 d6 d7 bc 75 22 4f bd b7 7b d4 3c
       -0.010888491 -0.026347438 -0.05056997 0.025937898
000110 d6 41 dd bb 1b 0d ac bb f0 62 ee bb 54 10 2c 3d
       -0.006752233 -0.0052505857 -0.007274978 0.04200776
000120 59 f1 22 3b 81 0f 29 3c 32 56 b3 3c e5 5b 88 bc
       0.0024863093 0.010318638 0.021891687 -0.016645381
000130 94 9d d9 3c 19 f8 18 bc d8 d4 a2 bd bf 0b 5e 3d
       0.026564397 -0.009336495 -0.07950753 0.05421042
000140 9f 2e 62 bc c8 11 a9 3c 36 03 05 3d 33 e2 9f ba
       -0.013805061 0.020638362 0.032473765 -0.001219815
000150 03 4b 33 3d d2 f9 d1 bb 06 ef 8e bc 47 92 85 bb
       0.04377271 -0.0064079547 -0.01744796 -0.0040762755
000160 2b 51 bd 3c 52 cf 1c 3d 39 5e b0 bb fe 93 51 3c
       0.023109993 0.038283654 -0.005382326 0.012791632
000170 95 17 95 3c 58 e8 c6 bb 66 a4 37 3d ee fd 31 3c
       0.018199721 -0.006070178 0.044834517 0.010863764
000180 9d 13 27 3d d4 91 04 bd 1b b7 15 3c 36 d3 63 3c
       0.04079019 -0.032365635 0.009137894 0.013905337
000190 06 fd 19 bd 58 b5 68 3d 73 83 83 3b 18 36 96 bb
       -0.037594818 0.056813568 0.0040134727 -0.004584085
0001a0 8e a9 7f 3d 20 ab f9 bb 59 19 a5 3c 77 d0 c2 3d
       0.06241756 -0.0076192766 0.020153688 0.09512418
0001b0 15 c4 33 bc 1a c5 0f bd ab 77 73 bd 8e 6f c6 3d
       -0.010972043 -0.03510008 -0.059440296 0.09689246
0001c0 56 1d 4c bc 1e 2a a9 bc 09 39 42 3d 3e fd 30 be
       -0.012458166 -0.020649966 0.047417674 -0.17284104
0001d0 80 b8 c9 3b b3 78 97 3c bc c7 98 bc f6 92 dd bb
       0.0061560273 0.018490171 -0.018649928 -0.006761904
0001e0 61 cd 2e bd 40 a1 8a bc f6 e1 b6 3a 6e 96 10 3d
       -0.042676333 -0.016922593 0.001395284 0.03529971
0001f0 28 b9 34 bc a2 8b a4 3c 0f 95 e0 3c 79 bf 31 bc
       -0.011030473 0.020086113 0.027414827 -0.010848873
000200 89 f9 fa 3b e4 49 6d bd ec 10 dc bc aa cd de b8
       0.0076591414 -0.057931796 -0.026863538 -0.00010624093
000210 bd e2 73 3b f7 d7 41 bd 80 6c 83 3d 4c ab 93 3d
       0.0037214004 -0.0473251 0.06417179 0.07210407
000220 6d 24 0d bc 63 ce fd 3b 6a 13 1f bd db 8e 06 3d
       -0.008614642 0.0077455505 -0.038836874 0.03285108
000230 8a 84 66 3b ca 1b c2 bc 08 cf 5d 3c 75 0a 9f bc
       0.0035174214 -0.023694891 0.01353813 -0.019414166
000240 bc 13 0b bd 2e 2e df bc a8 18 9e b9 37 b8 55 bd
       -0.033954367 -0.0272437 -0.0003015448 -0.052177634
000250 6b c9 16 bc b3 5f 5b 3a 02 20 fe bc a3 af db bb
       -0.009203295 0.00083684473 -0.031021122 -0.006704287
000260 91 e8 48 3c f9 c0 f4 bc a0 01 9b 3c 63 0e 63 3c
       0.012262479 -0.029877173 0.018921673 0.0138584105
000270 37 ff 8e bc 33 36 22 bd 91 b4 bb 3a 7c c5 ea 3c
       -0.01745568 -0.03960247 0.0014320781 0.028658621
000280 27 a5 8f 3c 49 83 84 3c fa 5e a8 b9 0d 1e ac 3b
       0.017534805 0.016175883 -0.0003211422 0.005252606
000290 28 49 14 3b 33 2c a4 3b 09 7c 2d bc ec 80 c8 3b
       0.0022626612 0.005010152 -0.010588654 0.0061188843
0002a0 ce bd f8 bc 54 f4 37 3c 34 9a 94 bc 45 b8 fe 3b
       -0.030363943 0.011227686 -0.018139936 0.0077734315
0002b0 9b 44 8f bc 6a 8f 43 be 58 66 5b 3b b9 ac 4d 3c
       -0.017488768 -0.19097677 0.003347775 0.012553387
0002c0 c7 07 f2 bc a8 4c da 3c 11 d5 b8 3c 5d 97 32 3d
       -0.029544724 0.02664788 0.022562535 0.043601383
0002d0 ef 6f 88 3c 2d c4 db 3e 02 42 49 bb 0e 4d 05 bd
       0.016654937 0.42923108 -0.003070951 -0.03254419
0002e0 ed 56 00 be 19 80 27 bd c1 9d cf bc 0c a9 e7 bc
       -0.1253316 -0.040893648 -0.025343778 -0.02827885
0002f0 e0 5e b9 bc a0 c4 39 ba 96 4e 54 3c 7c a8 c3 bd
       -0.022628248 -0.00070864893 0.0129581895 -0.0955362
000300 f2 7f 43 3c 1d 58 b3 3c 70 3b 04 3c 66 42 35 bb
       0.01193236 0.021892602 0.008070812 -0.0027657985
000310 8d 23 99 bb b5 49 71 bd 25 79 a5 3c 57 7c 81 3c
       -0.0046734274 -0.058908183 0.020199368 0.01580636
000320 c7 2a a9 bc f7 e6 a7 3c 3b 9c b8 3b a6 41 ec ba
       -0.02065028 0.020495875 0.0056338585 -0.0018024936
000330 60 e1 88 3c 1c 28 40 3d 68 62 f7 bc 3e f0 87 3c
       0.01670903 0.04691325 -0.030198291 0.016594049
000340 b3 c3 70 3c d8 59 54 bb cc 64 fc bb e7 58 67 bc
       0.014695096 -0.0032402184 -0.0077024456 -0.014120317
000350 17 78 38 bc cc e3 16 3d 8f dd eb 3c c9 95 e3 3c
       -0.0112591 0.036838338 0.02879217 0.027781384
000360 43 48 57 bb ad 11 5f ba 99 15 e6 3b 8d de 2a 3b
       -0.0032849468 -0.0008509409 0.0070216176 0.0026072592
000370 90 dc bc bc ff 4e ad 3c 07 25 9a 3c 74 9b 8c ba
       -0.023054391 0.021155832 0.018816484 -0.0010727481
000380 f2 de 00 3c 58 9d 04 3d 06 60 f3 3b 92 89 42 bc
       0.007865654 0.032376617 0.0074272184 -0.01187362
000390 ca 6a 3d bc 3b 2e 81 3c 90 2f d0 3c 57 1f 4a 3c
       -0.011561105 0.015769115 0.025413305 0.012336574
0003a0 b4 ed ff 3c 28 79 4d 3c 92 31 89 3c 75 20 21 bd
       0.031241275 0.012541093 0.01674727 -0.039337594
0003b0 01 9c 28 3f e2 96 d6 3d 47 95 13 3d f3 b0 a7 bc
       0.65863043 0.10477997 0.036031034 -0.020470118
0003c0 08 ec de 3c bf 32 0b 3a 90 00 4a 3d 77 99 48 3c
       0.027212158 0.0005309991 0.049316943 0.01224362
0003d0 62 e4 2e 3f 38 82 01 be f8 81 1b 3d 3d e6 a5 bc
       0.68317235 -0.12647331 0.037965745 -0.020251388
0003e0 6e 61 8e bd 07 ec 13 bd 34 05 81 bc f1 70 9c bc
       -0.06952177 -0.036113765 -0.015749551 -0.019096823
0003f0 e5 36 32 3b 68 09 3a 3c 1e b1 04 bd 2a d4 24 3d
       0.0027193364 0.011354782 -0.032395475 0.040241398

fc10.bias f4 [4]
000000 23 c3 b1 3a 53 84 cd bb d0 59 f9 bb f8 8e 96 bb
       0.0013562184 -0.006271878 -0.0076095834 -0.00459468

fc11.weight f4 [4, 2048]
000000 d4 4e c1 3c 0c 06 8e 3d 0e ea 7c bc 25 21 c7 bd
       0.023597158 0.06934747 -0.015436662 -0.09723119
000010 74 be d3 3c 1c a7 68 3d 16 95 6d bd 87 a7 77 3d
       0.025847651 0.056799993 -0.058003508 0.0604625
000020 9a 0d 8b bd 4e 0f 02 3d 96 b3 1f 3d bc a3 c0 3c
       -0.06789704 0.031752877 0.038989626 0.023515575
000030 f3 24 2e 3d 75 b3 f5 3b 20 f8 04 bd 39 03 f9 bc
       0.042515706 0.0074981996 -0.032463193 -0.030397044
000040 05 79 dd 3c 7b 06 af bc 13 b4 01 bd 0f 94 bd 3c
       0.027035246 -0.021365395 -0.031665873 0.023141889
000050 09 b6 ce 3b 04 80 0a 3d 2b 5b 0a 3d 7d 62 51 3d
       0.0063083214 0.03381349 0.03377835 0.051119316
000060 de 6d 19 bd 11 d5 6f 3c 55 c5 32 bb d9 7b 36 bc
       -0.037458293 0.014638201 -0.0027278264 -0.011137926
000070 dd 28 ba bc f7 f0 e3 bc 7e 7f 41 bb 28 6c 94 bd
       -0.022724563 -0.027824862 -0.0029525454 -0.07247192
000080 a5 6e 0c 3d d5 1a d5 bc bd 31 93 3c 93 4d a4 3d
       0.034285206 -0.026013771 0.017968053 0.080226086
000090 2d 38 b5 3c c1 2f 1d bd 2a 58 00 bd 2b ac 4d bd
       0.022121513 -0.03837562 -0.03133408 -0.05021302
0000a0 da d0 e9 3c bf 91 72 3c 50 7f 2c bd dd 14 cb bd
       0.028541971 0.014805256 -0.042113602 -0.09916089
0000b0 06 f0 2b bd ae 53 5c bb c3 6d 1f bd 5c 75 28 bd
       -0.04197695 -0.0033619213 -0.038923036 -0.041127548
0000c0 ce 2e 2a 3d af c6 01 bb f2 b0 21 bc 94 4f aa bd
       0.041548543 -0.0019802263 -0.009868847 -0.083159596
0000d0 8f b5 46 bd 70 2e 95 3c a1 71 c3 3c 7f aa 01 ba
       -0.04851299 0.01821062 0.023857893 -0.00049463654
0000e0 d8 6e ac bb b6 10 33 bd b7 6b 75 3b d3 19 9f bb
       -0.005262237 -0.04371711 0.0037448236 -0.0048553734
0000f0 4a 32 5e bd 6d 46 7c bc d4 36 c6 3c 2a c1 01 3d
       -0.054247178 -0.01539765 0.024196066 0.031678356
000100 f7 1a 83 3b b0 c4 bd bc 56 a1 2a bc ae 46 69 3d
       0.004001017 -0.023165077 -0.010414442 0.05695217
000110 d6 ac e4 bc ed 40 1c 3d 82 d9 f6 bc 4d b3 04 bd
       -0.027914446 0.038147856 -0.030133013 -0.032397557
000120 e3 bd 69 bd 96 01 e4 bc 3a 78 e5 bc d9 39 55 bd
       -0.057065856 -0.027832787 -0.02801143 -0.05205712
000130 02 92 12 bd a2 6d 0a 3c 9e 81 c8 3c 30 ae 14 bd
       -0.035783775 0.00844899 0.024475869 -0.03629893
000140 12 eb 45 bd c5 c2 22 3c e5 a1 4a bb f2 b3 1e 3d
       -0.048319884 0.009934132 -0.003091925 0.038745828
000150 d8 53 6b bc 28 6a 7e bc 78 45 22 bd f8 c1 d3 3c
       -0.014363252 -0.015528239 -0.03961703 0.025849327
000160 fd c6 1b bb 79 64 00 3c f6 71 8a bb 07 d5 f2 bd
       -0.002376973 0.007836455 -0.004225011 -0.11857038
000170 ea b3 3b bc 67 67 0d bc 71 73 d6 bb b1 06 96 3b
       -0.011456469 -0.00863061 -0.0065445234 0.0045784344
000180 3e 9e 4d bd 4b fb 2c 3c aa 57 f6 bc 6a 6e 54 bc
       -0.05019974 0.01055796 -0.030071098 -0.012965778
000190 00 ff 78 bd e5 43 bf 3c 95 c8 60 3d 2a c1 ec 3c
       -0.060790062 0.023347804 0.05487879 0.028900702
0001a0 f4 cb 50 bc df 5b 93 bd d1 f2 21 3d 0d 5f 30 3b
       -0.012743939 -0.071952574 0.03953821 0.0026912123
0001b0 58 8f 2f bd 73 da a1 bc 91 4a 87 bc ea 0f a2 bc
       -0.042861313 -0.019757485 -0.016515048 -0.019782979
0001c0 0b e6 94 bd ae 91 2e 3c 29 95 25 3c 7e dc 2e bd
       -0.0727044 0.01065485 0.010106363 -0.042690746
0001d0 0d fe 74 3c 2f 9f 7a bc c7 75 1f bd f6 9d 1c bd
       0.014953149 -0.015296741 -0.03893068 -0.03823658
0001e0 09 ce ca 3a 36 e8 0d 3d b6 7d e4 bc 98 70 ae bc
       0.001547278 0.03464528 -0.027891975 -0.021293923
0001f0 ef b8 71 3c 46 ee de 3c e3 df 1e bd f7 00 59 3b
       0.014753564 0.027213227 -0.038787734 0.0033112147
000200 cf f6 7a bd a8 76 1b bd d1 3e 81 bb 49 79 0a bd
       -0.06127053 -0.037954956 -0.003944256 -0.033807073
000210 23 b6 19 3c ff bc 91 3c 0b 7d 4b bd 26 5b b6 bd
       0.009381804 0.017790316 -0.049679797 -0.08904104
000220 0c cd 8b 3c 2d 82 80 bd 83 cb 44 bd ea 60 0e bc
       0.017065547 -0.06274829 -0.048045646 -0.008690098
000230 56 de dc bc d6 73 ea bc 97 5b 72 bc 2c fd ed 3c
       -0.026961487 -0.028619688 -0.0147923445 0.029051386
000240 e9 f9 34 3d f5 e7 25 bd 78 90 82 3c 22 a6 f2 bb
       0.044183645 -0.040504415 0.015938029 -0.0074050585
000250 55 63 49 bd 04 a1 52 3c 09 12 70 3c 81 c8 89 bc
       -0.049166996 0.012855772 0.014652737 -0.01681924
000260 6f 81 8f 3c 84 7f 23 bd e8 df d4 3c 86 46 09 3d
       0.017517773 -0.03991653 0.025985673 0.033514522
000270 08 97 91 bb 24 d7 1a 3c 27 10 72 3c 2d b2 97 bd
       -0.004443053 0.009450708 0.014774359 -0.07407031
000280 27 37 15 3d 4e 9d 85 3b 70 d7 63 3c 11 f9 a6 bc
       0.03642955 0.00407759 0.013906345 -0.020382436
000290 0b 80 f9 bb 20 fe 7e bb 8e ed 36 bc ba 7b fd 3b
       -0.007614141 -0.0038908795 -0.011165036 0.0077356966
0002a0 b7 92 ee 3c 7f ad 0c bd 5b a1 cf 3b cd 4a 48 ba
       0.029122693 -0.034345146 0.0063363737 -0.0007640541
0002b0 be ca 7f bc 82 5d 29 bd 06 45 b8 bc f5 a6 bc 3c
       -0.015612302 -0.04134894 -0.02249385 0.02302883
0002c0 fa 8f 9a 3d 2e 22 42 bd b4 ae 37 bb f8 10 4e 3d
       0.075469926 -0.047395878 -0.0028027715 0.05030915
0002d0 e2 b1 90 3c 4d c7 89 3d b2 6a 52 bd 6d 30 5f bd
       0.017662946 0.06727467 -0.051371284 -0.05448954
0002e0 b3 ce 63 3d b7 57 2b ba 61 97 df bc 26 04 af 3b
       0.055617046 -0.0006536203 -0.027293863 0.0053410707
0002f0 3c 63 3d bd d4 cc 32 3d 4b 33 7d bd 82 e5 63 3d
       -0.046237215 0.04365237 -0.061816495 0.055638798
000300 89 44 fe bc c0 58 60 bc 4d b0 2b bd 7b 56 ac 3c
       -0.03103854 -0.013693035 -0.04191618 0.02103733
000310 31 a2 0e bd 55 87 a5 ba fe 1d 3b bd cc 3d 8a bb
       -0.034822647 -0.0012628833 -0.0456829 -0.0042187925
000320 fe a5 35 bc 38 9d cf bc e7 f7 85 bc ad 28 83 3b
       -0.011086939 -0.025343522 -0.01635356 0.0040026517
000330 65 66 c4 bc d4 aa a5 bd 4c 45 73 bc 6c 1a d6 bc
       -0.023974607 -0.080892235 -0.014848065 -0.026135646
000340 12 5c 20 bd f8 3f 9d bc d6 ec 43 bd 42 2d 46 bc
       -0.039150305 -0.019195542 -0.047833286 -0.012095751
000350 85 1b fc bc f2 5d 5f bd a8 e8 f2 bb 50 89 f0 bc
       -0.030774841 -0.054532953 -0.0074129887 -0.02936235
000360 1f 41 43 bd 91 7d d2 bb d0 db ec bd 22 f9 82 bd
       -0.047669526 -0.00642366 -0.115653634 -0.063951746
000370 81 48 70 3c f5 3f 52 3c fe d1 69 bd 47 f6 40 bd
       0.014665724 0.012832631 -0.05708503 -0.04710987
000380 11 7e 97 bb 1d 6d 07 bd 08 1f 1a 3d f6 b9 d7 3c
       -0.0046231826 -0.033063043 0.03762725 0.02633379
000390 f0 75 3f 3c b6 c2 d1 3d 53 29 8e 3c a8 7c ae bc
       0.011685833 0.10242216 0.01735369 -0.021299675
0003a0 8e 66 40 3d 03 c1 15 bc 99 ae ae bc 47 cd 3e bd
       0.046972804 -0.009140256 -0.021323489 -0.046582486
0003b0 e8 f6 30 3b fc 28 41 3e bd 6f c3 bc 02 b5 2e 3b
       0.0027002636 0.1886329 -0.023856992 0.0026658182
0003c0 2d 67 0a bd 46 4e c8 bc 80 e9 d2 bb 76 a8 60 bd
       -0.033789802 -0.024451386 -0.006436527 -0.054848157
0003d0 71 57 21 3e 6b 9f eb bc 4e fe b8 3c 3e a3 73 bc
       0.15756012 -0.02876254 0.0225822 -0.014870463
0003e0 ec 8e b2 bd 8f c5 49 bd be 87 c0 3c 8e c8 88 3c
       -0.087186664 -0.049260672 0.023502227 0.016697194
0003f0 4a 59 a0 3d e0 38 0a bd 92 7d d8 bd 4e fb 28 bd
       0.078295305 -0.033745646 -0.10570826 -0.041255288

fc11.bias f4 [4]
000000 3f ab 6e bc c9 6d 94 bc 1b 4f 54 bc 20 09 a1 bc
       -0.014567195 -0.018118756 -0.012958313 -0.019657671

fc3.weight f4 [512, 4]
000000 38 a8 6c bf 6b 58 6a 3f 9d 57 e3 3e 32 5a e9 3e
       -0.9244418 0.91541165 0.4440278 0.45576626
000010 50 b3 ea 3b 55 5d 43 bf 3e 00 2e be a8 90 e8 3d
       0.007162489 -0.7631429 -0.1699228 0.11355716
000020 c6 e2 52 bf 37 bc 91 bd 6e 59 86 be 23 48 1a bf
       -0.8237728 -0.07115977 -0.26240104 -0.6026632
000030 45 4b b1 3e 1f ac 67 3e 0e 81 35 be 1c 95 6b 3f
       0.3462774 0.22624253 -0.17725012 0.920244
000040 f7 c2 e1 3e 9d 8a a4 be b6 1d a6 be b3 f1 ec be
       0.4409406 -0.32137004 -0.32444543 -0.46278152
000050 13 47 b9 3d ed 80 ef bb d9 71 2f 3f c9 ac 7d 3f
       0.090467595 -0.0073090703 0.6853309 0.99091774
000060 15 36 85 3f 14 7e 20 bf 41 32 43 3e 14 93 1f bf
       1.040713 -0.6269238 0.19062139 -0.623338
000070 f7 4b 0b bf 50 5a d6 3d 50 5d 9c 3e 5b 96 69 3f
       -0.5441279 0.104664445 0.30539942 0.9124505
000080 da ce 8f 3e aa 27 0c 3f 34 8e e2 be b3 7d c4 bd
       0.28087503 0.5474802 -0.44249117 -0.09594288
000090 d0 7d 72 be 75 97 48 3e bc aa 62 bf 97 72 26 3f
       -0.23680806 0.19589026 -0.8854177 0.650186
0000a0 21 90 3a 3d 20 52 e6 bd 68 eb 04 3f c9 32 c1 3f
       0.04554761 -0.11246133 0.519217 1.5093623
0000b0 ea 42 8a 3f 74 ec 4b bf 29 94 37 bf 29 20 b6 3d
       1.080167 -0.79657674 -0.7171045 0.08892853
0000c0 f4 86 0f 3e 62 ec ea 3d 69 30 9f 3d c8 73 94 be
       0.14016324 0.11470868 0.077729054 -0.28994584
0000d0 71 59 a8 3e ca e9 6f bf 91 2a 92 be 9e 75 8a bf
       0.32880738 -0.9371611 -0.285481 -1.0817144
0000e0 f9 b7 04 3f ae b2 2e bf 74 ba 40 bf aa 24 3c 3e
       0.5184322 -0.68241394 -0.75284505 0.18373361
0000f0 b4 6e a3 3f bb ef f0 be 69 fe 2c bf 7c e6 14 c0
       1.2768159 -0.470579 -0.675757 -2.3265676
000100 c6 61 ab bf ac cb 86 3d 7d 54 22 3f 2a 4f 86 3f
       -1.3389213 0.06581816 0.6341017 1.0492909
000110 44 2d 59 3d 74 e1 0e bd 73 c9 81 bd b2 8c 96 bd
       0.053021684 -0.034882978 -0.063372515 -0.07351054
000120 e9 3c 84 3c 24 4e 2b be 9b a8 3b be e9 cb 9b 3e
       0.016142325 -0.16729027 -0.18326037 0.3042901
000130 9b e2 07 bf a1 d8 9c be 64 99 3b bd 1a 28 a6 3f
       -0.5308015 -0.30634025 -0.04580058 1.2980988
000140 00 fe c4 3e 18 5e 61 bf b8 80 18 bf 2d ab d8 bf
       0.38475037 -0.880342 -0.5957141 -1.6927239
000150 75 54 ad be 41 d2 e7 3d 54 b9 35 3f 86 cd 19 3f
       -0.33853498 0.113193996 0.70985913 0.6007923
000160 88 02 83 bc 78 72 06 3f 05 02 07 3f f9 61 ca 3e
       -0.015992418 0.52518415 0.52737457 0.39527872
000170 a7 3c 32 be 0e af 8c bd e0 c8 8d 3d d1 a1 e2 bc
       -0.1740595 -0.068693265 0.069230795 -0.02766505
000180 29 58 f6 bc be c2 68 3f 08 ee 1a 3f 89 aa 8a 3f
       -0.030071335 0.90922153 0.60519457 1.0833293
000190 aa ef 1e be b6 04 19 3f 4f 20 0e 3f 4e d9 05 3f
       -0.15521112 0.59772813 0.5551805 0.52284706
0001a0 f3 87 09 3f f9 c9 e2 be 5b aa 63 bf c7 6e ae 3e
       0.5372307 -0.44294718 -0.88931817 0.3406889
0001b0 79 5b 68 3e 36 c2 14 3f b1 34 98 3e cb 4f e4 3e
       0.22691144 0.5810884 0.297277 0.44592127
0001c0 0f 70 4b bd 03 54 2d be fd 33 c1 bd 48 8d 86 bf
       -0.049667414 -0.16926579 -0.09433744 -1.0511866
0001d0 7d 61 2e be 37 48 12 be c0 35 9b 3e 34 15 21 3f
       -0.17029376 -0.1428536 0.30314445 0.6292298
0001e0 d3 92 61 be 77 c9 25 bf 02 d9 9f 3e 3f de 4d be
       -0.22028665 -0.64760536 0.3122025 -0.20104311
0001f0 b8 75 52 bd e1 24 86 3f 74 23 ff be bf 3d 76 bf
       -0.051381797 1.0480005 -0.49831736 -0.9618797
000200 95 ad 97 3e 86 35 23 3f 4a 66 ce be f0 38 ce bf
       0.2962462 0.63753545 -0.40312415 -1.6111126
000210 ba 43 b9 bd 7e 04 6c be c4 7f 9e be 52 e3 3b bf
       -0.09046121 -0.23048589 -0.30956852 -0.7339374
000220 0c 2b 4f 3f 58 76 0f be 60 47 e4 be 81 ab 31 3f
       0.8092506 -0.14009988 -0.44585705 0.6940232
000230 34 ce 16 3e b9 98 66 bf 96 1e bb be d3 7b 9f be
       0.14727098 -0.90076786 -0.36546773 -0.31149158
000240 ab dc 27 bf 74 20 a5 3e 5c bc 86 3e 3e 5d 74 3f
       -0.6557109 0.32251322 0.26315582 0.95454776
000250 9e ea 8e bd 62 39 e4 3f 40 1c 7f be 43 dc eb bd
       -0.069783434 1.7830012 -0.2491312 -0.11516621
000260 9f e3 c4 bd a0 49 3e 3f 88 4a 09 be 8f c9 59 3d
       -0.09613728 0.7433109 -0.13407338 0.053170737
000270 9e 22 06 bf 66 f1 af 3f 9d d5 f9 bd b0 f3 06 bf
       -0.5239657 1.3745544 -0.121989466 -0.5271559
000280 bc dc cb bd 3c ee 15 3d 0c 2a 62 3e 36 0a 70 be
       -0.09954211 0.03660415 0.22086352 -0.23441395
000290 c9 a2 a7 3d 89 35 cb be 75 9e 35 be e4 ec 90 be
       0.08185346 -0.39689282 -0.17736228 -0.28305733
0002a0 bf a9 81 3f a5 98 06 bf 75 d2 6b bf 01 e6 2a 3f
       1.0129927 -0.5257667 -0.92118007 0.6675721
0002b0 ae ff 7d bf 80 62 91 bd a7 5f 21 3f b6 6e 8e be
       -0.9921826 -0.070988655 0.6303658 -0.2781884
0002c0 fd 01 23 be 16 05 9c 3e 1a 9e fc 3d c4 74 ad 3e
       -0.15918727 0.3047263 0.12334843 0.33878148
0002d0 4d b3 df 3c 13 d5 26 bd b1 48 51 bf a4 ce 31 be
       0.027307177 -0.040730547 -0.81751543 -0.17363983
0002e0 4d 3c c8 3e fb ef bb bf 8b 5a ac bc 7c bf 8f bf
       0.39108506 -1.4682611 -0.021039268 -1.1230311
0002f0 aa 85 93 3d e4 71 2f 3f e0 a9 c1 bd 4d 72 ca bf
       0.07203229 0.6853316 -0.09456229 -1.5816132
000300 b1 c5 c1 bd 19 4d 0e bf 34 ff 89 be 2e 48 fd be
       -0.09461535 -0.5558639 -0.26952517 -0.4946913
000310 d9 0c 1d bc 09 82 7a bd 45 ce b9 3f 17 b7 ca 3d
       -0.009585583 -0.061159167 1.4516073 0.09898203
000320 dd 90 c2 3e 0b 0e 76 3f e8 93 24 bf d3 17 aa 3f
       0.38001147 0.9611518 -0.6428819 1.328852
000330 b1 80 9e be 62 33 26 3f ef a1 10 3f 7c c9 6a 3e
       -0.3095756 0.64922154 0.5649709 0.22928423
000340 bf e3 0e be 5b b4 85 3e a0 74 0f 3e fa e3 20 be
       -0.13954066 0.26114163 0.14009333 -0.15711966
000350 dd 2c 66 3f 8b 16 4b bf 5a 2d ce bf 25 ae 75 bf
       0.89912206 -0.7933127 -1.610759 -0.9596885
000360 16 88 51 3e b2 57 61 3e 6b a1 bc 3e 64 8b ab 3d
       0.20462069 0.2200611 0.36841902 0.08376196
000370 b2 86 9e 3d b5 5c 60 3e 03 4d 0c bd 68 29 01 3f
       0.07740535 0.21910365 -0.03425313 0.50453806
000380 54 91 c9 3f 51 df d0 3d 3b 9b 04 bf ca 66 c8 3f
       1.5747476 0.10198844 -0.5179936 1.5656369
000390 5d 71 3c 3e f1 c9 35 3d 9d 70 f4 3e 97 f0 81 3e
       0.1840262 0.04438204 0.47742167 0.25378868
0003a0 fe 2d 80 3d 31 4c 74 bf 75 61 88 bf af 80 e0 be
       0.06258772 -0.9542876 -1.0654742 -0.43848178
0003b0 36 a7 23 3e 62 cd d2 3e 58 8d 88 3d d9 f1 01 3f
       0.15981755 0.4117232 0.06667584 0.50759655
0003c0 d7 64 23 3f 63 7f 4d bd 91 05 07 3f d8 d4 cb be
       0.63825744 -0.050170314 0.5274287 -0.39810824
0003d0 b4 71 7c 3f f3 7e 08 bf 70 41 1d 3f d3 b8 0c be
       0.98611 -0.5331871 0.61427975 -0.1374238
0003e0 e5 16 20 be b3 9e c5 be 85 fd 0b c0 61 0f 5f be
       -0.15633734 -0.3859764 -2.1873486 -0.2178321
0003f0 81 a0 52 bf 88 7e c4 3e 31 92 ee 3c 5f da b4 3f
       -0.8227616 0.38377786 0.029122444 1.4129142
