saved_models_2D/VAE_patch_folds/CVAE2D_64_0.5_fold_6.pth (torch, 51894 bytes, 49 tensors)

conv1.weight f4 [3, 1, 5, 5]
0.5583516 0.4672213 0.3482773 -0.0039703525 0.8295602 -0.10066776 0.23034425 0.35260853
0.1291647 0.61235726 -0.7169432 -0.054998092 0.12259616 -0.44978362 0.256171 -0.18247928
-0.086045586 -0.12573072 -0.45433578 0.57124346 -0.049876228 -0.04725553 0.19701494 0.043506958
0.77694184 -0.37605587 -0.10227083 0.14089747 0.106106006 0.40933624 -0.48196405 -0.2767352
0.01444913 -0.09738209 0.20135261 -0.27633926 -0.63978636 -0.07817013 0.029477602 0.23156272
-0.24306534 -0.02028534 -0.048059087 0.1333671 0.09256113 -0.07218433 -0.41534626 -0.50705963
-0.08000755 0.21957171 0.545181 0.11369277 -0.05754212 -0.21860167 -0.12231823 0.49597517
-0.2087286 -0.31375375 0.0786998 -0.48079234 0.3258944 -0.001957143 -0.25079793 0.232506
-0.41486058 0.5889923 0.376991 0.16053912 0.267469 -0.19643235 0.82559794 0.6643693
0.3858929 0.22646339 0.40184766
00000000: 21f0 0e3f a137 ef3e 6751 b23e bb19 82bb
00000010: 0f5e 543f e62a cebd 5ddf 6b3e 1b89 b43e
00000020: c043 043e 72c3 1c3f 9789 37bf ae45 61bd
00000030: b213 fb3d 0a4a e6be d828 833e d9db 3abe
00000040: ab38 b0bd 8ebf 00be b39e e8be 033d 123f
00000050: 044b 4cbd 048f 41bd 49be 493e 5a34 323d
00000060: a9e5 463f 658a c0be 5e73 d1bd 6d47 103e
00000070: 1b4e d93d 8594 d13e fec3 f6be 3cb0 8dbe
00000080: 0bbc 6c3c 4370 c7bd 612f 4e3e 577c 8dbe
00000090: 0ac9 23bf a917 a0bd 037b f13c c71e 6d3e
000000a0: 1fe6 78be 712d a6bc 9bd9 44bd 6391 083e
000000b0: b190 bd3d 61d5 93bd 44a8 d4be a9ce 01bf
000000c0: 00db a3bd 68d7 603e fb90 0b3f c1d7 e83d
000000d0: 49b1 6bbd 1ed9 5fbe fb81 fabd 75f0 fd3e
000000e0: f3bc 55be 55a4 a0be 5c2d a13d 6a2a f6be
000000f0: a1db a63e 6943 00bb 9668 80be 0e16 6e3e
00000100: 9b68 d4be 33c8 163f f704 c13e 5e64 243e
00000110: b2f1 883e 9025 49be 635a 533f 1b14 2a3f
00000120: c193 c53e 05e6 673e fabe cd3e

conv1.bias f4 [3]
0.13973632 0.08961184 -0.093985744
00000000: 0a17 0f3e 6a86 b73d 997b c0bd

conv2.weight f4 [4, 3, 3, 3]
0.11828268 -0.098283425 -0.045492545 -0.068499394 -0.09650963 0.2933929 0.08535484 0.20204817
0.264787 0.114513464 0.5036207 -0.0655194 0.24184962 -0.086698405 -0.001653123 0.43778676
0.1138331 0.33063847 0.39360595 0.64023226 0.34754488 0.29023308 -0.104376025 0.23249285
0.3721327 0.52620685 0.5905478 0.14509442 0.19803496 0.5305871 0.11370756 0.005114701
0.05092007 0.19672753 0.57282424 0.35918954 -0.116856 -0.16680166 -0.24946293 0.022088632
-0.10532222 0.067408696 0.111093745 -0.12816143 0.10174667 0.58661103 -0.112712264 -0.03857042
0.08494609 0.20480749 0.20458405 0.107408516 -0.25585204 -0.069947414 -0.3155143 0.317642
0.16181687 -0.1978741 -0.1261467 0.0017983104 0.092218965 0.3270453 0.028346116 0.2954627
0.27867442 0.40864876 0.28301573 0.025202196 0.08982097 0.08776516 0.24769081 0.64883804
-0.17576559 -0.33430547 0.09915027 -0.028164586 0.20802747 0.05069083 -0.60376716 -0.20140208
0.2026473 -0.20529778 -0.6166147 -0.4689098 -0.35094622 -0.4044017 0.0773545 -0.1628789
-0.6584938 -0.4741951 0.24243245 -0.14328441 -0.11607193 -0.16516425 0.011704804 0.14074795
0.036235817 0.50817853 0.26141596 -0.5620314 -0.16390306 -0.07691272 -0.03660407 -0.45917276
0.08330648 -0.100762986 -0.24202946 -0.0046784156
00000000: 313e f23d d248 c9bd 6456 3abd 6949 8cbd
00000010: d7a6 c5bd 9837 963e 85ce ae3d b7e5 4e3e
00000020: 2992 873e 0986 ea3d 49ed 003f 092f 86bd
00000030: 6da7 773e ef8e b1bd 9aad d8ba 9625 e03e
00000040: 5421 e93d 7249 a93e b886 c93e 43e6 233f
00000050: 67f1 b13e 6e99 943e 19c3 d5bd 9b12 6e3e
00000060: 2d88 be3e 7eb5 063f 242e 173f a293 143e
00000070: adc9 4a3e 8ed4 073f 82df e83d 3999 a73b
00000080: 9091 503d f172 493e 9ca4 123f b1e7 b73e
00000090: 3352 efbd 0ece 2abe 3673 7fbe 38f3 b43c
000000a0: 2db3 d7bd 920d 8a3d 1e85 e33d c03c 03be
000000b0: 8f60 d03d 242c 163f b0d5 e6bd 04fc 1dbd
000000c0: 37f8 ad3d 0eb9 513e 7b7e 513e fff8 db3d
000000d0: 0aff 82be 9740 8fbd 178b a1be f9a1 a23e
000000e0: 52b3 253e 829f 4abe 9a2c 01be 49b5 eb3a
000000f0: 4cdd bc3d 7b72 a73e 1d36 e83c e346 973e
00000100: 6aae 8e3e 693a d13e 70e7 903e d674 ce3c
00000110: 0ff4 b73d 38be b33d a9a2 7d3e 401a 263f
00000120: e5fb 33be 162a abbe 4c0f cb3d 6bb9 e6bc
00000130: 2705 553e 30a1 4f3d 7c90 1abf 593c 4ebe
00000140: c682 4f3e 9539 52be 76da 1dbf f214 f0be
00000150: 39af b3be bd0d cfbe 096c 9e3d bac9 26be
00000160: 0d93 28bf b3c9 f2be 3640 783e 26b9 12be
00000170: 1fb7 edbd d120 29be 82c5 3f3c 3b20 103e
00000180: 026c 143d fd17 023f 50d8 853e 4ae1 0fbf
00000190: 34d6 27be 6b84 9dbd 26ee 15bd b118 ebbe
000001a0: 969c aa3d d35c cebd 92d6 77be 654d 99bb

conv2.bias f4 [4]
0.09950256 -0.049337547 0.019761942 0.2476942
00000000: 00c8 cb3d 2b16 4abd cce3 a13c 8ca3 7d3e

conv3.weight f4 [12, 4, 3, 3]
0.21176635 -0.24764429 -0.3061884 0.18160926 0.06430039 -0.3530697 0.55081356 0.14011443
0.04791795 -0.36565453 -0.5636472 -0.3339215 -0.019425588 0.056087393 -0.4682177 0.29761976
0.2920622 0.19087854 0.12004731 0.059868827 -0.12680039 -0.04430625 0.36181372 0.097494505
-0.30149794 -0.05616606 -0.068666354 0.21956936 0.39563212 0.4355362 0.21423967 0.36343357
0.6377053 -0.52330154 -0.046216022 -0.009970509 -0.23755403 -0.08497842 0.2960097 -0.13656901
-0.13854912 0.010131207 0.53467345 0.18094641 0.4652094 0.17207022 0.07991694 -0.5981621
0.032309134 -0.02142326 0.0469053 -0.105914794 0.24793051 0.5624707 0.24683146 -0.08718673
0.35043263 0.08215151 0.14170231 -0.12052918 -0.04587148 0.1278343 -0.1289714 0.41929063
0.07110608 -0.08418354 -0.029044539 -0.074457124 -0.2566836 -0.26588395 -0.25130534 -0.038415942
0.2102189 0.034726635 0.46903664 0.14634638 0.14731403 -0.0967743 0.30709818 0.073495194
-0.010656846 0.0124909235 0.02029709 -0.48423743 -0.055368036 0.1637278 -0.19314906 -0.29263893
-0.0856482 -0.3192826 0.42988497 -0.2256776 -0.20290735 0.2053688 -0.10882985 0.0034469448
-0.12748352 -0.025418077 -0.01962971 0.23950626 0.31256455 0.16312213 -0.34654993 0.17632182
-0.21965107 -0.4560319 -0.27932814 -0.21544088 -0.2557467 0.39922932 0.08051292 -0.29306677
0.19351669 -0.28080094 -0.21129258 0.33957776 -0.19724588 -0.9801266 0.03458857 0.19040646
-0.29980132 -0.009527534 -0.024553226 0.2633214 0.37510514 -0.6223281 -0.015956942 -0.27538112
-0.35929027 0.085768126 -0.13051958 -0.28201246 0.6278079 0.035418797 -0.25577122 0.22405834
0.52733356 0.14054151 0.047828253 -0.1250314 0.19748135 -0.24449222 0.057391487 0.39352477
0.30438367 0.14015914 -0.0059999265 0.47751674 0.38600087 -0.5053159 0.049850818 -0.09614845
-0.31370306 -0.32572335 0.118894994 -0.10479264 0.24927887 -0.12060334 0.115533195 -0.34629488
-0.50850993 0.28203437 -0.20632099 0.08265508 0.20848373 -0.034470275 -0.043063425 0.19875374
-0.033698134 0.25034192 0.111696295 -0.24193086 0.25274056 0.13482726 -0.23662722 0.2541128
0.270235 -0.53697664 0.4042748 0.38387635 0.5491073 -0.31732756 0.038130537 0.19479637
-0.3296254 0.03325761 0.91121054 -0.1262167 0.5364273 -0.10917393 0.123775035 -0.38131633
0.16094898 -0.014664767 0.03584973 -0.24097182 0.30567554 0.05081612 0.038795784 -0.13747367
0.4561798 -0.26859176 0.083210744 0.05760339 0.15592778 -0.11890577 -0.32832232 0.2140069
0.23850042 -0.37771478 0.05703867 0.27450275 0.084137134 -0.045107774 0.17571487 -0.3147758
0.4309404 0.00018556675 -0.07593436 -0.009549241 0.05385712 -0.32343635 0.64702696 -0.16602367
-0.6241622 0.37685746 -0.07979156 -0.04952165 0.13302732 0.13804398 -0.2795076 -0.20155655
-0.16447201 0.22019465 -0.050864704 -0.35766178 0.25808322 -0.2614874 -0.12546894 -0.055397227
-0.14857462 0.008719595 0.0066072713 0.15340613 0.07174036 -0.058007196 -0.35030752 0.27112868
-0.088408075 -0.23346971 -0.11018314 -0.1923469 0.250245 -0.15066111 -0.2184255 -0.35736233
00000000: 47d9 583e 7796 7dbe bac4 9cbe c7f7 393e
00000010: ecaf 833d 8dc5 b4be 1e02 0d3f 287a 0f3e
00000020: 9d45 443d 1237 bbbe 2f4b 10bf c2f7 aabe
00000030: 6922 9fbc e5bb 653d 3bba efbe 9e61 983e
00000040: 2d89 953e aa75 433e 5ddb f53d 0439 753d
00000050: f6d7 01be 787a 35bd a63f b93e 33ab c73d
00000060: f05d 9abe 620e 66bd f2a0 8cbd cad6 603e
00000070: 4b90 ca3e 9afe de3e a561 5b3e f713 ba3e
00000080: a840 233f 17f7 05bf 034d 3dbd 595b 23bc
00000090: 5d41 73be 2a09 aebd 958e 973e bfd8 0bbe
000000a0: d2df 0dbe 5dfd 253c 5ce0 083f 044a 393e
000000b0: ed2f ee3e 2d33 303e 7eab a33d 2721 19bf
000000c0: 9556 043d d57f afbc c61f 403d dbe9 d8bd
000000d0: 7fe1 7d3e 14fe 0f3f 63c1 7c3e f58e b2bd
000000e0: e86b b33e 0d3f a83d 691a 113e 01d8 f6bd
000000f0: bce3 3bbd ffe6 023e 1411 04be 43ad d63e
00000100: 11a0 913d 6b68 acbd d0ee edbc fa7c 98bd
00000110: 086c 83be f121 88be 18ab 80be 095a 1dbd
00000120: a043 573e 843d 0e3d 9225 f03e d3db 153e
00000130: 7dd9 163e 9b31 c6bd f93b 9d3e a684 963d
00000140: 0d9a 2ebc bba6 4c3c 1546 a63c f8ed f7be
00000150: 98c9 62bd 43a8 273e dec8 45be c5d4 95be
00000160: 5368 afbd 0279 a3be e219 dc3e 0718 67be
00000170: f2c6 4fbe 334c 523e 2fe2 debd 23e6 613b
00000180: 0a8b 02be 9239 d0bc 7cce a0bc 2141 753e
00000190: 7608 a03e 7d09 273e fe6e b1be b58d 343e
000001a0: 36ec 60be 037d e9be 1904 8fbe 899c 5cbe
000001b0: 3bf1 82be c967 cc3e f5e3 a43d d90c 96be
000001c0: 3d29 463e 24c5 8fbe 155d 58be 23dd ad3e
000001d0: d3fa 49be 94e9 7abf bfac 0d3d e9f9 423e
000001e0: 8f7f 99be 6019 1cbc d923 c9bc 10d2 863e
000001f0: c80d c03e e550 1fbf 22b8 82bc c1fe 8cbe
00000200: e5f4 b7be 33a7 af3d eda6 05be f063 90be
00000210: 05b8 203f 4d13 113d 72f4 82be 8d6f 653e
00000220: 55ff 063f 1dea 0f3e 8fe7 433d 3b08 00be
00000230: 8d38 4a3e 2b5c 7abe 5613 6b3d 147c c93e
00000240: 2dd8 9b3e e185 0f3e 089b c4bb 137d f43e
00000250: e8a1 c53e 625c 01bf 5f30 4c3d 7be9 c4bd
00000260: b09d a0be 36c5 a6be 387f f33d 869d d6bd
00000270: f642 7f3e e2fe f6bd ab9c ec3d 904d b1be
00000280: b52d 02bf cf66 903e cf45 53be 1147 a93d
00000290: c27c 553e b430 0dbd 4663 30bd 1a86 4b3e
000002a0: 0e07 0abd d12c 803e 07c1 e43d b9bc 77be
000002b0: 3667 813e 2810 0a3e 684e 72be 131b 823e
000002c0: 3e5c 8a3e 4d77 09bf 1bfd ce3e 718b c43e
000002d0: 4c92 0c3f c278 a2be c42e 1c3d b378 473e
000002e0: a9c4 a8be 2239 083d 1845 693f f33e 01be
000002f0: 4d53 093f 9596 dfbd c47d fd3d e53b c3be
00000300: cfcf 243e 7e44 70bc 2bd7 123d 51c1 76be
00000310: 8181 9c3e 9024 503d 54e8 1e3d e6c5 0cbe
00000320: 6690 e93e dc84 89be 656a aa3d 88f1 6b3d
00000330: 88ab 1f3e de84 f3bd dd19 a8be a024 5b3e
00000340: 7439 743e d563 c1be 61a1 693d a08b 8c3e
00000350: 1750 ac3d eec2 38bd 99ee 333e 4b2a a1be
00000360: 38a4 dc3e b294 4239 7983 9bbd 6b74 1cbc
00000370: 4999 5c3d 7399 a5be 8fa3 253f 1c02 2abe
00000380: 18c9 1fbf 76f3 c03e c269 a3bd 37d7 4abd
00000390: 5038 083e 675b 0d3e 9f1b 8fbe d764 4ebe
000003a0: 5a6b 28be b57a 613e 8257 50bd 721f b7be
000003b0: 7c23 843e ade1 85be ee7a 00be 34e8 62bd
000003c0: f223 18be a2dc 0e3c cf81 d83b 7f16 1d3e
000003d0: 9cec 923d f498 6dbd 825b b3be 61d1 8a3e
000003e0: 4b0f b5bd af12 6fbe b3a7 e1bd 96f6 44be
000003f0: 1d20 803e e846 1abe efaa 5fbe 32f8 b6be

conv3.bias f4 [12]
-0.20335087 -0.22212678 0.06962497 -0.07477057 0.10503811 0.035219133 0.060067505 -0.0024968064
-0.25070757 0.06682905 0.21165568 -0.21741974
00000000: 363b 50be 3475 63be 8997 8e3d 5021 99bd
00000010: 381e d73d f041 103d 5809 763d 76a1 23bb
00000020: be5c 80be abdd 883d 44bc 583e 48a3 5ebe

conv4.weight f4 [16, 12, 3, 3]
-0.23216371 -0.071936965 0.12970647 0.12778096 0.07334944 -0.6095194 0.18105988 0.29325458
-0.27432168 0.3174508 -0.3279285 -0.06462238 -0.26958692 -0.15604961 0.17033508 0.15397313
-0.0059996345 0.46094352 0.14716797 -0.048008054 -0.39363727 -0.011036391 -0.00055670115 0.28549638
0.03223766 -0.12291421 0.1423531 0.39709294 0.24254236 0.056683913 -0.054479644 -0.07277155
0.09193918 -0.16264558 -0.06621937 0.076925404 0.38355482 0.40387622 0.25609937 0.0809266
-0.10700041 0.3974076 0.20973118 -0.05600025 -0.13193601 -0.36947456 -0.13205314 -0.1499971
0.17436497 -0.2395512 -0.3754727 0.13685116 -0.20664237 -0.49329424 -0.14019932 -0.2868762
0.067856796 -0.17349361 0.33074754 0.28471968 -0.024349611 -0.0176688 0.13841654 0.04957074
-0.07340333 -0.25324196 -0.23142497 0.22175142 0.46233192 0.06800326 0.32423884 0.51350963
-0.11872068 -0.22427328 0.0044644135 -0.18059394 -0.0015986343 0.19558139 -0.008389887 0.15963408
0.2747536 -0.33702657 -0.12346174 -0.20390253 0.06460038 0.18261892 0.2806799 0.2443815
-0.0699081 -0.18098545 -0.11088004 0.12614566 0.16423799 0.21765837 0.19949953 -0.23155916
-0.26515207 0.2291411 -0.10218054 0.11232798 0.16472992 -0.1677696 -0.12211487 0.009454061
0.1861392 0.16158384 0.023555426 0.37732577 0.20562848 -0.036772378 0.113873474 0.24176139
-0.29230207 0.5460777 -0.10898129 -0.10486966 0.7339336 -0.060444668 0.12617028 0.07586732
0.05641062 -0.03367023 -0.09264066 0.017225958 -0.058569197 -0.41276643 0.052963383 -0.014330294
-0.035979416 0.114919424 -0.14477578 0.1594871 0.08192709 -0.102403946 -0.51920164 0.23050028
0.04290423 -0.035829507 -0.2736501 0.010136604 -0.08812585 0.08999115 0.24003007 0.060277887
-0.22109622 0.12482961 -0.018455673 0.29847413 -0.07733991 0.13047439 0.5304278 -0.1575811
-0.17518686 0.014701423 -0.13585241 0.14474498 0.11143852 -0.5194517 -0.4750404 0.07217239
-0.1595526 0.114075005 -0.11229401 0.015179824 0.38000038 -0.043955866 0.19128828 0.37698263
0.029242257 -0.02165902 -0.31233355 -0.10852137 0.124670915 0.16490372 -0.17416191 0.015382075
-0.08115292 -0.13568756 0.03760803 0.19796659 -0.23960756 -0.1693743 -0.14622808 0.09219143
0.056525048 -0.20662661 0.12846674 0.14343125 -0.2729111 -0.18362918 0.23951383 -0.110591866
-0.18319072 0.08153605 -0.3037657 0.1470783 0.1368951 -0.042229436 0.053318493 0.026912985
-0.055531025 -0.16848923 -0.33142164 0.38820073 -0.21722628 0.29794532 0.22723487 -0.1280837
0.0020098295 -0.19779916 0.01664011 0.07412586 -0.13708898 0.08115262 0.06635683 -0.007092525
0.10947987 0.2863912 0.089984596 -0.39166173 0.1024373 0.1767446 0.21231031 0.038451854
-0.079983816 0.0034267518 0.095568955 -0.1152041 -0.11441925 0.15322535 -0.10780146 -0.17281406
0.057388734 -0.25515452 0.05167564 -0.018740913 -0.08080034 0.06663604 -0.059150297 -0.17925434
-0.0552287 0.091681235 0.05868467 -0.11182608 0.08406867 0.11660199 0.35042274 0.05031465
-0.4485722 0.10751256 0.103752136 -0.12669083 0.20615321 0.15256235 0.017442944 0.2899093
00000000: 53bc 6dbe b053 93bd c6d1 043e 03d9 023e
00000010: 3b38 963d 7709 1cbf c367 393e 7725 963e
00000020: e473 8cbe e988 a23e 3fe6 a7be bd58 84bd
00000030: 4c07 8abe 78cb 1fbe 526c 2e3e 22ab 1d3e
00000040: 9598 c4bb ca00 ec3e 33b3 163e 18a4 44bd
00000050: d38a c9be fbd1 34bc 95ef 11ba 952c 923e
00000060: a30b 043d 72ba fbbd 03c5 113e c44f cb3e
00000070: 065d 783e 642d 683d 0c26 5fbd 4009 95bd
00000080: 9c4a bc3d 908c 26be 059e 87bd 118b 9d3d
00000090: 4c61 c43e ddc8 ce3e 751f 833e d8bc a53d
000000a0: 0823 dbbd 0279 cb3e c5c3 563e 8560 65bd
000000b0: 3c1a 07be c52b bdbe f038 07be d798 19be
000000c0: bb8c 323e e94c 75be f53d c0be b622 0c3e
000000d0: 0f9a 53be 1091 fcbe 6990 0fbe 70e1 92be
000000e0: 81f8 8a3d 4fa8 31be be57 a93e c7c6 913e
000000f0: d678 c7bc 29be 90bc 11bd 0d3e b00a 4b3d
00000100: 7c54 96bd eea8 81be abfa 6cbe ce12 633e
00000110: c5b6 ec3e 4b45 8b3d a202 a63e 5e75 033f
00000120: d423 f3bd e5a7 65be 374a 923b 9eed 38be
00000130: 4489 d1ba 7d46 483e bd75 09bc 1e77 233e
00000140: 81ac 8c3e bf8e acbe 82d9 fcbd d3cb 50be
00000150: 344d 843d 7400 3b3e 47b5 8f3e 253f 7a3e
00000160: fa2b 8fbd 4054 39be 1315 e3bd 542c 013e
00000170: 012e 283e d6e1 5e3e 9b49 4c3e d81d 6dbe
00000180: 03c2 87be f7a3 6a3e 0844 d1bd 360c e63d
00000190: f6ae 283e cbcb 2bbe 5c17 fabd 35e5 1a3c
000001a0: 469b 3e3e 3c76 253e 4ff7 c03c d830 c13e
000001b0: 4690 523e a29e 16bd 7f36 e93d 4c90 773e
000001c0: 9ea8 95be c0cb 0b3f 9531 dfbd e8c5 d6bd
000001d0: 13e3 3b3f d494 77bd c832 013e 5360 9b3d
000001e0: d30e 673d cce9 09bd 63ba bdbd 741d 8d3c
000001f0: 41e6 6fbd 1f56 d3be 22f0 583d 9cc9 6abc
00000200: 275f 13bd e05a eb3d 1a40 14be 9650 233e
00000210: 64c9 a73d 29b9 d1bd 66ea 04bf 4408 6c3e
00000220: 59bc 2f3d f6c1 12bd de1b 8cbe 0014 263c
00000230: 537b b4bd 484d b83d 71ca 753e f2e5 763d
00000240: 0c67 62be aba6 ff3d 5a30 97bc 9ad1 983e
00000250: 6364 9ebd 149b 053e 1eca 073f f15c 21be
00000260: 2f64 33be 3dde 703c e51c 0bbe 0738 143e
00000270: e139 e43d c9fa 04bf 7f38 f3be 1ecf 933d
00000280: c261 23be 28a0 e93d 67fa e5bd ccb4 783c
00000290: 698f c23e 110b 34bd 13e1 433e de03 c13e
000002a0: 758d ef3c 426e b1bc 2fea 9fbe 7440 debd
000002b0: 7753 ff3d 85dc 283e 8057 32be 1905 7c3c
000002c0: 8133 a6bd aef1 0abe e10a 1a3d c1b7 4a3e
000002d0: af5b 75be 7570 2dbe d0bc 15be dcce bc3d
000002e0: cf86 673d ed95 53be c98c 033e a4df 123e
000002f0: 01bb 8bbe 4a09 3cbe 1d43 753e fd7d e2bd
00000300: 5996 3bbe 5ffc a63d 2e87 9bbe b29b 163e
00000310: 3b2e 0c3e c6f8 2cbd 7e64 5a3d 9f78 dc3c
00000320: 8074 63bd 7188 2cbe 19b0 a9be 3fc2 c63e
00000330: 9170 5ebe 4a8c 983e 42b0 683e 6028 03be
00000340: 58b7 033b dd8b 4abe d750 883c 4dcf 973d
00000350: 0e61 0cbe 5833 a63d 17e6 873d 6968 e8bb
00000360: fb36 e03d dea1 923e d849 b83d e387 c8be
00000370: a6ca d13d 89fc 343e e067 593e b17f 1d3d
00000380: 8ece a3bd 5b93 603b a8b9 c33d 21f0 ebbd
00000390: a454 eabd 1be7 1c3e 03c7 dcbd 2bf6 30be
000003a0: 7310 6b3d 9da3 82be d6a9 533d 8b86 99bc
000003b0: a67a a5bd 7a78 883d 9547 72bd 738e 37be
000003c0: 7d37 62bd 5fc3 bb3d 565f 703d 1205 e5bd
000003d0: 322c ac3d 06cd ee3d 9c6a b33e bc16 4e3d
000003e0: 41ab e5be 8c2f dc3d 007c d43d 3ebb 01be
000003f0: d419 533e 4e39 1c3e 81e4 8e3c fe6e 943e

conv4.bias f4 [16]
0.1513231 -0.14732346 -0.1955056 -0.07141101 0.085060894 0.23644981 0.049940974 -0.012044402
0.034354046 0.06209475 0.05107111 -0.18462494 0.057139546 -0.13968708 0.016558707 -0.012456755
00000000: 71f4 1a3e f6db 16be 9f32 48be f03f 92bd
00000010: 6834 ae3d e61f 723e e88e 4c3d e255 45bc
00000020: d4b6 0c3d 1157 7e3d f12f 513d 520e 3dbe
00000030: 280b 6a3d 210a 0fbe 20a6 873c 6b17 4cbc

bn1.weight f4 [3]
0.7526847 0.89387375 0.89120334
00000000: f2af 403f e9d4 643f e725 643f

bn1.bias f4 [3]
1.2818702 0.25143805 1.5820215
00000000: 5314 a43f 7dbc 803e ae7f ca3f

bn1.running_mean f4 [3]
0.91883403 -0.44711512 0.7834178
00000000: b538 6b3f 46ec e4be 128e 483f

bn1.running_var f4 [3]
1.4487422 1.0115597 2.0441508
00000000: 6270 b93f ca7a 813f 5ed3 0240

bn2.weight f4 [4]
0.556065 0.78749263 0.5193728 1.0517257
00000000: 475a 0e3f 1e99 493f 9ef5 043f f39e 863f

bn2.bias f4 [4]
1.0446193 0.57138443 0.6482245 -0.034314483
00000000: 16b6 853f 4046 123f 0af2 253f 588d 0cbd

bn2.running_mean f4 [4]
6.3419056 3.3260977 0.13971741 -5.526837
00000000: e4f0 ca40 c9de 5440 1512 0f3e d9db b0c0

bn2.running_var f4 [4]
7.4714217 4.3254027 2.2330158 11.853396
00000000: e315 ef40 b369 8a40 bbe9 0e40 83a7 3d41

bn3.weight f4 [12]
0.8854408 0.66640794 0.5344919 0.8515194 0.7520705 0.6368304 0.5610288 0.9002882
1.037523 0.7875367 1.2428149 0.9596001
00000000: 40ac 623f b699 2a3f 76d4 083f 2dfd 593f
00000010: b187 403f 5107 233f 959f 0f3f 4a79 663f
00000020: 8ecd 843f 019c 493f 8f14 9f3f 5aa8 753f

bn3.bias f4 [12]
-0.060582623 0.5118941 0.67749846 0.089272514 -0.067776956 -0.42962468 0.07082943 0.259163
0.08680998 -0.017416421 -0.120367154 0.3587182
00000000: 7c25 78bd 7e0b 033f 8a70 2d3f 82d4 b63d
00000010: a5ce 8abd c4f7 dbbe 050f 913d 03b1 843e
00000020: 6ec9 b13d e2ac 8ebc 0e83 f6bd e9a9 b73e

bn3.running_mean f4 [12]
0.14749311 0.99802196 0.35980994 -0.7819529 0.6476634 1.4266086 -0.52237946 0.70094615
-2.8482103 1.4123994 1.3866589 0.23356685
00000000: 6f08 173e 5e7e 7f3f 0239 b83e 112e 48bf
00000010: 45cd 253f 1c9b b63f a9ba 05bf 3571 333f
00000020: 1449 36c0 81c9 b43f 0a7e b13f 262c 6f3e

bn3.running_var f4 [12]
1.7858562 0.8443768 0.37261075 1.1127746 0.4669457 0.70804316 0.4071631 1.0761237
2.2595773 2.2008278 0.603778 3.4427593
00000000: f096 e43f 1429 583f d6c6 be3e 666f 8e3f
00000010: 8213 ef3e 5142 353f af77 d03e 6cbe 893f
00000020: ea9c 1040 5dda 0c40 3291 1a3f 2b56 5c40

bn4.weight f4 [16]
0.9334616 0.76453024 0.35406363 0.85557425 0.60027695 0.3662955 0.88706994 0.76600814
0.954968 0.39943683 0.5118988 0.9027587 0.8369998 0.58967257 0.43443418 0.7328593
00000000: 57f7 6e3f 41b8 433f d447 b53e ea06 5b3f
00000010: c0ab 193f 158b bb3e 0417 633f 1c19 443f
00000020: c878 743f fc82 cc3e cd0b 033f 321b 673f
00000030: 9e45 563f c8f4 163f 286e de3e ab9c 3b3f

bn4.bias f4 [16]
0.033767376 -0.13973153 0.7601062 -0.18152829 0.29810327 0.57708436 -0.4364379 0.14162998
-0.0658515 0.56590974 0.49664822 -0.43839327 0.1470133 0.10460695 0.38470954 0.6878865
00000000: a94f 0a3d c815 0fbe 5296 423f 8de2 39be
00000010: fea0 983e cdbb 133f ca74 dfbe 7307 113e
00000020: 27dd 86bd 76df 103f ad48 fe3e 1575 e0be
00000030: a88a 163e 2b3c d63d a6f8 c43e 5419 303f

bn4.running_mean f4 [16]
1.5667261 -0.35648206 -0.8058946 -0.055288587 -0.0018873567 -0.18343677 0.51743424 -0.44858193
0.9067409 0.41464505 -0.13291566 1.1547122 1.3117219 -0.8405659 -0.4028729 -0.013141818
00000000: 7b8a c83f d184 b6be 1c4f 4ebf 4976 62bd
00000010: 2f61 f7ba d9d6 3bbe 9276 043f 88ac e5be
00000020: 2c20 683f 5b4c d43e 0b1b 08be 9ccd 933f
00000030: 81e6 a73f 542f 57bf 5b45 cebe c850 57bc

bn4.running_var f4 [16]
0.6179833 0.9839727 0.76111877 0.73763514 0.584702 0.4802171 0.7842901 1.9130219
0.46838838 1.186612 0.54474944 1.4153343 2.5073345 0.60604465 0.6642901 1.5241119
00000000: 2734 1e3f a3e5 7b3f aed8 423f a8d5 3c3f
00000010: 08af 153f 04df f53e 3cc7 483f e7dd f43f
00000020: 9ad0 ef3e e7e2 973f b374 0b3f ad29 b53f
00000030: 2b78 2040 be25 1b3f ea0e 2a3f 1916 c33f

fc5.weight f4 [64, 16]
0.00020325146 -0.00041892962 -0.00017947177 -0.00042846482 0.00047256524 -0.0005288897 0.00043461868 0.0006011213
-0.0001403665 -0.00043976912 -0.00015442539 -0.00014796236 -0.0003603046 0.00010781986 -3.8225186e-05 0.00050795346
0.0009332252 -0.0001933393 -0.00032042287 0.00042701623 -0.00043149415 0.000637406 -0.00016980397 -0.0007157599
0.00041689686 0.001595461 -0.0004186081 -0.0002989488 0.00039488412 -7.8113895e-05 -8.351488e-05 -0.00082119525
0.00044724555 0.00041892158 -0.00039175237 -0.0006430755 -0.000526213 0.00034494378 0.00048935827 0.00059658283
8.807007e-05 -0.00026682112 0.00013862834 -0.00034868938 -0.00040256523 0.0004804677 9.083655e-05 0.00032504246
0.0005947144 0.00021696909 0.00028458348 0.00028893125 -0.0008220811 0.0007291902 -0.00075524306 -0.000275576
-0.00018973906 1.9091025e-05 -5.5396722e-05 0.00082570454 0.001346233 0.00072595244 0.0005698229 -0.0008603446
-0.0007333396 1.6919928e-05 0.0004034487 0.0012550214 -0.0008314001 0.00082095276 -0.00055180077 -0.0018741548
0.00053316174 0.0039437804 -0.0016807658 -0.0017202676 0.0007302488 -0.0011767391 -0.000782135 -0.0015570098
0.00061501167 0.000108636246 -0.0006488943 0.00012348864 -0.0008748774 -0.00023881403 0.0006171195 -0.00041849833
-0.00042152219 -4.236072e-05 0.0005433347 -0.0002511268 -3.0914565e-05 0.00029302458 -0.00033047222 0.0008064061
0.0010187617 -0.00020273207 -0.0020154512 0.00040386792 0.0007864914 -0.00035425433 0.00062618864 0.00092524197
1.03149505e-05 -0.0015056166 0.0012620294 -3.6756108e-05 -0.0005046526 0.00017348459 -0.00087534625 0.0018035657
0.0003957302 -0.0008290693 -0.00084219006 0.00029995447 0.0008459135 -0.00010264317 0.0002533369 0.0003534326
-0.00011381763 -0.0020313251 0.0010986417 0.000862357 -0.00038025458 4.1015006e-05 -0.0002071926 0.0015678293
-0.00032750124 0.00091866695 -0.00017385723 -0.00036718205 0.0002888025 -0.0005525677 -0.00028715061 0.00046937342
7.070873e-06 0.0004732934 -0.00013870532 -0.00084421143 -4.0802002e-05 0.00035721916 -0.00078953546 -0.00022427333
-9.70362e-05 0.00011056366 0.0006337615 -0.00026830507 -0.00033313278 0.00070803106 0.0002060379 -0.0003009981
-6.502514e-05 0.00040233284 0.00053778687 -0.00044557065 0.00038179613 -0.0008196965 0.00015092095 -0.00061785267
9.223395e-05 0.00025119385 0.00027861868 -0.00018070493 0.00025994176 0.0005635429 -0.0001595273 -4.0488263e-05
3.2224278e-05 0.00044047632 0.000120923934 -0.00045781044 0.00012310021 0.0001779643 -0.0002103197 -0.00069938326
-0.0009798998 -0.0004916273 0.0011442658 0.00034531928 -0.00034787148 0.00062597386 -0.0004188142 -0.0007994341
0.00045004045 0.0013742696 -0.000111754394 -0.0006071105 0.0007698316 -0.0008535503 -0.00017335804 -0.0012852356
-0.00057057396 0.0003977869 0.00079436897 0.00034653154 -0.000405378 0.00051008567 -2.3941475e-05 -0.0012781266
0.00047113514 0.0021277631 -0.0006321154 -0.00037736094 0.0008045804 0.00010128075 -0.0004655237 -0.0009135731
-0.00051063724 0.00064502645 0.00070927123 -0.00043276534 -9.824796e-05 -0.0001098413 -0.00022093579 -0.0001487087
0.00018589974 0.001031378 -0.0007657562 -0.00045044857 3.9461356e-05 -0.00028547455 -6.3341984e-05 -0.0008423686
-9.429506e-05 -0.00045043373 -0.00037489607 -0.0005644126 -0.00019464832 0.0009628097 0.00023656723 0.00033593155
0.0002749727 0.0004947416 -0.0010462257 -0.0009295932 0.00014355339 -6.55322e-05 -0.00021365944 -0.00020313032
0.00032709292 -0.00040425107 -0.00084856956 0.00020621785 0.00043584907 0.0001361638 -0.00010019795 0.00044348167
0.0005107541 0.00023845107 -0.0004075988 -0.0008133258 -0.00021770438 0.0003533818 -0.000399184 -0.0001350188
00000000: e61f 5539 c8a3 dbb9 9630 3cb9 93a3 e0b9
00000010: a2c2 f739 30a5 0aba 88dd e339 9194 1d3a
00000020: 582f 13b9 d090 e6b9 40ed 21b9 5826 1bb9
00000030: 44e7 bcb9 591d e238 fb53 20b8 2e28 053a
00000040: afa3 743a 20bb 4ab9 6efe a7b9 26e1 df39
00000050: 2a3a e2b9 9817 273a 680d 32b9 d5a1 3bba
00000060: f392 da39 ca1e d13a a178 dbb9 3bbc 9cb9
00000070: 7308 cf39 14d1 a3b8 b624 afb8 7b45 57ba
00000080: 487c ea39 b4a2 db39 1d64 cdb9 1194 28ba
00000090: 8ff1 09ba 92d9 b439 4748 003a ff63 1c3a
000000a0: 42b2 b838 20e4 8bb9 c35c 1139 4cd0 b6b9
000000b0: 640f d3b9 48e7 fb39 807f be38 766a aa39
000000c0: 9ce6 1b3a 3282 6339 2634 9539 b27b 9739
000000d0: ee80 57ba 2027 3f3a 81fb 45ba 2f7b 90b9
000000e0: b1f4 46b9 aa25 a037 c759 68b8 1874 583a
000000f0: 1574 b03a d84d 3e3a 2b60 153a c088 61ba
00000100: 963d 40ba 45ef 8d37 f885 d339 887f a43a
00000110: 51f2 59ba 3535 573a b9a6 10ba 33a6 f5ba
00000120: e1c3 0b3a d43a 813b 244d dcba 9a7a e1ba
00000130: 2b6e 3f3a d03c 9aba 3108 4dba 9414 ccba
00000140: bc38 213a a4d3 e338 8f1a 2aba bb7c 0139
00000150: 0758 65ba 276a 7ab9 30c6 213a e569 dbb9
00000160: c0ff dcb9 7aac 31b8 936e 0e3a aba9 83b9
00000170: 43aa 01b8 18a1 9939 3b43 adb9 ff64 533a
00000180: f887 853a 7a94 54b9 a915 04bb 3cbe d339
00000190: 8b2c 4e3a 36bb b9b9 cf26 243a f08b 723a
000001a0: 600e 2d37 1c58 c5ba ae6a a53a 922a 1ab8
000001b0: aa4a 04ba 6ae9 3539 7e77 65ba 9f65 ec3a
000001c0: 027a cf39 e655 59ba 6bc6 5cba 3543 9d39
000001d0: 4bc0 5d3a 2242 d7b8 4ed2 8439 ec4c b939
000001e0: 60b1 eeb8 fb1f 05bb 4c00 903a cc0f 623a
000001f0: e85c c7b9 8707 2c38 d741 59b9 9f7f cd3a
00000200: 79b4 abb9 b2d2 703a 724d 36b9 5782 c0b9
00000210: 6a6a 9739 31da 10ba b48c 96b9 3c16 f639
00000220: 5642 ed36 5d24 f839 6d71 11b9 124e 5dba
00000230: d122 2bb8 2549 bb39 d4f8 4eba ea2a 6bb9
00000240: ea7f cbb8 6ade e738 0423 263a 4cab 8cb9
00000250: 53a8 aeb9 299b 393a e10b 5839 48cf 9db9
00000260: 1b5e 88b8 33f0 d239 44fa 0c3a 7b9b e9b9
00000270: cf2b c839 e7e0 56ba 8940 1e39 64f7 21ba
00000280: ba6d c138 abb2 8339 9113 9239 9c7b 3db9
00000290: cb48 8839 b9ba 133a c946 27b9 f1d1 29b8
000002a0: 8e28 0738 bbef e639 8b98 fd38 4706 f0b9
000002b0: 7614 0139 ee9b 3a39 4489 5cb9 d156 37ba
000002c0: fb6f 80ba 8de0 00ba 30fb 953a f80b b539
000002d0: 8562 b6b9 6518 243a 4a94 dbb9 1d91 51ba
000002e0: 68f3 eb39 d620 b43a af5d eab8 7f26 1fba
000002f0: 86ce 493a cac0 5fba 72c7 35b9 5a75 a8ba
00000300: 9292 15ba 0e8e d039 333d 503a adae b539
00000310: ea88 d4b9 45b7 053a edd5 c8b7 d086 a7ba
00000320: b002 f739 f171 0b3b 8cb4 25ba 87d8 c5b9
00000330: 7aea 523a b066 d438 8911 f4b9 da7c 6fba
00000340: 49dc 05ba fe16 293a 63ee 393a c8e4 e2b9
00000350: 790a ceb8 995a e6b8 00ab 67b9 b0ee 1bb9
00000360: 15ee 4239 4e2f 873a 07bd 48ba 2f2a ecb9
00000370: 4f83 2538 bfab 95b9 78d6 84b8 66d2 5cba
00000380: 46c0 c5b8 3128 ecb9 b38d c4b9 17f5 13ba
00000390: 831a 4cb9 1165 7c3a 080f 7839 f81f b039
000003a0: 362a 9039 8cb1 013a 8221 89ba f2af 73ba
000003b0: d286 1639 556e 89b8 c509 60b9 61ff 54b9
000003c0: ab7d ab39 a9f1 d3b9 8a72 5eba 2f3c 5839
000003d0: ac82 e439 31c7 0e39 5d21 d2b8 1a83 e839
000003e0: 21e4 053a b908 7a39 fcb2 d5b9 5f35 55ba
000003f0: 9347 64b9 1a46 b939 9249 d1b9 d593 0db9

fc5.bias f4 [64]
-1.6838125e-06 0.0001289667 -0.00036163986 -0.00060491945 9.828696e-05 -3.1878397e-05 -0.00010335642 -7.903588e-06
0.00021162792 -0.00035708558 -0.00029300392 -0.00026661382 -0.00048282603 0.00038899438 -0.0001738317 0.0004424162
-0.00042176672 -0.00043023907 -0.00025126405 0.5608936 0.00015422903 0.0004311886 -0.0001547714 6.873938e-05
-0.0004766898 0.0003695617 -0.00034900886 -6.161886e-05 0.0005772647 3.2600175e-05 0.00026385684 -0.2321959
0.00020013444 -5.5943237e-05 0.00021476776 0.00037014837 0.00049139466 -0.000236912 0.00040031952 0.00019414896
0.00039087227 -0.00015038476 0.00035363948 -0.0007673617 5.73991e-05 -0.00026023304 -0.0006315361 -0.0005281929
0.00032851944 -0.7167666 -0.00029040934 0.46309203 0.12824795 -0.0006293697 -0.00018621892 -0.00030446038
4.539026e-05 -0.00020106144 -0.0005890421 -0.0005881553 -7.314401e-05 -0.09946202 -8.8296065e-06 -0.00033036835
00000000: 5bff e1b5 3c3b 0739 7b9a bdb9 7593 1eba
00000010: 691f ce38 2bb5 05b8 0ec1 d8b8 a799 04b7
00000020: 70e8 5d39 3737 bbb9 529e 99b9 4dc8 8bb9
00000030: d023 fdb9 f1f1 cb39 9746 36b9 19f4 e739
00000040: 9220 ddb9 b691 e1b9 17bc 83b9 b996 0f3f
00000050: 8ab8 2139 2711 e239 224a 22b9 2c28 9038
00000060: 39ec f9b9 bbc1 c139 2dfb b6b9 6039 81b8
00000070: 9453 173a 2cbc 0838 4456 8a39 c3c4 6dbe
00000080: 2edb 5139 98a4 6ab8 4833 6139 7910 c239
00000090: f0d0 003a 956b 78b9 fae1 d139 7794 4b39
000000a0: fded cc39 9ab0 1db9 b068 b939 c628 49ba
000000b0: d0bf 7038 e36f 88b9 ac8d 25ba 6d76 0aba
000000c0: 223d ac39 047e 37bf 1542 98b9 661a ed3e
000000d0: 6e53 033e 49fc 24ba c343 43b9 fb9f 9fb9
000000e0: 6c61 3e38 05d4 52b9 f269 1aba 6f2e 1aba
000000f0: e464 99b8 beb2 cbbd df22 14b7 4a35 adb9

fc6.weight f4 [64, 16]
-3.4700577e-05 0.00012744311 5.8949963e-06 7.032371e-05 -1.1323782e-05 -7.7142955e-05 2.07946e-05 -5.089124e-05
5.060539e-06 1.0834481e-05 2.8390345e-05 -2.2698761e-05 -6.8145164e-05 9.502171e-06 4.962146e-05 -7.895316e-05
1.0159059e-05 -3.8322305e-06 -3.9808423e-05 -7.925361e-05 5.235619e-05 -7.601107e-05 -4.151654e-05 -1.3512728e-05
3.2358384e-05 -9.4763076e-05 1.486116e-05 0.00016874375 3.96157e-05 -2.0246413e-05 8.762091e-05 -1.2105178e-05
-2.026184e-05 6.329075e-06 -3.4347868e-05 -2.0578282e-05 -1.4449054e-05 -8.733468e-06 -1.855129e-05 1.8012512e-05
-3.9126244e-05 -4.7743128e-05 -5.811131e-05 1.5133794e-05 -4.2587228e-05 4.9222625e-05 2.3069979e-05 -1.5729353e-05
5.0768387e-05 -1.908944e-05 4.3734485e-06 -1.1403313e-05 4.3312557e-05 -9.1238166e-05 -5.6235986e-06 -1.3728144e-05
-6.710733e-05 -0.00011133084 3.961e-05 -2.5001189e-05 -1.6906553e-05 6.0818427e-05 -1.9523535e-05 -2.3369194e-05
-1.9088793e-06 -5.4358767e-05 -3.054105e-06 -0.000111205445 0.00010411957 -2.344751e-05 -2.4691433e-05 -9.2918934e-05
4.871248e-05 -1.6588569e-05 2.1155225e-05 -0.00010799979 1.523639e-05 -7.319895e-05 6.715548e-05 6.555887e-07
-4.7338646e-05 1.8477853e-05 -7.789391e-05 -2.4693338e-05 -1.0532184e-05 1.01445e-05 3.598742e-05 -1.2026494e-05
4.9139566e-05 -3.4402903e-05 1.0854154e-05 2.2498996e-05 3.304113e-06 6.778075e-05 1.5990623e-05 -4.5491834e-06
-6.4709493e-06 -1.4815203e-05 -1.3889621e-05 -6.0880157e-05 4.3672197e-05 7.556373e-07 -5.1814342e-05 -2.1379896e-05
2.1353486e-05 -5.3335334e-05 3.786952e-05 -3.5753255e-05 -5.760263e-07 -4.1183597e-05 -3.2821008e-05 9.677308e-06
3.249827e-05 -5.775857e-06 -5.288335e-05 -7.523553e-05 -6.3225474e-07 1.415349e-05 -1.2510616e-05 -6.72863e-05
8.895651e-06 9.6130905e-05 -3.8877908e-05 3.581964e-05 1.0592648e-05 3.579903e-05 4.247676e-05 -5.454812e-05
-5.879507e-05 9.062583e-05 -5.995537e-05 -3.2994634e-05 -2.5073909e-05 -1.6707798e-05 4.007501e-07 -1.0908767e-05
-2.8115166e-05 -2.5763966e-05 2.4108487e-05 -1.4374793e-05 -1.9884348e-05 -1.044399e-05 -1.447082e-06 -4.5478748e-05
2.2539254e-05 5.6285073e-05 -1.8815605e-05 -6.675141e-05 4.3188476e-05 4.1983003e-05 -9.641007e-06 -9.491701e-06
3.061008e-05 -5.764676e-05 1.6653394e-05 -1.9846993e-05 4.610804e-05 2.3047189e-05 5.132465e-05 2.130823e-06
3.8178903e-05 -4.870283e-05 -9.724224e-05 2.6058262e-05 0.000102228536 1.1973658e-05 -7.403856e-05 -3.440133e-05
3.575871e-05 -8.829827e-06 2.1149082e-05 6.585052e-05 2.2203583e-05 -6.1461615e-05 -1.7134651e-05 3.3028584e-05
-6.0156803e-05 -1.592442e-05 -4.8643935e-05 2.6368991e-06 -0.00011135783 2.4839035e-05 1.5032481e-06 -4.0862466e-05
1.9544568e-05 3.737055e-05 -4.915719e-05 -0.00013404022 -2.728022e-05 2.324998e-05 5.3234708e-05 3.8802475e-05
-1.245766e-05 -3.133629e-05 4.1037165e-05 -8.427332e-05 -2.366063e-05 -2.8009317e-05 -3.2356314e-05 -4.475671e-05
2.5092351e-05 -2.8001554e-05 -1.714836e-05 4.480878e-05 6.3412364e-05 -4.00758e-05 -1.240812e-06 -1.832746e-05
-7.898347e-06 1.8391533e-05 1.1749537e-05 1.4997896e-05 -2.2893099e-05 -1.055472e-06 -6.76338e-05 -5.1992873e-05
-1.5875838e-05 -2.9067218e-05 -1.1764664e-05 -1.1616812e-05 -2.758941e-05 1.1997354e-06 7.886652e-06 3.8352286e-05
5.8599057e-06 5.724625e-05 -4.7432288e-05 -6.412994e-05 1.1395435e-05 -1.8286148e-05 1.5947518e-05 4.8418162e-05
-6.479153e-05 -3.5342677e-05 2.9942754e-05 4.5347737e-05 3.3194174e-06 2.4639805e-06 -1.569549e-05 -3.8014216e-05
4.782685e-05 -8.343574e-05 -1.4707398e-06 -3.5128956e-05 -3.3474465e-05 1.1686993e-05 2.8837794e-05 -1.4804613e-05
-3.557543e-05 -1.3802103e-05 1.3181407e-05 -7.423722e-05 2.720531e-05 4.088869e-05 -6.1592937e-07 -1.0811257e-05
00000000: 768b 11b8 40a2 0539 a2cd c536 c17a 9338
00000010: 46fb 3db7 cfc7 a1b8 1070 ae37 0e74 55b8
00000020: b3cd a936 bec5 3537 cd27 ee37 3869 beb7
00000030: 28e9 8eb8 846b 1f37 a320 5038 a893 a5b8
00000040: d370 2a37 9c96 80b6 f8f7 26b8 f534 a6b8
00000050: 0899 5b38 2268 9fb8 0c22 2eb8 bab4 62b7
00000060: 8db8 0738 8abb c6b8 3254 7937 cef0 3039
00000070: 0929 2638 d7d6 a9b7 1ec1 b738 5817 4bb7
00000080: f8f7 a9b7 575e d436 be10 10b8 869f acb7
00000090: 376a 72b7 f685 12b7 989e 9bb7 9319 9737
000000a0: 7c1b 24b8 cb3f 48b8 8bbc 73b8 26e7 7d37
000000b0: b09f 32b8 6474 4e38 6786 c137 87f2 83b7
000000c0: 24f0 5438 4322 a0b7 a3bf 9236 db50 3fb7
000000d0: 81aa 3538 1e57 bfb8 58b2 bcb6 ee51 66b7
000000e0: f9bb 8cb8 4a7a e9b8 ea22 2638 a5b9 d1b7
000000f0: 8cd2 8db7 4a17 7f38 79c6 a3b7 f608 c4b7
00000100: 4c1a 00b6 48ff 63b8 20f5 4cb6 f836 e9b8
00000110: c55a da38 25b1 c4b7 7320 cfb7 79dd c2b8
00000120: a150 4c38 ae27 8bb7 8076 b137 f27d e2b8
00000130: cc9f 7f37 6382 99b8 d3d5 8c38 b6fb 2f35
00000140: 7c8d 46b8 e300 9b37 f95a a3b8 8a24 cfb7
00000150: 63b3 30b7 4c32 2a37 33f1 1638 66c5 49b7
00000160: 351b 4e38 d64b 10b8 3d1a 3637 3abc bc37
00000170: 3bbc 5d36 8325 8e38 9a23 8637 30a5 98b6
00000180: 0821 d9b6 d08e 78b7 7807 69b7 9259 7fb8
00000190: aa2c 3738 00d7 4a35 3a53 59b8 fa58 b3b7
000001a0: 4320 b337 61b4 5fb8 16d6 1e38 c4f5 15b8
000001b0: 3aa0 1ab5 8dbc 2cb8 4aa9 09b8 b95b 2237
000001c0: c04e 0838 3cce c1b6 11cf 5db8 c5c7 9db8
000001d0: 37b8 29b5 c774 6d37 b0e4 51b7 0f1c 8db8
000001e0: 883e 1537 e399 c938 d610 23b8 0c3d 1638
000001f0: 14b7 3137 ea26 1638 1329 3238 99ca 64b8
00000200: ba9a 76b8 5f0e be38 9778 7bb8 b863 0ab8
00000210: cf55 d2b7 b927 8cb7 ad26 d734 cc04 37b7
00000220: dcd8 ebb7 b21f d8b7 953c ca37 442b 71b7
00000230: 50cd a6b7 9838 2fb7 5c39 c2b5 6fc0 3eb8
00000240: ae12 bd37 a313 6c38 34d6 9db7 e4fc 8bb8
00000250: 4625 3538 e816 3038 cfbf 21b7 8c3e 1fb7
00000260: 5363 0038 bdc9 71b8 e4b2 8b37 187d a6b7
00000270: 2264 4138 7655 c137 6c45 5738 43ff 0e36
00000280: 4922 2038 4446 4cb8 88ee cbb8 b197 da37
00000290: 8763 d638 78e2 4837 2645 9bb8 264a 10b8
000002a0: 9ffb 1538 d123 14b7 4f69 b137 3b19 8a38
000002b0: d541 ba37 f4e4 80b8 62bc 8fb7 2c88 0a38
000002c0: e050 7cb8 6e95 85b7 0707 4cb8 95f5 3036
000002d0: c888 e9b8 6c5d d037 36c3 c935 bd63 2bb8
000002e0: a4f3 a337 53be 1c38 212e 4eb8 268d 0cb9
000002f0: d4d7 e4b7 f408 c337 5548 5f38 d7bf 2238
00000300: 3e01 51b7 166f 03b8 521f 2c38 e5bb b0b8
00000310: d17a c6b7 8df5 eab7 54b6 07b8 27b9 3bb8
00000320: 6a7d d237 e1e4 eab7 d3d9 8fb7 10f1 3b38
00000330: 41fc 8438 1017 28b8 fa89 a6b5 ecbd 99b7
00000340: 2483 04b7 8447 9a37 e11f 4537 799f 7b37
00000350: 8e0a c0b7 bea9 8db5 9fd6 8db8 ec12 5ab8
00000360: 1a2d 85b7 60d5 f3b7 d960 45b7 d4e5 42b7
00000370: cf6f e7b7 9806 a135 ea50 0437 74dc 2038
00000380: 35a0 c436 b11b 7038 08f2 46b8 807d 86b8
00000390: 052f 3f37 3465 99b7 09c7 8537 9b14 4b38
000003a0: b0e0 87b8 e93c 14b8 932d fb37 c333 3e38
000003b0: 28c3 5e36 dd5a 2536 cfa9 83b7 7471 1fb8
000003c0: b099 4838 39fa aeb8 3c66 c5b5 6e57 13b8
000003d0: ef66 0cb8 4113 4437 b1e8 f137 5461 78b7
000003e0: d436 15b8 958f 67b7 b625 5d37 ceaf 9bb8
000003f0: f536 e437 e67f 2b38 5856 25b5 ff61 35b7

fc6.bias f4 [64]
-1.3845149e-05 4.8408376e-05 3.6845497e-05 3.800143e-05 1.4401928e-05 2.2087135e-05 -6.159344e-06 8.2704195e-05
3.0840023e-05 -1.3663456e-06 3.0434127e-05 5.9153383e-05 -4.917051e-06 3.9915367e-06 -3.0613523e-05 2.3915458e-05
-3.390265e-06 3.171852e-05 4.5671633e-05 -0.1493137 2.2051909e-05 -2.3100115e-07 2.9898667e-05 5.3450145e-05
6.909514e-05 3.7138518e-05 7.40735e-05 4.8314587e-06 5.0050363e-05 -6.869751e-07 -1.2251901e-05 -1.9517343
3.4779423e-05 3.9530358e-05 3.5964244e-05 -1.5286676e-05 9.30553e-05 8.445225e-06 6.5710454e-05 2.601224e-05
2.9669432e-05 -3.3631874e-05 1.4731344e-05 5.2947175e-06 1.7755267e-05 2.8094648e-05 2.1201715e-05 3.217788e-05
-1.1305363e-05 -0.90722287 -9.345576e-06 -1.1351433 -0.5255424 5.5991055e-05 3.4906767e-05 -1.8574994e-05
-1.5762307e-05 4.554086e-05 7.535652e-05 -3.0184443e-05 2.0443134e-05 -1.1529483 5.6757628e-05 -1.7766635e-05
00000000: 7648 68b7 190a 4b38 8d8a 1a38 ba63 1f38
00000010: cf9f 7137 c347 b937 5dac ceb6 7a71 ad38
00000020: 395a 0138 4763 b7b5 ca4c ff37 761b 7838
00000030: 25fd a4b6 0aef 8536 0567 00b8 0e9e c837
00000040: 4f84 63b6 8009 0538 8b8f 3f38 b1e5 18be
00000050: 1dfc b837 1d09 78b4 e6ce fa37 a82f 6038
00000060: 2ce7 9038 2ec5 1b38 e857 9b38 ea1d a236
00000070: 2bed 5138 9268 38b5 848d 4db7 6ed2 f9bf
00000080: 1fe0 1138 66cd 2538 50d8 1638 e33b 80b7
00000090: af26 c338 f7af 0d37 08ce 8938 dc34 da37
000000a0: 9fe2 f837 f30f 0db8 a426 7737 47a9 b136
000000b0: 25f1 9437 ccac eb37 56da b137 bcf6 0638
000000c0: 2aac 3db7 c23f 68bf f1ca 1cb7 604c 91bf
000000d0: f289 06bf f0d7 6a38 db68 1238 7fd1 9bb7
000000e0: 4c39 84b7 2003 3f38 b908 9e38 9934 fdb7
000000f0: 4c7d ab37 cf93 93bf 0a0f 6e38 8f09 95b7

fc_decode.weight f4 [16, 64]
-0.079666674 -0.004720482 0.016668553 0.014668213 0.020977015 -0.060258277 -0.016139202 0.034948703
0.06122943 0.06779565 0.054277364 0.020997932 0.0073950975 0.018644389 0.012632431 0.032950375
0.011017599 0.009668644 0.02518578 -0.1845122 0.024810541 -0.06015399 -0.03673138 -0.038407158
-0.09731025 0.0069307103 0.013772086 0.012733691 -0.025586037 0.03753472 0.016425727 -0.34091407
0.007955226 0.023572844 -0.0016412764 0.0032816182 -0.06407173 0.0011727853 -0.10244361 0.004128755
-0.11316062 0.028925663 -0.0220656 0.0021848448 0.041416213 0.02432375 0.027317058 -0.043524884
0.0212074 0.007985286 0.029132746 -0.29899266 -0.046317443 0.025355853 -0.02772707 0.049437936
-0.06968085 -0.0013380682 0.0013811234 -0.06594018 -0.09423681 0.22363445 -0.03321172 0.007943414
-0.05354576 0.07951028 -0.008336995 -0.029231224 0.062011756 0.004056678 0.042031173 -0.03320918
0.09109918 0.0047238055 -0.015723886 -0.04726938 0.010996561 0.011838104 0.028083013 0.045335494
-0.0013826808 0.0017696327 0.03782988 -0.023649864 0.042677205 -0.034633882 -0.027157804 0.020050146
-0.15394017 0.046214107 -0.08103305 0.02228512 -0.0856141 -0.012913438 0.087808445 -0.5562447
0.026146991 -0.0007166104 0.007547537 0.07751586 0.010191732 -0.149881 -0.028271709 0.040298197
0.13203157 -0.055066615 0.14446789 -0.06881424 0.0247722 -0.03437837 -0.07748091 -0.057121366
-0.017395658 -0.037465688 -0.058018535 -0.8658967 0.06835416 0.015146898 -0.047777783 -0.1290194
-0.13023363 -0.02213214 0.032974064 0.0014334692 -0.02982488 -0.58905506 0.023004659 -0.0530516
-0.015322357 0.124300376 0.1382154 0.048389185 0.0076502 0.015921012 -0.007204146 -0.089549646
0.07936289 0.08302991 -0.011484923 -0.027092353 0.09479595 -0.005636211 0.06680161 0.056828413
0.071685255 0.073237255 0.08213977 0.10874531 0.02941297 -0.079509124 -0.044580054 0.02463402
-0.10653943 0.06335562 -0.051770672 0.13522509 -0.10062905 -0.035970178 0.095158845 0.43383616
0.0051837754 0.021823768 0.0414868 -0.0045766192 -0.03803633 -0.13308187 -0.07907538 0.1028698
0.11640604 -0.024072992 0.11704371 -0.007790773 0.04979293 -0.0022426585 -0.099248506 -0.0012358917
-0.11562442 0.20544071 -0.016516658 0.6886382 0.9477071 0.048292883 0.055512436 -0.17822197
-0.23094338 -0.01016866 0.06662011 0.084783114 -0.004895905 0.022578642 0.026354434 0.07502217
-0.109140344 -0.0014329989 -0.020316971 0.008904937 0.011173968 0.0010326557 0.07405213 0.046258103
0.0585723 0.044141077 0.11665692 0.10584162 -0.13758218 0.013772559 0.030050209 0.11149857
-0.04400206 -0.093280576 -0.03568146 0.09766427 0.1326108 0.09969895 -0.046648018 0.029454056
0.023640653 0.034567147 0.14518164 -0.084410675 -0.019926818 -0.071165614 -0.057836145 0.12815884
0.11429745 0.029123452 -0.08367402 0.13183267 0.042312913 -0.026369832 0.004337421 -0.07004648
-0.1435756 -0.050454725 0.07013945 -0.079278715 0.05819349 -0.039405696 0.09681525 -0.035402864
-0.012448145 -0.07826581 0.0371452 -0.10187298 0.21981336 0.020304147 -0.00052212435 0.08674511
0.00015861462 0.02529266 0.06643447 -0.18093309 -0.10287765 0.42307076 -0.10696743 -0.07529676
00000000: 4828 a3bd 46ae 9abb 7d8c 883c f252 703c
00000010: fdd7 ab3c 62d1 76bd 5c36 84bc 5f26 0f3d
00000020: b6cb 7a3d 72d8 8a3d f151 5e3d db03 ac3c
00000030: 9352 f23b 1ebc 983c 42f8 4e3c f9f6 063d
00000040: 2983 343c 3b69 1e3c 6952 ce3c c4f0 3cbe
00000050: 7a3f cb3c 0864 76bd a573 16bd d350 1dbd
00000060: 994a c7bd 031b e33b 51a4 613c f9a0 503c
00000070: cf99 d1bc 02be 193d 3f8f 863c 4a8c aebe
00000080: a356 023c d61b c13c 1920 d7ba 6b10 573b
00000090: 0a38 83bd 25b8 993a f5cd d1bd 824a 873b
000000a0: c1c0 e7bd 83f5 ec3c ebc2 b4bc 9d2f 0f3b
000000b0: 0ca4 293d 9a42 c73c 06c8 df3c 2647 32bd
000000c0: 24bb ad3c b8d4 023c cca7 ee3c 9115 99be
000000d0: 5cb7 3dbd 14b7 cf3c e123 e3bc 6f7f 4a3d
000000e0: d5b4 8ebd 1e62 afba d006 b53a a50b 87bd
000000f0: 3bff c0bd 6e00 653e 0309 08bd 1825 023c
00000100: cd52 5bbd 49d6 a23d e497 08bc 5276 efbc
00000110: 0a00 7e3d e2ed 843b e128 2c3d 5906 08bd
00000120: 3592 ba3d 27ca 9a3b 61cf 80bc 8a9d 41bd
00000130: eb2a 343c 9bf4 413c 590e e63c b6b1 393d
00000140: 123b b5ba 05f3 e73a 81f3 1a3d 5cbd c1bc
00000150: 4bce 2e3d 42dc 0dbd 0b7a debc 3440 a43c
00000160: 7ea2 1dbe 014b 3d3d a8f4 a5bd 498f b63c
00000170: 7256 afbd e292 53bc ead4 b33d 0d66 0ebf
00000180: 3732 d63c e9da 3bba 5451 f73b a3c0 9e3d
00000190: 39fb 263c 687a 19be 129a e7bc b90f 253d
000001a0: 4933 073e 888d 61bd 64ef 133e 7bee 8cbd
000001b0: 12ef ca3c 55d0 0cbd 50ae 9ebd 18f8 69bd
000001c0: 5781 8ebc 9f75 19bd d8a4 6dbd 68ab 5dbf
000001d0: 44fd 8b3d b22a 783c a3b2 43bd a91d 04be
000001e0: f75b 05be 764e b5bc d00f 073d 3fe3 bb3a
000001f0: 4f53 f4bc 50cc 16bf 4474 bc3c a24c 59bd
00000200: a00a 7bbc 3291 fe3d 5688 0d3e bd33 463d
00000210: 87ae fa3b c86c 823c c210 ecbb ce65 b7bd
00000220: 0389 a23d 960b aa3d 422b 3cbc c8f0 ddbc
00000230: 6124 c23d f7af b8bb 48cf 883d e9c4 683d
00000240: b8cf 923d 6afd 953d e538 a83d dcb5 de3d
00000250: 78f3 f03c aed5 a2bd 9399 36bd 49cd c93c
00000260: 5831 dabd 97c0 813d 7c0d 54bd 7278 0a3e
00000270: 9a16 cebd 7755 13bd a4e2 c23d c61f de3e
00000280: a9dc a93b c2c7 b23c 10ee 293d 77f7 95bb
00000290: fccb 1bbd 9d46 08be 46f2 a1bd 67ad d23d
000002a0: 4a66 ee3d b934 c5bc 9db4 ef3d be49 ffbb
000002b0: acf3 4b3d 91f9 12bb cd42 cbbd a5fd a1ba
000002c0: 7fcc ecbd 0d5f 523e f14d 87bc 984a 303f
000002d0: ef9c 723f c2ce 453d 0261 633d d27f 36be
000002e0: 6c7c 6cbe 749a 26bc 2070 883d c5a2 ad3d
000002f0: d46d a0bb d8f6 b83c 41e5 d73c 39a5 993d
00000300: f984 dfbd 77d3 bbba c76f a6bc 03e6 113c
00000310: 0513 373c 2d5a 873a a5a8 973d 2379 3d3d
00000320: 82e9 6f3d 46cd 343d d3e9 ee3d 7ec3 d83d
00000330: 58e2 0cbe 4da6 613c db2b f63c 5d59 e43d
00000340: 813b 34bd e309 bfbd b926 12bd 3404 c83d
00000350: 20cb 073e f72e cc3d fe11 3fbd a249 f13c
00000360: 0baa c13c 4896 0d3d 7faa 143e 81df acbd
00000370: 913d a3bc 47bf 91bd 98e5 6cbd 123c 033e
00000380: c814 ea3d 4e94 ee3c 495d abbd 25ff 063e
00000390: 4e50 2d3d 8c05 d8bc ed20 8e3b 8774 8fbd
000003a0: 7b05 13be 9da9 4ebd 46a5 8f3d e15c a2bd
000003b0: 4c5c 6e3d de67 21bd 1347 c63d 9802 11bd
000003c0: 4ef3 4bbc d349 a0bd 9125 183d c8a2 d0bd
000003d0: c116 613e e254 a63c 2cdf 08ba 6ca7 b13d
000003e0: ca51 2639 8d32 cf3c cc0e 883d 8646 39be
000003f0: 84b1 d2bd bb9c d83e bd11 dbbd 3035 9abd

fc_decode.bias f4 [16]
0.22886208 1.3144356 -0.45463717 -0.23398766 0.41552916 -0.18662426 -1.1081945 0.03128142
0.059727907 -0.061609052 -0.6042127 0.55194044 0.067789406 -0.481977 0.35405025 -0.37248844
00000000: d25a 6a3e 6d3f a83f 34c6 e8be 769a 6fbe
00000010: 3dc0 d43e 6e1a 3fbe 51d9 8dbf f220 003d
00000020: 40a5 743d c659 7cbd afad 1abf f84b 0d3f
00000030: 2cd5 8a3d b0c5 f6be 1346 b53e ceb6 bebe
