saved_models_2D/VAE_patch_folds/CVAE2D_64_0.5_fold_2.pth (torch, 51894 bytes, 49 tensors)

conv1.weight f4 [3, 1, 5, 5]
-0.6824032 0.19552808 -0.09947986 -0.2842683 -0.51956844 0.067316756 -0.32614338 -0.4143964
-0.3359985 -0.039673798 -0.06959803 0.14602354 0.17680365 0.06619213 -0.010872233 -0.11416188
-0.26294926 0.024463361 0.17004955 -0.05176849 -0.30519563 -0.04855295 -0.29624352 -0.2185311
-0.22016689 0.14920752 0.4630821 0.1136131 0.112306245 -0.22193067 0.40609694 0.14417274
0.2614851 -0.1334671 0.06900721 0.3600137 0.37069705 0.06880377 0.18892343 -0.023785796
0.47300985 0.27537426 0.34638834 0.123004 0.16420355 0.46181718 0.5062336 0.36103964
0.3216502 0.115436755 0.43751657 0.3376869 0.023443565 0.3545599 0.42261577 0.26653713
0.07736091 0.043901 0.08592504 0.40771815 0.20525552 0.09986079 -0.394049 0.11823516
0.15175462 0.349598 -0.034385778 0.1500618 0.070682704 0.5043819 0.026674602 0.18000837
0.0667547 0.29472843 0.5485199
00000000: fab1 2ebf 8338 483e 19bc cbbd 9d8b 91be
00000010: 7002 05bf 5edd 893d 44fc a6be c42b d4be
00000020: ff07 acbe fe80 22bd 6989 8ebd 3287 153e
00000030: 040c 353e bd8f 873d 7321 32bc b4cd e9bd
00000040: 49a1 86be 6367 c83c 7821 2e3e 320b 54bd
00000050: 9a42 9cbe 75df 46bd 3bad 97be 9ec6 5fbe
00000060: 6e73 61be dbc9 183e 1919 ed3e fcad e83d
00000070: d100 e63d cb41 63be f0eb cf3e 05a2 133e
00000080: 60e1 853e 99ab 08be a753 8d3d b753 b83e
00000090: 01cc bd3e fee8 8c3d 2575 413e 6eda c2bc
000000a0: 592e f23e dbfd 8c3e d059 b13e 85e9 fb3d
000000b0: fa24 283e 4d73 ec3e 8698 013f 30da b83e
000000c0: 56af a43e 1b6a ec3d 2c02 e03e 4ce5 ac3e
000000d0: b80c c03c e088 b53e 1861 d83e 8e77 883e
000000e0: 666f 9e3d 89d1 333d 78f9 af3d 6fc0 d03e
000000f0: 812e 523e d083 cc3d cac0 c9be 4725 f23d
00000100: 9065 1b3e 82fe b23e 1ad8 0cbd cda9 193e
00000110: 18c2 903d 2c1f 013f b284 da3c 1d54 383e
00000120: b0b6 883d a5e6 963e cd6b 0c3f

conv1.bias f4 [3]
-0.22965609 -0.032495692 0.012928551
00000000: f72a 6bbe 341a 05bd 46d2 533c

conv2.weight f4 [4, 3, 3, 3]
0.59688413 -0.049046986 -0.022303509 0.22202024 -0.51109433 -0.04801816 1.103118 0.01889287
0.2587639 0.14604914 -0.18421687 -0.09979449 -0.04638371 0.22355999 -0.25732586 -0.3769505
-0.45001987 0.022026574 -0.2648262 -0.45756555 -0.46336803 -0.11774516 -0.057491176 -0.39761996
-0.3742392 0.40861276 -0.1899538 -0.5448743 0.09376739 0.35508758 -0.43053883 -0.3346762
0.049091946 -0.5821904 -0.31755617 -0.014468143 0.15101439 0.08501548 0.57492775 0.30043077
-0.28405723 0.31876817 0.5427962 0.17479815 0.06889797 -0.025119036 -0.07239437 -0.29999658
-0.32871082 0.15167335 -0.07354967 0.21640606 0.043443937 -0.03233425 0.3586175 0.51362914
0.5956845 0.22624204 0.032642677 0.0030103605 -0.0417019 0.23306553 0.8784258 -0.13837667
-0.37399298 0.050422832 0.2268321 0.0154019445 0.12364657 0.09802358 0.46543422 0.17759468
-0.05839044 0.15764132 0.06402183 -0.108894534 -0.04112671 -0.12443582 -0.16283225 -0.019840645
-0.3133102 0.2678449 -0.043267637 0.02588669 0.2466429 8.2134844e-05 -0.22621644 -0.10058735
0.03695112 -0.48936814 0.31284416 0.24865428 -0.1485572 -0.19378662 -0.074130915 -0.186373
0.3408991 -0.07215899 0.16295855 0.5141907 -0.007343934 0.50963455 0.34529334 -0.0053749024
-0.012870547 0.26256302 0.14892942 0.5703151
00000000: 66cd 183f 7ee5 48bd d9b5 b6bc 4659 633e
00000010: 14d7 02bf b1ae 44bd f832 8d3f 38c5 9a3c
00000020: b47c 843e e88d 153e 59a3 3cbe 0e61 ccbd
00000030: d8fc 3dbd e9ec 643e 37c0 83be a8ff c0be
00000040: 0169 e6be 1371 b43c 4d97 87be 0846 eabe
00000050: 933e edbe 6024 f1bd de7b 6bbd d894 cbbe
00000060: 489c bfbe b135 d13e 4083 42be e27c 0bbf
00000070: 1e09 c03d 0ace b53e 966f dcbe ae5a abbe
00000080: a314 493d 6e0a 15bf b996 a2be ca0b 6dbc
00000090: 84a3 1a3e 991c ae3d 772e 133f 10d2 993e
000000a0: f36f 91be 9535 a33e b1f4 0a3f 49fe 323e
000000b0: 611a 8d3d 70c6 cdbc 8043 94bd 2799 99be
000000c0: c94c a8be 4250 1b3e 36a1 96bd 8d99 5d3e
000000d0: 45f2 313d eb70 04bd b79c b73e 337d 033f
000000e0: c87e 183f feab 673e 54b4 053d 7849 453b
000000f0: 9dcf 2abd bba8 6e3e 83e0 603f 9db2 0dbe
00000100: 027c bfbe 2c88 4e3d ad46 683e 7058 7c3c
00000110: 6a3a fd3d 96c0 c83d 654d ee3e 61db 353e
00000120: d02a 6fbd ba6c 213e e11d 833d 1904 dfbd
00000130: 7b74 28bd 35d8 febd 7fbd 26be d988 a2bc
00000140: 326a a0be f722 893e 6839 31bd 5310 d43c
00000150: f58f 7c3e cf3f ac38 48a5 67be be00 cebd
00000160: 0f5a 173d 768e fabe 1c2d a03e 3a9f 7e3e
00000170: 611f 18be 0070 46be f3d1 97bd 90d8 3ebe
00000180: 548a ae3e 18c8 93bd 9bde 263e 00a2 033f
00000190: 62a5 f0bb 6977 023f 4aca b03e f31f b0bb
000001a0: fdde 52bc a96e 863e f480 183e 2c00 123f

conv2.bias f4 [4]
-0.041501448 0.09752697 -0.20593394 0.034026243
00000000: 6cfd 29bd 38bc c73d 59e0 52be 1a5f 0b3d

conv3.weight f4 [12, 4, 3, 3]
0.65542483 0.1442652 0.47920027 -0.09174934 -0.32387277 -0.0457804 -0.2054964 -0.2704962
0.57026666 -0.09113891 -0.08793095 0.31984952 -0.10096809 0.22191325 -0.003020296 0.07812932
-0.05728183 -0.13797145 -0.3516894 -0.6457992 0.14693321 -0.57762563 -0.2774795 0.27661774
-0.73518527 -0.6038756 0.14781974 -0.07574572 -0.27710164 -0.3969785 0.4584649 0.16491246
0.18058181 0.35691053 0.23856123 -0.13676262 -0.16289659 0.6880093 -0.33233914 -0.11808627
0.10711819 0.08359323 -0.41604355 0.051544134 -0.0729983 0.00504446 -0.008733216 -0.1056457
0.14677116 0.052075084 -0.17023754 0.18885857 0.08316581 -0.41307306 0.43274024 0.19335172
0.38746047 0.5884902 -0.018668711 0.07251791 0.41045603 0.24115406 0.1404562 0.118664525
-0.24972095 0.34124497 0.18541773 0.21075758 -0.32447585 0.21478531 0.13849756 -0.6266116
-0.34271327 -0.3029959 -0.3119508 0.01122453 -0.07853606 -0.13531952 -0.222842 -0.32729778
0.38853732 0.056308426 -0.14743742 -0.15252183 0.21730399 0.16017482 -0.08054964 -0.27318183
-0.10675258 -0.194184 -0.18924147 -0.35287622 0.22849031 -0.19739038 0.07094383 -0.13444272
0.10619651 0.20282929 0.21887766 0.70162535 0.17012691 0.078822434 0.0325513 0.022740839
-0.028756773 -0.541252 0.104720525 0.42594543 -0.2058748 -0.3510685 -0.31039715 0.011594052
0.3358186 0.059946917 0.6058958 0.38619506 0.28134143 -0.09218852 0.17354076 0.34175956
-0.16829608 0.040007047 -0.15593939 0.025484476 0.09521267 -0.15690611 -0.124073826 -0.15065591
0.08641176 -0.0058658672 -0.10919983 0.08337739 0.023438018 0.113384314 0.1186285 0.11755998
-0.040326558 0.48807025 -0.25815716 -0.016619178 0.019557519 -0.2505572 -0.101711005 -0.4771615
-0.21927646 0.3258922 -0.31916872 0.18644631 0.044472806 0.03958064 0.6703853 0.077376686
-0.023495927 0.18920407 -0.020648403 -0.3154305 0.5454253 -0.3130925 0.22621955 -0.16446307
-0.31477204 -0.15591812 0.26539022 0.10698863 0.21333565 -0.03821538 0.02828924 0.1943514
0.13305786 0.15719625 -0.262397 0.24399786 -0.053852294 -0.32385015 0.06642013 -0.18762602
0.321553 0.027345803 0.2792567 0.18749607 0.32835558 -0.06130327 -0.19551796 -0.013432688
0.21378763 -0.65869004 0.53233457 0.3050746 0.061112106 0.18723762 0.011778202 0.2968986
-0.07263659 -0.05878593 -0.07209864 -0.032280758 0.058520827 0.07012509 0.2379789 -0.10813292
0.041858617 0.14393106 0.23413044 0.2496907 -0.25340948 0.11590072 0.5828489 -0.16183804
0.17782108 0.16589801 -0.080485 -0.1728877 -0.39288124 0.3173521 0.089429565 -0.19398946
-0.006667032 0.30935097 0.29461896 -0.4473026 -0.16425699 0.58632576 -0.47327015 -0.18649383
0.31808665 0.23663367 -0.20676416 -0.40912715 -0.16089047 0.09871418 -0.29913062 0.6515244
0.015152058 0.12006877 -0.48789477 0.12584591 -0.2897606 0.028008087 0.05518109 -0.14891358
0.21030557 0.22450782 -0.20096086 0.4449606 0.21100277 -0.096611254 0.1832605 0.023836367
-0.26115894 -0.2433064 0.26546916 0.14846797 -0.96223354 -0.21377464 -0.51754934 -0.46274972
00000000: ecc9 273f 42ba 133e bd59 f53e 14e7 bbbd
00000010: a7d2 a5be 3b84 3bbd a66d 52be 7a7e 8abe
00000020: fffc 113f 09a7 babd 2415 b4bd 51c3 a33e
00000030: 5cc8 cebd 3a3d 633e 29f0 45bb 4402 a03d
00000040: 5aa0 6abd 6348 0dbe a210 b4be 1953 25bf
00000050: a975 163e 46df 13bf cb11 8ebe d7a0 8d3e
00000060: 1a35 3cbf 9797 1abf 0f5e 173e 9220 9bbd
00000070: 44e0 8dbe c440 cbbe e9bb ea3e d0de 283e
00000080: 70ea 383e fabc b63e 6549 743e 800b 0cbe
00000090: 5dce 26be 6121 303f 5b28 aabe 37d7 f1bd
000000a0: c860 db3d ed32 ab3d a903 d5be f11f 533d
000000b0: 2280 95bd ff4b a53b c315 0fbc c65c d8bd
000000c0: 2e4b 163e af4c 553d c052 2ebe 2464 413e
000000d0: d652 aa3d 507e d3be 2190 dd3e fefd 453e
000000e0: 3861 c63e 4ba7 163f 20ef 98bc 4584 943d
000000f0: 4b27 d23e 17f1 763e c0d3 0f3e 6306 f33d
00000100: d9b6 7fbe a9b7 ae3e 25de 3d3e d6d0 573e
00000110: b321 a6be aef0 5b3e 4ed2 0d3e 9e69 20bf
00000120: 1d78 afbe 4722 9bbe 04b8 9fbe 17e7 373c
00000130: 84d7 a0bd 3391 0abe b130 64be 9393 a7be
00000140: 5dee c63e aaa3 663d d6f9 16be af2e 1cbe
00000150: f084 5e3e de04 243e 36f7 a4bd 7dde 8bbe
00000160: 19a1 dabd 2cd8 46be 84c8 41be 31ac b4be
00000170: 5df9 693e b420 4abe 004b 913d 5aab 09be
00000180: 8e7d d93d 7bb2 4f3e 7721 603e b89d 333f
00000190: c035 2e3e a86d a13d 8354 053d ff4a ba3c
000001a0: 5393 ebbc 7e8f 0abf b777 d63d 8515 da3e
000001b0: d8d0 52be 40bf b3be 60ec 9ebe fbf4 3d3c
000001c0: 6af0 ab3e e68a 753d fd1b 1b3f 5cbb c53e
000001d0: fc0b 903e 56cd bcbd abb4 313e 1cfb ae3e
000001e0: cf55 2cbe 6ede 233d 93ae 1fbe d2c4 d03c
000001f0: dcfe c23d ffab 20be 6b1a febd 8b45 1abe
00000200: a6f8 b03d 7636 c0bb 29a4 dfbd c4c1 aa3d
00000210: 1601 c03c 0936 e83d 80f3 f23d 49c3 f03d
00000220: 762d 25bd 58e4 f93e 2d2d 84be f124 88bc
00000230: 1737 a03c 0949 80be dc4d d0bd 834e f4be
00000240: 028a 60be 58db a63e 156a a3be c8eb 3e3e
00000250: 1e29 363d 4f1f 223d 5f9e 2b3f ab77 9e3d
00000260: 887a c0bc b6be 413e d726 a9bc 1b80 a1be
00000270: fea0 0b3f a94d a0be 19a6 673e 0269 28be
00000280: cd29 a1be 00a9 1fbe 3ae1 873e db1c db3d
00000290: a974 5a3e bb87 1cbd d6be e73c 0e04 473e
000002a0: 5240 083e 0ef8 203e e658 86be 93da 793e
000002b0: 3994 5cbd b0cf a5be 4707 883d 0921 40be
000002c0: 98a2 a43e 4e04 e03c bcfa 8e3e f8fe 3f3e
000002d0: 391e a83e 2319 7bbd dc35 48be c714 5cbc
000002e0: 25eb 5a3e e99f 28bf 1447 083f bd32 9c3e
000002f0: b050 7a3d 38bb 3f3e 5cf9 403c 1803 983e
00000300: 7ec2 94bd 84c9 70bd 74a8 93bd d438 04bd
00000310: 89b3 6f3d be9d 8f3d beb0 733e cb74 ddbd
00000320: f173 2b3d aa62 133e e4bf 6f3e ebae 7f3e
00000330: e3be 81be 5b5d ed3d 9635 153f dfb8 25be
00000340: bb16 363e 2be1 293e 52d5 a4bd 7909 31be
00000350: bb27 c9be f97b a23e d926 b73d 2ca5 46be
00000360: 1e77 dabb 4063 9e3e 4cd8 963e d904 e5be
00000370: fc32 28be 7219 163f 7750 f2be 3df8 3ebe
00000380: 41dc a23e 1950 723e fcb9 53be 1d79 d1be
00000390: 79c0 24be a92a ca3d a627 99be 4eca 263f
000003a0: 5640 783c 9ee6 f53d 58cd f9be c0dd 003e
000003b0: 805b 94be 3771 e53c 9105 623d cd7c 18be
000003c0: 585a 573e 61e5 653e afc8 4dbe e0d1 e33e
000003d0: 1c11 583e 1fdc c5bd a4a8 3b3e 7c44 c33c
000003e0: a0b6 85be 5025 79be 93eb 873e fd07 183e
000003f0: f054 76bf bde7 5abe 1d7e 04bf 88ed ecbe

conv3.bias f4 [12]
-0.082051635 0.09229042 0.12350374 -0.10846842 -0.16214043 -0.34331247 0.24787247 -0.22214727
-0.014899658 0.041376527 0.15303548 0.09355918
00000000: b00a a8bd c202 bd3d 87ef fc3d b124 debd
00000010: 2408 26be a7c6 afbe 48d2 7d3e 937a 63be
00000020: b21d 74bc 6f7a 293d 55b5 1c3e f59b bf3d

conv4.weight f4 [16, 12, 3, 3]
0.20719326 0.09509128 0.101011544 -0.12937379 -0.13363338 -0.06442081 -0.12427517 0.06879332
-0.11744783 0.096358255 0.2600995 0.019281246 0.06719769 -0.06705954 0.086356565 0.12936883
0.2539766 -0.27747783 0.18159913 0.05092831 -0.1509651 -0.23059082 -0.06778842 -0.17014547
-0.104481876 -0.16733953 -0.15458256 -0.21475287 -0.13858704 -0.11529548 -0.0027985936 -0.118912876
0.13343285 -0.13490203 -0.1527487 -0.028990092 0.1122668 -0.03784989 0.070133545 0.10314307
0.14334121 0.31418058 -0.17925762 -0.2912503 -0.6110503 -0.12477126 0.36933193 0.21254453
-0.201695 0.59472084 0.15042794 -0.05774614 -0.20265616 -0.28089082 -0.025050709 0.14410746
0.07112248 -0.06647811 0.09209262 0.25379062 -0.11626015 0.2061694 -0.008341335 -0.2135229
-0.33320558 -0.62473536 -0.111537434 -0.056085452 -0.06250757 0.32167953 0.033816572 -0.1862816
0.2869504 -0.10458743 -0.1233491 -0.069892116 0.0068882387 0.035967983 0.12221164 -0.0036904556
-0.20760873 -0.08427912 -0.21497257 -0.106416225 0.07501212 0.055472318 0.2359303 0.03808676
-0.05221651 -0.2890161 0.004867057 -0.23640633 0.018709108 -0.06675191 0.014113498 -0.15571272
-0.15053606 0.00914144 0.38606808 0.14509414 -0.10506321 -0.2181796 -5.855202e-05 0.24339646
-0.009980428 -0.16986123 0.18249427 0.12874167 -0.013539078 -0.009350597 -0.091770425 -0.10862426
-0.014880332 -0.2215074 -0.10105929 -0.08887041 -0.13413385 0.061243527 0.04025288 -0.20108038
0.02847004 -0.041429568 0.25870007 0.2330364 0.2647722 0.21517192 -0.067290924 -0.020279195
0.28650078 -0.029882928 -0.20226936 -0.20869268 -0.016779425 0.2212827 0.06736349 0.060521685
-0.14249603 -0.6620896 0.11033073 -0.26358753 -0.20970158 0.14604133 0.06225091 -0.15165703
-0.07773282 0.012788496 -0.0036859033 -0.100976355 0.026687978 0.40363017 -0.07339968 -0.40850893
-0.006362218 -0.057642367 0.29491237 0.4037846 -0.22545427 0.05672742 0.1505826 -0.03148486
0.13836096 -0.22093786 0.14973454 0.055768073 0.11717905 0.13609669 -0.11549208 0.059184115
0.12815154 -0.16128792 -0.21417275 0.014923378 -0.0685534 0.05992774 0.21328045 0.26021767
-0.21431467 0.08470126 -0.14078511 0.118102536 -0.14174579 0.24320976 0.32675263 -0.06718821
0.13954876 0.13969196 -0.07450997 -0.07378311 0.013198947 -0.17347609 -0.17417714 0.06884929
-0.025002247 -0.23311476 -0.10108262 -0.006563952 0.110568754 0.31471664 0.04489326 -0.15875803
-0.33621618 -0.027666457 -0.042274293 -0.13785711 0.10486095 0.08046615 0.3239972 -0.10094785
-0.13706158 0.24207523 0.049146716 -0.048385102 0.09756335 -0.07097713 -0.17167033 -0.02244652
-0.019316597 -0.14582425 0.01368905 -0.19746985 -0.1557436 0.20981656 -0.41710764 -0.39507943
-0.008372967 -0.09182429 -0.19093671 -0.36917618 -0.19653511 0.20723607 0.06863126 -0.0064656804
0.13513029 -0.08930467 -0.21023533 0.15153524 0.15565965 0.37155688 0.04048974 -0.0093949875
0.12774745 0.05047472 0.1937291 -0.28159523 0.004404155 0.20355043 0.105820365 0.20065634
-0.06992248 -0.29246578 0.19449772 -0.13778326 -0.0036660384 0.043402057 0.5469998 0.29012784
00000000: 782a 543e 38bf c23d 24df ce3d 907a 04be
00000010: 30d7 08be 0fef 83bd fb83 febd 83e3 8c3d
00000020: 7d88 f0bd 7a57 c53d c32b 853e b4f3 9d3c
00000030: f19e 893d 8356 89bd b6db b03d 4379 043e
00000040: 3909 823e 9311 8ebe 1ff5 393e 349a 503d
00000050: 9896 1abe 0020 6cbe a8d4 8abd 9d3a 2ebe
00000060: 98fa d5bd 0e5b 2bbe e44a 1ebe 2de8 5bbe
00000070: c3e9 0dbe 0920 ecbd 9c68 37bb 9888 f3bd
00000080: 9fa2 083e c223 0abe 286a 1cbe a17c edbc
00000090: 23ec e53d 7c08 1bbd 2da2 8f3d ad3c d33d
000000a0: 0ac8 123e 47dc a03e 4f8f 37be c21e 95be
000000b0: cb6d 1cbf 1388 ffbd 1319 bd3e 46a5 593e
000000c0: 2289 4ebe a03f 183f c809 1a3e 3787 6cbd
000000d0: 1985 4fbe ecd0 8fbe 2537 cdbc e890 133e
000000e0: aaa8 913d ad25 88bd 0e9b bc3d d8f0 813e
000000f0: cd19 eebd 121e 533e 18aa 08bc bfa5 5abe
00000100: ec99 aabe a8ee 1fbf bd6d e4bd dcb9 65bd
00000110: f803 80bd 2eb3 a43e 3f83 0a3d 9bc0 3ebe
00000120: 2aeb 923e ef31 d6bd 749e fcbd 9923 8fbd
00000130: bcb6 e13b 2a53 133d 194a fa3d 92db 71bb
00000140: 6297 54be 889a acbd c521 5cbe c0f0 d9bd
00000150: f49f 993d f136 633d b697 713e dd00 1c3d
00000160: fbe0 55bd ebf9 93be d57b 9f3b 8014 72be
00000170: d843 993c 3ab5 88bd 4d3c 673c 2873 1fbe
00000180: 2026 1abe fac5 153c b7aa c53e 8f93 143e
00000190: 612b d7bd 796a 5fbe c195 75b8 ec3c 793e
000001a0: f384 23bc 1af0 2dbe c7df 3a3e dbd4 033e
000001b0: 02d3 5dbc 3f33 19bc 22f2 bbbd 6576 debd
000001c0: a3cc 73bc d6d2 62be 2cf8 cebd b101 b6bd
000001d0: 625a 09be 7eda 7a3d 34e0 243d 04e8 4dbe
000001e0: 003a e93c 0db2 29bd 5674 843e 18a1 6e3e
000001f0: 3990 873e 0756 5c3e d3cf 89bd 8e20 a6bc
00000200: 3bb0 923e 0bcd f4bc b31f 4fbe 89b3 55be
00000210: 0175 89bc ef97 623e dff5 893d 96e5 773d
00000220: 7bea 11be b47e 29bf 14f5 e13d f2f4 86be
00000230: 03bc 56be dc8b 153e cffa 7e3d fb4b 1bbe
00000240: 6232 9fbd d786 513c 328f 71bb b1cc cebd
00000250: bfa0 da3c 9da8 ce3e 9252 96bd 1528 d1be
00000260: 277a d0bb 671a 6cbd c1fe 963e dbbc ce3e
00000270: 7cdd 66be 035b 683d 5332 1a3e 45f6 00bd
00000280: 7fae 0d3e 893d 62be 0354 193e 106d 643d
00000290: 92fb ef3d ee5c 0b3e 1d87 ecbd 0b6b 723d
000002a0: 283a 033e a928 25be 1a50 5bbe 2f81 743c
000002b0: ba65 8cbd ca76 753d 3166 5a3e 403b 853e
000002c0: 4e75 5bbe db77 ad3d f929 10be bedf f13d
000002d0: cf25 11be fb0b 793e 1f4c a73e f999 89bd
000002e0: dfe5 0e3e 690b 0f3e af98 98bd 991b 97bd
000002f0: 6540 583c b7a3 31be 7e5b 32be db00 8d3d
00000300: 83d1 ccbc a3b5 6ebe 6804 cfbd 6c16 d7bb
00000310: df71 e23d 8a22 a13e ffe1 373d 7791 22be
00000320: 8724 acbe c4a4 e2bc cf27 2dbd 6a2a 0dbe
00000330: 56c1 d63d 70cb a43d f6e2 a53e bfbd cebd
00000340: df59 0cbe 92e2 773e 114e 493d 752f 46bd
00000350: 4bcf c73d 755c 91bd 59ca 2fbe c4e1 b7bc
00000360: d73d 9ebc f452 15be 0a48 603c 8935 4abe
00000370: 407b 1fbe 27da 563e 228f d5be da47 cabe
00000380: c52e 09bc 600e bcbd ea84 43be a904 bdbe
00000390: 8040 49be b135 543e 8c8e 8c3d 0fde d3bb
000003a0: 985f 0a3e 5ee5 b6bd ee47 57be 0e2c 1b3e
000003b0: 3e65 1f3e b43c be3e 92d8 253d 6fed 19bc
000003c0: 3ad0 023e 94be 4e3d ec60 463e 402d 90be
000003d0: bb50 903b 866f 503e 59b8 d83d db78 4d3e
000003e0: 8433 8fbd 13be 95be 692a 473e 0e17 0dbe
000003f0: eb41 70bb 5bc6 313d 2e08 0c3f a38b 943e

conv4.bias f4 [16]
-0.04243338 -0.038183264 0.08699121 0.106610775 -0.06230022 -0.023711985 0.090438314 -0.118367545
0.03112352 0.054393385 0.077017695 0.048953224 -0.14180219 -0.12877025 0.023380587 -0.0587041
00000000: a0ce 2dbd 0e66 1cbd 7328 b23d c056 da3d
00000010: 842e 7fbd a33f c2bc b937 b93d af6a f2bd
00000020: c1f6 fe3c 99cb 5e3d 74bb 9d3d 2d83 483d
00000030: 9834 11be 59dc 03be a588 bf3c b673 70bd

bn1.weight f4 [3]
0.8372689 0.7418172 0.5998123
00000000: 4157 563f bbe7 3d3f 4d8d 193f

bn1.bias f4 [3]
-0.19639522 0.44053742 0.77425617
00000000: d41b 49be 1f8e e13e a735 463f

bn1.running_mean f4 [3]
-1.1574215 1.4675847 1.3086144
00000000: 6326 94bf d1d9 bb3f ad80 a73f

bn1.running_var f4 [3]
1.3197037 3.9424412 2.5373654
00000000: 0dec a83f f550 7c40 3264 2240

bn2.weight f4 [4]
0.8686935 0.8557358 0.7233656 0.75242144
00000000: b262 5e3f 8011 5b3f 7d2e 393f b19e 403f

bn2.bias f4 [4]
0.24825081 0.81306404 -0.021150984 0.47981283
00000000: 7635 7e3e f724 503f d444 adbc 07aa f53e

bn2.running_mean f4 [4]
-1.554694 0.44777215 0.01473299 1.7072569
00000000: 3700 c7bf 6442 e53e a462 713c 6587 da3f

bn2.running_var f4 [4]
3.9798796 1.7963946 0.34241676 2.6084902
00000000: 59b6 7e40 42f0 e53f 4051 af3e 81f1 2640

bn3.weight f4 [12]
0.6442754 1.0244958 1.0261881 0.99261975 0.9741137 1.0708138 0.8594246 0.7473252
0.7594051 0.66458327 0.8724761 0.9145755
00000000: 3cef 243f ae22 833f 225a 833f 541c 7e3f
00000010: 845f 793f 6d10 893f 4003 5c3f b450 3f3f
00000020: 5f68 423f 2122 2a3f 985a 5f3f 9f21 6a3f

bn3.bias f4 [12]
0.47045332 -0.2410887 0.43934882 0.23321134 -0.15117186 -0.072357 -0.11098055 -0.20756555
0.102667615 0.007755118 0.17153051 0.7234065
00000000: 42df f03e f5df 76be 54f2 e03e f4ce 6e3e
00000010: cccc 1abe e82f 94bd c549 e3bd 108c 54be
00000020: 6643 d23d a51e fe3b b2a5 2f3e 2b31 393f

bn3.running_mean f4 [12]
0.20827842 0.26970538 -0.37739593 0.01458639 0.2950852 0.22793142 0.61201763 -0.7977214
0.18548124 0.3642067 -0.37461558 -1.0373557
00000000: f046 553e d316 8a3e 0a3a c1be c1fb 6e3c
00000010: 6815 973e db66 693e 30ad 1c3f 7837 4cbf
00000020: cbee 3d3e 4d79 ba3e 9dcd bfbe 12c8 84bf

bn3.running_var f4 [12]
0.74183464 0.8021045 0.75465643 0.557727 0.26187685 0.18243091 0.40438107 0.3287046
0.54551727 0.7354087 0.33825138 1.3812447
00000000: e0e8 3d3f b856 4d3f 2a31 413f 32c7 0e3f
00000010: b914 863e 2bcf 3a3e 090b cf3e f84b a83e
00000020: 05a7 0b3f bf43 3c3f 492f ad3e a0cc b03f

bn4.weight f4 [16]
0.5967431 0.66423696 0.7727243 0.5302638 0.74670815 0.8696193 0.53720796 0.56574374
0.65507543 0.580781 0.5216714 0.5674085 0.30748528 0.67827874 0.5457928 0.4129229
00000000: 28c4 183f 6f0b 2a3f 42d1 453f 5ebf 073f
00000010: 4428 3f3f 5f9f 5e3f 7686 093f 95d4 103f
00000020: 06b3 273f 10ae 143f 428c 053f af41 113f
00000030: b66e 9d3e ada3 2d3f 14b9 0b3f a16a d33e

bn4.bias f4 [16]
0.25569955 0.0058732023 -0.17323127 0.72708315 -0.15545958 0.014592124 0.30756864 0.55888367
-0.060816206 0.25295419 0.19939722 0.15795107 0.56478465 -0.0008574387 0.37874925 0.04835964
00000000: 0deb 823e fe73 c03b 8a63 31be 1f22 3a3f
00000010: cc30 1fbe ce13 6f3c a379 9d3e 0013 0f3f
00000020: 6a1a 79bd 3683 813e c92e 4c3e edbd 213e
00000030: ba95 103f bdc5 60ba 6ceb c13e c214 463d

bn4.running_mean f4 [16]
-0.628467 -0.56727636 0.9560475 0.44127843 -0.10946657 0.813508 0.31975374 -0.33869565
-0.26117697 1.0862536 0.6083489 -1.0123659 -0.44434455 0.022639874 -0.47066072 -0.2411255
00000000: 37e3 20bf 0639 11bf 87bf 743f 3fef e13e
00000010: 0230 e0bd 0f42 503f c3b6 a33e 8469 adbe
00000020: fdb8 85be 5c0a 8b3f c1bc 1b3f 3595 81bf
00000030: 2181 e3be 4277 b93c 71fa f0be 9ae9 76be

bn4.running_var f4 [16]
1.9378576 0.32161593 0.9966183 2.960909 0.5129119 3.113594 0.87930864 1.8749576
1.3436477 1.2667168 0.4302614 1.3285984 0.61276126 1.4114152 0.8404343 0.47389293
00000000: b80b f83f d8aa a43e 6022 7f3f 887f 3d40
00000010: 324e 033f 2045 4740 5f1a 613f 9cfe ef3f
00000020: a6fc ab3f c723 a23f 394b dc3e 830f aa3f
00000030: ecdd 1c3f 41a9 b43f b426 573f 18a2 f23e

fc5.weight f4 [64, 16]
-0.000820056 0.0009448935 0.0007877355 0.0004293649 -0.0007969177 -0.0003062904 0.0005200244 -0.0007981316
-0.00011658373 0.000617558 -0.00070047966 -0.000116606825 -0.0005504165 2.7412223e-05 0.0008652636 0.00083301205
0.0014043081 -0.00054489734 -0.00013617809 -0.0005765683 -0.00017996943 0.0018264604 4.3731437e-05 -0.0002529685
0.0008034829 -0.001322482 0.00034098755 -0.0015301352 0.0012474671 -0.00057037687 0.00045956104 -0.0010612507
0.0007992519 -0.00064729684 -0.00046705056 0.0005120013 0.00029100844 0.0005579281 -1.1667041e-05 -0.000583401
8.1705504e-05 -0.00063753856 -1.5174387e-05 4.2713968e-05 0.00075005466 -0.00028304005 -0.000101369165 -0.0010181826
-0.00021920256 0.0005713668 2.2174043e-05 0.00054184074 -4.205239e-06 -0.00073007785 0.00066177547 -0.0003701957
-0.0006718984 0.0008207527 0.00065960083 -0.00019861432 -0.00070771994 0.00032576857 -0.000248618 0.00034551183
8.2116385e-05 0.00041702852 -0.00031668096 0.0004887432 8.078026e-05 -0.0002195311 0.00044630846 7.389331e-05
-0.0009059369 0.0006901517 0.00048693898 1.569017e-06 -0.0004353373 0.0005145523 -0.00030470907 4.875241e-05
0.00094966317 -0.0011478506 0.00020671128 -0.0004447678 0.00040491045 0.00043964878 -0.00070883415 0.0010743222
-0.00050343573 -0.0009053238 0.00029033385 -0.0014475158 0.001046506 0.0004074708 0.0014150547 0.00056029117
-0.00014813249 0.00023105693 0.00015292356 -0.00044097475 -0.0006961529 0.000212024 0.00032863938 0.00022345257
-0.00028257933 -0.00013816365 -0.00035952605 -0.0012331444 0.000613364 0.00013934668 0.0009810323 0.000708721
-0.00037683002 0.000306965 -0.0002543836 -0.00014773649 0.00017169444 -0.0006664483 -0.0010882594 0.00028140366
-0.00092845276 -0.00021748505 -3.6656376e-05 0.00063600147 0.00036071576 0.00011697263 -0.00025560395 0.0005733589
0.00079153205 -0.00034469465 -0.00034576765 0.00032126013 -6.106045e-05 -0.000415534 -6.415481e-06 0.00019632674
0.00045623654 0.00066726084 -9.3958624e-05 0.001399834 -0.00023205674 -0.00016796424 -0.0016756142 -8.497845e-06
1.5379746 -0.0696529 -1.0117496 -0.7070484 1.2620814 1.3146762 0.37164208 1.1379324
-0.74748963 -0.61156946 1.554789 0.022082474 -0.3065835 0.906367 -1.869232 -1.3294169
0.00067609403 -0.000100425445 -0.00038250885 0.00019302382 0.000579212 0.00023482415 -0.00089007954 8.350509e-05
-0.0010028381 9.524279e-06 0.00034071377 0.00026234967 0.00036587045 0.00012622529 -0.00073085405 0.001495815
-3.8064773e-05 -4.384512e-05 0.00026009473 -0.00027944666 0.00026556675 0.00032554453 3.117762e-06 0.00016851131
-0.00024526817 -3.7363236e-05 0.0004237209 -0.0008348819 0.00062377495 0.00043997227 0.0005105297 0.00042455734
7.8705976e-05 -0.00060107035 0.00018112667 -9.737834e-05 -0.00064883084 -0.0002082707 -1.679525e-05 -6.714681e-07
0.0017731077 0.0012039985 -0.001435343 0.00080029643 -4.2915308e-05 -0.00061909243 -0.00035106484 0.00040270717
-0.00012463972 -0.0006558562 0.00013422978 0.00087122334 0.00061762624 -0.0006812201 0.00043476606 -0.00042473557
-3.8276547e-05 0.0005276646 0.000261741 0.001319986 -0.0007039379 -0.00022276428 -0.0010630835 -0.00064467866
-0.36621863 0.37798735 -0.25668818 1.6843767 0.076013446 -1.9192791 1.0392779 -0.8467728
0.06828866 1.8202126 0.052056488 2.6068327 -1.9549319 0.10029023 -2.2141001 -0.47776926
0.00016612155 -5.5273442e-05 -0.00021602056 -0.00064846675 -1.7991843e-08 0.00073911354 -0.00023017063 0.00077113794
-0.00013622262 -0.00026484544 7.149082e-05 -0.00055289525 -8.485141e-05 0.00016983399 -7.150942e-05 0.0003590206
00000000: 07f9 56ba bbb2 773a 0980 4e3a 621c e139
00000010: 3ee8 50ba 9a95 a0b9 3f52 083a b439 51ba
00000020: 6a7e f4b8 9ee3 213a 65a0 37ba d08a f4b8
00000030: d349 10ba 4df3 e537 dbd2 623a 7e5e 5a3a
00000040: c310 b83a 71d7 0eba 07cb 0eb9 d824 17ba
00000050: 2db6 3cb9 d765 ef3a 466c 3738 dba0 84b9
00000060: d3a0 523a 2257 adba 93c6 b239 d18e c8ba
00000070: 0d82 a33a 5885 15ba 3df1 f039 aa19 8bba
00000080: e384 513a 5baf 29ba 77de f4b9 d337 063a
00000090: 7e92 9839 ec41 123a 8fbd 43b7 61ef 18ba
000000a0: 4f59 ab38 7d20 27ba 7f95 7eb7 c627 3338
000000b0: 519f 443a fe64 94b9 2896 d4b8 8a74 85ba
000000c0: bdd9 65b9 c7c7 153a 6502 ba37 510a 0e3a
000000d0: ba1a 8db6 b262 3fba 007b 2d3a d316 c2b9
000000e0: 5722 30ba c827 573a 10e9 2c3a 2043 50b9
000000f0: 4886 39ba ebcb aa39 f158 82b9 d025 b539
00000100: e635 ac38 9fa4 da39 3308 a6b9 001f 003a
00000110: 9268 a938 ee31 66b9 82fe e939 2bf7 9a38
00000120: 657c 6dba 4ceb 343a d84b ff39 0397 d235
00000130: fc3d e4b9 05e3 063a 5cc1 9fb9 807b 4c38
00000140: d1f2 783a 7a73 96ba a3c0 5839 b92f e9b9
00000150: 294a d439 a980 e639 0ed1 39ba 45d0 8c3a
00000160: 00f9 03ba 4053 6dba f337 9839 92ba bdba
00000170: ea2a 893a cea1 d539 5b79 b93a 81e0 123a
00000180: 0354 1bb9 df47 7239 1b5a 2039 a132 e7b9
00000190: 087e 36ba c252 5e39 3b4d ac39 984e 6a39
000001a0: 2827 94b9 06e0 10b9 c57e bcb9 76a1 a1ba
000001b0: 29ca 203a 971d 1239 fb95 803a 76c9 393a
000001c0: 4591 c5b9 25f0 a039 ca5e 85b9 b6e9 1ab9
000001d0: e008 3439 97b4 2eba eda3 8eba 5c89 9339
000001e0: 6963 73ba b30c 64b9 7cbf 19b8 56b9 263a
000001f0: 731e bd39 344f f538 9502 86b9 774d 163a
00000200: d17e 4f3a 22b8 b4b9 2648 b5b9 ce6e a839
00000210: 940d 80b8 08dc d9b9 9044 d7b6 0fdd 4d39
00000220: 0833 ef39 1eeb 2e3a a70b c5b8 a27a b73a
00000230: 4254 73b9 8f1f 30b9 48a0 dbba f791 0eb7
00000240: 5adc c43f 2ea6 8ebd 0381 81bf 2001 35bf
00000250: e28b a13f 4f47 a83f df47 be3e c5a7 913f
00000260: 7b5b 3fbf d18f 1cbf 5303 c73f 4ee6 b43c
00000270: 83f8 9cbe ab07 683f ff42 efbf 552a aabf
00000280: e73b 313a 809b d2b8 788b c8b9 7066 4a39
00000290: 42d6 173a 213b 7639 3a54 69ba 741f af38
000002a0: aa71 83ba 78ca 1f37 d4a1 b239 fa8b 8939
000002b0: 4dd2 bf39 585b 0439 c996 3fba 390f c43a
000002c0: bda7 1fb8 57e6 37b8 535d 8839 b282 92b9
000002d0: c43b 8b39 d9ad aa39 be3a 5136 69b2 3039
000002e0: 5697 80b9 78b6 1cb8 db26 de39 fadb 5aba
000002f0: d484 233a 14ac e639 11d5 053a 1f97 de39
00000300: f30e a538 2691 1dba d2ec 3d39 9937 ccb8
00000310: 4d16 2aba 3e63 5ab9 86e3 8cb7 f03e 34b5
00000320: 9f67 e83a 7ccf 9d3a 1e22 bcba fcca 513a
00000330: f6ff 33b8 974a 22ba 200f b8b9 7122 d339
00000340: b8b1 02b9 c4ed 2bba 08c0 0c39 cf62 643a
00000350: 32e8 213a e893 32ba 50f1 e339 0baf deb9
00000360: 218b 20b8 f952 0a3a 483a 8939 6103 ad3a
00000370: 7988 38ba d595 69b9 2a57 8bba a7ff 28ba
00000380: 0281 bbbe 8f87 c13e a26c 83be a899 d73f
00000390: f0ac 9b3d f0aa f5bf 0f07 853f 1ac6 58bf
000003a0: edda 8b3d bafc e83f 2f39 553d 59d6 2640
000003b0: 353b fabf f764 cd3d d1b3 0dc0 2c9e f4be
000003c0: ea30 2e39 68d5 67b8 9483 62b9 defd 29ba
000003d0: 7b8c 9ab2 12c1 413a f559 71b9 3126 4a3a
000003e0: fbd6 0eb9 f4da 8ab9 57ed 9538 2cf0 10ba
000003f0: 41f2 b1b8 7715 3239 54f7 95b8 ee3a bc39

fc5.bias f4 [64]
-2.1035921e-05 -0.00032536118 -0.00021778978 -0.00020129532 -0.0005100659 -0.0007111547 -0.00021360928 0.000489974
-6.234486e-05 -0.33328947 -0.00013798977 -0.0004153141 -8.772252e-06 5.132376e-05 0.21912542 0.00011819583
-0.0001541166 -5.857211e-05 -1.558757e-05 -0.00024841758 -0.00022526109 8.569277e-05 -0.00035996066 -0.00031529536
0.001002074 -7.224932e-05 0.0002245401 0.0004232036 -0.00048454042 0.00017798496 0.00021928837 0.92070776
-0.00034278966 0.00031102286 -0.0003555705 0.00027677277 0.5113887 0.0005993187 8.35766e-05 0.00036655812
-0.0010321543 -0.00047289452 0.00057183346 0.0003881167 0.00016334752 -2.9392409e-06 0.000308177 -5.5650627e-05
-0.0007812941 0.00015897192 -0.00017080849 0.00020504279 0.00043324928 7.213335e-05 0.0007961513 -0.5970873
-0.0006529563 -0.0003080088 -0.0006121522 -0.0007860852 0.39788076 0.00017413496 0.00033402286 0.0009296539
00000000: 4c76 b0b7 3d95 aab9 805e 64b9 cd12 53b9
00000010: f1b5 05ba c96c 3aba 4efc 5fb9 9971 003a
00000020: 24bf 82b8 eba4 aabe 59b1 10b9 84be d9b9
00000030: 892c 13b7 7844 5738 6a62 603e e7df f738
00000040: 5c9a 21b9 53ab 75b8 0dc2 82b7 0b3e 82b9
00000050: 1034 6cb9 f5b5 b338 1ab9 bcb9 3a4e a5b9
00000060: 0658 833a 8f84 97b8 8672 6b39 6de1 dd39
00000070: ea09 feb9 79a1 3a39 c6f0 6539 81b3 6b3f
00000080: 73b8 b3b9 c810 a339 dd6b bab9 d01b 9139
00000090: 5fea 023f 991b 1d3a d845 af38 992e c039
000000a0: 5a49 87ba d4ee f7b9 18e7 153a 247c cb39
000000b0: 4448 2b39 c63f 45b6 d192 a139 686a 69b8
000000c0: c2cf 4cba b3b1 2639 0e1b 33b9 c100 5739
000000d0: bc25 e339 4c46 9738 cfb4 503a b7da 18bf
000000e0: 282b 2bba 3e7c a1b9 d778 20ba 4911 4eba
000000f0: 07b7 cb3e ff97 3639 ca1f af39 04b4 733a

fc6.weight f4 [64, 16]
-6.713746e-05 5.369115e-05 1.6712365e-05 -7.8925095e-06 -2.5864541e-05 -1.6653434e-05 -6.158513e-05 2.6454838e-05
8.2530056e-07 7.1659415e-05 -2.3304001e-05 2.9290944e-05 -3.8064696e-05 -6.884768e-05 2.53949e-05 8.024648e-05
1.8792019e-06 2.1574415e-05 -5.4910106e-05 8.701028e-06 1.3466851e-05 -3.314142e-05 3.0455425e-05 -6.665277e-05
-3.4292338e-05 6.477198e-05 -5.611875e-06 4.452032e-05 -8.3089335e-06 -5.1516312e-05 2.2200342e-05 0.00010626442
-4.7714013e-05 7.3537512e-06 2.7361126e-05 -2.0090589e-05 4.28504e-05 -2.5986148e-05 -4.586652e-05 1.18919625e-05
5.1555573e-05 -1.25849265e-05 9.567796e-06 -4.0618685e-05 -1.7537277e-05 -1.364328e-05 8.337588e-05 3.337713e-05
-5.332825e-05 -1.8678904e-05 3.6295246e-06 4.171581e-06 4.5414457e-05 -2.976554e-06 -1.28195115e-05 1.720728e-05
2.1371134e-05 -2.8364295e-06 4.298923e-06 4.5337027e-05 -2.8276697e-06 -2.4974648e-05 1.5280624e-05 4.2558426e-05
-5.6276207e-05 -2.7497852e-05 9.777652e-06 1.2310917e-06 4.4607354e-05 -4.969054e-06 3.6236845e-05 -3.54219e-05
1.9979934e-05 2.3689612e-05 -6.901356e-05 -4.3157324e-05 -3.3946948e-05 -3.9020066e-05 -1.7412476e-05 -4.2966727e-05
1.9190857e-06 3.196797e-05 7.3537985e-06 -2.7981896e-05 -4.151085e-05 2.1453938e-05 -2.888968e-05 -4.3468906e-05
6.811424e-05 -4.5716068e-05 -2.4936766e-05 2.1616383e-06 3.3549657e-06 -2.6382208e-05 6.3696843e-06 2.6017004e-05
-1.286769e-05 -2.7618626e-05 -9.325473e-06 -5.482944e-05 -2.202693e-05 -1.685119e-06 1.0211732e-05 -2.0853204e-06
2.1038286e-05 -5.0200833e-05 3.105025e-05 -1.07616115e-05 2.7862914e-05 -2.1579768e-05 2.3009818e-05 3.0842974e-05
-1.6278532e-06 9.6700125e-05 2.3918685e-05 -1.616429e-05 2.5196065e-05 1.0832554e-05 2.2538792e-05 5.994466e-06
1.0015092e-05 8.422844e-07 -3.1077176e-05 3.1378413e-06 -1.6050626e-05 -5.627865e-05 7.034954e-05 5.352827e-05
1.3461219e-05 6.0437236e-05 8.699534e-06 -1.8620427e-05 1.0299812e-05 -2.2516671e-05 -1.9871648e-05 -9.609186e-07
1.3815904e-05 -1.3846352e-05 3.5895908e-05 -2.955975e-05 -1.1727974e-05 -3.5802043e-06 4.0304592e-05 4.719094e-05
-0.2709368 0.51069885 0.25022826 -1.4136609 0.2068454 -0.11671371 -0.16740389 -0.25302815
-0.018151099 -0.23014773 -0.4986665 0.25673166 -0.9978033 -0.39803088 -0.8045901 0.74326724
6.3604886e-05 7.8441226e-05 -2.9940945e-06 -5.439122e-05 6.0806906e-05 -1.7845534e-05 4.3903376e-05 -3.549046e-05
3.7689464e-05 -4.4456323e-05 -1.4148248e-05 -3.8173872e-05 1.1508711e-05 -4.1044572e-05 -2.3937064e-05 1.7366614e-05
3.0486826e-05 -2.084954e-05 -6.689652e-05 -3.94853e-05 -3.8445298e-05 7.510157e-05 -6.2553976e-05 -2.1985546e-05
5.9197133e-05 7.896272e-06 -4.1350646e-05 3.4909022e-05 2.4877545e-05 3.822396e-05 -2.9595676e-05 2.2165335e-05
-3.0105007e-06 6.6069784e-05 -4.8116795e-05 -1.23070395e-05 -9.9239e-07 1.108094e-05 -7.715227e-05 -1.1274136e-05
-6.1152554e-05 -7.679898e-06 -8.83472e-05 4.58933e-05 6.269245e-05 -6.525269e-05 -3.7668553e-05 2.9467823e-05
2.3438388e-06 3.5432581e-06 5.7015415e-05 -3.4880144e-05 1.0209879e-05 6.7487454e-06 3.5145753e-05 2.2576007e-05
-3.8484457e-05 9.579152e-06 -7.619054e-06 -4.9541482e-05 -5.8202713e-06 2.7990482e-05 -1.9821923e-06 9.4291696e-05
-0.19425368 0.40000996 -0.38410893 -0.5494 -0.1001899 -0.20703003 0.094758056 -0.6644567
0.14059612 -0.2896382 -0.4824621 0.5760161 -0.13864876 -0.5768788 -0.6286698 0.15675215
-3.6331825e-05 1.1808254e-06 -4.714255e-05 -2.5367235e-05 2.876832e-05 2.688759e-05 -3.5834742e-05 -7.732303e-06
2.4918696e-05 1.9228713e-05 -1.926675e-05 -2.2725766e-05 4.7677324e-05 1.2537869e-05 9.5099e-05 -2.9445835e-06
00000000: 26cc 8cb8 6f32 6138 8831 8c37 126a 04b7
00000010: aef7 d8b7 fab2 8bb7 4427 81b8 55eb dd37
00000020: 398a 5d35 db47 9638 f67c c3b7 d3b5 f537
00000030: a8a7 1fb8 5162 90b8 2207 d537 004a a838
00000040: e338 fc35 b4fa b437 474f 66b8 a1fa 1137
00000050: afef 6137 5401 0bb8 877a ff37 efc7 8bb8
00000060: 1ed5 0fb8 31d6 8738 a44d bcb6 54bb 3a38
00000070: 9966 0bb7 3813 58b8 df3a ba37 47da de38
00000080: 8820 48b8 3ec0 f636 9285 e537 3688 a8b7
00000090: 44ba 3338 d4fc d9b7 cd60 40b8 9783 4737
000000a0: 603d 5838 d923 53b7 5f85 2037 fb5d 2ab8
000000b0: 041d 93b7 71e5 64b7 16da ae38 6cfe 0b38
000000c0: c6ac 5fb8 a4b0 9cb7 c292 7336 9cf9 8b36
000000d0: 677b 3e38 cfc0 47b6 6213 57b7 5a58 9037
000000e0: 2946 b337 7d59 3eb6 783f 9036 4328 3e38
000000f0: ffc2 3db6 a680 d1b7 e42e 8037 c380 3238
00000100: 1e0a 6cb8 30ab e6b7 b20a 2437 fd3b a535
00000110: c818 3b38 d9bb a6b6 04fd 1738 fa91 14b8
00000120: 959a a737 0eb9 c637 5fbb 90b8 d303 35b8
00000130: 4262 0eb8 7aa9 23b8 0211 92b7 2c37 34b8
00000140: a4c9 0036 5915 0638 a6c0 f636 aaba eab7
00000150: f01b 2eb8 fbf7 b337 1e58 f2b7 6252 36b8
00000160: 8ed8 8e38 41bf 3fb8 4c2f d1b7 aa10 1136
00000170: df25 6136 5c4f ddb7 2cbb d536 173f da37
00000180: 4fe2 57b7 8cae e7b7 9a74 1cb7 aaf8 65b8
00000190: 79c6 b8b7 3f2c e2b5 0e53 2b37 88f1 0bb6
000001a0: 607b b037 bc8e 52b8 f43b 0238 c58c 34b7
000001b0: 27bb e937 3306 b5b7 3505 c137 645d 0138
000001c0: 9c7c dab5 7ccb ca38 fca4 c837 8c98 87b7
000001d0: 235c d337 77bd 3537 b011 bd37 1224 c936
000001e0: 7e06 2837 5819 6235 dd58 02b8 b493 5236
000001f0: 75a4 86b7 be0c 6cb8 9f88 9338 8b83 6038
00000200: 7fd7 6137 fd7d 7d38 37f4 1137 1033 9cb7
00000210: 5bcd 2c37 2fe2 bcb7 0ab2 a6b7 e9f8 80b5
00000220: dbca 6737 a14d 68b7 f08e 1638 14f7 f7b7
00000230: 44c3 44b7 7143 70b6 ba0c 2938 e3ee 4538
00000240: 3ab8 8abe 29bd 023f eb1d 803e d7f2 b4bf
00000250: 48cf 533e 9907 efbd ed6b 2bbe e88c 81be
00000260: 9db1 94bc d9ab 6bbe 3751 ffbe 5572 833e
00000270: 0970 7fbf b4ca cbbe 9ef9 4dbf c346 3e3f
00000280: 9d63 8538 d080 a438 27ee 48b6 2122 64b8
00000290: eb0a 7f38 feb2 95b7 e424 3838 97db 14b8
000002a0: c114 1e38 9d76 3ab8 435e 6db7 e21c 20b8
000002b0: 8a15 4137 4627 2cb8 74cc c8b7 85ae 9137
000002c0: f6bd ff37 0ce6 aeb7 cc4a 8cb8 059d 25b8
000002d0: 5340 21b8 d97f 9d38 692f 83b8 9a6d b8b7
000002e0: 704a 7838 3b7a 0437 eb6f 2db8 476b 1238
000002f0: 1fb0 d037 aa52 2038 3b44 f8b7 b2ef b937
00000300: 0208 4ab6 f28e 8a38 04d1 49b8 557a 4eb7
00000310: 4332 85b5 46e8 3937 cfcc a1b8 0c26 3db7
00000320: 073f 80b8 e9d8 00b7 0b47 b9b8 8e7d 4038
00000330: c179 8338 45d8 88b8 4dfe 1db8 ab31 f737
00000340: d84a 1d36 b6c8 6d36 d623 6f38 454c 12b8
00000350: 194b 2b37 4873 e236 7769 1338 9b61 bd37
00000360: 5f6a 21b8 25b6 2037 2da7 ffb6 c3ca 4fb8
00000370: c04b c3b6 1acd ea37 ce05 05b6 78be c538
00000380: 70ea 46be 1bce cc3e eda9 c4be 7aa5 0cbf
00000390: 5d30 cdbd aeff 53be 8310 c23d d619 2abf
000003a0: 6ef8 0f3e 754b 94be 4605 f7be cb75 133f
000003b0: f1f9 0dbe 54ae 13bf 81f0 20bf a383 203e
000003c0: 0063 18b8 da7c 9e35 edba 45b8 b9cb d4b7
000003d0: 7f53 f137 a98c e137 434d 16b8 fdb9 01b7
000003e0: 7e08 d137 594d a137 089f a1b7 36a3 beb7
000003f0: 23f9 4738 bd59 5237 e36f c738 8f9b 45b6

fc6.bias f4 [64]
1.2096841e-05 -1.793731e-05 -1.3351534e-05 3.5244833e-05 4.6278506e-05 3.453252e-05 1.5633637e-05 -6.3508764e-06
1.6821134e-05 -0.47961763 -4.5580953e-05 1.4155776e-05 2.0422407e-05 1.578418e-05 0.4717219 1.66839e-05
3.8295047e-06 9.500379e-06 1.9800978e-05 -1.8599692e-05 -3.6230958e-06 4.905723e-06 -4.8682814e-06 5.69279e-06
-1.8026647e-05 2.5415358e-05 -2.0844414e-05 6.9481257e-06 -1.03114235e-05 -2.2585638e-05 2.9704185e-07 -1.4328235
3.4621403e-06 -5.194477e-06 2.8589093e-06 1.792353e-05 -1.0906429 4.4583263e-05 9.3651715e-06 1.0130231e-05
2.3757444e-05 2.7049635e-05 4.143655e-05 2.4946425e-05 1.4786503e-05 7.356022e-05 -9.324148e-06 2.9323044e-05
8.217057e-06 2.5350831e-05 -2.4201974e-05 1.3367087e-05 5.4320826e-06 1.2577824e-06 2.7355942e-05 -2.043373
-6.5993704e-06 -1.01692485e-05 2.258115e-05 1.8521918e-05 -2.1810474 -1.7344644e-07 1.6755863e-05 1.3338894e-05
00000000: 89f3 4a37 1478 96b7 6700 60b7 dad3 1338
00000010: 2b1b 4238 03d7 1038 fb24 8337 9d19 d5b6
00000020: 1c1b 8d37 7190 f5be 2d2e 3fb8 987e 6d37
00000030: c950 ab37 4568 8437 8885 f13e 67f4 8b37
00000040: 327f 8036 d163 1f37 471a a637 8906 9cb7
00000050: 5024 73b6 d79b a436 385a a3b6 b204 bf36
00000060: ee37 97b7 1133 d537 0adb aeb7 f223 e936
00000070: 3aff 2cb7 4a76 bdb7 1f79 9f34 c366 b7bf
00000080: 1e57 6836 384c aeb6 b0db 3f36 7d5a 9637
00000090: 309a 8bbf eafe 3a38 1b1f 1d37 03f5 2937
000000a0: b94a c737 a6e8 e237 28cc 2d38 0a44 d137
000000b0: 8c13 7837 5844 9a38 e96e 1cb7 c2fa f537
000000c0: fedb 0937 7fa8 d437 5805 cbb7 3443 6037
000000d0: 3c45 b636 13d1 a835 707a e537 a0c6 02c0
000000e0: 2970 ddb6 979c 2ab7 a66c bd37 845f 9b37
000000f0: 4896 0bc0 983c 3ab4 f18e 8c37 1dca 5f37

fc_decode.weight f4 [16, 64]
0.08310116 0.1136831 0.017479872 0.01366115 -0.039108958 0.014940043 -0.06705652 -0.12985952
-0.03933292 -0.12024508 -0.040031914 0.056107737 0.07446863 0.18600968 0.22615595 -0.095327996
0.061434474 -0.07527593 0.084825344 0.018087566 -0.08340205 -0.016418258 0.054354712 0.014579064
-0.01716117 0.044673547 0.056425303 -0.03310555 0.023314815 -0.014617425 0.049713004 0.13751549
-0.017855529 -0.009525685 0.06350335 -0.01604912 -0.35529345 -0.11826594 0.018481502 -0.083967134
0.046224207 0.08374907 -0.052369077 0.011019078 -0.036275957 0.0719607 -0.07694945 0.07215075
-0.04497701 -0.024902849 0.08612091 0.040161833 0.09126397 0.0070144385 -0.16591996 0.18155791
0.061279837 -0.04658409 -0.1268105 -0.012749845 -1.3487132 -0.017300764 0.06932069 -0.05244266
-0.020607287 -0.03892315 -0.029504048 -0.0031467325 -0.027987467 -0.091557115 -0.030190669 0.15119886
0.040861584 0.17167923 0.053800065 -0.10116927 -0.061311185 -0.17318487 0.28379402 0.06121432
-0.011554908 0.009128536 -0.041155268 -0.0068408796 0.011694354 0.009853307 -0.106217206 -0.0600636
0.059217017 -0.03478558 0.012038964 0.111408204 -0.008244856 0.061544973 -0.0040114694 -1.1119338
-0.0118336305 0.011130318 -0.0779873 0.08599118 -0.20468952 0.21213481 0.026743319 0.08356478
-0.07139122 -0.059727136 0.12368978 0.029900113 0.058355544 -0.086357296 0.05763928 -0.122547664
0.043388356 -0.019642157 -0.029529946 0.05149088 0.038600255 -0.014915573 0.19071795 0.061137505
-0.12345772 0.04911882 0.047413696 -0.040224526 -0.42327604 0.008666308 -0.04375441 0.1435792
0.03008929 -0.048874322 0.00847974 0.028243355 0.013068866 0.043055132 0.021989947 -0.10080134
-0.05817344 0.73937356 0.018961525 -0.01563605 -0.08465117 0.07248489 0.1856626 -0.06166558
0.0478266 -0.011895102 0.046340454 -0.033323605 -0.002197619 0.016429052 0.052834 0.061197326
-0.04713517 0.01256537 -0.036355615 -0.052317075 0.019809876 -0.058728576 -0.12384954 -0.16494517
0.017669022 -0.059363227 0.008720212 -0.038377963 -0.608219 -0.030686183 -0.0060011386 -0.044841163
-0.03651671 -0.0052928156 -0.010478121 0.028934035 -0.02386676 -0.042977042 0.010615587 -0.018916145
-0.060885202 -0.027096696 -0.10365319 -0.055038374 -0.0057492983 -0.04758586 -0.01834225 -0.20987862
0.034799516 -0.019440567 -0.014800466 0.023046399 0.84379375 0.0074410597 -0.01809808 -0.044573687
0.08187641 -0.09285276 -0.08554615 0.054466225 -0.010496632 0.005777574 -0.033759788 0.02118248
-0.041040115 -0.07651653 0.008247669 0.058612682 -0.033164956 0.033271812 -0.5120917 -0.0423693
-0.0083099585 -0.04940482 0.0028304132 -0.032384064 -0.0052778837 -0.11238053 0.028337697 -0.053234417
0.03148204 0.041716363 0.016749931 0.036452506 -0.009140444 0.0052945376 0.028891485 -0.3640968
-0.13030966 0.016989483 0.026745003 -0.02004382 -0.13540727 0.073401734 -0.0066662026 0.01961198
-0.103367575 0.016267048 -0.06212242 0.10672402 0.04676002 -0.037001956 0.009392015 0.008624266
-0.13352397 0.029774968 0.037212726 0.002580046 0.008006919 -0.014490837 -0.05894995 0.47327474
-0.0182492 -0.08435062 -0.020372529 -0.055220887 0.3042856 0.016689353 0.12734409 0.013136859
00000000: f130 aa3d afd2 e83d f331 8f3c 04d3 5f3c
00000010: b730 20bd 15c7 743c ee54 89bd e5f9 04be
00000020: 8e1b 21bd 0d43 f6bd 81f8 23bd 3ad1 653d
00000030: 0283 983d 5279 3e3e 6d95 673e 533b c3bd
00000040: b7a2 7b3d 442a 9abd e9b8 ad3d 602c 943c
00000050: b2ce aabd 957f 86bc 0ca3 5e3d 07dd 6e3c
00000060: 9595 8cbc 9cfb 363d 381e 673d af99 07bd
00000070: b6fe be3c ed7d 6fbc dd9f 4b3d dcd0 0c3e
00000080: c245 92bc 9e11 1cbc 0b0e 823d 7279 83bc
00000090: 06e9 b5be 6a35 f2bd 8566 973c f6f6 abbd
000000a0: 9855 3d3d a284 ab3d f580 56bd 5d89 343c
000000b0: 1996 14bd 2260 933d ac97 9dbd c6c3 933d
000000c0: d039 38bd 0f01 ccbc 2960 b03d bc80 243d
000000d0: 9be8 ba3d 60d9 e53b ece6 29be 51ea 393e
000000e0: 9100 7b3d f5ce 3ebd 9dda 01be bae4 50bc
000000f0: a2a2 acbf 55ba 8dbc 02f8 8d3d 1dce 56bd
00000100: 9dd0 a8bc e26d 1fbd 79b2 f1bc 6939 4ebb
00000110: f945 e5bc 4c82 bbbd 6c52 f7bc e0d3 1a3e
00000120: 7a5e 273d aecc 2f3e 755d 5c3d d631 cfbd
00000130: 7021 7bbd 6057 31be 734d 913e debb 7a3d
00000140: cc50 3dbc db8f 153c 6d92 28bd 7529 e0bb
00000150: ad99 3f3c c46f 213c 6888 d9bd 4005 76bd
00000160: 8b8d 723d 537b 0ebd 133f 453c fc29 e43d
00000170: 6f15 07bc 9516 7c3d a572 83bb d953 8ebf
00000180: d8e1 41bc f05b 363c ceb7 9fbd 251c b03d
00000190: 219a 51be de39 593e ce14 db3c 0324 ab3d
000001a0: 8f35 92bd 71a4 74bd 1151 fd3d 15f1 f43c
000001b0: 3906 6f3d 18dc b0bd 2a17 6c3d 45fa fabd
000001c0: fdb7 313d 97e8 a0bc c9e8 f1bc 1ae8 523d
000001d0: 4d1b 1e3d 7360 74bc 914b 433e 526b 7a3d
000001e0: 67d7 fcbd d130 493d dd34 423d 79c2 24bd
000001f0: a3b7 d8be 21fd 0d3c d337 33bd 6d06 133e
00000200: d17d f63c 7130 48bd 9bee 0a3c 9c5e e73c
00000210: cc1e 563c 945a 303d 4324 b43c ef70 cebd
00000220: 4647 6ebd 9647 3d3f 3355 9b3c 2c17 80bc
00000230: 985d adbd f572 943d 561e 3e3e 0c95 7cbd
00000240: d3e5 433d ade3 42bc 7dcf 3d3d 557e 08bd
00000250: ee05 10bb 3896 863c 7768 583d 0caa 7a3d
00000260: cf10 41bd fbde 4d3c a0e9 14bd 6e4a 56bd
00000270: 5248 a23c 608d 70bd d4a4 fdbd 63e7 28be
00000280: a0be 903c db26 73bd 38df 0e3c 3632 1dbd
00000290: 3eb4 1bbf 9761 fbbc 33a5 c4bb 5eab 37bd
000002a0: 8c92 15bd 5b6f adbb 6dac 2bbc 1207 ed3c
000002b0: 3984 c3bc b208 30bd 00ed 2d3c 08f6 9abc
000002c0: c362 79bd e4f9 ddbc 2048 d4bd eb6f 61bd
000002d0: 9c64 bcbb 64e9 42bd 7c42 96bc 6cea 56be
000002e0: f089 0e3d d341 9fbc a77d 72bc cdcb bc3c
000002f0: de02 583f 22d4 f33b 6d42 94bc e692 36bd
00000300: d2ae a73d 9629 bebd d232 afbd fa17 5f3d
00000310: 11fa 2bbc ce51 bd3b b447 0abd e186 ad3c
00000320: ae19 28bd b3b4 9cbd 3b21 073c da13 703d
00000330: fad7 07bd 0648 083d 7118 03bf 6e8b 2dbd
00000340: 7e26 08bc b55c 4abd 747e 393b 27a5 04bd
00000350: 19f2 acbb c327 e6bd 7524 e83c 550c 5abd
00000360: 50f3 003d c7de 2a3d 2737 893c 394f 153d
00000370: cdc1 15bc cd7d ad3b d6ad ec3c e56a babe
00000380: e56f 05be 872d 8b3c 5618 db3c f032 a4bc
00000390: 34a8 0abe a653 963d 2970 dabb 4ea9 a03c
000003a0: 61b2 d3bd 7942 853c 1474 7ebd 1f92 da3d
000003b0: 6f87 3f3d 5d8f 17bd f7e0 193c cb4c 0d3c
000003c0: 82ba 08be a2ea f33c 5f6c 183d fd15 293b
000003d0: 742f 033c fa6a 6dbc 8175 71bd 1151 f23e
000003e0: 597f 95bc 05c0 acbd 4ae4 a6bc 4c2f 62bd
000003f0: 52cb 9b3e 1cb8 883c 7d66 023e fb3b 573c

fc_decode.bias f4 [16]
0.79330665 -0.4023925 0.44105732 0.0123579055 -0.79374146 -0.57942706 0.72457504 -0.4005527
0.0036025357 -0.6728611 0.10659066 0.08668395 -0.09026422 -0.7516782 0.08724682 -0.53738683
00000000: 2516 4b3f 6406 cebe 44d2 e13e d078 4a3c
00000010: a432 4bbf 5555 14bf c07d 393f 3e15 cdbe
00000020: 8518 6c3b a040 2cbf 344c da3d 5b87 b13d
00000030: 73dc b8bd fc6d 40bf 76ae b23d 2f92 09bf
