saved_models_2D/VAE_patch_folds/CVAE2D_16_0.5_fold_0.pth (torch, 42294 bytes, 49 tensors)

conv1.weight f4 [3, 1, 5, 5]
000000 ed 4d d5 be 1c d4 45 bc 32 a3 98 3e 5b c6 95 3d
       -0.41661015 -0.012074497 0.29812008 0.07313224
000010 9a 02 f4 be 80 24 d2 3e 26 74 22 3e cb 05 22 3e
       -0.47658235 0.41043472 0.1586462 0.15822522
000020 24 9c a5 be 30 83 72 3e fe 5c 75 bd 75 28 71 be
       -0.32345688 0.23682857 -0.059903137 -0.2355059
000030 3c 4c f0 bd 1c b7 95 3e ba 88 c1 be ea 6b c9 3e
       -0.117332906 0.29241264 -0.37799627 0.39340144
000040 ff 51 e0 3d d1 8a df 3d e1 a4 98 bd aa 52 fc 3e
       0.109531395 0.10915149 -0.07453323 0.49281818
000050 4c ac fa 3e ba 00 39 3f 65 2e 1b 3f 75 06 65 3f
       0.48959577 0.72266734 0.6061767 0.8946298
000060 18 83 55 3f 1f cc e1 3e b6 cd 46 3e 0f 7d 1a be
       0.8340316 0.44101045 0.1941441 -0.15086769
000070 82 aa 8c bd 47 79 2f 3f 9e 36 af 3e c5 67 d6 bc
       -0.06868459 0.6854443 0.34221357 -0.026172528
000080 9a 12 6a bd 58 86 9b 3e 92 46 8e 3e 68 d0 1f ba
       -0.057146646 0.30375934 0.27788216 -0.00060964236
000090 69 9f 9d 3e f9 61 c9 bd de bb 73 3d 1f 51 29 3e
       0.30785683 -0.0983314 0.059505336 0.16534851
0000a0 a3 6b 9b 3d 3d 58 a1 bc f7 14 cc bd b7 80 0d 3d
       0.075888894 -0.019695396 -0.09964936 0.03454658
0000b0 4b d3 a5 3d 6a e2 cb 3d 1c f0 d1 bd 77 e7 93 be
       0.080969416 0.099552944 -0.10250875 -0.2888753
0000c0 8b 19 91 be f7 e8 73 39 71 61 8b bf bb b4 35 3d
       -0.283398 0.00023261072 -1.0889112 0.04436181
0000d0 d5 a5 4e 3d 59 8b 48 be 75 b4 6c be 1e ff 84 bd
       0.05045112 -0.19584407 -0.23115714 -0.06493972
0000e0 f2 75 63 be 3e f8 f2 be f4 f7 33 be 01 b8 92 3e
       -0.22212961 -0.4745502 -0.17575055 0.2865601
0000f0 60 e0 cc be ad a6 09 3f e4 4c 09 bf ee 21 cb be
       -0.40014935 0.5376995 -0.5363295 -0.39674324
000100 c7 9c a0 bd 70 46 c8 3e 34 00 57 3e 3e 97 d4 bd
       -0.07842403 0.3911624 0.20996171 -0.1038041
000110 f7 f7 28 3d 22 06 a7 3c f3 fb fc be 3a 14 0f be
       0.041252103 0.020388667 -0.49410972 -0.1397256
000120 02 dd 41 bc f6 1f ba bd 37 95 97 3e
       -0.0118324775 -0.09088127 0.2960603

conv1.bias f4 [3]
000000 4b a9 d5 bd 87 6c e8 bc 20 b3 d8 39
       -0.10432681 -0.028372062 0.0004133219

conv2.weight f4 [4, 3, 3, 3]
000000 2a fc b9 be 5c c9 42 3e 9a 69 c7 bc 2a 3b 59 3c
       -0.36325198 0.19022125 -0.024342347 0.013258735
000010 dd dd 31 be 9f 48 be bd 0b 4c be bd 3f 74 ba be
       -0.1736979 -0.09291195 -0.09291848 -0.36416814
000020 01 35 b4 be 64 a1 fa 3e dd 76 8e 3d 7c 90 0d 3f
       -0.3519669 0.48951256 0.06956265 0.5529859
000030 ca b0 bd bd 2a 04 0c be 39 c1 aa bd 5c f0 02 3e
       -0.092622355 -0.13673463 -0.083376355 0.12787002
000040 73 8c f4 3d 80 42 9f 3d 85 64 ed 3d 4b a7 19 3c
       0.11940851 0.07776356 0.11591438 0.009378265
000050 3c 4e fb be cb ea 8b bc 72 37 84 be 8f 55 0b 3c
       -0.49083126 -0.017079731 -0.2582355 0.0085042855
000060 a3 5b ee bd 2f 9f 17 3e 84 95 69 be b5 0e c2 be
       -0.11638572 0.14806817 -0.22810942 -0.37901846
000070 2f 66 a8 bc 1b 1d 67 3e c0 ae 30 3d e8 55 fa 3c
       -0.020556537 0.22569697 0.043135405 0.030558541
000080 65 cc 7a be f6 40 da 3c 72 09 16 3d 1c 22 72 3e
       -0.24492033 0.026642304 0.0366301 0.23645824
000090 a2 ba 08 bf 81 40 af bd 05 a3 58 3e 83 fe e8 3d
       -0.5340978 -0.08557225 0.21155937 0.11376669
0000a0 54 ff 08 be 47 e5 28 3c 96 13 bd bd f6 89 8d 3e
       -0.1337865 0.01030857 -0.09232251 0.27644318
0000b0 bc 2f e2 3d c4 ed 54 3f 30 43 60 be 62 e4 e7 3e
       0.11044261 0.831753 -0.2190063 0.4529143
0000c0 47 b3 4b 3f ba 84 28 bd 66 0b 33 3f 20 15 ec 3e
       0.7957043 -0.041142203 0.6993927 0.46109867
0000d0 dd b5 79 3e c6 f1 81 3e ef 29 0b 3e 65 ba c1 3d
       0.24385782 0.2537977 0.13590215 0.0945938
0000e0 4e 14 21 bf 57 d9 6a 3e 29 25 5c bd 91 1b 7a 3d
       -0.6292161 0.22934471 -0.053746376 0.061061446
0000f0 a8 69 2a be f1 02 1d bf 6e 18 39 bf 79 a0 ad 3d
       -0.16641867 -0.61332613 -0.723029 0.08477873
000100 74 6d 8a bd 60 e2 f5 bc d9 36 03 3e bb 2c ee 3c
       -0.06759158 -0.03001517 0.12813891 0.029074064
000110 15 f0 2e bd f3 e1 53 be 14 93 67 bd 6e 68 0f be
       -0.04270943 -0.20691662 -0.05653675 -0.1400468
000120 a3 5b d4 3d a0 8d df bc 3b 86 9b 3e e3 d9 91 3e
       0.10369041 -0.027289212 0.30375847 0.28486547
000130 30 a1 9e 3e 2a 25 33 bb 51 49 c9 3e ce 54 95 3e
       0.3098235 -0.0027335384 0.39313748 0.29166263
000140 1c 0c 24 3e 2c 7d be 3e e5 ea f4 3d f6 65 a1 3e
       0.16020244 0.37204874 0.11958865 0.31523103
000150 e6 db bb 3e 59 ba 4d be 2d 73 a9 3e a5 34 31 3f
       0.36691207 -0.20090617 0.33095685 0.69220954
000160 04 93 86 3d 83 95 0d 3f 16 a4 63 3e 20 ab 3c bd
       0.0657101 0.5530626 0.22230563 -0.046061635
000170 04 d9 a2 3e 8a 60 89 3d 19 aa 22 bd bf 88 e6 3d
       0.31806195 0.067078665 -0.039713 0.11256551
000180 e2 00 9e 3e 25 d2 f7 3d be 52 a6 3e 41 bd e0 3c
       0.3086005 0.12100629 0.32485002 0.027433993
000190 e7 16 71 be 98 aa 1b 3e 5e 0b 79 3d 3a c8 c5 bd
       -0.23543893 0.15201795 0.060801856 -0.09657331
0001a0 a0 40 24 be b0 1e b2 3d 54 31 06 be 87 af 8d be
       -0.16040277 0.086972594 -0.13104755 -0.2767298

conv2.bias f4 [4]
000000 f0 c7 b9 bd aa 60 aa 3d 1d d5 d7 3c 1f 98 20 be
       -0.09071338 0.083192185 0.026346738 -0.1568303

conv3.weight f4 [12, 4, 3, 3]
000000 11 8f 15 3e d3 8b 88 3e 6e 07 dc 3e 1c 8e 94 bd
       0.14605357 0.26669177 0.42974418 -0.07253668
000010 0e b9 af bd 2f 5f ae 3e 80 f2 ed bd 77 a5 cc 3e
       -0.08580218 0.34056994 -0.11618519 0.3996999
000020 5f 2d b7 3e 0d 1e 0b be f0 0f 5d bc 70 a8 ef 3d
       0.35776803 -0.13585682 -0.013492569 0.11702049
000030 70 f8 52 3e 5d 61 12 bd a9 51 82 bd df 6e c5 be
       0.20602584 -0.035737384 -0.06363232 -0.3856115
000040 30 dc 43 3c 65 88 53 3e e2 18 54 3e 3d e0 10 3d
       0.011954352 0.20657499 0.20712617 0.0353701
000050 4d ad f7 bd 02 db b8 bd 92 81 8e bd cb a5 2f bb
       -0.120936014 -0.090261474 -0.06958307 -0.0026801701
000060 bb 50 0e be fd 06 c8 bc e5 23 b0 3e 97 91 78 bd
       -0.13897984 -0.024417395 0.34402385 -0.06068572
000070 26 9b fe bd 29 92 e6 3e c4 6a 79 3e 91 bf e2 3c
       -0.12431936 0.45033386 0.24357134 0.027679237
000080 39 6c b6 be c1 f1 b6 3e d5 f2 75 3e af 07 8d 3e
       -0.35629442 0.3573132 0.24018414 0.27544925
000090 23 90 5f be 18 f8 1c be aa 88 f3 be 0d fa 0c 3d
       -0.21832328 -0.15329015 -0.47565204 0.034418155
0000a0 29 8f 50 3e 44 b6 2b be e8 60 26 be 11 8d c4 3e
       0.20367111 -0.16768748 -0.16247904 0.38388875
0000b0 40 47 e1 be 60 97 20 be 19 7a 2b 3e 01 d9 ae bc
       -0.43999672 -0.15682745 0.16745795 -0.02134371
0000c0 9f 15 a1 3d 78 38 44 3d 62 ae c8 3b eb 53 be 3e
       0.07865452 0.047905415 0.0061243037 0.371734
0000d0 24 73 4b 3e 08 ec d7 3c 8b 77 21 3e 4b af 05 bb
       0.19868141 0.026357666 0.15768258 -0.0020398672
0000e0 5b 98 40 3e d2 a2 13 3e 7b 01 b2 bd cf e2 69 3e
       0.18808119 0.1441758 -0.086916886 0.22840427
0000f0 df 85 ba be 23 b1 bc be a8 ee 1c 3e dc 91 3d 3e
       -0.3643026 -0.36853895 0.15325415 0.18512672
000100 f8 c6 ed be cf 6a 7b be ff bf 18 be 92 59 65 be
       -0.46440864 -0.24552463 -0.1491699 -0.2239745
000110 18 fa 99 bd f3 be 45 3f 01 1c 31 3e 40 46 bf 3e
       -0.07518405 0.7724449 0.17295839 0.37358284
000120 a3 a9 3d 3e 3c a4 b2 3d 84 e5 d4 bd a6 0a 44 be
       0.18521743 0.087227315 -0.10395339 -0.19144687
000130 62 c5 70 3e 73 f6 90 be 0f a0 74 3c a1 44 49 3d
       0.23512796 -0.28313026 0.014930739 0.049137715
000140 2f af e2 bd 30 fc f5 3e 64 4c 06 3d fd 50 50 be
       -0.1106857 0.48043966 0.032787696 -0.20343395
000150 0e 04 93 3e 02 92 2b 3e e5 c8 e7 3e 0d dc 30 be
       0.2871403 0.16754916 0.45270458 -0.17271443
000160 ff 14 f3 3e a1 00 56 bb 4b 9a c8 bc 8d 5b 82 be
       0.47476956 -0.0032654183 -0.024487635 -0.25460473
000170 30 1f 6d be cd d2 dd 3d 6a 7d fa 3d 88 3e d5 3d
       -0.23156428 0.10831223 0.12230952 0.104123175
000180 41 af 28 3e a2 47 c6 bd 36 71 cd 3e 92 21 76 3d
       0.16473104 -0.096816316 0.40125436 0.06009061
000190 ce 6c dd bd a2 f7 73 3e 76 13 df 3d 9b b6 b5 be
       -0.108117685 0.23824933 0.10892384 -0.3549088
0001a0 c5 ee 80 3e 56 4c 9c be 90 3c b3 be c3 25 54 3d
       0.25182167 -0.3052699 -0.35007143 0.051793825
0001b0 ef 5a 2d 3d c2 d0 ae 3e 37 f4 68 3d 63 8d 4f 3d
       0.04232305 0.34143645 0.056873526 0.050671946
0001c0 13 cb 38 3e 52 e1 38 bd ac ae 7b 3e 25 a3 b4 3e
       0.18046217 -0.045136757 0.24578351 0.3528072
0001d0 0f 7b 93 bd 4c 9b 2f 3e 08 32 2d 3e 24 8d 9a be
       -0.07201206 0.17149085 0.16913617 -0.30185807
0001e0 60 20 3f be 5b 93 aa 3d 6a 8b 56 be ec cb 5f be
       -0.18664694 0.08328887 -0.2095162 -0.21855134
0001f0 1a 4d f9 3e 12 03 21 3f ca 3a 51 be e5 3a f7 be
       0.48691636 0.6289531 -0.20432582 -0.4828712
000200 80 e7 39 be d8 0d 92 be 1f 88 85 bd f8 80 c0 3d
       -0.18154716 -0.28526187 -0.06520104 0.09399599
000210 1d 7d e6 be 57 6b d6 be e5 04 fb 3d 30 99 25 3f
       -0.4501733 -0.4187877 0.12256793 0.6468687
000220 38 62 e2 be 41 91 c9 bd b5 bb 88 bd c4 0e e8 bd
       -0.4421556 -0.09842158 -0.06676427 -0.11330941
000230 01 a4 10 3d d6 3b ea bc 0e 75 e8 3b 63 44 38 3f
       0.035312656 -0.028592985 0.007094032 0.7197935
000240 85 46 da 3d 5a 3b 7c 3c c6 ed 9f be 32 47 fc 3d
       0.10657982 0.01539501 -0.31236094 0.12318267
000250 3a c9 ff bd 9f 08 82 3e 94 37 3f 3d 5f f7 6f 3e
       -0.12489553 0.25397202 0.046683863 0.23434208
000260 bb 45 e9 be 41 58 8e 3e b5 b8 d7 3e 93 aa dd 3e
       -0.45561013 0.27801707 0.42133108 0.432942
000270 eb 80 d7 bd b1 b5 df 3d ed 22 7f be fc d3 a4 bd
       -0.10522636 0.10923327 -0.24915667 -0.08048245
000280 19 2d 25 be 72 56 87 3e 5f cb e6 3c 2f e6 7f 3e
       -0.16130485 0.2643314 0.028173147 0.24990152
000290 bf 6b 3d 3f 81 42 fe 3e a7 3a 04 be a4 bd bd bd
       0.7399253 0.49660113 -0.12912999 -0.09264687
0002a0 d0 1d 28 3f 90 b1 92 be 66 ea de 3e 38 d7 86 3d
       0.6567049 -0.28651094 0.43538207 0.065840185
0002b0 3d c1 0b 3e ab 24 0a 3d d2 16 0c 3e b5 e3 e5 bd
       0.13647933 0.033726376 0.1368058 -0.11225072
0002c0 15 65 27 be 0c 12 50 3d 5f d2 7f bd d7 c3 0c 3e
       -0.16347153 0.05079846 -0.062456485 0.13746582
0002d0 0b cb eb 3d 45 0b 81 bd ff 2d 05 bd e1 a1 65 bc
       0.11513337 -0.063009776 -0.03251457 -0.014015646
0002e0 04 05 00 3e 0d 87 d3 bc 28 3d 27 be a3 f2 3d 3d
       0.12501913 -0.025821233 -0.16331923 0.046373975
0002f0 3f 6f c6 3d 7e ab 09 bf ba 01 82 be ea 1e 03 bd
       0.09689187 -0.537773 -0.25391942 -0.032011904
000300 22 d2 4f be 22 c2 d3 bd 5d 7f 2b 3e 9a 0e af be
       -0.20295003 -0.10339762 0.16747804 -0.34190828
000310 a6 3b 4c 3d 53 67 e6 bd 63 6b 2b be e4 50 48 bc
       0.049861573 -0.11250176 -0.16740184 -0.012226317
000320 5d f2 32 3e 6a e8 de bd dc 32 d2 be 0a 3c 0c 3f
       0.17475267 -0.10884173 -0.41054428 0.5477911
000330 13 1f 1b bf 35 70 48 3e 16 38 83 3e 4f e4 80 3e
       -0.6059429 0.19574054 0.25628728 0.25174186
000340 ab 65 3a 3e cd 19 fa be 4e 93 d4 3d 25 3c 43 be
       0.18202846 -0.4884781 0.10379659 -0.19065912
000350 f3 f2 47 be 7b 59 fa 3e bf 6a 62 bc cf 6c 81 be
       -0.19526272 0.48896393 -0.013819396 -0.25278327
000360 74 99 2b be 12 80 66 be 62 98 3c be 1e ee 30 be
       -0.16757756 -0.22509792 -0.18417504 -0.17278334
000370 8f 25 31 3e 52 c5 db bd da 87 bd be 74 2d 5a bd
       0.17299484 -0.10730995 -0.3701771 -0.053266004
000380 4a 5d fd bd fa 80 68 be a6 f5 7a be 9d 11 1d 3d
       -0.12371309 -0.2270545 -0.2450777 0.038346875
000390 3c 26 12 be 10 69 6f bd ec a7 bb bd 7d b3 42 be
       -0.14272398 -0.058449805 -0.09162888 -0.19013782
0003a0 7c 99 41 be 63 35 9a be 3e b1 3a be f6 27 7d 3c
       -0.18906206 -0.30118856 -0.18231675 0.015451422
0003b0 52 55 54 3e 91 2c 8b be 64 6f a5 3c 8b 1f f6 3e
       0.20735672 -0.2718244 0.020194717 0.4807094
0003c0 cd 92 d6 bd dc d0 88 3e a1 6f 12 3f f4 d1 4d 3e
       -0.10477219 0.26721847 0.5720158 0.20099622
0003d0 38 3c bd 3e 01 96 cd be 9b 83 ab bd 30 4c be 3e
       0.36960006 -0.40153506 -0.08374711 0.371675
0003e0 e6 51 d0 be b5 0f 22 bf 8d 5f 76 be cc 5d ef be
       -0.40687484 -0.6330522 -0.24059887 -0.4675125
0003f0 c6 da d3 bd 61 fa 1a bd 85 b0 0c 3e db 92 80 be
       -0.10344462 -0.037836436 0.13739212 -0.25112042

conv3.bias f4 [12]
000000 98 17 0d 3d 21 0d 63 3d 57 65 08 be 70 36 97 be
       0.03444633 0.055432443 -0.13319908 -0.2953372
000010 ef 2a dd 3d 96 ef ef bd 17 24 9c bc 81 e9 bf bc
       0.107992046 -0.11715619 -0.019060178 -0.023426773
000020 71 51 ca bb 18 ca d3 3d 08 d4 87 bc f8 a1 92 bd
       -0.0061742594 0.10341281 -0.016580597 -0.07159799

conv4.weight f4 [16, 12, 3, 3]
000000 49 af 88 3a 8b 92 5e be 3d b9 ae 3b 1e 7c 0b 3e
       0.0010428216 -0.21735589 0.0053321407 0.13621566
000010 f1 16 99 bd ce 05 0d 3f 8e e2 a8 3e 8b 54 b9 3d
       -0.07475079 0.5508698 0.32985348 0.090493284
000020 88 89 1d 3e 33 b0 ef bc 6a fd 75 3e f0 5b cc bd
       0.15384495 -0.029258823 0.24022451 -0.09978473
000030 e9 20 3a 3e 3c ba 30 3c 53 3a ba 3c 80 dc 2d 3e
       0.18176617 0.010786589 0.02273289 0.16978645
000040 21 8a ad 3e bb 80 91 be 5b 64 d9 3d 37 f8 e0 3d
       0.33894446 -0.28418526 0.106148444 0.10984843
000050 6a 05 55 3e 95 dd 09 3e 47 cc 23 3e 85 5d c7 bd
       0.20802847 0.13463433 0.15995894 -0.09734634
000060 3c 9e 45 3d 7b 16 b1 be 4a d4 15 39 84 7d b6 3d
       0.048246607 -0.34587464 0.00014288831 0.08910659
000070 4a 8e fe bd 99 66 d5 3d f7 90 5b 3c 11 c2 19 3d
       -0.12429483 0.104199596 0.0134012615 0.03753859
000080 af be 85 be 11 c8 12 be f0 a7 a6 be 89 30 1b bd
       -0.26122043 -0.14334132 -0.3255 -0.037888084
000090 b6 9e 93 bc 85 dd 8b 3a 99 cd 31 3e a8 43 7e 3e
       -0.018020015 0.0010670876 0.17363586 0.24830496
0000a0 f9 93 e2 3d 78 50 6c 3e 4f c6 4f 3d b2 3b 5b 3e
       0.1106338 0.23077571 0.05072623 0.2140949
0000b0 3e 98 01 3c 75 ff 49 3d 13 c4 9f be 0b 79 95 3c
       0.0079098325 0.04931589 -0.3120428 0.018246194
0000c0 63 a0 3e 3c 2f ca 2e bd ed 73 a2 3d 94 67 60 3e
       0.011634919 -0.042673286 0.07932267 0.21914512
0000d0 54 4e 56 be 9f f2 1f be dc d6 63 be b9 8c cc bc
       -0.20928317 -0.15619896 -0.22249931 -0.024969446
0000e0 21 ba 05 3e c0 5a 95 bc 59 0f 8c be ce 3a 78 bd
       0.13059284 -0.01823175 -0.2735546 -0.060602956
0000f0 77 78 8b 3c 88 22 29 bd df f2 e8 bb 95 fa 7f 3d
       0.017025216 -0.041292697 -0.0071090306 0.062494833
000100 20 04 34 be 1a 88 51 be 3e 25 5b be 23 a2 98 3e
       -0.17579699 -0.20462075 -0.21400926 0.298112
000110 db a5 55 3e 56 87 70 be 20 57 2a 3e 46 8f 40 bd
       0.2086405 -0.23489127 0.16634798 -0.047011636
000120 50 56 9f 3c 1a c8 00 3d 2a 02 3d 3e 84 b7 06 3d
       0.019450337 0.03144083 0.18457857 0.032889858
000130 05 2d 12 be 68 4a 3e 3c 66 14 06 bc fc a7 02 bd
       -0.14274986 0.0116144195 -0.008183574 -0.031898484
000140 8a 9c b2 ba 46 aa 6f 3c ec 3f 22 be d0 76 86 be
       -0.0013626975 0.014627999 -0.15844697 -0.26262522
000150 f0 6b 36 be 75 01 b0 bd e2 a7 99 be 16 c4 64 be
       -0.17814612 -0.08594028 -0.30010897 -0.22340426
000160 6e c9 c6 be ed cf bc 3d 6a 58 be 3d d4 74 a8 3c
       -0.38825554 0.09219346 0.092942074 0.02056352
000170 bd ba cd 3e b8 b8 63 3d dc 0a a8 3e 6a c0 1a 3d
       0.40181533 0.055596083 0.32820785 0.037781157
000180 78 3f 2b be 70 96 25 3e 6d 59 26 3e 10 4a 6a be
       -0.1672343 0.16170669 0.1624505 -0.22879815
000190 01 3c e0 bc 8a de f8 bc 01 5b 58 be 77 86 d7 bd
       -0.027372362 -0.030379552 -0.21128465 -0.10523694
0001a0 56 c7 25 3e b1 41 9a bd 00 bf 3d 3d 7d eb db 3d
       0.16189322 -0.07532061 0.04632473 0.10738275
0001b0 6d d2 0e 3e dd 66 43 bd 5f 99 5a be 71 30 1e 3d
       0.13947459 -0.04770552 -0.21347569 0.038620416
0001c0 00 9b 0b be 21 52 d3 3e 44 a3 0b be 35 73 a2 3d
       -0.13633347 0.41273597 -0.136365 0.0793213
0001d0 5f c5 8d 3d 98 61 0f bd 4b b1 45 3e a4 33 ab be
       0.06922411 -0.035005182 0.19305913 -0.33437836
0001e0 d0 b7 53 bd 57 13 3f 3d 96 38 2e be 0b ab a5 be
       -0.05168897 0.046649303 -0.17013773 -0.32357058
0001f0 25 1d 47 3d af 6b e7 3e 6e b9 a2 bc 3b ad 1d 3e
       0.04861178 0.45199344 -0.01986381 0.15398113
000200 2c 36 0e 3d 08 bb 8d be 51 17 e6 bd 57 03 bd 3c
       0.03471963 -0.27681756 -0.11234916 0.023072882
000210 79 47 80 3d 5a 62 f1 bd e0 f7 6b 3e 82 bb 80 be
       0.06263632 -0.11786337 0.23043776 -0.25143057
000220 92 c3 44 be 45 80 8b 3d fa 84 af 3d 89 b9 06 3e
       -0.19215229 0.06811575 0.08570285 0.13156714
000230 5c 51 a2 be db eb a2 3d 91 09 68 3d ae be 17 3e
       -0.31702697 0.07955142 0.05664975 0.14818832
000240 f4 51 fe 3d bd f8 72 3d 35 6f 79 be ed 22 09 3d
       0.12417975 0.059319247 -0.24358828 0.033480573
000250 59 e4 c6 bd d4 fa 63 3e 63 21 21 bd a7 89 10 bd
       -0.097115226 0.22263652 -0.03933848 -0.035287526
000260 52 bb a6 3e cf 25 ec 3b b3 c9 11 be cf 3f 69 3d
       0.3256479 0.0072066556 -0.14237098 0.05694562
000270 07 20 c3 3d a1 1e 4b be 4b ea a6 3d c3 fd 1e be
       0.09527593 -0.19835903 0.081501566 -0.1552649
000280 8e 13 c6 be c6 12 82 3e 44 30 18 3d 96 a5 d4 bc
       -0.38686794 0.25404948 0.037155405 -0.025957864
000290 83 91 e2 bc af b4 54 39 9c d5 d2 3d 77 2c 13 3e
       -0.027657276 0.00020285205 0.10294649 0.1437243
0002a0 c6 e8 77 be 0c 88 19 bd 22 b9 e6 3e d0 6e a9 3d
       -0.2420989 -0.03748326 0.4506312 0.08273089
0002b0 00 ee d6 bd 4e 42 3d be 36 35 34 3e ad 65 3f be
       -0.10494614 -0.18482324 0.17598423 -0.1869113
0002c0 7b 8c a4 3c c2 ce 7a 3a 2e 41 96 bd 85 13 9a be
       0.020086518 0.00095675525 -0.07336651 -0.30093017
0002d0 0f a1 0e bd 90 d6 f9 bc bb f2 88 3e f3 ae 65 3d
       -0.034821566 -0.03049782 0.2674769 0.056075048
0002e0 01 83 10 3e 81 04 ee 3c 0d ac ea 3d 45 b5 0a 3e
       0.14112474 0.029054882 0.11458597 0.13545711
0002f0 56 8b 97 bd 10 0e bf bd 6b c0 3d be 20 72 b6 be
       -0.07399623 -0.09328854 -0.18530433 -0.35633945
000300 99 82 17 be 73 1e e0 bd 1d d1 28 3e cb 0c 94 3d
       -0.14795913 -0.10943308 0.1648602 0.072290026
000310 f5 6c 13 be 40 fe df 3d 11 c2 3b 3e a4 d4 aa bd
       -0.14397033 0.10937166 0.18335749 -0.08341339
000320 d6 20 85 3e f1 d3 80 bd 16 c5 34 3e e7 21 6a 3e
       0.26001614 -0.062904246 0.17653307 0.22864495
000330 30 b4 a2 3d 0a 69 0b 3c 94 80 5b 3d b2 41 35 bc
       0.07944524 0.00850893 0.05358942 -0.011063026
000340 78 11 50 3b 30 4e 35 3d c5 f7 82 bc b9 de 79 bd
       0.0031748693 0.04426402 -0.015987286 -0.06100342
000350 9a dd 64 bd 93 01 ad 3d fb 4a 71 3b 24 c2 92 be
       -0.0558754 0.08447566 0.0036818373 -0.28663743
000360 81 7c f0 bc ba af e8 bd 8b 16 fb bd 38 5f 2e 3e
       -0.029356243 -0.11361642 -0.12260159 0.1702851
000370 28 b4 97 3e ff ff 1d be 52 29 7b 3e b0 65 de bd
       0.29629636 -0.15429686 0.24527481 -0.10859239
000380 f5 38 eb 3c c9 b5 2d bd 22 e4 5a 3e c6 91 2f be
       0.028713683 -0.042409692 0.21376088 -0.17145452
000390 d2 1b c4 be 7a 0a b8 3d c1 57 a1 3d 14 cb 8b be
       -0.38302475 0.08986373 0.07878066 -0.27303374
0003a0 1f 11 ab 3e 51 77 e5 bd 6d 94 9a 3e d2 a9 97 3c
       0.334115 -0.112043984 0.30191365 0.018513594
0003b0 1d ec 0a bd a6 12 64 3d 0a 8a 0b bd 7b a0 a3 bc
       -0.03391658 0.055681847 -0.03406719 -0.019973984
0003c0 36 10 b7 be 62 1b 28 be 14 ea 81 3e 3d 1b ae be
       -0.35754555 -0.16416696 0.253739 -0.34005156
0003d0 36 af a9 bd b9 77 24 3e 2c e2 15 3e 95 22 06 3d
       -0.08285372 0.16061296 0.14637059 0.032747824
0003e0 6b 38 f6 3b 07 22 9b 3d 88 b0 00 be f9 cf a7 bc
       0.0075140498 0.075748496 -0.12567341 -0.020484911
0003f0 8b 06 68 3e 6f 89 a8 3b e3 91 8b bb 49 1d 7a 3e
       0.22658746 0.0051433365 -0.0042593344 0.24425234

conv4.bias f4 [16]
000000 ad 15 07 3e 2f 31 a4 39 25 71 f8 3d 84 15 29 3e
       0.13191862 0.00031317162 0.121309556 0.16512114
000010 49 5f a2 bd 2b 22 9d 3c fa 72 8d 3d 6f 34 14 3c
       -0.079283305 0.019181332 0.06906696 0.009045704
000020 67 11 6f 3c 0b 06 1c 3c 8f 9d ab 3d 8c c1 19 3d
       0.014591551 0.009522925 0.08379661 0.037538096
000030 59 7b 9a 3d 6d 2a 21 be 90 08 f6 3d d7 e5 f9 bc
       0.07543058 -0.1573884 0.12013352 -0.030505104

bn1.weight f4 [3]
000000 b1 cd 04 3f 71 27 2b 3f ca ab 3c 3f
       0.5187636 0.6685706 0.7369963

bn1.bias f4 [3]
000000 f3 02 79 3f 67 08 99 3f 91 ba df bd
       0.97270125 1.1955689 -0.109242566

bn1.running_mean f4 [3]
000000 2e 54 a0 3f ee c2 07 3f 46 98 5c bf
       1.252569 0.53031814 -0.8616985

bn1.running_var f4 [3]
000000 91 18 37 40 d1 8e 15 3f 3f f9 93 3f
       2.8608744 0.58421046 1.1560439

bn2.weight f4 [4]
000000 ca 08 13 3f dc b9 17 3f a0 49 6d 3f 40 1e 6c 3f
       0.57435286 0.59267974 0.9269047 0.9223366

bn2.bias f4 [4]
000000 9e dd cc 3e 40 3f cb 3d fc 02 96 be e0 d2 d7 3e
       0.4001283 0.09924173 -0.29299152 0.42153072

bn2.running_mean f4 [4]
000000 ec 2c 82 bd ee 12 bc 3e 2f 18 be bf 89 3d 5e 40
       -0.063562244 0.36733192 -1.485113 3.4725058

bn2.running_var f4 [4]
000000 33 45 5d 3f 8e 7b 40 3f de cb da 3f 24 62 89 40
       0.86433715 0.7518853 1.7093465 4.29323

bn3.weight f4 [12]
000000 76 0e 5b 3f c7 03 54 3f 6b 67 68 3f 62 54 3c 3f
       0.8556894 0.82818264 0.90782803 0.7356626
000010 4a 90 75 3f a0 d9 53 3f 8f 08 57 3f 47 00 5e 3f
       0.9592329 0.82753944 0.83997434 0.86719173
000020 40 e1 23 3f 3a 22 21 3f a6 8f 40 3f fc 24 47 3f
       0.6401558 0.6294285 0.7521919 0.7779081

bn3.bias f4 [12]
000000 fb 22 51 3e b0 a5 6b 3e d6 62 73 bd 87 18 a8 3d
       0.204235 0.23012424 -0.05942043 0.08207803
000010 f1 3e bd bd 41 fb ab 3e 92 ac da 3d 40 24 ab 3c
       -0.09240521 0.3359013 0.106774464 0.020891309
000020 17 22 81 3e cd 0b c4 bd 93 34 a0 3d 7a 31 ad 3e
       0.2522132 -0.09572563 0.07822528 0.3382681

bn3.running_mean f4 [12]
000000 4f f9 92 3f f5 c2 26 3d 67 3b 9d bd ef 5f 9d 3e
       1.1482333 0.04071327 -0.07677346 0.30737254
000010 8c b3 1f 3f 3d 11 d6 be ce e5 9e bf 87 11 e4 3d
       0.6238334 -0.41810027 -1.2413881 0.111361556
000020 fd f3 cc 3e 01 f1 7e 3f 56 bc 17 3f ad a9 7a 3f
       0.40029898 0.9958649 0.5927175 0.97915155

bn3.running_var f4 [12]
000000 8c 41 93 3f 79 af 30 3f 05 d3 24 3f a6 e9 53 3f
       1.1504378 0.6901775 0.6438449 0.82778394
000010 bf ab b5 3e ed 9e d0 3e 4a 9b 80 3f 55 ee 06 40
       0.35482594 0.4074625 1.004739 2.1082966
000020 ba 28 7c 3f 10 b6 b6 3e e5 39 50 3f 3f 4a 05 3f
       0.98499644 0.35685778 0.8133834 0.52066416

bn4.weight f4 [16]
000000 84 cd 46 3f b9 c4 3f 3f b4 54 52 3f 51 bc 1e 3f
       0.7765734 0.7490955 0.82160497 0.620061
000010 73 7e 73 3f 2a c7 25 3f 5a 5d 66 3f e5 0e 3c 3f
       0.9511482 0.64757025 0.89986193 0.7346023
000020 f8 8e 2c 3f 1b fe 89 3f 7f 03 36 3f d4 73 3d 3f
       0.67405653 1.0780672 0.71099085 0.74004865
000030 1b a1 25 3f 7c 88 c8 3e 24 e4 59 3f 94 d4 ea 3e
       0.6469895 0.3916663 0.8511374 0.4586531

bn4.bias f4 [16]
000000 b2 69 86 be 50 c1 de 3e 99 00 0c 3d 9a 35 ec 3e
       -0.26252514 0.4350686 0.034180257 0.46134645
000010 d0 40 1a 3f 89 53 97 3f e0 d0 23 3e 54 98 e4 3e
       0.60255146 1.1822368 0.15997648 0.44647467
000020 ca 5c e1 3e 77 7e a0 3e 34 8d 0b 3f 6b 1a d9 3e
       0.44016105 0.31346485 0.54512334 0.42402968
000030 ec ae 93 3e 65 ae 9e 3f cd 47 49 bd f1 e6 2a 3f
       0.28844392 1.2396971 -0.04914074 0.6675864

bn4.running_mean f4 [16]
000000 f8 d4 f7 3e 04 cc 91 3d 12 45 1a 3f 91 4f c8 3e
       0.4840467 0.07118991 0.6026164 0.39123204
000010 10 bc 2e 3e f4 7e 9f be f8 39 16 3f db df 0a bf
       0.17063928 -0.31151545 0.58682203 -0.54247826
000020 7b 95 6b 3f ce 64 c1 bd 7b b8 c2 be e4 79 7d 3e
       0.92024964 -0.09443055 -0.38031372 0.24753529
000030 aa e5 a9 be ee 10 7c bf 45 96 b5 3e fb b9 96 3d
       -0.33183032 -0.9846333 0.3546621 0.07359692

bn4.running_var f4 [16]
000000 16 23 d0 3e f5 00 05 3f b4 77 48 3f 0a b8 67 3f
       0.40651768 0.51954585 0.7830765 0.90515196
000010 0c dc c4 3f e1 9d c7 3e 16 df 0e 40 48 ef 86 3f
       1.5379653 0.3898764 2.232366 1.0541773
000020 87 35 88 3f 72 61 38 3f 25 73 00 3f 06 b7 95 3f
       1.0641335 0.7202369 0.50175697 1.1696479
000030 29 ec 9e 3f a1 b5 79 3e 46 ae e6 3e cf f7 77 3f
       1.241582 0.24385692 0.45054835 0.968625

fc5.weight f4 [16, 16]
000000 4d a6 90 3e 46 0a 3d 3d 08 42 ae 3e 5f ed 72 3e
       0.28251877 0.046152376 0.34034753 0.23723362
000010 f9 2d 35 bf 24 8f 05 bd 38 8c ef 3e 84 e9 69 be
       -0.70773274 -0.032607213 0.46786666 -0.22842985
000020 73 b5 cd be d3 46 09 3e 97 f0 0a 3d 55 40 dd be
       -0.40177497 0.13405924 0.03392085 -0.43213144
000030 4c 88 0b bf 4b 4a 6d 3e 0b b5 39 3d d3 e4 16 3f
       -0.5450485 0.23172872 0.04533867 0.5894291
000040 24 35 75 3f 2f 94 27 3e b6 95 ef 3d b9 86 18 bf
       0.9578421 0.16365121 0.11698477 -0.5958057
000050 f7 d2 0e be 57 a2 bf 3d 9c 84 f4 3e 81 34 2d 3e
       -0.13947664 0.09357136 0.47757423 0.1691456
000060 3c 2c d5 bd c0 da 9e 3d 9d 2d 42 3d 92 60 09 be
       -0.10408828 0.07756567 0.04740678 -0.13415745
000070 65 6c e1 be 84 32 33 3e 97 6c 48 3f 12 dc 10 bf
       -0.4402801 0.17499739 0.78290695 -0.565858
000080 07 e6 b8 3e 5e 4e ef 3d fb ea 31 be f9 f8 aa be
       0.36112997 0.11684869 -0.17374794 -0.33393076
000090 2d 90 11 bf d9 80 e1 3e 40 33 95 be 21 20 15 3f
       -0.5686062 0.44043615 -0.29140663 0.5825215
0000a0 cd 38 f4 3e 3c 74 2a bf f0 df 50 bf 94 16 8d 3f
       0.47699586 -0.6658361 -0.815917 1.1022515
0000b0 dc bb 5a bf 28 91 0d be 7e 34 7f be 4e 19 51 3f
       -0.854429 -0.13824904 -0.24922368 0.81679237
0000c0 19 b2 ae ba f2 10 af 39 76 2f ee 39 8c 04 7e b9
       -0.0013328224 0.00033391226 0.0004543026 -0.00024225021
0000d0 19 bb a4 b9 a7 e1 51 3a dd 3e 18 ba d9 fb 57 3a
       -0.00031419916 0.0008006342 -0.0005807707 0.00082391273
0000e0 56 33 7f b7 e6 3b ec 39 5a 8a bd 39 fe 62 32 b8
       -1.5211137e-05 0.00045058056 0.0003615197 -4.25307e-05
0000f0 9b 83 21 39 be 4c 51 39 91 fd dc b9 88 ca 03 3a
       0.00015403183 0.00019960382 -0.00042150592 0.0005027433
000100 27 87 8c 3f 85 a2 60 bf 47 80 25 be 6a cc 31 3f
       1.0978745 -0.87747985 -0.16162215 0.69452536
000110 96 4b 64 3e 22 8c 19 3f 65 f4 10 3f 2b bc 95 3f
       0.22294459 0.5997945 0.56622916 1.1698049
000120 3b 7c e8 be 38 fc 9a be 9a d8 24 bf 00 71 3a bf
       -0.4540728 -0.30270553 -0.6439301 -0.72828674
000130 29 46 3e bd eb 77 42 3e b6 3a 3c bf 78 0a 87 bf
       -0.04645363 0.18991058 -0.73527086 -1.055007
000140 ef a2 63 3a a8 ec de b9 d4 ea 1e b9 ac b4 21 ba
       0.0008683642 -0.00042519462 -0.00015155534 -0.0006168585
000150 a8 95 53 39 80 6c b0 39 d0 20 05 b9 ff f6 a2 b9
       0.0002017828 0.00033650175 -0.00012696092 -0.00031083074
000160 26 1f 59 b9 d2 a0 bd 37 9d dd cd b9 99 6c 21 b9
       -0.00020706336 2.2605444e-05 -0.00039265762 -0.00015394612
000170 61 7b bc 38 14 7f c7 39 05 04 42 ba 1b c0 89 39
       8.98752e-05 0.00038050918 -0.00074011117 0.00026273806
000180 50 b4 4c 3a e0 9c 03 ba 97 a6 dc b9 57 1c 30 b9
       0.0007808851 -0.00050206296 -0.0004208579 -0.00016795225
000190 d5 d0 01 39 b9 4e 76 b9 86 9c 9e 39 86 29 26 ba
       0.00012380195 -0.00023489715 0.00030252727 -0.0006338585
0001a0 f3 05 83 b9 75 c4 03 b8 a5 10 b7 b9 e0 91 76 39
       -0.000249907 -3.14158e-05 -0.0003491688 0.00023514731
0001b0 74 99 03 39 2e 3a c4 b8 69 64 1d b9 8d f7 9b b9
       0.000125503 -9.356845e-05 -0.00015010092 -0.00029748344
0001c0 2d 29 d1 be 4b 07 f3 be 90 4d 03 bf 22 4a 3f bf
       -0.40851727 -0.47466502 -0.51290226 -0.7472249
0001d0 9b 96 99 be 80 a2 b7 3c 46 28 39 3f 3e c4 48 3f
       -0.29997715 0.022416353 0.7232708 0.7842444
0001e0 77 a4 0e bf e5 59 60 3f e5 fb c1 be 3e 98 9b 3d
       -0.55719703 0.8763717 -0.37887493 0.07597397
0001f0 90 bb 99 3f d1 50 0f bf 36 0b 2f 3e 02 c2 fc 3e
       1.2010365 -0.5598269 0.1709412 0.49366766
000200 75 04 b1 bd 48 c7 22 bd 65 62 3f bf 4e 69 80 bd
       -0.08643428 -0.03974083 -0.74759513 -0.06270085
000210 3e 12 1c be 57 8b bc 3d ff 82 49 3e 30 15 2d 3d
       -0.15241334 0.092062645 0.19678877 0.042256534
000220 12 71 39 3f 2b 7a 10 be 74 9b 04 bd 8b 16 26 be
       0.72438157 -0.14109103 -0.032374814 -0.16219537
000230 73 da 51 3d c9 4f 03 bc 90 aa 41 3e c1 55 bc be
       0.05123372 -0.008014628 0.1891272 -0.36784175
000240 4b 01 9d ba 77 ce 3b 38 55 e4 d4 b9 05 52 b2 38
       -0.0011978535 4.477656e-05 -0.00040605912 8.502979e-05
000250 35 5b 3c b8 7e e3 40 b9 f6 46 1d b9 d4 d1 82 b5
       -4.4907636e-05 -0.00018395294 -0.00014999122 -9.746823e-07
000260 a7 b9 51 38 23 84 e5 39 1b d7 72 36 ad 73 8d b8
       5.0002385e-05 0.00043776733 3.6186018e-06 -6.74495e-05
000270 19 e6 7b b9 78 1e 8d b8 90 89 22 b9 d0 b3 99 b9
       -0.00024022943 -6.729079e-05 -0.0001550077 -0.00029316405
000280 72 35 81 b9 63 f3 7d 38 5e 55 99 39 d2 9c 48 39
       -0.00024644617 6.0546572e-05 0.00029246038 0.00019131906
000290 87 e5 93 39 4c 20 21 b9 ac 26 96 39 9c a7 d3 39
       0.00028209036 -0.00015366188 0.00028639042 0.00040369935
0002a0 b4 8b 02 37 39 24 78 b7 7f ff c8 b8 63 4b 41 b9
       7.781131e-06 -1.4790386e-05 -9.584333e-05 -0.00018433998
0002b0 f5 df 10 3a 7d 2a 83 38 e3 7e 3f 39 9c 6c c0 b8
       0.0005526536 6.254481e-05 0.00018262448 -9.1755035e-05
0002c0 0a 37 71 ba 00 32 54 38 5a ab 1a 3a 5b 6d 5c 37
       -0.0009201622 5.0591305e-05 0.0005900167 1.3138483e-05
0002d0 aa 14 b8 39 32 a7 75 b9 42 79 28 b5 5f ec ad 38
       0.0003511061 -0.00023427306 -6.276133e-07 8.2933104e-05
0002e0 ef f8 ae 39 db 07 ef b8 26 4a a1 b8 a3 16 85 b9
       0.00033373336 -0.00011397871 -7.6908895e-05 -0.00025384602
0002f0 5d 4e 9b b8 f0 ab f8 b9 59 cc 2d 3a b7 e9 b6 39
       -7.405572e-05 -0.0004743035 0.00066298764 0.00034887876
000300 95 b2 8c 3a 97 df 91 b9 ab da f8 b8 4b 23 f3 b9
       0.0010734374 -0.00027823143 -0.000118662916 -0.00046374867
000310 b0 a7 ff b8 44 c8 27 3a fa 3f 7e b8 fa 83 c6 b9
       -0.00012190582 0.00064003863 -6.0617902e-05 -0.00037863833
000320 48 5d ab b9 06 1c 23 b8 e1 2e a6 38 c7 c3 04 3a
       -0.00032685162 -3.8888327e-05 7.924229e-05 0.00050645735
000330 4e e6 19 b9 d7 81 23 b9 98 ed 5d 38 f7 06 83 37
       -0.00014677012 -0.0001559326 5.2911782e-05 1.561966e-05
000340 f9 bf ab ba df db e2 b7 97 2f 7d 39 03 9f 46 b9
       -0.0013103477 -2.7043685e-05 0.00024145689 -0.00018941988
000350 e0 f5 b5 b9 5e 7b 12 3a 8e fa 05 b9 3b 8e cc b9
       -0.000347062 0.0005587841 -0.00012777207 -0.00039015882
000360 51 00 34 b9 da 97 00 3a f1 95 13 39 58 d8 a4 39
       -0.00017166256 0.000490544 0.0001407487 0.00031441706
000370 14 36 33 ba c3 3c 9a b9 3c b0 ac 39 3d 2a a1 b9
       -0.00068363664 -0.0002941844 0.000329377 -0.00030739783
000380 db 12 93 3a be 38 2a ba 70 ef 15 ba 83 09 12 39
       0.0011220829 -0.00064934406 -0.0005719578 0.00013927188
000390 e9 c6 fa 38 21 df 06 38 35 e0 b7 39 4e 2b 39 ba
       0.00011957979 3.2155895e-05 0.00035071527 -0.0007063643
0003a0 93 68 11 ba 54 6e 97 39 17 c9 3c b9 e8 09 8f 39
       -0.0005546894 0.00028883165 -0.00018003989 0.00027282466
0003b0 d3 3f 04 39 33 fc 67 b8 3d 18 cb 39 76 2d eb b9
       0.00012612277 -5.530957e-05 0.00038737236 -0.00044856564
0003c0 73 e9 80 3f 75 c0 cc be 20 50 01 3f c5 81 f1 be
       1.0071243 -0.39990583 0.50512886 -0.4716932
0003d0 a7 05 e3 be 0b 74 91 3f 72 69 e7 3b cb 0a 18 bf
       -0.4434025 1.1363539 0.0070621306 -0.5939147
0003e0 dd 5d 43 bf 69 5a 2b 3d 49 20 15 3f b3 8e 2b 3f
       -0.763151 0.04183427 0.5825239 0.67014617
0003f0 80 b9 29 bf ee b2 68 bf f8 ab 1f 3f 90 aa 16 3e
       -0.66298676 -0.90898025 0.6237178 0.14713502

fc5.bias f4 [16]
000000 9e b4 8f 3d 74 48 01 bd 53 9b b6 bd 8c a9 e3 ba
       0.07016872 -0.031563237 -0.089163445 -0.0017369254
000010 aa ab 8a 3d 49 f4 38 38 ac 18 97 3a 4f 93 10 3e
       0.067710236 4.4096527e-05 0.0011527739 0.14118694
000020 11 59 26 3e 8d 81 06 3a 91 34 0a ba 0e 72 36 39
       0.16244914 0.0005130999 -0.0005272115 0.00017399361
000030 ef 5a d6 b7 04 6c 5e 39 c7 80 24 3a db 8d 6e 3e
       -2.5553132e-05 0.00021211809 0.0006275293 0.23296301

fc6.weight f4 [16, 16]
000000 da 40 73 3e c9 8d 42 be 34 34 d9 3e 25 87 d8 bd
       0.23755208 -0.18999399 0.4242264 -0.10572652
000010 ae 13 60 be 4c 62 5a bf 86 b5 cc 3e 22 ce 1d 3f
       -0.21882507 -0.8530624 0.3998224 0.6164266
000020 f1 30 12 bf 77 15 0c bf a9 47 13 3e 9b be 3d bf
       -0.5710593 -0.5472025 0.14382805 -0.74118966
000030 94 e7 00 3d 8c 39 a2 bf 86 17 17 3f 6f 1f 1d bf
       0.03147085 -1.2673812 0.5902027 -0.6137609
000040 fa 23 f7 3e 42 8e 29 3f d9 1c 9b bf ce 28 f9 3e
       0.48269635 0.66232693 -1.2118179 0.48663944
000050 a0 15 54 3e b4 d8 fb be f7 01 1d 3f 87 76 60 be
       0.20711374 -0.4918877 0.61331123 -0.21920215
000060 c8 5e b4 be c8 88 06 3d 52 a4 93 be 26 10 92 3c
       -0.35228562 0.03284529 -0.28836304 0.017829966
000070 7e 3e 40 bf 15 eb dc bf 6c 25 a7 3e 66 9c 75 bf
       -0.75095356 -1.7259241 0.32645738 -0.9594177
000080 e0 03 e3 3e d2 0e b5 be 81 43 2a 3e 02 65 a9 bd
       0.44338894 -0.3536287 0.16627313 -0.08271219
000090 f4 56 96 be bd 9c 2f bf f6 3a d6 3e 1e 14 b8 3d
       -0.29363215 -0.6859854 0.4184186 0.08988212
0000a0 cb 85 1c bf 36 5a 64 be fe b6 ba bd a6 27 2e be
       -0.6114165 -0.22300038 -0.09116934 -0.17007312
0000b0 ce 98 09 be bf 1f 8b bf 2e c4 1c 3f ce 08 ca be
       -0.13437197 -1.0869063 0.61236846 -0.39459842
0000c0 2e bc b6 37 7c ed de 34 57 8c a7 b6 b2 e3 8a b7
       2.1783719e-05 4.1523515e-07 -4.9933255e-06 -1.655691e-05
0000d0 8f 56 0e b7 8b 42 82 b7 6e c0 08 b7 2a 44 9f b7
       -8.484013e-06 -1.5528194e-05 -8.151035e-06 -1.8986018e-05
0000e0 a1 b8 0e b7 d0 d5 b5 37 5d fe 3d 36 a0 09 c2 36
       -8.506847e-06 2.1676446e-05 2.8311254e-06 5.782771e-06
0000f0 18 5e 14 b7 87 03 06 b8 16 74 c1 37 4e 80 12 b6
       -8.843395e-06 -3.1951375e-05 2.306145e-05 -2.1830379e-06
000100 f5 21 4d bc 60 72 a1 3f cd 93 06 bf d2 a2 40 3e
       -0.012520303 1.261303 -0.52569276 0.18812111
000110 be 93 fa 3d 55 81 3d be 83 b3 e6 3e 68 6b 87 3e
       0.12235211 -0.18506368 0.45058832 0.26449132
000120 00 09 93 be cd 67 70 be 34 d0 8e 3b d3 7a 64 be
       -0.28717804 -0.23477097 0.004358316 -0.22312479
000130 c7 70 ba be 02 01 80 bf 9b 96 d6 3e e2 19 2d bf
       -0.36414167 -1.0000308 0.41911778 -0.6761762
000140 ae b2 8b b7 44 af 26 37 56 3e 87 b6 d8 d6 ba 34
       -1.6653295e-05 9.935178e-06 -4.0305704e-06 3.480152e-07
000150 94 f6 1c b4 6c 5b c2 35 5a 68 30 37 79 32 6d 37
       -1.4618337e-07 1.4480734e-06 1.0514714e-05 1.4138052e-05
000160 0f 17 6b b7 2a 8d c7 36 85 50 1b 33 02 c0 56 36
       -1.401246e-05 5.947096e-06 3.6161982e-08 3.2000248e-06
000170 24 6e 86 36 6a 83 76 b7 d5 36 55 35 52 ab 4d b6
       4.0063333e-06 -1.469334e-05 7.9428474e-07 -3.0647102e-06
000180 ff ef 6b b5 68 53 13 37 94 22 0f 35 93 92 31 36
       -8.789356e-07 8.781302e-06 5.332197e-07 2.6460373e-06
000190 79 b4 01 b7 95 af b9 b6 9d 60 b8 36 c9 60 54 b6
       -7.731019e-06 -5.53387e-06 5.4948746e-06 -3.1646798e-06
0001a0 84 eb f6 b6 27 01 88 b6 34 46 dc 35 0e 0d 6c 37
       -7.358789e-06 -4.05325e-06 1.6411709e-06 1.4069736e-05
0001b0 28 30 a6 36 66 9b a1 b7 16 e9 32 37 aa c2 dc b6
       4.9527916e-06 -1.9265059e-05 1.0663896e-05 -6.579173e-06
0001c0 f1 27 84 be dd d8 29 3e f0 4a 95 3e 7e 64 0a bd
       -0.25811723 0.16586633 0.29158735 -0.033787243
0001d0 f1 e9 9a bd 9c ea 07 bf 1a 8d a0 3e f4 04 94 3e
       -0.07564152 -0.5309236 0.31357652 0.2891003
0001e0 c4 69 ea be 61 51 01 be 8f cb 42 3d 76 28 f0 be
       -0.45783818 -0.126287 0.04755741 -0.4690587
0001f0 39 33 2c be 73 e9 80 bf 78 92 06 3f bb 4f 4e bf
       -0.16816415 -1.0071243 0.52567244 -0.8059041
000200 23 ad 28 3d 3d 7c 1f be 5c 76 7c 3f 99 8e ca bd
       0.04118074 -0.15574737 0.986181 -0.098904796
000210 da ec 2c be 84 0d 25 bf 6f 19 4a 3f 62 f0 a1 3d
       -0.16887227 -0.6447375 0.7894506 0.079071775
000220 a5 2c 83 3e 67 0a 7b 3d 48 b8 30 be 40 2f 26 be
       0.2562 0.061289217 -0.17257798 -0.16228962
000230 2e 15 17 bf 79 d1 98 bf d9 33 d6 3d b5 f3 64 bf
       -0.5901669 -1.1938926 0.10459108 -0.8943437
000240 7a 94 fb 36 ac 59 09 b7 05 58 83 36 6e 66 ff b6
       7.497668e-06 -8.186715e-06 3.914351e-06 -7.6115166e-06
000250 7e 66 07 b7 be 75 2d b7 72 fa c6 36 65 29 62 b7
       -8.07049e-06 -1.03390175e-05 5.9300155e-06 -1.3480288e-05
000260 d0 a3 c7 36 bb 95 8f b6 50 ff 49 36 49 5d c5 35
       5.9497324e-06 -4.279163e-06 3.0099945e-06 1.4704793e-06
000270 3a d0 47 36 06 0e a1 b7 1b ea 03 37 62 be 96 b7
       2.9774515e-06 -1.9199226e-05 7.862715e-06 -1.7970047e-05
000280 73 68 c7 36 5b 7f a6 36 2a a4 3c b7 68 f6 02 37
       5.9428216e-06 4.9620116e-06 -1.1243896e-05 7.805975e-06
000290 bc d1 31 b6 35 89 0f b7 18 05 23 35 d1 fe 8c b6
       -2.6497137e-06 -8.55541e-06 6.0729644e-07 -4.2019897e-06
0002a0 94 a5 46 b7 7e a1 0e b6 ff dc 2e b7 b3 f6 34 b6
       -1.1840271e-05 -2.125365e-06 -1.0422663e-05 -2.6965688e-06
0002b0 e9 80 66 35 40 8b 5a b7 12 24 15 b7 66 d1 24 b7
       8.5869266e-07 -1.3026234e-05 -8.88949e-06 -9.823916e-06
0002c0 61 3c 26 b7 85 94 18 b7 bb 9c a7 37 35 12 a0 b6
       -9.908429e-06 -9.094486e-06 1.9980935e-05 -4.770491e-06
0002d0 53 b4 13 b7 9f 52 42 35 e6 03 08 38 ab 87 6a b6
       -8.803868e-06 7.239086e-07 3.2428557e-05 -3.4947686e-06
0002e0 54 f6 88 b7 2d 55 a0 37 40 99 01 36 42 24 89 36
       -1.6327169e-05 1.911315e-05 1.9311701e-06 4.087139e-06
0002f0 49 10 95 36 1a be 99 b7 09 35 3e b7 a9 b1 9f b7
       4.442442e-06 -1.8327544e-05 -1.1337231e-05 -1.9037006e-05
000300 9c 53 15 36 67 2b d6 34 3f 9d 01 37 97 cd d2 b5
       2.2251397e-06 3.9892186e-07 7.725611e-06 -1.5706054e-06
000310 c7 d0 9b b6 d6 cb 00 b7 8a f8 60 37 50 85 7a 37
       -4.643665e-06 -7.676854e-06 1.3409308e-05 1.49322e-05
000320 9c fd 4e b7 7d 2a d1 36 41 a2 d9 36 7e 44 02 37
       -1.2337605e-05 6.2336317e-06 6.485993e-06 7.764551e-06
000330 11 ae f3 b6 99 15 76 36 50 6e b2 b5 d6 f6 ae b6
       -7.2622283e-06 3.6669428e-06 -1.3294139e-06 -5.2143396e-06
000340 de 95 0e b8 e8 85 f2 36 2d a8 47 34 fc 75 bf b6
       -3.3995013e-05 7.2277508e-06 1.8594501e-07 -5.7059788e-06
000350 a1 d1 a0 b6 49 87 98 b6 d0 bc 96 37 b9 eb 10 b7
       -4.7927756e-06 -4.5457023e-06 1.7969316e-05 -8.637952e-06
000360 d9 c3 f4 b6 82 16 ed b6 5a 15 08 36 f5 69 8f b4
       -7.2945663e-06 -7.0657707e-06 2.0278007e-06 -2.671292e-07
000370 1c ad 4e b7 5f 38 92 b7 fb 27 c4 36 0b 1b 60 b7
       -1.2318862e-05 -1.7430806e-05 5.8459095e-06 -1.3357737e-05
000380 20 43 ee 35 05 ed 0f 37 b0 f1 5d 36 93 01 7f 37
       1.7751918e-06 8.57865e-06 3.3072247e-06 1.5199551e-05
000390 5f fe 00 37 02 b1 32 b7 49 88 01 35 be e8 a9 b6
       7.68862e-06 -1.065084e-05 4.8254566e-07 -5.0636872e-06
0003a0 47 90 b1 36 37 79 76 b6 b5 21 7d b6 0d 0c 58 36
       5.291807e-06 -3.6727413e-06 -3.7719558e-06 3.2193523e-06
0003b0 b1 7c d2 b6 c4 36 95 b7 7f 3b ac 37 8f 80 97 b5
       -6.2730037e-06 -1.7787686e-05 2.0531703e-05 -1.1287792e-06
0003c0 27 fe 95 3d a5 78 0a 3e 6a d4 b3 3e f9 50 35 bd
       0.07323866 0.13522585 0.35122997 -0.044266675
0003d0 57 60 05 be 47 c0 6e be 4e da 89 3d 40 2c 21 3d
       -0.13025032 -0.23315535 0.067310914 0.03934884
0003e0 74 91 ba be ed 4d 1e 3d 06 99 e0 bd 37 7f b4 bb
       -0.36439097 0.038648535 -0.10966687 -0.0055083293
0003f0 ef 00 ad bc 3a 34 e1 be ff ee 81 3e 0f 74 71 be
       -0.02111861 -0.43985158 0.25377652 -0.23579429

fc6.bias f4 [16]
000000 4b 17 50 bf b6 21 37 bf 3a d3 66 3e 1f b8 88 38
       -0.8128554 -0.71535814 0.22541514 6.5192806e-05
000010 50 68 96 bf 33 1c 7c 37 70 b9 84 37 f9 e3 c4 be
       -1.1750584 1.5026936e-05 1.5821977e-05 -0.3845518
000020 8a d0 a3 bf fc 9e 17 38 1d 2c fd 37 76 c9 dd 36
       -1.2798016 3.614927e-05 3.0180492e-05 6.6097664e-06
000030 e7 c1 71 b7 24 6c d4 37 71 b5 c2 37 bd 67 cb be
       -1.4409866e-05 2.5322726e-05 2.3211092e-05 -0.39727584

fc_decode.weight f4 [16, 16]
000000 2e 7f c0 3d 5f b3 cd be b2 a9 a5 3e 45 f0 01 be
       0.093992576 -0.40175912 0.3235603 -0.12689312
000010 34 15 3c bf e0 8d 9d be a0 59 8d bc ac 08 0c 3e
       -0.73469853 -0.30772305 -0.01725465 0.13675183
000020 fd 4a c8 3e fa 6e 05 3e 57 c2 89 3c ba 6a f9 3d
       0.39119712 0.13030615 0.016816301 0.121785596
000030 81 25 22 be ce e5 b7 3d 4b bb 27 bd a4 dd 26 3f
       -0.15834619 0.08979379 -0.0409501 0.65181947
000040 a7 0d 9c 3e 63 b7 05 be 14 f0 51 3e a0 32 00 3e
       0.30479166 -0.13058238 0.20501739 0.12519312
000050 ab 08 fa be cb 44 bf be 61 6d 08 be 61 df f1 bd
       -0.48834738 -0.37357172 -0.13322975 -0.11810184
000060 11 77 7f bf d9 be 70 3d 12 cb 03 bd dc 1d c2 be
       -0.99791056 0.058775757 -0.032176085 -0.37913406
000070 b0 b4 7e bd ab f7 bd bd 7f 99 29 3d d0 14 be 3e
       -0.062184036 -0.092757545 0.04140615 0.37125254
000080 21 83 f7 3e a6 f4 33 3f b3 b1 0e 3f f5 b7 b4 3d
       0.4834223 0.7029518 0.557399 0.088241495
000090 0f 3e c8 be 02 d9 0b 3e da 88 ac bd 27 aa 0d be
       -0.39109847 0.13657 -0.0842454 -0.13834439
0000a0 3e 14 ba be e9 a0 53 bd ce f3 19 3e b2 70 0a 3f
       -0.3634357 -0.051667128 0.1503441 0.5407821
0000b0 b3 16 88 bd ea 09 2a 3e 1d 20 97 be 8e 79 2d bd
       -0.066449545 0.16605344 -0.29516688 -0.04235225
0000c0 3c 41 41 3f 49 79 1a bf 7a e9 9d be af b3 60 bd
       0.75490165 -0.60341316 -0.3084219 -0.05485886
0000d0 72 a8 23 bd a7 d3 32 3e 15 3e bd 3d 95 6d 28 bf
       -0.039955564 0.17463551 0.09240357 -0.6579221
0000e0 30 28 9a be 12 f8 fa 3c 55 01 cf bc 3f b0 05 3d
       -0.30108786 0.030635867 -0.02526919 0.032638784
0000f0 63 54 89 3d 2d 7c cd 3d fc 4a 99 3d af 53 e3 be
       0.067055486 0.1003345 0.07485005 -0.44399783
000100 a8 ae 52 bf 19 a4 b0 3d 46 15 87 be e4 dd 55 3e
       -0.82297754 0.08625049 -0.26383418 0.20885426
000110 3f f5 61 bf 41 23 94 3e 9e 60 ca bd 69 e6 ac be
       -0.8826484 0.28933147 -0.098817095 -0.3376954
000120 b0 c7 de 3c 8d 42 98 be 5b c7 8a 3d 6e 9b 97 3d
       0.027194828 -0.29738274 0.06776305 0.07402693
000130 a1 33 c5 3d eb 9a 92 be 7e 47 2d be f4 e6 18 bf
       0.09628988 -0.28633818 -0.16921803 -0.59727407
000140 08 0d 29 3f 60 5e dc be 49 4f 92 bd c4 98 b3 3e
       0.6603551 -0.43040752 -0.07144029 0.35077488
000150 9d d5 81 3d f8 43 bd bc 88 e4 6b be 3d 93 20 bf
       0.063395716 -0.0231037 -0.23036397 -0.6272467
000160 e3 7a 00 3f 72 87 25 be 19 aa ac 3d a8 e0 b1 bd
       0.5018751 -0.1616495 0.08430881 -0.08685428
000170 83 d9 86 3c 9e a7 18 be 96 f5 48 be 31 80 ad be
       0.01646114 -0.14907691 -0.19624934 -0.33886865
000180 03 88 92 3e df d6 66 be a2 2c 21 3f d9 ce d5 3d
       0.28619394 -0.22542904 0.6295873 0.10439844
000190 6c 68 08 3c 15 d5 73 3e 90 3c 4a 3c 7c 00 b8 bd
       0.008325677 0.23811753 0.012343541 -0.089844674
0001a0 a6 2e b6 be 8d cf 0d 3c bc ed e3 3c 68 65 bc 3d
       -0.35582465 0.008655441 0.027823322 0.09199029
0001b0 dc 90 b3 3d 50 45 37 3e aa 68 b0 bc dc 0b b0 be
       0.08767864 0.17897534 -0.021534283 -0.34384048
0001c0 23 47 e1 be f8 9c 88 bf fe 14 67 3c 06 6b ea bd
       -0.43999586 -1.0672903 0.014104126 -0.11446194
0001d0 35 41 be 3e fa 12 c4 3e 31 f7 2e 3e e0 04 a2 3e
       0.37159124 0.38295728 0.17086484 0.31644344
0001e0 35 03 06 be 45 6e 45 bd 77 09 2f bd 26 cc a3 3d
       -0.13087161 -0.048200864 -0.042733636 0.079979226
0001f0 78 ad 0c 3e e7 6f df 3c 63 2a e3 3d c5 3f f7 3d
       0.13738048 0.027275039 0.11092069 0.1207271
000200 79 8d 5f 3f 4d 42 af be 93 76 6a bc 60 66 0f 3d
       0.87325245 -0.3423027 -0.014310497 0.03500974
000210 ff 42 ec 3e 2a a2 0b bf b5 82 2f be 3b 9c 64 3e
       0.46144864 -0.5454432 -0.17139705 0.22325222
000220 15 9e 78 3e 36 5d 6d 3e 3d a0 b9 3d 22 ee 3e 3e
       0.24279054 0.23180088 0.09063766 0.18645528
000230 79 69 85 be b8 e3 8a 3e a8 b3 3b be e2 a2 1c be
       -0.26057032 0.2712686 -0.18330252 -0.1529651
000240 88 54 06 3f b7 0a 99 bc 00 1d 15 3f 87 0d 89 be
       0.52472734 -0.018681867 0.58247375 -0.26768133
000250 63 04 35 3f 5e 71 1c 3d dd 98 25 3e 3c af fa be
       0.7070982 0.038194053 0.16171594 -0.48961818
000260 86 13 8f 3e 51 b6 dc bd be e9 f0 bd 13 ef 4f be
       0.27944583 -0.107769616 -0.11763333 -0.20306043
000270 18 e1 29 3d 84 ea b6 be 9e d0 4c 3e da 16 31 3d
       0.04147443 -0.35725796 0.20001456 0.043234684
000280 4d 0b d2 3e 96 28 5e 3e 2b 6e 1e be 20 88 04 3d
       0.41024247 0.2169517 -0.15471713 0.03235638
000290 b3 7e ce 3e f7 e3 db 3e 1b 67 a8 3d cb 95 92 bd
       0.4033104 0.4294736 0.08222791 -0.07157477
0002a0 ae 6c c6 3e 2e eb 0e be 1f 96 ca 38 10 97 b2 3d
       0.3875479 -0.13956901 9.660073e-05 0.08720219
0002b0 ef b4 20 3e f4 c1 27 bd 38 ad 67 3c 72 a0 bd 3e
       0.1569402 -0.040956452 0.01414042 0.37036473
0002c0 bf ba 62 3f 4d f0 24 3f ac 53 f3 be 60 04 cf 3c
       0.885662 0.6442917 -0.47524774 0.02527064
0002d0 79 f7 7c 3d 79 99 7a 3b bc a2 fe ba 95 3a dd 3e
       0.061759446 0.003823845 -0.0019427161 0.43208757
0002e0 47 3c 8c be 77 8a a1 bd 41 87 40 bd b2 7b 6f be
       -0.27389738 -0.07887738 -0.04700399 -0.2338703
0002f0 4d f5 51 3d b3 74 46 be af 43 9b 3d 06 a5 e7 be
       0.051259328 -0.19380455 0.07581269 -0.4524309
000300 e2 cb 38 bf 8f ff 6c 3e 28 8f 81 3e 7d c2 d0 bd
       -0.721861 0.23144363 0.25304532 -0.10193346
000310 15 3f ce 3d 3a cb 6a be ca 9a 63 3d 70 74 3e be
       0.10070626 -0.22929087 0.05556754 -0.18599105
000320 36 3a 0f 3f ed 84 78 3e 4b b5 73 bd cc 3a 14 be
       0.559482 0.24269457 -0.059499066 -0.14475554
000330 fd e0 56 bd 6a 23 77 3e b1 d5 18 3e f2 c8 52 3b
       -0.05246066 0.24134603 0.14925267 0.003216323
000340 1a 4b a8 be b4 53 10 3d 6f cc 2f 3f fc c3 ae 3e
       -0.32869798 0.035236076 0.68671316 0.341339
000350 1b 67 af 3e 27 14 b7 bd 07 2e 5b be 67 50 eb 3e
       0.3425835 -0.08939391 -0.21404277 0.4595978
000360 41 36 ab be 4a c1 36 be 39 c3 76 3c cd 6e c2 be
       -0.3343983 -0.17847171 0.015061193 -0.3797516
000370 07 5b 5f 3d ae 93 97 be 16 d5 8f bd cb cd 58 bd
       0.05453017 -0.29604858 -0.07023065 -0.052930634
000380 84 21 91 be 30 58 0b 3e 85 80 57 be 54 3b d2 3d
       -0.28345883 0.1360786 -0.2104512 0.10265222
000390 5e 65 7a 3e 93 b2 39 be d2 ca 14 be dc a8 42 bf
       0.24452731 -0.18134527 -0.14530495 -0.7603891
0003a0 41 31 25 bf 80 b7 67 3d 23 47 f8 3d 98 83 a4 3e
       -0.6452828 0.056571484 0.12122943 0.32131648
0003b0 3b 1b 13 be ba c8 34 3e 13 f4 78 be 8d cc a9 3e
       -0.14365856 0.17654696 -0.24311857 0.33163872
0003c0 fe 39 7f 3e 1e 4c b4 3e fa 6d 0f 3e 5e b8 ac 3d
       0.24924466 0.35214323 0.14006796 0.08433603
0003d0 b2 55 2e bf 52 a8 9b 3c 2c bb 17 3d 50 39 07 be
       -0.6809951 0.01900116 0.037043735 -0.13205457
0003e0 fc c3 ed 3e 73 91 45 3e 5d 45 6c bd b4 d7 80 be
       0.46438587 0.19293766 -0.057683337 -0.25164568
0003f0 48 20 b1 3d 6a 73 9a 3e 08 4e 2d 3e 9a 83 b9 3e
       0.08648735 0.3016618 0.16924298 0.36233217

fc_decode.bias f4 [16]
000000 bd 2e 06 bf cc 62 1a be 60 64 04 3d b5 0a 38 3f
       -0.52415067 -0.1507675 0.032322288 0.7189134
000010 62 62 8e 3e c1 9b 3c bf df 8a 80 bf a9 20 30 be
       0.27809435 -0.7367516 -1.004238 -0.17199959
000020 cc f7 06 3f 83 93 b3 be 3a 6a 97 be c3 9f 5e bf
       0.5272186 -0.3507348 -0.29573232 -0.8696253
000030 f7 e3 5a bf 31 60 f8 3e 3d 52 af be 59 a6 3d 3f
       -0.85504097 0.48510888 -0.3424243 0.7408195
