saved_models_2D/VAE_patch_folds/CVAE2D_32_1.0_fold_5.pth (torch, 181150 bytes, 41 tensors)

conv1.weight f4 [8, 1, 3, 3]
00000000: 1eba 0c3e 92a4 1fbe 080d 973e 5719 3dbf
00000010: 0105 a8be 5d5b 123f 3b59 2fbf 3d44 75be
00000020: 0891 28bf 276b 603e 833d 1b3f da8f 873f
00000030: abb3 3bbe 482b 57bc 7ae2 d6bd 3169 28bd
00000040: f900 8bbe 0e24 36be 1f54 5ebe b701 45bf
00000050: dbd6 263e b35f 8b3e 038e febe a693 7abe
00000060: fc49 5d3f cdb3 4dbe 374e 88be f18d 413f
00000070: 7b97 27be e990 e53e 33d0 a0bc 5f46 61be
00000080: 675b 05be ce8c 043f 3de7 ce3e e39d 99be
00000090: d8be 31be 59eb 863e 3ff5 1f3e 37d0 21be
000000a0: 511d c8be e378 30bf f43e 6cbd 8e92 89be
000000b0: 8185 b43c 2f3a c1be 4503 adbe df62 a83d
000000c0: 45fa c3be 60ce 79bd d956 f53e 0041 cbbe
000000d0: 0ab1 e33e 9f5b d03e f30e 2a3e 5595 96be
000000e0: ada0 48bf fb5a 9e3d 981e 03be 1430 003f
000000f0: 8bfb 05bf be48 04be 050f 04bd 8f9e c43e
00000100: 5e2e 61be 2b8d 85be 2851 a73e bf9d dbbe
00000110: 49ca 3ebc 8097 213e 45c6 2f3c 6b33 b93f
0.13742873 -0.15590122 0.2950213 -0.7386679 -0.32816318 0.5717066 -0.6849553 -0.23951812
-0.658463 0.21915875 0.60640734 1.0590775 -0.18330257 -0.013132878 -0.10492416 -0.041115943
-0.2714918 -0.17787191 -0.21711777 -0.7695574 0.16292898 0.2722145 -0.4971772 -0.24470386
0.86441016 -0.2008812 -0.26622173 0.7560721 -0.16366379 0.4483712 -0.019630527 -0.219995
-0.13023148 0.5177735 0.40410796 -0.3000327 -0.17357957 0.2635143 0.15620898 -0.15802084
-0.39084867 -0.6893446 -0.057677224 -0.26869625 0.022036316 -0.37739703 -0.33791557 0.08221983
-0.38276878 -0.06098783 0.47917822 -0.3969803 0.44471008 0.406949 0.16607265 -0.29410806
-0.7837017 0.07732197 -0.1280464 0.5007336 -0.5233695 -0.12918374 -0.032240886 0.3840222
-0.21990344 -0.26084265 0.32679105 -0.42893788 -0.011644908 0.15780449 0.0107284235 1.4468817

conv1.bias f4 [8]
00000000: 1d53 7abd a5d4 133e ea09 f6bd bd2b ebbc
00000010: 0f1a c1bd 0ef3 943d 4664 01be 7fd4 adbe
-0.06111442 0.14436586 -0.1201361 -0.02870738 -0.094287984 0.072729215 -0.12635908 -0.33951184

conv2.weight f4 [16, 8, 3, 3]
00000000: 1e24 133d a3ec 1e3d 4e85 d03c 702d 88bc
00000010: bf14 823e 1734 ad3d 1e87 4cbc 01e8 593e
00000020: 5d08 48be ea3b 74be 6bf3 c03d e7f9 6abc
00000030: 0eef bdbc b84e 0d3c 152b 103e 2a46 ce3d
00000040: a562 153e 982b a2bb 2f6b 9a3e 9a32 e23e
00000050: 965f 8d3e 10d6 f73a dc13 cb3c adbe 713e
00000060: 6058 ab3d c9c7 45bc 0c5a eb3d e452 f9be
00000070: cfdd 09bf efa8 5cbe 231f 8cbe fb3a 64be
00000080: cf43 5cbe 0482 703d ac54 55be 9564 afbe
00000090: 7756 d43e 730b 913e 98d8 293e 0992 43bc
000000a0: 58d6 92bd 00cd b53e e961 08be 1e6b 223e
000000b0: ecbb 063e 3799 033e fdbb 22bd 0f95 84be
000000c0: 5ea1 a63d 3ae2 8c3d 73c0 98be 1058 173b
000000d0: 40a2 653d 255b 80be e7cb 803e f0df 853d
000000e0: 08fd 39be 847a 29bb a193 60be 9cfb 29be
000000f0: f510 cd3d 8617 b33c 5f87 19be 1ae7 f4bc
00000100: 4403 3d3e f7d5 60bc 61bb c7bd 7158 063c
00000110: 742a 16be a9a3 65be 3403 053e 0e5c 30bd
00000120: 1374 0a3e 219c debd 28db 22be 8fd7 8cbd
00000130: e2aa 96be 0982 253e 96a8 aabd 5640 d33d
00000140: 651d b83e 46b0 423d f382 cdbe 824e 25be
00000150: e382 dd3d 5394 42be b92f 433d 70be 6fbe
00000160: 6228 4cbd e734 4a3e 277f 563d cc04 e9bb
00000170: 89cc a0bd 9119 2dbc 8e59 f8bd 24f4 a6bd
00000180: dd96 fe3c 976a 03be 0fa0 c1bd c809 843e
00000190: bf6e 30bd 23af f7be d961 4abd fe9f f6bd
000001a0: 6e02 3d3c ae1d 03be d73f 1abe e434 8cbe
000001b0: 952f 8bbc 037b 4d3e 67f0 2b3d 3fa3 a5bd
000001c0: 0500 493d 1d35 84bd d3dd a8be 9268 aebe
000001d0: df0e 5dbd b6e0 79bd ba8b 9bbc c6b9 193d
000001e0: d095 30be 714d 15be 962b 963e ddda 17bd
000001f0: f827 02be 27fe c5be 6f0b e73c fc5c 21bd
00000200: b62c 223d 1c31 bb3b 160b 86be 1d54 61be
00000210: a7f5 7f3d 8e95 0d3d 88c8 7bbe 9256 cb3e
00000220: 2e90 aa3e 6760 893e ed24 0b3e 4fa7 ab3d
00000230: 7c39 263f 7065 323e 94b4 2b3e a661 1e3f
00000240: d9ca 27bd 1066 26bc bcdf 56be e98e 6ebd
00000250: 96a5 c33b 051b e7bc 0513 a33d 2e62 a0bd
00000260: 1c74 dbbe 8c52 143f 077c a73d ebbd 7cbd
00000270: e305 303e d706 58be 5076 d6be e269 cdbc
00000280: 447f 01be 3e15 75be edea d7bc 8033 5fbe
00000290: 61e8 38be 1f85 a73e e066 08bd 658a 59bd
000002a0: 5111 a83e be2b 4b3d c7a5 8f3d c01b a0bd
000002b0: d614 813e 43f1 5abe 1175 55be b9de 0a3e
000002c0: b6b9 533d f63a aabe 4226 3abd d069 db3d
000002d0: da1e e4bb 8f12 b0be 82bf a7bd 8fcf bf3d
000002e0: bd8a c6bc 48e0 cbbd 1d42 863e ebff 8bbd
000002f0: 4def 99be 7007 c43e 4df1 653d 5250 c3be
00000300: 52f1 62bd 51cd 96bd a7d0 2dbe 2a49 823e
00000310: 6ea9 aa3d cb86 d1be 277b 00be 98e4 8abe
00000320: 97c6 293e b0e4 4dbd 2898 39be 642b b6bd
00000330: ce4d 21be 916a 59be 0766 febe 6c97 9cbe
00000340: 61aa 153d 001f b6bd f9e0 2a3d 4e6e 573d
00000350: 1fc2 ebbd 91cd 453e b67a ee3e 9f37 983e
00000360: c084 623e e689 0fbe ab24 88be d1fd f4bc
00000370: 34f4 b43d cd9d b3be 70c5 fc3e a60b e53d
00000380: ad38 a03b ab59 843c d90d 04be 2fee 5bbd
00000390: f9dc 90bd cd1e d5bd c7d1 e03d a617 c9bd
000003a0: d61c b7bd fd2b 87be 4548 42bd ecdf 383e
000003b0: 85c3 2fbe 67d9 553e f31e 103e 9ef0 3ebe
000003c0: a083 11bd 10ec 6abe 7f2d 3cbf 4b24 443e
000003d0: 094b 7a3d 2a2d 493e 7e1b 383d d8cd 34be
000003e0: fd3e c3be 9df3 39be bcfd f7bd 83d4 a8be
000003f0: 741b f8bd 22eb 0ebe c15f aa3e 07ab 353e
0.035923116 0.038799893 0.02545419 -0.016623229 0.25406453 0.08457201 -0.012483386 0.21279909
-0.1953444 -0.2385098 0.09421428 -0.014341808 -0.02318528 0.008624725 0.14078934 0.100719765
0.14588411 -0.0049490444 0.301599 0.4417923 0.2761199 0.00189084 0.024789743 0.23607893
0.083664656 -0.012071558 0.114917845 -0.48696053 -0.5385408 -0.21548818 -0.27367505 -0.22288124
-0.21510242 0.058717743 -0.20833081 -0.34256425 0.41472217 0.28329048 0.1658653 -0.011936673
-0.07169789 0.35507965 -0.133186 0.15861174 0.13157624 0.12851416 -0.03973006 -0.25894973
0.08136247 0.06879087 -0.29834327 0.002309326 0.056062937 -0.25069538 0.25155565 0.06536853
-0.1816293 -0.0025860379 -0.21931316 -0.16599888 0.10013 0.021861803 -0.14993046 -0.029895354
0.18458277 -0.013722888 -0.097525366 0.008199797 -0.14664632 -0.22425713 0.12989503 -0.04305654
0.13520841 -0.10869623 -0.15903914 -0.06877052 -0.29427248 0.16162886 -0.083329365 0.103150055
0.35959926 0.04753139 -0.4013897 -0.1614323 0.1081598 -0.19001894 0.047652934 -0.2341249
-0.0498432 0.19746743 0.052367356 -0.0071111675 -0.07851512 -0.010565178 -0.12126456 -0.08152035
0.031077797 -0.1283363 -0.09454357 0.25788713 -0.043074366 -0.48375806 -0.04940972 -0.12042235
0.011536224 -0.1280429 -0.15063415 -0.27384102 -0.016990462 0.20066456 0.041977312 -0.08087777
0.049072284 -0.06455443 -0.32981738 -0.34064156 -0.05396926 -0.061005317 -0.018987525 0.037530683
-0.17244649 -0.14580323 0.29330128 -0.03707396 -0.1271056 -0.38670465 0.028203694 -0.039395317
0.03959342 0.0057126414 -0.26180333 -0.22004743 0.06249013 0.034566455 -0.24588215 0.39714485
0.33313125 0.26831362 0.13588305 0.08381521 0.64931464 0.17421508 0.16768104 0.6186775
-0.040964935 -0.0101561695 -0.20983785 -0.05824176 0.005970667 -0.028211126 0.07962612 -0.07831226
-0.42862022 0.57938457 0.08177953 -0.061704557 0.17189746 -0.21096359 -0.4188714 -0.025074903
-0.12646204 -0.23933885 -0.026357139 -0.2179699 -0.18057396 0.3271875 -0.033301234 -0.0531105
0.3282571 0.049602263 0.070140414 -0.07817793 0.2521121 -0.21381097 -0.20845439 0.13561524
0.05169078 -0.3324811 -0.04544664 0.107135415 -0.0069616856 -0.3438916 -0.08190824 0.093657605
-0.024236077 -0.09954888 0.26222315 -0.06835922 -0.30065385 0.38286924 0.056138325 -0.38147217
-0.055405922 -0.0736338 -0.16974126 0.25446445 0.083330974 -0.4092315 -0.12546979 -0.27127528
0.16579662 -0.05026692 -0.18124449 -0.08894995 -0.15752336 -0.21232058 -0.49687216 -0.30584276
0.03653944 -0.088926315 0.041718457 0.05259543 -0.11511635 0.19316699 0.46577996 0.29729936
0.22120953 -0.14017448 -0.26590475 -0.029906185 0.088356405 -0.3508133 0.49369383 0.111838624
0.004889569 0.016156038 -0.12895907 -0.053693946 -0.07073397 -0.104062654 0.10977512 -0.09818964
-0.08941047 -0.26400748 -0.047432203 0.1805417 -0.17164429 0.20883714 0.14074306 -0.18646476
-0.035525918 -0.22941613 -0.7350692 0.1915447 0.061106715 0.19646135 0.044948094 -0.17656648
-0.38133994 -0.18159337 -0.12108943 -0.32974634 -0.12114611 -0.13956884 0.3327618 0.17741023

conv2.bias f4 [16]
00000000: 8393 9cbc a485 fcbc 2d0d 07be e820 95bc
00000010: 7cb8 5cbd 4926 093d 52ad 20be 5be2 97bd
00000020: 97f0 c13d 18a4 f73d 93c0 0abe 427f 42be
00000030: d316 08bb 0d14 c8bd 995b a0bd 54f8 71bd
-0.019113308 -0.030825444 -0.1318862 -0.018204167 -0.053886876 0.033483777 -0.15691116 -0.07416221
0.09469717 0.12091845 -0.13550024 -0.18993858 -0.0020765557 -0.097694494 -0.07829971 -0.059074715

conv3.weight f4 [24, 16, 3, 3]
00000000: aa0e 09be 63f2 00bd c493 763e 6661 0fbe
00000010: 0c4b 773e 8bd7 f13d 0ccd 92bd 9e5e 07be
00000020: 31cd a93c c9e4 163e 95f2 873e 7eb3 f23d
00000030: caa4 c1bd 5ccf 4f3e 330d ae3e 3bab 88bd
00000040: 4c38 42bf a307 793e c156 783e 16f7 543e
00000050: 2d65 603d c437 53be 32d2 02bd ae3f 583c
00000060: 1bd1 4fbe a24f b3be d8d4 b93d 4d12 d0bd
00000070: 0245 82bd 8d6b 6d3d 3afc 95bd 4609 a93d
00000080: f3b9 8dbc 346e 31be 6151 ba3c d1c6 193e
00000090: a9d5 1b3e 9224 efbe 4538 22bf bc75 0b3f
000000a0: eb5c 40be ecf8 e6be fb74 1f3e 7486 23be
000000b0: 2beb 6ebd ba13 8fbd 5917 30be 4b90 b2be
000000c0: 11cc bebb c654 b2bd b3c7 ba3e 72d7 dfbd
000000d0: ae39 e2bd dabd b13d bc97 893b 4a70 173e
000000e0: 9c2b 0abe 762c 8fbe 7ec4 903d 1167 1bbe
000000f0: 2263 153d 1779 ae39 a2e6 1f3d 6165 5abd
00000100: 1ba0 11be b9ca 963e 36e9 bfbd cc4c cc3c
00000110: e7c4 763e 39a0 51be d750 c3bd 1a0e 463e
00000120: 558a 99bd 1927 343e ca3f 323e a608 fdbd
00000130: b952 143d 4714 e7bd c60e de3c ffa6 ae3d
00000140: 69bc 24bd 57c0 293e 8e95 59bd 97c4 86bd
00000150: 4118 b2ba c0fb ff3c 33eb 0bbe ffb4 1bbe
00000160: 8169 c83d 56e3 a6bd f180 8b3e 3576 8dbd
00000170: 887a 263e 69ce f7bc feee 1f3e 2c63 ac3b
00000180: 1174 b13e c6ee 78bd a1d2 58be bf18 79be
00000190: 8a4e 20be 3739 873d fc9d ff3d 36d4 0cbe
000001a0: 1258 623d 8c78 5e3d 5b0e c53d 0172 a43d
000001b0: b4b4 f9bd cc5e 3cbe 87ca c73e ad9a 78be
000001c0: 7396 36bd c1d6 b33c 794f 72bd bd52 aebe
000001d0: d614 85be 85e7 dcbd ec2d 203d b479 89be
000001e0: 7be9 0a3e 1b5e 21be 5926 9ebe 42ad 98be
000001f0: 443d 44be 9467 9f3e 1387 98be 4f0d 37be
00000200: 4d47 90be ceb7 0c3e b1ea 85bd 1943 20be
00000210: d907 6d3e 17b8 003e 4aeb 37bd 6636 25be
00000220: d00d a4be 4ac6 31bf cf3b f4bd 66d8 76bd
00000230: 5fed babe 2414 e33b 0d82 f1bd 3014 7a3d
00000240: fa1a cbbe c68d cb3c 42de 20be d9c6 7abd
00000250: b85b acbd 6be7 c8bd 5cc1 7c3e d23a 8a3e
00000260: ef76 023e ac8f 3b3e 708c bc3e 3657 653e
00000270: b8e4 ccbc 2958 aa3d d799 6b3d ba7f fdbe
00000280: 75a4 8c3d bf70 6e3e ef4e 83bd a01a 8fbd
00000290: e035 c2be b550 69bc 1da2 f73d 3ae4 0abe
000002a0: 1b28 673e 2d0c 8c3e bc6b be3d 6614 9e3d
000002b0: 4f76 583d a4c8 b03e 233e 5fbd b7e1 8a3e
000002c0: ef32 143e 48fc 71bd 57cc ba3e 9309 bb3d
000002d0: 288a 243d 1e6d 2abe 4573 5f3e 0a81 9ebe
000002e0: 0338 7bbd 878a a43c 928d b2bd e954 5e3d
000002f0: 5db3 5f3e 52c6 98bc 2156 a83d 939c fb3d
00000300: 0333 953c 271e b13e 5140 333e 919e 4fbc
00000310: 6067 8b3c ace2 783e b892 bf3d 31a3 c9bd
00000320: 0b89 90bc ff07 42bd 285a 243e 6f12 48bd
00000330: 8b4e f03d 28d5 3ebe 64ec 8dbe 8cc1 4f3e
00000340: 2761 f7bc 1b80 a3be e39f 263d 9f59 acbd
00000350: 8365 abbe 4475 7a3e 84ba 8fbd d324 dd3e
00000360: 40de c93c ada1 a53d 5b52 353e a821 e1bd
00000370: ffa5 463c b394 383e 011a d63b e10e debc
00000380: 6703 fa39 cfb4 053b 4692 0b3d 30ee 863e
00000390: 27cf 2a3e a958 6f3e b089 253e dc06 abbe
000003a0: 474c 0cbb 83da efbe 951d 293d 3086 973e
000003b0: db78 fcbd f813 123d a803 443a 13fd 78bc
000003c0: f4e6 aebe 8413 eebd 8c6f b23e ce97 c3be
000003d0: 0cc8 dfbd 9f57 143e c202 973c 2d21 943c
000003e0: 1c2b 2a3e f412 1ebd cfdd d43d e160 793e
000003f0: 4209 573e 24d3 be3d d4c5 a9bd cb53 943b
-0.133845 -0.031481158 0.24079806 -0.14001998 0.24149722 0.1180869 -0.07168016 -0.13219687
0.020727726 0.14735712 0.26552263 0.11850642 -0.09455259 0.20293945 0.33994445 -0.066732846
-0.7586715 0.2431932 0.24251844 0.20797381 0.05478399 -0.20626742 -0.03193874 0.013198776
-0.20294611 -0.35021693 0.090738 -0.101597406 -0.063608184 0.057963897 -0.07323499 0.08253722
-0.017300582 -0.17327195 0.022743883 0.15017249 0.15218224 -0.46707588 -0.6336711 0.54476523
-0.18785445 -0.45111787 0.15571968 -0.15969259 -0.058329742 -0.069861844 -0.17196406 -0.34875712
-0.0058226665 -0.087075755 0.36480483 -0.10929765 -0.11046158 0.086787894 0.0041989964 0.14788929
-0.13493198 -0.27963609 0.07068728 -0.15176035 0.036471494 0.00033278085 0.039038308 -0.05331934
-0.14221232 0.2945154 -0.09370653 0.024938963 0.2409855 -0.20471276 -0.09536903 0.19341317
-0.07497088 0.1759304 0.17407146 -0.12355165 0.036211703 -0.112831645 0.027106654 0.08527946
-0.040218744 0.16577278 -0.053121142 -0.06580465 -0.001358755 0.031247973 -0.1366394 -0.15205763
0.09785748 -0.0814883 0.27246812 -0.06907312 0.1625768 -0.030249791 0.15618512 0.0052608456
0.34658864 -0.060774587 -0.21174099 -0.24325846 -0.1565496 0.0660271 0.12481305 -0.13752827
0.05525977 0.05431418 0.09621879 0.08029557 -0.121926695 -0.18395537 0.39021704 -0.24277754
-0.044577073 0.021952989 -0.059157822 -0.340475 -0.2599246 -0.10786346 0.039106295 -0.26850665
0.13565628 -0.15758555 -0.30888632 -0.29819685 -0.19163996 0.3113371 -0.29790553 -0.1787617
-0.28179398 0.13741991 -0.065389045 -0.15650596 0.23147525 0.12570225 -0.044902124 -0.16134033
-0.32041788 -0.6944319 -0.1192547 -0.060264967 -0.36509225 0.006929891 -0.11792383 0.06105441
-0.3966902 0.024847876 -0.15709785 -0.061224792 -0.084159315 -0.098097645 0.24683136 0.26998
0.12740682 0.18316525 0.36825895 0.2239655 -0.025011405 0.083175965 0.05751976 -0.4951151
0.06867305 0.23285197 -0.0641154 -0.069875 -0.37931728 -0.014240433 0.120914675 -0.13563624
0.22573893 0.2735304 0.092978925 0.077187344 0.052847203 0.34528077 -0.054502618 0.27125332
0.14472555 -0.059078485 0.36484024 0.091326855 0.04017082 -0.16643187 0.21821316 -0.30957824
-0.061332714 0.020085586 -0.08718409 0.054280195 0.21845765 -0.018649254 0.08219553 0.122857235
0.0182128 0.34593317 0.17505004 -0.0126720825 0.017017066 0.24305218 0.09354156 -0.098455794
-0.017643472 -0.047370907 0.16050017 -0.048845705 0.11733731 -0.18636 -0.27719414 0.20288676
-0.030197693 -0.31933674 0.040679824 -0.08415531 -0.33475885 0.24458796 -0.07017997 0.43192157
0.02464211 0.08087478 0.17707197 -0.109927475 0.0121245375 0.18025474 0.0065338616 -0.027106704
0.0004768625 0.002040196 0.034075044 0.26353598 0.16680585 0.23373665 0.16165805 -0.3340367
-0.002140777 -0.468464 0.041287977 0.29594564 -0.12327739 0.035663575 0.00074773515 -0.015197056
-0.34160578 -0.11624816 0.3485073 -0.38201755 -0.10926828 0.1448655 0.018433932 0.018082226
0.16618007 -0.038592294 0.10393869 0.24353363 0.20999625 0.09317616 -0.08289686 0.0045265905

conv3.bias f4 [24]
00000000: 3925 833b 8b69 f23d 5b87 1ebd 72bb 1f3c
00000010: f45a 0b3d 7412 ec3c 0e1b c83c 39a1 993d
00000020: b27e c6bd 0e1a c5bd 78b5 e63d 283e fe3c
00000030: 4d06 76bd 369c 293d 98b4 8dbb 5d08 ef3d
00000040: 7423 c4bd 780d a93d ab56 533a 042f a2bd
00000050: 7c97 abbd 7e73 72bd da9c 6fbd ac22 7bbd
0.00400224 0.11836537 -0.038703304 0.00974928 0.034022287 0.028817393 0.024426963 0.07501454
-0.09692134 -0.0962411 0.11265081 0.031035498 -0.060064603 0.04140874 -0.004324507 0.11671517
-0.09577075 0.08254522 0.0008061926 -0.07919124 -0.08378503 -0.059192173 -0.058499195 -0.061312363

conv4_mu.weight f4 [32, 24, 4, 4]
00000000: a81c b4be fe02 cb39 5359 4c3e d2dd 6d3d
00000010: 73ed e83d 4eb8 16bd 1582 8dbd 8b8b a83d
00000020: 2bac 19be aebe 2c3d 9be6 493d e9ba 74bd
00000030: 3ed5 00be 3622 aabd f064 39bd 19f0 6c3d
00000040: c5c0 803d 1226 4abe 84bc 963c 7b5c c7ba
00000050: 9d41 0cbe 77ed 8c3b 3da9 4bbe 6d3a a3be
00000060: 6a38 fcbd 980c 873d 53de f93c 27ec 6cb9
00000070: 0b4c 843e 406f 5dbd 9046 4abd d037 d5bc
00000080: cacb 61be f4ba 453e aff8 043d 00c4 823d
00000090: ae73 823e afa0 c0bc 56f0 073d fb85 933d
000000a0: 4f5c 8dbe b4d9 193e 5a12 d53d 43aa 98bd
000000b0: 1f20 ea3d 4adc 4dbe a6e1 07be c9d0 8abd
000000c0: 0d1c 2f3e 1543 313d 0c75 bf3d 9956 72bd
000000d0: fa74 86bc f3a7 14be 6ba2 6f3d 203e 8abc
000000e0: 235c d73d bc2c 903d 91d4 e2bd 76fa a13b
000000f0: 7e9f 0a3d 9e69 c33d f010 d1bd 35ef 94bd
00000100: 3b18 d53d 9af0 bfbd af3f 10bd 85c3 6fbd
00000110: 877e a33e b497 a3bc f636 56bd e409 36be
00000120: a16c 6c3e bfd5 dbbd f450 a2bd 3371 3dbd
00000130: 5f09 fe3d 84ff 83bd 82f3 1a3d 505f 463e
00000140: 8712 12be d615 c1bd a924 babd f5b9 013d
00000150: c63d a9be 05f5 bfbd 4149 b4b9 e7bf bbbc
00000160: 58d4 6cbd afdd ce3d 51bd 5f3e f927 0d3d
00000170: 6daf 1ebd e258 313d ddb6 a9bb 9b92 9fba
00000180: ff71 2fbe 1f57 22bf c1f3 b63d ebfa 8c3d
00000190: 48dd e03d ad2b 8cbd ce1b 2d3d 3038 513d
000001a0: e077 0dbe d739 50be 20f3 543d a89c 403e
000001b0: 3795 f7bd 7f45 67be 9101 b0bd 8ae6 24be
000001c0: 1d4a 243e ca4a 40be 041f 05be c2b9 14be
000001d0: a7f7 bbb7 5645 78be 12b5 863e bd4f a1bc
000001e0: bf63 6d3e 8334 a83e 102e b0bc 7ec4 203e
000001f0: c66d cd3d 4d00 533e cfdb 013d bd94 91bd
00000200: e240 c1be c543 16be a912 89bc 4f70 963d
00000210: 8f8c 43be 3646 7fbd 890c 033e b262 ad3c
00000220: fb49 fbbd 4543 35be bef4 a23b 9273 9d3c
00000230: bc77 5bbc 4021 dcbd 8a34 c23b f36a 96bd
00000240: 5420 79be 36df 143e ca48 6dbc 11cf f13d
00000250: e319 9dbe c313 7a3e 2025 89be c1b1 043e
00000260: 8439 32bf 938f 663e 0545 1ebe e4e3 8a3d
00000270: c181 82bc 55fe 9ebd 5670 5c3e 5394 45bc
00000280: 155c 63be 5bc1 fa3d bf92 403c 3ba4 123e
00000290: ee53 3abf 1e90 dc3d 7208 883c 633c 18bc
000002a0: de13 13be 6109 ce3d dcde d43d 8bfb 803d
000002b0: b74b dcbd 480a 7a3e 3dbc 513e 4e52 783d
000002c0: 6c93 1cbe 5cd1 273e 7de6 07bb 8361 95bd
000002d0: afc1 32bd 24f5 143e 95e2 38bd 40cb 55bb
000002e0: f3d8 a83d 6c65 a53d 214c 1ebd 0e0e eabc
000002f0: 6517 1c3d 7c64 e13d ab93 313d c134 f1bd
00000300: 0c55 183d 7a53 183d 1dd5 363d e61c 40be
00000310: 86bc c4bc 4a6c acbd 242d b93d f8e3 00be
00000320: 67ec 2abe 69ab 4cbe 1a03 6cbc 03f3 3bbd
00000330: dae2 1e3d 6649 08be c073 1cbd 111b 59bd
00000340: 1882 23bc 9756 c63c 6dbd abbd 3c98 563e
00000350: a774 613e bc81 de3e e627 9c3e 031a ebbd
00000360: a3d8 69be 5459 b23e aada e93c 1751 0bbe
00000370: 610e 91bd 5960 a9bd 615c 33bd c9d1 173d
00000380: 7142 323e f16a d0bc fff7 10bc a885 163d
00000390: 03ee 143e 6cc8 023b 103d 063e 0c94 4ebe
000003a0: 2302 413e 41bd 8e3d 5096 123d d266 a7bd
000003b0: dff9 9f3d ea8c 153d ee34 d8bd fb57 13bd
000003c0: 0b33 2fbd cbc8 b4bd af84 99bd cf8e bd3d
000003d0: 147e 32be 3275 16be 2b44 973d 1d77 86bd
000003e0: 215a f7bd 6bcc 7c3d 8f2c 9d3d 75be 97bc
000003f0: fc9e 0f3e d9dc 2ebe ca54 d13b 6693 673c
-0.35178113 0.00038721407 0.1995595 0.058072872 0.11373415 -0.03679686 -0.06909577 0.08229741
-0.15007083 0.042174034 0.04929219 -0.059748564 -0.12581345 -0.083073065 -0.045262277 0.057846162
0.06286768 -0.19741085 0.018400438 -0.0015210056 -0.13696904 0.004300769 -0.19888778 -0.31880513
-0.12315448 0.06594199 0.03050152 -0.00022594687 0.25839266 -0.054061174 -0.0493837 -0.02602759
-0.22050396 0.19309598 0.032463726 0.0638504 0.25478882 -0.02351412 0.033188187 0.07203289
-0.27609488 0.15024453 0.10403891 -0.0745435 0.11431908 -0.20103565 -0.13269672 -0.06778104
0.17100544 0.043276865 0.09348497 -0.059164617 -0.0164132 -0.14517193 0.058504503 -0.016875327
0.105156206 0.070397824 -0.110757 0.0049431873 0.03384351 0.09541629 -0.10208309 -0.072721876
0.10405012 -0.09372063 -0.035216983 -0.05853607 0.3193247 -0.019969799 -0.05229851 -0.1777721
0.23088314 -0.10734128 -0.07925597 -0.046250533 0.12404131 -0.0644522 0.037829883 0.19372296
-0.1426488 -0.09427993 -0.090890236 0.031671483 -0.33054942 -0.09372906 -0.00034386854 -0.022918655
-0.057819694 0.101008765 0.21849562 0.03446195 -0.038741518 0.043297656 -0.0051792697 -0.0012174429
-0.1713333 -0.63414186 0.08933211 0.06883796 0.10979706 -0.06844268 0.042262845 0.051078975
-0.1381526 -0.20334564 0.051989675 0.1880976 -0.12089007 -0.22585104 -0.08594049 -0.16103569
0.16043897 -0.1877853 -0.13000113 -0.14523986 -2.240746e-05 -0.242452 0.2631002 -0.019691342
0.23182581 0.32852563 -0.02150634 0.15699956 0.10030703 0.20605583 0.031703766 -0.07108448
-0.37744814 -0.1467429 -0.01673253 0.0734564 -0.19096588 -0.062322818 0.1279775 0.021165226
-0.1226997 -0.17701443 0.004973023 0.019220147 -0.013395246 -0.107485294 0.0059266733 -0.07344618
-0.24328738 0.14538273 -0.014482686 0.11807073 -0.30683812 0.24421601 -0.26786137 0.12958433
-0.6961901 0.22515707 -0.15456016 0.06781748 -0.015931012 -0.07763354 0.21527228 -0.012059289
-0.22203095 0.12243911 0.011753737 0.14320461 -0.72784317 0.10769676 0.01660559 -0.009291741
-0.14363047 0.10060383 0.103940696 0.06297978 -0.10756629 0.24417984 0.20481963 0.060625367
-0.15290612 0.16388458 -0.0020736747 -0.072939895 -0.043641742 0.14546639 -0.04513796 -0.0032622367
0.08244505 0.08075985 -0.03864682 -0.028571155 0.03810825 0.11005494 0.043353718 -0.1177764
0.037190482 0.037188984 0.044636834 -0.18761024 -0.024015676 -0.08419092 0.09041813 -0.12586963
-0.16691743 -0.19987263 -0.014405036 -0.04588605 0.03879056 -0.1330925 -0.038196325 -0.05300433
-0.009979747 0.024211211 -0.083857395 0.2095651 0.22017156 0.43458354 0.3049919 -0.11479571
-0.22836547 0.34833777 0.02854665 -0.13605152 -0.07082821 -0.0827033 -0.04378927 0.0370653
0.17408158 -0.025441619 -0.008848189 0.03674856 0.1454392 0.0019955887 0.13109231 -0.20173663
0.18848471 0.06969691 0.03578788 -0.08173908 0.07811331 0.03651134 -0.105569705 -0.035972577
-0.042773288 -0.08827361 -0.074960105 0.09255754 -0.17430907 -0.14693144 0.07386049 -0.06565688
-0.120777376 0.061718386 0.076745145 -0.018523434 0.14025491 -0.17076434 0.0063882815 0.014134264

conv4_mu.bias f4 [32]
00000000: 2f6c af3d 8b0e 36bf 9415 063d 658a cc3c
00000010: c06a 34ba 2a72 48bf eb90 43bf 931a 0a3c
00000020: f22e d63d 7b10 5a3d 9c34 333d ba5e 70bf
00000030: 39d8 5cbf 1459 73bf bcbb e73c 009d d73c
00000040: 2e0c 8dbc ae35 6fbf 82e5 77bf 4d85 613d
00000050: b3d4 363c a5e8 82bf f737 63bf 623b 69bf
00000060: f3b8 44bf d4d1 d43d 8246 9d3d c7e4 dd3c
00000070: 1314 3b3d 0243 f53c c5b3 68bf dda1 6dbf
0.08565556 -0.7111594 0.032735422 0.024968335 -0.0006882362 -0.782992 -0.76393 0.008429187
0.10458173 0.053238373 0.043751344 -0.9389454 -0.8626743 -0.950578 0.02828776 0.02631998
-0.017217722 -0.93441284 -0.96834576 0.055058766 0.01115911 -1.0227247 -0.8875727 -0.91106236
-0.7684471 0.10391584 0.07679464 0.027086629 0.04567344 0.029939178 -0.90899307 -0.9282511

conv4_var.weight f4 [32, 24, 4, 4]
00000000: 4c9e cf3a 0cd8 a83a d572 253b 2936 6cb8
00000010: 322a 4eba 33fe 62b9 c4a2 af39 e4fb 063a
00000020: 7401 603a 4dfa 87b9 e949 f5b8 ea9a 0cb9
00000030: 235e 76ba 6f8f b739 44cf e938 bdbd 60ba
00000040: a66c 1f3b 9fb7 913a 8a44 e53a bf8e 493a
00000050: 00ba 1a3a 6112 3cb8 46c5 d939 5881 573a
00000060: e1e0 863a b358 9ab8 4937 feb7 a4b0 213a
00000070: 1e4d 923a 15a4 543a 998e 9d38 a08b 0838
00000080: 34e9 d73a 9eee 4ab8 2211 3dba 2755 80ba
00000090: 0a22 c2ba 8294 06ba 63ff dab9 93c0 bdba
000000a0: d5fc 763a a8e4 dd39 84e7 c5b7 61aa 04b9
000000b0: ac06 e2b9 d7bb aeb8 e6c9 b139 4cd5 efb9
000000c0: 75ad 3fbb 2a04 a2bb f248 c2ba 6d38 68ba
000000d0: 2411 8aba 72d3 3139 e74d 9bb8 ac47 fa39
000000e0: e732 683a f230 0aba dec4 eab8 c161 7039
000000f0: 9aec 4db9 50cc 1f39 884b 4ab8 b7c6 9939
00000100: 2598 6f39 cdc5 95ba 7f89 8aba 49cb d9ba
00000110: 100d b03a 22db a739 68f6 db39 88f8 68ba
00000120: 3004 4fba 33e4 83b9 9b6c 95b9 e283 4eb8
00000130: cdc4 5cb8 18f4 b5b9 a5dd e739 0b71 abb8
00000140: 0c73 d73b 7917 43ba 2969 b137 afa5 93ba
00000150: 42fd 34ba 3fee 49ba 2572 d9b9 7858 95ba
00000160: d1aa 773a a93b 2f3a 59f6 e339 272d 7eba
00000170: 7b93 723a 6770 f139 3b84 a3b8 6f21 e5b9
00000180: f4d0 913b 1ff0 60b6 b5f6 b3ba 918a 1abb
00000190: 3907 dfba 24cc 29b8 efc4 27ba 20c5 8cba
000001a0: 8fcb 833a cbd0 6239 f309 f5b8 35ce 41ba
000001b0: 0303 3d3b 3b5c f538 855a c0b9 b786 0ab6
000001c0: 7a2f d8ba 7978 97b7 cfb5 bc39 bd63 a53a
000001d0: ec7d b6ba 617b da38 fc96 ce39 7497 e8b9
000001e0: b0a8 9fb9 1679 a3b7 8e15 0b39 cc15 aa37
000001f0: dc95 cab9 0a63 08b9 eb31 b338 e1a9 11b9
00000200: c494 073c a99f 6e3b 04e9 f83a b7b4 803a
00000210: 98fc 85ba eca9 253a d608 0c39 c01a bbba
00000220: 601b 2bb9 f35c f639 32ea 6739 ce9e b339
00000230: 800a 623a 4a78 30b9 192f 00ba 2c6d 99b9
00000240: 51ab f23b 9e1f 17bb b967 80ba 13ee 8db8
00000250: f5fb f7b7 3924 f0b6 8832 fdb9 81a5 3b3a
00000260: c84f b637 3c95 81b8 9f24 16b9 dc42 b4b8
00000270: 32af 8a39 ea36 be39 2afe 4939 46a2 0d3a
00000280: c457 59bb d571 4a3a 6749 3f3a 0040 93b9
00000290: 7396 e6ba 7a00 0fba f3bb 94b9 7d40 bcb9
000002a0: b8ca e1b9 f6ac 4737 f573 deb9 78a9 98b9
000002b0: 087a 95ba e186 7a39 fd3e 5db8 24e3 9ab9
000002c0: 0e6b 0abc d6d2 ad3b 66c9 553b 5954 2f3b
000002d0: ee85 413b 4e49 5c3a 682d de39 f91c 3e3a
000002e0: b2c6 bab9 a7bb 9439 b4ac 83b9 cd1e aeb8
000002f0: 14ab c53a 3bf4 3eba 8c8f f4b6 c478 9439
00000300: 15d7 a63b f8a5 60ba 6985 a739 790f a5ba
00000310: e780 0fb7 3fd5 d639 c919 b239 2292 e1b9
00000320: 3886 c9b9 c701 64b9 3195 8537 3682 46ba
00000330: 9d2d 0739 10b4 d239 85a7 0439 e042 bab9
00000340: 4023 443c 2918 6c3b 0ef7 ac3a 2adf 3f3a
00000350: ce55 4f39 8313 a0b9 695d 2eb9 884b abb9
00000360: fbb3 093a 0af8 cb39 6bb4 8439 b0c7 d8b9
00000370: d24b 703a f77a 9539 e24d 3339 732c 1e3a
00000380: 96fc babb 4949 5dba df6a 7dba 0825 a9b9
00000390: 76c0 ff3a fa22 213a 2967 f5b7 c79d 063a
000003a0: 5f3a 2bba ce4e 4ab9 4e61 81b9 e429 123a
000003b0: d435 beba 4b6b 9cb8 43a5 3ab9 b706 16ba
000003c0: 24de f33b ec94 b8b9 6017 efb8 dd79 8c3a
000003d0: 6bdc 913a 9e6c 8eba c57e dfb9 5e53 87ba
000003e0: 0e8e 8339 906a 78b8 9282 f039 88c0 e738
000003f0: a7b1 cf3a 92a2 f2b9 c50e 27ba 4af3 87b8
0.0015840023 0.001288177 0.0025245447 -5.6317225e-05 -0.0007864564 -0.00021647736 0.0003349987 0.0005149229
0.00085451384 -0.00025935695 -0.00011696277 -0.0001340915 -0.0009398183 0.00035011346 0.00011148912 -0.0008573195
0.0024326234 0.0011117345 0.001749174 0.00076888123 0.000590235 -4.483981e-05 0.00041536445 0.0008220873
0.0010290408 -7.359814e-05 -3.0304904e-05 0.0006167984 0.0011161899 0.00081116083 7.512904e-05 3.2554963e-05
0.0016472698 -4.8382783e-05 -0.0007212331 -0.0009791002 -0.001481117 -0.0005133824 -0.00041770478 -0.0014476947
0.000942183 0.00042322767 -2.3592038e-05 -0.00012651972 -0.0004311105 -8.3319545e-05 0.00033910497 -0.0004574455
-0.0029247676 -0.004944344 -0.0014822765 -0.0008858506 -0.0010533673 0.00016958805 -7.4054864e-05 0.00047737116
0.00088576827 -0.00052715756 -0.00011194659 0.000229246 -0.00019638464 0.00015239534 -4.8230897e-05 0.00029330488
0.00022849494 -0.0011426747 -0.0010569541 -0.001661637 0.0013431627 0.0003201599 0.00041954522 -0.00088871317
-0.00078970473 -0.0002515629 -0.00028500412 -4.9237053e-05 -5.2635372e-05 -0.00034704874 0.00044224891 -8.174971e-05
0.006574994 -0.00074421574 2.1149013e-05 -0.0011264588 -0.00069041934 -0.0007703043 -0.0004147451 -0.0011394164
0.0009447756 0.000668461 0.00043480357 -0.0009696059 0.00092535437 0.00046050848 -7.7970755e-05 -0.00043703194
0.004449958 -3.351837e-06 -0.0013730141 -0.0023581127 -0.0017015702 -4.048286e-05 -0.000639989 -0.00107399
0.0010055172 0.00021630821 -0.000116843636 -0.0007393093 0.0028840906 0.0001169969 -0.00036688536 -2.0642017e-06
-0.0016493641 -1.8056702e-05 0.00035993612 0.0012618225 -0.0013923026 0.00010418031 0.00039403874 -0.0004436333
-0.00030452525 -1.94875e-05 0.00013264103 2.027573e-05 -0.00038640096 -0.00013006866 8.544683e-05 -0.00013891562
0.008275215 0.0036411083 0.0018990343 0.0009819482 -0.0010222374 0.0006319571 0.00013354732 -0.001427494
-0.00016318029 0.0004699003 0.00022117121 0.0003425986 0.00086227804 -0.00016829479 -0.00048898306 -0.00029263773
0.0074056764 -0.0023059617 -0.0009796537 -6.767749e-05 -2.9562021e-05 -7.1567742e-06 -0.0004829357 0.0007158146
2.1733242e-05 -6.1789964e-05 -0.00014318757 -8.5955224e-05 0.00026451942 0.00036280538 0.00019263537 0.0005402904
-0.0033163885 0.0007722651 0.00072970096 -0.0002808571 -0.0017592445 -0.0005455088 -0.00028368793 -0.00035906202
-0.00043066381 1.1901595e-05 -0.00042429534 -0.00029117963 -0.0011404166 0.00023892104 -5.274917e-05 -0.00029542402
-0.008448375 0.0053046746 0.0032621264 0.0026753156 0.0029529291 0.0008403257 0.0004237697 0.0007252242
-0.00035624724 0.00028368572 -0.0002511494 -8.302704e-05 0.0015080892 -0.0007284318 -7.2884777e-06 0.00028318737
0.0050915577 -0.0008569653 0.0003195212 -0.0012593112 -8.553477e-06 0.00040976141 0.00033970017 -0.00043024222
-0.00038437708 -0.00021744437 1.5924308e-05 -0.00075725035 0.00012891596 0.00040188478 0.00012650907 -0.0003552651
0.011971295 0.0036025143 0.0013196187 0.0007319326 0.00019773023 -0.00030532115 -0.00016628731 -0.00032671937
0.00052529544 0.0003890398 0.00025311424 -0.0004134751 0.00091665715 0.0002851111 0.00017099784 0.0006033845
-0.00570638 -0.00084414013 -0.0009667109 -0.00032261782 0.0019512314 0.00061468745 -2.9254314e-05 0.0005135205
-0.00065318303 -0.00019293578 -0.00024677295 0.00055757 -0.0014511892 -7.4586445e-05 -0.00017799907 -0.00057230465
0.0074422527 -0.0003520617 -0.00011400762 0.001071747 0.0011128312 -0.0010866111 -0.00042628325 -0.0010324528
0.00025092106 -5.922705e-05 0.0004587365 0.000110508 0.0015845791 -0.0004627896 -0.0006372745 -6.482618e-05

conv4_var.bias f4 [32]
00000000: db47 3dbf 7ec1 21bf c6ca 3abf c057 3abf
00000010: 2dba 3bbf c711 26bf 20d9 9cba e4d1 3abf
00000020: d0b2 3dbf 7b6b 3abf cd80 36bf 282e 34bf
00000030: c0b6 34bf 4515 33bf 5e74 3dbf 1167 37bf
00000040: 7b6c 10bf 44ee 3abf 5698 50bf e8cf 3dbf
00000050: 8e90 3bbf eb3e 2dbf dbcb f0be 2d12 34bf
00000060: bc3f 2fbf df25 37bf 9c3c 36bf b680 36bf
00000070: 175b 3cbf 43cc 3bbf eb58 34bf a4f5 35bf
-0.7393777 -0.6318587 -0.7296566 -0.72790146 -0.73330957 -0.64870876 -0.0011966564 -0.7297652
-0.7410097 -0.7282025 -0.71290284 -0.7038293 -0.70591354 -0.6995433 -0.7400569 -0.7164164
-0.5641553 -0.73019814 -0.81482446 -0.74145365 -0.7326745 -0.6767413 -0.4703053 -0.70340234
-0.68456626 -0.7154216 -0.7118623 -0.7129015 -0.7357649 -0.73358554 -0.7044818 -0.7107794

bn1.weight f4 [8]
00000000: 4b31 773f 61fb 523f 3f1c 673f ba8b 623f
00000010: f614 733f 720c 6b3f c315 943f 0ef5 663f
0.9655959 0.82414824 0.90277475 0.88494456 0.9495386 0.91815865 1.1569141 0.90217674

bn1.bias f4 [8]
00000000: ce8f 393d b8ec 853e aefb 303e 2699 80bd
00000010: 24ea 223e 8cba b33e 8e94 91bc 80f2 1abd
0.04530316 0.26157165 0.17283508 -0.06279211 0.1590963 0.3510326 -0.017771032 -0.037828922

bn1.running_mean f4 [8]
00000000: 0f07 47bf 5971 0e3f 7118 00bf eb6e eb3e
00000010: 60a0 1fbf 0b87 b43c 1bfe 0fbf 0be5 3e3e
-0.77745146 0.55641705 -0.50037295 0.4598306 -0.6235409 0.02203705 -0.5624711 0.1864206

bn1.running_var f4 [8]
00000000: 7780 303f a0ab b13e a973 8d3e a885 973e
00000010: a7c6 a13e ea97 273e 73df 5c3e 5320 c53e
0.6894602 0.34701252 0.27627304 0.2959416 0.31596872 0.16366544 0.21569614 0.38501224

bn2.weight f4 [16]
00000000: d1c5 8e3f 4a21 843f 9f43 533f b5ed 703f
00000010: 6909 763f 6583 6c3f b6b5 623f 42fa 833f
00000020: d322 803f b4d1 5d3f 9507 723f 0306 783f
00000030: d9a5 6b3f 09a4 833f 8ba6 7b3f 29d0 8f3f
1.1154119 1.0322659 0.82525057 0.9411271 0.9610811 0.9238799 0.8855852 1.0310748
1.0010628 0.86648107 0.9454282 0.96884173 0.9204994 1.0284435 0.98301 1.12354

bn2.bias f4 [16]
00000000: 9a7c 883c d3e2 87be 89e5 0ebe 8f38 31bd
00000010: 87b4 fcbd 9314 913d d503 17be f0ac bbbd
00000020: 4446 1ebd 8a1b 403d 9d80 6ebd 3b77 2d3d
00000030: 3682 2bbe 6e22 813d 1359 83be 29e8 f03d
0.016660977 -0.2654024 -0.13954748 -0.04326683 -0.1233912 0.07084002 -0.14747556 -0.091638446
-0.03864123 0.046901263 -0.058228124 0.042350035 -0.1674889 0.06305395 -0.25653896 0.11763031

bn2.running_mean f4 [16]
00000000: f042 133e 22b1 0cbf 4ccb 83bf 5ea3 30bf
00000010: 8b66 21bf ddd9 a1bf ba06 a43f 30e4 e3be
00000020: 6c1f 963f b2c5 31bf 322d c73e 0942 0b3b
00000030: 9f83 debf b956 133f 705b 0cbf a394 c43e
0.14381003 -0.54957783 -1.0296416 -0.6899928 -0.63047093 -1.2644612 1.2814553 -0.4451003
1.1728339 -0.69442284 0.3890167 0.0021249077 -1.7383918 0.57554203 -0.5482702 0.3839465

bn2.running_var f4 [16]
00000000: 166b 5340 d711 d23f 34a9 bd3f 3315 e63f
00000010: 9116 903f ccba 0440 d685 ea3f f9ac 9240
00000020: 6234 0d40 b14c 0b40 76ff 6740 9f50 8040
00000030: f974 6840 8a4c 1740 4612 ce3f 8019 2040
3.303411 1.6411694 1.4817262 1.797522 1.1256887 2.0739012 1.8322093 4.583615
2.2063222 2.1765559 3.624967 4.0098414 3.6321394 2.3640466 1.6099327 2.5015564

bn3.weight f4 [24]
00000000: be37 353f 7c4f 263f 3c17 3e3f cd09 2d3f
00000010: 4107 343f 6174 473f 0276 2f3f 5d81 2f3f
00000020: 968b 3f3f e3bc 4b3f 5d7c 383f 2940 413f
00000030: c85c 503f 0460 623f aefc 403f 5d5f 463f
00000040: 899c 5b3f d33f 673f 771a 553f a2dc 393f
00000050: ddcc 443f 0ffd 313f 2652 503f 6cfd 393f
0.7078818 0.64965034 0.742542 0.6759308 0.7032357 0.77911955 0.6853944 0.6855677
0.74822366 0.79585093 0.72064763 0.75488526 0.8139157 0.8842776 0.7538556 0.7748926
0.8578573 0.90331763 0.8324351 0.72602284 0.76875097 0.6952676 0.8137535 0.72652316

bn3.bias f4 [24]
00000000: 95cd b8be 8bea 00bf 5ed5 efbe f905 95be
00000010: 96f5 bbbe 0219 dbbe 76a7 b0be be60 a4be
00000020: 47f0 b7be ec7a 0cbf 2913 aebe 4b35 c4be
00000030: 314f e3be 6a47 f0be 41d8 b7be f256 a9be
00000040: 48a3 b7be 89e6 eebe 9e9a dabe 3e49 06bf
00000050: 6a4f d9be 14a9 77be 72f4 e9be 30d8 bcbe
-0.36094347 -0.50357884 -0.46842474 -0.2910612 -0.36710805 -0.42792517 -0.34502763 -0.32105058
-0.35925505 -0.54875064 -0.33998993 -0.3832191 -0.44396356 -0.46929485 -0.35907176 -0.33074147
-0.3586676 -0.4666026 -0.4269609 -0.5245551 -0.424434 -0.24185592 -0.4569431 -0.36883688

bn3.running_mean f4 [24]
00000000: 796e 68bf d56f 6c3f a73c 0fc0 347d 68bf
00000010: c595 30bf a41f 3abf d2ff 153f b362 afbf
00000020: 0f0e 69bf 2e86 87bf b2bd a3be e054 e8bf
00000030: e863 6bbf bcbb 3fbf 63e3 5dbf b568 b8bd
00000040: 31f9 1fc0 0acb e1be faad 3abf b6a3 43be
00000050: 3238 b73d 71ff e4bf 0f7c 8ebf dbce bbbe
-0.9079357 0.9235814 -2.238077 -0.90816045 -0.6897853 -0.7270453 0.58593476 -1.3701996
-0.91037077 -1.0587823 -0.31980664 -1.8150902 -0.9194932 -0.74895835 -0.8667509 -0.09004346
-2.4995844 -0.4410022 -0.7292172 -0.1910542 0.08946265 -1.7890455 -1.113161 -0.36681256

bn3.running_var f4 [24]
00000000: 19e0 8340 6a49 f73f 3bc9 7d40 dfcb 7140
00000010: 6429 7b40 ea17 7b40 47ca 3e40 ab92 8440
00000020: 6389 8940 991d 6340 2c57 9740 a434 9140
00000030: 8994 7240 f223 7840 d64a f440 cf8f 6a40
00000040: 5a8a cb40 4030 cd40 3e77 ea40 2092 0d40
00000050: 7f8a c940 34c7 cd40 fabc 5a40 3445 2440
4.1211057 1.9319279 3.9654071 3.7780683 3.9244013 3.9233346 2.981096 4.142904
4.298021 3.5486815 4.729391 4.537676 3.7903159 3.877194 7.6341352 3.6650274
6.3606386 6.41214 7.327056 2.2120438 6.2981563 6.430567 3.4177842 2.5667238

deconv1.weight f4 [32, 24, 3, 3]
00000000: eceb d5bd 551e a03c 2f36 0cbc 32fa 96bd
00000010: e8a6 b6bd 3c69 9fbd 9a7e 4d3c 19a0 883d
00000020: b281 96bd 804c 033f 676f cbbb 0273 1c3d
00000030: 58fd b9bd d685 0b3d 951d 40bc a20b 40be
00000040: 965a ecbb e84c ab3b dac7 c5bc c244 1e3d
00000050: 5075 a8bc 82b4 64bd ffd2 273c 24e8 e9bc
00000060: de24 a1bd 13bf 61bd cd80 32bc 3d18 0ebd
00000070: 7343 afbb acc8 c7bd f7f0 07bd b9a4 7ebd
00000080: ca9e 2fbc 8396 98bd 739e 40bd ca4e 86bd
00000090: 2e31 18bd e8bc 253d 64b1 be3c fdf1 20bd
000000a0: 4241 b2bd 3ce2 3f3c e01b 18be a440 40bd
000000b0: 369a e4bd 5dc0 95bd cd05 283d 322f d33d
000000c0: ff1e d03d 5156 c1bc 6e59 0a3d 2966 203d
000000d0: c51f 12bc bbe8 8abd 58cb c6bd 17cf c23d
000000e0: 7c81 fc3d fd23 7bbd 54c9 07bd 3fb3 563c
000000f0: f38f 61be 5603 c93c b357 2fbd 2c52 1e3e
00000100: 0c74 b1bc 0f1c 84bd 526b 003e 588f 883d
00000110: 1ef6 863d 13ff 0abe 3b0e 2a3e 20e3 f23c
00000120: 3b4e e73d b3da 06be d907 9fbc ea56 a53d
00000130: b0a6 1abd da71 35bc 8965 0a3e 0f78 b5bc
00000140: 7a1c 8fbd 83b2 62bd a7c3 743c bfd3 03bd
00000150: 653d f4bd e967 793c 6276 8e3d 7c9f 3bbc
00000160: e259 7d3e 2b8f d8bc 0c5c 383d f004 f3bb
00000170: dee4 c3bd b7a9 e2bc e342 2a3d 40a9 e23c
00000180: c8ea f33e f4ea 503c 7d88 babd e6dd adbd
00000190: b709 b2bd 524a cf3e b14f e5bd ae73 11bd
000001a0: 3a24 713d de63 44bd 5640 b0bd ff5f 3b3b
000001b0: d75c 2c3f 03c8 da3d 16d8 fcbd 31d3 a03e
000001c0: 9685 8ebd b3f1 45bc 5501 87bd 021d b9ba
000001d0: 90a7 4fbd cc41 8fbd 87b5 cf3d 95c2 183c
000001e0: 1fd7 5fbd a113 703d 3cdf e43c 820a e9bd
000001f0: b7aa 85bc d5e8 9bbd a43a 0f3e efe9 953b
00000200: 2d63 a3bc 4ce6 eabd 18f2 6d3d 1293 f33d
00000210: 8a70 b3bd 8d1d 8bbd 21b0 813e daaa 953c
00000220: cb20 02bd 8df3 27bd 52a4 633e 64f2 b83e
00000230: 6144 b53d e29b 343f a027 9ebc 8b97 84bd
00000240: 1190 293f df5b 4d3e 6e71 733d bea1 473e
00000250: 56a8 993c 8a00 babd 1450 9bbd 09b6 823d
00000260: d724 bebc b287 0bbe f02c d33e a052 a2bd
00000270: 46d4 6dbd 0cd4 b93d 9b86 8fbc 4787 88bd
00000280: d9d1 6fbd 0548 853d f14e 28bd e7c2 6ebd
00000290: 2813 ecbd e193 e5bc 2516 803e 9361 4f3d
000002a0: e01d 203e ee5b c43d 01d3 f3bc 7332 c1bd
000002b0: 660a ac3c fb7c debd 68f0 093e 795f 473c
000002c0: f8f7 b43b f969 453e 8540 4cbd 8264 7b3d
000002d0: 6c93 f3bb a565 843d d4d2 97bd 7afd 95bd
000002e0: 0341 c3bc cb43 ad3d 1095 9ebd 00d5 783b
000002f0: 598a 493d cef3 6abd b9d8 153d e992 e8b6
00000300: f531 73bd af6d 953d 520d 03be 329c ecbd
00000310: 0f45 91bc 0a07 acbc 7c86 0fbd bd04 17be
00000320: 28f5 76bc 39e7 7ebd 2c5f 70bd 7156 ab3b
00000330: 6719 2f3d 80ed e63e e74b 9b3d e05d 36be
00000340: e949 d63c 39e7 6b3d cfcd 02be dc57 253d
00000350: 466f a3bb 0901 f7bc 21aa 843e 7058 633c
00000360: 2a30 41bb 65b3 193c 0d22 70ba 313b 4b3b
00000370: e62e 273c 2db0 e739 fde5 7abb e92f 413c
00000380: f6ec 4f3b 5864 a5b9 af15 9bbc 0516 203b
00000390: 3a5b d9bb 39de 2cbc b4ea 80ba 5be0 90bb
000003a0: ca07 c4ba e43e 1b3b e3b6 6ebc 418f 753a
000003b0: e7f1 8fbb c7d1 abbb 2929 b2bb 3dd3 42bc
000003c0: ad90 87bb bfdc 0bbc aa58 00bb 9476 3c3b
000003d0: a509 6aba 3e5a 8cbb dece 5e3b 6d8a 5a3a
000003e0: 567f 18bb 7cd7 9bbb 03d9 98bb 1bd5 c7b9
000003f0: dd14 47ba bd42 f3bb 0311 6e3b 8e29 58bc
-0.10445389 0.019545713 -0.00855784 -0.0737194 -0.089185536 -0.07783744 0.012542391 0.06671161
-0.07348956 0.51288605 -0.0062083486 0.038195617 -0.090815246 0.034063183 -0.011725803 -0.18754438
-0.007212947 0.005227674 -0.024143148 0.03863979 -0.020563751 -0.05583621 0.0102431765 -0.028553076
-0.0786836 -0.055113863 -0.010894966 -0.034691084 -0.0053486167 -0.09755072 -0.033188786 -0.06216881
-0.010719011 -0.07450583 -0.04702611 -0.065579966 -0.037156276 0.04046336 0.023277946 -0.039293278
-0.08703853 0.011711653 -0.14854383 -0.046936646 -0.11162226 -0.07312081 0.041021157 0.10311736
0.10162162 -0.02360073 0.033776693 0.039159928 -0.008918707 -0.06782671 -0.097067535 0.095121555
0.12329385 -0.061313618 -0.033150986 0.013104259 -0.22027569 0.024537724 -0.042808246 0.15461034
-0.02166178 -0.06450664 0.1254094 0.06667966 0.06589912 -0.13573866 0.16606991 0.029649317
0.11294218 -0.13169365 -0.019412922 0.08073218 -0.03775662 -0.011074508 0.13515295 -0.022151975
-0.06987853 -0.055346023 0.014939225 -0.03218436 -0.119257726 0.015222528 0.069561735 -0.011451598
0.24741319 -0.026435455 0.045009658 -0.00741636 -0.09565137 -0.027668817 0.041567694 0.027668595
0.4764006 0.01275133 -0.09108064 -0.084895894 -0.08693259 0.4048639 -0.111968406 -0.03551071
0.05887244 -0.047946803 -0.08606021 0.0028591154 0.6732916 0.106826805 -0.123459026 0.31411126
-0.06959073 -0.012081551 -0.06592051 -0.0014123025 -0.05069691 -0.06994972 0.101420455 0.009323736
-0.054648515 0.05861247 0.027938478 -0.11378957 -0.016316755 -0.076127686 0.13987213 0.004575006
-0.019944752 -0.11469707 0.058092207 0.11893286 -0.087616995 -0.06792746 0.25329688 0.018269945
-0.031769555 -0.041003752 0.22230652 0.3612243 0.08850933 0.7055036 -0.019306004 -0.06474217
0.6623545 0.20054577 0.059434347 0.19495293 0.018757027 -0.09082134 -0.07583633 0.06382377
-0.023210926 -0.13625982 0.41245222 -0.07925916 -0.058063768 0.09073648 -0.01752024 -0.06666427
-0.058549736 0.06507877 -0.04109091 -0.058291342 -0.11527091 -0.028024616 0.25016895 0.050630163
0.15636396 0.09587847 -0.0297637 -0.094334505 0.021001052 -0.10863682 0.13470614 0.012168759
0.0055227242 0.19278707 -0.049866218 0.06137515 -0.0074333455 0.064647 -0.07413259 -0.073237374
-0.023834711 0.08460196 -0.07743275 0.0037968755 0.049204204 -0.057361417 0.036583636 -6.9312414e-06
-0.059373815 0.07296311 -0.1279805 -0.115532294 -0.017733125 -0.02099945 -0.035040364 -0.14747901
-0.015073098 -0.06223223 -0.058684513 0.0052288105 0.042748835 0.45103073 0.075828366 -0.17809248
0.02615829 0.057593558 -0.12773822 0.040366992 -0.00498763 -0.03015186 0.25911048 0.013876066
-0.002947817 0.00938115 -0.00091603474 0.0031010623 0.010204053 0.00044191015 -0.0038284056 0.011791208
0.0031726933 -0.00031546014 -0.018931238 0.0024427187 -0.0066331895 -0.010551029 -0.0009835572 -0.0044212765
-0.0014955935 0.0023688609 -0.014569971 0.0009367355 -0.0043928507 -0.0052435133 -0.0054370356 -0.011891183
-0.0041371197 -0.008536517 -0.0019584098 0.0028757202 -0.0008927829 -0.0042832186 0.0033997814 0.0008336667
-0.0023269258 -0.0047559123 -0.0046645417 -0.00038115014 -0.00075943564 -0.0074237273 0.0036326058 -0.013193501

deconv1.bias f4 [24]
00000000: 629b 81bd 8223 20bc 6256 d23d 6e12 87bc
00000010: b142 98bb c224 29be f0f7 0abe dfbe 713d
00000020: b60d ce3d 151a 4b3d 7acd 243e d2d7 2b3e
00000030: 0214 403d 7222 54bd 1935 dbbd 62bd 69bd
00000040: 4349 eb3c e50b a0bd ab1a f2bc e90e ba3c
00000050: ae32 b7bd 63a5 023e 3a61 93bd e725 583d
-0.06328465 -0.009774091 0.102703825 -0.01648828 -0.004646622 -0.16517928 -0.13571143 0.05901992
0.10061209 0.04958542 0.16094008 0.16781548 0.04689408 -0.051790662 -0.10703487 -0.057065375
0.028721457 -0.07814769 -0.029553732 0.022712188 -0.08945213 0.12758403 -0.07196279 0.05277052

deconv2.weight f4 [24, 16, 3, 3]
00000000: 605a 28bd b24c 13be b2c3 11bc ea4d 80be
00000010: 27f5 e73a df66 5fbe b11b dfbd 0347 e6bc
00000020: e81c 5bbe 0aed 9cbe 3f0c 43be 1ea0 06be
00000030: 25f5 c33e 55d4 f2bd 0b34 a6bd 3f2d dabc
00000040: 195a 313d e963 363e b412 c33d 47db bebb
00000050: 5403 e43d 32fa e3bd 44d8 4bbd 3a8e 033c
00000060: 9a79 2ebe 45f5 0cbe 4bdb 443e 6073 cd39
00000070: 31ba acbd 17f5 4f3e 9aab ec3d f277 04be
00000080: 4259 8f3d 188d f4bd 8b3b 2f3e aee6 e0be
00000090: 7af1 b9be ebec 313e 3ef3 9cbd 705f 573e
000000a0: 622c bfbd 9fb1 083e 718e 53bd 6d06 15be
000000b0: 3f4b 14bd 1732 513c 7957 363d a265 7cbe
000000c0: 9458 bbbc 5f16 fabd 1b6f 723c 3247 68bc
000000d0: c847 d8bc 5586 523d 8211 633e fcf6 2fbd
000000e0: b981 d33d 115e 283c 6f5a bb3d 39d0 2c3b
000000f0: 6110 983d 0240 0c3d 6af0 12be 6b3a 783d
00000100: 9d1c 02bc f433 3f3b ce94 ac3b 2c01 36ba
00000110: 015f 9c3d 3d18 13bc 7833 123e bc0d c53d
00000120: 6150 0b3e 96cc d0bd 6e89 1bbe 39e1 acbd
00000130: 1887 aabd 7d6f c33d 2aca a73d 618a b2bd
00000140: 7aeb 4cbd a2ec d4bd 61ee 143e d17d 143e
00000150: 413c 253e b5de 653c 3756 443e 6a03 703e
00000160: 5f44 813d fbfc 1c39 80a2 093e 74e6 73be
00000170: 8716 283e 17af 1fbe df97 53bd dec7 77bd
00000180: 2e07 063c fa2d 783d e9ce 863e 74aa a1bd
00000190: 189c 48be a3f0 27bd 4f88 32be d1cc b1bd
000001a0: 448b 983e e18f c23b 54bf d4bd cf8b e03d
000001b0: 12f3 c2bc 9ff2 7a3e 1059 ab3e 44ae 873c
000001c0: 3afb 9bbd f050 823d 6afd 673d 6cc8 86be
000001d0: 9ced ad3e b696 403e 758e a03d adeb 003e
000001e0: 7b37 8ebd 0dfb bebd 6ab7 6bbd 3a46 f63d
000001f0: 2720 1d3d 56e2 1d3e ecc3 5ebe e91c 973d
00000200: 0e03 a63d 779a f1bd b3b4 933c 5b74 363e
00000210: 7fc1 87bd d226 5bbc 93e5 263e a239 a93d
00000220: d22f 843d 39c8 f3bc 69fc a7be 35e4 da3d
00000230: f336 a8bc f2a7 09be 1da8 763e 0178 6dbe
00000240: 97b1 1cbe ea4e 093e 54f1 9cbe 8d5c 073e
00000250: 43ef f83d 3c64 31bc 31e3 f53d 13c8 893e
00000260: 4d25 0f3e a67e 55be e698 223d 35cf 1bbe
00000270: 6c44 e9bd 4f14 843d 89f5 f8bd 86d8 d6bd
00000280: f29e 173d fd96 eb3d c1ee 643d 6c8d 413c
00000290: 4fbf 45bb e250 29be f59d 28be 9a04 743d
000002a0: 7462 22be 8a24 883d 1202 0c3d d14c 703e
000002b0: afca 92be 49a2 c23d 5105 96be 7076 4c3c
000002c0: 48d0 14bd 1a61 76be a4bc 88be 678d 27be
000002d0: d25c 6cbd 9211 0abe 473e 993d 7fa0 a23d
000002e0: ccbb 63bd 2b8b ffbd 1cbc 3fbe 6b8e d8ba
000002f0: 0108 a13c f83c 65be 0a8c be3c 15ef 3fbe
00000300: b3a4 0f3e da81 28bd 42ff 403e 4672 c0be
00000310: 0155 423e ee3d 50be 5e13 51be 6c0c 4d3e
00000320: 05a9 103e 54c8 493e eb7f 86bd 6213 02bd
00000330: d14e 55be 0a5b c23d aa1b f0bc a37a 29bd
00000340: 0c7c 69be ad5c 1dbe ea1c e7bd 6b54 273e
00000350: 7055 cabd 193f d2bc b8a3 e93c fc69 9ebd
00000360: 9ced a0bc 77ac 1abe 9795 55be d376 973d
00000370: 9dd7 1cbe a350 0f3e 55aa 3bbe 98f5 96be
00000380: 1d8d 03be 294f 6fbd b8ba 9cbd c28d e63d
00000390: ac5f 8fbe 458f b5be 2971 a1bd 5c84 653d
000003a0: f368 02bd 2ce3 9f3e 18ad fb3b 050d 7ebd
000003b0: 33fc 8dbc 4691 a9bc 75f9 98bd 3f30 16be
000003c0: e84a f33d 77de 913d 93eb 77bd 9be2 1fbe
000003d0: 45f6 abbe c262 253e bd1c ca3c efd0 8bbc
000003e0: 5079 d53c e3a2 1fbd 11e8 45bd f2a9 98bd
000003f0: 197b a13e b538 d7bd ebfa 4dbe d5c9 5cbd
-0.041101813 -0.14384726 -0.008896755 -0.25059444 0.0017696962 -0.21816586 -0.108939536 -0.028110033
-0.21397746 -0.30649596 -0.1904764 -0.13147017 0.38272968 -0.11856905 -0.08115395 -0.026632903
0.043298814 0.1781155 0.09525052 -0.0058244797 0.11133447 -0.11131705 -0.049766794 0.008029515
-0.17038575 -0.13765438 0.19224279 0.00039186608 -0.08433951 0.20308338 0.11556168 -0.1293638
0.069994465 -0.11940974 0.17112558 -0.43925995 -0.36317044 0.17375533 -0.07663582 0.210325
-0.09334637 0.13349007 -0.051649515 -0.14553232 -0.036204573 0.01276829 0.044517014 -0.24648145
-0.022869386 -0.12211298 0.014796997 -0.014177131 -0.026401415 0.05139764 0.22174647 -0.042960152
0.10327477 0.010276333 0.09148108 0.0026369228 0.07424999 0.03424073 -0.14349523 0.060602587
-0.007941392 0.0029175254 0.0052667623 -0.00069429236 0.07635308 -0.008977947 0.14277446 0.0962176
0.13604881 -0.10195272 -0.15189144 -0.08441395 -0.08326548 0.09542749 0.081928566 -0.087178
-0.050029255 -0.103966966 0.1454406 0.1450112 0.16136266 0.014030148 0.19173513 0.23438802
0.06311869 0.00014971562 0.13440895 -0.2381838 0.16414843 -0.15594135 -0.051658507 -0.060493343
0.008180423 0.06059072 0.26329735 -0.078938395 -0.19590795 -0.041000973 -0.1743481 -0.08681644
0.2979375 0.005937562 -0.103880554 0.109641664 -0.023797546 0.24506615 0.33466387 0.016562589
-0.07616277 0.06363094 0.05663816 -0.26324785 0.33970344 0.18807492 0.078396715 0.12589903
-0.06944176 -0.09325228 -0.057547964 0.120251134 0.03836074 0.15418372 -0.21754426 0.07378561
0.081060514 -0.1179704 0.0180305 0.17817824 -0.06628703 -0.013375955 0.16298513 0.08262946
0.064544335 -0.02975856 -0.3280976 0.10688058 -0.020534014 -0.13442972 0.24087568 -0.23190309
-0.1530212 0.1340901 -0.3065287 0.13218899 0.121550106 -0.01082712 0.12006224 0.26910457
0.13979073 -0.20849094 0.039696597 -0.15215762 -0.113900036 0.06449186 -0.12156207 -0.10490517
0.037016816 0.11503408 0.055891756 0.011813503 -0.0030173843 -0.1653476 -0.16466506 0.0595747
-0.1585787 0.06647594 0.034181662 0.23466803 -0.2867026 0.0950361 -0.2930093 0.01247941
-0.036331445 -0.24060479 -0.2670642 -0.16362534 -0.057705708 -0.13483265 0.074825816 0.079407685
-0.05559902 -0.12477716 -0.18724102 -0.0016521936 0.019657137 -0.22386539 0.023260135 -0.18743546
0.14027672 -0.04113946 0.18847373 -0.37587184 0.18977739 -0.20336124 -0.20417544 0.2002427
0.14126976 0.19705325 -0.06567367 -0.031756766 -0.20830847 0.094900206 -0.029310066 -0.04137672
-0.22801226 -0.15367384 -0.11284812 0.16340797 -0.09879577 -0.025664853 0.02852045 -0.07735059
-0.019644551 -0.15104853 -0.20857845 0.07395711 -0.15316625 0.13995604 -0.18326695 -0.29484248
-0.12846799 -0.058425102 -0.07652801 0.11257507 -0.2800268 -0.35460868 -0.07882912 0.05603443
-0.03183837 0.31228006 0.0076805465 -0.062024135 -0.017332172 -0.020699155 -0.07469455 -0.14666842
0.118795216 0.0712251 -0.060527395 -0.15613787 -0.33586326 0.16150954 0.024671907 -0.0170674
0.026058823 -0.0389737 -0.04831702 -0.074542895 0.3153923 -0.10508863 -0.20115249 -0.05390342

deconv2.bias f4 [16]
00000000: 1164 3d3d 44aa 713d ff9d 1bbe 1825 85bd
00000010: 6e5f 323e 6ef2 763d 93ac ae3c 406f 2e3d
00000020: 3037 8e3d 2d8f 2fbe 7d82 533d d7b6 713d
00000030: 4d22 153e 9fa8 e03b 581d 11bd 6bfc 0dbe
0.04623801 0.05900027 -0.1519699 -0.06501216 0.17419216 0.060289793 0.021322524 0.042586565
0.0694412 -0.17144461 0.051638115 0.05901226 0.14563866 0.0068560387 -0.035428375 -0.13865821
