saved_models_2D/VAE_patch_folds/CVAE2D_3_5_fold_2.pth (torch, 41265 bytes, 49 tensors)

conv1.weight f4 [3, 1, 5, 5]
-0.14739153 0.17113999 -0.23653872 -0.17447758 0.3077311 0.48484933 -0.071949 0.18961403
-0.20498228 0.15906137 -0.03761655 -0.042127065 0.06436588 -0.35070303 0.18716702 0.13370271
-0.2044707 -0.13543794 0.27238837 0.10485722 -0.2668186 0.40829086 0.21283843 0.1144406
0.58080935 -0.45183554 -0.9324095 -0.07689557 0.2325929 -0.29158348 0.17845698 0.008478591
0.11408132 -0.48937473 -0.33951977 0.12372228 -0.21608111 -0.26060882 0.19891922 0.2932054
0.55414605 -0.26162353 -0.17249195 0.26914665 -0.20795552 -0.30064076 0.09303168 0.42792842
0.040164463 -0.071133316 0.37234357 0.026969941 -0.106642835 -0.19405411 0.06514677 0.06256913
0.1710028 -0.33774605 0.15751062 0.034670964 0.5082388 0.05573396 0.1263151 0.35346457
0.087559134 0.027381176 0.19245526 0.013409681 -0.34737426 0.41967368 0.12610114 -0.1398091
0.1893276 0.16056068 -0.098634906
00000000: ceed 16be 523f 2f3e 3537 72be 40aa 32be
00000010: ee8e 9d3e 2c3e f83e ff59 93bd 2e2a 423e
00000020: e0e6 51be fce0 223e d013 1abd 6e8d 2cbd
00000030: 42d2 833d 598f b3be b6a8 3f3e 5de9 083e
00000040: c460 51be 3eb0 0abe 7d76 8b3e 62bf d63d
00000050: 739c 88be 800b d13e 51f2 593e d55f ea3d
00000060: ecaf 143f fd56 e7be 64b2 6ebf 6d7b 9dbd
00000070: d52c 6e3e 6e4a 95be 6dbd 363e cae9 0a3c
00000080: 78a3 e93d 538f fabe 89d5 adbe 1b62 fd3d
00000090: 5e44 5dbe 856e 85be 7bb1 4b3e 051f 963e
000000a0: 84dc 0d3f 85f3 85be bba1 30be 97cd 893e
000000b0: 4bf2 54be 96ed 99be 6587 be3d 6f19 db3e
000000c0: 7e83 243d 58ae 91bd d1a3 be3e 11f0 dc3c
000000d0: 8f67 dabd 1fb6 46be ab6b 853d 3e24 803d
000000e0: 5c1b 2f3e 0ded acbe 774a 213e 2403 0e3d
000000f0: f01b 023f 4b49 643d bf58 013e 4ff9 b43e
00000100: 3452 b33d 7d4e e03c fe12 453e 47b4 5b3c
00000110: 0adb b1be 78df d63e a820 013e 1e2a 0fbe
00000120: 18df 413e 056a 243e 1901 cabd

conv1.bias f4 [3]
-0.0006278 0.0072832075 -0.0027725685
00000000: f292 24ba f9a7 ee3b fbb3 35bb

conv2.weight f4 [4, 3, 3, 3]
0.47508147 0.15006669 -0.3031817 0.18913281 0.13198909 0.4261608 0.050549045 -0.05340366
0.09456469 -0.36418885 0.0794285 0.04247685 -0.012562092 -0.117433116 -0.14139147 -0.18692374
-0.106374025 -0.1608206 -0.033379246 0.43918857 0.17418793 0.11515348 0.12110317 0.21409768
-0.42377424 -0.37324315 0.06629649 0.19595899 -0.16116185 -0.20510085 0.017944314 0.02035255
-0.062049195 -0.03682748 -0.22691688 -0.28074843 0.020668512 0.30955535 -0.098174214 0.29820234
0.090917565 0.58008313 -0.15382448 0.41545996 -0.007434127 -0.38200623 -0.25480682 0.1554336
-0.12097237 -0.15745255 -0.09328983 -0.5280006 0.10344258 -0.21084538 0.65388644 -0.12402364
-0.3932888 -0.32355994 -0.080276184 0.16206446 -0.23574118 -0.19327287 -0.16484164 -0.066645026
-0.27385825 0.41597825 0.047101703 -0.41792327 0.47741985 -0.1381533 -0.3396425 0.3538624
0.14011307 0.10670314 -0.17128304 -0.9376133 -0.017084455 0.10508132 -0.007326124 0.028045865
-0.02213387 -0.05534516 -0.13256526 -0.17518592 0.15094946 -0.5902884 0.44066694 0.15502839
-0.51168174 0.102922104 -0.27220932 0.44346908 -0.30629888 -0.043612193 -0.0976916 -0.14831883
-0.06893341 0.3322512 -0.051641267 -0.0023578433 0.043073397 0.10781561 -0.26940635 -0.0157863
-0.07640318 0.1371611 -0.032214645 -0.28505453
00000000: e13d f33e 15ab 193e a23a 9bbe 08ac 413e
00000010: 2628 073e c031 da3e 840c 4f3d ccbd 5abd
00000020: 22ab c13d f676 babe 69ab a23d 35fc 2d3d
00000030: 3cd1 4dbc c680 f0bd edc8 10be f068 3fbe
00000040: a0da d9bd 28ae 24be adb8 08bd 53dd e03e
00000050: 525e 323e 96d5 eb3d f004 f83d 6c3c 5b3e
00000060: f0f8 d8be ba19 bfbe 74c6 873d 79a9 483e
00000070: 9d07 25be f505 52be f4ff 923c 64ba a63c
00000080: 4c27 7ebd 69d8 16bd e65c 68be 42be 8fbe
00000090: 0351 a93c 0a7e 9e3e 900f c9bd faad 983e
000000a0: fd32 ba3d 5480 143f 2a84 1dbe 2bb7 d43e
000000b0: fa99 f3bb 5296 c3be 0a76 82be fc29 1f3e
000000c0: 5dc0 f7bd 3e3b 21be bd0e bfbd 0c2b 07bf
000000d0: b4d9 d33d dae7 57be 1a65 273f 1b00 febd
000000e0: 265d c9be a6a9 a5be d767 a4bd 3af4 253e
000000f0: 2366 71be 53e9 45be 3fcc 28be 307d 88bd
00000100: 2637 8cbe 1afb d43e b7ed 403d 0afa d5be
00000110: 6070 f43e 0f78 0dbe 9fe5 adbe 742d b53e
00000120: cd79 0f3e 2d87 da3d d264 2fbe 6d07 70bf
00000130: b3f4 8bbc e034 d73d fb0f f0bb 71c0 e53c
00000140: 1752 b5bc 9bb1 62bd 30bf 07be f063 33be
00000150: 7f92 1a3e 241d 17bf 199f e13e c3bf 1e3e
00000160: 93fd 02bf d3c8 d23d 055f 8bbe 610e e33e
00000170: 35d3 9cbe b3a2 32bd 8912 c8bd e4e0 17be
00000180: f62c 8dbd d41c aa3e cb85 53bd 0c86 1abb
00000190: bb6d 303d 6ece dc3d a1ef 89be 4552 81bc
000001a0: 4579 9cbd f673 0c3e 81f3 03bd abf2 91be

conv2.bias f4 [4]
0.0038240568 -0.014294135 0.0035805241 0.024674512
00000000: 079d 7a3b f331 6abc 3aa7 6a3b 3422 ca3c

conv3.weight f4 [12, 4, 3, 3]
0.1297721 -0.13914101 -0.18096301 0.14284153 -0.063189544 -0.16892412 -0.42555818 -0.026573997
-0.123262875 -0.021711461 -0.0041141296 0.086842686 -0.0752807 -0.020191045 0.07082935 0.20378293
-0.06479356 0.07984749 -0.03242073 0.30647475 0.44580352 0.2078254 0.042119868 0.10066709
0.42415866 0.12830749 0.14090754 -0.10199947 -0.004124525 -0.09310218 0.1902049 -0.33473045
-0.5175561 -0.72857046 -0.28044912 -0.084327236 0.18270425 -0.25944486 -0.1001791 -0.17874022
0.060079876 0.32283854 0.054206 0.03242624 -0.2838482 0.32799724 -0.05921688 0.17455265
0.17711815 0.06079365 0.36230084 0.25524694 0.032094695 0.03807263 0.050535783 0.09628852
0.19634773 0.12438291 0.010566457 -0.27470464 -0.23110208 0.4971626 -0.3602591 0.12082649
0.17410965 -0.18159333 -0.2332643 0.0064944057 -0.06019821 0.03138079 -0.18569334 0.19693342
0.10858426 -0.032321345 0.14009216 -0.28958687 0.055115346 -0.22108452 -0.0603225 0.4586524
0.45758805 -0.09321445 -0.06844245 -0.4054168 0.023036636 -0.07583167 -0.2393195 0.19096665
0.0075288345 -0.2632662 -0.1810839 -0.27239066 0.023847576 0.28178346 -0.13985603 -0.044811934
-0.1828039 0.018421061 -0.053698916 0.45614457 -0.13644916 -0.2992415 -0.20778601 -0.4229227
0.012999059 0.20324188 -0.051695205 -0.02498253 -0.03102312 -0.32747087 -0.5515067 -0.037072
0.19919156 0.1879705 -0.3131014 0.3623154 -0.37509117 -0.07241844 0.27671608 0.10818629
0.07301373 0.25028715 0.24323706 -0.292614 -0.28858286 0.08439434 -0.12382814 0.3402497
0.22517666 0.02388405 -0.12423355 0.15618838 0.41605532 0.10855713 -0.12876338 -0.19026825
0.056328285 -0.050650347 0.12203049 -0.047131494 -0.44105098 -0.06720411 0.33538392 0.4066243
-0.23823689 -0.2820319 -0.35159537 0.36143878 0.2612281 0.13206115 -0.24172539 -0.2663981
-0.6490651 -0.03762098 -0.17587017 -0.12876122 0.6236515 0.36000985 0.6503625 0.29556194
0.085226506 -0.042701736 -0.12525512 -0.22481333 0.107945405 0.18260574 0.09806579 0.13330413
0.33502895 -0.16252817 -0.11976584 0.18320486 0.023213666 0.31466672 0.28257647 -0.37346783
0.26527476 -0.049633555 0.36598396 0.0587947 0.008231564 0.027697066 0.12346448 0.3775395
-0.29226515 0.09211697 0.32899 -0.29623654 -0.34945354 0.23080389 0.32503322 -0.018078733
0.25179276 0.24790427 0.13189702 0.13939291 -0.12558238 0.15762992 -0.16151862 0.034204274
0.47214815 -0.072209105 0.00744156 -0.0059910147 -0.03459089 -0.1143976 0.1673183 0.16205755
-0.105260216 0.20193183 -0.14181978 -0.13142754 -0.14012489 0.288822 0.21817952 0.23457043
0.023710733 -0.115775034 -0.2757452 -0.36411658 -0.2538874 0.012779217 0.11802479 -0.021366226
0.4353657 -0.13150138 -0.12845871 0.63294935 0.4661055 -0.121511325 -0.37817103 -0.086019345
0.23405777 0.12884109 0.32687953 0.221265 0.09839123 0.038551845 -0.029670741 -0.0869946
0.22865215 0.2217039 0.19788602 -0.3464304 0.108061425 0.16822544 0.3058548 -0.096983515
-0.08151156 -0.46549806 0.19427943 0.01436572 0.041287698 -0.048461273 0.08606307 -0.022858832
00000000: fae2 043e fb7a 0ebe 5e4e 39be 0d45 123e
00000010: 8569 81bd 72fa 2cbe c3e2 d9be b6b1 d9bc
00000020: 3f71 fcbd 3cdc b1bc d2cf 86bb 94da b13d
00000030: c52c 9abd b167 a5bc fa0e 913d 79ac 503e
00000040: 7cb2 84bd 1587 a33d 99cb 04bd 42ea 9c3e
00000050: 5c40 e43e 2fd0 543e e285 2c3d 8c2a ce3d
00000060: 532b d93e 0a63 033e 114a 103e 19e5 d0bd
00000070: 0627 87bb 5bac bebd 13c5 423e ca61 abbe
00000080: 8e7e 04bf 9883 3abf 0797 8fbe c2b3 acbd
00000090: d316 3b3e f5d5 84be b32a cdbd ad07 37be
000000a0: 5116 763d 184b a53e 1c07 5e3d 61d1 043d
000000b0: 8d54 91be 41ef a73e 668d 72bd eebd 323e
000000c0: 765e 353e c302 793d 7f7f b93e baaf 823e
000000d0: ba75 033d 0cf2 1b3d 9cfe 4e3d ea32 c53d
000000e0: 610f 493e 78bc fe3d ef1e 2d3c 16a6 8cbe
000000f0: 06a6 6cbe 198c fe3e e173 b8be e173 f73d
00000100: cd49 323e 9af3 39be d6dc 6ebe 06cf d43b
00000110: 6692 76bd 2589 003d 6526 3ebe eaa8 493e
00000120: 6d61 de3d 6363 04bd 5274 0f3e bb44 94be
00000130: a1c0 613d fb63 62be ba14 77bd 7dd4 ea3e
00000140: fb48 ea3e 38e7 bebd 8e2b 8cbd ca92 cfbe
00000150: 54b7 bc3c a24d 9bbd 2c10 75be c38c 433e
00000160: 71b4 f63b d4ca 86be 0f6e 39be ca76 8bbe
00000170: fe5b c33c ec45 903e 6b36 0fbe b88c 37bd
00000180: f230 3bbe c4e7 963c 65f3 5bbd c88b e93e
00000190: 54b9 0bbe 2f36 99be dbc5 54be 5389 d8be
000001a0: 01fa 543c a41e 503e 5abe 53bd 2aa8 ccbc
000001b0: 3324 febc 43aa a7be 8b2f 0dbf cfd8 17bd
000001c0: dff8 4b3e 577b 403e d44e a0be 6781 b93e
000001d0: f30b c0be 1e50 94bd bbad 8d3e c690 dd3d
000001e0: 3988 953d a325 803e 2313 793e 81d1 95be
000001f0: 22c1 93be f1d6 ac3d 9c99 fdbd 3535 ae3e
00000200: b694 663e 7ca8 c33c 296e febd d9ef 1f3e
00000210: 3405 d53e 3353 de3d 8cda 03be aed5 42be
00000220: 7db8 663d bd76 4fbd 1feb f93d f40c 41bd
00000230: 6fd1 e1be 4fa2 89bd 71b7 ab3e 0f31 d03e
00000240: 5ff4 73be 7c66 90be 4f04 b4be 810e b93e
00000250: b1bf 853e 0a3b 073e dc86 77be 5565 88be
00000260: 2129 26bf 7518 1abd 4f17 34be fbd9 03be
00000270: a0a7 1f3f 3653 b83e 287e 263f e553 973e
00000280: 3c8b ae3d 04e8 2ebd e142 00be 7735 66be
00000290: 7b12 dd3d 00fd 3a3e b8d6 c83d e180 083e
000002a0: ea88 ab3e c96d 26be cb47 f5bd 0e9a 3b3e
000002b0: 962a be3c ff1b a13e ddad 903e 2d37 bfbe
000002c0: 18d2 873e 8e4c 4bbd 4062 bb3e b6d2 703d
000002d0: afdd 063c f5e4 e23c f2da fc3d db4c c13e
000002e0: c7a3 95be d2a7 bc3d 6171 a83e 51ac 97be
000002f0: 93eb b2be db57 6c3e c16a a63e da19 94bc
00000300: fbea 803e 9eda 7d3e 0310 073e 04bd 0e3e
00000310: ab98 00be bd69 213e 2365 25be c819 0c3d
00000320: 67bd f13e 5ee2 93bd 54d8 f33b 4650 c4bb
00000330: 2daf 0dbd 4a49 eabd 7d55 2b3e 6af2 253e
00000340: ab92 d7bd 38c7 4e3e 3439 11be f194 06be
00000350: e67c 0fbe 7ae0 933e 746a 5f3e 3b33 703e
00000360: 033d c23c 761b edbd 7a2e 8dbe 7d6d babe
00000370: 87fd 81be ec5f 513c fbb6 f13d 3908 afbc
00000380: 41e8 de3e 4ca8 06be ae8a 03be f808 223f
00000390: 61a5 ee3e eeda f8bd a29f c1be e92a b0bd
000003a0: d7ac 6f3e ebee 033e c15c a73e 4b93 623e
000003b0: 5781 c93d 8ae8 1d3d 0e10 f3bc 3a2a b2bd
000003c0: ca23 6a3e 5906 633e a2a2 4a3e 535f b1be
000003d0: 4f4f dd3d 4a43 2c3e 0099 9c3e 4b9f c6bd
000003e0: 88ef a6bd c355 eebe 30f1 463e 325e 6b3c
000003f0: 4a1d 293d 547f 46bd d641 b03d 7242 bbbc

conv3.bias f4 [12]
0.015063431 0.005327768 0.006889415 0.0019069666 0.005128948 0.0040662405 -0.006654434 -0.03476061
0.0023939447 0.0049853143 0.0151211 0.008750621
00000000: 9ccc 763c 8f94 ae3b 9ac0 e13b 2ef3 f93a
00000010: bc10 a83b 193e 853b 700d dabb 2461 0ebd
00000020: bae3 1c3b d95b a33b 7dbe 773c c45e 0f3c

conv4.weight f4 [16, 12, 3, 3]
-0.056740712 0.10351217 -0.11903725 -0.063909255 -0.05733443 -0.0097607635 -0.110323735 0.019261157
-0.27051157 0.06926319 0.069090776 0.12069736 -0.07390759 -0.015690658 0.07757279 0.20951165
0.04444324 0.062450647 0.08986438 -0.0031458926 -0.28173572 -0.21469273 0.23036844 -0.18103123
-0.25467247 0.13025278 -0.19854204 -0.17495239 -0.11307346 -0.016276732 0.00749335 0.09808895
0.0407691 0.020603484 -0.07818146 0.198661 -0.052606504 0.20423983 -0.11262778 -0.09501666
-0.009604373 0.15482625 -0.13669036 -0.10771466 0.28013772 -0.13792582 0.052908037 0.07644789
0.1370298 0.34859273 0.23257346 0.23184524 0.04246938 0.03995469 -0.1485727 0.025686769
0.12303273 0.19944686 0.071056455 0.06732915 -0.16944215 0.020331804 0.19417357 0.11239292
-0.06084976 0.046888757 0.07009355 -0.010477747 0.102279514 -0.040247962 -0.08213181 -0.15563975
0.04040909 0.09521024 0.17910235 -0.03372578 -0.07468916 -0.0069643203 -0.054747164 0.13913932
0.13698587 0.0063119233 0.06337454 0.079454176 -0.08603805 0.01806922 0.2359064 -0.09218059
0.0225244 -0.15926105 0.099690214 0.06712445 -0.16423462 0.014373103 -0.20826483 -0.2351377
0.11512638 -0.010758852 -0.08040957 0.097175345 -0.12694335 0.13634387 0.15788707 0.06629388
-0.009280417 0.1622392 -0.06464095 -0.1855052 -0.12057388 -0.010905461 -0.011261944 -0.14466453
0.028047075 -0.032427326 -0.027342407 -0.12602457 0.085351646 -0.044480283 -0.29680312 0.023206145
-0.32832482 -0.058180522 -0.20800449 0.15700452 0.027432123 0.016720444 0.20097318 -0.09588231
-0.09754369 0.016323702 0.1452417 -0.21419221 -0.24572995 -0.11854046 -0.13755418 -0.36375448
0.010998021 -0.053311277 0.00044407326 0.10764013 -0.16223133 -0.18473056 0.05224299 -0.0003484941
-0.19101532 -0.19538215 0.0054122587 -0.2605825 0.11170552 -0.027410218 0.14374472 0.10051346
-0.25690892 -0.22950712 0.056559432 0.11581802 0.025576787 -0.035189062 -0.08460394 0.12606412
-0.07316311 0.04292569 -0.05839901 0.015499911 -0.049755313 -0.034627955 -0.22691877 0.039355174
-0.12690173 -0.20755458 -0.09263961 0.0010695987 0.06489892 0.0028544222 0.11974706 -0.012557373
-0.023204792 0.051929608 0.14949206 -0.039408512 0.10234471 -0.12790284 0.05133036 -0.003496503
-0.2920317 -0.058670845 -0.00091007195 0.3099622 0.060022775 -0.15631329 -0.2341349 0.07520151
0.1270087 -0.07116547 -0.15599911 -0.0069309333 -0.0038015316 -0.1798878 0.3003621 0.100000456
0.2791639 0.11348572 0.29475936 -0.25261307 0.16914396 -0.36340672 -0.041790426 0.10233305
-0.04835129 -0.113045886 0.19779532 -0.21167807 -0.10855326 -0.060264282 -0.0356899 -0.010080363
0.24511665 -0.0071605667 0.25536022 0.04894635 -0.012043227 -0.008603227 0.03328966 0.48060745
0.11760756 0.2210808 0.17977221 -0.11851397 -0.03811341 0.17761584 0.23012817 0.09356532
-0.0440913 -0.08837043 0.027535295 0.26787966 0.115945935 0.12987123 0.08374024 -0.18820027
-0.23861276 -0.1967803 -0.027959023 -0.081796736 0.122310035 0.004908444 0.22498553 -0.01791548
0.20447212 -0.053338442 -0.069361635 0.20459059 -0.06999043 0.069277495 0.008557949 0.05679773
00000000: f368 68bd 30fe d33d cdc9 f3bd dbe2 82bd
00000010: 82d7 6abd 9ceb 1fbc 69f1 e1bd 93c9 9d3c
00000020: 7e80 8abe dcd9 8d3d 777f 8d3d 2d30 f73d
00000030: dd5c 97bd b289 80bc 7cde 9e3d 398a 563e
00000040: 1d0a 363d 40cc 7f3d d10a b83d 522b 4ebb
00000050: aa3f 90be 69d8 5bbe b4e5 6b3e 4060 39be
00000060: 6e64 82be fc60 053e 9b4e 4bbe b826 33be
00000070: 0f93 e7bd c856 85bc c78a f53b dce2 c83d
00000080: 80fd 263d a3c8 a83c 9a1d a0bd ca6d 4b3e
00000090: eb79 57bd 3f24 513e 65a9 e6bd 1898 c2bd
000000a0: a95b 1dbc c68a 1e3e 8ff8 0bbe 8199 dcbd
000000b0: 366e 8f3e 6d3c 0dbe 19b6 583d b690 9c3d
000000c0: 8a51 0c3e bf7a b23e bd27 6e3e d768 6d3e
000000d0: 5ff4 2d3d 87a7 233d 7123 18be 0f6d d23c
000000e0: 95f8 fb3d cc3b 4c3e 0c86 913d dee3 893d
000000f0: 3e82 2dbe e28e a63c 70d5 463e 422e e63d
00000100: 993d 79bd 6d0e 403d 358d 8f3d dbaa 2bbc
00000110: ec77 d13d 0cdb 24bd b934 a8bd 0760 1fbe
00000120: 0184 253d 96fd c23d 9b66 373e 0b24 0abd
00000130: a1f6 98bd f434 e4bb 903e 60bd 8a7a 0e3e
00000140: 0646 0c3e 40d4 ce3b 83ca 813d dfb8 a23d
00000150: b834 b0bd e705 943c 7391 713e 2dc9 bcbd
00000160: 1785 b83c 5415 23be 622a cc3d 8b78 893d
00000170: 1f2d 28be 2a7d 6b3c 6043 55be f0c7 70be
00000180: 61c7 eb3d e545 30bc c6ad a4bd de03 c73d
00000190: 70fd 01be ba9d 0b3e 26ad 213e 16c5 873d
000001a0: e40c 18bc 0822 263e 7962 84bd 13f5 3dbe
000001b0: 70ef f6bd d2ac 32bc 0484 38bc f022 14be
000001c0: fbc2 e53c 84d2 04bd 2ffd dfbc 960c 01be
000001d0: d8cc ae3d f530 36bd 94f6 97be d01a be3c
000001e0: 311a a8be b34e 6ebd 21ff 54be cbc5 203e
000001f0: 55b9 e03c 50f9 883c eacb 4d3e f25d c4bd
00000200: fcc4 c7bd 49b9 853c 3dba 143e 3455 5bbe
00000210: a2a0 7bbe 57c5 f2bd 01db 0cbe 073e babe
00000220: 0b31 343c ed5c 5abd 81d2 e839 6e72 dc3d
00000230: f81f 26be 022a 3dbe bffc 553d 16b6 b6b9
00000240: 8599 43be 4212 48be 5159 b13b 126b 85be
00000250: ddc5 e43d 658b e0bc d131 133e 00da cd3d
00000260: 9189 83be ea03 6bbe ddaa 673d 0032 ed3d
00000270: 6986 d13c 6822 10bd d544 adbd f416 013e
00000280: 8ad6 95bd d9d2 2f3d cd33 6fbd 57f3 7d3c
00000290: 3acc 4bbd 0bd6 0dbd 655d 68be e432 213d
000002a0: 87f2 01be 3089 54be d6b9 bdbd c731 8c3a
000002b0: bae9 843d 4211 3b3b f23d f53d 71bd 4dbc
000002c0: fa17 bebc 24b4 543d 7214 193e d26a 21bd
000002d0: 1a9a d13d f6f8 02be c93f 523d 9625 65bb
000002e0: 2e85 95be d750 70bd e591 6eba 5eb3 9e3e
000002f0: 71da 753d 9710 20be 0fc1 6fbe 4003 9a3d
00000300: 920e 023e 34bf 91bd 3bbe 1fbe e21c e3bb
00000310: 1e23 79bb 8234 38be 10c9 993e 0acd cc3d
00000320: 92ee 8e3e 336b e83d b3ea 963e 8056 81be
00000330: 1334 2d3e 7210 babe 702c 2bbd fd93 d13d
00000340: 010c 46bd 9a84 e7bd db8a 4a3e 23c2 58be
00000350: 2c51 debd aed7 76bd 932f 12bd 1b28 25bc
00000360: dcff 7a3e 30a3 eabb 93be 823e f87b 483d
00000370: f550 45bc 8df4 0cbc bd5a 083d 2e12 f63e
00000380: 3bdc f03d 0163 623e 3516 383e 74b7 f2bd
00000390: cf1c 1cbd ede0 353e b8a6 6b3e 2d9f bf3d
000003a0: 1499 34bd 8efb b4bd b391 e13c 8627 893e
000003b0: 1075 ed3d f7fc 043e 0180 ab3d 92b7 40be
000003c0: e756 74be c680 49be 520a e5bc 0c85 a7bd
000003d0: af7d fa3d 03d7 a03b 9b62 663e 7cc3 92bc
000003e0: 2461 513e 6979 5abd 790d 8ebd 3280 513e
000003f0: 2457 8fbd 5ce1 8d3d a436 0c3c bda4 683d

conv4.bias f4 [16]
-0.034528002 0.012751551 -0.012891694 -0.005542261 0.015789533 -0.017804757 0.020484239 0.021576123
-0.0075095305 0.008488524 0.014728922 -0.009381005 0.024139017 -0.015430854 0.007381862 0.0013228479
00000000: 3c6d 0dbd e2eb 503c af37 53bc db9b b5bb
00000010: 0d59 813c 48db 91bc 90ce a73c 69c0 b03c
00000020: 8212 f6bb 7313 0b3c 9451 713c c9b2 19bc
00000030: 30bf c53c b1d1 7cbc 8ce3 f13b 6963 ad3a

bn1.weight f4 [3]
1.0323094 0.95423454 1.0176901
00000000: b722 843f b748 743f ab43 823f

bn1.bias f4 [3]
0.033522207 -0.017387109 0.10027749
00000000: 954e 093d 696f 8ebc 495e cd3d

bn1.running_mean f4 [3]
0.32426304 -0.3000448 0.40349647
00000000: ce05 a63e 799f 99be 1797 ce3e

bn1.running_var f4 [3]
0.2638338 0.36233684 0.4109938
00000000: 3915 873e 3784 b93e c86d d23e

bn2.weight f4 [4]
1.0346501 1.02592 0.99952567 0.95014447
00000000: 6a6f 843f 5951 833f eae0 7f3f ab3c 733f

bn2.bias f4 [4]
0.07863445 0.09357465 0.028902663 -0.06315457
00000000: 190b a13d 11a4 bf3d 47c5 ec3c 2f57 81bd

bn2.running_mean f4 [4]
0.21768126 -0.39043972 -0.45552686 -0.3454567
00000000: d6e7 5e3e b7e7 c7be d13a e9be b3df b0be

bn2.running_var f4 [4]
1.7201139 3.27934 1.1960876 0.6898965
00000000: b12c dc3f b5e0 5140 6619 993f 0f9d 303f

bn3.weight f4 [12]
1.0261383 0.9891859 1.01231 1.0402172 1.0371327 0.9594067 1.0372039 0.92902344
1.0239141 0.98703945 1.0567883 0.9009759
00000000: 8058 833f 4a3b 7d3f 6093 813f d625 853f
00000010: c4c0 843f ad9b 753f 19c3 843f 7bd4 6d3f
00000020: 9e0f 833f 9eae 7c3f d744 873f 5ba6 663f

bn3.bias f4 [12]
0.00046176647 0.013859765 0.0873978 0.07802935 0.05782037 0.16329828 0.08333938 -0.05879902
0.03199361 0.04038103 0.13565703 -0.015836358
00000000: 3f19 f239 1114 633c 9efd b23d dacd 9f3d
00000010: 0dd5 6c3d aa37 273e d6ad aa3d 3ed7 70bd
00000020: bb0b 033d 9466 253d ade9 0a3e 40bb 81bc

bn3.running_mean f4 [12]
-0.06727208 0.43043724 -0.37403658 0.15208429 0.45499545 0.6727967 0.38839987 0.71229464
-0.11798663 0.25020564 -0.69497275 -0.026339872
00000000: f2c5 89bd 4562 dc3e b981 bfbe fcbb 1b3e
00000010: 2af5 e83e 683c 2c3f 59dc c63e f158 363f
00000020: f9a2 f1bd f41a 803e bce9 31bf b7c6 d7bc

bn3.running_var f4 [12]
0.7778984 0.30552968 0.97396547 1.0348737 2.7783747 0.38346013 0.6630312 0.8607394
0.90562165 0.58937246 1.2191925 1.2199786
00000000: 5924 473f 636e 9c3e cd55 793f be76 843f
00000010: e4d0 3140 e354 c43e 6abc 293f 6b59 5c3f
00000020: d2d6 673f 1de1 163f 800e 9c3f 4228 9c3f

bn4.weight f4 [16]
0.9307933 1.0075573 0.91469514 0.9523691 0.95137954 0.9590498 1.1298054 0.96762604
0.9237346 1.0119509 0.9834446 0.90799206 0.984026 0.94198674 0.97355 0.97464126
00000000: 7848 6e3f a3f7 803f 7629 6a3f 76ce 733f
00000010: 9c8d 733f 4a84 753f 779d 903f 57b6 773f
00000020: df79 6c3f 9b87 813f 06c3 7b3f 2b72 683f
00000030: 21e9 7b3f 0b26 713f 933a 793f 1782 793f

bn4.bias f4 [16]
-0.046714917 0.040192377 -0.04789686 -0.06890498 -0.011904703 -0.013420906 0.17686778 -0.043284815
-0.05758227 0.15156992 0.0070362194 -0.099546954 0.0148163475 -0.037037853 0.03384628 0.015318918
00000000: 2458 3fbd c3a0 243d 7f2f 44bd 0e1e 8dbd
00000010: f20b 43bc 5ce3 5bbc d41c 353e 6b4b 31bd
00000020: 63db 6bbd 2535 1b3e 1690 e63b 46df cbbd
00000030: 44c0 723c 01b5 17bd 66a2 0a3d 33fc 7a3c

bn4.running_mean f4 [16]
0.31539255 -1.2220888 0.31910732 0.5430077 1.4515502 -0.47701022 -0.3375848 0.96233445
-0.050092425 0.526672 1.0267227 0.96068 0.041614328 0.20576687 0.20017876 0.36016792
00000000: 227b a13e 686d 9cbf 0962 a33e 8d02 0b3f
00000010: 66cc b93f af3a f4be ead7 acbe 8d5b 763f
00000020: b72d 4dbd fad3 063f a66b 833f 20ef 753f
00000030: c973 2a3d 8db4 523e a9fb 4c3e ee67 b83e

bn4.running_var f4 [16]
2.1440213 2.528423 2.2403758 2.7765086 2.5222602 1.1307249 5.5310545 1.97444
2.0791926 1.2526873 2.7351475 2.4224546 0.42954573 2.1829367 1.6540949 1.0677993
00000000: a537 0940 afd1 2140 5162 0f40 51b2 3140
00000010: b66c 2140 98bb 903f 66fe b040 73ba fc3f
00000020: 7e11 0540 0f58 a03f a80c 2f40 7f09 1b40
00000030: 6bed db3e 3cb5 0b40 62b9 d33f a6ad 883f

fc5.weight f4 [3, 16]
0.24884295 0.17836756 0.17766465 0.9199674 -0.19118118 0.024331935 -0.05133678 -0.43303773
0.48254573 -0.1754488 -0.30484593 0.17823333 0.20759553 0.32427895 -0.69582355 0.07723675
-0.35367587 0.1509309 -0.38399246 -0.049037345 -0.03322595 -0.11729372 0.42240217 0.30861273
-0.2820046 -0.17084083 -0.005235772 0.13339888 0.14356029 -0.46516934 0.042475168 -0.22391789
0.53477544 -0.1497598 -0.10936913 0.24280444 0.010393349 -0.39777142 0.04403288 -0.63172585
-0.034870025 0.4747413 0.07343521 -0.4379695 0.12728 -0.6026852 0.05026634 0.27008972
00000000: b0d0 7e3e fca5 363e b9ed 353e fc82 6b3f
00000010: 00c5 43be c453 c73c 8446 52bd 1fb7 ddbe
00000020: 3c10 f73e daa8 33be c414 9cbe cc82 363e
00000030: ec93 543e e407 a63e 7e21 32bf 4d2e 9e3d
00000040: 0115 b5be a18d 1a3e a99a c4be 62db 48bd
00000050: ef17 08bd b137 f0bd 1945 d83e 7d02 9e3e
00000060: e862 90be e6f0 2ebe d790 abbb b799 083e
00000070: 7801 133e ad2a eebe 71fa 2d3d bb4a 65be
00000080: 0be7 083f a25a 19be ecfc dfbd baa1 783e
00000090: de48 2a3c b2a8 cbbe d25b 343d c9b8 21bf
000000a0: dfd3 0ebd 4b11 f33e 3365 963d 8a3d e0be
000000b0: b055 023e 9449 1abf 14e4 4d3d 3349 8a3e

fc5.bias f4 [3]
-0.12499021 0.13221605 0.08488783
00000000: defa ffbd a563 073e acd9 ad3d

fc6.weight f4 [3, 16]
-0.032171074 -0.09316166 0.030504087 0.025729321 0.3395133 0.08938547 -0.011301597 0.3455685
-0.27053478 0.09817041 -0.20005381 -0.4789853 -0.026590075 -0.0048939884 -0.17577977 0.26608965
-0.22451666 -0.45016724 -0.27041665 -0.11473266 0.13929296 -0.7224166 -0.48935014 0.76883876
-0.5697752 -0.30278927 -0.2251302 0.063286275 -0.2723132 -0.26269856 0.20117265 -0.41986507
-0.2083594 -0.2564076 0.10649798 0.3138107 -0.7432928 -0.45276204 -0.1885692 0.42775798
0.25561988 -0.31031987 0.90725356 -0.010607153 -0.008274562 -0.11545708 -0.18984815 -0.16195005
00000000: d1c5 03bd 8acb bebd b5e3 f93c 4cc6 d23c
00000010: b0d4 ad3e bb0f b73d 552a 39bc 5bee b03e
00000020: 8983 8abe 910d c93d e8da 4cbe 903d f5be
00000030: 6ed3 d9bc c05d a0bb 9dff 33be e73c 883e
00000040: b2e7 65be 527c e6be 0d74 8abe f5f8 eabd
00000050: d0a2 0e3e 4bf0 38bf 1a8c fabe 9ed2 443f
00000060: cadc 11bf 3207 9bbe 8888 66be 3c9c 813d
00000070: a36c 8bbe 6d80 86be 3400 4e3e 8ef8 d6be
00000080: 2b5c 55be db47 83be 9d1b da3d ccab a03e
00000090: 7048 3ebf 6dd0 e7be 4918 41be 1803 db3e
000000a0: 9ce0 823e 3fe2 9ebe c541 683f a0c9 2dbc
000000b0: 0792 07bc c374 ecbd 8e67 42be 3cd6 25be

fc6.bias f4 [3]
-0.045288097 -0.15505272 0.009946373
00000000: 0380 39bd 24c6 1ebe 1df6 223c

fc_decode.weight f4 [16, 3]
-1.229693 -0.10509792 1.1973165 -0.51014566 0.8296789 -1.0442437 -0.045779184 1.4453287
0.50419676 0.95187056 0.28291985 -0.03835003 -0.9819567 -0.11854991 -1.2226158 -0.55522203
1.2890092 0.46146792 0.30091843 -0.04482887 -1.0500778 -0.21449716 0.9178071 -1.3281212
-1.9018139 -0.76786333 -0.28524706 1.5186255 -0.5766942 -1.3273159 -0.8178519 -0.5247309
0.35216007 -0.66434246 -0.52368313 -0.23616679 -0.64638203 1.5356966 -0.063206166 -0.3461543
-0.33801633 0.72133946 0.15166827 1.4193884 -0.0642989 1.3320067 -1.1725416 -1.8803928
00000000: 9566 9dbf 943d d7bd ab41 993f e898 02bf
00000010: d665 543f c7a9 85bf f482 3bbd 8800 b93f
00000020: 0a13 013f caad 733f dfda 903e ec14 1dbd
00000030: 8461 7bbf 4cca f2bd ad7e 9cbf 0823 0ebf
00000040: 41fe a43f 8645 ec3e fb11 9a3e 7a9e 37bd
00000050: f368 86bf 25a5 5bbe 68f5 6a3f e0ff a9bf
00000060: a36e f3bf b192 44bf e70b 92be 5262 c23f
00000070: 3ba2 13bf 7de5 a9bf be5e 51bf c454 06bf
00000080: 534e b43e 5912 2abf 1910 06bf b5d5 71be
00000090: 4b79 25bf b591 c43f 3c72 81bd 233b b1be
000000a0: 7a10 adbe b4a9 383f ed4e 1b3e 85ae b53f
000000b0: 24af 83bd 327f aa3f d815 96bf b6b0 f0bf

fc_decode.bias f4 [16]
0.021866063 0.04984723 -0.00066312245 0.003918523 0.012924557 -0.025720146 0.0029935786 -0.017773626
-0.019591372 0.036466755 -0.011321431 0.008883265 -0.026356189 0.030145356 -0.015031445 0.025046535
00000000: 7520 b33c 9c2c 4c3d 65d5 2dba f466 803b
00000010: 85c1 533c 0eb3 d2bc ea2f 443b ff99 91bc
00000020: 167e a0bc 2a5e 153d 867d 39bc 1d8b 113c
00000030: efe8 d7bc 65f3 f63c 7346 76bc 642e cd3c

deconv1.weight f4 [16, 12, 3, 3]
0.06062743 -0.0046406677 -0.08377234 0.0034527006 0.02186436 -0.026142322 -0.0782713 -0.107594796
-0.10141309 0.075117394 -0.02957057 -0.059578024 0.049610887 0.041917797 0.006191256 -0.016313953
-0.08124229 -0.0044974196 -0.08181438 0.04822246 -0.031345215 -0.0044202846 0.020743057 -0.06112724
-0.037544865 -0.08435568 -0.018936053 -0.043359436 0.031742934 -0.021084188 0.11377286 -0.09757071
-0.03110202 -0.03689653 -0.07997247 -0.104591325 -0.057918858 0.035855345 -0.02901541 -0.100461245
0.14588885 -0.013481797 0.025425624 -0.050613146 0.029605366 -0.08765254 -0.026701521 0.0013818146
0.046514288 0.016145224 -0.09347358 0.0639264 -0.016719753 -0.013046487 -0.026886668 -0.05198973
-0.0051414 0.057545103 -0.043210804 -0.060075622 -0.04479448 0.020870369 -0.08168541 0.030531244
0.05096231 -0.0840642 0.04010955 -0.09304546 0.029845359 -0.05436072 -0.0181422 -0.022143653
-0.06818995 0.015408143 0.055193067 -0.0062444876 0.04671357 0.058664355 -0.0010315882 -0.034546252
-0.08997834 -0.043249276 -0.03546439 -0.05087654 -0.052707538 0.059251416 -0.0390234 -0.013388553
-0.09869303 0.05732298 0.09118561 -0.05623089 -0.0468455 -0.0069811544 0.020154843 -0.07041582
0.03676558 -0.052127022 -0.044810057 -0.015601419 0.014720881 0.007006511 0.06286587 0.034312256
-0.01650131 -0.08662366 -0.045896146 -0.020723594 0.021961642 -0.008946676 -0.07566516 0.07035439
-0.021482434 -0.01225971 0.021525703 0.045721684 -0.06804391 0.037196163 0.04996278 -0.020458529
0.020620035 -0.1222519 0.011903454 0.057229858 -0.08739912 -0.058813978 0.01496612 0.06181191
-0.013132494 -0.046758387 0.06268241 0.030259678 -0.007192387 -0.011764281 -0.02250739 -0.09796896
0.040282678 0.0518655 0.06985477 0.0012252324 -0.070712 -0.054567352 0.040617146 0.07118953
0.06732144 0.07403643 -0.03734426 -0.04170822 -0.07114301 -0.010359229 -0.065188706 0.030648151
-0.016449334 -0.11018679 0.009160037 0.058565438 0.049523387 0.043673925 0.089289814 0.025650928
-0.029624378 -0.010210677 0.016537085 -0.051836606 -0.03847463 0.03341948 -0.03924023 -0.08455154
-0.020924116 -0.046230227 -0.0034146784 0.016564183 -0.030074814 0.10194806 0.06371379 0.029827656
0.0086490875 0.05425797 -0.04105508 0.08712047 -0.050308138 0.03140725 -0.049458466 -0.05423637
-0.009511907 -0.041906636 0.012384863 0.05661173 -0.01402823 0.08132282 -0.017593488 0.101959325
0.038520034 0.067383304 0.0874068 0.0008748248 -0.031147223 0.089529626 0.06345843 -0.013694661
-0.00053278607 0.01476486 -0.008523272 -0.066640384 -0.02209911 -0.0073328996 -0.047853317 0.012317515
0.07357388 -0.050218523 -0.0649682 0.013354822 0.028855406 0.02799036 -0.036896564 -0.011534665
-0.035755195 -0.055411726 -0.15051056 -0.03573943 -0.06085115 0.05807638 -0.05527821 -0.022970311
-0.04423784 -0.044240497 0.0021037124 -0.060251616 -0.0024786226 -0.13904084 -0.001283586 -0.061915617
-0.02553528 0.03763741 0.112869315 -0.030440297 0.01653853 -0.01883212 0.018524893 -0.0043552155
-0.091362156 0.03210927 0.08544658 -0.017540885 -0.09111752 0.050003234 -0.10870509 -0.017819151
0.0045548356 -0.096460395 -0.03238197 0.037827853 -0.02901024 -0.006820483 0.13234904 -0.0114175575
00000000: 7854 783d be10 98bb d590 abbd b446 623b
00000010: e31c b33c 6c28 d6bc b44c a0bd a95a dcbd
00000020: abb1 cfbd 26d7 993d fb3d f2bc 1608 74bd
00000030: c934 4b3d ffb1 2b3d 05e0 ca3b d7a4 85bc
00000040: 5c62 a6bd 175f 93bb 4c8e a7bd ea84 453d
00000050: d763 00bd 09d8 90bb 58ed a93c 8f60 7abd
00000060: a5c8 19bd acc2 acbd c81f 9bbc aa99 31bd
00000070: e104 023d bfb8 acbc bf01 e93d 27d3 c7bd
00000080: aac9 febc d120 17bd 9bc8 a3bd fa33 d6bd
00000090: 533c 6dbd 0edd 123d bab1 edbc a0be cdbd
000000a0: e363 153e c1e2 5cbc 6649 d03c bb4f 4fbd
000000b0: f486 f23c 2d83 b3bd 26bd dabc 011e b53a
000000c0: c485 3e3d fd42 843c 146f bfbd d8eb 823d
000000d0: ddf7 88bc efc0 55bc 6e41 dcbc 2ff3 54bd
000000e0: 3079 a8bb 6ab4 6b3d d0fd 30bd db11 76bd
000000f0: 6b7a 37bd 56f8 aa3c ae4a a7bd a91c fa3c
00000100: dbbd 503d da29 acbd e949 243d 9e8e bebd
00000110: 417e f43c 59a9 5ebd f39e 94bc 9b66 b5bc
00000120: 2ca7 8bbd 7072 7c3c 2012 623d 8f9e ccbb
00000130: ba56 3f3d 094a 703d 5b36 87ba 5f80 0dbd
00000140: 9046 b8bd 2726 31bd 1c43 11bd eb63 50bd
00000150: dce3 57bd 9db1 723d 00d7 1fbd a95b 5bbc
00000160: 921f cabd 80cb 6a3d 85bf ba3d 5d52 66bd
00000170: 11e1 3fbd 2bc2 e4bb c51b a53c 2b36 90bd
00000180: 8197 163d 2583 55bd c08a 37bd 189d 7fbc
00000190: da2f 713c e096 e53b d2bf 803d 028b 0c3d
000001a0: c12d 87bc bf67 b1bd 99fd 3bbd 87c4 a9bc
000001b0: e7e8 b33c 1495 12bc 56f6 9abd f615 903d
000001c0: eefb afbc f3dc 48bc ac56 b03c a946 3b3d
000001d0: 9b5a 8bbd 015b 183d c6a5 4c3d a598 a7bc
000001e0: 59eb a83c 345f fabd b406 433c db69 6a3d
000001f0: 4ffe b2bd ede6 70bd 7534 753c 7c2e 7d3d
00000200: ac29 57bc b985 3fbd a35f 803d 25e3 f73c
00000210: 1dae ebbb f9be 40bc 6b61 b8bc f3a3 c8bd
00000220: 73ff 243d eb70 543d 0510 8f3d fa97 a03a
00000230: 74d1 90bd 0482 5fbd 2a5e 263d d1cb 913d
00000240: d3df 893d 69a0 973d 4bf6 18bd 3dd6 2abd
00000250: 6db3 91bd c1b9 29bc a881 85bd d511 fb3c
00000260: c1c0 86bc 9da9 e1bd fb13 163c 50e2 6f3d
00000270: 09d9 4a3d 6ee3 323d 94dd b63d e521 d23c
00000280: d3ae f2bc af4a 27bc c878 873c 9f52 54bd
00000290: 9397 1dbd dde2 083d 5dba 20bd 5c29 adbd
000002a0: 0d69 abbc e85b 3dbd ccc8 5fbb 9cb1 873c
000002b0: 755f f6bc 25ca d03d 607c 823d 2159 f43c
000002c0: e7b4 0d3c 9b3d 5e3d 5f29 28bd 386c b23d
000002d0: e80f 4ebd e3a4 003d f694 4abd f526 5ebd
000002e0: d4d7 1bbc 4ba6 2bbd e1e9 4a3c b4e1 673d
000002f0: a9d6 65bc 948c a63d 3820 90bc 0dd0 d03d
00000300: 2fc7 1d3d 4200 8a3d 5602 b33d 8054 653a
00000310: 7628 ffbc 4f5b b73d 7ef6 813d 925f 60bc
00000320: abaa 0bba 50e8 713c 32a5 0bbc c17a 88bd
00000330: 3109 b5bc d248 f0bb d701 44bd 67cf 493c
00000340: e7ad 963d f0b1 4dbd 0c0e 85bd 2fce 5a3c
00000350: 2c62 ec3c 0a4c e53c da20 17bd e4fb 3cbc
00000360: 0a74 12bd 68f7 62bd 711f 1abe 8263 12bd
00000370: 0e3f 79bd 80e1 6d3d 686b 62bd 3c2c bcbc
00000380: bd32 35bd 8635 35bd 70de 093b 66ca 76bd
00000390: 6370 22bb b960 0ebe 003e a8ba 3b9b 7dbd
000003a0: 5d2f d1bc af29 1a3d 0728 e73d ee5d f9bc
000003b0: d07b 873c d145 9abc 84c1 973c 32b6 8ebb
000003c0: 151c bbbd 0385 033d 9efe ae3d e7b1 8fbc
000003d0: d39b babd 31d0 4c3d c6a0 debd 78f9 91bc
000003e0: bb40 953b 078d c5bd f5a2 04bd 61f1 1a3d
000003f0: e2a6 edbc 5c7e dfbb 8286 073e b510 3bbc

deconv1.bias f4 [12]
-0.07432076 -0.04972536 -0.016213728 0.076821975 -0.026530426 0.07237147 -0.056876533 0.021679591
0.017732138 0.09393659 0.010981542 -0.026183747
00000000: 7c35 98bd d2ac 4bbd a7d2 84bc d754 9d3d
00000010: 5656 d9bc 7e37 943d 5ef7 68bd 6699 b13c
00000020: fd42 913c d461 c03d edeb 333c 4c7f d6bc

deconv2.weight f4 [12, 4, 3, 3]
-0.04820202 -0.077823356 0.09111278 -0.06424525 0.025043566 -0.07952003 0.0074408846 -0.014007132
-0.09431332 -0.09775707 -0.12239233 0.051983956 0.019635342 -0.053640928 0.18904772 0.008563572
0.02029558 -0.08230581 0.13581508 0.14712466 0.06910828 -0.029684925 -0.0018114741 -0.04990861
-0.07105588 0.013550672 0.11843024 0.14266664 -0.006765171 0.04750171 0.050618656 0.04176957
-0.16663764 0.099058345 0.030771801 0.13025466 -0.1417266 -0.10935619 0.038357336 -0.11040209
-0.00011927952 0.03696395 0.21270446 -0.04333609 0.18491814 -0.12367955 -0.05285408 -0.025699632
-0.029183462 0.13591605 -0.15978612 0.14319842 -0.1419517 0.04767202 -0.06372256 0.06134489
0.057940237 -0.04384564 -0.1534606 0.046146866 0.02784799 -0.0459708 0.06361749 0.12415265
-0.12242326 0.06685178 -0.10578327 -0.15989015 -0.038855277 -0.12181673 -0.18457113 -0.1251925
0.00028292014 -0.19752805 -0.09242064 -0.15633619 -0.052264545 0.024857324 0.04974735 0.074134715
-0.12190722 0.06128287 -0.031182557 -0.08332301 -7.092479e-05 -0.013616261 -0.1348154 -0.036420662
-0.011893271 0.047492657 -0.11249056 -0.15934195 -0.13936448 0.058143828 0.036363214 0.06445343
-0.12439413 -0.113721475 0.052886024 -0.06752062 0.07850953 0.09887318 -0.00084183883 -0.0163523
-0.16137417 -0.098618835 0.008369971 -0.11375309 0.08181266 -0.027544111 -0.02393768 -0.07784137
0.093511075 0.07997248 -0.0081335185 0.050096113 -0.053255163 -0.005951624 0.069250956 0.015015749
-0.145201 -0.018866966 -0.08289442 0.10460353 0.0750457 0.11646847 -0.016280044 0.08251359
0.09847721 0.12041275 0.12972008 -0.09241008 -0.10993999 -0.13831392 0.124209 0.005389314
0.05266738 0.062191814 0.056336578 -0.040045884 -0.167439 0.06419686 0.049955647 -0.052262343
-0.085415445 0.08040867 -0.009792414 -0.09842526 -0.09338415 -0.012491959 0.007612703 -0.050628673
-0.028070338 0.022889469 -0.05097421 -0.08103263 -0.10561694 0.006970621 0.011378537 -0.010829336
-0.11969364 -0.1337105 -0.037262507 -0.095062315 0.013252902 -0.08800014 -0.1542893 0.064615496
-0.1505159 0.018145753 -0.064926594 0.017037123 -0.15536018 -0.1658703 -0.1610903 -0.19460632
-0.17049699 -0.1529125 -0.13837457 0.03478007 -0.058791287 0.041702755 -0.008469269 0.13669012
-0.17261751 0.20154963 0.107792564 0.14046551 0.06663886 0.016198521 0.1084268 -0.00035053457
0.059973188 0.058686666 0.18823004 0.00028406957 0.025051873 0.12287094 0.12230743 0.1476171
-0.10868476 -0.0970768 0.1632472 0.044789877 0.17993873 0.0031087187 0.19885543 0.16614865
0.107544504 0.016691828 0.005667866 0.011903376 -0.121752664 -0.034106508 -0.027450724 0.0006078985
0.077238575 -0.112359226 -0.007990941 0.035247404 0.049471457 -0.0042704367 -0.16684964 0.018098848
-0.08601441 0.048238818 0.10972123 -0.031535152 0.040195845 -0.11224571 0.052226547 -0.13551512
0.012714137 0.00013603129 0.05503044 -0.0603436 0.016404442 -0.017774729 -0.026552156 0.010541986
0.071075544 -0.002652003 -0.022978324 -0.12215397 0.0041377083 0.0755218 0.04536885 0.093559965
-0.0039778985 -0.06381012 -0.033485718 -0.11303631 -0.010617297 0.0050652577 -0.048616856 -0.10588934
00000000: 7b6f 45bd da61 9fbd 5699 ba3d 0393 83bd
00000010: 2a28 cd3c 66db a2bd aad2 f33b 2b7e 65bc
00000020: 5827 c1bd dc34 c8bd d4a8 fabd 21ed 543d
00000030: 4cda a03c 97b6 5bbd ba95 413e 394e 0c3c
00000040: eb42 a63c f38f a8bd 1c13 0b3e d9a7 163e
00000050: a488 8d3d cd2d f3bc fc6e edba f86c 4cbd
00000060: bf85 91bd a303 5e3c 8e8b f23d 3417 123e
00000070: 5eae ddbb 2791 423d 8255 4f3d 9216 2b3d
00000080: 0fa3 2abe 1adf ca3d 2515 fc3c 7a61 053e
00000090: c720 11be 23f6 dfbd 951c 1d3d 7e1a e2bd
000000a0: b425 fab8 8367 173d 33cf 593e 2f81 31bd
000000b0: 2e5b 3d3e b44b fdbd 857d 58bd 0988 d2bc
000000c0: 2812 efbc 942d 0b3e f99e 23be 9ba2 123e
000000d0: c95b 11be bc43 433d f980 82bd c844 7b3d
000000e0: be52 6d3d 7c97 33bd c724 1dbe 7f04 3d3d
000000f0: 7821 e43c e14b 3cbd e349 823d bf43 fe3d
00000100: 0cb9 fabd 96e9 883d e6a4 d8bd 3eba 23be
00000110: b626 1fbd 0d7b f9bd 3700 3dbe 7632 00be
00000120: e654 9439 cb44 4abe 0847 bdbd 9816 20be
00000130: 5913 56bd 96a1 cb3c e1c3 4b3d f1d3 973d
00000140: 7eaa f9bd bf03 7b3d 9072 ffbc 41a5 aabd
00000150: 75bd 94b8 bd16 5fbc 0c0d 0abe d52d 15bd
00000160: fedb 42bc a987 423d 7361 e6bd 892a 23be
00000170: 90b5 0ebe 3928 6e3d 98f1 143d 2900 843d
00000180: 5ac2 febd cee6 e8bd 049f 583d 4048 8abd
00000190: 9bc9 a03d 067e ca3d d9ae 5cba 42f5 85bc
000001a0: 453f 25be acf8 c9bd 3422 093c 61f7 e8bd
000001b0: 658d a73d 30a4 e1bc f418 c4bc 4c6b 9fbd
000001c0: bc82 bf3d 9dc8 a33d 7342 05bc 9531 4d3d
000001d0: 1622 5abd d705 c3bb 72d3 8d3d 9e04 763c
000001e0: 92af 14be e58e 9abc 8dc4 a9bd 603a d63d
000001f0: 8fb1 993d 0587 ee3d ba5d 85bc e3fc a83d
00000200: 6bae c93d f69a f63d 57d5 043e 7f41 bdbd
00000210: 3828 e1bd 2aa2 0dbe 4a61 fe3d d898 b03b
00000220: c0b9 573d d8bc 7e3d 2fc1 663d 2707 24bd
00000230: 2175 2bbe a579 833d 4b9e 4c3d 0a11 56bd
00000240: 4bee aebd 4dad a43d 5c70 20bc 2f93 c9bd
00000250: 3040 bfbd 13ab 4cbc fb73 f93b 0360 4fbd
00000260: c4f3 e5bc b282 bb3c 55ca 50bd 6ff4 a5bd
00000270: b24d d8bd cf69 e43b 0b6d 3a3c 876d 31bc
00000280: f021 f5bd 68eb 08be 92a0 18bd 08b0 c2bd
00000290: b322 593c 6b39 b4bd 04fe 1dbe 2155 843d
000002a0: d720 1abe 67a6 943c 3cf8 84bd 7091 8b3c
000002b0: bd16 1fbe e7d9 29be dbf4 24be e146 47be
000002c0: c396 2ebe 1895 1cbe 10b2 0dbe 8c75 0e3d
000002d0: 22cf 70bd 82d0 2a3d b0c2 0abc 7ff8 0b3e
000002e0: a5c2 30be 0763 4e3e 59c2 dc3d 31d6 0f3e
000002f0: f479 883d c3b2 843c df0e de3d f4c7 b7b9
00000300: 72a6 753d 6e61 703d 60bf 403e 2cef 9439
00000310: 9639 cd3c c2a3 fb3d 517c fa3d f028 173e
00000320: 1e96 debd 34d0 c6bd 462a 273e 9775 373d
00000330: dc41 383e a5bb 4b3b c2a0 4b3e df22 2a3e
00000340: 4b40 dc3d 4dbd 883c 82b9 b93b 6106 433c
00000350: 7659 f9bd 44b3 0bbd 57e0 e0bc 615b 1f3a
00000360: 422f 9e3d 981c e6bd 70ec 02bc 955f 103d
00000370: 95a2 4a3d 05ef 8bbb a2da 2abe 0944 943c
00000380: 5328 b0bd 1196 453d 86b5 e03d 012b 01bd
00000390: 66a4 243d 14e1 e5bd 81eb 553d 7ac4 0abe
000003a0: f54e 503c 9fa3 0e39 9967 613d da2a 77bd
000003b0: 9c62 863c 4f9c 91bc e883 d9bc 4bb8 2c3c
000003c0: 0e90 913d 3acd 2dbb 0a3d bcbc dc2b fabd
000003d0: 9d95 873b 2cab 9a3d b0d4 393d 5e9c bf3d
000003e0: 0859 82bb e1ae 82bd 5228 09bd 957f e7bd
000003f0: 2cf4 2dbc 76fa a53b 7822 47bd 83dc d8bd

deconv2.bias f4 [4]
0.0496555 -0.001809957 0.13452289 0.07974472
00000000: 9163 4b3d 143c edba 5ec0 093e 3351 a33d

deconv3.weight f4 [4, 3, 3, 3]
-0.1320707 0.11450924 0.09739281 0.19165285 -0.1409724 0.13356155 0.051643014 0.17129338
-0.082289584 0.10081042 -0.011296151 -0.11683528 0.14775215 -0.16145109 0.17093305 -0.04390425
0.08415474 -0.18961705 -0.06053261 -0.116757415 -0.0018862105 0.1043046 0.14665954 0.20515482
-0.07798948 -0.00062652736 -0.15308967 -0.113043375 -0.11644849 0.051807404 0.11723802 0.06333333
0.21047162 -0.05538755 0.09988852 0.049213707 -0.06700746 -0.026659634 0.099909015 -0.17742369
-0.06762351 -0.06844205 0.060983226 0.060437858 -0.14580493 -0.021779854 0.103580244 0.05855712
0.07386273 -0.083428785 0.05640475 0.14577526 0.120890126 -0.077304915 -0.074536055 0.10668004
-0.13086258 0.16287693 0.14377502 0.1303894 0.05704245 0.20414588 -0.015576674 0.16280513
-0.12748584 0.03222049 0.02207657 0.15948498 -0.12415522 -0.0687855 0.092911996 -0.112471744
0.14306664 -0.053008907 0.19376266 -0.13514303 -0.060157824 -0.1442776 -0.0321202 0.038201496
-0.14370541 0.13932872 0.1955194 0.21808875 -0.14282838 0.10095608 0.015726155 0.059976846
0.14247519 0.1467945 0.031753965 0.028759172 0.0014743435 0.10452636 -0.1163592 0.06910016
0.05571835 -0.1149543 -0.13891464 0.026366496 -0.0012687256 0.18756784 0.22204635 0.13970178
-0.09546184 0.05277192 -0.040551927 0.2070955
00000000: 8b3d 07be d283 ea3d e275 c73d a540 443e
00000010: 125b 10be 5cc4 083e a087 533d 8867 2f3e
00000020: 7187 a8bd b275 ce3d 7e13 39bc 5647 efbd
00000030: 574c 173e 6f53 25be 1309 2f3e f1d4 33bd
00000040: 5259 ac3d f92a 42be 0bf1 77bd 831e efbd
00000050: b93a f7ba a69d d53d eb2d 163e 1b14 523e
00000060: f3b8 9fbd 8a3d 24ba 8ac3 1cbe 4983 e7bd
00000070: 8c7c eebd 0034 543d 7d1a f03d e8b4 813d
00000080: df85 573e 0ede 62bd 5a92 cc3d 5094 493d
00000090: 353b 89bd 4e65 dabc 199d cc3d 8eae 35be
000000a0: 327e 8abd 582b 8cbd 8cc9 793d b08d 773d
000000b0: e34d 15be aa6b b2bc e121 d43d 97d9 6f3d
000000c0: 5845 973d b6dc aabd ab08 673d 1c46 153e
000000d0: 3e95 f73d 0a52 9ebd 5ca6 98bd 117b da3d
000000e0: d700 06be 36c9 263e c239 133e cd84 053e
000000f0: 58a5 693d 9e0b 513e 4e35 7fbc 63b6 263e
00000100: a68b 02be a2f9 033d ecd9 b43c 0850 233e
00000110: 1845 febd 6adf 8cbd a548 be3d 9657 e6bd
00000120: 1080 123e de1f 59bd b869 463e ef62 0abe
00000130: 0d68 76bd 82bd 13be 7990 03bd 2c79 1c3d
00000140: 8327 13be 30ac 0e3e 3d36 483e a852 5f3e
00000150: 9a41 12be 10c2 ce3d 23d4 803c 48aa 753d
00000160: 04e5 113e 4c51 163e 7210 023d 5b98 eb3c
00000170: c23e c13a eb11 d63d bb4d eebd 6284 8d3d
00000180: ed38 643d 296d ebbd a43f 0ebe 8dfe d73c
00000190: 5e4b a6ba c911 403e 1e60 633e fc0d 0f3e
000001a0: 7f81 c3bd 5e27 583d c719 26bd d810 543e

deconv3.bias f4 [3]
-0.12764198 -0.056101903 -0.2693988
00000000: 94b4 02be 1ccb 65bd a4ee 89be

deconv4.weight f4 [3, 1, 5, 5]
-0.0342049 -0.038205326 0.13687249 0.11596802 -0.041687477 0.112346336 -0.16687556 -0.19571005
0.013800493 -0.18294564 0.0462483 0.0101408735 -0.17132331 -0.061839253 0.0039709974 -0.14447041
-0.029802717 0.027512785 0.09218631 -0.119669646 0.10892363 -0.0074933986 -0.08865585 -0.0621213
-0.19559292 0.11780722 -0.06625182 -0.15392983 0.09505265 0.10425738 0.03689982 0.097633265
0.07049597 -0.14227486 -0.084813915 -0.113527805 0.042290628 -0.18279137 -0.10252666 0.04500472
0.14804047 0.11640041 0.047020707 0.14848466 0.06215931 0.0076382123 0.044683248 0.086866125
0.019294897 -0.095894426 -0.16023488 -0.027536374 0.036257412 0.020719713 -0.13663408 -0.23139197
0.088103555 -0.05974633 -0.11816003 -0.12187905 -0.038589455 -0.01706514 -0.064508826 -0.026485618
-0.020600023 -0.18497314 -0.13922691 -0.13291639 -0.13073443 -0.11842146 -0.14113201 -0.014953247
0.046159804 -0.1918438 -0.19363311
00000000: 701a 0cbd 307d 1cbd 4d28 0c3e a480 ed3d
00000010: 7dc0 2abd d615 e63d 6de1 2abe 3768 48be
00000020: 771b 623c 1a56 3bbe db6e 3d3d e825 263c
00000030: 616f 2fbe 284b 7dbd 241f 823b 0df0 13be
00000040: d424 f4bc 7e62 e13c 2dcc bc3d 5c15 f5bd
00000050: 5a13 df3d 2f8b f5bb 3391 b5bd e772 7ebd
00000060: 8349 48be e944 f13d 09af 87bd c89f 1dbe
00000070: f7aa c23d e584 d53d 4424 173d f3f3 c73d
00000080: 3160 903d 80b0 11be ebb2 adbd 4481 e8bd
00000090: f038 2d3d a92d 3bbe 7ff9 d1bd df56 383d
000000a0: ec97 173e 5763 ee3d c998 403d 5d0c 183e
000000b0: c39a 7e3d f849 fa3b c805 373d dee6 b13d
000000c0: 5510 9e3c 4c64 c4bd 9d14 24be f693 e1bc
000000d0: a782 143d 63bc a93c cee9 0bbe 04f2 6cbe
000000e0: a36f b43d 91b8 74bd e3fd f1bd b99b f9bd
000000f0: fa0f 1ebd 31cc 8bbc 341d 84bd 5ef8 d8bc
00000100: 61c1 a8bc 9969 3dbe 8091 0ebe 3c1b 08be
00000110: 3fdf 05be f386 f2bd e984 10be 77fe 74bc
00000120: 1012 3d3d b372 44be c247 46be

bn5.weight f4 [12]
0.9795746 1.0445945 0.95330256 0.94947785 0.9755097 1.0621948 0.9698255 0.99840397
1.0590823 1.019239 0.9264457 1.0848615
00000000: 67c5 7a3f 46b5 853f a30b 743f fb10 733f
00000010: 01bb 793f 00f6 873f 7c46 783f 6797 7f3f
00000020: 0290 873f 6c76 823f 8c2b 6d3f bedc 8a3f

bn5.bias f4 [12]
-0.0014078118 0.02969835 -0.013178538 -0.0038140423 -0.057541676 0.037069008 -0.036915112 -0.018184299
0.04229543 -0.018064389 -0.0075053037 -0.06810873
00000000: 5386 b8ba f449 f33c cbea 57bc 03f5 79bb
00000010: d2b0 6bbd acd5 173d 4d34 17bd 3df7 94bc
00000020: f93d 2d3d c5fb 93bc 0def f5bb 977c 8bbd

bn5.running_mean f4 [12]
-0.07724345 -0.049500324 -0.018702166 0.07422042 -0.03419007 0.07113064 -0.05936104 0.020850243
0.01917538 0.091335416 0.008633845 -0.025932558
00000000: d031 9ebd dac0 4abd 4935 99bc e000 983d
00000010: e30a 0cbd f1ac 913d 9024 73bd 21ce aa3c
00000020: b015 9d3c 100e bb3d f874 0d3c 8470 d4bc

bn5.running_var f4 [12]
0.15124299 0.15029089 0.1637385 0.1525122 0.28558695 0.20239939 0.11518688 0.15499754
0.095702924 0.20583403 0.25137264 0.15482457
00000000: 71df 1a3e dbe5 193e 11ab 273e 282c 1c3e
00000010: 7438 923e c941 4f3e 19e7 eb3d adb7 1e3e
00000020: e5ff c33d 28c6 523e eab3 803e 558a 1e3e

bn6.weight f4 [4]
1.0042994 1.0135771 0.8831124 0.94532514
00000000: e28c 803f e5bc 813f a713 623f d400 723f

bn6.bias f4 [4]
-0.024315853 0.010176639 -0.018028237 -0.013105393
00000000: 0a32 c7bc ebbb 263c f4af 93bc 01b8 56bc

bn6.running_mean f4 [4]
0.028926494 -0.018137133 0.11866353 -0.02724487
00000000: 41f7 ec3c 5394 94bc dd05 f33d a230 dfbc

bn6.running_var f4 [4]
0.040646948 0.046486042 0.056913905 0.05116768
00000000: 6a7d 263d 2668 3e3d 8e1e 693d 3495 513d

bn7.weight f4 [3]
1.0194263 0.9522373 1.033773
00000000: 907c 823f d3c5 733f ac52 843f

bn7.bias f4 [3]
0.044038348 -0.068663165 0.062475864
00000000: 8e61 343d 469f 8cbd b1e6 7f3d

bn7.running_mean f4 [3]
0.13951802 -0.11212078 -0.13546552
00000000: d0dd 0e3e 949f e5bd 79b7 0abe

bn7.running_var f4 [3]
0.3178526 0.17559588 0.15677035
00000000: 93bd a23e 68cf 333e 6888 203e
