saved_models_2D/VAE_patch_folds/CVAE2D_32_2_100_200_fold_1.pth (torch, 46722 bytes, 49 tensors)

conv1.weight f4 [3, 1, 5, 5]
0	0x3ea9c6cc	0.33159482
1	0x3cc51aeb	0.024060687
2	0x3e4ad0a1	0.19806148
3	0x3d951d3d	0.072809674
4	0x39f49f20	0.00046657864
5	0xbd77c6d7	-0.060492363
6	0x3edd36cc	0.4320587
7	0x3e447a22	0.19187215
8	0x3e476082	0.19470409
9	0x3e9fbf07	0.3120043
10	0x3e9ec251	0.31007627
11	0xbdb263de	-0.087104544
12	0xbea68302	-0.32521826
13	0xbe6487f3	-0.22317486
14	0xbdb454e2	-0.088052526
15	0x3e7c3b14	0.24631912
16	0x3e776c4f	0.2416241
17	0xbdd69eca	-0.10479505
18	0x3e66e341	0.22547628
19	0x3e8631dd	0.26209918
20	0x3ef932d2	0.48671585
21	0x3ed90576	0.4238698
22	0x3e0942ae	0.13404343
23	0x3e8a0526	0.26957053
24	0x3f1080ee	0.5644673
25	0xbf0d8e33	-0.55295104
26	0xbca8e9cf	-0.020619301
27	0x3ed1dc75	0.40988508
28	0xbe0604f2	-0.13087824
29	0xbea9f2ec	-0.33193147
30	0xbeaf085a	-0.3418606
31	0xbe8d322e	-0.27577347
32	0xbe6a3e89	-0.22875418
33	0xbe93ecf2	-0.28891712
34	0x3e1f3be8	0.15550196
35	0x3e03a611	0.12856318
36	0xbf112afc	-0.56706214
37	0xbe2311ff	-0.15924834
38	0x3e14877b	0.14504807
39	0xbe06e628	-0.13173735
40	0xbe0aaf2b	-0.13543384
41	0x3f01537c	0.5051801
42	0x3ed788e1	0.42096618
43	0x3e13e95b	0.14444487
44	0xbe8e4527	-0.27787134
45	0xbe8e25e7	-0.27763292
46	0xbd0cbfb1	-0.0343625
47	0xbe56e61c	-0.20986217
48	0xbeae3a6c	-0.34028947
49	0xbc1648f7	-0.00917267
50	0x3e823d5a	0.25437433
51	0x3e8b2159	0.2717388
52	0x3ec83a86	0.3910715
53	0xbf01653c	-0.50545096
54	0xbf39ff8e	-0.7265557
55	0x3dc76564	0.097361356
56	0xbd83ba6f	-0.06432044
57	0xbe6695a4	-0.22518021
58	0xbe3c4adb	-0.1838793
59	0xbf08152a	-0.53157294
60	0x3e9e46fb	0.3091353
61	0x3dbd86de	0.092542395
62	0xbd34c0aa	-0.04412905
63	0xbd9c856a	-0.07642634
64	0x3df2585b	0.11833259
65	0xbe0fbd6a	-0.140371
66	0xbeacaab8	-0.33723998
67	0x3b0d90d4	0.0021601217
68	0x3e900b4f	0.28133628
69	0xbf0cf349	-0.55058724
70	0x3f20d039	0.6281772
71	0x3eae931b	0.34096608
72	0xbcc067e6	-0.023487043
73	0x3e1742e8	0.14771616
74	0xbd01d8cd	-0.031700898

conv1.bias f4 [3]
0	0x3d6e8182	0.058228977
1	0xbd5b832f	-0.053591903
2	0x3d963072	0.07333459

conv2.weight f4 [4, 3, 3, 3]
0	0x3f223c36	0.63373125
1	0xbb62c29b	-0.0034600857
2	0x3e302451	0.17201354
3	0x3ecd636c	0.40114915
4	0xbe9036f2	-0.2816692
5	0x3ec1f861	0.3788481
6	0xbe2bf75c	-0.16793579
7	0xbd40009c	-0.04687558
8	0x3de80e34	0.11330834
9	0xbe97020b	-0.29493746
10	0xbeba6938	-0.364084
11	0xbf054c9d	-0.5207003
12	0xbeb09a88	-0.34492898
13	0xbe123cb6	-0.14280972
14	0xbf063c7f	-0.5243606
15	0xbdf483da	-0.11939211
16	0xbe71d55a	-0.23616543
17	0xbf392778	-0.7232585
18	0xbedf8d9d	-0.4366273
19	0xbea8f9e1	-0.33003142
20	0xbe2e9305	-0.17048271
21	0xbd5de679	-0.054174874
22	0xbe2ab1fa	-0.16669455
23	0xbe210955	-0.15726216
24	0xbf3b4568	-0.7315278
25	0xbd85ae16	-0.06527345
26	0xbd08e73c	-0.033423647
27	0x3ed04bd5	0.40682855
28	0x3eb45554	0.3522135
29	0x3c1b91da	0.009495223
30	0x3d612c69	0.054973993
31	0x3d9a6fce	0.07540856
32	0x3e930ef6	0.28722352
33	0x3c7bd119	0.015369677
34	0x3e8f44fe	0.27982324
35	0x3d6e40ee	0.05816739
36	0xbee91ba8	-0.45528913
37	0xbede5ab8	-0.43428588
38	0xbf0adbc4	-0.54241586
39	0xbe4c0ae6	-0.19926032
40	0xbe5dae37	-0.21648489
41	0xbf2d47fc	-0.67687964
42	0xbe9eaebc	-0.30992687
43	0xbd6f146f	-0.058369096
44	0xbee08db8	-0.43858123
45	0xbe9555fe	-0.2916717
46	0xbed6e7ad	-0.4197363
47	0xbedf54f4	-0.43619502
48	0xbeaf2515	-0.3420798
49	0x3dd00acb	0.101583086
50	0xbe8e97db	-0.27850232
51	0x3d837a48	0.06419808
52	0xbe5d77c3	-0.21627717
53	0xbe8bc32e	-0.27297348
54	0x3cfb26ab	0.030658087
55	0x3e728084	0.23681837
56	0xbf447ce9	-0.767531
57	0xbea320dd	-0.3186101
58	0xbe7f60a7	-0.24939214
59	0x3dd5f4b6	0.104470655
60	0xbe9013ad	-0.2814001
61	0xbe6f7fd9	-0.23388614
62	0xbe8de532	-0.27713925
63	0x3ecb3198	0.39686275
64	0x3eb5ef98	0.35534358
65	0x3ea8ad22	0.3294459
66	0x3de97f74	0.11401263
67	0x3f00717e	0.50173175
68	0x3e99bc1c	0.3002633
69	0x3e3b59c2	0.18295959
70	0x3e5eaa23	0.2174459
71	0x3ecf1b4e	0.4045052
72	0x3e0297dc	0.12753242
73	0x3db5158f	0.088420026
74	0x3c8b5154	0.017006554
75	0x3cce0994	0.025151052
76	0x3dbcb51f	0.092142336
77	0x3da256ad	0.07926688
78	0xbda1e950	-0.07905829
79	0xbcfde74a	-0.030994076
80	0x3ec8c872	0.39215428
81	0x3ed7cf39	0.42150286
82	0x3e6d4ec0	0.23174572
83	0xbda55d2c	-0.08074412
84	0x3e4118f5	0.18857177
85	0xbd417b6a	-0.047236837
86	0x3eea7ca6	0.45798224
87	0x3ebdb6ce	0.3705353
88	0x3e648325	0.22315653
89	0x3e8cf17a	0.27527982
90	0xbf003b54	-0.5009053
91	0xbea71f75	-0.32641187
92	0xbe1a7f60	-0.15087652
93	0xbe9daa92	-0.30794197
94	0xbe9e6401	-0.30935672
95	0xbc3cc6de	-0.011522023
96	0xbead2cba	-0.33823186
97	0xbe8159a9	-0.25263718
98	0xbe01cb65	-0.12675245
99	0xbd1ee15b	-0.038789134
100	0xbd2ac9a7	-0.041696217
101	0x3e0e7605	0.13912208
102	0x3e973555	0.29532877
103	0x3dfa4128	0.12219459
104	0x3e6753f5	0.22590621
105	0xbd27cc0a	-0.04096607
106	0x3e04ed06	0.12981042
107	0x3e3c9001	0.18414308

conv2.bias f4 [4]
0	0x3da84c55	0.08217684
1	0x3d1bd921	0.038048867
2	0xbcfda668	-0.030963138
3	0x3aa296be	0.0012404544

conv3.weight f4 [12, 4, 3, 3]
0	0x3e32a169	0.17444386
1	0xbed1252d	-0.40848675
2	0x3e2dbd6f	0.16966794
3	0xbe1568c4	-0.14590746
4	0xbe1caa4e	-0.15299341
5	0xbedc915a	-0.43079644
6	0xbd622cbe	-0.05521845
7	0x3e080b5f	0.13285588
8	0x3d8a8f9e	0.06765674
9	0xbd8d04fd	-0.06885717
10	0xbebccc02	-0.36874396
11	0x3e7da4b6	0.24769863
12	0xbc718057	-0.014740071
13	0x3dd2c55e	0.10291551
14	0x3c91d416	0.017801326
15	0x3c5c66cb	0.013452242
16	0x3e73ba5b	0.23801558
17	0x3e0f1a22	0.13974813
18	0x3f2a64d9	0.6656013
19	0xbddce864	-0.107865125
20	0x3f165f11	0.5873881
21	0xbe49a13d	-0.19690414
22	0xbebb558c	-0.36588705
23	0x3e54d9dd	0.20786233
24	0x3efa098b	0.48835406
25	0x3e34f0df	0.1767001
26	0x3ec1d2e5	0.37856212
27	0x3dd6d1ac	0.104892105
28	0x3dd3ef4e	0.10348378
29	0x3da86e8b	0.082242094
30	0xbbb79949	-0.00560299
31	0xbe8280d1	-0.25488904
32	0x3b012e28	0.001971135
33	0xbd81bec0	-0.06335211
34	0x3e1644a9	0.1467463
35	0x3c2aee2c	0.010432761
36	0x3d13b1eb	0.036058348
37	0xbe69a862	-0.22818139
38	0xbef4388a	-0.47699386
39	0xbe15b576	-0.14620003
40	0xbdd01ca1	-0.101617105
41	0xbedb71c0	-0.42860222
42	0x3e91d566	0.28483123
43	0xbde97bc3	-0.11400559
44	0xbcca09db	-0.024662903
45	0xbb95df3e	-0.0045737317
46	0xbd78f9ce	-0.060785107
47	0x3dd5b649	0.10435159
48	0xbe39a422	-0.18129018
49	0xbe53c942	-0.20682243
50	0x3dd24af5	0.10268203
51	0x3ef73a91	0.4828687
52	0x3ed2676b	0.41094527
53	0x3e7da01f	0.24768113
54	0x3d912073	0.07086267
55	0x3d364f93	0.04450948
56	0x3e1f4df0	0.15557075
57	0x3e03d006	0.12872323
58	0xbe6692af	-0.22516893
59	0xbe374eb0	-0.1790111
60	0x3d4e13a1	0.05031169
61	0x3cc57a92	0.024106298
62	0xbea7332f	-0.32656237
63	0xbe7cc8e2	-0.24686006
64	0xbeb02cb3	-0.34409103
65	0xbde3278e	-0.11091529
66	0xbdb047da	-0.086074546
67	0xbeb21cb4	-0.34787524
68	0xbeb1519f	-0.34632584
69	0xbe2b3d9e	-0.16722724
70	0x3eb8420b	0.35987887
71	0x3ea3ad42	0.31968123
72	0x3ece6e1c	0.40318382
73	0x3d40e5e3	0.047094237
74	0x3daac48e	0.08338271
75	0xbe2611fa	-0.16217795
76	0x3de76e25	0.11300305
77	0x3e1d6b89	0.15373053
78	0xbdb35c77	-0.08757871
79	0xbe161c4c	-0.14659232
80	0x3d9499e3	0.07255914
81	0x3f1f4d9d	0.62227803
82	0x3e31ab45	0.1735049
83	0x3e6218d5	0.22079785
84	0xbe0e6165	-0.1390434
85	0xbe5173cf	-0.20454334
86	0x3e50b8a5	0.20382936
87	0xbe2d7601	-0.16939546
88	0xbe1148d0	-0.14187932
89	0x3ec1d2d5	0.37856165
90	0xbe508e2e	-0.20366737
91	0xbe4275cd	-0.1899025
92	0x3cfe7473	0.031061387
93	0x3e78fede	0.24315974
94	0x3e057b42	0.130353
95	0xbeb0e2f1	-0.34548143
96	0xbdf83c0d	-0.12120829
97	0x3ec8f4db	0.3924931
98	0xbe842430	-0.2580886
99	0x3f0a89ac	0.5411632
100	0x3d863959	0.06553907
101	0x3d727d0c	0.059201285
102	0x3edc27ac	0.42999017
103	0x3e1826c0	0.14858532
104	0xbb12c85c	-0.0022397256
105	0xbde7018d	-0.11279593
106	0xbebeb15d	-0.37244692
107	0xbeb399db	-0.3507832
108	0xbc0a1e3c	-0.00843006
109	0x3a6a1b23	0.0008930435
110	0xbecbabcf	-0.39779517
111	0x3d22c830	0.039741695
112	0x3cd26d6a	0.025686938
113	0xbdafdb45	-0.08586744
114	0xbeb64dd9	-0.35606268
115	0xbf00ecc8	-0.503613
116	0xbe9e7f8a	-0.3095668
117	0xbe095fcc	-0.1341545
118	0xbe4341b8	-0.19068038
119	0xbe9d609c	-0.3073777
120	0xbd5329da	-0.051553585
121	0xbd809f8b	-0.062804304
122	0xbea87d52	-0.32908112
123	0x3e6cf9f2	0.23142222
124	0x3e40c7cb	0.18826215
125	0xbdadf016	-0.084930584
126	0xbf15f343	-0.5857431
127	0x3ea87827	0.3290417
128	0xbe096ba6	-0.13419971
129	0x3dc390e0	0.09549117
130	0xbc715dc9	-0.014731833
131	0x3e82d838	0.25555587
132	0xbe1d2749	-0.15347017
133	0x3f0a20b0	0.5395613
134	0xbdfc11bb	-0.12308069
135	0xbdb493f4	-0.08817282
136	0x3e3ecd58	0.1863302
137	0x3db0fcf1	0.08641995
138	0xbd815099	-0.06314201
139	0x3e9a6f63	0.30163106
140	0x3da9f9d1	0.08299602
141	0x3e2bf2aa	0.16791788
142	0xbe7f8279	-0.24952115
143	0xbecd1290	-0.40053225
144	0xbd6124de	-0.0549668
145	0x3d58c3fe	0.052921288
146	0xbbeb435f	-0.007179662
147	0x3e7fddba	0.24986926
148	0x3d9274d1	0.07151187
149	0x3e3028d9	0.17203082
150	0xbdf95687	-0.12174707
151	0x3e132b68	0.14372027
152	0x3dfebf95	0.12438885
153	0x3db6c9da	0.08925219
154	0x3ed2853b	0.41117272
155	0x3eed1c8f	0.4631085
156	0x3db5c30c	0.08875093
157	0xbe4678a5	-0.1938196
158	0x3ccfe0a8	0.02537568
159	0xbe76dfc3	-0.24108796
160	0xbe66e3ea	-0.2254788
161	0xbd405eaf	-0.046965297
162	0x3f099d99	0.537561
163	0x3e2d61b5	0.16931804
164	0xbe947df8	-0.29002357
165	0x3be2d841	0.006922752
166	0x3e077844	0.13229471
167	0xbeec8d65	-0.46201625
168	0xbdff61a8	-0.12469798
169	0xbeaa8244	-0.3330251
170	0xbeab4f57	-0.3345897
171	0xbeb7b87c	-0.35882938
172	0xbd057edb	-0.032591682
173	0xbe841b9a	-0.25802308
174	0x3e40c569	0.18825306
175	0x3cef3d1f	0.02920395
176	0x3daa2952	0.083086625
177	0x3dd5994b	0.10429629
178	0x3d438f14	0.04774387
179	0x3cc1a29a	0.023637105
180	0xbe09f97b	-0.13474075
181	0x3e7c44b5	0.24635585
182	0xbe8c69e1	-0.2742453
183	0x3c10b412	0.008831995
184	0xbdaba268	-0.08380586
185	0xbce5a472	-0.028032515
186	0xbea56694	-0.32304823
187	0xbe792dfb	-0.24333946
188	0x3cd78248	0.02630724
189	0xbbbc69d7	-0.005749922
190	0xbeadc628	-0.33940244
191	0xbdc6e28e	-0.097111806
192	0x3dd4af36	0.10384981
193	0xbe29e7d4	-0.16592342
194	0x3ddda423	0.10822322
195	0xbd17bd5a	-0.037045814
196	0x3e4cfc05	0.20018013
197	0x3e42d2c8	0.19025719
198	0xbdb56101	-0.08856393
199	0x3e8f66d3	0.28008136
200	0x3e8194f9	0.2530897
201	0xbe19b605	-0.15010841
202	0xbd8b7a1d	-0.06810401
203	0x3eb5c48f	0.35501525
204	0xbe255bf7	-0.16148363
205	0xbe4a8ae5	-0.19779547
206	0x3e080096	0.13281474
207	0xbd4080ef	-0.04699796
208	0xbbdfde55	-0.006831924
209	0x3d949ac1	0.072560795
210	0x3e0e74ae	0.13911697
211	0xbe07573a	-0.13216868
212	0x3e0f3bc2	0.1398764
213	0xbc4c01db	-0.012451614
214	0x3eb75a2f	0.35810992
215	0x3b6a6216	0.003576403
216	0xbcc7d246	-0.024392258
217	0xbd8219bb	-0.06352564
218	0x3de9efe3	0.11422708
219	0x3e4ea43c	0.20179838
220	0xbd59b4b0	-0.053150833
221	0xbe29483c	-0.16531461
222	0x3ec4307a	0.38318235
223	0x3d668878	0.05628249
224	0xbe89bf72	-0.26903874
225	0xbe5783d3	-0.2104638
226	0x3d932900	0.071855545
227	0xbe80c00e	-0.25146526
228	0xbe0f19b7	-0.13974653
229	0xbdbecdbc	-0.093165845
230	0x3dba3875	0.090927996
231	0x3e7c1e1b	0.2462086
232	0x3eefa297	0.46803734
233	0xbe6cecd6	-0.2313722
234	0xbe54ab4d	-0.20768471
235	0xbbfdb635	-0.007742668
236	0xbec90805	-0.3926393
237	0x3e4167b1	0.18887211
238	0xbcccec1d	-0.025014931
239	0x3bf09158	0.007341545
240	0xbe341c93	-0.17589025
241	0x3e1e64c1	0.15468122
242	0x3ba45858	0.005015414
243	0xbf0fd56c	-0.5618503
244	0xbe94f302	-0.2909165
245	0x3c8d2f02	0.01723433
246	0xbd8bd8bc	-0.06828448
247	0x3d9f4fb6	0.077788755
248	0xbe818802	-0.25299078
249	0x3ef2d236	0.47426003
250	0xbb076dca	-0.0020664805
251	0xbe7ea2b9	-0.24866761
252	0xbdf887f0	-0.12135303
253	0xbe715e7b	-0.23571198
254	0x3d3bce2e	0.045850925
255	0xbe4de03d	-0.20105071

conv3.bias f4 [12]
0	0x3dcc5952	0.09977974
1	0xbe00b51a	-0.12569085
2	0x3c96e114	0.018417872
3	0x3dc6b4c0	0.09702444
4	0xbd9821fe	-0.074283585
5	0xbd6ec916	-0.05829724
6	0x3d65ca47	0.05610111
7	0xbceee7cf	-0.02916327
8	0x3e060c3c	0.13090605
9	0x3cd6891a	0.026188422
10	0xbda8346d	-0.082131244
11	0xbd2a5bea	-0.041591562

conv4.weight f4 [16, 12, 3, 3]
0	0xbe274d9a	-0.16338196
1	0xbeb1d937	-0.34736034
2	0xbe9b27d3	-0.3030382
3	0xbe20ab0a	-0.15690246
4	0x3eaea888	0.34112954
5	0x3e7e2c12	0.24821499
6	0xbdd327e3	-0.10310342
7	0x3cc9c4a3	0.024629897
8	0x3e87acd6	0.2649905
9	0xbdfbeff5	-0.123016275
10	0xbe4e5a76	-0.20151696
11	0xbeac801c	-0.3369149
12	0xbe766375	-0.24061377
13	0xbd097ed9	-0.033568237
14	0xbdd7b175	-0.10531894
15	0xbebe857e	-0.3721122
16	0xbdfc5294	-0.12320438
17	0xbda49f09	-0.08038146
18	0x3c36e9bb	0.011164124
19	0xbe33befd	-0.17553325
20	0x3d97f638	0.074200094
21	0x3d29c64e	0.041448884
22	0x3ad60560	0.0016328506
23	0x3d99177f	0.07475185
24	0x3dc58907	0.096452765
25	0xbd46f801	-0.04857636
26	0xbc014f8e	-0.0078925025
27	0xbdd7ad60	-0.105311155
28	0xbd92e44d	-0.07172451
29	0xbe9b8b08	-0.3037951
30	0x3c353e74	0.011062253
31	0x3e7c0d9d	0.24614568
32	0x3d6f16b6	0.05837127
33	0x3d265442	0.0406077
34	0x3e27ea87	0.16398059
35	0x3e925f42	0.285883
36	0x3c75facd	0.015013409
37	0x3e92d9f2	0.28681904
38	0x3e2fdefa	0.17174903
39	0x3db86ba6	0.09004907
40	0xbce63bfa	-0.02810477
41	0x3dfc60a9	0.12323124
42	0x3e099d17	0.13438831
43	0xbbac9fee	-0.0052680885
44	0x3ddbb53c	0.10727927
45	0x3c76f7c7	0.015073723
46	0xbe282da9	-0.16423668
47	0x3e191c5e	0.14952227
48	0xbe2532a2	-0.16132596
49	0xbb98c356	-0.0046619577
50	0xbe7bb6d9	-0.2458147
51	0xbe9d1f69	-0.30688027
52	0xbe8709a2	-0.26374537
53	0x3e5d7e2f	0.21630166
54	0xbdce6900	-0.10078621
55	0xbe6b0a07	-0.22953044
56	0xbe946fe0	-0.28991604
57	0xbdba2cf4	-0.090906054
58	0x3d34a8ee	0.044106416
59	0xbd3d7057	-0.046249714
60	0xbdf7bca5	-0.12096528
61	0x3dd91d53	0.10601296
62	0xbd11c9e7	-0.03559294
63	0xbd4bef45	-0.049788732
64	0xbdda1291	-0.106480725
65	0xbdd2c94f	-0.10292303
66	0xbd794cc2	-0.060864218
67	0x3e0aa985	0.13541229
68	0x3e4676e2	0.19381288
69	0x3e047ad7	0.12937485
70	0xbd3fa048	-0.046783715
71	0xbe822d0d	-0.25424996
72	0x3daa23d9	0.08307619
73	0x3e83bede	0.25731558
74	0xbdaae9cd	-0.08345375
75	0x3dbf932e	0.09354244
76	0x3da4afe2	0.080413595
77	0x3eb54b40	0.35408974
78	0xbd6599c8	-0.05605486
79	0x3e081eeb	0.13293044
80	0xbd9782a5	-0.07397965
81	0x3d29c55f	0.041447993
82	0x3e14f205	0.14545448
83	0xbe11def7	-0.1424521
84	0xbef02a98	-0.46907496
85	0xbded40c3	-0.11584618
86	0x3e38499f	0.17996834
87	0xbe76763f	-0.24068545
88	0x3af7ea4b	0.0018914429
89	0xbcb63b22	-0.022244994
90	0x3e0c7226	0.13715419
91	0xbdfa3dde	-0.122188315
92	0x3d14afd0	0.03630048
93	0x3d0aec16	0.033916555
94	0xbd8ff578	-0.07029241
95	0x3d9846ca	0.07435377
96	0x3c36254c	0.011117291
97	0x3e7beadd	0.24601312
98	0xbe501642	-0.2032099
99	0xbe28c1af	-0.16480134
100	0x3d852676	0.065014765
101	0xbb7d5299	-0.0038653968
102	0x3da989f9	0.08278269
103	0x3c9330b2	0.017967556
104	0xbb913af2	-0.0044320757
105	0x3d48fd4c	0.049069688
106	0xbdff21e1	-0.12457634
107	0xbe203fff	-0.15649413
108	0x3db8c627	0.090221696
109	0xbe34394d	-0.17599984
110	0xbe600ec3	-0.21880631
111	0xbcf7d65a	-0.030253578
112	0xbd617d87	-0.055051353
113	0x3cf50c25	0.029913018
114	0xbd9202b8	-0.07129425
115	0xbe2aaa4c	-0.16666526
116	0xbd787cc1	-0.06066585
117	0x38e447b6	0.000108852444
118	0xbe6b7a7c	-0.22995943
119	0xbe6324e5	-0.22182043
120	0x3cb439b7	0.022000177
121	0x3d6bbcf0	0.05755323
122	0x3d7fd4d5	0.06245883
123	0x3d86a3ee	0.06574236
124	0xbdf5a2d5	-0.11993948
125	0x3e12ee89	0.14348806
126	0xbe81583a	-0.25262624
127	0x3d2885be	0.04114317
128	0xbe756046	-0.23962507
129	0xbda2d7ba	-0.07951303
130	0x3de8bed7	0.11364525
131	0x3d2b859a	0.04187546
132	0xbe34985f	-0.1763625
133	0xbe490865	-0.19632109
134	0x3dac2016	0.084045574
135	0xbd9dd1b4	-0.07706013
136	0x3e155486	0.14583024
137	0xbe5e96a7	-0.21737157
138	0xbbee0405	-0.0072636628
139	0x3d50a847	0.05094173
140	0x3e68d53c	0.22737592
141	0xbe39d33f	-0.1814699
142	0x3de66aa2	0.11250807
143	0xbcde4e57	-0.027136965
144	0x3d9ab212	0.075534955
145	0x3e75eaf9	0.24015416
146	0x3dfd8291	0.12378419
147	0x3e28c57b	0.16481583
148	0xbdb981b5	-0.09057943
149	0xbc05d868	-0.008169271
150	0xbe3b5e75	-0.18297751
151	0xbc0707d7	-0.008241615
152	0xbddca0cd	-0.10772858
153	0x3c4f12f1	0.012638793
154	0x3e0c8e07	0.13726054
155	0x3e846557	0.25858566
156	0xbbde8161	-0.0067903255
157	0x3d737b30	0.059443653
158	0xbea2c8a9	-0.31793717
159	0x3e4e347e	0.20137212
160	0x3c56503a	0.013080651
161	0xbe54f155	-0.20795186
162	0xbe6da30f	-0.23206733
163	0x3c800b5e	0.01563042
164	0x3e2fa31a	0.17152062
165	0x3d33b2ff	0.043871876
166	0xbc2c5ad9	-0.010519707
167	0x3bacebca	0.0052771317
168	0xbc8a4c0a	-0.016881961
169	0xbd04115d	-0.03224312
170	0xbea5678b	-0.3230556
171	0xbde1ec3a	-0.11031385
172	0xbdaaec09	-0.083458014
173	0xbdfeb938	-0.124376714
174	0x3e981e14	0.29710448
175	0xbe6e7c8d	-0.232897
176	0xbe5ac9c5	-0.21366031
177	0xbe27ee50	-0.16399503
178	0xbe95a659	-0.29228476
179	0xbf0481d9	-0.5176063
180	0x3d1956bb	0.03743623
181	0xbd6715fa	-0.056417443
182	0x3df1d5e6	0.11808376
183	0xbd804015	-0.06262223
184	0x3bf38f85	0.0074328803
185	0x3af414eb	0.0018621957
186	0xbd99fc02	-0.0751877
187	0xbe1dd902	-0.15414813
188	0x3d8975b8	0.06711906
189	0xbdaedff1	-0.08538807
190	0xbead25dc	-0.33817947
191	0xbcbea8d3	-0.023273861
192	0xbbc5e369	-0.0060390723
193	0x3e79c5fe	0.24391934
194	0xbe3586b3	-0.17727165
195	0x3e6bbf1a	0.23022118
196	0x3e328a7c	0.1743564
197	0x3e13ba86	0.14426622
198	0xbe2ad775	-0.16683753
199	0x3d21933b	0.03944705
200	0xbe03ec62	-0.12883142
201	0x3e2ca785	0.16860779
202	0x3d989f23	0.07452228
203	0x3b29bb28	0.0025898907
204	0x3e8ddafa	0.27706128
205	0xbe412168	-0.188604
206	0xbd68272c	-0.056677982
207	0xbdd4b374	-0.103857905
208	0xbd37501c	-0.044754133
209	0x3d457af5	0.048212964
210	0xbd29e3b9	-0.04147694
211	0x3e90ec50	0.28305292
212	0xbe32be31	-0.17455365
213	0xbc113cc0	-0.008864582
214	0xbe54bddf	-0.20775555
215	0x3dd85b86	0.10564332
216	0xbb25bcc3	-0.0025289513
217	0x3d96548a	0.07340343
218	0xbd1d11f2	-0.038347192
219	0xbea1d504	-0.3160783
220	0xbdf5098c	-0.119647115
221	0xbd8d5ef1	-0.06902874
222	0xbd265f98	-0.04061851
223	0xbce8a5b9	-0.028399335
224	0x3e00d536	0.12581334
225	0x3e2a8dc9	0.16655649
226	0x3e0d4126	0.13794383
227	0x3e02598c	0.12729472
228	0x3e498880	0.19680977
229	0x3e537c91	0.20652987
230	0x3e89295a	0.2678936
231	0x3e6daf37	0.2321137
232	0x3c102f5f	0.008800357
233	0x3e0b3830	0.13595653
234	0x3d5d3c70	0.054012716
235	0xbe74196a	-0.2383782
236	0x3e8cb5ad	0.27482358
237	0x3cd4ace8	0.025961354
238	0xbebcf953	-0.3690897
239	0x3de6d008	0.112701476
240	0x3e701268	0.23444521
241	0x3c43b4fb	0.011945005
242	0x3e8c61d9	0.27418402
243	0xbe15b4c5	-0.1461974
244	0x3e861ed6	0.261954
245	0xbe042263	-0.12903742
246	0xbe687b6e	-0.22703335
247	0x3e6a9b7d	0.22910877
248	0x3ee0ad69	0.438823
249	0xbdaa544e	-0.08316861
250	0x3e7a75d4	0.2445901
251	0xbde08f92	-0.10964884
252	0xbde79090	-0.1130687
253	0x3d7cc3ae	0.061710052
254	0xbe24263d	-0.16030212
255	0xbdb84a28	-0.08998519

conv4.bias f4 [16]
0	0x3d382753	0.044959377
1	0xbd2c5d86	-0.04208138
2	0xbde74cc6	-0.1129394
3	0x3ce303c0	0.02771175
4	0x3cc5e1db	0.024155548
5	0xbd9c1476	-0.0762109
6	0xbd81173b	-0.06303259
7	0xbcedc0b0	-0.029022545
8	0xbd67c302	-0.05658246
9	0x3cabf6d5	0.020991722
10	0x3dbe0087	0.09277444
11	0x3df07e24	0.117428094
12	0x3d08f177	0.033433404
13	0xbcd21b8d	-0.025647903
14	0x3c5c67d9	0.013452494
15	0x3df75448	0.12076622

bn1.weight f4 [3]
0	0x3f8455e1	1.0338708
1	0x3f82dfed	1.0224587
2	0x3f11d69c	0.5696809

bn1.bias f4 [3]
0	0x3d1f63d7	0.038913574
1	0x3eea94b0	0.45816565
2	0x3e79a323	0.24378638

bn1.running_mean f4 [3]
0	0x3f6948a0	0.9112644
1	0xbf0d1f73	-0.5512611
2	0xbcb77993	-0.022396838

bn1.running_var f4 [3]
0	0x3fd0fc8a	1.6327069
1	0x3f159a01	0.58438116
2	0x3ec06c57	0.37582657

bn2.weight f4 [4]
0	0x3f6ff027	0.9372582
1	0x3f5c38ba	0.8602406
2	0x3f6c84fb	0.9239041
3	0x3f874c01	1.057007

bn2.bias f4 [4]
0	0x3e0b516e	0.13605282
1	0x3d7f47a3	0.062324177
2	0x3e966397	0.29372856
3	0x3e9c2dce	0.30503696

bn2.running_mean f4 [4]
0	0xc006b6b1	-2.1049006
1	0xc0045bb0	-2.0680962
2	0x3faa1b3a	1.3289559
3	0xbf0e27a5	-0.5552924

bn2.running_var f4 [4]
0	0x40bd9874	5.92486
1	0x40db862c	6.8601284
2	0x40cbb0a8	6.3653145
3	0x40ddae2f	6.9275126

bn3.weight f4 [12]
0	0x3f999c38	1.2000799
1	0x3f92f058	1.1479597
2	0x3f745b71	0.9545203
3	0x3f6c5c63	0.9232847
4	0x3f589e6a	0.8461672
5	0x3f60719b	0.8767335
6	0x3f6c96bc	0.924175
7	0x3f8244d8	1.017726
8	0x3f579381	0.8420945
9	0x3f9f1b88	1.2430277
10	0x3f5f7b35	0.87297374
11	0x3f5ef67a	0.87094843

bn3.bias f4 [12]
0	0x3de8343e	0.113380894
1	0x3e922a78	0.28548026
2	0xbdede9ca	-0.11616857
3	0x3ecdb41f	0.40176484
4	0xbd8b0fc1	-0.06790114
5	0xbd5feb90	-0.05466801
6	0xbe57566b	-0.2102906
7	0x3dccc3c0	0.09998274
8	0xbd55d5c8	-0.05220583
9	0x3e3bfaf7	0.18357454
10	0x3a087c8c	0.0005206547
11	0xbe7d7d1e	-0.2475476

bn3.running_mean f4 [12]
0	0x3f5d1771	0.86363894
1	0xbf4a8574	-0.79109883
2	0x3ed00fd4	0.40637076
3	0xbf016c74	-0.5055611
4	0xbe286c51	-0.1644757
5	0x3d9db8b2	0.077012435
6	0xbef00ce0	-0.46884823
7	0xbebd3eda	-0.36962014
8	0xbf32b2fe	-0.6980437
9	0x3f5003ed	0.8125599
10	0x3f0deb18	0.5543685
11	0x3f448806	0.76770055

bn3.running_var f4 [12]
0	0x3f4a3990	0.78994083
1	0x3f9f1b91	1.2430288
2	0x4008620e	2.1309848
3	0x403c3340	2.940628
4	0x3f315704	0.692734
5	0x3e6066df	0.21914242
6	0x3e89d89b	0.2692307
7	0x3f99fc71	1.2030164
8	0x3ed609ab	0.4180425
9	0x407eab21	3.9791949
10	0x4047a61b	3.1195133
11	0x3fc0d457	1.5064801

bn4.weight f4 [16]
0	0x3f33b01a	0.70190585
1	0x3f28db43	0.65959567
2	0x3f68bcee	0.90913284
3	0x3f7c933d	0.9866217
4	0x3f31019d	0.69143087
5	0x3f83a24e	1.0283906
6	0x3f3e993e	0.7445258
7	0x3ef03c88	0.46921182
8	0x3f017412	0.50567734
9	0x3f6135fe	0.8797301
10	0x3f2f86be	0.68564975
11	0x3f5ed1b2	0.8703872
12	0x3f60f74d	0.8787735
13	0x3f22241b	0.6333634
14	0x3f078d5d	0.5295008
15	0x3f320dac	0.6955211

bn4.bias f4 [16]
0	0x3e5fbe9f	0.2185006
1	0x3e0553aa	0.13020197
2	0xbe2a5637	-0.16634451
3	0xbe072feb	-0.13201873
4	0xbcfa72af	-0.030572264
5	0xbe14ba45	-0.14524181
6	0xbe57743e	-0.21040437
7	0x3ef4188c	0.47674978
8	0x3dee6e73	0.1164216
9	0xbe9031f0	-0.281631
10	0x3e195579	0.14974011
11	0xbd50ef54	-0.05100949
12	0xbe244c2f	-0.16044687
13	0x3da4eb87	0.08052736
14	0x3d9ae9d7	0.07564133
15	0x3dbf3bc5	0.09337572

bn4.running_mean f4 [16]
0	0xbf8d5e9a	-1.1044495
1	0xbf854fd1	-1.0414983
2	0x3facb7e7	1.3493623
3	0x3f0a500d	0.540284
4	0xbf304b03	-0.6886446
5	0x3ecb2798	0.39678645
6	0x3eef3a7d	0.4672431
7	0xbf03a075	-0.51416713
8	0xbeea4266	-0.45753783
9	0x3f788514	0.9707806
10	0xbf8836d4	-1.0641732
11	0x3f6c8c2b	0.9240138
12	0x3eff4e4d	0.49864426
13	0xbed3fa12	-0.41401726
14	0xbe3e36da	-0.18575612
15	0xbf1b6a67	-0.6070923

bn4.running_var f4 [16]
0	0x3fdcc8c2	1.7248766
1	0x3fad638f	1.3546008
2	0x3f85a76a	1.0441716
3	0x3f91077d	1.133041
4	0x3fc1749d	1.5113713
5	0x40202334	2.5021486
6	0x3f39577e	0.7239913
7	0x3f508d6b	0.81465787
8	0x3f5fb986	0.8739246
9	0x3f0f3e33	0.55954283
10	0x3f96ec51	1.1790868
11	0x3f97de15	1.1864649
12	0x3f810ac0	1.0081406
13	0x40276e8d	2.6161225
14	0x3f811bef	1.008665
15	0x3f91a8ea	1.1379673

fc5.weight f4 [32, 16]
0	0xba67ec45	-0.00088471576
1	0x38936f1d	7.030203e-05
2	0xba49b30c	-0.00076942216
3	0xb9e7c5ae	-0.00044207036
4	0xb9885760	-0.0002600504
5	0xb990ec51	-0.0002764189
6	0x3841a722	4.617044e-05
7	0xb9b6c20f	-0.0003485833
8	0xb922f6fd	-0.00015541534
9	0xb98096a0	-0.00024526287
10	0x3988bf5e	0.0002608252
11	0xb8c5ebd4	-9.4376184e-05
12	0xb7d62c85	-2.5531519e-05
13	0x38ea1364	0.00011161601
14	0xba000397	-0.00048833474
15	0xba857d18	-0.0010184376
16	0x3a1ac2bf	0.0005903653
17	0x394c966e	0.00019510995
18	0x3a0fe017	0.0005488409
19	0xbaa44bf7	-0.0012534846
20	0x3970c4c5	0.00022961486
21	0xb92fce81	-0.00016766229
22	0xb9a9460b	-0.00032286378
23	0xbaa1a719	-0.0012333124
24	0xb89989b5	-7.3212585e-05
25	0x3a8d68ab	0.001078864
26	0xb9298fc6	-0.00016170656
27	0x39c0383d	0.00036662995
28	0xba9a50d0	-0.0011773352
29	0xb92a2603	-0.00016226624
30	0x39564537	0.00020434415
31	0x398fee85	0.00027452796
32	0xba6d8d1b	-0.0009061859
33	0x3a239c96	0.00062412897
34	0xbb104672	-0.0022014645
35	0x3a2a28a2	0.000649104
36	0xba6ace32	-0.0008957117
37	0xba054285	-0.00050834595
38	0xb95d219c	-0.00021088723
39	0x39a0c264	0.0003066241
40	0x39e971af	0.00044525924
41	0x397d5eb2	0.00024163237
42	0x37ba8434	2.223449e-05
43	0x3a10b088	0.0005519469
44	0x380d28ea	3.3655124e-05
45	0xb952d8d0	-0.0002010793
46	0xb8378b44	-4.37603e-05
47	0xba56af3a	-0.0008189563
48	0x3dd0bf69	0.101927586
49	0xbdeb875a	-0.11500426
50	0xbf5086be	-0.814556
51	0x3e56df02	0.20983508
52	0xbeb2eead	-0.3494772
53	0x3f0650f4	0.52467275
54	0xbe0cbd80	-0.13744164
55	0xbf3ca2d3	-0.7368595
56	0x3f3a0a19	0.7267166
57	0x3f0e5542	0.55598843
58	0x3d93aa75	0.072102465
59	0xbf9296ea	-1.1452305
60	0x3f54c90f	0.8311929
61	0x3f29cb4f	0.6632585
62	0xbf69b0c0	-0.91285324
63	0x3dd27a65	0.10277251
64	0xbaaa86a6	-0.0013010099
65	0xb9be23f6	-0.00036266417
66	0x3a7fb6be	0.0009754709
67	0xba7c8063	-0.0009632168
68	0x39a78b1c	0.00031956367
69	0x3a661cc9	0.0008778093
70	0x3a0923dc	0.0005231479
71	0xba99564d	-0.0011698693
72	0xbabe1983	-0.0014503453
73	0xba0f19a0	-0.00054588355
74	0x3a6ce2ed	0.00090365
75	0xbab3a137	-0.0013704662
76	0xba468c8c	-0.00075740437
77	0x3a6a3c7f	0.0008935406
78	0xba01a649	-0.0004945738
79	0xb9880dcc	-0.0002595022
80	0xba09ab09	-0.00052516215
81	0xb9de8b4b	-0.0004244692
82	0x3994cd19	0.0002838157
83	0xba1b99e0	-0.000593571
84	0x3a670581	0.0008812771
85	0x39c0ff6a	0.00036811392
86	0x38e613fa	0.000109709756
87	0xb9700b18	-0.00022892316
88	0xb973b7d3	-0.00023242766
89	0xb9b8a183	-0.0003521555
90	0x39cc9ec1	0.00039028193
91	0xb8090fc7	-3.267804e-05
92	0xbab381d3	-0.0013695307
93	0xb305690f	-3.1062026e-08
94	0x3a01669d	0.000493625
95	0xb9a23a78	-0.0003094261
96	0x3a4f16aa	0.00078998005
97	0x3a1b29f4	0.0005919032
98	0x39bd28ea	0.00036079373
99	0xb9940fc7	-0.00028240515
100	0xb9aefee3	-0.00033377772
101	0xba467703	-0.0007570835
102	0x39010648	0.00012304739
103	0xba035e86	-0.00050113385
104	0xb9a09c1e	-0.00030633894
105	0x3a56f7ca	0.00082003756
106	0xba34c184	-0.0006895291
107	0xb9aa35fc	-0.00032465148
108	0x3a458c9c	0.0007535906
109	0xb99a2615	-0.00029401542
110	0xb99c3927	-0.0002979722
111	0x3a801ce2	0.0009774233
112	0x39c99490	0.00038448395
113	0x3a08c327	0.0005217068
114	0xba807ee7	-0.0009803445
115	0x3abbd430	0.0014330205
116	0x390cf77f	0.0001344364
117	0xb920e58e	-0.00015344305
118	0x390707e1	0.00012877538
119	0x3a6f8617	0.00091371074
120	0x3a80ae94	0.0009817653
121	0x38d610d5	0.000102074504
122	0x390696b5	0.00012835379
123	0xb90d545c	-0.00013478234
124	0x39076ae5	0.00012914425
125	0x39dda9da	0.00042278954
126	0x3a8d1deb	0.0010766363
127	0x39ed7ff8	0.00045299507
128	0x3848633a	4.7776128e-05
129	0xb9c2dda8	-0.0003716771
130	0xb7db0292	-2.6108031e-05
131	0x3a711d62	0.0009197799
132	0x39f63ead	0.00046967473
133	0xb843579a	-4.657321e-05
134	0x3992e92b	0.00028021014
135	0x3a0db804	0.00054061436
136	0x3985ba22	0.00025506417
137	0xb9f22a25	-0.00046189237
138	0x3984d150	0.00025332952
139	0xba376088	-0.000699528
140	0x3942a1c6	0.00018561547
141	0x38b23ceb	8.499048e-05
142	0x3995e803	0.00028592357
143	0x39530def	0.00020127719
144	0xbf055fd8	-0.5209937
145	0x3f33a134	0.7016785
146	0x3f0ec308	0.55766344
147	0x3f035e81	0.51316077
148	0x3eb15f63	0.34643087
149	0x3f43a777	0.76427406
150	0x3f4d5db6	0.80221117
151	0x3eafc5c5	0.34330574
152	0x3f124153	0.57130927
153	0x3ecd015f	0.4004011
154	0x3f43605a	0.76318896
155	0x3f198bee	0.5997914
156	0x3e84a9da	0.25910836
157	0xbd867be1	-0.06566597
158	0x3ddf948f	0.10917007
159	0x3f58fda7	0.8476204
160	0xb9382080	-0.00017559715
161	0xb9404069	-0.00018334542
162	0xba63ee84	-0.00086949044
163	0x3972cbc9	0.00023154834
164	0x3937231e	0.00017465322
165	0xb9e0f4ba	-0.00042906945
166	0xb996b2c1	-0.00028743412
167	0xb93e9d8e	-0.00018178506
168	0x39c96f4f	0.0003842064
169	0x3a73de9c	0.0009302886
170	0xb6235638	-2.4339079e-06
171	0x3a8e860f	0.0010873693
172	0xbabbb0b8	-0.0014319634
173	0xb9ea29d9	-0.00044663137
174	0x39bcf55d	0.00036040964
175	0xb80659fe	-3.20319e-05
176	0xba2d3e8d	-0.0006608747
177	0xb818e51f	-3.645301e-05
178	0x3a09c475	0.00052554096
179	0xb9d3b038	-0.0004037635
180	0x3a43a4eb	0.00074632344
181	0x3a77a38b	0.0009446672
182	0x3a11ab28	0.00055568153
183	0xba9e9b1b	-0.0012100668
184	0xba955c4b	-0.0011395303
185	0xba2dc3a6	-0.000662858
186	0x3ace791d	0.0015752647
187	0xbacb29e1	-0.0015500152
188	0xb9b6568c	-0.00034778228
189	0x3914af6e	0.00014179733
190	0x39b5dc92	0.00034687348
191	0xb9840a8e	-0.00025184866
192	0xba2ddf52	-0.00066327036
193	0xb9ff022e	-0.00048639014
194	0x3a78c9a7	0.0009490498
195	0xba2645f0	-0.0006342819
196	0x3a6a0cc6	0.0008928295
197	0x3a25d0fc	0.00063253916
198	0x396dce20	0.00022678869
199	0xb9afc6ce	-0.00033526722
200	0xb9fae1ed	-0.00047852044
201	0xba495422	-0.0007680078
202	0x3a0ca9d6	0.00053658837
203	0xba41d105	-0.0007393512
204	0xb94ece1a	-0.0001972247
205	0x392efe51	0.00016688673
206	0xb9b5b370	-0.00034656702
207	0xba01662e	-0.00049361854
208	0xba06c6df	-0.00051413284
209	0xba966fba	-0.0011477389
210	0x3a53e959	0.0008083783
211	0xba4a3e36	-0.00077149586
212	0x3adbd1bf	0.0016770883
213	0x3a9a7200	0.0011783242
214	0x3a6d3ea0	0.00090501644
215	0xb93a9f36	-0.00017797653
216	0xba74a342	-0.00093321886
217	0xba7baf76	-0.0009601036
218	0x3a8bfc21	0.0010679999
219	0xba9ed971	-0.0012119246
220	0xba4c2263	-0.00077871064
221	0x394c0dce	0.00019460099
222	0x35e28ebf	1.6879857e-06
223	0x394862a6	0.00019110236
224	0x3a02f430	0.0004995493
225	0x3a2c4e5d	0.00065729563
226	0xba1f43eb	-0.0006075489
227	0x3aab0f69	0.0013050857
228	0xba764b13	-0.0009395342
229	0xba5ac1d5	-0.0008344923
230	0xba04fc47	-0.00050729926
231	0x3a09a225	0.00052502967
232	0x39c9b892	0.00038475223
233	0xb95e0e94	-0.00021177
234	0xba46d4e5	-0.00075848243
235	0x3a5bf063	0.00083900074
236	0x3ac5d7d9	0.0015094235
237	0xb90c8d14	-0.00013403996
238	0x3a83c2ad	0.0010052525
239	0x3902706e	0.0001243965
240	0x38875f84	6.455093e-05
241	0x3a1bc6d7	0.000594241
242	0xbaa6d8b0	-0.0012729373
243	0xb9a75ed1	-0.00031923366
244	0x39111a60	0.00013838103
245	0x39d57d8d	0.00040720069
246	0xb79d9903	-1.878711e-05
247	0xbad88e5e	-0.0016521921
248	0xba95b8d4	-0.0011422881
249	0x3a4aaf15	0.0007731778
250	0x3944b3b9	0.00018758969
251	0xb9c9de13	-0.00038503166
252	0x39a60c41	0.00031671117
253	0x39cca06a	0.0003902943
254	0x3914d3de	0.00014193307
255	0xb836cfd1	-4.3585726e-05

fc5.bias f4 [32]
0	0x3a70783b	0.0009173189
1	0x39ed4221	0.00045253432
2	0x3a04ed9a	0.0005070806
3	0x3e5d299a	0.21597901
4	0x3a87d5d2	0.0010363406
5	0x39aa4c28	0.00032481668
6	0xb75aad6c	-1.30341905e-05
7	0xba9dda89	-0.0012043278
8	0xb9c2609c	-0.00037074543
9	0xbfa37b33	-1.2771972
10	0x3919891a	0.00014642291
11	0x39e600b9	0.00043869557
12	0x39aeec16	0.00033363764
13	0x390eb4a3	0.00013609468
14	0xba1c2bf0	-0.0005957475
15	0x3a300016	0.000671388
16	0xb9a0166b	-0.0003053428
17	0x399d0b07	0.0002995359
18	0xb9957dcd	-0.00028513224
19	0xba8e3703	-0.0010850135
20	0x3a0a4a6c	0.0005275372
21	0xba09b237	-0.00052526913
22	0xb939ffdd	-0.00017738291
23	0xb88d224b	-6.7297915e-05
24	0x3aa2a9e2	0.0012410248
25	0x3e9206c2	0.2852078
26	0x3a5c52bf	0.0008404664
27	0xba2205bb	-0.00061806635
28	0x39640488	0.00021745462
29	0xba865c85	-0.0010250962
30	0xbe68d510	-0.22737527
31	0xb9171fa6	-0.00014412272

fc6.weight f4 [32, 16]
0	0x36abc40a	5.119019e-06
1	0xb71a4011	-9.194032e-06
2	0x35e13a2b	1.6780735e-06
3	0x37070e36	8.049936e-06
4	0xb6cfe051	-6.1951946e-06
5	0x35eb4c40	1.7531056e-06
6	0xb4ffc99b	-4.764414e-07
7	0xb690da7f	-4.3169707e-06
8	0x365a9e08	3.2576518e-06
9	0xb5b6193e	-1.3567403e-06
10	0xb7822c3c	-1.5517806e-05
11	0x36111af3	2.162237e-06
12	0xb703fd2c	-7.867155e-06
13	0xb63316f6	-2.6686444e-06
14	0xb63365b9	-2.673229e-06
15	0x364db4d3	3.0652634e-06
16	0x3aa32314	0.0012446367
17	0x3a0b41e0	0.00053122453
18	0x3abad745	0.0014254829
19	0xba6c12bc	-0.0009005477
20	0x3ad91ca2	0.0016564319
21	0x3ab72aa5	0.0013974501
22	0xbb9c6111	-0.0047723134
23	0x3a59e616	0.00083121785
24	0x3a1e661b	0.00060424366
25	0x3c14161d	0.009038475
26	0x3a3e2be5	0.00072544656
27	0x3b5559ee	0.0032554823
28	0xbbe39b50	-0.006946005
29	0x3a96b39c	0.001149762
30	0x3a18af9e	0.0005824509
31	0x3acf7650	0.0015828107
32	0xb71b677d	-9.262815e-06
33	0x37ce6943	2.460613e-05
34	0xb6afd9bd	-5.2407545e-06
35	0xb8181ee0	-3.626838e-05
36	0x375b5b50	1.3074678e-05
37	0xb669ad83	-3.4820703e-06
38	0x36d2329d	6.26438e-06
39	0xb7a58bb7	-1.9734593e-05
40	0x37b34365	2.1369846e-05
41	0xb7fa5a27	-2.9844303e-05
42	0xb67c3b64	-3.7585496e-06
43	0xb7bc61ff	-2.245698e-05
44	0x366a73d6	3.4936143e-06
45	0xb771142b	-1.4369415e-05
46	0xb76256f1	-1.3490892e-05
47	0xb7965762	-1.7922084e-05
48	0xbdb5482b	-0.088516556
49	0x3f2acdb0	0.66720104
50	0x3ec6a8d5	0.38800684
51	0xbde0edeb	-0.10982879
52	0x3eaf598d	0.3424801
53	0x3ed50780	0.41607285
54	0x3f069e8c	0.52585673
55	0xbf3725d2	-0.71542084
56	0x3dbaeac1	0.09126807
57	0x3eba9c22	0.36447245
58	0xbf72b650	-0.94809437
59	0x3eed9294	0.46400893
60	0xbec74e19	-0.3892677
61	0xbde4984e	-0.11161862
62	0x3d92900e	0.071563825
63	0xbf7b6ebf	-0.9821586
64	0x36894e5c	4.0920404e-06
65	0xb7593c1d	-1.2948204e-05
66	0xb73a477a	-1.1103106e-05
67	0x36b0e66e	5.2720343e-06
68	0xb6887edb	-4.0678838e-06
69	0xb73ecfa2	-1.1373226e-05
70	0x380fc07e	3.427313e-05
71	0xb643b5bc	-2.9163048e-06
72	0xb739f051	-1.1082812e-05
73	0xb7a2ff42	-1.9430769e-05
74	0xb7c9c421	-2.4052397e-05
75	0xb7b0c917	-2.1074475e-05
76	0xb7a1c35d	-1.9283669e-05
77	0x36650ee3	3.4132324e-06
78	0xb812230c	-3.4841752e-05
79	0xb6985cc8	-4.540754e-06
80	0x3720f9fe	9.594949e-06
81	0x36f2892e	7.228132e-06
82	0xb60f0219	-2.1309882e-06
83	0x37c744a4	2.3754612e-05
84	0x3778cbb8	1.4829384e-05
85	0xb69884f4	-4.545431e-06
86	0xb6db1c14	-6.5299773e-06
87	0xb596059d	-1.1177505e-06
88	0xb5f88f70	-1.8519186e-06
89	0xb63d594c	-2.8215172e-06
90	0x3734368e	1.0741538e-05
91	0x36a8ba17	5.028454e-06
92	0xb68cfc5f	-4.201705e-06
93	0x372b119d	1.0196495e-05
94	0xb491d53d	-2.7163506e-07
95	0xb6312bf0	-2.640063e-06
96	0x37331ad6	1.067548e-05
97	0x37d03b69	2.4823197e-05
98	0x37c9a9c0	2.4040113e-05
99	0x37478ebe	1.1894559e-05
100	0x36e8c110	6.936614e-06
101	0x37b952a9	2.209221e-05
102	0xb7ed8fa9	-2.8319499e-05
103	0xb79d501a	-1.8753159e-05
104	0x36b0ee85	5.272976e-06
105	0x38023ac0	3.104913e-05
106	0xb76082d8	-1.3381905e-05
107	0x370a890d	8.257351e-06
108	0xb8577c14	-5.137555e-05
109	0x37412ba2	1.15138555e-05
110	0xb65aabb9	-3.2584487e-06
111	0xb7010291	-7.689597e-06
112	0xb6791718	-3.7117334e-06
113	0x35614bc6	8.3929297e-07
114	0xb8045ee5	-3.155963e-05
115	0x370d6487	8.427661e-06
116	0xb633ead7	-2.6809773e-06
117	0xb71f9d9e	-9.513837e-06
118	0x3580ebb4	9.605342e-07
119	0xb6810385	-3.8449093e-06
120	0x378e2b36	1.694784e-05
121	0xb63c127b	-2.802494e-06
122	0xb7814e37	-1.541442e-05
123	0x3719413b	9.134698e-06
124	0xb5580726	-8.047667e-07
125	0x361d14bb	2.340689e-06
126	0x372c24c2	1.0260557e-05
127	0xb7740b43	-1.4546155e-05
128	0xb9a4cd31	-0.00031433397
129	0xb99bc62d	-0.00029711556
130	0xb8ecd764	-0.000112934766
131	0x37d6cf90	2.5607442e-05
132	0xb9be6646	-0.00036315824
133	0xb9f49b1e	-0.00046654878
134	0x3a3b9548	0.00071557285
135	0xb96d0f42	-0.00022607765
136	0xb90b4256	-0.00013280785
137	0xbae68a47	-0.0017588817
138	0xb913482c	-0.00014045899
139	0xba8f98d9	-0.0010955586
140	0x3b12d6df	0.0022405905
141	0xb9a2adbe	-0.00031028496
142	0xb92c1db2	-0.0001641426
143	0xb9b31009	-0.00034153488
144	0xbd0222d0	-0.03177148
145	0xbde514af	-0.11185586
146	0x3eb27692	0.34856087
147	0xbedea702	-0.43486792
148	0xbf0050c3	-0.5012323
149	0xbf20d8da	-0.6283089
150	0x3fae2ff6	1.3608387
151	0xbf2daf74	-0.67845845
152	0xbe5a035b	-0.21290343
153	0x3e94b143	0.2904149
154	0xbfadd2e4	-1.3579984
155	0xbe8e1b9c	-0.2775544
156	0x3deb33f2	0.11484517
157	0xbf0c3ddf	-0.5478191
158	0xbe6ff522	-0.23433354
159	0xbfb3f3be	-1.4058759
160	0xb7679b63	-1.3804852e-05
161	0x35112d98	5.4083057e-07
162	0x36d22381	6.262621e-06
163	0x368f1dba	4.2651927e-06
164	0x369eb29c	4.72956e-06
165	0xb67d3468	-3.7730442e-06
166	0xb61e0112	-2.3544458e-06
167	0x36aaf9af	5.095462e-06
168	0x37a6995f	1.9860161e-05
169	0xb7a19c98	-1.9265615e-05
170	0xb6b5f14d	-5.4223115e-06
171	0xb7b4a6a1	-2.1535265e-05
172	0xb52f3882	-6.527481e-07
173	0xb6b20083	-5.304873e-06
174	0xb7964c17	-1.7916826e-05
175	0xb795bb73	-1.7849472e-05
176	0xb72f9ed7	-1.0467796e-05
177	0x35cede17	1.5412833e-06
178	0xb7df0102	-2.658414e-05
179	0xb6640672	-3.39784e-06
180	0xb79ed369	-1.8933513e-05
181	0xb7a612e8	-1.9797546e-05
182	0x36a5d5e6	4.9422842e-06
183	0xb7c45373	-2.340388e-05
184	0x377c5b3b	1.5041612e-05
185	0x36a70427	4.9774712e-06
186	0xb73e163c	-1.1330059e-05
187	0xb70af02e	-8.281362e-06
188	0xb76505b7	-1.3650794e-05
189	0xb7b13ad3	-2.1127436e-05
190	0xb7265ca9	-9.915945e-06
191	0xb7c08a66	-2.295263e-05
192	0x368fefb9	4.2896395e-06
193	0x366c742c	3.5234361e-06
194	0xb696573a	-4.480503e-06
195	0xb60ef6d8	-2.130333e-06
196	0xb673f49e	-3.6352208e-06
197	0xb7049228	-7.901843e-06
198	0xb6b4223c	-5.3684034e-06
199	0xb6dfc102	-6.668387e-06
200	0x358c7e51	1.0467576e-06
201	0x3638da42	2.754518e-06
202	0xb6e6533f	-6.8642253e-06
203	0x36de8682	6.6317743e-06
204	0x357a801e	9.331869e-07
205	0xb70bac18	-8.325114e-06
206	0x3647dc9e	2.9781727e-06
207	0xb56316d4	-8.459731e-07
208	0x34b16312	3.3040902e-07
209	0x378537f6	1.5880894e-05
210	0xb6f5aa47	-7.321392e-06
211	0xb6ffa11e	-7.6183487e-06
212	0x3778debb	1.483381e-05
213	0xb6c2dd99	-5.807448e-06
214	0x3623acd2	2.4389487e-06
215	0xb6f16e95	-7.195233e-06
216	0x370fa3d4	8.561608e-06
217	0xb736f232	-1.0904436e-05
218	0xb68a1e00	-4.116213e-06
219	0x36167373	2.2418942e-06
220	0xb6da7a6d	-6.5111585e-06
221	0xb7322609	-1.06184825e-05
222	0xb6229b07	-2.423012e-06
223	0xb8054b3f	-3.177975e-05
224	0x3788e01a	1.6316819e-05
225	0xb779ef8f	-1.4897333e-05
226	0x37f05128	2.864802e-05
227	0xb6cf811f	-6.1841124e-06
228	0x37d866fa	2.5797159e-05
229	0x379644cf	1.7913435e-05
230	0xb6ad76e8	-5.1696443e-06
231	0xb6781e61	-3.6972563e-06
232	0xb71c5ca9	-9.319899e-06
233	0xb70fa5ed	-8.562097e-06
234	0xb694c421	-4.433576e-06
235	0xb787124b	-1.6101772e-05
236	0x36e6ec4d	6.882043e-06
237	0x362cede2	2.5768463e-06
238	0xb6b6b61e	-5.445224e-06
239	0x37852d50	1.5875936e-05
240	0xb70e56d0	-8.484072e-06
241	0x36eaef74	7.0016195e-06
242	0xb76c624b	-1.4089582e-05
243	0x37a74acb	1.994278e-05
244	0x379723e1	1.801731e-05
245	0xb7bcfdde	-2.2529563e-05
246	0x3724db44	9.8262135e-06
247	0x36f37093	7.2550697e-06
248	0x35b0b3d6	1.3165361e-06
249	0xb73d991b	-1.13009255e-05
250	0xb7e03fbc	-2.673256e-05
251	0x3740f487	1.1501025e-05
252	0xb6c9b221	-6.0110037e-06
253	0x360e9292	2.1244964e-06
254	0xb7c6de50	-2.3706962e-05
255	0xb70511a0	-7.931521e-06

fc6.bias f4 [32]
0	0xb67fccb1	-3.8117107e-06
1	0xbb2e99f9	-0.0026642068
2	0x37ba4eca	2.2209617e-05
3	0xbfc5638c	-1.5421004
4	0x37a345dc	1.9463645e-05
5	0xb783085d	-1.5620311e-05
6	0xb7a20e51	-1.9318572e-05
7	0x375f37d4	1.3304834e-05
8	0x3a31bd45	0.00067802175
9	0xbff658fd	-1.9245907
10	0x3773c20e	1.4529111e-05
11	0x37a2e7ef	1.9419907e-05
12	0x36e63177	6.8602926e-06
13	0x35ee277f	1.7743877e-06
14	0xb6374f43	-2.7315261e-06
15	0x35b3bee1	1.3392092e-06
16	0xb732c645	-1.065579e-05
17	0xbbb0a8bf	-0.00539121
18	0xb4de8083	-4.1444227e-07
19	0x35f64f16	1.8351445e-06
20	0xb7400cfb	-1.1447114e-05
21	0xb6c4abd8	-5.8612604e-06
22	0xb65d6d2d	-3.2995115e-06
23	0x376449e8	1.3607067e-05
24	0x36225227	2.41877e-06
25	0xbeecba28	-0.46235776
26	0xbd1ba9e6	-0.038003825
27	0x37b69a00	2.1767803e-05
28	0xb3f11c35	-1.1227568e-07
29	0x3741a1b2	1.1541344e-05
30	0xbfbf7ae7	-1.4959382
31	0xbc58e3c7	-0.0132379

fc_decode.weight f4 [16, 32]
0	0xbb8e5231	-0.004343294
1	0xbe097f2e	-0.13427421
2	0x3d8895c1	0.06669188
3	0x3f0370c5	0.5134395
4	0xbd93a106	-0.07208447
5	0x3db07835	0.08616678
6	0x3e490954	0.19632465
7	0x3dcabb1b	0.09898969
8	0x3e096017	0.13415562
9	0xbf99d3f0	-1.2017803
10	0xbd31d6ac	-0.043417618
11	0xbe2dc223	-0.16968589
12	0xbd357537	-0.044301238
13	0x3d3db520	0.046315312
14	0x3e003611	0.12520625
15	0xbd1aed4a	-0.037823953
16	0xbdbcb3ac	-0.09213957
17	0x3b332d11	0.0027340094
18	0x3d82fec8	0.06396252
19	0xbd9d5101	-0.07681466
20	0xbdd282f5	-0.10278884
21	0xbe38fe9e	-0.18065879
22	0xbd8444a9	-0.064584084
23	0xbe84ab7d	-0.25912085
24	0xbe51ab74	-0.2047556
25	0xbe341e75	-0.17589743
26	0x3e23f580	0.1601162
27	0x3da7f880	0.082016945
28	0x3dcbe7be	0.09956311
29	0xbe0cf6db	-0.13766043
30	0x3ea3f748	0.32024598
31	0x3e173037	0.14764486
32	0xbd109000	-0.03529358
33	0x3eb062e7	0.34450457
34	0xbdca1de2	-0.09868981
35	0x3eb318eb	0.34979948
36	0x3e5b2115	0.21399339
37	0x3d39881c	0.04529582
38	0xbe247c7d	-0.16063114
39	0xbe17819e	-0.14795539
40	0xbdffdd23	-0.1249335
41	0x3e37bd3f	0.17943285
42	0xbd112eae	-0.035444908
43	0xbd9cdc2b	-0.07659181
44	0x3ce013a3	0.027353114
45	0xbe247bc6	-0.16062841
46	0xbd271aa8	-0.040796906
47	0xbdba884d	-0.091080286
48	0x3def972e	0.11698757
49	0x3d3f3f7b	0.0466914
50	0xbdd92225	-0.10602216
51	0x3de2597a	0.110522225
52	0xbd859189	-0.06521899
53	0x3e2092fa	0.15681067
54	0x3c585e29	0.013206043
55	0x3e86f7ad	0.26360837
56	0x3ccad584	0.024760015
57	0xbbcc0f51	-0.006227412
58	0x3e095dfd	0.1341476
59	0x3e93a539	0.28836992
60	0xbd6eefe8	-0.05833426
61	0x3d7ba0d0	0.06143266
62	0x3f053e85	0.5204852
63	0xbeaadafe	-0.33370203
64	0xbde6d78d	-0.11271582
65	0x3e6e271c	0.23257107
66	0xbe79c113	-0.24390058
67	0xbe85232a	-0.2600339
68	0xbcaffdd2	-0.021483336
69	0xbc4eacda	-0.012614453
70	0xbd18769c	-0.03722249
71	0x3e29f652	0.1659787
72	0xbdd1a314	-0.10236183
73	0x3e54f884	0.20797926
74	0x3c8b8b82	0.017034296
75	0x3e768db4	0.24077493
76	0x3bc94325	0.0061420375
77	0xbebdaba6	-0.3704502
78	0x3d8d59ab	0.069018684
79	0xbd324cc1	-0.04353023
80	0xbe9a899c	-0.30183113
81	0xbe3fd5aa	-0.1873385
82	0xbe471f55	-0.19445546
83	0x3de5eee4	0.112272054
84	0x3d232320	0.03982842
85	0x3e274432	0.16334608
86	0x3e0adb5a	0.13560238
87	0x3e3a030f	0.1816523
88	0xbdfb96ee	-0.12284647
89	0xbbbb0dcc	-0.005708432
90	0xbe5c8c22	-0.21537831
91	0xbe93f295	-0.28896013
92	0xbe1cca6e	-0.15311596
93	0x3e8254d1	0.25455335
94	0x3f3f59f4	0.7474663
95	0xbe517902	-0.20456317
96	0xbe055fa1	-0.13024761
97	0xbadeb7ff	-0.0016992091
98	0xbd817cee	-0.063226566
99	0xbc976985	-0.018482933
100	0xbe4ccfb2	-0.20001104
101	0xbdac1b71	-0.084036715
102	0xbe0e4e75	-0.13897116
103	0xbd0822c5	-0.033236284
104	0x3c87b005	0.016563425
105	0x3f4517eb	0.7698962
106	0x3d4181e9	0.047243033
107	0xbd104a80	-0.0352273
108	0x3d060774	0.03272195
109	0xbd89e2f0	-0.06732738
110	0x3c0fe7bb	0.008783276
111	0x3d13d4d8	0.036091655
112	0xbcce75ab	-0.025202593
113	0x3db35ed8	0.087583244
114	0xbcf81d91	-0.030287536
115	0xbe3fddf3	-0.1873701
116	0x3c9df9da	0.019284178
117	0x3d407c4e	0.046993546
118	0xbdb51150	-0.08841193
119	0xbe163a05	-0.1467057
120	0xbe53ce39	-0.20684136
121	0xbf1c28a0	-0.6099949
122	0x3d066543	0.032811414
123	0xbe61f0a3	-0.22064452
124	0xbd9b8185	-0.07593063
125	0xbe3e89f9	-0.1860732
126	0xbe7c5660	-0.24642324
127	0x3c9eca2c	0.019383512
128	0xbd3c11df	-0.04591548
129	0x3ab88ac7	0.0014079445
130	0x3d952fb8	0.07284492
131	0xbd263eaa	-0.040587105
132	0x3c63f0a7	0.013912356
133	0x3e39452b	0.18092792
134	0x3d5e8d0f	0.054333743
135	0x3e6b5ecb	0.2298538
136	0x3dd6866a	0.10474856
137	0x3e8563b8	0.26052642
138	0xbcf594bd	-0.02997815
139	0xbdf5a127	-0.11993628
140	0xbddc49b7	-0.107562475
141	0x3cfb74a8	0.030695274
142	0x3e2693d1	0.16267325
143	0xbdedad2e	-0.11605297
144	0xbd5f6135	-0.054536063
145	0xbc63b7ed	-0.013898832
146	0xba6181f6	-0.00086024345
147	0x3e738db4	0.23784524
148	0xbe1a8105	-0.1508828
149	0xbd3283fa	-0.043582894
150	0x3ddb8242	0.10718204
151	0x3d9c5aa5	0.076344766
152	0xbc9ad11a	-0.018898536
153	0xbf1c1b7e	-0.6097945
154	0xbd3d462d	-0.046209503
155	0x3ec510d1	0.38489392
156	0x3cd612df	0.026132045
157	0x3db2bfc0	0.0872798
158	0xbe057852	-0.1303418
159	0xbd42bfd7	-0.047546234
160	0x3d50fd73	0.051022958
161	0x3de7fd26	0.11327581
162	0x3e1a22ce	0.1505234
163	0x3e96544b	0.29361185
164	0x3c52b2de	0.012860028
165	0x3dd04d35	0.10170976
166	0xbd562368	-0.05227986
167	0x3d29dfc8	0.04147318
168	0xbc9edb63	-0.019391721
169	0x3f9cdeb0	1.2255459
170	0x3e1a446b	0.15065162
171	0xbe0ce46c	-0.13759011
172	0xbd926abe	-0.07149266
173	0xbd82f2c0	-0.06393957
174	0xbccd46b2	-0.025058124
175	0x3c8bf278	0.017083392
176	0xbdf0ee71	-0.11764229
177	0x3d28d20e	0.04121595
178	0xbd370aad	-0.044687916
179	0x3bea084a	0.0071421014
180	0xbd6c18d8	-0.05764088
181	0xbc81a5bf	-0.015826104
182	0x3d83004a	0.063965395
183	0x3e089a5f	0.13340138
184	0x3e13849f	0.1440606
185	0x3eae0b28	0.33992887
186	0x3e4d40a5	0.20044191
187	0x3d1bde6e	0.038053922
188	0x3cf70c37	0.030157192
189	0xbc31f1b5	-0.01086085
190	0x3ee41225	0.44545093
191	0xbd41a975	-0.047280747
192	0xbd4652da	-0.048418857
193	0xbdaa4038	-0.0831303
194	0xbc03a434	-0.008034755
195	0x3f52fcde	0.82417095
196	0xbcc0908a	-0.023506422
197	0xbe4ed4a1	-0.20198299
198	0x3ca8d289	0.020608203
199	0xbdebf0e0	-0.11520553
200	0xbc7bcc67	-0.015368558
201	0x3e2df52d	0.16988058
202	0xbe80f276	-0.25184983
203	0x3c210aec	0.009829264
204	0x3d7cde60	0.06173551
205	0xbdd2ee86	-0.10299401
206	0x3e3e7473	0.1859911
207	0x3cc2fea1	0.023803057
208	0x3cdcd8fd	0.026958937
209	0x3d391428	0.045185238
210	0x3dd9ce53	0.10635056
211	0xbd9ddc22	-0.077080026
212	0x3d626206	0.055269264
213	0xbd5e46ac	-0.054266617
214	0xbcd7328f	-0.026269225
215	0xbe073b22	-0.13206151
216	0xbe1219c4	-0.14267641
217	0x3dc12d82	0.09432508
218	0x3dc74f4a	0.0973192
219	0xbe577cf3	-0.21043758
220	0xbd8d8f14	-0.069120556
221	0xbe4b5662	-0.19857171
222	0x3eaf0e9a	0.34190828
223	0x3d62f66f	0.0554108
224	0x3e531f05	0.20617302
225	0x3d8f7a09	0.07005698
226	0x3df8abf0	0.121421695
227	0x3d6d54e0	0.05794227
228	0x3f0d943c	0.5530431
229	0xbd5c4000	-0.053771973
230	0x3e3bb165	0.1832939
231	0xbebdb5e2	-0.37052828
232	0xbd63451b	-0.055485826
233	0x3efb8130	0.49122
234	0xbef41528	-0.4767239
235	0xbe33bd67	-0.1755272
236	0x3df5e01b	0.12005635
237	0xbd163c2c	-0.036678478
238	0x3e216e9b	0.15764849
239	0xbd960444	-0.07325032
240	0x3e478b99	0.19486846
241	0x3dd2305e	0.102631316
242	0x3e4eb8bd	0.2018766
243	0xbd463a53	-0.048395466
244	0xbd2af436	-0.041736804
245	0xbe4485ab	-0.19191615
246	0xbdc12178	-0.09430212
247	0xbd2ac5c8	-0.041692525
248	0x3d6b078a	0.057380237
249	0xbd8ac69f	-0.06776165
250	0x3ef6167a	0.48064023
251	0x3eb8da2b	0.3610395
252	0x3e110f2c	0.14165944
253	0xbec1ebea	-0.378753
254	0xbe06e017	-0.13171421
255	0xbd208aa3	-0.039194714

fc_decode.bias f4 [16]
0	0xbf3b40cc	-0.7314575
1	0x3f8b0501	1.0860902
2	0xbf3afc42	-0.73041165
3	0x3f358889	0.7091146
4	0x3e9b7024	0.30358994
5	0x3f2bb06c	0.67066073
6	0xbdbc19dc	-0.0918462
7	0xbe82c79a	-0.2554291
8	0x3ec7bb22	0.39009959
9	0xbdaffaf4	-0.085927874
10	0xbe3640a8	-0.17798102
11	0x3eefc1ee	0.46827644
12	0x3eed0c97	0.46298668
13	0xbea9a4ed	-0.3313364
14	0xbeb9032d	-0.36135235
15	0xbd1ff25d	-0.039049495
