saved_models_2D/VAE_patch_folds/CVAE2D_32_1.0_fold_7.pth (torch, 181098 bytes, 41 tensors)

conv1.weight f4 [8, 1, 3, 3]
00000000: 866a cebd 954f 17be 317d b03e debf 023d
00000010: b068 8cbc a1b8 9e3e 4a40 9ebe beab aebe
00000020: 6c32 283f a4d2 0c3d 3091 913d 4b68 f8be
00000030: cb22 f33d 7b29 d33e e429 aabe 7482 a03e
00000040: fcad aabe 7b01 6bbf 83dd fcbe 262b cfbe
00000050: d717 26bf 9359 e73c a2fc 10be 5739 af3e
00000060: c0da f43e 8d3c 2abf 34e1 023f 1555 a43e
00000070: 7bcb 813e 7e6f 373f af77 f43e 2912 f6be
00000080: 68a9 803f 6a1a 18bf 720b a6bf 26f4 21be
00000090: 3fea 27be ed71 383f 8c2e 533f 9b58 c53e
000000a0: 375c d2bd 1547 993e 0fcb 703f 959a 473f
000000b0: 0a73 4cbf 2301 6f3f 2821 443e da2f a8bd
000000c0: 0b49 fc3e 8f3c 213e 6dfd a6be 991a bb3d
000000d0: a2a7 e3bd 82f3 d6be 4dbd 22bf d15d 13bf
000000e0: 9934 313f 56cd 54bf 046f 733e 97bf 0fbe
000000f0: ade0 5b3e 4a43 72bf 1e8a b53b 0a0c 6a3f
00000100: 9fe8 503e a4fb 53be 7d2a df3e 1534 ee3d
00000110: 666f 243f 0ec2 133e ef14 64be dc60 1c3f
-0.100789115 -0.14776452 0.34470513 0.03192126 -0.017139763 0.31000236 -0.30908424 -0.34115404
0.6570194 0.03438057 0.071077704 -0.4851707 0.118718706 0.41242585 -0.33235085 0.31349528
-0.33335865 -0.91799134 -0.4938775 -0.40462607 -0.64880127 0.028240955 -0.14158872 0.34223434
0.47823143 -0.66498643 0.5112488 0.32096162 0.25350556 0.716545 0.4774756 -0.4806073
1.0051699 -0.59415305 -1.2972243 -0.15815791 -0.16397952 0.72048837 0.824929 0.38544163
-0.10271495 0.29937044 0.9405984 0.7797025 -0.79863036 0.9336111 0.19153273 -0.08212252
0.49274477 0.15745758 -0.32615224 0.091359325 -0.11115958 -0.41982657 -0.635701 -0.5756503
0.6922088 -0.8312582 0.23772818 -0.1403793 0.21472426 -0.94633925 0.0055401465 0.9142462
0.20401238 -0.20701462 0.43587103 0.116310276 0.6423248 0.14429495 -0.2227361 0.61085296

conv1.bias f4 [8]
00000000: 542b 0c3e 9695 06be e6d9 34be b4ff ab3c
00000010: 7210 81be 032a a1be ff03 433d a28f f23d
0.13688403 -0.13143 -0.17661247 0.020995952 -0.2520786 -0.31477365 0.047611233 0.11843802

conv2.weight f4 [16, 8, 3, 3]
00000000: e00d 43be 87d5 4fbe e5a0 473e 1e80 83bb
00000010: 3b05 2a3e f2c6 923e 44de 303e 4c09 93be
00000020: 9074 aabd 0efa 013e 1d1d 2fbc bd1b d8be
00000030: e3e5 a0be b569 363e 872f a23e 279d ebbe
00000040: 312b 053b c623 093e 26b0 ca3d 61ab 303e
00000050: c296 9dbc 093c 01bd bc11 763e 47d8 56be
00000060: ab71 603e 5b26 6dbe 3d02 7abe f466 98bc
00000070: cf64 8dbe b3bf 21bd f367 8abb f8c1 be3d
00000080: 5b85 603e 8036 d6bd 38dd e33d 79ec 7fbc
00000090: 3427 17bd a294 aabd 4ca2 58be 7938 843e
000000a0: 5106 123e 151b cf3e 99c3 bb3e 9c88 cb3e
000000b0: c871 23bd 04e0 adbc c816 a4be 7fb4 b2be
000000c0: 54ce 923e b82e 84be 9704 f9be 38ac c43e
000000d0: bd17 50bd ba81 91bd 94ca 7e3d 5c74 ae3d
000000e0: d998 4dbd 507f 92be afc5 bb3e 94d2 373d
000000f0: 56ad d3be e4a3 85bd f78e 54be 428b e23d
00000100: 07b0 30be dc2a 36be af4d 0e3f 8faa 3fbe
00000110: 3ed9 a03e 159c db3e 65e5 753e b11c 253e
00000120: b8b1 373c cbd5 a6bd cdd5 88bd 601b 863d
00000130: a220 bc3e 1256 3abe c09c c53d 0a4c b8bd
00000140: 6ae7 9b3d f5f0 b83d 7568 c83d 55d5 023e
00000150: 54a3 b63e 4b9e de3e fd24 a63e 3877 d33e
00000160: 79a2 bd3e af34 433f 6c84 b1bc 4938 34be
00000170: 1d0a 983e 90d3 a93e fbad e7bd 5113 1fbe
00000180: ecd2 df3c 9721 a23c e9c2 973e 735e 96bd
00000190: 1093 58bd 729d 8c3d 8643 dc3b 06be 103e
000001a0: f191 313e 78de 92be cdbb 58be 9a79 693e
000001b0: c940 a6bc 7c65 81be a5ad ad3c 2bd4 d4bd
000001c0: 2d49 0ebe 91d0 1c3a fb8b f63e 8697 283d
000001d0: b964 70be a5f4 9a3e 122b 6abe 330e 2c3e
000001e0: 798c a63d d22a ce3d d868 603e 1171 953e
000001f0: 98cc cb3e 18db 283e 71d9 aebe dc1e 50b8
00000200: 02f0 943d d7ac 5ebe 8b93 143e 2bd8 6e3e
00000210: 76e9 d3bd 6d6a b1bd f64a d0bb c471 6f3e
00000220: 0d0c a53e 5395 2ebe f70b 8f3d 03b1 e13d
00000230: 1c65 34be 7272 02be 5e84 85be acc6 b4bc
00000240: 4951 44be bcfb 933e ef60 4f3e c1ed c4bd
00000250: 8c38 663e c746 603e 8266 02bf 1bb4 bfbe
00000260: 461c 033d 54f6 5dbe d4cd efbb 777d 9cbc
00000270: 565e ab3e 0f55 3b3b 93aa 473e 2f1e 783e
00000280: bfd9 ee3e 60c3 c6bd f96e ef3d 8c0f d23c
00000290: 0c47 75be 7751 293e 88c2 56be 8c28 16bf
000002a0: 5c7e 233e 5ece fdbd 40fa 913e e7c7 6e3d
000002b0: 5106 6dbe db3d 283e 9457 cd3e 62de 4e3e
000002c0: 98b2 e63d 00d2 a53e 201d cc3e a502 213e
000002d0: 2f91 8d3d deb5 21bb 893b e33d ab5d 5dbe
000002e0: c168 703e ef88 8f3e 3c32 54bb 5f81 ebbd
000002f0: a4a0 00bd 8a29 2b3d fe71 10be bd41 a0be
00000300: 5eba 093f cfba cc3c 3e0d 52be 6b87 a23e
00000310: 198a 893e fe3a 263e d88f 9e3e 64fc 44bd
00000320: 19b4 553e 5ff2 a4bb 986d 08be 1eba 9c3e
00000330: 5a83 5e3e 5452 9a3e c957 223e 4b23 de3e
00000340: 31b2 c03e 1bb1 993d 504d 453e 3a57 a73e
00000350: 46a4 613e 2ff5 d43d b3c0 db3d 7b46 d93d
00000360: 537a 7bbe cd39 1cbf 2619 b7be 29c5 6abd
00000370: aa20 92be 3e64 943c 4f21 753e 6ffb 1d3d
00000380: 33e3 37be e94c 0f3e e356 46bd dc12 953e
00000390: d4ba eabd d268 743c 955a 593e 4009 4dbe
000003a0: f288 afbe 77ee 99be 25d6 69be 3ac1 c63e
000003b0: 51c2 433e 5199 bcbd 76a8 bc3e 56db 37bc
000003c0: ffa8 49be 12ab 06be 1114 503e 2424 88bd
000003d0: 4f25 583e 10dc a03d 1eac 29be 42b7 4cbd
000003e0: c3e6 21be 6ae1 f5be 1120 383b 30ac a83c
000003f0: b266 303e 0757 c1bd 0756 30bd 3304 02be
-0.19048262 -0.20296298 0.1949497 -0.0040130755 0.16603558 0.28667408 0.17272288 -0.2871803
-0.08323014 0.12693045 -0.0106880935 -0.42208663 -0.3142539 0.17813762 0.31676885 -0.46018335
0.0020319934 0.13392553 0.09896879 0.17252876 -0.019236926 -0.031551395 0.24030203 -0.20980941
0.21918361 -0.23159163 -0.24414916 -0.01860378 -0.27615973 -0.03948946 -0.0042238175 0.0931434
0.21925871 -0.10459614 0.111261785 -0.015620344 -0.03690262 -0.08329131 -0.21155661 0.25824335
0.14260222 0.4045035 0.36672667 0.39752662 -0.039903432 -0.021224983 -0.3204863 -0.34903333
0.2867304 -0.25816894 -0.48636314 0.38412642 -0.05080389 -0.071048215 0.062204912 0.085182875
-0.050194595 -0.28612757 0.36674258 0.044878557 -0.41343182 -0.065254 -0.20757662 0.110617176
-0.17254649 -0.17789787 0.55587286 -0.18717407 0.31415743 0.4289252 0.24013288 0.16124226
0.011211805 -0.081462465 -0.06681404 0.0654819 0.36743647 -0.18196896 0.09649038 -0.08998878
0.07612498 0.09030334 0.097855486 0.12776692 0.35671484 0.43480143 0.32450095 0.41301894
0.3703802 0.76252264 -0.021669589 -0.17599596 0.29695216 0.33169222 -0.11312481 -0.15534712
0.027322255 0.019791408 0.29640892 -0.073422335 -0.052874625 0.06865968 0.0067219166 0.14134988
0.17340828 -0.28685355 -0.2116539 0.22800294 -0.020294564 -0.2527274 0.021200964 -0.1039203
-0.13895102 0.00059820066 0.48153672 0.04116013 -0.23475923 0.30264774 -0.22867993 0.16802292
0.08132262 0.10066761 0.21914995 0.29187825 0.3980453 0.16489828 -0.3415027 -4.9619804e-05
0.0727234 -0.2174562 0.14509408 0.23324649 -0.103472635 -0.08662877 -0.0063565923 0.23383242
0.32235757 -0.1704915 0.06984704 0.110200904 -0.17616695 -0.1273897 -0.2607755 -0.02206739
-0.19171633 0.28902996 0.20251821 -0.096156605 0.22482508 0.21902 -0.50937665 -0.37442097
0.032009386 -0.21675998 -0.007318238 -0.019102795 0.3347041 0.0028584634 0.19498663 0.24230264
0.46650502 -0.097052336 0.11691088 0.025642179 -0.23952883 0.16534983 -0.20972645 -0.5865562
0.15966171 -0.12392877 0.28511238 0.05829611 -0.23146941 0.16429846 0.4010588 0.2020202
0.11264533 0.3238678 0.3986597 0.15723665 0.06912457 -0.0024675052 0.1109534 -0.21617763
0.2347746 0.2803416 -0.0032378575 -0.11499285 -0.0314032 0.04178766 -0.14105985 -0.31300154
0.538 0.024991421 -0.20512864 0.3174394 0.26863173 0.16233441 0.3096912 -0.04809226
0.20869483 -0.0050337757 -0.13323057 0.30610746 0.21729794 0.30140936 0.158538 0.433863
0.3763595 0.07504483 0.19267774 0.32683736 0.22035322 0.103983276 0.10730114 0.10609146
-0.24558382 -0.61025697 -0.35761374 -0.057316933 -0.28540546 0.018114205 0.23938487 0.038569864
-0.17957763 0.13994183 -0.048422705 0.2911595 -0.11461416 0.014917569 0.2122596 -0.2002306
-0.34284168 -0.30064747 -0.22835596 0.38819295 0.19117095 -0.0920893 0.36847275 -0.011221727
-0.19693373 -0.13151196 0.20320155 -0.06647518 0.21107982 0.078544736 -0.16569564 -0.049979456
-0.15810685 -0.4802354 0.0028095285 0.020589918 0.17226675 -0.09440427 -0.043050792 -0.12696914

conv2.bias f4 [16]
00000000: d517 2fbd 9918 af3d 0753 71bd b4e1 cd3b
00000010: 52d4 1dbe 9f37 2d3c 6567 133e e251 f6bd
00000020: 3336 6e3c 63b3 0cbe ae8a a7bc e98c 00bc
00000030: 8f25 56bd c6b8 3ebe 77d0 bebd 739a 89bb
-0.042747337 0.085496135 -0.05891707 0.0062830094 -0.15413025 0.010572343 0.1439491 -0.12027337
0.014539289 -0.13740306 -0.02045187 -0.007846096 -0.052281912 -0.18625173 -0.09317105 -0.00419932

conv3.weight f4 [24, 16, 3, 3]
00000000: 4067 653d 6361 bebd ac69 e0bd 0ce5 9b3e
00000010: 2b40 f93b 9a49 c83e 9655 043e 8328 cebd
00000020: f5c6 10be e532 a8bc 3df4 033f ed37 853e
00000030: 5f09 d53c c136 083e 4976 9b3c 89d1 bbbd
00000040: 4c8d 0e3e 4224 11be eec4 f83d d19b 05be
00000050: 6701 18be 9687 523e 3309 633e cdb8 2d3e
00000060: 048a fe3d 3a5d d4bc d3ee ee3d 40cf bb3d
00000070: 1f85 0d3e c077 d03d f418 8e3e b3fa 92bd
00000080: b1c0 34bd 735d 16bd 4e5b 3c3e 11ed 4d3e
00000090: fcd2 75be 959b 56bc 610b f43d cb79 4fbd
000000a0: d8e9 8bbb 0397 17bd f124 343c 677d 80bd
000000b0: 66b8 fe3d 1177 1bbc 27d2 58be 0f6d 40bf
000000c0: cb71 023e 5269 f3bd d5d2 a1be e908 9e3e
000000d0: 3f53 1bbd b081 073e fa55 adbe 4169 e0be
000000e0: 4fa2 c1be 3e33 0fbd 6297 d9bd a12a 91bb
000000f0: db8b 63bc 8cd8 633e 98aa bebd 5e3a 61bd
00000100: 17d1 28bd 0931 853d b597 cf3d 2bc6 8bbe
00000110: 2035 c23c ab70 003e 56c1 11bd cf33 453e
00000120: af45 1c3e d8e3 d43d 2d89 09be 2618 52be
00000130: 5bf9 193e 9c18 0bbd 6fe7 b1be ee44 383e
00000140: 2a01 073e af69 883d d1e4 00bf d87b 823d
00000150: 4403 32be 20cd 73be 7d7d 86be f941 d13d
00000160: 5908 42be 5cbb 10be 037b 453e 5cb2 82bc
00000170: 8e7b 3ebe bd0b 8f3d 4dc9 fc3d 7e44 16be
00000180: f895 e6bd 74ad 07be cd84 573e a7e5 d53c
00000190: 4327 323d 58f1 0a3e 4946 8d3d db12 623e
000001a0: bd73 20be 6eff 03be 6260 8a3d dc36 c8bd
000001b0: 509e e93b aedd e33d 6fcf 993d 4a4e ccbe
000001c0: c76d 953d f0c4 f43d e2d9 cfbe d76e e7bd
000001d0: 1206 8a3e 60eb f1bc c42a cbbe 1931 373e
000001e0: 4bc9 abbe a663 8abe ab22 88be 8415 cf3c
000001f0: 1ba6 d5be f4bd 37bd f091 6ebe f82a dbbd
00000200: c5e2 a4bd 74cc 14be 2be9 763d 479d 853d
00000210: 697e 1c3d a8b1 2ebe aa44 f7bc be17 52be
00000220: 9002 83be 6b72 3cbf 6063 7bbc 73f8 0bbe
00000230: 24ed 6ebb 3be9 d0bd 1fab 8abd 61e1 d43a
00000240: 56b8 8bbd da88 963c ddfc ec3d 00ff 393d
00000250: 23f2 1b3e 322f 5e3e b7c1 3e3d e6c6 623d
00000260: 1515 153c abc4 17bf 4221 82bd 30bd 66be
00000270: 695d 3bbd a74c 0ebe 09e6 b93c bc74 ce3e
00000280: da03 48bd 6acf ca3d 2f3e 7abe a74f 223d
00000290: cac2 d03c 4960 373c 00e2 163d d605 8a3e
000002a0: f99a 783e 1087 903e 8d11 323d f270 113c
000002b0: f77e 26bd d1c0 b0ba 2a7f f5bd c296 0fbf
000002c0: 3a06 aebe c69a 09bf 5448 82bd e64a 95bd
000002d0: f36f 053c b056 8b3c 6344 da3d 514c 74be
000002e0: 697e 1fbe 2d7c 843e 03a6 143d cccd 9b3e
000002f0: 341f ca3e 0c33 883d 26d1 34bd fcd9 953d
00000300: 22e3 673e 0746 053e 5bc7 b23d 3a75 bdbd
00000310: 8b05 2bbe c195 06be d7e5 d2bd 75d6 023e
00000320: 6517 d0bd adef 343e 0ce0 1e3d b683 cc3c
00000330: 2ff5 8cbd 002f 9f3b 654f 2e3d 07c9 b5be
00000340: b434 7cbe ced3 c7bd 7ef6 fdbd fd0b 9ebd
00000350: 25bc 703e 0f04 f8bd fe89 e3bd 325a 993d
00000360: ff67 68be 29a1 48be fe56 84be 01e0 b33d
00000370: 2052 8d3d d438 52be 5800 1f3e d58f e6bd
00000380: adba a43d a70b 7c3d ab5a 743e 7276 5fbe
00000390: 3a61 b3bd ee41 a7bc 5973 8abd 62b0 013d
000003a0: cfc3 5a3e 7bdc efbd 9445 52be 829e 1cbe
000003b0: 08ed dcbd 2c62 a73c 3099 763e cc4c 92bb
000003c0: 1325 193e 1331 253e 0fb0 26be 5dfd 94bd
000003d0: 60af 1fbf fe98 9fbe d9f2 09bf 1b85 f33d
000003e0: 4f6e 543e 2ca4 423e 613e ae3d 29e5 3c3e
000003f0: ff6b 03be 9011 f53d 55c9 8cbb b8da abbe
0.05600667 -0.09295919 -0.10957655 0.30448186 0.0076065264 0.39118654 0.12923273 -0.10066321
-0.14138396 -0.02053208 0.51544553 0.2601923 0.026005445 0.13302137 0.018977301 -0.09170825
0.13921088 -0.14173988 0.12146936 -0.1304772 -0.14844285 0.20559534 0.22171478 0.16965027
0.12428668 -0.02592336 0.11666646 0.09170389 0.13820313 0.101790905 0.27753413 -0.07176723
-0.044129077 -0.036710214 0.18394205 0.20109965 -0.24006265 -0.013098617 0.11916233 -0.05065326
-0.0042698197 -0.03700925 0.010995136 -0.062739186 0.12437515 -0.009488837 -0.21173917 -0.7516641
0.12738721 -0.11885323 -0.31606165 0.30866173 -0.037921187 0.13233066 -0.33854657 -0.43830302
-0.37819144 -0.034960978 -0.10624577 -0.0044301306 -0.013888325 0.22250575 -0.09309882 -0.054987304
-0.04121503 0.06503493 0.10136358 -0.27299628 0.023706973 0.1254298 -0.03558477 0.19258045
0.15260957 0.1039502 -0.13431235 -0.20517024 0.15036528 -0.033959016 -0.34746882 0.17995045
0.13184038 0.066607825 -0.50349146 0.063712776 -0.17384058 -0.23808718 -0.26267615 0.102176614
-0.18948497 -0.14133972 0.19285206 -0.015954189 -0.1860182 0.06984661 0.123430826 -0.14674565
-0.11259073 -0.13249761 0.21046753 0.026110483 0.043494474 0.13568628 0.068981715 0.22077505
-0.1566915 -0.12890407 0.06756665 -0.097760886 0.007129468 0.111262664 0.07510268 -0.3990348
0.07296329 0.11951625 -0.4059592 -0.11300438 0.26957756 -0.02953118 -0.39681065 0.17889823
-0.33552012 -0.2702915 -0.2658895 0.025278814 -0.4172829 -0.044858888 -0.23297858 -0.10701555
-0.08051065 -0.14531118 0.06028096 0.06524139 0.03820649 -0.17059958 -0.030184109 -0.2051687
-0.25587893 -0.7361209 -0.015343517 -0.13668995 -0.0036457265 -0.10200735 -0.0677092 0.0016241485
-0.06822269 0.018375803 0.11571667 0.045409203 0.15229087 0.21697691 0.04657146 0.055365466
0.009099265 -0.59284467 -0.06354 -0.22533107 -0.04574338 -0.13896428 0.022692697 0.40323436
-0.048831798 0.09902842 -0.24437784 0.039626744 0.025483508 0.01119239 0.036836624 0.26957577
0.24277867 0.28228045 0.04347377 0.008877026 -0.040648427 -0.0013485198 -0.11987145 -0.56089413
-0.33989125 -0.5375179 -0.06361452 -0.07289676 0.008144367 0.01700911 0.10657575 -0.23857237
-0.15575565 0.2587599 0.036291134 0.30430448 0.3947693 0.066503614 -0.044144772 0.07316968
0.22645238 0.13014995 0.0872943 -0.09250875 -0.16701333 -0.13143064 -0.10297745 0.12777121
-0.10160712 0.17669554 0.038787887 0.024965148 -0.068827026 0.0048578978 0.042556185 -0.35504934
-0.2462948 -0.097571954 -0.1240053 -0.0771713 0.23509271 -0.12110149 -0.11110304 0.074879065
-0.22695921 -0.19592728 -0.2584762 0.0878296 0.0690043 -0.2052949 0.15527475 -0.112579025
0.08043418 0.06153455 0.23862712 -0.21822527 -0.08758779 -0.02041718 -0.06760282 0.031662352
0.21363758 -0.11711975 -0.20534354 -0.15294841 -0.107873976 0.020432554 0.24081874 -0.0044647213
0.14955549 0.16132002 -0.16278099 -0.07274888 -0.62376976 -0.3117141 -0.5388618 0.11890622
0.20745204 0.19007939 0.085079916 0.18446793 -0.12834166 0.119662404 -0.0042964616 -0.33565307

conv3.bias f4 [24]
00000000: 1e3b 9cbc 9b4a b03c 6f84 73bd c1b9 68bc
00000010: b783 ed3b fd45 bfbd 1794 9cbc a5bf f73c
00000020: e9a6 5ebc 6d4e bcbd 7268 373d 9b8b 743d
00000030: aa71 e03b f88a 6e3d 62b7 14be 2abc aa3b
00000040: cc12 8f3d 0f76 293d 334e d1bd b654 073d
00000050: e964 df3d 133d 5b3d b961 6cbd 4abb 06bd
-0.019071158 0.02151995 -0.05945247 -0.014204443 0.0072483676 -0.09339521 -0.019113583 0.03024275
-0.013589599 -0.09194646 0.04477734 0.05970345 0.0068494873 0.058238 -0.1452308 0.005210419
0.06986007 0.041372355 -0.102199934 0.03303977 0.10907919 0.05352504 -0.057710383 -0.032893457

conv4_mu.weight f4 [32, 24, 4, 4]
00000000: 2822 52be fc7f 3d3c ee33 063c 9a77 fb3d
00000010: 69b7 afbd ca7c 4e3e 81fe 053d 9aa5 223d
00000020: 5c80 f6bc e89c d73c 2713 9e3d fc7b 93be
00000030: 55f4 7a3d c93a 74be 3038 ac3d 3c0c 2b3e
00000040: a46d 89bc 072d aebc 1cb0 14be 7dbc e33d
00000050: b857 3fbd 8b4b b0bc df4e 42be 6bd2 5bbe
00000060: dbdc 0ebc f982 11bd 3551 b3be 33c9 09be
00000070: 2823 8abd b4af 0ebd 41ad d03d e730 44be
00000080: 618f 03bd c545 3e3e 35a6 103e 0395 773d
00000090: 071c e5bd 1780 be3d aab0 2b3e 3490 e33d
000000a0: 0b79 95bd 5ad3 8a3d f24b 80bd b544 3f3e
000000b0: 8c7d 0e3c 866b 8bbd bd14 80be 94da 8cbd
000000c0: af38 c13d ccc6 3bbd d777 2abd 7412 c43d
000000d0: a479 f2bc 70dc 92bc be3f f1be a317 ddbb
000000e0: 8a16 de3d 44f4 033e ea41 91bd 5ff8 653e
000000f0: 9044 3bbe 2263 da3d 2d50 783e a41a 93bc
00000100: f907 823d 90f8 b8bd 18db 0bbe 2f01 dabd
00000110: 8cc5 f23c ef2a f53d ecbe fcbc d6ed 56be
00000120: c743 913d e92f 90bd 2d96 a63d c98e e03e
00000130: 32de f6bc 854c a93d 693f 7ebc cb27 abbe
00000140: 549d 873c 5acb 9dbd d677 73be fcaf 32be
00000150: 423d cb3d 1b31 30be 983f 093d 3591 4dbd
00000160: d1b8 9f3d a53e debe 169e ab3e 6c02 493c
00000170: 7fa1 6c3e 53f6 3dbe eb50 0b3d 9bca 673e
00000180: 9213 2e3c 4d33 13be cc8d 3d3e 49fe 1d3e
00000190: 0827 1e3e 5c33 9e3d 3970 5abe e663 39be
000001a0: bce5 ebbd b25b cfbd 3924 d23c 2ff1 5a3d
000001b0: 84b8 7b3d a137 fb3b 1858 913e 4771 aebe
000001c0: af9e aebd fefc 98be 82f7 3bbe e3db 823e
000001d0: 108e 8ebd f0d8 8d3d e496 e33d b5a5 2c3d
000001e0: 7bb6 0a3d 1fef 953d 6ec4 4fbe e569 50be
000001f0: eb34 2a3d 74b6 8abb a94f ecbd f1f4 a6be
00000200: fc93 323e 59b1 8dbe b26d 413c b6af c23d
00000210: 45fd 5939 97e9 b1bd 8abd d93c cfd6 06be
00000220: 6856 ee3c b7da fc3b 33d2 7cbe e9c5 ce3d
00000230: 3108 1abe 147c 0b3c 8f22 1abd ae00 903d
00000240: 138f cf3d 19c8 0bbd db60 b3be 5031 9bbe
00000250: b9d7 c6bd 55dc 7fbe 24f3 0a3e bc42 83be
00000260: 0451 0f3b 17bd a2be b226 973e bb90 a2bc
00000270: 6b7c 853b 46d6 383c 06d7 c4bc 63fb 983d
00000280: d948 843d 1672 e73d 6bac c83d 57fc b13d
00000290: 329b cabe cf10 43be dfeb bfbe 185c edbc
000002a0: dc2b ef3b 42f3 47bc 9128 f33c a44c c83c
000002b0: 4f74 1a3e 650b d13b aa1b 09be a390 64bd
000002c0: af8f 803b 7516 363d 5ac8 0cbe ed81 b33d
000002d0: 65ed cf3d 089a 923d d97e 943d 6199 f33d
000002e0: f952 14bd f2bb a43e ae4e b53e 3529 8e3e
000002f0: 9ce4 c2bc 0299 fdbd 6907 9f3c a6b1 88bd
00000300: dec1 82be 6ff9 55bd 8cfe 9e3d 4f4b 303e
00000310: d2be 07bd 3663 cf3d f301 f9bd e590 b6bd
00000320: 8079 583d dcb3 0bbd d5fe dcbe 3c04 c83d
00000330: 107f 8fbc 7e68 44be 574b 983c 67e6 bc3d
00000340: b1cc fd3c 0695 cdbd af0d d93d ceed 9dbc
00000350: 76ab 9d3e 48b6 66be 31d6 83bd d113 62be
00000360: 6134 613e cada b1bc 22f9 52be 862a a7be
00000370: 3500 a13d 6eb0 1fbe 7b07 50bc af4e 023e
00000380: 3995 05be 261b 2bbe 5b38 c03c 2838 c03d
00000390: a587 c73d 5a94 f93d 38a4 823e 3a05 8f3c
000003a0: c598 083e c86a 68be 595d c53e d00a fbbd
000003b0: d00f 89bd ae63 003e f5d1 e7bc 6a22 48bc
000003c0: acdc e5bd 8900 08be 34b4 ac3e e3e6 823d
000003d0: b2f7 aa3d 58fc 2a3d 26a2 1abe 3546 3c3e
000003e0: d074 823d 9252 bcbc 9f18 8f3d b3b6 8bbe
000003f0: 4123 e33c dba4 c93d 06f3 e03b c7b2 91bd
-0.20520842 0.011566158 0.008191092 0.122786716 -0.085799046 0.20164791 0.032713417 0.03970871
-0.030090503 0.026319936 0.07718497 -0.2880553 0.06126817 -0.2385055 0.084091544 0.16703886
-0.016775914 -0.021261705 -0.14520305 0.11119936 -0.046714514 -0.021520397 -0.189754 -0.21466987
-0.008719648 -0.035525296 -0.35022894 -0.13455658 -0.06744987 -0.034835532 0.101892956 -0.1915928
-0.03211916 0.18581302 0.14125903 0.060444843 -0.111869864 0.09301775 0.1676661 0.11111489
-0.07298478 0.06778593 -0.062644854 0.18678553 0.008696925 -0.06807618 -0.25015822 -0.06877628
0.0943464 -0.045843884 -0.041618194 0.09573832 -0.029599018 -0.017927378 -0.47118944 -0.0067472025
0.10844143 0.12886149 -0.0709265 0.22458027 -0.18287873 0.10663439 0.24249335 -0.01795704
0.06349177 -0.090317845 -0.13657796 -0.10644757 0.029635213 0.119710796 -0.030852757 -0.20989165
0.070930056 -0.07040388 0.081341125 0.43858936 -0.030135248 0.08266548 -0.015518048 -0.33428797
0.016554512 -0.07704802 -0.23776183 -0.17449945 0.099237934 -0.17206232 0.033507913 -0.05018731
0.07798923 -0.4340717 0.33519047 0.012268644 0.23108481 -0.18550996 0.034012716 0.22635882
0.010624783 -0.14375038 0.18511122 0.15429033 0.15444577 0.0772464 -0.21331872 -0.18104514
-0.11518428 -0.10124911 0.025652038 0.053452667 0.061455265 0.0076665436 0.28387523 -0.340708
-0.0852636 -0.29880518 -0.18356135 0.25558385 -0.0696069 0.06926143 0.111127645 0.042150218
0.033865433 0.07320999 -0.20289776 -0.20352896 0.041554373 -0.004233176 -0.115386315 -0.3260875
0.17439264 -0.27674368 0.011805939 0.095061705 0.00020789083 -0.08687132 0.026579637 -0.1316788
0.029093936 0.0077165025 -0.2468956 0.10096342 -0.15042187 0.008513469 -0.037630614 0.0703138
0.10134711 -0.034126375 -0.35034832 -0.3031106 -0.097091146 -0.24986394 0.13569313 -0.25636852
0.0021868357 -0.3178489 0.2952171 -0.019844403 0.0040736697 0.0112815555 -0.024028312 0.07469823
0.06459207 0.11301057 0.09798511 0.08690708 -0.3957153 -0.1904938 -0.37484643 -0.028974578
0.0072989296 -0.012203993 0.02968243 0.024450608 0.1508343 0.006379532 -0.13389459 -0.055802
0.0039233784 0.04445501 -0.13748303 0.08765016 0.10152701 0.071582854 0.07250757 0.11894489
-0.03621194 0.3217464 0.3541159 0.27765813 -0.02379065 -0.123826995 0.019412713 -0.06674509
-0.25538534 -0.05223983 0.07763395 0.17216228 -0.033140965 0.10126345 -0.12158575 -0.08914355
0.052850246 -0.034107074 -0.4316317 0.09766433 -0.017516643 -0.19180486 0.018590612 0.09223633
0.030981394 -0.100381896 0.10598313 -0.019278433 0.30794877 -0.22530472 -0.06437338 -0.22077872
0.21992637 -0.021710772 -0.20602849 -0.3264963 0.078613676 -0.15594646 -0.012697096 0.12725328
-0.13045205 -0.16709575 0.023464372 0.09385711 0.09742669 0.12186499 0.25515914 0.017458547
0.13339527 -0.22696984 0.3854778 -0.12257922 -0.06692469 0.12538025 -0.028298358 -0.012215236
-0.112237304 -0.13281454 0.33731234 0.063916944 0.083480254 0.04174456 -0.15100917 0.18386157
0.063699365 -0.022988591 0.06987118 -0.27287826 0.027726771 0.09845897 0.006864908 -0.07114177

conv4_mu.bias f4 [32]
00000000: 236a 173b 272c 87bf dafa a03d d8a3 63bf
00000010: 1940 813c 4f75 843d de9f bf3c 09f1 dc3d
00000020: 0581 49bf 2cd6 68bf 0bbd 793d 088c 093d
00000030: 53bc 79bf d2c4 be3d 08d0 5b3d 827a bd3c
00000040: b94d 84bf fead 803c d428 84bf deca 1a3d
00000050: ed7d 963d 08cd 6fbf 93fd 70bf bef6 493d
00000060: 4ff2 c03d 30c0 8e3d e9ba 5ebf 5ccf df3d
00000070: 22bf 8d3d 7abc 72bf a9b5 bd3d 65ae 72bf
0.0023104034 -1.0560349 0.07860346 -0.8892188 0.015777634 0.06467687 0.02339166 0.10788161
-0.78712493 -0.909518 0.0609713 0.03358081 -0.97552985 0.09314884 0.05366519 0.023129705
-1.0336219 0.015707966 -1.032496 0.037791125 0.07348237 -0.9367223 -0.94136924 0.049307577
0.09421217 0.069702506 -0.8700395 0.109282225 0.06921221 -0.9481884 0.092631646 -0.94797355

conv4_var.weight f4 [32, 24, 4, 4]
00000000: 3d2a 9c3c f827 acbb 6fd1 87bb 6a09 543c
00000010: 286d 46ba cc5f 76bb 86a8 3bbb 3b4d 89bb
00000020: ddcb 073b bcfb 103b a19b 7238 f452 cdba
00000030: 5a8b 33bb 397a fc3a ac19 b83a 93f2 8fba
00000040: 9d56 033d a4d0 8d3b 596e 19ba 2866 353b
00000050: 7160 853b 8aa7 25bb b296 4fbb a211 e5ba
00000060: 863f 0b3b fe1b 48bb 064e 49ba c0da 90b7
00000070: 16d4 a3ba 161f 63ba 1b7f c3ba 2603 3cbb
00000080: dd88 2c3d 95fc 94bc 61f7 f5bb a941 423b
00000090: 16f7 22ba c534 b53a d94c afba 241f 9cbb
000000a0: 8b17 873b 0355 fa3a a75d cfb9 3f9a 1dbb
000000b0: c2dd cd3b 88b2 a9ba 8d46 42bb 597a a5ba
000000c0: 773f bc3c 94d3 3f3c 7041 543c 4a5e d93b
000000d0: 445e d3ba 88cc dab8 9c41 60ba 76a6 83ba
000000e0: ac8e 2bba 7168 35b8 7809 103a 0c39 8fb9
000000f0: b36d 913b ea52 b239 ae17 6db9 c891 3fba
00000100: f82b bdbc 34ec 5e3b 962f 4a3b 5a01 3abb
00000110: 1a2c e9b9 5217 69bb f1cd b5bb 7b72 1fbb
00000120: d230 26bb 3dbf 48bb 6236 26bb 6b6a 24bb
00000130: cc25 03b9 c7ab 71b9 856a 08bb 022e c339
00000140: 0bd8 9c3b b6a6 3bbc 7a3c 07bc aac7 3b3c
00000150: 08a0 693b 33bf 36bb 05ad 05bb 3191 a3bb
00000160: cca9 643b d2f0 6938 443d 0839 8a5f 443b
00000170: 3cf6 703b b47d 163a 4705 f8b9 f669 1fba
00000180: 5da4 013d 06eb c33c c20d 053d 9e0e 6e3c
00000190: a4ee 7bbb 9830 3039 123f 963a b7ad 223b
000001a0: a6aa b33a 9703 ce3a 2f41 aa39 40f1 b539
000001b0: 0a76 563b 3177 0ebb 600a d338 3a0b 063b
000001c0: 3496 d5b9 57bb 2ebc 4e5d 72bb 722d 76bc
000001d0: 3519 833b 9238 1fbb 439a 91ba adba 9cba
000001e0: 6684 0e3a 4a4f b0ba 1dad 48ba bff3 beba
000001f0: efb1 ab3a 5fa5 b53a bbd6 88ba 3178 c7ba
00000200: 1482 15bd 864d 9bba 0c15 4f3b 4c6c 0838
00000210: f155 0d3b 8d89 42ba 399b 80bb a901 1fbb
00000220: 267c 453a 2f7d 713a df69 b6ba ed3f 9c3a
00000230: 244d 1b3b d40c 13bb 6418 c83a 9b3d 3a3a
00000240: 4c6e 1cbc 868a 41bb 33d7 adba 0f2d b93b
00000250: 5d6b a839 7aad 8eba ba25 2739 19ad 023a
00000260: 5602 43bb 89c5 b3b9 bada 043b c449 503b
00000270: 9569 9f3a b56b 243a cfe7 1539 32ba 703a
00000280: 44ff 353b 31fb 0dba 56d0 b2ba c93b 8239
00000290: ca12 8cbb f05a b1bb cda3 eeba 27e6 a5ba
000002a0: c2b2 1e3a 186f 5dba 0bb0 88ba a706 77b9
000002b0: f573 cb39 2915 d9ba 18fd 533a fbc9 e338
000002c0: d3d8 143c 6379 cdbb e619 fb3a c832 133b
000002d0: fcf7 6dba 2ddd 9aba 0477 d839 5f9f 39b9
000002e0: c47f 0f3a 3305 5c3a 8c9d ff39 b3fa 43ba
000002f0: 45c0 fe39 fd23 84b9 233a 5cb9 99ca 66b9
00000300: 9f16 4e3c fa08 17bb 35b9 50bb 1969 a73b
00000310: da9b d6ba d713 f2bb 3d49 7fbb e599 2cba
00000320: 62a4 76bb 605c edba 07f0 dfb9 64f0 bab9
00000330: 1d46 1cbb b460 60bb 734f 353a c829 c5ba
00000340: fe3b 643b 359d cebb a6f0 84bb 1101 f13b
00000350: 6efb 3b3b 316e 77ba e44d ab3a 563a 2c3b
00000360: 826a b63b 4753 b43a 4d5a e63a aa7c 713b
00000370: 44eb 4e3a 1bd6 7639 7fad d33a 9cc0 a8b9
00000380: 42e5 243d 7809 92ba 8ca6 e63b 3578 033c
00000390: 546d 50ba 5ce9 b0ba 3869 4cba c17f 29ba
000003a0: 9d32 703b 69bf d4b9 a2a2 40ba 505e 083b
000003b0: db1f 7238 deb4 293b 4857 a33a cde6 c73a
000003c0: e698 bebb 4196 2d3b 676b c439 6886 09bb
000003d0: e5b8 5e3b 1793 2839 31f2 603c ea58 573b
000003e0: 53d2 6f3b 8684 d438 0a2e c63a f986 023b
000003f0: 3b3c 003b ae52 73ba 5437 503a 8990 423a
0.01906311 -0.005253788 -0.0041448395 0.012941698 -0.0007569366 -0.003759372 -0.0028634383 -0.004190115
0.0020720877 0.0022122702 5.7842237e-05 -0.0015664981 -0.0027396292 0.0019262499 0.0014045737 -0.0010982327
0.032065023 0.0043278504 -0.000585293 0.0027679298 0.0040703346 -0.0025276863 -0.0031675515 -0.0017476568
0.002124758 -0.0030534263 -0.0007679168 -1.7268001e-05 -0.001249912 -0.0008663995 -0.00149152 -0.00286884
0.04212271 -0.018186847 -0.0075062965 0.0029641187 -0.0006216628 0.0013824931 -0.0013374343 -0.0047644544
0.0041226796 0.0019098822 -0.00039551893 -0.0024048237 0.006282539 -0.0012946883 -0.0029644102 -0.0012624963
0.022979481 0.011708159 0.012955055 0.0066335546 -0.0016126116 -0.00010433147 -0.00085546984 -0.0010044116
-0.0006544392 -4.325103e-05 0.0005494575 -0.0002731759 0.004438126 0.0003401258 -0.00022610903 -0.0007307795
-0.023092255 0.00340153 0.0030851117 -0.0028382153 -0.0004447408 -0.0035566879 -0.005548232 -0.002432971
-0.002535869 -0.0030631565 -0.0025362005 -0.0025087844 -0.00012507214 -0.00023047543 -0.0020815444 0.00037227577
0.0047864965 -0.011453321 -0.008254165 0.011461178 0.0035648365 -0.002788496 -0.0020397317 -0.0049916734
0.0034891246 5.577581e-05 0.00012992794 0.0029964172 0.003676786 0.0005740777 -0.00047306178 -0.0006081158
0.03165089 0.023915779 0.032483824 0.014529852 -0.0038441801 0.0001680277 0.0011462888 0.002482278
0.0013707473 0.0015717623 0.00032473492 0.00034702756 0.0032724165 -0.0021738524 0.000100631965 0.002045347
-0.00040738436 -0.0106647825 -0.0036981883 -0.015025483 0.0040008076 -0.0024295193 -0.0011108596 -0.0011957489
0.0005436599 -0.0013451364 -0.00076551904 -0.0014568492 0.0013099293 0.0013858489 -0.0010439971 -0.0015218315
-0.036501005 -0.0011848665 0.0031598238 3.2525786e-05 0.0021566118 -0.00074210094 -0.003924754 -0.0024262464
0.0007533453 0.0009212074 -0.001391705 0.0011920907 0.0023697102 -0.0022438066 0.0015266058 0.0007104517
-0.009547781 -0.002953203 -0.0013262987 0.0056511234 0.0003212345 -0.001088544 0.00015940415 0.00049849
-0.002975603 -0.00034288716 0.0020271973 0.003178225 0.0012162203 0.0006272153 0.00014296103 0.00091830187
0.0027770558 -0.00054161536 -0.0013642411 0.00024840076 -0.004274701 -0.005412452 -0.0018206775 -0.0012657092
0.00060538587 -0.0008447035 -0.0010428441 -0.00023558234 0.00038805572 -0.0016562092 0.0008086725 0.00010861825
0.009084898 -0.006270574 0.0019157499 0.0022460688 -0.0009077785 -0.0011815183 0.00041287404 -0.00017702345
0.00054740557 0.0008393109 0.00048754772 -0.0007476017 0.00048589907 -0.00025203815 -0.00021002493 -0.00022009983
0.0125786355 -0.0023046122 -0.0031848673 0.005108964 -0.0016373352 -0.007387619 -0.0038953566 -0.00065842114
-0.00376346 -0.0018109195 -0.0004271271 -0.0003565579 -0.0023845502 -0.0034237327 0.0006916441 -0.0015042359
0.0034825797 -0.0063053616 -0.004057008 0.0073548635 0.00286838 -0.0009438722 0.0013069478 0.0026279888
0.005566896 0.0013757729 0.0017574519 0.0036847987 0.00078933337 0.00023540149 0.0016149728 -0.00032186962
0.0402577 -0.0011141738 0.007038897 0.008024265 -0.00079508615 -0.0013497281 -0.0007797661 -0.0006465875
0.0036651262 -0.00040578403 -0.0007348453 0.0020808168 5.7726964e-05 0.0025895159 0.0012461925 0.0015251279
-0.0058165668 0.0026487263 0.00037464054 -0.0020984653 0.0033984717 0.00016076524 0.013729618 0.0032859393
0.003659387 0.00010133632 0.0015119922 0.0019916876 0.001956715 -0.00092820346 0.0007942815 0.000742205

conv4_var.bias f4 [32]
00000000: 2a14 32bf 8a1d 32bf b3c4 29bf c61e 3cbf
00000010: 91c5 35bf d3ce 29bf d17e 35bf 5f44 37bf
00000020: 5f4f 27bf c03f 35bf 4368 32bf efd4 2dbf
00000030: c6ae 28bf 7d75 2ebf e27e 35bf ca17 38bf
00000040: e0c0 2abf ca4f 36bf 4c0c 26bf 4fe9 2abf
00000050: 7e64 36bf a795 30bf 1d0a 2bbf c546 37bf
00000060: f600 2ebf 7827 30bf 0469 20bf 62f5 36bf
00000070: 2956 25bf 9558 31bf a799 24bf c624 23bf
-0.6956202 -0.69576323 -0.66315764 -0.73484457 -0.7100459 -0.66331214 -0.7089663 -0.715887
-0.65355486 -0.708004 -0.6969034 -0.67903036 -0.65891683 -0.6814802 -0.7089673 -0.719113
-0.66700554 -0.712155 -0.64862514 -0.6676225 -0.7124709 -0.6897835 -0.66812307 -0.7159236
-0.67970216 -0.68810225 -0.6266024 -0.71468174 -0.64584595 -0.6927579 -0.64296955 -0.63727987

bn1.weight f4 [8]
00000000: 7f76 8a3f 992d 5a3f e88a 4e3f cae8 823f
00000010: c81c 663f 0d32 4f3f 2b96 893f c1e5 763f
1.0817412 0.85225827 0.80680704 1.0227292 0.89887667 0.80935746 1.0748953 0.96444327

bn1.bias f4 [8]
00000000: c263 afbb a8ed 3b3e dfc0 683e d2f9 3c3f
00000010: 37a9 583d 624b 6b3d 874c e9bd 682a bcbd
-0.005352468 0.18352377 0.22729824 0.73818696 0.05289575 0.057444938 -0.113915496 -0.09187776

bn1.running_mean f4 [8]
00000000: d85d 9f3e df9f 17bf 763e 1cbf 425f de3d
00000010: 9e22 7f3f 219c a63d 56a8 52bf ccd9 9f3f
0.31126285 -0.5922832 -0.6103281 0.10858013 0.99662197 0.08135248 -0.8228811 1.2488341

bn1.running_var f4 [8]
00000000: 3918 f03d 6592 ad3e cc3e 8e3e e800 e13e
00000010: b876 b63f e768 bd3e 3994 483f 082f 903f
0.1172337 0.33900753 0.27782285 0.43946004 1.425498 0.36994097 0.7835117 1.1264353

bn2.weight f4 [16]
00000000: 222f 743f 1ea4 643f 0959 6d3f e50d 993f
00000010: a59b 7e3f a3ce 813f f8f0 5a3f ae75 843f
00000020: 771e 703f 3583 543f d8eb 663f 3f9f 8d3f
00000030: e860 8c3f 0f3b 6b3f f545 6c3f bed4 833f
0.9538442 0.8931292 0.9271398 1.1957365 0.99456245 1.0141186 0.8552394 1.0348413
0.93796486 0.83012706 0.9020362 1.1064223 1.0967073 0.9188699 0.92294246 1.0299299

bn2.bias f4 [16]
00000000: 4986 acbd fb73 37be 864a b9bc 493f 97bc
00000010: 0585 dd3d b268 04bc e1e6 b7bd ff00 39be
00000020: c707 f23d 1de3 9fbc c9ce 6ebe 9090 59be
00000030: 77bd c9bd a75a 1fbe eb26 c43c 3a1d 993c
-0.0842405 -0.17915337 -0.022618543 -0.018462794 0.10816387 -0.008081602 -0.089795835 -0.18066786
0.1181789 -0.019517476 -0.2332107 -0.21246552 -0.09850591 -0.15561925 0.023944339 0.018690694

bn2.running_mean f4 [16]
00000000: 4668 9d3e 0783 a73f ce95 fe3f d622 e8bf
00000010: bf5f 8b3e a27b d63f d9bc 61bf a984 7abf
00000020: 95ae 86bf 5d38 d5bf d134 3c3f 73a0 98bf
00000030: 1300 c2bc 17e0 413e 6d92 fe3f 4704 053f
0.30743617 1.3086861 1.9889467 -1.8135631 0.27221486 1.675648 -0.88178784 -0.97858673
-1.0522028 -1.6657826 0.7351809 -1.1923965 -0.023681676 0.1893314 1.9888436 0.5195965

bn2.running_var f4 [16]
00000000: 1803 f03f f7e3 f03f 32e1 5840 1995 f840
00000010: 790a 1d40 2284 7b40 5bed 8a3f 933a 3740
00000020: 1a4f 0240 1619 3340 f8b1 c93f 2934 3640
00000030: 75ac 7940 317f da3f 06a3 2840 8c48 4940
1.8750944 1.8819569 3.3887448 7.7682004 2.4537642 3.9299397 1.0853685 2.86295
2.036078 2.7984061 1.5757437 2.8469336 3.901151 1.7070066 2.6349502 3.145053

bn3.weight f4 [24]
00000000: bae5 3d3f 7149 353f 157d 463f 9776 303f
00000010: a7a0 3a3f a928 373f af5f 193f 574a 4b3f
00000020: 72c0 233f 5025 4e3f 4b22 343f e287 5b3f
00000030: fe49 563f d5ef 2d3f 1a41 4d3f 5173 3c3f
00000040: 5c91 503f f231 193f 9fd7 593f 8101 403f
00000050: dcd6 223f 46f3 233f 2e7e 4c3f 03c0 3b3f
0.7417866 0.7081519 0.7753461 0.68930954 0.72901386 0.7154642 0.59911627 0.7941031
0.63965523 0.80525684 0.70364827 0.85754216 0.83706653 0.6794408 0.8017746 0.7361346
0.814718 0.59841835 0.85094637 0.75002295 0.636091 0.6404308 0.79880035 0.7333986

bn3.bias f4 [24]
00000000: f22c afbe 09b0 a6be 7216 b3be 452f f0be
00000010: 5546 86be c41d 9cbe ae12 e0be aea9 a1be
00000020: 1c59 a1be 8102 c6be 97f8 95be 2d87 0ebf
00000030: 8ef2 f5be 343c b5be e886 fbbe e783 d1be
00000040: c380 bdbe 1d14 dcbe 1fe6 03bf 63ed fcbe
00000050: 6cc3 94be 79c8 c3be 7fc5 aebe cc2c e3be
-0.34213978 -0.3255618 -0.34978062 -0.46911064 -0.26225534 -0.3049146 -0.4376425 -0.31574768
-0.31513298 -0.38673785 -0.29291221 -0.5567501 -0.48036617 -0.35397494 -0.49126363 -0.40920946
-0.370123 -0.42984095 -0.5152301 -0.49399862 -0.29055345 -0.38238886 -0.34135053 -0.44370115

bn3.running_mean f4 [24]
00000000: 5d64 6bbf e48d 8abf 7fea 423f f038 8cbf
00000010: 7fec b3bf ea21 a1bf 187a 9abe d8b1 68bf
00000020: e538 91bf da50 60bf 067b 02bf 6205 c0be
00000030: 7daf 72be 1aed b43e ba94 0dbf 330a 4dbf
00000040: 5aee c7bf 1d08 9abf 2653 71bf 58c7 28bf
00000050: adad fdbf 6f6d 0dbf 3665 9fbf d4ca 46bf
-0.9195002 -1.0824552 0.7613906 -1.0954876 -1.4056548 -1.2588475 -0.30171275 -0.9089637
-1.1345488 -0.8762337 -0.5096897 -0.37504107 -0.23699756 0.35337144 -0.55305064 -0.8009369
-1.5619614 -1.2033726 -0.942675 -0.65929174 -1.9818627 -0.5524511 -1.2452762 -0.7765324

bn3.running_var f4 [24]
00000000: e211 c440 6ac0 f240 62cb b140 4264 8e40
00000010: 8679 e640 94c5 9440 dd7d 5640 8ea6 bd40
00000020: 6a20 7840 28b7 aa40 8eb1 c940 6586 7c40
00000030: 49c1 8040 5ec0 1240 cc6d 9140 b634 db40
00000040: 6c6a c040 797c 0340 d053 3f40 d009 3540
00000050: f8e8 e640 8699 6a40 e022 8a40 781f 1540
6.127183 7.585988 5.556077 4.4497385 7.2023344 4.6491184 3.351432 5.9265814
3.8769784 5.334858 6.302924 3.9457028 4.0235944 2.2929912 4.544653 6.8501844
6.012991 2.0544722 2.9894905 2.828724 7.2159386 3.6656203 4.316757 2.3300457

deconv1.weight f4 [32, 24, 3, 3]
00000000: cb32 debd cb37 e9bd 9281 a9bd c5c3 9cbd
00000010: 8d08 adbd 8a82 c0bd fe45 45bd faa6 aabd
00000020: 1df4 e1bd 6c4e 9abd 6432 c8bd 38c5 0abd
00000030: 2812 47bd 6ab7 923d a022 123e 7852 9abd
00000040: 1795 2bbd c409 d8bd e1c7 55bd e4e8 133e
00000050: 3936 5bbc d147 053d c433 efbd 3b77 90bd
00000060: 0a6e 89bb d8f7 edbd 9c64 84bd 1425 80bd
00000070: f203 e9bd a015 6fbd df77 f63c 7c37 86ba
00000080: 9d45 07bd 6e62 d93e 12d7 5bbd e190 033d
00000090: ee75 95bd 6110 0fbe 4046 adbd 421d fa3b
000000a0: 20bd cb3c 4ad9 863d ad37 5ebd c50d 2fbd
000000b0: 5d8d 73bb c26b 1abd 0c31 adbc 8058 ad3d
000000c0: f5b7 b8bc 381f c5bd b670 b9bd 1e51 72bd
000000d0: 4dc0 3bbd 1119 b6bd 3eeb b53b 2446 b9bd
000000e0: f490 5cbd 1424 c73e 0624 ccbc 43cd c03c
000000f0: 325a 3bbd 2e75 7ebb c1d6 2fbd f0bb e6bd
00000100: 98e7 653c bd41 023e 5010 0cbd b4e8 46bc
00000110: f04e 03bd 1d1e 8d3d 6b96 c9bd e213 af3d
00000120: 5294 00bd ba0e a0bd ad93 4cbd 257e 82bd
00000130: 2e66 36bd ab91 37bd ccae 19bd 5eb0 69bd
00000140: ab9e 88bd 8155 bb3e 3745 d73c 9d68 c5bd
00000150: b97a 2f3e b4f9 75bd e5b1 d5bc 2ca1 013f
00000160: d651 d5bd 3d1a b4bd cb64 113d 673c a5bd
00000170: 2c01 9dbd b252 5cbd 965c a6bd 3346 92bd
00000180: 97e8 5fbc 40e1 9ebd fdc8 73bc 222f 1b3e
00000190: 0109 133e 119d 93bd 081d 6ebd 1446 293e
000001a0: 8650 93bb 20ae 253c d6c2 003b 7b7a 70bd
000001b0: b410 0dbd 5c10 e93c 899a 09bd 6000 3cbd
000001c0: 49f5 463c 53d4 2c3d 0274 98bd d1ff d1bc
000001d0: ad33 76bd e83d e2bc 2880 55bd 1786 e5bd
000001e0: 7230 dbbd ce34 083e 2c35 9abd 6c53 96bd
000001f0: cf5a 21bd 7121 e7bb bc33 6abd 301e 90bc
00000200: 1295 21bd 2553 bcbc f8ef f43a 5ba0 41bd
00000210: 9b41 493c c724 ed3e daeb a0bd 668f 14bd
00000220: 907c b3bd b0a6 a3bd 7045 07bd 4df5 e03d
00000230: 9e3d efbc c0a6 5d3d 4305 1bbd 1171 19bc
00000240: 1564 57bd 5849 8abd 67ce ad3d fc5d 15bd
00000250: 8a42 22be 5195 233e 11e8 e2bd ede2 1fbe
00000260: c308 433f c4f2 d4bd 7852 503e ee92 2d3f
00000270: 9f6a 1a3d c29f 8c3e d872 1d3f e3a0 e53d
00000280: 05a4 9cbd 0e8e 1f3e bb02 e2bd b1ac b7bd
00000290: d416 99bd ce4c 193b 3544 3bbd fa4a cebd
000002a0: 8247 7ebd e91a 543e a691 a4bd a417 ae3d
000002b0: 435c edbd 8289 26bc 6486 293e 42dc 54bd
000002c0: 5520 cbbd 09cf 9fbd 3d09 bd3d 0fc1 c8bc
000002d0: dc5c 2a3f fc1c 10be 09e4 cdbd e810 b93c
000002e0: 5025 033e 24a7 a63b a000 803a 1a29 f13e
000002f0: e158 76bd 2d54 e7bc daa3 d1bc b735 a9bc
00000300: 2f31 08be 673e 8bbd bd8b 4a3c 1fbf 1bbc
00000310: 2473 40bd 6b4f 27bd 533e 48bd 60c1 883c
00000320: 0aa9 0abd 6499 71bd 1d07 9c3b bc8a 19bd
00000330: 883f 24bd 4eae ecbd a672 92bc 8d00 be3c
00000340: cd14 c9bd 9168 9ebc c95e aa3e 7638 113d
00000350: 1687 13bd 44cb 873c d130 b73d ea5a 93bd
00000360: 061f bb3b 2e2e 2c3a f8bd 333b 352d c53b
00000370: 9ebc 053c f19c 21bb fca8 32bb 53c9 05bc
00000380: 0556 813b 2039 4a3b 7961 783c 8ac8 043b
00000390: af34 5b3b 674d 953b 7e76 383b 787f 2fb9
000003a0: 168f 863a f6e1 92b8 eeb9 18bb 4b73 29ba
000003b0: 2478 8d3b b9e9 9fbb 8319 d8bb 282b a039
000003c0: 445b 80ba 2e8d 9b3b c9b9 923a dff9 493a
000003d0: de89 ca39 656a 8dbb 9e03 f9bb 17fb 84bb
000003e0: a940 37bb 603b dc3b 4e2c 833b 2371 ffba
000003f0: 57cd e63b 0434 8d3b fea2 c7bb a567 13bc
-0.10849532 -0.11387595 -0.08276667 -0.076545276 -0.084488966 -0.09399898 -0.048162453 -0.083326295
-0.11032889 -0.07534489 -0.09775236 -0.03387949 -0.0486013 0.0716389 0.14271021 -0.07535261
-0.04189023 -0.10548738 -0.052192573 0.1444431 -0.013379627 0.032539193 -0.116797954 -0.070539914
-0.004194026 -0.11619538 -0.06464502 -0.06257072 -0.11377706 -0.058370233 0.030086456 -0.0010239924
-0.033025373 0.42457908 -0.053671904 0.03212059 -0.07297884 -0.13971092 -0.08460665 0.0076328823
0.024870455 0.06584413 -0.054252315 -0.04273774 -0.0037163117 -0.037700422 -0.021141551 0.08464146
-0.022548655 -0.09625095 -0.09054701 -0.05915939 -0.04583769 -0.088915 0.0055517247 -0.090465814
-0.053849176 0.38894713 -0.024919521 0.023535376 -0.045740314 -0.0038827169 -0.042929415 -0.11266315
0.014032267 0.1272039 -0.034195244 -0.012140442 -0.032057703 0.06890509 -0.09843143 0.08548714
-0.03139145 -0.07815309 -0.049945522 -0.063717164 -0.04453104 -0.044816654 -0.037520215 -0.057052962
-0.066708885 0.36588672 0.026278121 -0.09639094 0.17136659 -0.06005259 -0.026085803 0.50636554
-0.104159996 -0.08794067 0.035496514 -0.080681615 -0.07666239 -0.053789802 -0.08123128 -0.07142296
-0.013666294 -0.07757807 -0.014879462 0.15154698 0.14358903 -0.072076924 -0.058133155 0.16530639
-0.004495683 0.010112315 0.0019647381 -0.058710556 -0.034439757 0.028450184 -0.03359464 -0.045898795
0.0121434415 0.042194676 -0.07444002 -0.025634678 -0.060107876 -0.02761741 -0.052124172 -0.11207216
-0.107025996 0.13301393 -0.07529673 -0.0734013 -0.039393242 -0.007053547 -0.057178244 -0.01759252
-0.039448805 -0.022988865 0.0018687239 -0.047272068 0.012283708 0.4631712 -0.07857485 -0.036269568
-0.08763993 -0.079907775 -0.033025205 0.109842874 -0.029204186 0.054114103 -0.037846815 -0.009365336
-0.05258568 -0.067522705 0.08486634 -0.036466584 -0.15845695 0.15974928 -0.110794194 -0.15613909
0.76185244 -0.10397866 0.2034396 0.6780232 0.037699338 0.27465636 0.6150336 0.11212327
-0.07648472 0.15581533 -0.11035677 -0.08968485 -0.07475057 0.0023391726 -0.045719344 -0.100728944
-0.062079914 0.2071339 -0.08035593 0.08500603 -0.11589863 -0.01016462 0.16555172 -0.051967867
-0.09918276 -0.07803161 0.09230278 -0.02450612 0.6654794 -0.14073557 -0.1005326 0.02259107
0.12807202 0.0050858427 0.0009765811 0.4710167 -0.060143355 -0.02823838 -0.025590826 -0.020655496
-0.13300012 -0.06799012 0.012362418 -0.009506016 -0.046984807 -0.040847223 -0.048887562 0.01669377
-0.033852614 -0.058984175 0.00476159 -0.037485823 -0.04009965 -0.115566835 -0.017876934 0.023193622
-0.098184206 -0.01933697 0.3327544 0.035454236 -0.0360175 0.016576417 0.08944858 -0.07195075
0.0057104854 0.00065681606 0.0027426463 0.006017352 0.008162646 -0.0024660195 -0.0027261367 -0.008165675
0.003947022 0.0030856803 0.015159958 0.0020261132 0.003344815 0.004556346 0.0028146799 -0.00016736786
0.0010266032 -7.003911e-05 -0.0023304182 -0.00064640184 0.0043173004 -0.004880157 -0.006594838 0.00030549732
-0.0009792824 0.0047470545 0.0011194284 0.0007704775 0.0003863116 -0.0043156617 -0.007599308 -0.0040582526
-0.0027962124 0.0067209452 0.0040030843 -0.0019488673 0.0070435214 0.0043091793 -0.006092428 -0.008996879

deconv1.bias f4 [24]
00000000: 4773 0ebc 3dca 883d 90bb adbd e25d 923d
00000010: ec33 79bd 9c10 a1bd dbfd 39ba 1284 603d
00000020: 9dbc 45be 49b5 b03d 2f4e 153e fdab 48bd
00000030: e64a ecbd 8a02 ccbd ab39 403d 4e27 6f3e
00000040: d80b 4abe 6d95 e73d ffbd d33d be95 61bd
00000050: b3d7 d63d 654e 5c3e 5f01 06be a334 eebc
-0.008694476 0.06679199 -0.0848304 0.07146813 -0.060840532 -0.07864496 -0.00070950174 0.054813452
-0.19310232 0.086283274 0.14580606 -0.048992146 -0.11537723 -0.09961422 0.046929996 0.23354837
-0.1973108 0.113077976 0.10338973 -0.055074446 0.1049036 0.2151428 -0.1308646 -0.029077834

deconv2.weight f4 [24, 16, 3, 3]
00000000: 1a00 4dbd ad18 203e dc6f 053d b61e 183e
00000010: 8733 25be 1efa 02be b56f e83d 9f1b e33d
00000020: 37c4 bc3d f353 25be 7e05 4e3e be6d 833e
00000030: e0f7 9f3d e32d 20bc bde1 68be 79cf 4fbe
00000040: 7c83 a6bd 0887 00be 1607 b53d f163 343e
00000050: 7291 fb3c 56ab ddbd e84f 02be f451 193d
00000060: 834e e8bb 75ad e13d 2fd3 31be c214 203d
00000070: 81f1 473c 49f9 e0bd b69a 2fbe bfbf 183d
00000080: 1180 b3bc eeba ecbe f4c3 b73c 9170 1cbe
00000090: 2566 30be 24da cabd cbd6 2dbd 8628 1dbd
000000a0: 6739 3abe 6932 173e 3bc7 bebd d2ce d0bd
000000b0: cffb 1ebe 9cf0 f73d 297f c2bd c0c1 1fbe
000000c0: aa15 eb3d 4d0f 6b3e d3f2 ad3d 7c82 5e3e
000000d0: fb14 66be 1bec 5dbe 1bd6 fdbc 07bf aabd
000000e0: 654e 623e 8689 8cbe 0649 be3d 1bef f53c
000000f0: 566e 3d3d 94dc 9bbe 2c4b 0bbd 6643 80bd
00000100: 2fa4 02be cc3f 003e 1473 89bd 8f10 80bd
00000110: b0c2 91be 4a8e 73be eeca ec3d 5a57 fa3c
00000120: 8625 30bc 8d62 53be 1360 bc3d 58bc d9bc
00000130: a497 e13d 298c 1dbe 6cff 133d b7d2 113e
00000140: 844e fbbd fad2 a53c 17a5 0f3d 7863 9b3d
00000150: 20cf 18be 3a6c aa3d 60ec 193c e444 1b3c
00000160: 4801 7a3d 716d c4bd 3daf 843b 9610 febc
00000170: 89da 463d b09c c1bd afa5 ba3c 3c2f 173e
00000180: 65f9 953c 0c97 a63d 23be d63d 4177 c13d
00000190: 0b7f 80bd db6d b23d 7c94 f2bd 6d3c 463e
000001a0: 1be8 ab3d c45e 62bd a7e5 f93b bdc8 a9bc
000001b0: 4353 8c3d 6a80 263e 4b4a 453c bc9f 9b3d
000001c0: 6abf 3c3c 4cce 2abd e90f 7d3d bf8a 983c
000001d0: 16c1 23be 38a9 3ebd d511 20be acd7 e43d
000001e0: cd46 d1bc fd15 06be c096 b7bd 5bcd 62be
000001f0: 7e9c 0fbd b7c7 1fbd 8e96 403e 05ed fd3c
00000200: 306e 77bd a009 6dbe b47d 1abe 074d 4bbe
00000210: 1a64 433e ab98 62be ffe4 b73d 55f0 0bbc
00000220: 896a 773c 4efc 13be a48f ed3d 332b 4bbc
00000230: 9e5a 8fbd 8384 46be 79f0 c53c c479 55bd
00000240: 8b70 0b3e 5553 e63d 5886 d43d 349f 313c
00000250: d4b2 9f3c d914 1c3c 137c b33c 1ca6 2dbe
00000260: 808d 7a3e f892 dfbd ace2 13bd ed8d 50bd
00000270: 878c 3b3d 43cd 33be c87f 4abe daa8 37be
00000280: 2eb8 343c f2cb 7dbe 3281 f0bc 9997 063d
00000290: 23f0 6bbe 1445 773d 0900 e33d f3b1 86bd
000002a0: 5cfd 6b3c 73ef f7bd 79c1 ecbd b4e5 a2be
000002b0: 49d3 a03a 8def 553e 00f0 3e3d dfa8 0fbe
000002c0: d5c1 433c c4b4 bcba 1c8a c83d fbfa b0be
000002d0: bd4f 10be 9a53 c1bd aaa3 13be 3b55 2fbe
000002e0: a593 8dbe 1247 0f3c 41df 81be c8ac 28be
000002f0: 3704 e3bd 6796 97bd 5aa0 73be b327 9fbe
00000300: 0be3 173e 15ba 95bd 5642 903e b547 ac3e
00000310: e4b8 f5be ea8e fdbd 5225 00bf 108f 483d
00000320: 5819 e5be 6147 fa3d f165 d1bd bfc8 753e
00000330: 7aa6 d2bd 11bc b03e 80ce 763d ba92 40be
00000340: 23c1 eb3c 8180 153e 6727 13be dce6 c5be
00000350: f4d0 4bbd f484 d9be 9512 f23c ecc9 033e
00000360: 52f7 0fbe d4f5 70be 481c 1a3d 71c4 3ebd
00000370: c132 eabc 5bb5 52be 293c 31bd 7074 cb3d
00000380: c067 423c 6674 07be e61b 07be 7149 32be
00000390: fb98 34be d46c babd febf f9bd e9fa f9bd
000003a0: 2f77 203d 0862 8d3d b08e b2bc c70e 29be
000003b0: 69ea e33c c26e c33b 5c5d 113e 2443 12be
000003c0: 66fa c4bc 55d8 d2bc be0c 22bd dbed 173e
000003d0: 4a47 813e 27d2 2e3a 6cb4 c33c 2e6a b63c
000003e0: 2019 a0bd 0b74 ae3d cb5d 6e3e 3566 e2bd
000003f0: 1145 11be 1262 873d a3c0 febd a754 293e
-0.050048925 0.15634413 0.03257738 0.14855465 -0.16132937 -0.12790725 0.113494314 0.11089253
0.092171125 -0.16145305 0.20119283 0.25669664 0.0781095 -0.009776565 -0.22742362 -0.20293988
-0.081305474 -0.1255151 0.08839242 0.1761625 0.030709002 -0.10823695 -0.12725794 0.037431672
-0.0070894375 0.110194124 -0.17365716 0.039082296 0.012203575 -0.10985047 -0.17148861 0.03729224
-0.021911653 -0.46236366 0.022432305 -0.15277316 -0.17226465 -0.09904888 -0.04244117 -0.038368724
-0.1818596 0.14765324 -0.09315344 -0.10195698 -0.15525745 0.121064395 -0.0949691 -0.15601254
0.114787415 0.22955056 0.08493581 0.21729463 -0.22468941 -0.21672098 -0.030985883 -0.08337217
0.22100218 -0.27448672 0.09291272 0.030021241 0.046247803 -0.30441725 -0.034007236 -0.06262855
-0.12757944 0.12524337 -0.067114025 -0.06253158 -0.28468847 -0.23784748 0.11562143 0.03055923
-0.010751134 -0.20643063 0.09198012 -0.026579067 0.11015251 -0.15385498 0.03613226 0.14240538
-0.12270835 0.020242203 0.03506955 0.075873315 -0.14922762 0.08321424 0.009394735 0.009476874
0.06103638 -0.09591187 0.0040492103 -0.031013768 0.048548255 -0.09453714 0.022784082 0.14764112
0.018307397 0.08134279 0.104854845 0.09446574 -0.062742315 0.087123595 -0.118447274 0.19358988
0.0839388 -0.055266157 0.0076262536 -0.020725602 0.068518184 0.16259924 0.012041639 0.07598826
0.011520246 -0.041700646 0.06178275 0.018620847 -0.15991625 -0.0465481 -0.15631802 0.11173949
-0.025546456 -0.13094325 -0.089643 -0.2214865 -0.035061352 -0.039008822 0.18807432 0.030996809
-0.060407817 -0.23148203 -0.15087014 -0.19853602 0.19081154 -0.2212855 0.089792244 -0.008541186
0.015101084 -0.14451715 0.11599663 -0.012400436 -0.06999706 -0.19386487 0.024162518 -0.052118078
0.1361715 0.11246363 0.103771865 0.01084118 0.019494452 0.009526455 0.02190975 -0.16957897
0.2446804 -0.10916704 -0.036104843 -0.0509166 0.045788314 -0.1755877 -0.19775307 -0.17935506
0.01103024 -0.2478483 -0.02935848 0.03285942 -0.23040824 0.060368612 0.11083991 -0.0657691
0.014403667 -0.12106218 -0.115603395 -0.31815875 0.0012269999 0.20892163 0.0466156 -0.14029263
0.011948069 -0.0014397134 0.09791967 -0.34566483 -0.14092918 -0.09439774 -0.14417902 -0.17122357
-0.27651706 0.008744972 -0.25365642 -0.16472161 -0.11084788 -0.07401734 -0.23791638 -0.31084976
0.14832704 -0.07310883 0.2817561 0.33648458 -0.47992623 -0.12380774 -0.50056946 0.04896456
-0.44745898 0.12220646 -0.10224522 0.2400236 -0.10285659 0.34518483 0.060255527 -0.18805972
0.028778618 0.14599802 -0.143705 -0.38652694 -0.04975982 -0.42484248 0.029549876 0.12869996
-0.14059189 -0.23531276 0.037624627 -0.04657406 -0.028588654 -0.20576994 -0.043270264 0.09934318
0.011865556 -0.13227996 -0.13194236 -0.17410828 -0.17636482 -0.091027886 -0.12194823 -0.122060604
0.039176162 0.069034636 -0.021796554 -0.16509543 0.027821736 0.005964131 0.1419577 -0.14283425
-0.02404518 -0.02573792 -0.039562933 0.14836828 0.25249702 0.00066688884 0.023889743 0.022267427
-0.07817292 0.08518227 0.23277967 -0.11054651 -0.14186503 0.06610502 -0.12439086 0.16536199

deconv2.bias f4 [16]
00000000: 63dc 4ebd bc39 ad3c 04b3 99be 03c2 b63d
00000010: 4d12 efbc 5e3b 893d 7ab1 2c3e 9caf afbd
00000020: 2a19 543d 910a aa3d 8f50 313e 989e b73d
00000030: 478f 81be ccbb 1cbe 06ec cc3c 3197 213d
-0.050503146 0.021145694 -0.3001939 0.089237235 -0.029183531 0.067007765 0.16864577 -0.08578417
0.05178181 0.08302797 0.17315887 0.08965796 -0.25304624 -0.15306014 0.025014888 0.039450828
