saved_models_2D/VAE_patch_folds/CVAE2D_16_1.0_fold_2.pth (torch, 46592 bytes, 49 tensors)

conv1.weight f4 [3, 1, 5, 5]
00000000: c543 753f 1786 013f baed 803d 8879 a33e
00000010: d008 d03d abbd e0bd 4660 8d3e a5a9 583e
00000020: 2b8c 11be daf6 1c3e 408a af3e 3b70 a6bd
00000030: c3b8 8c3e f50d 54be 2cf8 0b3e 35b4 bc3e
00000040: 30dc 0e3e 683c c63c e85c 473e 2cb2 0b3e
00000050: 2d97 403d 9c77 733e f26f 813e dc0e cebd
00000060: 2cc5 16be 20b1 253e 1e3c 853d 3365 1a3f
00000070: 6d2a a83e 98bd 2c3e e397 d6bc 4049 d53e
00000080: c366 c9be 9622 293e 5be7 483e e805 0f3e
00000090: 9b24 89bd 5c12 d93e 2def 0abd 7995 4d3e
000000a0: 9730 f93e ba90 08be a15c 203e f302 e0bd
000000b0: 4e00 9b3e 3e63 be3e 8e74 f63e 15b0 e63e
000000c0: 9c16 cc3e 7136 053f 964d e4be 4a85 803e
000000d0: 02cf 9bbe 4d5b 6fbd 73b7 94be b83a c8be
000000e0: 8f72 a4bd 9a06 74be 1000 fe3c 7332 a7be
000000f0: 378b d6be 7951 863d a7ec 0fbf 8048 ddbd
00000100: 9938 b6be 5f0b 8cbe 3e93 df3e a6a4 abbe
00000110: 5caf 453e 3ebe 18be ed07 d5bc 7ea3 acbe
00000120: 1e1e c0bd bf84 81be 7597 05be
0.95806533 0.5059523 0.06295343 0.31928658 0.10157931 -0.10973676 0.27612513 0.21158464
-0.14213626 0.15328541 0.34285164 -0.08126875 0.27484712 -0.20708449 0.13668889 0.36856237
0.13951182 0.024198726 0.19469035 0.13642186 0.047019172 0.23776096 0.2528072 -0.10061428
-0.14723653 0.16180849 0.06505607 0.6031067 0.32844868 0.168692 -0.026195472 0.41657448
-0.39336213 0.165171 0.19619505 0.13967097 -0.06696435 0.4239682 -0.033919502 0.2007655
0.48669884 -0.13336459 0.15660335 -0.109380625 0.3027367 0.3718509 0.481358 0.45056215
0.39861 0.52036196 -0.44590443 0.2510169 -0.30431372 -0.05843668 -0.2904621 -0.391073
-0.08029663 -0.23830643 0.03100589 -0.32655677 -0.41903087 0.065585084 -0.5622048 -0.10804844
-0.35590056 -0.27352425 0.43667024 -0.33524054 0.19305176 -0.14916322 -0.026004756 -0.33718485
-0.093807444 -0.2529659 -0.13046058

conv1.bias f4 [3]
00000000: 5bd4 a53d 84eb 83bd fe47 17bc
0.08097144 -0.064414054 -0.009233473

conv2.weight f4 [4, 3, 3, 3]
00000000: 819b e8be af04 5bbf ff1e fdbe 2792 0dbf
00000010: 7dbd 94be 6fc8 a73e 36f6 d13d c439 933e
00000020: b929 943e c2fc 5f3e 40da 0bbf 47a2 37be
00000030: 869c 0abe 7237 a4be a500 57be 424f debe
00000040: 7161 f1bb ed46 943d e356 983e b4fb 25be
00000050: 03ea 4bbe 78bf 513e 65bb ae3e 11fe 91be
00000060: 0886 a33e fb25 153e 26e9 843e bd20 6a3d
00000070: 51c8 22be 34ee 6b3e 2069 8dbe d068 803e
00000080: 517f ef3d cea6 ac3d f6d1 6cbd e263 86be
00000090: 61b1 21be 0018 573b 87f2 373e 4915 ebbe
000000a0: 4ee3 6abe 3a01 9cbe c7c6 afbd c080 bcbe
000000b0: 0d72 11be 8158 6abd 7309 c13d a87c d33e
000000c0: 42a3 023e be93 a1bd fcc5 a93d af72 db3e
000000d0: 0e76 033f dd1a 463e fca8 c13e 8824 2e3e
000000e0: 3cc8 853e ed1b 063f 3a71 893e 343d 4abe
000000f0: 5be6 083c 2091 673e 377e 35bf d5a4 6a3d
00000100: 8dac 403d 7f42 d63e fb55 cbbd 0675 193e
00000110: bb44 0f3f 37ab 3d3f 18a7 0c3f d737 0a3f
00000120: 8f23 9a3e 7b05 223c 001e de3e a73d ca3d
00000130: 703a a43e 54ed 7e3e bb74 f3be 3607 5cbf
00000140: dc81 bdbe 45b5 653d 2315 a8bc 09ee 4cbe
00000150: 45df 1abd 4c15 583e 2064 c3be 4414 dd3c
00000160: 88bf 153e 1c65 28bf 32f4 d73c 8782 b6be
00000170: 6b82 1abe 8b9a 203b aeb0 3dbe 1cb8 3d3e
00000180: 0fa6 a63e cfae 23bd 43b8 0bbe c09c 533e
00000190: 2bd6 503e e21e 4b3e d08a 993d c794 cb3e
000001a0: c55c e73e 3b2d 223d 12ed fd3d 76a7 1a3e
-0.4543114 -0.8555402 -0.4943771 -0.55301136 -0.29050818 0.32770106 0.10252039 0.2875501
0.28938082 0.21873763 -0.546299 -0.17932998 -0.13536271 -0.3207355 -0.2099634 -0.43419844
-0.0073663522 0.072400905 0.2975379 -0.16209298 -0.19913487 0.20483196 0.34127346 -0.2851415
0.31938195 0.1456527 0.25959128 0.057160128 -0.15896727 0.23040086 -0.27619267 0.25079966
0.116942056 0.08430253 -0.05781742 -0.2624808 -0.15790321 0.0032820702 0.1796361 -0.45914677
-0.22938272 -0.30469686 -0.08582836 -0.36816978 -0.14203663 -0.05721331 0.094256304 0.41306043
0.1275759 -0.07889508 0.08289716 0.42860934 0.5135201 0.19346185 0.37824237 0.17006123
0.2612933 0.5238636 0.26844198 -0.1974991 0.008355702 0.22613955 -0.70895714 0.057286102
0.047039557 0.41847607 -0.09928509 0.14986047 0.5596425 0.7408938 0.54942465 0.53991455
0.30105254 0.009889002 0.43382263 0.098750405 0.32075834 0.24895221 -0.47549996 -0.85948503
-0.37013137 0.056081075 -0.020517891 -0.20012678 -0.037810583 0.21101874 -0.38162327 0.026987202
0.14623845 -0.6577928 0.026361559 -0.3564646 -0.15088813 0.0024506177 -0.18524429 0.18527263
0.32548568 -0.039961632 -0.13644509 0.20665264 0.20394199 0.19836 0.074971795 0.39761946
0.45187965 0.039593916 0.12398733 0.15102944

conv2.bias f4 [4]
00000000: 39db 76bd 8d5a 0bbe 0a10 d83c ce6e 46bd
-0.06026766 -0.13608761 0.026374836 -0.048445515

conv3.weight f4 [12, 4, 3, 3]
00000000: 280e 0a3e dc0a b8bd 3315 1d3e 4ac1 e13e
00000010: 1e57 39bd d5c3 b6be 5749 6ebe 6600 04be
00000020: c784 f13c 0404 9d3d 761c 19be 4775 f13c
00000030: db3f 03bf c6b5 d2bc c833 7dbe fad8 623e
00000040: 0fbf 613e 256f 733d a295 743e 15a5 6abe
00000050: 4644 b43e 4aa2 ba3e 1bbe 3cbf fd27 de3e
00000060: 63c7 c9be a1ee 0bbf 5701 183e c9ed 8b3e
00000070: 6b0d 383e b44a 4fbd 9120 82be 024b fb3d
00000080: e7f4 b9be 2604 223f f1d5 643e ea13 ab3e
00000090: eef7 7bbe 3bc5 ffbc 5217 56be dff0 303e
000000a0: f719 2ebe 9be6 12bf cefb 993d e137 84be
000000b0: 0c56 b7be a425 a13d b58f 5a3e 6950 8e3e
000000c0: c379 833e 9939 a63e ab5f 033c a5b9 b93d
000000d0: b7ce 903d 6e3e 12bd 0d40 b1bd b507 46bd
000000e0: 0875 9dbe 5eec 1f3e 6647 13be fd95 a2be
000000f0: 455d 5e3e 1db0 05bd 3fde 103f 5864 ba3b
00000100: 52cc 713e 253f 2abe 75e1 973e 0f4b 84be
00000110: 9cd0 b73e 484b e23e 1147 bbbd 8f6b 693e
00000120: 7130 803c 5614 053e 87eb 43be 6151 02be
00000130: 2072 913d 5dfd c83c 9ed8 ffbe e27b 20bd
00000140: db07 4a3d 2d50 37bf dad5 86bd 7613 10be
00000150: 6764 1f3d 2a0d 963d d5eb c8be ee67 e2bd
00000160: 2fb0 d13d 5543 a23d aee5 40be eeb3 97be
00000170: eeb0 39bd e546 72bc 4ee2 c9bd 03c0 133f
00000180: 414e 833c 4a73 6a3d 2f6a dd3e 8b9c 753e
00000190: 1c49 8cbd 51c1 4bbe 5014 6d3e 8deb d2bd
000001a0: 520f 403e 568b a4bd e38b cb3e aefd dabe
000001b0: 1db7 a3be b3e4 fabd 9e8d 21bf 63e9 e7bd
000001c0: 5842 433e e25e 7cbd 5047 b33d ef43 e2bd
000001d0: 6b5d a33e 251a 143e 596f 78bc e0c0 0bbb
000001e0: 1675 413e 5224 163e 628f 42be 598d d03e
000001f0: 3a81 423d 94f9 b8bd cd1e 373e b77c e03d
00000200: d9e0 913e 4fc5 4dbd 8dd9 b4be dd68 65be
00000210: 9efe cbbe b39f 2ebe 0f1f dd3e 488f 2ebc
00000220: 5182 33be e9d6 a33c 0cf6 393d 53a8 703e
00000230: 14e2 07bf d3a0 8e3e 7d2b 26be 730d 3d3e
00000240: 420b 1d3f 4848 ed3e 6e01 0f3e 7f07 14bd
00000250: 75d6 cbbe f9a5 8e3c 623c b63e cd30 2cbe
00000260: b70f 1b3e c3fc 093e 9644 873d 034d 9a3d
00000270: a435 f5bd 67fd e9bd 4cfc 2dbe bda7 7ebd
00000280: 5281 233c a45b 263f 1449 a5bc 55f2 51be
00000290: 424c 8e3e 2ef3 e83e a803 1b3e 8df9 eebe
000002a0: 782b 873e 0249 22be a7b2 edbe 3838 0c3e
000002b0: f54d 853d 57dc d03d cfc8 5cbe a9ce 973e
000002c0: 806b c7be 6c8f 29be 744d e3be de8a fd3e
000002d0: 9654 d7be 48e0 ebbe adc9 a1bd 5f0d b93e
000002e0: b60f 41be d185 c63d 70dc bdbd 5833 b5be
000002f0: 1ad1 26be f061 7dbd e2f7 6cbe 8830 053e
00000300: 3651 3e3b 6cbe 073e 91be 203e c966 50be
00000310: 9ba1 893e c4fb 3f3e 9bbd 0c3f b318 e3bd
00000320: 4840 3e3d f96e b93d 7888 c1bd 76d2 413e
00000330: 8f85 e03e 778f 0fbd 5fe0 85be b8a1 3dbe
00000340: 70bf 823e 1f64 193e 02c3 173f a632 d43c
00000350: ec58 80be f3e0 343e 41c3 62be 001e ab3e
00000360: cdae cbbe 6309 ab3a ab8a 503e e1f3 64be
00000370: b6da a1be a8b9 e53d 5f4a 34be 6f69 1ebe
00000380: a95b 2bbe ad0e 7abd 0e1e 24bd e56d 893e
00000390: 68a0 4fbe cc18 2a3e fe28 50bd e62f b3bd
000003a0: e15b 02be 4113 053e b08a 993e 60aa c23d
000003b0: 3b23 3b3e 021e b5bd 4597 223e b663 bebe
000003c0: e04e d53d 5e18 adbe dc55 f4be bf55 bebe
000003d0: 03cc dfbd bfed c93d bf60 92be 0d9a 253f
000003e0: 113b a2be 4507 e2bd 9f26 613e 9523 7dbe
000003f0: 69e9 73bd 7b67 ddbd a14c 84be a219 31be
0.13481963 -0.08986446 0.15340118 0.4409278 -0.045249097 -0.35696283 -0.23270164 -0.12890777
0.029482258 0.076667815 -0.14952263 0.029474868 -0.5126931 -0.025721442 -0.24726784 0.22153082
0.2204554 0.059432168 0.23885205 -0.22914536 0.35208338 0.36451942 -0.7372758 0.43389884
-0.39409932 -0.54660994 0.14844261 0.27329853 0.17973869 -0.05060835 -0.2541547 0.12270166
-0.36319658 0.6328758 0.22347237 0.3341363 -0.24606296 -0.031221977 -0.20907333 0.17279385
-0.17002092 -0.57383126 0.07518731 -0.25823882 -0.35807836 0.078685075 0.21343882 0.27795723
0.25678834 0.3246582 0.0080184145 0.09068612 0.07070678 -0.03570407 -0.08654795 -0.048347194
-0.3075335 0.1561751 -0.14382705 -0.31755057 0.21715267 -0.032638658 0.5658912 0.0056882314
0.23613098 -0.1662565 0.29664198 -0.25838515 0.35901344 0.4419806 -0.09144414 0.22794937
0.015648099 0.12996039 -0.19132815 -0.12726356 0.07101846 0.024534876 -0.49969953 -0.039180644
0.049323898 -0.71606714 -0.06583758 -0.14069924 0.03891411 0.073267296 -0.39242426 -0.11054979
0.102386825 0.07922999 -0.18837616 -0.29629463 -0.04533475 -0.01478741 -0.09857617 0.5771486
0.016028525 0.057238854 0.43245074 0.23985498 -0.06849882 -0.19897963 0.2315228 -0.10298834
0.18755844 -0.08034389 0.39755163 -0.42771667 -0.31975642 -0.12250652 -0.63106716 -0.11323812
0.19068277 -0.061613925 0.08753836 -0.110481136 0.3190721 0.14463098 -0.015163266 -0.002132468
0.18892321 0.14662293 -0.19000009 0.4073284 0.04748652 -0.09031978 0.17882843 0.109612875
0.28491858 -0.050236996 -0.35322228 -0.22403283 -0.39842695 -0.17053108 0.43187758 -0.010654278
-0.1753018 0.019999938 0.045400664 0.2350171 -0.5307934 0.27857074 -0.16227527 0.18462162
0.61345303 0.4634421 0.13965389 -0.03613996 -0.39812055 0.017413126 0.35592943 -0.16815491
0.15142713 0.13475327 0.066048786 0.0753422 -0.11973122 -0.11425286 -0.16990775 -0.062171686
0.009979563 0.6498358 -0.020176448 -0.20502599 0.27792555 0.4549803 0.15138113 -0.46674767
0.26400352 -0.15848163 -0.46425363 0.13693321 0.0650901 0.101982765 -0.21560977 0.29649857
-0.38949203 -0.16558617 -0.4439503 0.4952001 -0.4205672 -0.4606955 -0.07899795 0.36143014
-0.1885365 0.09693492 -0.09270561 -0.35390735 -0.16290703 -0.06186098 -0.23141435 0.13006794
0.0029040105 0.13256234 0.15697695 -0.2035171 0.26881108 0.18748385 0.54976815 -0.110886954
0.046448022 0.090543695 -0.094498575 0.1892794 0.43851897 -0.035048928 -0.26147744 -0.18518722
0.2553668 0.149796 0.59281933 0.025903057 -0.25067842 0.17663936 -0.22144796 0.33421326
-0.397818 0.0013049062 0.20365398 -0.22358657 -0.31612176 0.11217052 -0.17606495 -0.15469907
-0.16734184 -0.061049152 -0.040067725 0.26841655 -0.20276034 0.16611022 -0.050820343 -0.0874937
-0.12730362 0.12995626 0.29988623 0.09505153 0.18275158 -0.08843614 0.15878017 -0.37185448
0.10415435 -0.33807653 -0.47721756 -0.37174794 -0.10927584 0.098597996 -0.28589436 0.6468819
-0.3168569 -0.11036543 0.21987389 -0.24720605 -0.05954877 -0.10810753 -0.25839713 -0.17294934

conv3.bias f4 [12]
00000000: 0cd7 ed3d b475 2f3e cce7 e3bd 5016 c2bc
00000010: 0e93 e5bd 7809 e1bd a25d 923d 5334 59bc
00000020: b85a d1bc ef24 afbd 3cc6 103d da9e 963d
0.116132826 0.17134744 -0.11128196 -0.02369228 -0.11209689 -0.10988134 0.07146765 -0.013257104
-0.025555953 -0.085519664 0.0353453 0.07354517

conv4_mu.weight f4 [16, 12, 3, 3]
00000000: 3f09 74bd 8ab8 973c 2875 efbd 61b9 663f
00000010: 0f53 18be 4492 ad3b a28a c2bd a4c6 debd
00000020: 4eb0 5fbd 11fb 9dbe 3a2a 3e3e 80b4 e3bc
00000030: a83a cbbe f37c 083d 20e3 9b3d b7f4 f9be
00000040: fe1d 1abe 771a d3bd 1acb 83bd 5dfb 5bbd
00000050: 8c99 2e3d aea3 a0bc f92b b93d fd2b cd3d
00000060: f146 48be 9862 f13d 9601 cdbc f04d 0abf
00000070: 749d bb3d 6f1f 553e 895b 08bf 696e 063e
00000080: 7b14 003e 5732 9fbe 6d3e e63d fa82 423e
00000090: 1f16 e3be d01b a63d 0b96 113e 2880 2f3e
000000a0: 11bb 6a3e 2cd2 de3d 8312 21be ab5f cb3d
000000b0: 470c 393c 9e0f 013f 2973 c13d 4248 2b3e
000000c0: 8045 7f3d ca93 29be 5e0a 2b3e b31c 0d3f
000000d0: 9718 c5bc 9d70 933d ec94 a33e 377f 9cbd
000000e0: 381f 41bd ecd6 f03d c107 53bc 08a8 cc3d
000000f0: 08ae ad3e 7ea6 47bc 9b90 e63d da67 edbd
00000100: 3d17 aebc ecca 183d 583d cb3d 2dc0 1f3e
00000110: a8b4 273e de66 453b eeea 81bc b26f 65bc
00000120: 8896 16bf dcca 6b3e da35 193d 14c8 dcbd
00000130: 4350 933e ea5f 9abe 1d92 98be 9edf d83c
00000140: ab32 07be e323 7cbe a0a6 173e 844b 0a3e
00000150: 49ea ec3e 16ed 6abc 3617 e03d 56af 7bbe
00000160: 5550 373d acad f9bc 9f45 d33d 888f 443e
00000170: 0d04 213d c14e 633e a1e2 813d 9c28 3a3e
00000180: f785 893e 3833 80be 692b 0abd 63fb 813d
00000190: 1f64 0dbc a9f6 e1bd 68d4 3c3e 4e91 993c
000001a0: 8148 55be ad3c f5bc fe39 32bc 1928 be3d
000001b0: 106e 003e 1340 4e3e 45ef 36bc caab babe
000001c0: ead7 0b3f f18e 043e 9b5b 823e 7584 2fbe
000001d0: 7159 0cbd 6e5d 12be b188 6dbe 90c1 253c
000001e0: da4c 393e 4ea3 5bbe d603 d43d ae96 a83e
000001f0: 19f1 1abe 0ec4 65be db00 e73e 3d6f e1bd
00000200: 769c e93c 1926 1bbe 9691 2dbc 6ae6 fc3d
00000210: 9a3e 7f3e 97fa 78be 7085 6d3d ac9e 0fbe
00000220: b3f9 523e 86a0 a73e f979 3bbd c092 6a3e
00000230: efaf 1fbe a434 e7bd e2e2 493e 2c06 27be
00000240: 6de1 e6be 6a0f 263e 5860 b23e ceb2 4ebd
00000250: 6970 03bf 5b33 953d 9b57 e33d 6dd0 9f3e
00000260: 6411 153d 5091 963d 6395 25be df55 fd3d
00000270: 07de b1be 1dc9 c8bd 2522 843d 59ac ed3d
00000280: c016 ccbe 13f2 383e 54b8 8e3e e2ec 16bd
00000290: b6b5 2a3e e153 a13c d48e 46be c5e1 a53e
000002a0: ea3e 053f 5fc3 f6bd 46b0 b73b 5c32 9f3e
000002b0: 4f59 95bd 84c2 9dbc 668e 883e a8f9 313d
000002c0: ba40 8bbd e6af 0b3e abc3 7b3d b0c5 8c3d
000002d0: 7da4 bcbe 4921 8abe 5149 cabd 36b7 da3e
000002e0: a786 5bbe 8702 72bd 04a3 a5bd 0b0d 12bd
000002f0: 004f 6cbe a00d 45bd 7c7c 243e 01d2 6a3e
00000300: af38 363e 7f04 9ebe 877a e5bd 5f6e bbbd
00000310: 9ed4 6d3d 54c9 b33c 7937 a73e 920b aebd
00000320: c882 2dbe 5f81 323d 2433 d13e 9139 b83b
00000330: c6f9 1d3e 51ce c0bd 2713 50be 2f35 1439
00000340: 9197 cfbd a2a3 58bc eda5 cdbd 6e97 aebd
00000350: 8195 083d d8c4 bcbe 3293 45bd 4601 9b3c
00000360: d4af 803d f9c0 16be adaa cdbd aa6a 273e
00000370: 82c5 93bd a436 99bd 6544 a2bd 0726 033e
00000380: 8bed e13d 55d6 583e 4ea0 bcbd 1d2f 70bc
00000390: b086 133d a47a 64be 2a1c 853c 3a62 173e
000003a0: 760b 2c3e c164 5ebd 08ee ffbd f77d 743d
000003b0: e110 dfbc 4864 913e 7e62 ccbc d897 0cbe
000003c0: f692 41bc 0563 59be de2b bc3b e803 e8bd
000003d0: f996 06bf b10a 9fbe 7c16 7b3d d568 5ebe
000003e0: a890 83be f5c7 cb3e b28f 50bc 5d3b 25be
000003f0: 8bae b63e c810 c33d 53ce ffbd 1457 d3bd
-0.05957913 0.018520612 -0.11692268 0.90126616 -0.14875434 0.0052969772 -0.09499098 -0.108777314
-0.054611497 -0.3085561 0.18570796 -0.02779603 -0.3969319 0.033322286 0.0761168 -0.48819515
-0.15050504 -0.10307782 -0.06435223 -0.053706516 0.042626902 -0.019609299 0.0904159 0.10018156
-0.19558312 0.117863834 -0.02502517 -0.54025173 0.09160891 0.20812772 -0.5326467 0.13128056
0.12507813 -0.31093094 0.112423755 0.18995276 -0.44352815 0.081107736 0.14217393 0.17138731
0.22922923 0.10879931 -0.15729718 0.099303566 0.011294431 0.50414455 0.09445793 0.16726783
0.06232214 -0.16560283 0.16703174 0.55121917 -0.024059577 0.07199214 0.31949556 -0.07641452
-0.047148913 0.11759743 -0.012880267 0.09992987 0.33921838 -0.012185691 0.1125805 -0.11592074
-0.021251315 0.037302896 0.0992381 0.15600653 0.16377509 0.0030121128 -0.015859094 -0.014003681
-0.5882344 0.23026603 0.037404872 -0.107803494 0.28772172 -0.30151302 -0.29798976 0.026473816
-0.13202922 -0.24623065 0.14809656 0.1350537 0.46272495 -0.014338752 0.10941927 -0.24578604
0.044754345 -0.030478321 0.103160135 0.19195378 0.039310504 0.22198011 0.06342054 0.18179554
0.2686002 -0.25039077 -0.033732805 0.06346776 -0.008629828 -0.11033375 0.18440402 0.018746044
-0.2082844 -0.029936159 -0.010878084 0.09284992 0.12541986 0.2014163 -0.011165445 -0.3645919
0.54626334 0.12945153 0.25460514 -0.17140372 -0.034264985 -0.14293453 -0.23196675 0.01011695
0.18095723 -0.21449015 0.10352294 0.3292746 -0.15131034 -0.2243807 0.4511784 -0.11007545
0.02851699 -0.15151252 -0.010593792 0.123486355 0.24926224 -0.24314342 0.057988584 -0.14025372
0.20603065 0.32739657 -0.04577062 0.22907543 -0.15594457 -0.11289337 0.19715455 -0.16310948
-0.4509386 0.16216817 0.3483913 -0.05046349 -0.513434 0.07285186 0.11100694 0.31213704
0.036393538 0.07351935 -0.16170268 0.12369894 -0.34739706 -0.09803984 0.06451825 0.11605138
-0.39861107 0.18061094 0.27875006 -0.036847003 0.1667088 0.019693317 -0.19390422 0.3239881
0.52049124 -0.12048983 0.00560573 0.3109311 -0.07292425 -0.019257791 0.2667114 0.04345098
-0.06799455 0.13641319 0.0614659 0.068736434 -0.36844245 -0.2697852 -0.09877265 0.42717904
-0.21438085 -0.05908444 -0.080877334 -0.03565697 -0.23077011 -0.048108697 0.16063112 0.22931673
0.1779506 -0.30862805 -0.11205011 -0.09151911 0.058064096 0.021946587 0.3265951 -0.084983006
-0.1694442 0.04358041 0.4085933 0.005622097 0.15427312 -0.09414352 -0.20319806 0.00014134192
-0.10136331 -0.013222607 -0.100414135 -0.08524977 0.033345703 -0.3686893 -0.04823608 0.018921506
0.062835366 -0.1472205 -0.100423194 0.16349283 -0.07215406 -0.07481125 -0.079232015 0.12807475
0.11031636 0.21175511 -0.09210263 -0.01465967 0.03601712 -0.22312409 0.016248781 0.14783564
0.16801247 -0.054295305 -0.12496573 0.059690442 -0.027229728 0.2839682 -0.024949308 -0.13729799
-0.011814823 -0.21229179 0.005742534 -0.1132887 -0.52574116 -0.31062844 0.06130074 -0.21719678
-0.256963 0.39800993 -0.012729572 -0.16135927 0.3568004 0.09524685 -0.12490525 -0.10319343

conv4_mu.bias f4 [16]
00000000: 5aa9 493d 96e1 7b3d 2e55 5a3d bdd3 723d
00000010: 48b3 b23d 7b74 4d3b 2495 413c 5f61 c4bd
00000020: 0899 9a3c 20b3 423e 0d5c 853c ee49 bebd
00000030: e940 bd3c b101 b9bd 7654 893e 84fe 893d
0.04923377 0.061494432 0.05330389 0.05928396 0.087256014 0.0031349945 0.011815343 -0.095888846
0.0188718 0.19013643 0.016279245 -0.09291445 0.02310224 -0.09033526 0.2682225 0.06737998

conv4_var.weight f4 [16, 12, 3, 3]
00000000: ceb9 bc3c c1bf a23c 7732 323d 931a d43c
00000010: 53da 623c 6182 4abb b86c 4b3b 0bdc b33c
00000020: 7b44 ae3c aadc 94bc 8272 b0bb 3cd2 113c
00000030: 31b2 b1bb df5b 493c ca7f 5dbb 7089 67bb
00000040: 8427 fe3b cdbc 07bc 658a fcbb 9f6f aebc
00000050: 643a c6bb 1bfa 8bbc 8c27 a5bb cbbe dabc
00000060: ec4f dabc c20e 45bd d15f 34bd 388a 78bc
00000070: 9d25 36bc fb9f f63b 6826 4ebb b7c0 e1ba
00000080: 7f89 8bbb a9d5 293b b554 cfbb 39e5 d5bb
00000090: b367 3dbd f9cf dabc d53b 12bc 3e80 05bd
000000a0: fa0e 6ebc dbfb 10bc eaf8 1abb 9532 ab3b
000000b0: cb4a 15bc abc1 c83b 425a a73c 93d1 ca3c
000000c0: fbfe dcbb 8cc1 b83c 33fb 2c3c 064d 1cbb
000000d0: fa47 c03b 8023 103c aaba d1bc 9be9 4bbd
000000e0: 0c17 8bbc 7a67 4cbd 096f 40bd 7783 43bd
000000f0: 1ce5 5bbc b177 51bd d05b 20bd 9a17 34bb
00000100: c364 d4bc 5a92 30bc e54a 2dbc b9cc 0bbc
00000110: 27bc b5bc 9dc6 e5bb fd5b 8fbc f51c 37bc
00000120: 2ba4 bc3b 3551 3cbb 513a 373b 1f63 873c
00000130: c1b1 973c af26 ae3c 8c3f 88bb 9eae 013b
00000140: c58e cc3b 1419 f7bc 5492 89bc a2f0 e0bb
00000150: 68bd 7cbc 8dae 4dbc db76 bebb 8eac 05bd
00000160: bd3d c3bc b064 80bc 57f7 25bc bbe8 95bd
00000170: 15e3 adbc c571 30bd f400 a9bc f642 67bc
00000180: a346 4cbc 2882 bdbc 1eff 3eba 39ef f43a
00000190: 9c76 0ebb 2866 773c 581b 2f3c 77cc 80bb
000001a0: d613 3bbb 8027 b7bc 447e 8abc e1df 9e3b
000001b0: e8ad 21bb 9cc1 713c c4c3 153c f159 2f3b
000001c0: f120 893c 5371 dabb c73c be3b 98c7 873c
000001d0: bea6 863c fdd4 9cbb a234 37bc 815b 7f3b
000001e0: f0ab 1f3b c4e3 2f3c 2b58 623b d7c2 073b
000001f0: d9a6 1839 e48d 58bb 8641 62bc 26cd 8c3b
00000200: 5d5a 2c3b 1f52 35bc b32d 83bc 6ca9 7fbc
00000210: e93c 71bc 2afa a6bc 695d cbbc f589 aebb
00000220: 3124 62bb a8dd 283c c3e7 25bb 7702 b03a
00000230: 3206 95bb 5d72 9cba 7ed9 1e3b 4d4d 63bb
00000240: e737 e3bc 2a7d 14bc 796c 003b cefc fdbb
00000250: 256f 6fbc be1e 24bc d081 95ba 2694 06bb
00000260: 5e2d e8bb 2a29 053b 4848 b33c 46bc 913c
00000270: 91bb 6a3b ef77 313c 25ac e23a 5a6e 32bb
00000280: 346d e93b ae0e e2b9 a15d 02bc 68ed bebc
00000290: 7fa0 55bc f55f ddbc 0ae6 57bd 5b8a 19bd
000002a0: d0f1 59bc 7059 fabc de83 c0bc 92fa 38bc
000002b0: 0140 99bc cd67 e7bb 5d73 84bb f3a1 4fbc
000002c0: c87d 3bbc 9491 6dbb 981e 1cbc 0185 08bc
000002d0: 30b2 c63b 56fe 96bb ebb0 4e3a b4fd 183c
000002e0: 2b88 973c c11d 0d3c ae8f 053b df8a e7ba
000002f0: 0fa7 ac3a a3f2 61bc e7cc 00bc d9f7 aaba
00000300: dc6f 7fbc cd96 72bc 62e2 bfbb 6f0a 87bc
00000310: 81a2 77bc 976f 66bb 97d6 a2bc 77f8 2abd
00000320: 109b 56bc ab08 1cbd 91b5 35bc d82f 0cbc
00000330: fba6 8ebc 46d3 46bc 88b1 bf3b 740c 0e3b
00000340: 5430 97ba 7898 053b faa1 863b aad6 e5b9
00000350: 750e 38ba d9d0 6dbc c6bf 5abc 984b e9ba
00000360: bd11 223c b3dd b03c 65c2 903c b618 623c
00000370: 1e37 8e3b fb8f 07bc 0eed ed3b 517e 233d
00000380: 9f35 053c 9256 13bc d66d 06bb 19ec 6d3a
00000390: 3763 8fbb 55c1 773c 667f b33a 02fd 6fb9
000003a0: c161 303c 8bdd 42bc 2585 33bc c6e6 81bc
000003b0: 2cb4 263c 5965 4cbc c211 983a fde0 1ebc
000003c0: 8f57 d7bc 6b99 4ebd 8220 87bc 6845 4bbc
000003d0: 9334 76bc 6496 433c 04d6 ceba 44bf b83b
000003e0: e573 38bc f6a5 2ebb 4de2 7bbb 475d 66bb
000003f0: 8b37 1dbd 0bf2 c6bc 3c92 5cba 59bb e5bc
0.023037817 0.019866826 0.04350516 0.025891578 0.013845998 -0.0030900466 0.0031040143 0.02195551
0.021272888 -0.018171627 -0.005384744 0.008900221 -0.0054228534 0.01228997 -0.0033798092 -0.0035329722
0.0077561755 -0.00828476 -0.0077069276 -0.02129346 -0.006049441 -0.017087033 -0.0050401147 -0.026702305
-0.026649438 -0.048109777 -0.04403669 -0.015169673 -0.011117366 0.0075263954 -0.0031455997 -0.0017223571
-0.004258334 0.0025914705 -0.0063272365 -0.0065275696 -0.046241473 -0.026710497 -0.008925398 -0.032593004
-0.014529938 -0.0088491095 -0.00236469 0.0052245357 -0.00911207 0.0061266026 0.02042878 0.024758136
-0.006744263 0.022553228 0.010557937 -0.002384962 0.0058679553 0.008797526 -0.025601704 -0.04978333
-0.016978763 -0.04990337 -0.04698089 -0.047732797 -0.013421323 -0.051139537 -0.03915006 -0.0027479888
-0.025926953 -0.01077708 -0.010576938 -0.008532696 -0.022184445 -0.007012202 -0.017499918 -0.0111763375
0.005756875 -0.0028734927 0.0027958343 0.016526757 0.018517377 0.02125868 -0.004157966 0.0019787918
0.0062426054 -0.030163325 -0.016793407 -0.006864623 -0.015426017 -0.012553823 -0.0058125085 -0.032635264
-0.02383315 -0.015673012 -0.010129771 -0.073197804 -0.021226445 -0.04307725 -0.020630337 -0.014115086
-0.012468013 -0.023133352 -0.000728594 0.0018687017 -0.0021738177 0.01510004 0.010687672 -0.003930624
-0.0028545759 -0.022357702 -0.016905911 0.004848466 -0.0024670307 0.014755633 0.009140912 0.002675649
0.01673934 -0.0066663413 0.005805585 0.016574666 0.01643693 -0.0047861324 -0.011181982 0.0038964453
0.0024363957 0.010735456 0.0034537415 0.0020715499 0.00014558005 -0.0033043558 -0.013809567 0.0042969165
0.0026298978 -0.0110669425 -0.016013002 -0.015604358 -0.014723995 -0.02038296 -0.024824815 -0.0053265044
-0.0034506435 0.010306753 -0.0025315143 0.0013428469 -0.0045478577 -0.0011935938 0.0024238522 -0.0034683526
-0.027736617 -0.009063045 0.0019595905 -0.007751084 -0.014613901 -0.010017095 -0.0011406485 -0.002053508
-0.0070854863 0.0020318725 0.021885052 0.017789971 0.0035817365 0.010831817 0.0017293735 -0.002722642
0.0071236137 -0.00043117016 -0.007956893 -0.023306563 -0.0130387535 -0.027023295 -0.052709617 -0.03748546
-0.0133022815 -0.030560225 -0.02350038 -0.011290209 -0.018707277 -0.0070619346 -0.0040420727 -0.012672889
-0.011443563 -0.0036250101 -0.0095287785 -0.008332492 0.006063722 -0.004607956 0.0007884639 0.009337831
0.018497547 0.008613051 0.002037983 -0.0017665288 0.0013172346 -0.013790759 -0.0078613525 -0.0013043835
-0.015590634 -0.0148064615 -0.0058558444 -0.016484467 -0.015114428 -0.0035161728 -0.019877715 -0.04174086
-0.013098493 -0.038094204 -0.011090652 -0.008556329 -0.017413607 -0.012135332 0.005850021 0.0021674903
-0.0011534789 0.0020385068 0.0041086646 -0.0004383822 -0.0007021197 -0.014515125 -0.013351386 -0.0017799018
0.009891924 0.02159009 0.01767082 0.013799837 0.0043400666 -0.008274074 0.007260925 0.039915387
0.00813046 -0.008992808 -0.0020512245 0.0009076014 -0.004375841 0.015121778 0.0013694584 -0.00022887069
0.010765494 -0.01189364 -0.010957037 -0.015857112 0.010174792 -0.012475335 0.0011601972 -0.009697196
-0.026286868 -0.05043928 -0.016494993 -0.012406684 -0.015027183 0.011937711 -0.0015780334 0.005638035
-0.0112581 -0.0026649213 -0.0038434446 -0.0035150812 -0.038383048 -0.024285337 -0.00084141246 -0.028043436

conv4_var.bias f4 [16]
00000000: 49a8 99be 1337 e8be 951a bcbe 0a98 c4be
00000010: 9e06 d1be f89f c5be 887c d0be 4822 d0be
00000020: 28ea abbe aa96 b2be 9712 c5be ce85 d3be
00000030: ca56 cabe e683 d7be 7852 bbbe 0eed a3be
-0.30011204 -0.45354518 -0.3673903 -0.38397247 -0.4082536 -0.3859861 -0.4072001 -0.40651155
-0.33577085 -0.34880573 -0.38490745 -0.41313022 -0.3951934 -0.42092818 -0.36586356 -0.32016796

bn1.weight f4 [3]
00000000: e29f 113f a66f 5b3f c7ca 493f
0.56884587 0.85717237 0.7882504

bn1.bias f4 [3]
00000000: 48fe 853e a798 163f f128 11be
0.26170564 0.5882668 -0.14175774

bn1.running_mean f4 [3]
00000000: 6aff 0d40 3a74 3340 a1c9 12c0
2.2187142 2.803969 -2.2935565

bn1.running_var f4 [3]
00000000: 4a71 0140 bd17 4040 0d2a 0140
2.0225396 3.0014489 2.0181916

bn2.weight f4 [4]
00000000: 84a8 313f 3ffd 303f c9ae 1d3f 600d 2e3f
0.6939776 0.6913642 0.61594826 0.6798916

bn2.bias f4 [4]
00000000: 0a1e 953e 8241 ee3d f561 0a3f 2d92 1a3f
0.2912448 0.116335884 0.5405572 0.60379297

bn2.running_mean f4 [4]
00000000: 0725 c4bf af60 8abf e91b 1540 1c64 c9be
-1.53238 -1.0810755 2.3298285 -0.3933419

bn2.running_var f4 [4]
00000000: 9396 3240 db78 0b40 7c0d 8640 b767 a63f
2.7904403 2.1792514 4.189146 1.3000401

bn3.weight f4 [12]
00000000: 0d2b 813f c141 743f ee8c 7c3f ec15 853f
00000010: 6966 6d3f f295 7b3f 6b47 593f 972a 923f
00000020: 3708 843f 1dae 743f 407e 813f f038 7d3f
1.0091263 0.9541283 0.9865254 1.0397315 0.9273439 0.98275673 0.848746 1.1419247
1.0315007 0.95578176 1.0116653 0.98915005

bn3.bias f4 [12]
00000000: a687 51be 4c6f febc 3886 2b3e 6e05 0cbe
00000010: 4a71 093e 9551 403d aa10 ad3e c4bc b83e
00000020: 6382 72bd 9e09 b83e fcc4 5a3e 674a ca3d
-0.20461902 -0.03105893 0.16750419 -0.13673946 0.13422123 0.046952803 0.33801776 0.36081517
-0.059206378 0.35944837 0.21364206 0.09877472

bn3.running_mean f4 [12]
00000000: 8a53 db3e 2600 fd3e f2b1 8bbe 63c6 a9be
00000010: 3fd4 973e 6d05 c93e aeaa 4abf a3aa f6be
00000020: ba73 cd3e a10e 703c d9f2 c6bd 8115 b93e
0.42837173 0.49414176 -0.272842 -0.3315917 0.29654118 0.39261952 -0.79166687 -0.4817706
0.40127355 0.014651925 -0.09714288 0.3614922

bn3.running_var f4 [12]
00000000: 41bd e23e 9321 843e 0192 233f a8aa de3e
00000010: 89a6 f43e 125e 993e 32f0 393f e59c 3e3f
00000020: 078b a13e 8ffb 263f b6ee ea3e 2132 e03d
0.44285014 0.25806865 0.6389466 0.43489575 0.47783306 0.29954582 0.72632134 0.7445815
0.31551382 0.652276 0.45885247 0.10947061

bn4_mu.weight f4 [16]
00000000: 0000 803f 0000 803f 0000 803f 0000 803f
00000010: 0000 803f 0000 803f 0000 803f 0000 803f
00000020: 0000 803f 0000 803f 0000 803f 0000 803f
00000030: 0000 803f 0000 803f 0000 803f 0000 803f
1.0 1.0 1.0 1.0 1.0 1.0 1.0 1.0
1.0 1.0 1.0 1.0 1.0 1.0 1.0 1.0

bn4_mu.bias f4 [16]
00000000: 0000 0000 0000 0000 0000 0000 0000 0000
00000010: 0000 0000 0000 0000 0000 0000 0000 0000
00000020: 0000 0000 0000 0000 0000 0000 0000 0000
00000030: 0000 0000 0000 0000 0000 0000 0000 0000
0.0 0.0 0.0 0.0 0.0 0.0 0.0 0.0
0.0 0.0 0.0 0.0 0.0 0.0 0.0 0.0

bn4_mu.running_mean f4 [16]
00000000: 0000 0000 0000 0000 0000 0000 0000 0000
00000010: 0000 0000 0000 0000 0000 0000 0000 0000
00000020: 0000 0000 0000 0000 0000 0000 0000 0000
00000030: 0000 0000 0000 0000 0000 0000 0000 0000
0.0 0.0 0.0 0.0 0.0 0.0 0.0 0.0
0.0 0.0 0.0 0.0 0.0 0.0 0.0 0.0

bn4_mu.running_var f4 [16]
00000000: 0000 803f 0000 803f 0000 803f 0000 803f
00000010: 0000 803f 0000 803f 0000 803f 0000 803f
00000020: 0000 803f 0000 803f 0000 803f 0000 803f
00000030: 0000 803f 0000 803f 0000 803f 0000 803f
1.0 1.0 1.0 1.0 1.0 1.0 1.0 1.0
1.0 1.0 1.0 1.0 1.0 1.0 1.0 1.0

bn4_var.weight f4 [16]
00000000: 0000 803f 0000 803f 0000 803f 0000 803f
00000010: 0000 803f 0000 803f 0000 803f 0000 803f
00000020: 0000 803f 0000 803f 0000 803f 0000 803f
00000030: 0000 803f 0000 803f 0000 803f 0000 803f
1.0 1.0 1.0 1.0 1.0 1.0 1.0 1.0
1.0 1.0 1.0 1.0 1.0 1.0 1.0 1.0

bn4_var.bias f4 [16]
00000000: 0000 0000 0000 0000 0000 0000 0000 0000
00000010: 0000 0000 0000 0000 0000 0000 0000 0000
00000020: 0000 0000 0000 0000 0000 0000 0000 0000
00000030: 0000 0000 0000 0000 0000 0000 0000 0000
0.0 0.0 0.0 0.0 0.0 0.0 0.0 0.0
0.0 0.0 0.0 0.0 0.0 0.0 0.0 0.0

bn4_var.running_mean f4 [16]
00000000: 0000 0000 0000 0000 0000 0000 0000 0000
00000010: 0000 0000 0000 0000 0000 0000 0000 0000
00000020: 0000 0000 0000 0000 0000 0000 0000 0000
00000030: 0000 0000 0000 0000 0000 0000 0000 0000
0.0 0.0 0.0 0.0 0.0 0.0 0.0 0.0
0.0 0.0 0.0 0.0 0.0 0.0 0.0 0.0

bn4_var.running_var f4 [16]
00000000: 0000 803f 0000 803f 0000 803f 0000 803f
00000010: 0000 803f 0000 803f 0000 803f 0000 803f
00000020: 0000 803f 0000 803f 0000 803f 0000 803f
00000030: 0000 803f 0000 803f 0000 803f 0000 803f
1.0 1.0 1.0 1.0 1.0 1.0 1.0 1.0
1.0 1.0 1.0 1.0 1.0 1.0 1.0 1.0

deconv1.weight f4 [16, 12, 3, 3]
00000000: 2fcf d7bd 3091 86b9 88d4 dc3c 2e46 5ebd
00000010: 1029 60bc 2d99 403d 4096 32bd c0cd 84bd
00000020: 7481 383c 789f 493e c2fb 26bd f0e1 4ebd
00000030: 6d2d 8dbd 3679 6a3c 23bf 44bd fffb 29be
00000040: 1d86 e1bd 2cae f4ba 2fa8 e03d 329a 94bd
00000050: 2c37 85bc 1218 9cbd 3ee8 17bd ff8a b3bb
00000060: e539 6bbd 6f05 d1bd 9140 3ebc 538a 7939
00000070: 9132 1dbc c411 85bd a7a6 06be d34e 8cbc
00000080: b500 8c3b 26e1 1abe 1a6c 95bd b617 b93c
00000090: 248c 6ebd 8a18 2b3d bd6f c03d 50c9 f0bd
000000a0: d89c 52bc badd 773d 3c21 bcbd d1d6 5abd
000000b0: e49c 8bbc 4f0f 31bd 2fbc f7bc fcb5 97bc
000000c0: df6e 12bd 916e ccbc af43 d03b a806 0dbe
000000d0: c644 10bd 99a7 5b3c bebf e43e 692e 4a3c
000000e0: 69f9 273b 0933 063b 375a edbc 09e1 c93b
000000f0: 4d12 f13e a567 533d f652 62bd 46de 04be
00000100: b3c0 51bc 059a ff3c 8133 dabc 0863 0cbd
00000110: 6c70 773d ea33 2f3d 6501 503d d496 f9bb
00000120: 6f60 813c 2c92 6b3d 66ad 813c 9a93 10bd
00000130: 17dc 8f3d 4384 e6bc 9efa 943d d0e8 093e
00000140: b932 cdbc ff58 ddbd d93c 573d 6e1c 4abc
00000150: f264 1e3d 6be4 d2bc 4500 963d df41 08be
00000160: f5ca 60bd 275c d83c c884 7b3d 4cb9 c33c
00000170: 306a bbbc ccac c5bd c484 97bc 7266 123d
00000180: d9cb 873d 9fe3 433d b1b9 1abd 386f b2bd
00000190: b3fb 97bd b7e5 0ebb e7a4 90bd 8043 a0bc
000001a0: b9a5 023c 4946 09be e36f 5b3a ba9f d03d
000001b0: 488a 693e 46d8 673d 6d14 83bc 7975 89bd
000001c0: 968d 9f3c 0261 2b3d a1df 2abd d913 4cbd
000001d0: 1922 b3bc e31e e53d d0d7 343c 95dd 8c3b
000001e0: 5513 2fbc 28af b33d c7b3 153e d2b3 a7bd
000001f0: 4c1c 62bd 46ce 893c db0b d33e 1651 00be
00000200: 94b7 8abd c0ce c6bc a1ac 433d dbd9 6bbd
00000210: 971c 9ebd 561e e1bc 94d9 51bd 6e3f 15be
00000220: 5a9b 02bc 0b56 143e af66 cebd 702c ae3d
00000230: c65c d23c 344b b5bd 1b4e b4bc bc00 57bd
00000240: fd40 90bd 34df 67bd e09c 1c3d f6bd 443e
00000250: 0dec 64bd f22f 8ebc f382 453d b72c a53d
00000260: 0323 2ebc 94cf a4bd fb80 febc 2955 43bd
00000270: 330e a7bd 5daf 0a3e e179 03bc eb77 61bd
00000280: e878 acbb 1178 b6bc fe54 34be 5809 f9bd
00000290: 284b 7b3d 3ad4 7cbd 6b00 163e c566 1c3c
000002a0: dc2f d03d f949 f0bb 13a5 aa3d b0e2 d4bc
000002b0: 90c6 9c3a 7801 27bd 9752 303e 8572 243e
000002c0: 35da 1bbd 02f1 963d bd67 9c3e 7d29 89bd
000002d0: ad19 19bc 864a 073d 4a74 9fbc 23c1 b9bc
000002e0: 876a 9f3b ad3c 98bc 67c7 c33e 77d9 063c
000002f0: 7313 fd3d 2f9e 493e 7bd9 923e b3c9 d0ba
00000300: a3a3 b43d 9529 c03b 0707 a93d 4dd3 37bb
00000310: d332 6e3d 433f 94bd ef0a 86bd 7977 72bd
00000320: 73e0 903c 8dae 2d3d 6844 aabd 4103 03be
00000330: 5a95 6abc 65af b3b9 1dd2 e63d c34a 10bd
00000340: 25b4 08bd 5b2f 09bd 737a 8dbc c5c3 fb3c
00000350: b1ca dfbc 8878 93bd 6eda ed3d bcd4 e63c
00000360: f8cb 0c3e b429 3b3d 10fc 6bbd 0d03 503e
00000370: 7fda 3b3c 4653 39bd 5d86 34bc 115a b03d
00000380: d401 fb3c aa07 e23c a537 1a3e f822 9ebd
00000390: eae7 03be 4b5a cebc 6aef ca3c 82ba 18be
000003a0: e8b7 58bd 4132 2bbd ecff 943b 62e6 a9bd
000003b0: d71f 87bd b286 db3e c554 67bd 6ee9 18bd
000003c0: 40b6 e13c fea9 fdbd 76c1 ebbb bb06 b83d
000003d0: 3244 ae3b ff79 683d 5dd5 5ebe 8808 cbbd
000003e0: 5459 113d 8d99 cb3e b3c7 193e b324 6ebc
000003f0: b870 eebd 9e41 143d 5ed4 a0bd ca8f 01be
-0.10537564 -0.00025666645 0.026956812 -0.054266147 -0.013681665 0.04702108 -0.04360032 -0.06484556
0.011261333 0.19689739 -0.04076744 -0.05050844 -0.0689343 0.0143111255 -0.048033845 -0.16600035
-0.11011908 -0.001866763 0.109695785 -0.07255973 -0.01626166 -0.076217785 -0.037086718 -0.005479216
-0.05742826 -0.102061145 -0.0116120735 0.0002379802 -0.0095945755 -0.06497529 -0.1314951 -0.01712743
0.004272545 -0.1512495 -0.07296009 0.022594314 -0.058239117 0.04177145 0.093963124 -0.11757147
-0.012854777 0.06051419 -0.091860265 -0.05342752 -0.017042585 -0.04322749 -0.0302411 -0.018519394
-0.035750266 -0.024955066 0.0063557248 -0.1377207 -0.035221837 0.013406658 0.44677538 0.012340167
0.0025630838 0.0020477197 -0.028973682 0.0061608595 0.47084275 0.051612515 -0.0552549 -0.12975416
-0.012802291 0.031201372 -0.026635887 -0.03427413 0.06040995 0.04277412 0.05078258 -0.007616857
0.015793053 0.057512447 0.015829753 -0.035297014 0.07024401 -0.02813924 0.07274364 0.13467717
-0.0250486 -0.1080799 0.052548263 -0.01233588 0.038670488 -0.025743684 0.0732427 -0.13306378
-0.054881055 0.02641113 0.061405927 0.023892067 -0.022877783 -0.09652099 -0.018495925 0.03574223
0.06630678 0.0478245 -0.037774745 -0.087126195 -0.07421055 -0.0021804401 -0.070627026 -0.019563437
0.007974082 -0.13405718 0.00083708594 0.101867154 0.22806656 0.05660274 -0.01600095 -0.06711859
0.019476693 0.04184056 -0.041717175 -0.049823616 -0.021866845 0.11187532 0.011037782 0.0042988756
-0.010685761 0.08773643 0.14619361 -0.08188595 -0.055202767 0.016821992 0.41219983 -0.12530932
-0.06773296 -0.024268508 0.047772054 -0.05758081 -0.07720297 -0.027480286 -0.05123289 -0.14574978
-0.007971609 0.14485948 -0.10078179 0.085045695 0.025679003 -0.088522345 -0.0220099 -0.052490935
-0.070436455 -0.056609347 0.038235545 0.1921309 -0.055889178 -0.017356846 0.048220586 0.08065169
-0.010628465 -0.08047405 -0.031067362 -0.047688637 -0.08157005 0.13543458 -0.008024664 -0.055046003
-0.0052634366 -0.022274049 -0.17610547 -0.12159985 0.06135097 -0.061725833 0.14648597 0.009545987
0.101653785 -0.007333037 0.08332267 -0.025987 0.0011961032 -0.040772885 0.17219006 0.1605931
-0.038049895 0.07370187 0.30547896 -0.066973664 -0.0093445005 0.033030055 -0.01946463 -0.022675103
0.004864994 -0.01858362 0.3823807 0.008230559 0.12357225 0.19689249 0.2868155 -0.0015929252
0.08820274 0.005864332 0.082532935 -0.002804953 0.05815394 -0.07238629 -0.06545054 -0.05919597
0.01768515 0.042402793 -0.08313829 -0.1279421 -0.014317835 -0.0003427222 0.11270545 -0.03522755
-0.033374924 -0.033492427 -0.017270302 0.030732999 -0.02731833 -0.07200724 0.11613928 0.028177612
0.13749683 0.045694068 -0.057613432 0.20313664 0.011465668 -0.04524543 -0.011018363 0.08610929
0.03064052 0.027591545 0.15060289 -0.077215135 -0.12881437 -0.02518954 0.024772365 -0.14914897
-0.05290976 -0.041795973 0.00454711 -0.08295895 -0.0659787 0.42876202 -0.056477327 -0.03733199
0.027552724 -0.12385939 -0.007194693 0.08985659 0.005318188 0.05675697 -0.21761079 -0.099137366
0.03548558 0.39765587 0.15017585 -0.014535117 -0.11642593 0.03619539 -0.07853006 -0.12652507

deconv1.bias f4 [12]
00000000: e34f b93c cb3a c8bd 2d61 f53c f959 1e3e
00000010: 1357 8b3c e877 4d3e ffc9 f9bd 50b9 8b3d
00000020: 59bd a33d e0fd 0bbe 8fd9 36bc 52b5 bebc
0.0226211 -0.09776839 0.029953564 0.1546401 0.017009294 0.20065272 -0.12196731 0.06822455
0.079950996 -0.13671064 -0.011160268 -0.02327982

deconv2.weight f4 [12, 4, 3, 3]
00000000: b5fe 1f3e ba29 283c 3338 2d3e 288c 023d
00000010: b2d5 1c3e f24e bb3d d219 a73d 5b29 ae3c
00000020: 4de2 543e 32e2 ab3b 1b07 28be c8c2 b43d
00000030: a881 13bb 085a 063d 508c 473e 1884 443d
00000040: 5605 113e 4668 913d d81c 79bd 82f1 99bd
00000050: f58e 4bbd ebd9 6fbc 6a3b 353e 9ea1 3d3c
00000060: caa4 8e3d 0444 a3bd 6c61 ca3d e72e 6abd
00000070: f153 1c3b 72fe f73d cd52 5fbc fc70 a93d
00000080: 768e 903c 6705 90bd 1303 e83d 3c0c 033d
00000090: 70cf 11be 58ac dabd ab68 63bd 7a2e 0cbd
000000a0: e588 0f3e ebe9 6b3a 36da 9abc 7fed 803d
000000b0: 70fe 383e 0116 89bc 3b0f 64bc 2bea 113e
000000c0: b8a1 e83b a1d3 28bd 9ffd d03d 007e c23d
000000d0: 5943 1d3e f668 263e 38e8 67bd b565 c73d
000000e0: 73ed 393e e49b 00be 896d 693d 6525 be3d
000000f0: 5991 ca3d a4a4 81be 6c88 2c3e a7aa 173d
00000100: 8d17 193d 33ff f13d 2ae1 143c 51ad f4bc
00000110: c52d 0d3e 98af 4cbe 7044 63bb 5cde 8cbd
00000120: 8597 613b 1a75 d43d 5707 81bd 380c 473e
00000130: a9c1 1fbd d3a2 a0bd 1777 193e e87a 653d
00000140: 7eaa 2dbe 4108 283e 1ce6 053b bc62 6c3d
00000150: 1cfc 1e3e f957 4e3c bec5 22be 5bcd 463e
00000160: 0d68 69bd e2d0 adbc 5472 523e 05ca 243b
00000170: add7 a0bc 5afc 033d 8a3a 00bc 68a6 03bd
00000180: 21fe 0f3e 37ee 07be aa60 00be 2539 653e
00000190: fba5 ab3d e524 4cbe 986d ff3d c948 09bd
000001a0: c54c 4c3e 9531 4a3e 4b6d 893e 569d 37bd
000001b0: a546 a1bd 30bd 2e3d 1a94 10be 9f32 86bd
000001c0: 36f8 f7bd 1d52 85be 934f 1ebe 4d19 2fbe
000001d0: 21cb 78bd f9bb d9bc f3e4 2b3e cac4 34bd
000001e0: ba48 5cbb 25e2 c3bc d552 8a3c d261 433d
000001f0: bd1b 41be aa1c 9a3d b538 80bd 5ab7 0fbd
00000200: e4b3 cd3d dc4f b1bc f9e2 babd 3784 623d
00000210: 7b7d e5bd e97b 1cbe 8828 2cbd a101 0ebe
00000220: 857b 70bd 2c37 20be f7a1 393d 6735 aebd
00000230: ed80 5d3d bc8e 3ebe 114f 88bd 1187 73be
00000240: 8703 f5bc 43ee 37bd 4080 93be 6059 20bc
00000250: aac2 94be afae 3abe eb68 c0bd bdd0 11be
00000260: 5f03 32be 4218 073e d3a4 03be 4ce8 d9be
00000270: f115 c9be 6bf4 3a3d a24d 16be 4b72 283e
00000280: c87d 76be f115 fcbe 0ee8 2abe 8335 f1bd
00000290: dc8f 64be a93a 2ebe e51d 0dbe 092f acbd
000002a0: c0af 03be 95a1 e2bd 46f3 60be 251c 83be
000002b0: 3a8a 33be b286 18be 308b d33c 5c89 8f3d
000002c0: a531 59be a327 91be 065e 563d 3826 d8bc
000002d0: 2676 85bd 63e3 17be 17a0 afbe ee8c cbbe
000002e0: 7b90 b6be d7d5 38be 890d 7cbe f23d 72be
000002f0: 7f3f 78be fbe3 abbe ce4b ce3d 3817 debd
00000300: 2c56 d2bd e87b 003e 20e8 cfbe f04f 0cbf
00000310: d574 9fbe d5ab d2be 6ac6 1fbe e47d 56be
00000320: 211e 4cbe c58b f0bc 442a 3ebe 3921 16be
00000330: 6eb5 a4be 44ea 2a3d 3884 31be 1862 79be
00000340: 68cd a5be b70c 2dbe 8914 93be 57f5 5ebd
00000350: db73 ebbe 7042 083e 4505 b0be 84d0 8f3c
00000360: 6714 24be 4cbe 7a3d 40e7 653d 6480 033e
00000370: e90d ff3d a12e 83bd 6212 253e 2913 1e3e
00000380: b1f9 e6bc 1576 033e e1d7 c6bd d71b 293e
00000390: a29c 613e 1fbd b13d 747c b5bd 5778 453d
000003a0: b68d 0d3e 4b07 e03d 78ae 4c3e ce2c a83d
000003b0: 29e3 3fbb 7e68 5d3c e30f 9b3d e1d5 e3bc
000003c0: b100 573e 677d 2abd f6fc fc3c a57e ab3e
000003d0: e08d e73d 4d71 d43d 96b3 1bbc 2aac fabd
000003e0: b225 563e 7225 303e 4592 023e ede0 2c3e
000003f0: 2e35 2cbe 0545 28be 10b8 023e 1d7c 0cbe
0.15624507 0.010263855 0.1691597 0.031871945 0.15315893 0.09145917 0.08159222 0.021259954
0.20789452 0.0052454704 -0.1640896 0.08826214 -0.00225077 0.032800704 0.19487119 0.047977537
0.14162192 0.07099967 -0.060818523 -0.07516767 -0.04969688 -0.014639358 0.17698446 0.011574177
0.06965025 -0.07971957 0.09881863 -0.057173636 0.0023853744 0.121090785 -0.013630581 0.08273503
0.017646056 -0.070322804 0.11328711 0.03199409 -0.14239287 -0.10677403 -0.05551974 -0.03422401
0.14017065 0.0008999395 -0.01890288 0.06295299 0.1806581 -0.016734125 -0.013919647 0.14249484
0.0070993565 -0.04121745 0.102046244 0.09496689 0.15357722 0.16250977 -0.056617945 0.09736196
0.18156986 -0.12559468 0.056989226 0.09284476 0.09891004 -0.25320923 0.16848916 0.03702798
0.037375975 0.118162535 0.009086886 -0.0298678 0.13786991 -0.19988859 -0.0034678243 -0.06878349
0.0034422588 0.10373898 -0.06300228 0.19438255 -0.039003048 -0.07843556 0.14986835 0.056025416
-0.16959569 0.16409399 0.0020431345 0.057711348 0.1552586 0.0125942165 -0.15895745 0.19414274
-0.056983996 -0.021217767 0.20551425 0.0025144827 -0.019634092 0.032223083 -0.007826457 -0.03214112
0.14061786 -0.13274466 -0.12536874 0.2238508 0.08381268 -0.19935949 0.12472075 -0.03351668
0.1995116 0.19745477 0.26841196 -0.04482778 -0.078748025 0.042660892 -0.14118996 -0.06552624
-0.12107889 -0.2603921 -0.15460043 -0.17099495 -0.060740594 -0.02657889 0.16786556 -0.044132985
-0.0033612684 -0.023911545 0.0168852 0.04770071 -0.18858238 0.075249985 -0.06260816 -0.035086967
0.10044077 -0.021644525 -0.09125323 0.05530187 -0.11205574 -0.15281643 -0.04203084 -0.13867809
-0.058711547 -0.15646046 0.045320477 -0.085062794 0.05407803 -0.18609136 -0.06655706 -0.23781992
-0.029908909 -0.04490496 -0.28808784 -0.009786934 -0.29054767 -0.18230699 -0.093950115 -0.14239784
-0.17384098 0.13192847 -0.12855844 -0.4256004 -0.39274552 0.04564325 -0.14678052 0.1644985
-0.24071419 -0.4923549 -0.16690084 -0.11777785 -0.22320503 -0.17014565 -0.13780935 -0.08407409
-0.12860012 -0.110659756 -0.21967801 -0.2560741 -0.17533198 -0.14895132 0.025823206 0.07008621
-0.21210344 -0.28350553 0.05233576 -0.026385412 -0.06516676 -0.14832835 -0.34301826 -0.39755958
-0.35657105 -0.18050323 -0.24614538 -0.23656443 -0.24242972 -0.33572373 0.10073052 -0.108442724
-0.10270342 0.12547266 -0.40606785 -0.54809475 -0.31143823 -0.41146722 -0.15603033 -0.20946461
-0.19933368 -0.029363522 -0.1857081 -0.14661111 -0.3216967 0.04172732 -0.17335594 -0.24353826
-0.32383275 -0.16899382 -0.28726605 -0.054433193 -0.45986828 0.13306594 -0.3437902 0.017555483
-0.16023408 0.061216637 0.05612874 0.12841946 0.12453825 -0.06405378 0.16120294 0.15436997
-0.028195234 0.12838013 -0.097091444 0.16514526 0.22032407 0.0867865 -0.08861628 0.04821047
0.1382359 0.10938891 0.1998843 0.08211671 -0.0029279685 0.013513682 0.075713895 -0.027811946
0.20996358 -0.0416235 0.03088234 0.3349506 0.113063574 0.10373173 -0.009503266 -0.12239869
0.20912817 0.17201784 0.1275111 0.16882677 -0.16817161 -0.16432579 0.12765527 -0.1371922

deconv2.bias f4 [4]
00000000: 5b3e 713e 730b 57bb 6cce a63e 1c7a 57be
0.23558943 -0.003281322 0.32579362 -0.21042675

deconv3.weight f4 [4, 3, 3, 3]
00000000: 0ae7 b83d 6126 adba 9812 7dbd 5605 6b3d
00000010: 25e6 81bd 8403 eb3c c658 2f3e 6ecd 48bd
00000020: f45e c3bc cb22 b4bd 91ea 43bc d60a 3ebc
00000030: 79d1 573b 0ba9 1cbe b631 d33d 8a42 40bd
00000040: cabe 0bbe 81c5 383e 4c5e 613d ea6e b0bc
00000050: bd23 483d 3999 e2bd 038d 013e 59d6 2cbe
00000060: c1ee 163e 3fef 2c3d cad2 b33e a55f 4fbd
00000070: a1f3 3fbd 5c1d 753d 2239 78be d2d8 2abe
00000080: 5142 84bc 742e 9dbe bf8e 9ebe 7ffd 333d
00000090: 6751 23be ffaa d5bd 0a60 3fbe 7fdb a03c
000000a0: 9a9f 16be b69a 17be db00 6c3d 8fa0 c63d
000000b0: ed23 0dbe bc9b 3b3e 6191 c83c b619 02bd
000000c0: 9faa 03be e548 b73b a091 c7bd 9522 61be
000000d0: 6b1a 96be 7f9a 42be ee7e e33b 681d 06be
000000e0: 7760 13be 8348 fa3d 8fa0 d63d c7f0 d93c
000000f0: 7fa4 843d 7f7e 7fbc 434d 24bc d1d1 283e
00000100: 8fba 98bb 9d5a d23e c2d1 0abd 91b3 313d
00000110: 34da 223e 4262 9c3c 2509 1c3d 1450 f03d
00000120: 30f6 dcbd abde f63c 5792 3a3d 6128 66bb
00000130: e1a4 32be 4a65 35be 594f 1e3e 3f9f 5f3e
00000140: 8d40 c93d a4bc 49be 5d5e 103d c863 893d
00000150: 1a5d 8f3e aab8 07be bd7c 5d3d 11c8 993e
00000160: 22e9 b6bd 7614 8c3d cb42 843e 7c06 4bbd
00000170: 4de3 41be 3457 e03d 4369 ddbd ff86 a4bd
00000180: dec0 4bbe 2b3f 263b a6f4 1bbe 658d aebd
00000190: d0eb 3c3d a4aa c5bd bd8c 51be c13f ffbc
000001a0: d0ee e93d 8212 873c 5eb6 35be 5da1 21be
0.09028442 -0.001321029 -0.06178531 0.057378136 -0.06342725 0.0286882 0.17123708 -0.049024038
-0.023848988 -0.08795699 -0.01195778 -0.011599263 0.0032931252 -0.1529886 0.10312216 -0.046938457
-0.13646999 0.18044092 0.05502157 -0.021537263 0.048862208 -0.11064381 0.12651448 -0.16878642
0.14739515 0.04222035 0.35121757 -0.050628323 -0.046863202 0.059842452 -0.24240544 -0.16684273
-0.016144903 -0.30699503 -0.30968282 0.043942925 -0.15949021 -0.104330055 -0.1868898 0.019635914
-0.1470932 -0.14805111 0.057618003 0.09698593 -0.13783236 0.18321127 0.024483385 -0.0317628
-0.12858056 0.0055934065 -0.09744573 -0.21985848 -0.2931703 -0.19004248 0.0069426214 -0.13097155
-0.14392267 0.12220862 0.10479843 0.02660407 0.06476688 -0.015594124 -0.010028186 0.16486289
-0.0046609114 0.41084757 -0.033891447 0.04338414 0.1590355 0.019089822 0.03809466 0.11734024
-0.10789144 0.030135473 0.045549717 -0.0035119283 -0.17445709 -0.1771442 0.15459956 0.21838091
0.09826765 -0.19700867 0.03524624 0.06708485 0.28000718 -0.13254037 0.054074038 0.3003545
-0.08931185 0.0683984 0.2583221 -0.04956673 -0.18934365 0.10954133 -0.10811093 -0.08033561
-0.19897792 0.002536724 -0.15230045 -0.085230626 0.046123326 -0.09651688 -0.20463844 -0.03115833
0.11422503 0.016488317 -0.17745349 -0.15784211

deconv3.bias f4 [3]
00000000: 9a18 f03d 85a5 513e a5fa e03d
0.117234424 0.20473297 0.10985307

deconv4.weight f4 [3, 1, 5, 5]
00000000: 7c38 5f3f f5f6 923f 19d6 533f 8524 023f
00000010: 52a5 823e c07e 443f be53 533f 6cde 343f
00000020: 89a2 1e3f 8a06 c93e 9677 543f f5ed 5d3f
00000030: c4a4 343f 13e9 f33e 0fb4 2a3e 9da9 393f
00000040: 26cb 473f 2809 313f 1953 f13e cd60 9a3e
00000050: 9c52 363f 8f5b 543f 5dc8 1e3f 79ff ae3e
00000060: 42ab 173e 02c5 323f b61a 6b3f 2d82 843f
00000070: fa3d 823f ee21 433f abcb de3e 148f 183f
00000080: dc33 4e3f dbf2 583f 35ba 333f 0a5c b03e
00000090: cacf 093f d0b1 2d3f f6d6 2b3f 7d11 103f
000000a0: 6213 a53e 574b 0d3f 80f0 233f d6cc 1b3f
000000b0: 31d9 033f 9a5d e53d 7a9b 9f3e 377e ff3e
000000c0: 386d 083f 80bc 063f 1a49 bb3e 8f36 de3e
000000d0: 8ac8 c43e 9ae9 e83e d35d a13e 2013 ca3e
000000e0: f72c 0a3f 4486 023f bb82 203f d2b2 1c3f
000000f0: b4bf 253f 2358 503f 3eee 423f 80e2 443f
00000100: 6a87 5b3f 0d59 403f 2d40 3b3f de3f 3c3f
00000110: 2f79 743f 631a 853f 5f3e 613f f7ca 513f
00000120: 0d2c 5d3f 751d 843f ba1a 703f
0.87195563 1.1481615 0.8274856 0.50836974 0.25516754 0.76755905 0.82549655 0.7065189
0.6196676 0.392628 0.82994974 0.8669122 0.7056391 0.4763876 0.1667025 0.72524434
0.78044355 0.69154596 0.4713371 0.30151978 0.712198 0.8295221 0.6202448 0.34179285
0.14811423 0.6983186 0.9183763 1.0352226 1.0175164 0.7622365 0.4351476 0.5959332
0.8054788 0.8474557 0.70206004 0.3444522 0.53832686 0.67849445 0.6712488 0.56276685
0.3224135 0.55193084 0.6403885 0.6085943 0.5150328 0.11199494 0.31173307 0.49900982
0.53291655 0.5263138 0.3657921 0.43401 0.3843425 0.45490724 0.31516895 0.39467716
0.5397486 0.50986123 0.6269948 0.6121036 0.6474564 0.81384486 0.7614478 0.7690811
0.857535 0.7513588 0.731448 0.73534954 0.9549741 1.0398678 0.87985796 0.81950325
0.8639534 1.032149 0.9379078

bn5.weight f4 [12]
00000000: 620e 8f3f 981e 4a3f d390 683f 33c9 3e3f
00000010: 5a4a 2e3f 43c6 333f 6980 7a3f d784 4b3f
00000020: e6fc 823f cf42 173f f544 633f 1492 803f
1.1176264 0.7895293 0.90845984 0.74525756 0.680822 0.702244 0.9785219 0.7949957
1.0233428 0.59086317 0.88777095 1.004458

bn5.bias f4 [12]
00000000: 22a5 b5be d1e9 723e 2a2e 07bd d4dd b63c
00000010: bb1e d9be 0694 e7be 7fe1 0ebe 72fa 5cbe
00000020: f149 47be eeb0 713e 1d97 74be 9e30 3fba
-0.3547755 0.23722006 -0.03300301 0.022322573 -0.42406258 -0.4523012 -0.13953207 -0.21579912
-0.194618 0.2360265 -0.2388577 -0.00072933163

bn5.running_mean f4 [12]
00000000: 89d3 943a ff72 abbd d4da 3c3b 77f7 313e
00000010: c1db 8ebc ca35 333e a003 46bd d7e8 c03d
00000020: d04e 1f3e a032 e3bd 1068 8c3c 749c efbb
0.0011354546 -0.08371543 0.0028816955 0.17379557 -0.017438771 0.17500988 -0.0483433 0.09419411
0.15557408 -0.1109364 0.017139465 -0.007312352

bn5.running_var f4 [12]
00000000: cb30 a63e 0a8a a43e b35c b73e 868b b93e
00000010: dfe1 ad3e 41a6 9c3e 02af 9e3e 95b2 ae3e
00000020: a997 a23e 3a40 b73e 2165 9b3e 8023 b73e
0.324591 0.32136565 0.3581291 0.3623926 0.33961388 0.30595592 0.30992895 0.34120622
0.31756333 0.35791188 0.30350593 0.35769272

bn6.weight f4 [4]
00000000: c36f 933f 896d 7c3f c35f 823f e72d 6a3f
1.1518482 0.9860464 1.0185474 0.9147629

bn6.bias f4 [4]
00000000: b50a 513f 673c 00bf 9d19 143f d688 0f3f
0.8165696 -0.50092167 0.5785158 0.5606817

bn6.running_mean f4 [4]
00000000: 1dfe 773e 10f6 a73d 1229 b03e 3641 2bbe
0.2421803 0.082012296 0.34406334 -0.16724095

bn6.running_var f4 [4]
00000000: b4a6 683d 1301 783d d935 473d 9bee 823d
0.056799605 0.0605479 0.048635338 0.06393167

bn7.weight f4 [3]
00000000: b6eb 323f befa 4a3f 0651 453f
0.69890916 0.7928885 0.77076757

bn7.bias f4 [3]
00000000: 4c7b 84be 32aa 1fbd 86d9 c0be
-0.25875318 -0.03898067 -0.37665957

bn7.running_mean f4 [3]
00000000: 6ac3 a13e 23d7 9e3e 5e3f 283e
0.31594402 0.3102351 0.16430423

bn7.running_var f4 [3]
00000000: e92c 503e cf20 103e 2d7f 593e
0.20329632 0.14075015 0.2123992
