saved_models_2D/VAE_patch_folds/CVAE2D_32_1.0_fold_6.pth (torch, 181098 bytes, 41 tensors)

conv1.weight f4 [8, 1, 3, 3]
0.038928185 0.42984825 0.46439466 0.48044643 0.055462554 -0.068605244 0.27137733 -0.14410402
-0.59189296 0.36491838 -0.49388078 0.5432232 0.40196466 0.52732533 0.6151011 -0.123658
0.29723552 0.7564504 -0.4460412 -0.015940988 0.25426063 -0.7299848 -0.69774336 0.3736143
-0.6460721 0.37267676 1.6100665 -0.3239041 -0.13411084 -0.7570807 -0.12806344 0.0032893585
0.409002 -0.4667847 -0.9478178 0.054491043 -0.8737826 0.019984163 -0.76476234 -0.35357794
0.7315973 -0.3043892 -0.14900129 0.18604651 -0.292484 -0.2393599 0.049493607 0.4413416
-0.024572678 0.15194015 -0.20439209 0.29491624 0.36383843 0.6190352 -0.6370161 -0.65340525
-0.42826888 -0.5853132 0.44558984 0.44331405 0.0472958 0.4418009 0.63960755 0.25668836
-0.35782892 -0.29079157 -0.03782527 -1.0576966 -0.66325456 0.36278304 -0.1322792 -0.14838794
00000000: 2973 1f3d 1215 dc3e 23c5 ed3e 13fd f53e
00000010: b42c 633d e880 8cbd f8f1 8a3e 0190 13be
00000020: 4c86 17bf 95d6 ba3e f1dd fcbe ad10 0b3f
00000030: 50ce cd3e cbfe 063f 4477 1d3f 6840 fdbd
00000040: 412f 983e bca6 413f 835f e4be ad96 82bc
00000050: 732e 823e 49e0 3abf 4f9f 32bf 604a bf3e
00000060: fb64 25bf 7dcf be3e a916 ce3f c2d6 a5be
00000070: 5a54 09be 0ad0 41bf 1023 03be 4792 573b
00000080: b668 d13e 67fe eebe 30a4 72bf 0032 5f3d
00000090: 37b0 5fbf d4b5 a33c 77c7 43bf 2b08 b5be
000000a0: f649 3b3f e7d8 9bbe cb93 18be fa82 3e3e
000000b0: 76c0 95be c31a 75be cfb9 4a3d 87f7 e13e
000000c0: a44c c9bc 3396 1b3e 294c 51be 43ff 963e
000000d0: 0849 ba3e 1779 1e3f 7d13 23bf 9145 27bf
000000e0: 0f46 dbbe 16d7 15bf 5a24 e43e 0ffa e23e
000000f0: 3eb9 413d ba33 e23e 52bd 233f a86c 833e
00000100: 5a35 b7be a2e2 94be acee 1abd 9a62 87bf
00000110: 0dcb 29bf b3be b93e 3374 07be 02f3 17be

conv1.bias f4 [8]
0.10560119 -0.070111796 -0.17516276 0.019325962 -0.06374034 0.18673362 0.12042587 0.09301989
00000000: 7045 d83d c696 8fbd de5d 33be 7b51 9e3c
00000010: 4c8a 82bd 1937 3f3e d7a1 f63d 3681 be3d

conv2.weight f4 [16, 8, 3, 3]
-0.35224468 -0.1453335 -0.37122267 -0.1735825 -0.15215285 -0.1533152 0.28115898 -0.118965596
0.1647235 -0.0930691 -0.30275446 -0.06999795 -0.25157264 -0.3809066 -0.10642402 -0.56619155
-0.25460008 0.026147444 0.3686423 -0.32689974 0.13913298 0.12223114 -0.08847128 -0.046446256
0.049386375 -0.030245474 0.00684989 0.21702741 0.55782324 0.3625855 0.04001104 0.48296925
0.11958036 -0.06399881 0.23260793 -0.25211528 0.08994244 0.33219007 -0.15137365 0.364743
0.29398957 0.02897578 0.006426961 -0.13744308 -0.43597806 0.035889935 -0.5484314 -0.12590727
-0.07869942 -0.3019612 0.21892548 -0.19513413 0.344741 0.17612119 -0.03346529 0.04194078
-0.303903 0.21637836 0.044520464 -0.20942007 -0.13832162 0.08418137 0.20946115 -0.38977918
-0.054248974 -0.09891482 -0.13691276 0.15395139 -0.34805453 0.15281516 0.29606754 -0.23179474
-0.012786819 0.05236426 0.49653733 -0.089466505 0.08079005 0.0036759193 -0.050759416 0.30671242
0.20381024 -0.20558983 0.2164595 0.23290637 -0.11676228 -0.013975323 0.21446052 -0.38991126
0.1632048 0.24617942 -0.064045474 0.04336024 0.08547002 0.047912102 0.11098736 -0.09938531
0.36726716 0.22152226 0.43263996 -0.11465354 -0.0901281 0.060956545 -0.14219078 0.09711381
-0.24884583 -0.08358966 -0.02225698 -0.11900459 -0.15962929 0.079167396 -0.009788632 0.016375143
0.19463025 0.17793229 -0.11050607 0.1937141 -0.0539467 0.16491616 -0.0504003 0.85789067
-0.08742749 0.40073 0.47280875 -0.26198754 0.11004982 -0.011411974 0.11725608 -0.073223226
-0.4122148 0.16719535 0.14965251 -0.47116023 0.20749389 0.16911355 0.071817875 0.0568378
-0.50078684 -0.29350433 0.18947366 -0.06964992 0.07734075 0.105574 0.11977863 0.069880724
0.17234294 0.25111592 -0.2466052 0.10959852 0.49912086 0.1467527 -0.21728547 -0.23844382
-0.6460294 -0.088751234 -0.019609718 0.17007221 0.06984429 -0.08233126 -0.19643651 -0.14429425
0.097275354 0.1852466 0.008833436 0.13548574 0.21764506 -0.0043200324 -0.382112 -0.006314244
-0.016367698 0.24208172 -0.0694713 -0.38006672 -0.05092984 -0.007357054 -0.08947389 0.31613708
-0.08873581 -0.448173 -0.26873904 -0.07147411 0.12375067 -0.21870954 -0.2246433 0.018905228
0.13022988 0.09173264 0.08719255 0.46130693 0.9622266 0.13370632 0.17145094 0.3231575
0.40438017 -0.2178549 -0.052507497 0.5267882 0.34216475 0.17456499 0.23189686 0.036768228
0.0035228108 -0.047219396 0.15618639 -0.104343526 0.06954855 0.039924357 -0.037681095 -0.02189204
-0.26651365 -0.52430385 0.103832334 -0.08730214 -0.053237084 -0.4353331 -0.38316113 -0.032513645
-0.24544251 -0.06519026 -0.45441693 0.4253516 0.46097034 0.22884043 -0.13607654 0.31995407
-0.018877149 -0.0839891 -0.019443745 -0.32414255 0.010413936 -0.3799585 -0.22521546 -0.27533647
-0.16953298 0.3002753 -0.29738054 0.1175397 -0.115124226 -0.0063053207 0.0066326917 -0.20662478
0.3150029 0.43593946 0.24908586 -0.23397255 0.3576244 0.18966605 -0.095677115 0.08755068
0.09749713 0.18358776 0.6382991 0.23974249 -0.27896413 0.13063104 0.42187107 -0.1769594
00000000: 6a59 b4be 4ed2 14be e610 bebe 9cbf 31be
00000010: f5cd 1bbe a9fe 1cbe 12f4 8f3e 3ca4 f3bd
00000020: 47ad 283e 039b bebd a202 9bbe 165b 8fbd
00000030: 21ce 80be 3106 c3be d6f4 d9bd eef1 10bf
00000040: f15a 82be 2a33 d63c afbe bc3e 675f a7be
00000050: e078 0e3e 5254 fa3d 6e30 b5bd 6e3e 3ebd
00000060: 5e49 4a3d 5bc5 f7bc 0b75 e03b 6f3c 5e3e
00000070: 81cd 0e3f cfa4 b93e 9ee2 233d bf47 f73e
00000080: 8ce6 f43d cf11 83bd c630 6e3e 4115 81be
00000090: be33 b83d d114 aa3e b201 1bbe 98bf ba3e
000000a0: cd85 963e 9d5e ed3c 4299 d23b e1bd 0cbe
000000b0: 8438 dfbe 5301 133d 0066 0cbf d6ed 00be
000000c0: 292d a1bd a99a 9abe 002e 603e 3ed1 47be
000000d0: e481 b03e 1d59 343e e612 09bd 18ca 2b3d
000000e0: 2d99 9bbe 4a92 5d3e 175b 363d 3772 56be
000000f0: 2fa4 0dbe 4867 ac3d fc7c 563e 2391 c7be
00000100: 2c34 5ebd da93 cabd dc32 0cbe 6fa5 1d3e
00000110: 3434 b2be 947b 1c3e 2a96 973e 9a5b 6dbe
00000120: ce7f 51bc e87b 563d 243a fe3e 373a b7bd
00000130: 4175 a53d b1e7 703b 1be9 4fbd 6909 9d3e
00000140: a2b3 503e 2486 52be 8fa7 5d3e 027f 6e3e
00000150: 1021 efbd c1f8 64bc 8a9b 5b3e 73a2 c7be
00000160: 291f 273e 7516 7c3e 462a 83bd 829a 313d
00000170: e80a af3d 7b3f 443d 574d e33d 878a cbbd
00000180: 710a bc3e bbd6 623e fc82 dd3e 7acf eabd
00000190: 1595 b8bd 92ad 793d 769a 11be 9be3 c63d
000001a0: 71d1 7ebe 0e31 abbd 4554 b6bc aeb8 f3bd
000001b0: dc75 23be 8422 a23d 8060 20bc 2a25 863c
000001c0: 274d 473e e233 363e 0251 e2bd fd5c 463e
000001d0: 37f7 5cbd c8df 283e 8c70 4ebd b99e 5b3f
000001e0: 2f0d b3bd 7c2c cd3e fd13 f23e 3b23 86be
000001f0: cd61 e13d 4af9 3abc f523 f03d 0ff6 95bd
00000200: d10d d3be 4235 2b3e 823e 193e ea3b f1be
00000210: 4779 543e 1a2c 2d3e 4015 933d c1ce 683d
00000220: 9133 00bf 3346 96be 6205 423e 9ea4 8ebd
00000230: d464 9e3d 2e37 d83d 804e f53d a01d 8f3d
00000240: ab7a 303e 4492 803e 1386 7cbe 3075 e03d
00000250: c58c ff3e 5746 163e 1580 5ebe 9e2a 74be
00000260: 2f62 25bf 35c3 b5bd 8fa4 a0bc 6927 2e3e
00000270: 860a 8f3d 4b9d a8bd a726 49be dfc1 13be
00000280: 4d38 c73d 49b1 3d3e 1eba 103c c6bc 0a3e
00000290: 59de 5e3e 0f8f 8dbb 2fa4 c3be b8e7 cebb
000002a0: 8d15 86bc 45e4 773e f846 8ebd 1b98 c2be
000002b0: cf9b 50bd 7113 f1bb 163e b7bd b8dc a13e
000002c0: 1fbb b5bd ee76 e5be 2a98 89be 0561 92bd
000002d0: fe70 fd3d 65f5 5fbe e508 66be 23df 9a3c
000002e0: fb5a 053e 53de bb3d 0292 b23d 6c30 ec3e
000002f0: 7c54 763f 4fea 083e d690 2f3e e674 a53e
00000300: eb0a cf3e 5b15 5fbe 1a12 57bd 97db 063f
00000310: 3830 af3e 2ac1 323e 5f76 6d3e 489a 163d
00000320: f5de 663b 2069 41bd 53ef 1f3e 0fb2 d5bd
00000330: 786f 8e3d b987 233d 7e57 1abd ef56 b3bc
00000340: 7a74 88be c738 06bf 0ca6 d43d 77cb b2bd
00000350: 210f 5abd fbe3 debe b22d c4be 072d 05bd
00000360: 4855 7bbe 7982 85bd 56a9 e8be afc7 d93e
00000370: 4e04 ec3e 2555 6a3e a657 0bbe 05d1 a33e
00000380: 40a4 9abc 7a02 acbd 7d48 9fbc 03f6 a5be
00000390: 379f 2a3c ec89 c2be e29e 66be e7f8 8cbe
000003a0: 0e9a 2dbe afbd 993e 4342 98be a7b8 f03d
000003b0: 40c6 ebbd dd9c cebb 0d57 d93b 7295 53be
000003c0: 0f48 a13e 7533 df3e 5d10 7f3e 8096 6fbe
000003d0: 8c1a b73e d137 423e 5df2 c3bd c54d b33d
000003e0: 93ac c73d 6efe 3b3e 9267 233f 0e7f 753e
000003f0: 63d4 8ebe 25c4 053e 7cff d73e d834 35be

conv2.bias f4 [16]
-0.15762724 0.11686021 -0.02492229 -0.04354972 0.07828461 0.02956628 -0.1456468 -0.15468581
-0.035830975 -0.2698633 -0.10285926 0.04459666 -0.055967 -0.04672285 -0.10615581 -0.080653355
00000000: 0969 21be 6854 ef3d d529 ccbc 3161 32bd
00000010: ae53 a03d fc34 f23c 6f24 15be f565 1ebe
00000020: 80c3 12bd 862b 8abe e0a7 d2bd fdaa 363d
00000030: a73d 65bd 7660 3fbd 3868 d9bd 962d a5bd

conv3.weight f4 [24, 16, 3, 3]
-4.9922273e-05 0.23772524 0.07381962 -0.02625113 -0.013740093 0.19998732 0.12706275 -0.13836522
0.30162337 0.09345862 -0.27047116 0.3562222 -0.16282211 -0.04209117 0.30174366 0.012748098
0.014284354 0.279596 -0.13313587 0.11294581 0.29545304 -0.09640059 -0.10492199 -0.011670657
-0.005889843 0.19155891 -0.12362454 0.0037479552 -0.048685107 -0.63677937 -0.2525418 0.02560444
0.019451065 -0.111736484 0.060613107 0.063108794 -0.15594327 0.19725238 -0.3097294 0.04622139
-0.019071579 -0.012490152 -0.22807097 -0.016337208 0.48142102 0.00627763 0.09236616 0.3055242
-0.17858724 -0.31444433 -0.1797732 0.3297194 0.11177222 0.24145308 -0.025670933 -0.012603116
0.13533626 0.10786197 0.010863125 0.004941999 0.22844045 -0.08557883 0.23992899 0.09240753
-0.033188198 0.48441893 -0.025475997 -0.12468728 0.024023173 0.34105942 0.06805912 -0.0634036
0.17272617 -0.10622518 -0.4344021 -0.33878243 -0.08169534 -0.43223307 -0.2498124 -0.14713757
-0.38158995 0.054542232 -0.09609684 -0.15704067 0.005995255 -0.17126983 -0.0074971216 0.26454362
-0.48446855 -0.22057687 -0.30135477 0.19790877 -0.03118654 -0.2560972 -0.30651236 -0.057934094
0.14831261 0.17350756 0.17860122 0.002419029 -0.049189296 0.16508122 -0.18471725 0.2754706
0.290234 -0.3502374 -0.1264743 0.0039757467 0.06294409 0.007109157 -0.12988287 -0.102196716
0.12539932 -0.04818287 0.042748373 -0.012301861 0.007000729 -0.06376186 -0.2052031 -0.2193121
0.11176146 -0.12809959 -0.19138046 0.2856099 0.15141086 -0.05833654 0.13662046 0.119201146
-0.16729471 0.1986034 0.29324615 0.08513149 -0.0050083813 0.19967656 -0.20308548 0.19053052
0.09400843 0.34145167 -0.03047767 -0.14014907 0.047048982 -0.49599427 -0.18140617 -0.23252878
-0.13186033 0.13485384 0.37839907 -0.058996536 -0.07219764 0.3016584 0.31696513 0.18079151
-0.19966136 -0.22411938 -0.24931447 0.02059918 0.09146023 -0.086834975 -0.021281725 0.17259073
0.1866174 0.03861794 -0.25233313 0.026455604 0.028900458 -0.073838815 0.18961543 -0.11083792
0.2585111 0.1641748 0.1401556 -0.02927225 0.12255263 -0.11312781 -0.1896123 0.018955117
-0.2635765 -0.57643443 -0.16421974 -0.2917399 0.18925083 0.15585567 0.16764507 -0.0932837
-0.17579503 -0.10157278 -0.82165027 -0.49724033 0.084570564 0.15939285 0.06740031 0.030778978
-0.023303954 0.114549 -0.1656887 0.055075593 0.013627835 -0.036284465 -0.14143851 -0.0797903
-0.05070198 -0.024431704 -0.0971115 -0.14602262 0.24263062 0.009813254 -0.12668398 -0.09949066
-0.21245115 -0.004834881 0.16447587 -0.17383601 0.0010655279 0.2674661 0.13006416 -0.1461881
0.12982313 -0.030436426 -0.49922207 -0.070380494 0.04836924 -0.24041472 0.074901536 0.13263935
0.11107998 0.21868129 -0.025481064 0.30010998 -0.023224812 -0.50205064 0.2589694 -0.1683754
-0.20769075 -0.08448736 0.0482046 0.16907929 0.19715135 -0.08024536 0.0799381 -0.13159521
0.35881802 -0.13485254 -0.013076455 -0.21700674 -0.4999555 -0.2321989 -0.16178887 -0.15626372
0.260758 -0.0017546889 -0.11326249 -0.008812116 0.16108866 0.19404764 0.15995903 0.22763924
00000000: a263 51b8 3f6e 733e be2e 973d 9c0c d7bc
00000010: 211e 61bc 7ac9 4c3e bd1c 023e 9daf 0dbe
00000020: 616e 9a3e 3c67 bf3d 327b 8abe c262 b63e
00000030: d7ba 26be ca67 2cbd 257e 9a3e 66dd 503c
00000040: ec08 6a3c 3527 8f3e c554 08be 2250 e73d
00000050: 9f45 973e ac6d c5bd 57e1 d6bd 4936 3fbc
00000060: 96ff c0bb 0528 443e dd2e fdbd 41a0 753b
00000070: 096a 47bd f903 23bf 294d 81be 67c0 d13c
00000080: d757 9f3c 19d6 e4bd 7345 783d 2f3f 813d
00000090: 98af 1fbe 87fc 493e da94 9ebe a452 3d3d
000000a0: 003c 9cbc 7fa3 4cbc 708b 69be 9cd5 85bc
000000b0: d17c f63e 94b4 cd3b 782a bd3d ab6d 9c3e
000000c0: 93df 36be d9fe a0be 7716 38be fbd0 a83e
000000d0: d5e8 e43d 7a3f 773e d94b d2bc 4d7d 4ebc
000000e0: 9795 0a3e bde6 dc3d 40fb 313c 7ef0 a13b
000000f0: 4bec 693e f443 afbd f2af 753e 2940 bd3d
00000100: 59f0 07bd c205 f83e 0ab3 d0bc 0b5c ffbd
00000110: 3fcc c43c 579f ae3e 9462 8b3d bfd9 81bd
00000120: 21df 303e 968c d9bd f469 debe e474 adbe
00000130: e34f a7bd a74d ddbe d2ce 7fbe 3bab 16be
00000140: c25f c3be ad67 5f3d 6cce c4bd 45cf 20be
00000150: d873 c43b 5c61 2fbe 6aaa f5bb 4372 873e
00000160: 430c f8be e7de 61be 2c4b 9abe 99a8 4a3e
00000170: ea7a ffbc 2c1f 83be 30ef 9cbe 4d4c 6dbd
00000180: 43df 173e f7ab 313e 3de3 363e 9288 1e3b
00000190: b77a 49bd 0d0b 293e 8526 3dbe 7c0a 8d3e
000001a0: 8d99 943e 5152 b3be 7b82 01be fb46 823b
000001b0: d5e8 803d eef3 e83b 0400 05be 834c d1bd
000001c0: ae68 003e 675b 45bd eb18 2f3d bf8d 49bc
000001d0: 5f66 e53b 9495 82bd c320 52be 5a93 60be
000001e0: 31e3 e43d 8a2c 03be 3df9 43be 763b 923e
000001f0: 730b 1b3e 4cf2 6ebd 3ce6 0b3e bb1f f43d
00000200: 4e4f 2bbe b15e 4b3e 5c24 963e 6b59 ae3d
00000210: 591d a4bb 0378 4c3e a4f5 4fbe 6f1a 433e
00000220: 7e87 c03d c1d2 ae3e 4eac f9bc 3d83 0fbe
00000230: 6fb6 403d f6f2 fdbe 8ac2 39be 061c 6ebe
00000240: 6506 07be 2017 0a3e 86bd c13e 5aa6 71bd
00000250: 5bdc 93bd f872 9a3e 4149 a23e 6921 393e
00000260: 0774 4cbe 8d7f 65be 4b4c 7fbe 9dbf a83c
00000270: 804f bb3d 89d6 b1bd 0357 aebc a0bb 303e
00000280: a218 3f3e d82d 1e3d cf31 81be 6cb9 d83c
00000290: a7c0 ec3c ce38 97bd 8c2a 423e fefe e2bd
000002a0: 915b 843e 701d 283e f384 0f3e 5ccc efbc
000002b0: e0fc fa3d 8eaf e7bd ba29 42be c347 9b3c
000002c0: 80f3 86be 3591 13bf 3829 28be ef5e 95be
000002d0: f8ca 413e a198 1f3e 26ab 2b3e 860b bfbd
000002e0: 9d03 34be 6405 d0bd ac57 52bf 4996 febe
000002f0: 5533 ad3d e137 233e 2c09 8a3d 3224 fc3c
00000300: efe7 bebc ab98 ea3d 4caa 29be f296 613d
00000310: 4847 5f3c 059f 14bd 42d5 10be 1969 a3bd
00000320: e1ac 4fbd ff24 c8bc 65e2 c6bd f486 15be
00000330: 2974 783e c5c7 203c 72b9 01be c2c1 cbbd
00000340: cb8c 59be ec6d 9ebb 5d6c 283e 1102 32be
00000350: 2fa9 8b3a 51f1 883e 8a2f 053e 55b2 15be
00000360: 5bf0 043e d055 f9bc 099a ffbe a623 90bd
00000370: d31e 463d 472f 76be fa65 993d 9cd2 073e
00000380: e77d e33d fded 5f3e aabd d0bc 04a8 993e
00000390: f641 bebc 6486 00bf a397 843e 9a6a 2cbe
000003a0: e2ac 54be b607 adbd 3072 453d 1f23 2d3e
000003b0: 0be2 493e ae57 a4bd 96b6 a33d e5c0 06be
000003c0: ffb6 b73e c916 0abe a13e 56bc 0437 5ebe
000003d0: 2bfa ffbe 8cc5 6dbe fbab 25be 9903 20be
000003e0: 1382 853e 97fd e5ba 2af6 e7bd b260 10bc
000003f0: 6df4 243e 6db4 463e 4dcc 233e 431a 693e

conv3.bias f4 [24]
-0.022029046 0.020852514 0.04901924 -0.065268695 -0.0030748714 0.05218862 -0.16777807 0.018189143
0.061645966 -0.21344465 -0.12125006 -0.025938185 -0.09385371 -0.021009399 -0.015913362 -0.013389652
-0.012850677 -0.06238863 0.059893534 0.07014379 0.11330758 -0.11439998 -0.03490824 0.010553786
00000000: 4276 b4bc e4d2 aa3c 66c8 483d 98ab 85bd
00000010: c883 49bb bcc3 553d 04ce 2bbe 6601 953c
00000020: 7b80 7c3d 3c91 5abe f451 f8bd 517c d4bc
00000030: 6036 c0bd e71b acbc bd5c 82bc 4560 5bbc
00000040: a58b 52bc 388b 7fbd ec52 753d 8ca7 8f3d
00000050: ce0d e83d 894a eabd f1fb 0ebd c9e9 2c3c

conv4_mu.weight f4 [32, 24, 4, 4]
0.27546898 -0.13697194 -0.24571939 -0.041790105 -0.4353441 -0.2683227 -0.14357783 0.26001662
-0.20747685 -0.088355415 0.07730684 0.50567776 0.19987018 -0.0067773755 -0.10558279 0.26422927
0.16448852 -0.27871206 -0.056102518 0.06970736 -0.6073749 -0.02906965 0.06854063 -0.20512043
-0.1453423 -0.35392383 -0.017770948 0.051599864 0.25785756 -0.33521792 0.2557653 0.066874646
0.114515744 -0.10485766 -0.06607818 -0.12432706 -0.12797092 -0.4342979 -0.3342924 -0.15803348
0.014047573 0.010951322 -0.2500634 0.01087712 -0.14504156 -0.36215195 -0.0115659 -0.10130778
0.85827076 0.11580647 0.010517939 0.12323361 0.3222388 -0.06312791 0.078235805 -0.073353514
0.03665688 0.11969016 -0.057702623 0.018481378 0.39524317 0.025006639 0.12506364 0.020364111
-0.6414474 -0.29077944 -0.2673685 -0.6009035 -0.11093095 0.08859517 0.0126669835 -0.053357173
-0.43772924 -0.5009216 0.2593617 0.22570549 -0.019520076 -0.04563114 0.07578478 0.061067548
-0.2904117 0.49326727 0.26371852 0.09060417 0.32833424 0.2671427 0.34072652 0.18687306
-0.10419577 -0.12802829 0.37898734 -0.12808138 0.08197567 -0.32421324 -0.04255606 -0.14628573
0.8556591 0.57020277 0.39734113 0.0977951 -0.28350037 -0.47401622 -0.22305821 -0.47389197
0.28133458 0.15112263 0.03997065 0.042839732 0.2872753 0.1366941 -0.033389956 -0.123024106
-0.35891962 -0.30110082 -0.08730753 0.07281377 -0.0505283 -0.58881515 -0.11631195 -0.064144164
-0.0646972 -0.24834134 0.15483287 -0.265352 0.011041606 -0.19287631 0.22288372 -0.2515649
0.265829 -0.11970606 0.02019604 0.24249268 -0.15890473 0.008821112 0.20104438 0.006011195
-0.16830887 0.26192015 -0.050930563 0.28656003 0.16175209 0.3758937 0.27789375 0.3949827
0.5355145 0.088139474 -0.42473716 0.1395968 -0.02025738 -0.042930394 0.4744831 -0.2712111
-0.02904575 -0.28723997 0.1688065 0.22988914 0.487576 0.16370451 -0.01862954 0.20534922
0.08914613 0.050261613 -0.093175165 0.24382238 -0.38163286 -0.5774185 0.24750327 0.018349905
-0.18752195 -0.33288854 0.49893025 0.223768 -0.039343655 -0.61852396 0.07595374 0.34607068
-0.06328669 -0.32592025 -0.26319456 -0.14277084 -0.3565028 -0.57612425 -0.2985838 0.13714348
-0.2615307 -0.59194213 -0.16770136 0.0066085174 -0.20213227 -0.574294 -0.061526712 0.0014864453
0.42507908 -0.19284256 -0.24094447 -0.31660467 -0.67497224 -0.27211547 -0.05143763 -0.0423908
-0.66987854 -0.050922643 -0.19381523 0.027285479 0.19018148 0.2975041 0.15634112 0.029147018
-0.16980301 0.023967018 0.29920557 0.14788364 0.10634127 -0.14997171 0.23903435 0.07741476
0.20895757 -0.053483944 -0.12331741 -0.03143251 -0.04168948 -0.07332951 -0.2677341 -0.0936031
0.6125595 0.051374167 0.09895713 -0.10578888 -0.1466282 -0.23449546 -0.1485539 -0.120318234
-0.178976 -0.24794222 -0.18961835 -0.028104115 -0.53779787 -0.14665265 -0.29267108 -0.08556093
-0.05843852 0.591186 0.23148325 0.31211734 -0.40579575 -0.0059889504 0.04235014 0.06871069
-0.13342291 0.10435172 -0.022275688 0.23423404 -0.02162799 -0.235806 -0.042065233 0.35843968
00000000: 450a 8d3e 5f42 0cbe dd9d 7bbe 1a2c 2bbd
00000010: 6ce5 debe 9861 89be 1106 13be e620 853e
00000020: d074 54be aff3 b4bd 0c53 9e3d 1974 013f
00000030: c5aa 4c3e bf14 debb ca3b d8bd 0f49 873e
00000040: ae6f 283e 59b3 8ebe c1cb 65bd bbc2 8e3d
00000050: ec7c 1bbf 7a23 eebc 085f 8c3d 170b 52be
00000060: 9dd4 14be 8135 b5be 6194 91bc 615a 533d
00000070: e805 843e afa1 abbe abf3 823e 93f5 883d
00000080: 3b87 ea3d 9dbf d6bd ff53 87bd 309f febd
00000090: cf0a 03be 4b5c debe 6028 abbe 87d3 21be
000000a0: cb27 663c 2c6d 333c 4f08 80be f335 323c
000000b0: c685 14be fb6b b9be e77e 3dbc 747a cfbd
000000c0: a2b7 5b3f f12b ed3d 6f53 2c3c e761 fc3d
000000d0: 7cfc a43e 3549 81bd 183a a03d 5e3a 96bd
000000e0: 8625 163d 1d20 f53d 9659 6cbd 4266 973c
000000f0: 505d ca3e b9da cc3c af10 003e a3d2 a63c
00000100: e635 24bf 0be1 94be 86e4 88be d0d4 19bf
00000110: c42f e3bd 6271 b53d 2e89 4f3c 0d8d 5abd
00000120: 0c1e e0be 663c 00bf 0fcb 843e 571f 673e
00000130: 91e8 9fbc b8e7 3abd 0d35 9b3d f721 7a3d
00000140: d8b0 94be 878d fc3e 1d06 873e ae8e b93d
00000150: 6d1b a83e eec6 883e b573 ae3e a75b 3f3e
00000160: 9864 d5bd d919 03be a10a c23e c427 03be
00000170: dce2 a73d 47ff a5be 434f 2ebd edcb 15be
00000180: 7a0c 5b3f cff8 113f 4c70 cb3e cc48 c83d
00000190: f626 91be 41b2 f2be 5f69 64be f8a1 f2be
000001a0: 160b 903e e4bf 1a3e 44b8 233d b778 2f3d
000001b0: c015 933e 8af9 0b3e e8c3 08bd 10f4 fbbd
000001c0: 50c4 b7be e329 9abe 4ace b2bd 631f 953d
000001d0: c3f6 4ebd 97bc 16bf f634 eebd 045e 83bd
000001e0: f77f 84bd 314d 7ebe 828c 1e3e 38dc 87be
000001f0: dae7 343c 5e81 45be a13b 643e 1dcd 80be
00000200: bd1a 883e 7328 f5bd 2a72 a53c 0050 783e
00000210: ecb7 22be 6d86 103c 94de 4d3e 8ff9 c43b
00000220: 2959 2cbe 661a 863e 919c 50bd ffb7 923e
00000230: 57a2 253e 2475 c03e 1748 8e3e 2c3b ca3e
00000240: 7a17 093f 7882 b43d 2677 d9be 77f2 0e3e
00000250: cef2 a5bc c8d7 2fbd 73ef f23e 2edc 8abe
00000260: 5af1 edbc 1e11 93be 9cdb 2c3e 0f68 6b3e
00000270: 90a3 f93e 28a2 273e fa9c 98bc 1147 523e
00000280: 3f92 b63d 1fdf 4d3d 9fd2 bebd 93ac 793e
00000290: 6265 c3be b3d1 13bf 7f71 7d3e 8a52 963c
000002a0: c105 40be 5e70 aabe c973 ff3e 7023 653e
000002b0: d026 21bd 9657 1ebf a28d 9b3d 2d30 b13e
000002c0: 749c 81bd 05df a6be 70c1 86be 8532 12be
000002d0: 8987 b6be e17c 13bf fadf 98be 576f 0c3e
000002e0: 5ae7 85be 8589 17bf e8b9 2bbe 438c d83b
000002f0: c3fb 4ebe ee04 13bf 6f03 7cbd d4d4 c23a
00000300: f7a3 d93e 8578 45be 26ba 76be 021a a2be
00000310: fbca 2cbf b852 8bbe 44b0 52bd faa1 2dbd
00000320: 297d 2bbf 4394 50bd 8077 46be cc85 df3c
00000330: efbe 423e 7552 983e e317 203e bac5 ee3c
00000340: d7e0 2dbe 7b56 c43c 7931 993e cf6e 173e
00000350: 74c9 d93d 2f92 19be 6cc5 743e a18b 9e3d
00000360: f9f8 553e fb11 5bbd d78d fcbd 60bf 00bd
00000370: 97c2 2abd c82d 96bd 7214 89be fbb2 bfbd
00000380: b3d0 1c3f b86d 523d 09aa ca3d d7a7 d8bd
00000390: b425 16be 941f 70be 831e 18be 6869 f6bd
000003a0: 7c45 37be 91e4 7dbe 502b 42be 9a3a e6bc
000003b0: 1fad 09bf 1d2c 16be fcd8 95be 923a afbd
000003c0: 3b5d 6fbd f757 173f f209 6d3e d8cd 9f3e
000003d0: 76c4 cfbe f53e c4bb 5777 2d3d 31b8 8c3d
000003e0: 04a0 08be 5bb6 d53d 817b b6bc 0cdb 6f3e
000003f0: 2f2d b1bc 2177 71be 984c 2cbd 6885 b73e

conv4_mu.bias f4 [32]
-1.110482 -1.1874462 0.10308924 -0.05312648 -1.2355034 -1.132083 0.08156654 -0.042771522
-0.005079735 -1.130966 -0.055896997 0.094849855 0.025869485 0.024945635 -1.1146138 0.059282556
-1.0471536 0.042557836 -0.057952307 -1.1193346 0.1064654 0.036089834 -1.0627012 -1.1907206
-0.040104464 -1.1005071 0.053893987 0.0030595688 0.0023551958 0.10698251 -1.0214239 -1.011073
00000000: 4624 8ebf 3dfe 97bf 7420 d33d 279b 59bd
00000010: fa24 9ebf 19e8 90bf 5c0c a73d 3131 2fbd
00000020: e873 a6bb 7ec3 90bf 40f4 64bd a440 c23d
00000030: 3eec d33c ca5a cc3c aaab 8ebf 44d2 723d
00000040: 2109 86bf 2051 2e3d 665f 6dbd 5b46 8fbf
00000050: 880a da3d efd2 133d 9806 88bf 8869 98bf
00000060: 9444 24bd 6bdd 8cbf f1bf 5c3d 0c83 483b
00000070: a159 1a3b a519 db3d 05be 82bf d76a 81bf

conv4_var.weight f4 [32, 24, 4, 4]
0.22516422 -0.10219302 -0.14098985 0.036121733 0.03344904 -0.23875824 -0.019447632 0.040015638
-0.15626024 -0.036802106 0.027069403 0.23453723 0.03556331 0.07179071 0.042781245 0.13461955
0.06314878 -0.11964182 -0.092644826 -0.009111493 0.00016891539 -0.12671293 -0.1498001 -0.177917
0.028102001 -0.061911937 -0.07279654 -0.10713627 -0.008801708 0.21111138 0.33933976 -0.060180005
-0.29742786 -0.34650892 -0.30586705 -0.040156066 -0.110465735 -0.119413905 0.016760249 -0.106517665
0.08220806 -0.007940901 -0.05759166 -0.01871278 0.08153191 -0.2342779 -0.067986436 -0.18509063
0.433437 -0.06309928 -0.023034735 0.1711084 0.06241316 0.08977596 0.16685365 0.016300019
0.038962875 0.13655539 0.071199976 -0.04282188 0.17369269 -0.1075225 -0.18348126 -0.09106155
-0.45572644 -0.25947174 -0.29861915 -0.12069824 -0.08063512 -0.06767376 -0.0798554 -0.059967842
0.17054877 0.03037964 0.13022876 0.039423127 0.12067078 0.09022918 -0.0013978564 -0.07639551
-0.11947971 0.39191428 0.24265514 0.1443418 0.2132196 0.10428984 0.13867554 0.05348503
0.05294165 -0.0119312005 0.24241816 -0.06351831 -0.019042296 0.111176945 -0.084157646 -0.0014783355
0.46959525 0.31890798 0.15986761 0.16483387 0.047888253 -0.24289796 -0.26889578 -0.19040447
0.11497579 0.08770627 -0.019518122 -0.03381474 0.1709666 0.05776839 -0.1022107 0.17288965
-0.14940853 -0.16422553 -0.16215064 -0.031028064 -0.22399808 0.009090599 -0.0784989 -0.17535657
-0.14786008 -0.0030017493 -0.016271397 -0.12815388 -0.15003285 -0.0954755 -0.1808137 -0.12237975
0.07859314 -0.18771337 -0.08895185 0.16887258 -0.13215607 -0.031416066 -0.03264912 -0.070839494
-0.0435508 0.0654823 0.19894372 0.010058613 -0.09391704 0.32267147 0.30227086 0.4807467
0.38289398 -0.2591623 -0.08540193 -0.034997717 -0.10273874 -0.047862805 0.09739741 -0.045776382
0.18924938 -0.048156943 0.13463518 0.12676165 0.36009195 0.07173489 0.15812819 0.10379032
0.17466074 0.1746805 0.0701243 0.32018748 0.12624882 -0.016897127 0.058963183 0.03717915
0.072995745 -0.101272516 0.073780075 0.041602757 0.0013331486 -0.0743869 -0.017873771 0.14337799
-0.08281151 -0.152197 -0.12558804 -0.059862185 -0.19082297 -0.11464993 -0.107289456 0.011378575
-0.03483181 -0.085551865 -0.022247056 -0.071250595 0.05080859 -0.12267731 -0.14118835 -0.026730321
0.25531793 -0.23133564 -0.030775964 -0.24120109 -0.08455837 -0.10911987 -0.1286234 -0.059849657
-0.06529886 -0.030715197 -0.098277636 0.026578208 0.089607626 0.10808499 -0.0555863 -0.012715803
0.02431856 -0.029529255 0.08043247 -0.064354405 -0.033998117 -0.08806673 -0.052879784 0.010138489
0.05970356 -0.09304747 -0.008360995 -0.046883035 -0.045146845 -0.17514616 -0.22248273 -0.2589289
0.45936877 0.10037198 0.06558672 -0.043916028 -0.16615258 -0.29413402 -0.14775214 -0.09614896
-0.07672554 -0.09851201 -0.025817974 -0.12424698 -0.054462936 -0.069560915 -0.11628771 -0.08370452
0.20204604 0.15019797 0.085325204 0.39826298 -0.049537193 -0.057392348 -0.08457443 0.19031364
-0.09353071 -0.17502598 -0.14079556 0.11953584 -0.020423528 -0.019712586 0.011178483 0.3552801
00000000: 7391 663e 934a d1bd a55f 10be 62f4 133d
00000010: dc01 093d 0a7d 74be a450 9fbc 70e7 233d
00000020: af02 20be cebd 16bd a7c0 dd3c 872a 703e
00000030: d5aa 113d 0207 933d 633b 2f3d b5d9 093e
00000040: 2654 813d c506 f5bd 92bc bdbd 5f48 15bc
00000050: e11e 3139 09c1 01be 3365 19be e02f 36be
00000060: 2b36 e63c 5f97 7dbd 5a16 95bd 436a dbbd
00000070: 0a35 10bc 952d 583e f1bd ad3e 4f7f 76bd
00000080: 7748 98be 9e69 b1be 9b9a 9cbe b07a 24bd
00000090: dc3b e2bd 478f f4bd ca4c 893c ef25 dabd
000000a0: b35c a83d 8e1a 02bc 3ce5 6bbd 8b4b 99bc
000000b0: 34fa a63d 8ce6 6fbe 793c 8bbd 6688 3dbe
000000c0: 74eb dd3e 323a 81bd 57b3 bcbc 0a37 2f3e
000000d0: f1a4 7f3d 75dc b73d afdb 2a3e 9e87 853c
000000e0: 8997 1f3d 2dd5 0b3e 4bd1 913d ff65 2fbd
000000f0: 7fdc 313e c234 dcbd 83e2 3bbe 7a7e babd
00000100: fa54 e9be 7bd9 84be 9ce4 98be a430 f7bd
00000110: 0724 a5bd 8a98 8abd 3a8b a3bd d7a0 75bd
00000120: 56a4 2e3e b9de f83c b05a 053e 257a 213d
00000130: 3e22 f73d 14ca b83d 4738 b7ba 4075 9cbd
00000140: c7b1 f4bd fda8 c83e 977a 783e 56ce 133e
00000150: 3d56 5a3e e995 d53d f600 0e3e 1e13 5b3d
00000160: 58d9 583d 157b 43bc 773c 783e e315 82bd
00000170: 97fe 9bbc bdb0 e33d d85a acbd b5c4 c1ba
00000180: ca6e f03e e847 a33e 56b4 233e 36ca 283e
00000190: 7926 443d 3eba 78be b5ac 89be 64f9 42be
000001a0: 6d78 eb3d 589f b33d 78e4 9fbc 5381 0abd
000001b0: de11 2f3e 8c9e 6c3d d853 d1bd fc09 313e
000001c0: 8dfe 18be bd2a 28be d10a 26be 912e febc
000001d0: c15f 65be bcf0 143c 08c4 a0bd ac90 33be
000001e0: a268 17be ffb8 44bb 984b 85bc c53a 03be
000001f0: 36a2 19be a988 c3bd 3a27 39be 3ca2 fabd
00000200: 71f5 a03d ef37 40be 632c b6bd efec 2c3e
00000210: ec53 07be 22ae 00bd 15bb 05bd 4c14 91bd
00000220: 5362 32bd 961b 863d e7b7 4b3e e1cc 243c
00000230: 9457 c0bd 3235 a53e 3fc3 9a3e 6e24 f63e
00000240: ae0a c43e ecb0 84be 35e7 aebd c459 0fbd
00000250: b068 d2bd ca0b 44bd 4b78 c73d 0480 3bbd
00000260: 97ca 413e 3740 45bd cedd 093e cecd 013e
00000270: f95d b83e bee9 923d 5bec 213e 0590 d43d
00000280: 44da 323e 72df 323e 549d 8f3d 9def a33e
00000290: 5f47 013e d86b 8abc 6183 713d 2a49 183d
000002a0: cb7e 953d f767 cfbd 021a 973d a767 2a3d
000002b0: 0bbd ae3a 2958 98bd 046c 92bc aed1 123e
000002c0: 1599 a9bd 88d9 1bbe 279a 00be 0d32 75bd
000002d0: 1967 43be 95cd eabd 93ba dbbd 346d 3a3c
000002e0: cdab 0ebd d135 afbd 753f b6bc d5eb 91bd
000002f0: ab1c 503d 3e3e fbbd ae93 10be 8cf9 dabc
00000300: 08b9 823e 40e3 6cbe e01d fcbc 6bfd 76be
00000310: f02c adbd 3d7a dfbd dab5 03be ea24 75bd
00000320: 69bb 85bd 709e fbbc c945 c9bd 8bba d93c
00000330: 3484 b73d aa5b dd3d 76ae 63bd f255 50bc
00000340: b737 c73c 56e7 f1bc c7b9 a43d 3ecc 83bd
00000350: 9c41 0bbd 545c b4bd 7998 58bd e81b 263c
00000360: b88b 743d ac8f bebd 8efc 08bc 6d08 40bd
00000370: e6eb 38bd 8459 33be 83d2 63be 5492 84be
00000380: 6232 eb3e d38f cd3d 5552 863d 4be1 33bd
00000390: e723 2abe bc98 96be 564c 17be bfe9 c4bd
000003a0: 4822 9dbd aac0 c9bd 3780 d3bc 3375 febd
000003b0: 8714 5fbd f475 8ebd 4028 eebd 466d abbd
000003c0: 28e5 4e3e 7fcd 193e fbbe ae3d 20e9 cb3e
000003d0: 83e7 4abd 3d14 6bbd 5c35 adbd 94e1 423e
000003e0: 078d bfbd 033a 33be b62c 10be 35cf f43d
000003f0: 3e4f a7bc 4a7c a1bc f525 373c 46e7 b53e

conv4_var.bias f4 [32]
-0.75351113 -0.78344613 -0.7448772 -0.73603356 -0.74259233 -0.7296359 -0.7446549 -0.7314545
-0.7325627 -0.7645135 -0.73370254 -0.7389874 -0.7432356 -0.7428316 -0.7254689 -0.73727566
-0.76494443 -0.7409023 -0.74241436 -0.0070616715 -0.723614 -0.7416757 -0.76430637 -0.011920131
-0.7342851 -0.009530795 -0.74535775 -0.7421211 -0.7440876 -0.7406308 -0.004133797 -0.79321647
00000000: 1be6 40bf ed8f 48bf 46b0 3ebf b26c 3cbf
00000010: 881a 3ebf 6bc9 3abf b4a1 3ebf 9a40 3bbf
00000020: 3b89 3bbf 28b7 43bf eed3 3bbf 472e 3dbf
00000030: b044 3ebf 362a 3ebf 54b8 39bf 19be 3cbf
00000040: 66d3 43bf c6ab 3dbf de0e 3ebf 9865 e7bb
00000050: c43e 39bf 75de 3dbf 95a9 43bf a74c 43bc
00000060: 1cfa 3bbf 0d27 1cbc c4cf 3ebf a6fb 3dbf
00000070: 867c 3ebf fb99 3dbf cd74 87bb 3c10 4bbf

bn1.weight f4 [8]
1.005615 0.9239763 0.8901485 1.0653815 0.99082696 0.9665757 0.92975616 0.86868274
00000000: feb7 803f b689 6c3f c6e0 633f 6c5e 883f
00000010: d6a6 7d3f 8171 773f 8004 6e3f fe61 5e3f

bn1.bias f4 [8]
-0.16486654 -0.14787178 0.07849488 0.11845084 0.0078078094 -0.1545304 0.47910494 0.34093153
00000000: c6d2 28be b36b 17be ecc1 a03d 5b96 f23d
00000010: a7d8 ff3b 383d 1ebe 3e4d f53e 948e ae3e

bn1.running_mean f4 [8]
0.51226556 1.1799412 -0.16888513 -0.95737994 -0.7957308 0.8076914 0.019062176 -0.8406367
00000000: d623 033f 5008 973f 39f0 2cbe da16 75bf
00000010: 04b5 4bbf ddc4 4e3f 4828 9c3c f733 57bf

bn1.running_var f4 [8]
0.24082564 1.4167846 0.59340686 0.8474777 0.5261959 0.37888572 0.3480258 0.9157409
00000000: ff9a 763e 3359 b53f 83e9 173f 4cf4 583f
00000010: c6b4 063f 4ffd c13e 7030 b23e ff6d 6a3f

bn2.weight f4 [16]
1.0208006 1.0164566 0.9546589 0.86477935 1.1397814 0.9069912 0.8264654 0.8477165
0.97750133 0.85446763 0.9855016 1.0489473 0.90776116 0.94760245 1.2686969 1.0361412
00000000: 98a9 823f 401b 823f 8764 743f 2e62 5d3f
00000010: 5be4 913f 9330 683f 3d93 533f f303 593f
00000020: 873d 7a3f 64be 5a3f d549 7c3f e843 863f
00000030: 0963 683f 1396 723f a964 a23f 46a0 843f

bn2.bias f4 [16]
-0.15759423 -0.0417908 -0.08660139 -0.35124364 0.15634525 -0.1908675 -0.031567045 0.047932524
-0.17659646 -0.12559177 -0.2422434 0.09381556 0.040111016 -0.20294032 -0.089490265 0.11213795
00000000: 6260 21be d42c 2bbd 125c b1bd 35d6 b3be
00000010: f818 203e c572 43be 724c 01bd e554 443d
00000020: b4d5 34be 219b 00be a70e 78be 5f22 c03d
00000030: 734b 243d 96cf 4fbe ac46 b7bd 95a8 e53d

bn2.running_mean f4 [16]
-0.25002757 0.75752705 -0.026496816 0.4079126 0.34717432 1.0095199 1.138453 -0.4852148
-0.23691894 0.600068 0.3926702 0.16350704 -0.80649936 1.0753459 0.119942546 -1.5883512
00000000: 9d03 80be 4bed 413f da0f d9bc ecd9 d03e
00000010: d5c0 b13e f337 813f d4b8 913f 136e f8be
00000020: e19a 72be 0e9e 193f 120c c93e 646e 273e
00000030: be76 4ebf efa4 893f 70a4 f53d 184f cbbf

bn2.running_var f4 [16]
4.225706 2.9972053 1.7035798 1.242452 3.9249468 3.4741528 1.9035889 2.4739573
1.3673035 1.3806689 1.0163898 1.4771067 1.5409652 2.2173078 2.6879485 3.16142
00000000: fc38 8740 36d2 3f40 e70e da3f ab08 9f3f
00000010: 5432 7b40 8558 5e40 cda8 f33f 5155 1e40
00000020: cd03 af3f c2b9 b03f 1019 823f d511 bd3f
00000030: 593e c53f 5fe8 0d40 5907 2c40 b554 4a40

bn3.weight f4 [24]
0.6621575 0.7977036 0.7140327 0.78187895 0.78624564 0.77768874 0.79121536 0.7531125
0.7295247 0.7085993 0.68890226 0.7382599 0.754275 0.82788914 0.7612779 0.6180066
0.6830856 0.6799081 0.6898407 0.7716485 0.8791083 0.9026504 0.7319591 0.64118177
00000000: 2783 293f 4e36 4c3f d9ca 363f 3829 483f
00000010: 6547 493f 9c16 473f 178d 4a3f fbcb 403f
00000020: 21c2 3a3f c466 353f e65b 303f 9afe 3c3f
00000030: 2b18 413f 8bf0 533f 1ce3 423f ae35 1e3f
00000040: b3de 2e3f 750e 2e3f 6699 303f c28a 453f
00000050: 3e0d 613f 1914 673f ac61 3b3f 7d24 243f

bn3.bias f4 [24]
-0.30576435 -0.40097684 -0.3354999 -0.50689596 -0.411635 -0.50674355 -0.48009652 -0.3427015
-0.5522315 -0.41738704 -0.49009675 -0.3922815 -0.4606064 -0.48627594 -0.35726854 -0.41967645
-0.3773667 -0.38387498 -0.45887685 -0.42132974 -0.48682165 -0.5186168 -0.49412444 -0.25950572
00000000: 258d 9cbe d64c cdbe a5c6 abbe efc3 01bf
00000010: d3c1 d2be f2b9 01bf 36cf f5be 9276 afbe
00000020: 0b5f 0dbf c1b3 d5be f6ed fabe 1fd9 c8be
00000030: 9ad4 ebbe 29f9 f8be e7eb b6be d5df d6be
00000040: 3536 c1be 438b c4be e8f1 eabe 88b8 d7be
00000050: b040 f9be 12c4 04bf e1fd fcbe efdd 84be

bn3.running_mean f4 [24]
0.0646416 0.24327117 -0.6358913 -0.37934986 -0.95596737 -1.3537612 1.0478495 -0.30044174
0.5197433 -0.5314396 -0.1015946 -1.9586554 -1.036779 -1.6691267 0.27689084 -0.32601506
-0.13865155 -0.75508773 -1.089112 -0.053343672 -2.1384346 -2.082954 -0.20708613 -1.6799302
00000000: d162 843d 141c 793e c6c9 22bf 253a c2be
00000010: 47ba 74bf 0c48 adbf ef1f 863f 80d3 99be
00000020: e60d 053f 6d0c 08bf d410 d0bd 38b5 fabf
00000030: 2db5 84bf f2a5 d5bf a3c4 8d3e 72eb a6be
00000040: acfa 0dbe 6e4d 41bf 0668 8bbf e57e 5abd
00000050: 1ddc 08c0 1e4f 05c0 630e 54be f407 d7bf

bn3.running_var f4 [24]
3.1217203 5.6787677 4.207546 3.4092913 5.066916 5.3005185 3.5770035 4.3904433
2.462566 1.9718052 5.434686 7.1887803 3.578712 3.9443238 4.6703444 2.883688
4.015789 2.6543374 2.641319 4.052274 4.356472 5.809031 2.7975738 3.686489
00000000: 44ca 4740 77b8 b540 38a4 8640 d431 5a40
00000010: 2d24 a240 d99d a940 a0ed 6440 837e 8c40
00000020: ae9a 1d40 1d64 fc3f f3e8 ad40 7d0a e640
00000030: 9e09 6540 cd6f 7c40 7673 9540 588e 3840
00000040: 5881 8040 aae0 2940 5f0b 2940 3bac 8140
00000050: 3868 8b40 95e3 b940 730b 3340 70ef 6b40

deconv1.weight f4 [32, 24, 3, 3]
-0.026494483 0.01815894 -0.005042616 -0.02188758 0.0061126202 0.0012850772 -0.0070276735 0.0058198115
-0.010467756 0.005911183 0.003049659 -0.0016593934 0.01718143 0.0026785375 0.0011181141 0.0025786262
0.0015885576 0.008174273 0.008095296 0.010565692 -0.0050831116 -0.0039552986 -0.0035458938 -0.004322158
-0.008880641 -0.0046035396 0.008805625 0.006709554 0.005122317 0.0017233846 0.0037178418 0.006835219
-0.0021101513 0.011408611 -0.0019764802 0.001145215 -0.0011174482 0.0091571305 0.005052097 0.0070730546
0.013660093 -0.00026855097 0.0063275225 -0.0022500951 0.012405357 0.003010522 -0.00834648 -0.0025722794
-0.005307847 -0.033429917 -0.0023062122 0.0032487088 -0.0030562198 -0.0005786597 -0.011575771 0.002784122
0.007664579 0.0016851585 -0.003084015 0.0046927505 -0.006754422 -0.008332507 -0.006453014 0.0043622507
-0.019423855 -0.0013964078 0.004762588 -0.00032302726 0.00915764 0.007700385 -0.0010412607 -0.016725399
-0.022902308 0.0033821696 -0.0043012477 0.0074610435 0.010171059 0.0036501053 -0.002989735 -0.0019180733
-0.009849205 0.0039465236 -0.007795546 -0.0031170687 0.00062818377 -0.021919465 -0.022155538 0.0016713043
0.013501741 0.0007132552 0.00071559404 0.0031575023 -0.00038603766 0.0051108864 0.007505482 -0.0011557039
0.017492857 0.0023684106 -0.0018972955 -0.0014324503 -0.008739497 0.0017139706 0.0046796855 0.0027914096
0.0051600826 -0.0011614088 -0.005616998 0.008006172 -0.00095600757 -0.009415064 0.004293094 0.009767155
0.0011334164 -0.0023340124 0.0014044235 -0.0021640847 -0.00039408964 -0.00932775 0.014414408 -0.002486524
0.0128176985 -0.004552091 -0.00765542 -0.0054848343 0.0036208364 -0.009779001 -0.0008938679 0.0043895403
-0.008764213 0.00838147 -0.0076168003 0.00012675612 0.0013243076 0.0010529414 0.001737703 0.01150376
0.0019389233 0.00019417987 -0.020563316 0.015272933 -0.00040101708 -0.023146115 0.006953844 0.005267857
0.002002214 0.008900089 -0.014163663 0.0015479836 -0.00020040317 0.0015094749 0.0032030642 -0.010556186
0.0016315227 0.005685594 0.0055988524 -0.0016254066 0.0006255948 0.0075409818 -0.0054042283 0.0040719593
0.0070894817 0.0020393191 0.0029011362 0.011593845 -0.0046176775 0.006706263 -0.0106425155 0.001198625
0.001802269 0.015901573 3.580279e-05 -0.003486574 0.0006992237 -0.005134635 0.007545317 0.0062094727
0.0032422827 0.00694348 0.0030367458 -0.0066282325 0.007950625 -0.00027991115 -0.002148731 0.010315213
0.005191109 0.0027382947 0.0077775847 -0.0028498638 0.00094043417 -0.020596646 0.0028687222 0.0035455886
0.008986505 -0.006223384 0.000854022 -0.014365198 -0.004969994 0.0034942254 0.009605386 -0.0020263793
-9.177198e-05 0.0053175665 -0.004002066 -0.0026946056 0.006011282 0.0027600361 0.0032165616 0.0106185535
0.009793331 0.004667447 0.01009348 0.007378742 -0.002780282 0.0054959394 0.0007933681 0.004159239
-0.031471666 0.019778948 -0.0032024279 -0.025347022 -0.0045294664 0.003158281 -0.007100996 0.0006729273
-0.010814878 0.0013787877 0.009821044 0.004717187 0.01569628 0.005103941 0.0033660135 0.0026808977
0.001616213 0.0035985147 0.016209995 0.001276004 0.0055007515 0.0018890412 0.00024972382 -0.0023929812
0.0036211677 0.0041662604 0.005624629 0.002018676 0.006545914 0.000405483 0.00080352474 0.0014588162
-0.0035889554 0.005303084 0.0010232079 -0.002058652 0.008252994 0.0043244725 0.0053160903 -0.001661602
00000000: f50a d9bc 0fc2 943c 873c a5bb 954d b3bc
00000010: 604c c83b 0970 a83a 6648 e6bb 1eb4 be3b
00000020: f380 2bbc 99b2 c13b cadc 473b 0180 d9ba
00000030: 12c0 8c3c 678a 2f3b af8d 923a 2bfe 283b
00000040: 2637 d03a 63ed 053c 22a2 043c b91b 2d3c
00000050: 3b90 a6bb 739b 81bb 3a62 68bb e4a0 8dbb
00000060: 1c80 11bc 4ad9 96bb 7845 103c d2db db3b
00000070: 1cd9 a73b 31e3 e13a 09a7 733b f9f9 df3b
00000080: 774a 0abb 2feb 3a3c d687 01bb 0a1b 963a
00000090: 5777 92ba ca07 163c 108c a53b 15c5 e73b
000000a0: 95ce 5f3c 4dcc 8cb9 1b57 cf3b 5576 13bb
000000b0: d73f 4b3c 2e4c 453b adbf 08bc b093 28bb
000000c0: 73ed adbb cfed 08bd d223 17bb 4ae8 543b
000000d0: dc4a 48bb 32b1 17ba 4da8 3dbc d175 363b
000000e0: 2627 fb3b 89e0 dc3a 301d 4abb a5c5 993b
000000f0: 3354 ddbb 1185 08bc ce73 d3bb 36f1 8e3b
00000100: c71e 9fbc ac07 b7ba 7c0f 9c3b fc5b a9b9
00000110: ed09 163c 8353 fc3b e97a 88ba b403 89bc
00000120: 9f9d bbbc 64a7 5d3b 7bf1 8cbb c57b f43b
00000130: 83a4 263c 9b36 6f3b 6eef 43bb dc67 fbba
00000140: 8f5e 21bc d751 813b c871 ffbb bc47 4cbb
00000150: b3ac 243a 7390 b3bc 887f b5bc ab0f db3a
00000160: 6836 5d3c bff9 3a3a b496 3b3a 19ee 4e3b
00000170: 1965 cab9 3979 a73b 8cf0 f53b fd7a 97ba
00000180: 2e4d 8f3c 5637 1b3b acae f8ba 0ec1 bbba
00000190: 1b30 0fbc 4fa7 e03a 0c58 993b 15f0 363b
000001a0: e915 a93b 6a3a 98ba cb0e b8bb 522c 033c
000001b0: 959c 7aba a441 1abc 15ad 8c3b 6b06 203c
000001c0: 258f 943a 3bf6 18bb a214 b83a 51d3 0dbb
000001d0: d19d ceb9 6bd3 18bc 692a 6c3c f3f4 22bb
000001e0: 5301 523c b529 95bb 51da fabb 20ba b3bb
000001f0: 8e4b 6d3b 1a38 20bc 7652 6aba 22d6 8f3b
00000200: c697 0fbc 6f52 093c 5a96 f9bb d6e9 0439
00000210: 6494 ad3a da02 8a3a a3c3 e33a 447a 3c3c
00000220: 7823 fe3a c39c 4b39 6674 a8bc 533b 7a3c
00000230: 9a3f d2b9 ec9c bdbc 12dd e33b fd9d ac3b
00000240: 9437 033b aed1 113c b50e 68bc b6e5 ca3a
00000250: 5123 52b9 93d9 c53a 80ea 513b daf3 2cbc
00000260: d1d8 d53a 384e ba3b 9476 b73b 980b d5ba
00000270: f5fe 233a 571a f73b f415 b1bb 126e 853b
00000280: e24e e83b 19a6 053b fd20 3e3b 1cf4 3d3c
00000290: e34f 97bb 36c0 db3b f25d 2ebc 2e1b 9d3a
000002a0: 1d3a ec3a 0444 823c f42a 1638 017f 64bb
000002b0: 1c4c 373a 7140 a8bb b53e f73b d578 cb3b
000002c0: 7a7c 543b 2286 e33b 2404 473b a531 d9bb
000002d0: 5743 023c 0ac1 92b9 b9d1 0cbb 2401 293c
000002e0: 2e1a aa3b f674 333b 1cdb fe3b c8c4 3abb
000002f0: 7887 763a 4cba a8bc 2c01 3c3b 1b5d 683b
00000300: 223c 133c 87ed cbbb 72e0 5f3a 025c 6bbc
00000310: 55db a2bb 60ff 643b e95f 1d3c 01cd 04bb
00000320: b575 c0b8 fb3e ae3b c323 83bb fb97 30bb
00000330: 4afa c43b b9e1 343b f3cc 523b 71f9 2d3c
00000340: 3574 203c 62f1 983b 205f 253c 60c9 f13b
00000350: 6435 36bb 4817 b43b 08fa 4f3a 3a4a 883b
00000360: 6fe8 00bd 7607 a23c d3df 51bb 8fa4 cfbc
00000370: eb6b 94bb 2afb 4e3b 79af e8bb 6367 303a
00000380: e330 31bc 70b8 b43a 72e8 203c a292 9a3b
00000390: 7c95 803c f63e a73b 5698 5c3b 00b2 2f3b
000003a0: 1cd7 d33a 0fd5 6b3b d3ca 843c 973f a73a
000003b0: a63f b43b b499 f73a 5ded 8239 90d3 1cbb
000003c0: 1d51 6d3b 2085 883b cf4e b83b c34b 043b
000003d0: 1b7f d63b 0297 d439 a2a3 523a c035 bf3a
000003e0: ae34 6bbb 7ec5 ad3b 291d 863a 73ea 06bb
000003f0: 9137 073c 4eb4 8d3b 9932 ae3b 1cca d9ba

deconv1.bias f4 [24]
-0.02678782 0.057944544 0.005543107 0.112745844 0.039962467 0.3916204 -0.12726949 -0.25870088
-0.06837268 -0.13239825 0.039937243 -0.038830202 -0.056949083 -0.1490935 0.10609034 -0.15636083
0.05634296 -0.012178736 -0.00035665912 -0.11361264 0.047885723 -0.15235475 0.09880338 0.025860634
00000000: 2172 dbbc 4257 6d3d f4a2 b53b 4be7 e63d
00000010: afaf 233d 7882 c83e ef52 02be 7174 84be
00000020: fa06 8cbd 6893 07be 3c95 233d 6b0c 1fbd
00000030: 7143 69bd f7ab 18be e445 d93d 0e1d 20be
00000040: e0c7 663d 5289 47bc fafd bab9 bead e8bd
00000050: d223 443d e202 1cbe 6d59 ca3d aed9 d33c

deconv2.weight f4 [24, 16, 3, 3]
-0.12809594 -0.14810178 -0.054522574 -0.073695384 0.13143027 0.08930863 0.31066558 0.23492925
-0.11194302 -0.029036023 -0.19149655 0.12772821 -0.29563317 -0.041075945 -0.0140459165 0.038358986
-0.03977322 0.03338269 -0.14968677 -0.10746648 0.3320084 -0.09144877 -0.008789084 0.015287121
0.0085250465 -0.13208808 -0.22666399 0.085586905 -0.13601659 -0.048524737 -0.2347767 0.025309721
0.17077045 -0.15572155 -0.020699011 -0.052155398 -0.14564821 -0.01926304 0.18007031 -0.12939474
-0.10212856 -0.2212485 0.15532438 -0.1494821 -0.08792705 -0.18446766 -0.26962847 -0.049904414
0.0035665848 0.058975905 0.035736717 -0.38873112 -0.3039383 0.6688109 0.13681029 0.27835664
-0.036870092 -0.026115658 -0.014516685 -0.06124466 -0.049916815 -0.068702035 -0.5058931 -0.18814042
0.06896907 -0.0898874 -0.16381821 0.10682379 -0.05004705 0.07075929 0.27089244 -0.023638634
-0.02551344 0.13054882 -0.22090587 -0.049832605 0.03125663 0.02619719 0.18765199 0.02409821
-0.20064692 -0.0017698572 0.22878139 -0.14438614 -0.045918465 -0.108251356 -0.075244 -0.15337926
-0.068667576 0.16171812 -0.11134603 -0.0145261595 0.116854176 0.059868485 0.064777516 -0.1443645
-0.096087806 -0.015843784 -0.5117367 -0.027141174 -0.1331739 -0.02938592 -0.105161466 -0.008096074
-0.14890355 -0.07183667 -0.105174646 0.06098456 -0.14513776 -0.17027578 -0.13665345 -0.04840119
-0.01364844 -0.10501095 -0.14799263 0.00304462 0.044688907 -0.19502537 -0.08574188 0.103023306
0.021334494 -0.006260472 -0.09531779 0.017415835 0.05196722 0.032951068 0.33945578 -0.10798182
-0.0123723615 0.011130527 0.12619503 -0.07302228 -0.059339017 -0.044098247 -0.05660768 0.057769075
-0.012248041 0.14015071 -0.2644605 0.21874094 -0.08500669 0.21114811 -0.37134406 -0.061620638
0.09894518 -0.15817869 -0.03269128 0.12505332 -0.03125638 0.056495354 -0.088718645 0.009093282
-0.10818658 0.21472321 -0.26224416 0.11575256 -0.039363846 0.12323594 0.017039469 -0.18261155
-0.0019181337 -0.12585558 -0.060721163 -0.34685156 0.062670074 0.105377264 -0.009428386 -0.27461854
-0.18765406 -0.141412 -0.08979965 0.033267055 -0.13515921 -0.014589114 -0.10127095 0.016417162
-0.10419019 -0.0027725757 0.059381157 0.13231419 -0.028062642 -0.13906828 -0.11401884 -0.17653602
-0.024168411 0.10196391 0.09705169 0.060075436 -0.18131343 0.10773087 -0.032474853 -0.020411342
-0.38064584 -0.06518617 -0.11412634 -0.16155933 -0.028768165 -0.09966006 -0.07287032 0.02037906
0.035321884 0.111778624 0.25512826 -0.08630772 -0.22062942 0.11756501 -0.21071467 -0.07170107
0.008316615 -0.26592645 -0.01590085 0.05679699 0.12815844 0.02613327 -0.16531906 0.049632363
0.21267986 0.061274786 0.14120409 0.05059711 0.05810584 0.041923564 0.29971763 0.012823909
0.14098428 0.114077926 0.11353526 -0.12985715 -0.038579755 0.13057308 -0.21708746 -0.08934926
0.10179712 -0.099882275 -0.04501706 -0.099763446 -0.07489695 0.0011738215 0.008317618 -0.029003669
-0.06800045 0.18151319 -0.21382105 -0.044328146 -0.18050632 -0.0032288188 -0.1191024 -0.050036643
-0.21815014 -0.15687187 0.20116843 -0.044337623 -0.39150614 -0.091324404 -0.07088145 -0.09292893
00000000: 952b 03be fea7 17be 1053 5fbd 9bed 96bd
00000010: a895 063e 71e7 b63d 8f0f 9f3e 4b91 703e
00000020: 6242 e5bd f4dc edbc ac17 44be 2fcb 023e
00000030: 3b5d 97be 403f 28bd d820 66bc 501e 1d3d
00000040: 3ee9 22bd 4abc 083d 7d47 19be 6317 dcbd
00000050: 01fd a93e 7e49 bbbd 1700 10bc d576 7a3c
00000060: a3ac 0b3c 1942 07be 9b1a 68be 3048 af3d
00000070: ef47 0bbe e0c1 46bd 4e69 70be 5556 cf3c
00000080: 73de 2e3e 7875 1fbe f990 a9bc e6a0 55bd
00000090: ce24 15be 86cd 9dbc 5a64 383e 0e80 04be
000000a0: c728 d1bd f78e 62be 5b0d 1f3e d611 19be
000000b0: 1913 b4bd 17e5 3cbe be0c 8abe 9268 4cbd
000000c0: 5dbd 693b b890 713d aa60 123d c407 c7be
000000d0: cd9d 9bbe 3137 2b3f ff17 0c3e c384 8e3e
000000e0: 1805 17bd 81f0 d5bc 64d7 6dbc aedb 7abd
000000f0: 9375 4cbd a7b3 8cbd 3682 01bf e2a7 40be
00000100: a83f 8d3d e316 b8bd f6bf 27be 6ec6 da3d
00000110: 23fe 4cbd 3fea 903d 6ab2 8a3e cfa5 c1bc
00000120: 9001 d1bc 97ae 053e 2635 62be 461d 4cbd
00000130: f406 003d 7d9b d63c d827 403e 9c69 c53c
00000140: 6376 4dbe 8efa e7ba ab45 6a3e f6d9 13be
00000150: 0015 3cbd e3b2 ddbd 8719 9abd 740f 1dbe
00000160: 96a1 8cbd 6f99 253e 6309 e4bd 21ff 6dbc
00000170: 3e51 ef3d a838 753d 13aa 843d 4ad4 13be
00000180: afc9 c4bd d3ca 81bc 2d01 03bf 2b57 debc
00000190: bd5e 08be beba f0bc e55e d7bd 65a5 04bc
000001a0: 2c7a 18be 1b1f 93bd ce65 d7bd f2ca 793d
000001b0: fe9e 14be c65c 2ebe e2ee 0bbe 5440 46bd
000001c0: b59d 5fbc fb0f d7bd 618b 17be 3f88 473b
000001d0: b70b 373d bbb4 47be 7099 afbd e2fd d23d
000001e0: adc5 ae3c a524 cdbb f935 c3bd a7ab 8e3c
000001f0: 94db 543d b3f7 063d 26cd ad3e 9325 ddbd
00000200: 72b5 4abc d05c 363c 4539 013e b58c 95bd
00000210: 780d 73bd 5da0 34bd 74dd 67bd 449f 6c3d
00000220: 02ac 48bc ab83 0f3e 5e67 87be a0fd 5f3e
00000230: fd17 aebd 3637 583e cf20 bebe ec65 7cbd
00000240: c5a3 ca3d 98f9 21be 4be7 05bd fa0d 003e
00000250: b106 00bd ac67 673d 1fb2 b5bd fdfb 143c
00000260: ed90 ddbd 67e0 5b3e de44 86be ae0f ed3d
00000270: fc3b 21bd 2063 fc3d 5b96 8b3c 86fe 3abe
00000280: e369 fbba 49e0 00be c1b6 78bd 8796 b1be
00000290: 2b59 803d 09d0 d73d 8479 1abc cd9a 8cbe
000002a0: 6328 40be 4fce 10be e1e8 b7bd 0943 083d
000002b0: 2d67 0abe 2e07 6fbc 2567 cfbd 497d 863c
000002c0: ab61 d5bd 1ab4 35bb a839 733d 5f7d 073e
000002d0: a0e3 e5bc ea67 0ebe b682 e9bd dcc5 34be
000002e0: d5fc c5bc 74d2 d03d 09c3 c63d a911 763d
000002f0: 3aaa 39be 01a2 dc3d 5a04 05bd b035 a7bc
00000300: 03e4 c2be 5480 85bd 12bb e9bd cf6f 25be
00000310: 37ab ebbc 931a ccbd 093d 95bd fdf1 a63c
00000320: aead 103d 31ec e43d 2ca0 823e 1ac2 b0bd
00000330: aeec 61be edc5 f03d 96c5 57be 03d8 92bd
00000340: 6942 083c 8327 88be 8042 82bc f6a3 683d
00000350: f73b 033e 7015 d63c 6649 29be 4e4b 4b3d
00000360: c0c8 593e 45fb 7a3d ce97 103e ea3e 4f3d
00000370: 6400 6e3d 0bb8 2b3d 9774 993e 5f1b 523c
00000380: 2f5e 103e b0a1 e93d 2d85 e83d 46f9 04be
00000390: ce05 1ebd f3b4 053e 2d4c 5ebe bffc b6bd
000003a0: 027b d03d 148f ccbd cf63 38bd c750 ccbd
000003b0: 9263 99bd eada 993a 9e46 083c 1a99 edbc
000003c0: d243 8bbd 98de 393e e8f3 5abe 6e91 35bd
000003d0: a6d6 38be 979a 53bb f6eb f3bd 39f3 4cbd
000003e0: c062 5fbe 05a3 20be 19ff 4d3e 5e9b 35bd
000003f0: 7e73 c8be 4a08 bbbd 4b2a 91bd 8651 bebd

deconv2.bias f4 [16]
-0.20879512 -0.09759648 -0.20005798 -0.10500551 0.08757161 -0.106315866 -0.18808 0.02541138
-0.2046344 0.12223454 -0.37816122 0.07656292 -0.0008790684 0.21582165 -0.0041859746 0.12234348
00000000: 63ce 55be aae0 c7bd 00dc 4cbe 210d d7bd
00000010: bf58 b33d 22bc d9bd 0b98 40be 872b d03c
00000020: ae8b 51be 1a56 fa3d 599e c1be 05cd 9c3d
00000030: 4871 66ba 5a00 5d3e 802a 89bb 388f fa3d
