saved_models_2D/VAE_patch_folds/CVAE2D_364_1.0_fold_1.pth (torch, 444996 bytes, 29 tensors)

conv1.weight f4 [16, 1, 3, 3]
000000 e2 95 a0 3e a6 6a 1a bf 11 4d c1 be 02 d8 18 3f
       0.31364352 -0.6031898 -0.3775411 0.597046
000010 9c c5 0d bf 99 95 00 bf 14 12 95 3e ab b5 35 3f
       -0.5537965 -0.5022827 0.29115355 0.7098033
000020 54 8b 19 3e 47 9c 3d 3f 4c a6 63 bf 41 52 2e be
       0.14994556 0.74066585 -0.88925624 -0.17023565
000030 57 3d 9b 3e 0d 63 48 bf 4a 6d f1 3e 2d 1a 33 bf
       0.30320236 -0.7827614 0.47153693 -0.69961816
000040 b7 ea f7 3c 51 2f 79 be 46 6b b0 be b1 e2 f9 3e
       0.030263288 -0.24334456 -0.34456843 0.48805764
000050 13 a2 9a be b3 96 b4 3d c9 78 51 3f 55 25 cf 3e
       -0.30201778 0.08817806 0.8182493 0.4045817
000060 d6 43 7a 3d 1b 23 ca bc f8 57 fe 3e fc 69 d0 be
       0.06109985 -0.024674943 0.4967649 -0.4070586
000070 fe 87 fe 3d 19 19 dc 3e ed 3a fa be 5e 35 5a 3e
       0.12428282 0.42987898 -0.48873082 0.2130942
000080 e7 3e a3 bd ef ef 49 bf 3b 30 97 3e b7 19 c5 3e
       -0.07970982 -0.78881735 0.29528984 0.3849618
000090 69 be 17 bf 46 d4 ed 3e 29 0f d6 bd 38 a0 18 3f
       -0.5927492 0.46451014 -0.1045211 0.59619474
0000a0 11 0d 3b 3e b5 85 3b bf d3 d3 ac 3e af 45 2f 3f
       0.18266703 -0.73250896 0.3375536 0.68465704
0000b0 ae ec 81 3f d7 75 47 3b e5 17 fe 3e 12 07 0a bf
       1.0150354 0.0030435228 0.49627605 -0.5391704
0000c0 16 7f 38 3f 2f f9 86 3f cf 49 28 3f 1b 18 49 3f
       0.7206892 1.0544795 0.6573762 0.7855241
0000d0 85 e6 de be ae 68 59 3d fb b8 9c be 49 e4 35 be
       -0.43535247 0.053078346 -0.3060988 -0.17762865
0000e0 b8 dc dd 3d 2a c9 18 3d ba 9e b4 be 98 8d 3f be
       0.108331144 0.03730122 -0.3527735 -0.18706357
0000f0 19 cf 74 be d8 5b 65 be 6d 4b 24 be a3 e1 6d 3e
       -0.23907126 -0.22398317 -0.16044398 0.23230605
000100 f1 e6 de 3e 93 24 e0 3c 88 ec 30 3f 9f ed 5d 3f
       0.4353557 0.02736119 0.6911092 0.86690706
000110 8f 4f 86 bf 78 22 3d 3f 49 6a 8f be fd 87 b4 be
       -1.0493029 0.7388072 -0.28010777 -0.3526
000120 c9 16 31 3f 16 2e b8 3d 85 c7 ee 3e 7f c0 90 3d
       0.6917539 0.08993165 0.46636596 0.07067966
000130 f9 42 8d bc 1c 0b aa be 39 57 3b 3e 5a 79 1d 3f
       -0.01724385 -0.332116 0.18294992 0.6151329
000140 b8 73 0b bd 61 30 3e 3f fb 75 67 3f 4c b2 de bc
       -0.034045905 0.7429257 0.904144 -0.027184628
000150 3e 1b e1 bd c8 14 85 3f 5e 29 33 be 0b 0b 12 3e
       -0.10991524 1.0396967 -0.17496249 0.14262025
000160 da f7 b5 bd 75 57 4e 3e 25 1d 84 3f 43 6e 01 3e
       -0.088851646 0.2015055 1.0321394 0.12639718
000170 8b 7f 6e bf e6 7b 1f 3e 4c a5 bd 3d 6d 4a 47 bf
       -0.93163365 0.15574607 0.092600435 -0.7784794
000180 55 aa 16 be 94 e1 d7 bd 00 98 11 bf f8 f8 38 3e
       -0.14713414 -0.105410725 -0.5687256 0.18063724
000190 10 a4 10 be 67 a1 24 bf 92 3c de be 5d d9 c1 be
       -0.14125085 -0.6430878 -0.43405586 -0.37861148
0001a0 5d cc 9c be 56 d4 6d be 85 6b 7a 3e ad ba 37 bf
       -0.30624667 -0.23225531 0.24455078 -0.7176922
0001b0 d9 4e 4d 3e 44 79 75 be d5 0a 30 3f 9d 66 9b be
       0.20049609 -0.2397204 0.6876653 -0.30351725
0001c0 04 8b 99 bf 6f 52 36 bf 1e b4 56 be 58 01 1e bf
       -1.1995549 -0.71219534 -0.20967147 -0.617208
0001d0 38 46 e9 bc a9 1b aa 3d 4f 42 c5 bd 76 3a 27 3f
       -0.028475866 0.08306057 -0.09631788 0.6532358
0001e0 29 66 71 3e 93 ec b1 3d 45 11 10 3f 55 5d 4d 3e
       0.23574127 0.08687701 0.5627635 0.20055135
0001f0 32 3f 9d 3e 04 37 2c 3f e6 ea 2b 3f 02 55 c3 3e
       0.30712277 0.6727145 0.671553 0.38150793
000200 bf 95 4a 3e 86 60 2e bf cb e7 83 3e 5f 19 ef be
       0.19783686 -0.68116033 0.25762782 -0.46699044
000210 5b be b4 3d 49 8e 72 bf ba 61 00 bf 6e ac 73 bf
       0.0882537 -0.9474836 -0.5014912 -0.9518498
000220 c4 44 7c be 37 f2 90 3e 96 ab c5 be d9 ea 71 be
       -0.24635607 0.28309795 -0.38607472 -0.23624744
000230 a6 d9 2e be 09 66 db bd 2a f3 d5 bd 4f 8d 47 bd
       -0.17075214 -0.10712821 -0.104467705 -0.048718747

conv1.bias f4 [16]
000000 24 13 ef bc 51 07 75 bc 37 13 06 3c fb 7b 24 bc
       -0.029183932 -0.014955358 0.008183292 -0.010039325
000010 bd 50 f9 3c 2a 68 16 bd dd 97 5a bd 2c f0 9f 3c
       0.030434007 -0.036720432 -0.053367484 0.019523703
000020 4a fa c1 3b 8d 2d 44 3d 33 20 0b bd 8a ac aa bc
       0.0059197294 0.047895003 -0.033966254 -0.020834226
000030 eb f3 6d ba 7b 62 ea 3b 95 96 b2 bb 12 53 03 3d
       -0.0009077179 0.007152853 -0.0054500797 0.032061644

conv2.weight f4 [32, 16, 3, 3]
000000 b0 96 2d 3e 74 d5 9e 3c aa 4b b1 bc 0e 0e 5d 3c
       0.16952014 0.019388892 -0.021642525 0.01349212
000010 17 b2 bb 3d f8 bb 47 be ab 46 23 3d f4 f7 f1 3d
       0.09164827 -0.19505298 0.039862316 0.118148714
000020 41 28 16 bd f8 6c 90 3d 7f e6 9a bd e1 9f 74 bd
       -0.036659483 0.07052034 -0.07563495 -0.059722785
000030 99 d2 cd 3d bc 3d 8b bc d7 00 06 be 6a 9b ea 3d
       0.10049934 -0.01699721 -0.13086258 0.11455424
000040 c4 6b a0 3d e1 f0 27 3e 6d f9 dd 3d f0 82 92 3d
       0.07833055 0.16400482 0.1083859 0.071538806
000050 e8 f2 3d 3e 7c 5e ef 3b 0e d1 93 bb 69 3b 96 3c
       0.18549693 0.0073049646 -0.0045110052 0.018338876
000060 1b f8 f3 3c 55 51 bf 3c 38 d9 38 be f1 d4 eb 3d
       0.029781392 0.023354212 -0.18051612 0.11515225
000070 be a5 9c 3d 46 62 44 be a5 d3 82 bd 02 2b 65 3c
       0.076488 -0.19178113 -0.06388024 0.013987305
000080 91 2b d1 bb bb 74 14 3e 34 90 af bd e5 31 d3 3d
       -0.0063833673 0.14497654 -0.085724264 0.10312251
000090 ce b0 77 be db d6 dc 3d 1e 18 c0 bd 17 2e f0 3d
       -0.2418854 0.10783168 -0.093796 0.11727541
0000a0 84 42 df 3d 23 eb ae bd bc a6 03 be f4 3a 51 be
       0.10901359 -0.085409425 -0.12856573 -0.20432645
0000b0 b3 55 ee be 33 3a a7 3d fd 01 4f 3e 97 b3 14 be
       -0.46549758 0.081653975 0.20215602 -0.14521633
0000c0 b5 aa 00 3e 60 b0 91 3d c8 18 98 bd 4b cc 16 3e
       0.1256512 0.07113719 -0.07426602 0.14726369
0000d0 a3 ed 7a 3d b4 73 96 3d d2 f1 fa bc 07 f0 5c be
       0.061261784 0.07346287 -0.030632887 -0.21575938
0000e0 77 ea 44 3a 74 d2 aa bc 26 83 3c 3d d8 c5 6f 3d
       0.00075117446 -0.020852305 0.04602351 0.058538288
0000f0 f2 34 b9 3c f1 1f 91 3c 00 89 26 3d 18 2e f0 3d
       0.022608254 0.017715426 0.040657997 0.11727542
000100 07 62 b6 3d 6f 30 03 3d 83 50 0a 3e 4d 07 25 3e
       0.08905416 0.03202861 0.13507275 0.16116066
000110 38 98 b6 bd 50 95 4b 3d a2 93 95 3d 97 96 83 3c
       -0.08915752 0.049702942 0.07303549 0.016063018
000120 9b 6c 29 3e 76 9c 54 3e 8b 1d 94 be ff 9a 64 3e
       0.16545336 0.2076281 -0.2892879 0.22324751
000130 c4 18 0d 3e 1e 2a 26 3d 88 42 63 3e 5b 46 6c bc
       0.13778979 0.04056751 0.22193348 -0.014421071
000140 e6 e7 7f be 3c ad 70 3e c0 5a 67 bd 46 7c 04 be
       -0.24990806 0.23503584 -0.05648303 -0.12938032
000150 9a 74 07 3e d8 48 af 3d 53 a8 b5 bd b4 64 05 3e
       0.13228074 0.08558816 -0.08869996 0.13026696
000160 cf 5f d3 3c 6d 14 9f bd 18 93 86 bd df d7 e8 bd
       0.025802521 -0.07767568 -0.06571025 -0.11369299
000170 f1 69 f0 3d 92 3d cc bd 5c 72 40 bd 3b 27 89 3d
       0.11738957 -0.09972681 -0.04698406 0.06696936
000180 f6 44 08 3d a6 54 a2 bd fa f2 54 3e 0d 2d 46 be
       0.03326889 -0.07926302 0.20795813 -0.19353123
000190 8a b1 5a 3e 08 1e 8f bd ca c7 56 be fa 00 f8 bc
       0.21356788 -0.0698815 -0.20974651 -0.030273903
0001a0 51 a8 30 3e 91 5b 29 bd 4d 8b 9f 3e 34 41 d6 bd
       0.17251708 -0.04134709 0.31160966 -0.10461655
0001b0 92 50 a0 3d b5 76 90 bd 51 7e 4c 3d 90 e2 c5 bd
       0.078278676 -0.070538916 0.049925152 -0.09662354
0001c0 77 08 3b be b5 aa 8a 3d 1b 1e 00 be e6 65 0c be
       -0.18264948 0.06770841 -0.12511484 -0.13710746
0001d0 ea 59 08 3e 02 08 d2 bd f6 64 61 3d 49 a4 a6 3d
       0.1331555 -0.102554336 0.055027924 0.08136804
0001e0 66 c8 49 3c a2 ef f3 3d 00 ba 0f be ef ba d9 bd
       0.012315845 0.11910941 -0.14035797 -0.10631358
0001f0 b5 aa b4 be d7 bd fa bd 16 d3 fd bc 10 8a 5a 3d
       -0.3528649 -0.1224324 -0.030984443 0.053354323
000200 44 48 95 3d bd 2f 12 3d 24 5d 2d be 4a 26 bd 3d
       0.07289174 0.035690058 -0.16930062 0.09235819
000210 de 9e 46 be 1c 51 0c 3e 35 2c 1c 3e 61 fb 58 be
       -0.1939654 0.13702816 0.15251239 -0.21189643
000220 de 1f 86 be 0c d4 2f 3d 79 8c a2 be 79 e1 04 be
       -0.26196188 0.042926833 -0.31747797 -0.12976636
000230 c0 cf 0f bd 02 a4 a6 bd df a2 1b 3e da 1e b0 3d
       -0.035110235 -0.08136751 0.15198849 0.085996345
000240 f8 a7 a5 bc bb f0 5c 3e e2 92 5d 3e 44 15 86 3e
       -0.020221695 0.21576206 0.21638063 0.261881
000250 f9 65 16 3e 4d df 5a 3e 94 b7 e9 3d 6c 31 77 bd
       0.14687337 0.21374245 0.11411968 -0.060349867
000260 37 0c 8e 3d 21 b0 0e bd 30 63 b8 3d 76 45 39 3d
       0.069359235 -0.03483594 0.090032935 0.04523226
000270 61 0e 62 bd e1 08 fe 3d 36 27 1c 3e 17 15 ae bb
       -0.055189494 0.12404037 0.15249333 -0.0053125727
000280 60 37 25 be a2 96 0b 3d 37 92 92 3c e1 c8 3f be
       -0.16134405 0.0340792 0.017891986 -0.18728973
000290 95 67 34 bd c1 29 1f 3e 1a 83 1b bd 63 f7 21 be
       -0.044044096 0.15543272 -0.037966825 -0.15817027
0002a0 fc ed 23 bc d6 9c 20 be d6 2c 29 be 56 78 fd bd
       -0.01000547 -0.15684828 -0.1652101 -0.12376468
0002b0 13 56 b0 be bd b9 93 bd 59 d3 04 be 91 d6 94 be
       -0.3444067 -0.07213161 -0.12971248 -0.2906995
0002c0 43 cf de bd 2a cf 98 be a9 97 3a be bc 49 21 bc
       -0.10879376 -0.29845554 -0.18221916 -0.00984424
0002d0 43 08 5d 3d 71 cd d8 bd 26 d4 8e bd 48 c9 c8 bc
       0.053962957 -0.1058606 -0.06974058 -0.02451004
0002e0 de 5e 35 be ad 84 32 bd e6 ed a2 3c 97 4e 2d be
       -0.1771197 -0.04358356 0.01988883 -0.16924511
0002f0 e3 d2 7a 3d 2b 6e aa 3d 68 af 81 bd 7f 89 f7 bd
       0.061236273 0.08321794 -0.06332284 -0.12086772
000300 f0 8e 84 3e 40 75 07 3e 21 50 2a bd 09 97 84 3e
       0.25890303 0.13228321 -0.041580323 0.2589648
000310 4f 16 da bd 99 03 8c bd ba 2b 46 bd 03 9f cf 3c
       -0.10648786 -0.06836624 -0.048381545 0.025344377
000320 74 75 d2 bd 81 31 72 3d d0 a8 89 3d 31 60 80 3e
       -0.10276309 0.05912924 0.067216516 0.25073388
000330 7d d9 1c be 52 e3 8d be de fb f9 3c 7e 28 cc bd
       -0.1531734 -0.27712494 0.030515607 -0.09968661
000340 74 6f 88 3d 19 11 43 be a3 f9 65 bb 4e 00 96 3d
       0.06661883 -0.19049491 -0.0035091422 0.07324277
000350 28 7d 20 be 97 72 5c 3d 79 8a 09 3e 73 4a 43 bd
       -0.15672743 0.05382022 0.1343173 -0.047678422
000360 d6 4b 7a 3e 1d 94 65 be ba ff a0 be e3 34 43 3e
       0.24442992 -0.22419782 -0.31445104 0.19063143
000370 90 a1 74 bd ec 74 97 bd 98 44 c6 3d c5 51 39 3d
       -0.05972439 -0.07395348 0.09681052 0.045243997
000380 a7 74 09 bd 8f 3d 04 be 9d 31 3f 3d fb e1 57 be
       -0.033558514 -0.12914108 0.046678174 -0.21082298
000390 64 f1 21 3e 85 b8 6c bc a5 68 59 be 85 03 a6 3c
       0.1581474 -0.01444829 -0.21231325 0.02026535
0003a0 6f 3a 71 bd 18 40 00 3c d5 f6 ae 3d 73 d1 66 bc
       -0.058893617 0.007827781 0.08543173 -0.0140880225
0003b0 6b c1 18 3d db 0c 1d be 05 0b 70 3d 7d da a3 bc
       0.037293833 -0.15336935 0.05860426 -0.020001644
0003c0 e7 00 d7 3c 5c d1 80 bd 1d e7 07 be d2 14 8c bd
       0.026245547 -0.06289932 -0.13271756 -0.06839909
0003d0 78 8b c3 3e 21 a0 93 3c f4 69 9e bd ff ff 76 3e
       0.38192344 0.018020691 -0.07735053 0.24121092
0003e0 18 05 b5 bb a4 ba f7 bd a4 a5 2d 3d e1 22 48 be
       -0.005524289 -0.12096146 0.042394295 -0.19544555
0003f0 83 f8 1e 3d 16 53 fd 3d 8d 35 a2 bd 0f b0 fd 3d
       0.038811218 0.12369363 -0.0792037 0.12387096

conv2.bias f4 [32]
000000 73 84 84 3c 01 d3 00 3d b9 e3 20 3c a0 24 8b bb
       0.016176438 0.03145123 0.009819918 -0.0042463094
000010 6b 54 38 3c eb f5 fa 3c 61 e7 d6 3c a7 bc 67 3c
       0.011250596 0.030634841 0.026233377 0.014144099
000020 32 10 ed bc 4b 71 3d bc b1 87 96 bc 39 7c a6 3c
       -0.028938387 -0.011562656 -0.01837525 0.020322906
000030 f0 f2 bb bb 2d 86 98 3c 39 d9 c3 3c 92 9d ca 3c
       -0.0057357475 0.018618667 0.02390729 0.024733339
000040 e6 9b 66 bc 7d ee 69 3c fa 3e 11 3c 33 8a 14 3d
       -0.014075255 0.014278051 0.008865112 0.03626461
000050 4e 90 88 38 10 b4 76 bd 44 18 02 3c 84 d4 cb bc
       6.511864e-05 -0.060230315 0.007940356 -0.024881609
000060 a2 34 83 3c 64 2a 0d 3b 5f c2 f1 3c 80 25 02 3d
       0.016016308 0.002154016 0.029511629 0.031774044
000070 1c 21 bc 3c 96 ec b4 3c f1 84 49 bc de ff ab bc
       0.022965007 0.02208547 -0.012299762 -0.02099603

conv3_mu.weight f4 [64, 32, 4, 4]
000000 49 c3 01 bb 63 f7 e1 3d 64 fc 4c 3d 99 66 76 3d
       -0.0019800237 0.110335134 0.050045386 0.06015644
000010 0d 6c ed 3d ad dd df bd 6e 30 e6 bb 01 68 43 bd
       0.11592875 -0.10930953 -0.0070248162 -0.047706608
000020 a9 da 26 3e 28 78 38 be 9d cf a6 bd fd 9a 09 be
       0.1629435 -0.18014586 -0.08145068 -0.1343803
000030 25 59 bf bd b0 fb da bd a3 4e 24 be 96 ee dd bc
       -0.09343175 -0.10692537 -0.16045623 -0.027091306
000040 8d 0a 89 3c c2 30 94 bd 15 f1 ba bd 00 e0 16 be
       0.016728664 -0.07235862 -0.09128014 -0.14733887
000050 45 74 f3 bd 3f a2 bc bc c3 bc 88 bd de ce 9e bd
       -0.11887411 -0.023026584 -0.066766284 -0.077543005
000060 47 1a 1c bd c8 03 25 3d 47 e6 91 be 67 29 90 bd
       -0.038110998 0.04028681 -0.28496 -0.07039147
000070 28 74 c6 bb 63 78 cd bc d1 6c 59 bd 1f 1f fa bd
       -0.0060563274 -0.025081819 -0.05308229 -0.12212967
000080 00 17 67 3c 60 27 a6 bd 9c be 6b bd ac f0 2b be
       0.014104605 -0.08112979 -0.057554826 -0.16791028
000090 e0 6b 0f be 08 4d 76 bd e1 da 57 3d ac 5a a1 bd
       -0.14005995 -0.060132056 0.052698974 -0.078786224
0000a0 a2 76 a7 bd 0c ff 10 3e 2f 3a fa bc 90 13 01 bd
       -0.08176924 0.14159793 -0.030545322 -0.031512797
0000b0 ac 46 3b be 74 a4 bc bd e0 39 08 3e 2b 9a 9b 3d
       -0.18288678 -0.092110544 0.13303328 0.075977646
0000c0 a2 86 f2 bd a0 19 61 bd a9 74 ae bc 15 c4 a1 bd
       -0.118420854 -0.05495608 -0.021295862 -0.07898728
0000d0 c1 aa 59 3c ef 4b 1a 3d bc 92 2c 3d 8a 3d a8 bd
       0.01328534 0.037670072 0.042132124 -0.08214863
0000e0 c9 e8 31 3d d5 6d 01 bd 20 75 d7 3d 08 8d 44 3c
       0.04343489 -0.031598885 0.10520387 0.011996515
0000f0 93 f9 e1 bd 9d 45 10 bd 83 b8 c9 bb 40 af eb 3c
       -0.11033931 -0.03522264 -0.0061560287 0.02877009
000100 d9 73 36 bd c0 6d ef bc d5 4a a4 bc 18 76 66 bb
       -0.044544075 -0.029227138 -0.020055214 -0.0035165604
000110 d5 84 1b 3d f5 d5 fe bd e0 f5 59 bb 47 b0 91 bd
       0.037968475 -0.12443153 -0.0033258125 -0.071137
000120 68 ca 05 3d 57 0c 2c bd 56 27 4f 3d c1 6e 86 bd
       0.032663733 -0.042003956 0.050574623 -0.065640934
000130 00 5b be 3b 56 86 30 be cb 20 af bd 84 04 a9 3d
       0.005809188 -0.17238745 -0.08551177 0.082528144
000140 fe 69 06 be 5f eb 93 bc ca e8 68 bb 0d 80 fb 3d
       -0.1312637 -0.01805657 -0.0035539144 0.12280283
000150 30 f3 b5 bd aa af 1a bd 2e 33 81 bc 28 0b 2a be
       -0.08884275 -0.037765183 -0.015771475 -0.16605818
000160 44 22 9d 3b e5 44 69 3d ba c8 84 3d fc ee 08 3d
       0.0047953445 0.05695047 0.06483598 0.03343104
000170 e6 a9 89 3d 71 eb 05 3d 69 21 4a bd e6 5a 12 3d
       0.06721859 0.032695238 -0.04934827 0.03573122
000180 f0 2f f1 bc eb 58 35 39 eb d9 2a bc 96 a0 37 bc
       -0.029441804 0.0001729463 -0.010427932 -0.01120772
000190 98 e0 02 be 1c 11 76 bd 95 f1 71 bd 4d 29 a3 bd
       -0.12780988 -0.06007491 -0.05906828 -0.07966862
0001a0 b6 dd b6 3c 71 79 d1 bd ca 7c 6a 3d 77 11 9c 3c
       0.022322517 -0.10228241 0.057247914 0.019051297
0001b0 68 64 6c 3d f7 b0 ef 3c ba a7 dc bc 29 e8 98 3c
       0.057712942 0.029259188 -0.026935447 0.01866539
0001c0 b4 6f a5 3c c0 c2 c3 3b 4d 68 17 bd 79 b9 cd bd
       0.020194866 0.0059741437 -0.036964703 -0.10045142
0001d0 ce c7 17 bd 56 95 02 bd bb d5 04 3e 3b 03 94 3b
       -0.037055783 -0.0318807 0.12972157 0.0045169867
0001e0 35 30 8c 3d 2d 14 8f 3c 64 00 0f 3e db af b7 3d
       0.06845132 0.017465675 0.13964993 0.08969089
0001f0 01 6c 6d bd 35 0c 25 bd c2 44 74 3d 89 28 77 3d
       -0.05796433 -0.040294845 0.059635885 0.06034139
000200 1a 33 a1 bd 04 8f 60 bb b4 9b 78 bd 03 8d 81 bd
       -0.07871075 -0.0034264931 -0.060695365 -0.06325724
000210 0a 50 b8 bc 08 01 85 bd 02 15 31 bd 84 81 a8 3c
       -0.022499103 -0.06494337 -0.043232925 0.02056957
000220 bc a0 d0 bd 34 87 a0 bd 0a 75 b2 bd 72 ae 2d bd
       -0.10186908 -0.07838288 -0.0871373 -0.042402692
000230 2a 57 89 bd c7 0b 3e bd 16 d5 78 3c c9 73 08 be
       -0.06706078 -0.04639795 0.015187522 -0.13325419
000240 05 13 bd bd cd 7c 94 3d 9c 87 0f bb 60 7b a3 bd
       -0.09232143 0.07250366 -0.0021900898 -0.07982516
000250 a9 a7 02 be 07 a7 79 3c 0e ae 84 3a 9d 06 b5 bc
       -0.1275927 0.015237576 0.0010122673 -0.02209788
000260 22 fe f6 bd bf 2c 27 bd 50 13 d0 3c a5 55 c1 3c
       -0.12060191 -0.040814158 0.025399834 0.023600409
000270 33 52 ee bd e2 52 f9 bd 22 d6 b7 3c 24 3b 08 3d
       -0.11636772 -0.12174012 0.022440974 0.033259526
000280 12 df 2d bd 2d f6 9c bd b8 bf 2e bd 38 7c ac bb
       -0.042449065 -0.07664142 -0.042663306 -0.0052638315
000290 35 76 c2 bd 95 b4 e8 bb 81 3e f4 ba 64 95 fb ba
       -0.094952025 -0.007101605 -0.001863435 -0.0019194302
0002a0 90 3d a0 bc ca ce 83 bd e4 f4 c4 3d 09 72 bc 3c
       -0.019560605 -0.06435926 0.09617022 0.023003595
0002b0 74 7c ab bd 00 1d 8d bd 28 50 b0 3d 5f 06 04 bd
       -0.08373347 -0.06890297 0.086090386 -0.03223264
0002c0 b1 80 e8 bd af a3 59 3d be da e8 3d c1 52 0f 3d
       -0.11352671 0.053134616 0.11369847 0.03499103
0002d0 17 d0 0a 3e 9d 5d d3 3c 9b e7 99 3c 54 73 e1 bd
       0.13555942 0.025801474 0.018787196 -0.11008325
0002e0 e8 9c 5e 3d ae ad 5e 3d 84 4f d9 3c 04 81 94 bd
       0.054348856 0.054364853 0.026527174 -0.0725117
0002f0 67 64 09 ba b3 a3 09 bd eb 70 db bd 25 f7 ab 3c
       -0.00052410964 -0.03360338 -0.10714897 0.020991871
000300 1c 13 51 bd 74 07 9b 3c cc 88 ac bc ec 1b 9f bd
       -0.051043615 0.018924452 -0.021061324 -0.077689976
000310 fd 7e db bd ea 34 e8 3d d9 46 fc bc d4 5f 57 bc
       -0.107175805 0.113382176 -0.030795502 -0.013145406
000320 13 04 8a 3d 09 bd 49 3d d4 37 aa 3d a3 9b e0 bd
       0.06739058 0.049252544 0.083114296 -0.10967185
000330 f5 d8 08 bd 8d 2a e7 3d 92 00 b5 bc af 7e 32 3d
       -0.03341003 0.11287413 -0.022094999 0.043577846
000340 df 0f aa bd 20 36 a7 bd 4a 7a b8 bc d2 1a ec bd
       -0.083038084 -0.081646204 -0.02251925 -0.11528553
000350 b9 4f ec bc 41 29 aa bd 27 38 83 bc 73 b9 01 ba
       -0.028846608 -0.0830865 -0.016017986 -0.00049485936
000360 31 ae 9c 3d 57 c1 3a 3c de 38 0c 3e 68 cd 9a 3d
       0.07650412 0.011398635 0.13693568 0.075587094
000370 24 66 4e 3d 72 78 2a bd 5c 8f 68 bd c8 3d 35 bd
       0.050390378 -0.04161877 -0.056777343 -0.044248372
000380 c1 3b 1c 3d 57 67 cd 3d c8 d3 b3 bd 35 2d 78 bd
       0.038142923 0.10029476 -0.087806284 -0.060589988
000390 89 9d 37 3c 7c b7 82 3b 4f 83 a5 3d 11 a9 78 bc
       0.011206993 0.003989158 0.08081686 -0.015177027
0003a0 51 89 12 ba 7a c8 a7 bc c5 df 01 bd e5 34 87 3c
       -0.000558992 -0.020481337 -0.031707544 0.016504714
0003b0 5f e6 71 3c d2 9f e4 bd 8e 3e 14 bd 2f 50 cf 3d
       0.014764397 -0.11163296 -0.03619247 0.10122716
0003c0 6e c4 be bd 2c 6b 6d be ee 61 8e bd 2b 46 d0 bd
       -0.0931481 -0.23185414 -0.06952272 -0.101696335
0003d0 fc 32 83 bd b5 4f 60 3c 7b 14 ba bb 83 b3 1b bd
       -0.06406209 0.013690879 -0.005678711 -0.038012993
0003e0 32 76 cd bc ea 78 b5 3d 69 43 fa 3d e5 25 77 bd
       -0.025080774 0.08860953 0.12219889 -0.060338873
0003f0 0f 2d 9c bc 62 bd ac bc 7c 73 d2 3d d6 04 c3 bc
       -0.019064454 -0.021086399 0.10275933 -0.023806017

conv3_mu.bias f4 [64]
000000 7c 8b 88 bd 27 12 07 3a d4 97 34 3c 2f c3 e5 bc
       -0.066672295 0.0005152546 0.011022527 -0.028047172
000010 e7 68 8b 3b 4c 87 e0 ba e0 8b a5 bb 9e 61 68 bc
       0.0042544487 -0.0017130165 -0.005052075 -0.01418343
000020 d0 91 8a bd ea d6 83 bd ea 42 99 bb 51 89 dc 3c
       -0.06766093 -0.06437476 -0.004677166 0.026920946
000030 21 ac 52 b9 61 a1 af bc a8 6f c3 bd 4a 6a 04 3c
       -0.00020091284 -0.021439256 -0.09542781 0.008081982
000040 3a d2 7c ba 81 83 ec bc 48 50 fe 3c 5b 74 03 3c
       -0.00096443633 -0.0288713 0.03104414 0.008023347
000050 08 59 45 3c b6 c4 94 bc ab 62 a4 bb 2b c8 fa bd
       0.0120451525 -0.018160205 -0.005016645 -0.1224521
000060 ce 7e 7d bc 62 dc 00 3c 5e 4a a2 bb ba 01 6b bb
       -0.015472127 0.007865043 -0.004952713 -0.0035859183
000070 54 68 98 bb af 9e c6 3c f8 b6 c0 bd ca 88 c0 3c
       -0.0046511088 0.024245588 -0.094098985 0.023502726
000080 71 d0 71 3c 42 97 be 3b 23 18 eb ba 6f d6 88 3b
       0.014759169 0.005816371 -0.001793627 0.004175953
000090 e1 8f e4 bc 91 9f 1f 3c 65 54 9e 3b 9e af a0 bb
       -0.027900638 0.009742633 0.004831838 -0.0049037477
0000a0 5e 79 09 3c d5 c3 9f 3b 6a 4a de 3c 03 04 4b 3c
       0.008390753 0.00487564 0.027135093 0.012391093
0000b0 d1 80 89 bd b2 bb a4 3a a7 3f 95 bd ee 25 f6 bb
       -0.06714023 0.0012568145 -0.07287531 -0.007511846
0000c0 0a 73 fe bb ad 5f c5 3b 8b 1e 53 bc f6 d1 b6 bd
       -0.0077651786 0.0060233683 -0.0128857 -0.089267656
0000d0 73 72 ea bc 87 8f de 3b be 15 0d 3d eb da 1e 3b
       -0.028619027 0.006792012 0.034444563 0.0024239372
0000e0 fe 48 d7 bd 5c 2c e5 bc 18 72 13 bc 5d e5 4c bc
       -0.10511969 -0.027975254 -0.00899937 -0.012505856
0000f0 d2 4b 06 3b 20 ac 60 bc 80 22 6c bc 9f a2 0f 3c
       0.002049197 -0.013712913 -0.014412522 0.008766799

conv3_var.weight f4 [64, 32, 4, 4]
000000 fe 66 97 3d 97 63 0a bc dd a5 ef 3c 20 00 52 3d
       0.07392691 -0.008446596 0.029253894 0.05126965
000010 a7 08 27 3d 80 e3 65 bd 2f be 72 bd 1a 6d a0 bd
       0.040779736 -0.056125164 -0.059263404 -0.078333095
000020 98 2e 76 bc 40 b8 8a bd f6 2e 9e 3c 6c f6 ac bd
       -0.015025757 -0.06773424 0.019309502 -0.08445439
000030 5d 45 cc ba c2 66 5c bc b4 6a ee 3d 12 58 d1 bc
       -0.0015584637 -0.013452234 0.11641446 -0.02555469
000040 8f dd 65 bd cc ce 63 3d a0 0a 30 3d 10 86 95 bc
       -0.056119498 0.05561714 0.042978883 -0.018252403
000050 7d 18 d3 3c 35 1b 29 be fd 58 9a bc 4c 99 98 bc
       0.025768513 -0.16514285 -0.018841261 -0.018627785
000060 81 db 22 3d 64 12 2e 3d c2 48 4c 3c 71 5b c7 bb
       0.039760116 0.042498007 0.012468519 -0.0060838987
000070 69 ee c7 bc 15 a6 8a bd 91 72 e5 bc 92 5f 4a bc
       -0.024405675 -0.06769959 -0.028008731 -0.012351887
000080 72 6a 51 be 6b 6d 0f 3d 6c 32 20 be c0 4d 73 be
       -0.20450762 0.03501646 -0.15644234 -0.23760128
000090 7a 7a 3c be 3d 1f 9a bc 16 b7 8b bc f3 33 b6 bd
       -0.18406096 -0.018813724 -0.017055076 -0.08896627
0000a0 c7 4e 8a bd 31 d1 8a 3d 4e 70 83 bc 34 60 29 be
       -0.06753307 0.06778181 -0.016044762 -0.16540605
0000b0 9f 61 8e bd e0 94 c1 3c d2 c0 ba 3b bf 8d c2 bd
       -0.069522135 0.02363056 0.0056992555 -0.09499692
0000c0 2b 3b 9e bd e5 57 53 bb 56 6a 8a 3d f5 a5 5b 3b
       -0.07726129 -0.0032248434 0.06758563 0.0033515666
0000d0 22 a5 bf 3c c3 b3 f0 bc 66 16 87 bd 3a d6 c5 3d
       0.023394171 -0.029382592 -0.06596069 0.09660001
0000e0 4c ef 37 3d 72 42 2d 3c d3 a4 f1 bc 42 a3 56 3d
       0.044905946 0.010574924 -0.02949754 0.05240179
0000f0 77 cb ba bc 50 98 c5 bd 01 54 94 3d c8 09 5f 3d
       -0.022802098 -0.09648192 0.07242585 0.054452688
000100 b6 e7 32 3d 04 36 29 be 8a 5c 99 3c 7e 94 3c 3b
       0.043678008 -0.16524512 0.018720884 0.0028775032
000110 8f 6b f5 bb 57 9d 61 bd d7 72 0f be ff b8 0c 3d
       -0.0074896286 -0.05508169 -0.14008652 0.034356114
000120 b0 d7 34 bd 7a 86 d5 3c 23 11 25 bb 37 56 c3 3b
       -0.044151008 0.0260651 -0.0025187216 0.0059612053
000130 ed 28 59 bd c9 2b c5 bd d9 34 61 be 47 25 b9 3b
       -0.053017545 -0.09627492 -0.21992816 0.0056501958
000140 aa 05 00 bb 89 d7 3b be e3 a3 26 3e a5 dc c5 3d
       -0.0019534626 -0.18343939 0.16273455 0.09661225
000150 22 bc 5a be 63 18 fd 3c 00 7f cc bd 61 ec 7f 3d
       -0.2136083 0.030895418 -0.09985161 0.062481288
000160 b2 06 a5 3d ae 84 de bc 56 eb e6 bc e4 91 bf bd
       0.08057918 -0.027162876 -0.028188389 -0.09353998
000170 a3 8c a3 3d 34 32 c5 bd ae ec 23 bd 6f 5e 78 bd
       0.07985809 -0.09628716 -0.040020637 -0.060636934
000180 8b 00 30 be c1 b3 8b 3d 85 4d 18 be 0e 63 44 bb
       -0.17187707 0.06821395 -0.14873321 -0.0029966268
000190 cc e1 a2 bc 7f 50 8d 3b b5 fb 53 be a9 d4 0c be
       -0.019883059 0.0043125744 -0.20701487 -0.13752998
0001a0 3c fa 03 bd cc dd 55 bd 05 64 ca 3b cd ff 68 be
       -0.032221064 -0.052213475 0.006176474 -0.2275383
0001b0 01 a7 30 bd 25 1b 47 bd c9 c9 27 3d 12 7a b8 bd
       -0.043128017 -0.04860987 0.04096392 -0.09007658
0001c0 bc a1 c3 bc 63 b5 f6 bd 41 a7 ab bc 3d 73 6c bd
       -0.023880832 -0.120463155 -0.020953776 -0.057727087
0001d0 26 25 22 bd 4c ab 39 bc 53 4a 71 bd a3 69 77 bc
       -0.03958621 -0.011332344 -0.05890877 -0.015100869
0001e0 57 46 be 3c 65 a6 93 3c a3 c4 42 3d e6 dc bb bd
       0.0232269 0.018023679 0.04755081 -0.091729924
0001f0 4a b0 bf bd d7 16 3a 3c 0a 87 88 bd df 07 73 bd
       -0.09359796 0.0113579845 -0.06666382 -0.05933368
000200 a9 38 2b bb 8d 97 81 3d 1a 4e 2f bd c4 4d 8c bd
       -0.0026126301 0.06327734 -0.042799093 -0.0685077
000210 11 f8 12 3d 79 39 a3 bc bd 08 77 bc 62 d9 fb bc
       0.035881106 -0.019924866 -0.015077767 -0.030743305
000220 77 b0 09 bd 7a 27 36 bd f4 3d 00 bd 98 cb 35 3c
       -0.033615556 -0.04447124 -0.031309083 0.011095904
000230 e7 41 b0 bd 0a 89 a0 bd e2 8a 2c be 14 0c 0a bd
       -0.0860632 -0.07838638 -0.16849855 -0.033702925
000240 14 c3 a7 bc 0b 58 27 bd 74 10 7d bc eb ea 83 bd
       -0.020478763 -0.04085545 -0.015445817 -0.064412914
000250 ac 73 47 bd 49 1d 2c bc 71 ef be bc d8 dd f8 bd
       -0.048694298 -0.010505029 -0.023307534 -0.12151688
000260 a2 80 c4 bc 9d ec bc bd 92 5a 3d 3d 3d c0 e9 3c
       -0.023987118 -0.09224818 0.046228953 0.02853405
000270 5c f6 c6 bb ea 71 7c 3d ef 0c a9 bb c9 ef 9c 3d
       -0.006071849 0.061632074 -0.0051590125 0.07662923
000280 7e 19 23 3d 87 88 a6 bd f7 2c 6b 3d fb d7 3a 3d
       0.039819233 -0.08131509 0.05741593 0.04561613
000290 04 f2 57 be 2e 92 15 bd e7 b7 3e 3d ec 2c b7 3d
       -0.21088415 -0.03651636 0.0465621 0.08944115
0002a0 3b 65 ad bd ab c5 74 bd 54 91 c4 3c 45 e9 14 3d
       -0.08466574 -0.059758823 0.02399508 0.036355276
0002b0 f0 4e 2e be 9f d9 a9 bd 62 06 e7 3b d8 08 1a bc
       -0.170223 -0.08293461 0.0070503214 -0.009401523
0002c0 cd 05 12 be d4 cd ad bd aa d9 11 be 47 ac aa bd
       -0.14260025 -0.08486524 -0.14243189 -0.083336405
0002d0 f1 3c a6 3c e4 a3 84 bd 5e a0 b1 bb df 1f e6 bc
       0.020292731 -0.06476572 -0.0054207286 -0.02809137
0002e0 75 37 2d 3d 44 9b 92 3c 6b 81 5c bd 36 ce 28 3d
       0.042289216 0.017896302 -0.05383436 0.041212283
0002f0 3f c1 e1 bd 7e 06 be bd 72 e7 c3 3c e8 62 57 be
       -0.11023187 -0.09278582 0.023914073 -0.21033823
000300 44 d7 0d 3d ba 56 c6 bd ec b3 c8 bb 5d 60 71 be
       0.03462912 -0.096845105 -0.006124964 -0.23571916
000310 c9 53 6a bd 87 1a 06 bd 9d f8 81 bd 51 ab e1 bd
       -0.05720881 -0.032740142 -0.06346247 -0.11019004
000320 52 4d 2a bd 0b 74 1b be f7 ec c0 3d d6 c1 14 be
       -0.041577645 -0.15180986 0.094201975 -0.14527068
000330 4a ab 25 bd 67 b2 c2 bd 97 71 5d bd fd 00 31 be
       -0.040446557 -0.09506684 -0.054063406 -0.17285533
000340 8c b4 bc bb 58 8a 68 bc 6e 2f 56 bc 58 2e 83 3d
       -0.0057588276 -0.01419314 -0.013072832 0.06405324
000350 f8 45 f1 bc 7b fc 6e 3a cd 7c ce bc 8d 8e 40 bd
       -0.029452309 0.0009116602 -0.025205994 -0.047010947
000360 5c 50 c3 bd a1 e4 31 bc 54 2a 3c bd 19 0d 90 bd
       -0.09536812 -0.010857732 -0.045938805 -0.07033748
000370 87 78 c1 bd 11 fc ba bd 96 f5 56 3d f8 d5 4b bb
       -0.09446817 -0.09130109 0.052480303 -0.0031102877
000380 3a 8e 92 bb ae ad a8 3d 4d 8e 1a bc e4 82 cc bc
       -0.004472521 0.08236252 -0.009433341 -0.024964757
000390 55 07 e1 3d 5e 89 b4 3d d3 e1 c1 3d de 2c c6 3c
       0.109877266 0.08815263 0.09466901 0.024191316
0003a0 2c de e0 3d 3a da a6 bc ad a3 68 3d f3 69 e2 bc
       0.10979876 -0.02036773 0.05679672 -0.027638411
0003b0 00 e2 1b bd 8d 63 e3 bc 50 4a 03 3d 9f c5 a3 bd
       -0.038057327 -0.02775743 0.03205329 -0.079966776
0003c0 0c 9a c2 bd e5 7c 0e be 74 8a fb bd ae 3f 50 bc
       -0.09502038 -0.13914831 -0.12282267 -0.012710495
0003d0 f9 69 15 bd a6 ad b5 bc c5 bc 19 be f4 eb 16 ba
       -0.036478017 -0.022177529 -0.15013416 -0.00057572057
0003e0 6a 24 df bd a8 58 f1 bb d8 2b cd 3d 2a 84 05 be
       -0.10895617 -0.007365305 0.10018128 -0.13038698
0003f0 34 55 21 bb 02 52 d9 3c 7a f7 a0 bd aa f0 0f bd
       -0.0024617435 0.026528362 -0.078597024 -0.035141625

conv3_var.bias f4 [64]
000000 26 61 2a bd f4 89 68 bd 23 13 5a bd d3 35 b2 bc
       -0.041596554 -0.056772187 -0.053240906 -0.021754181
000010 de d4 19 bd fa 97 55 bd 7c 00 1a bd 39 13 89 bd
       -0.03755652 -0.05214689 -0.03759812 -0.066931196
000020 bb 14 5c bd eb 3d 56 bd 8f e2 5e bd 42 a6 7b bd
       -0.053730708 -0.052305143 -0.05441528 -0.061437853
000030 3c 45 9d bd 10 4a 35 bd 78 05 52 bd 46 3a 5f bd
       -0.07679221 -0.044260085 -0.051274747 -0.054498933
000040 93 ea 82 bd 70 d2 6e bd b1 2a 22 bd e5 f6 30 bd
       -0.06392398 -0.058306158 -0.039591495 -0.043204207
000050 c8 c9 3d bd ae ae 62 bd 00 52 c8 bd 82 1f 4f bd
       -0.04633501 -0.05534237 -0.09781265 -0.050567158
000060 bb f5 21 bd 92 ed 56 bd 58 ad 6f bd 13 17 13 bd
       -0.039540987 -0.05247266 -0.058514923 -0.035910677
000070 e1 31 27 bd f2 77 87 bd 62 f1 5c bd 18 40 6a bd
       -0.040819053 -0.06614675 -0.053941138 -0.05719003
000080 ed 1c 38 bd 81 f8 83 bd 8d 41 8a bd ba 0a 2e bd
       -0.04494946 -0.06443883 -0.06750784 -0.0424907
000090 5e 26 7e bd fd e0 6e bd 42 c8 98 bd 7b 48 40 bd
       -0.06204831 -0.058320034 -0.07460071 -0.046944123
0000a0 ac 8f 83 bd 65 4e 87 bd fd e6 3a bd da 6d 60 bd
       -0.064238876 -0.066067494 -0.045630444 -0.054792263
0000b0 c9 2a 5d bd 64 d8 94 bd 78 bd 53 bd b8 81 48 bd
       -0.05399588 -0.07267836 -0.051694363 -0.048951834
0000c0 53 cc 64 bd b4 9e 82 bd e9 38 33 bd f4 fb 41 bd
       -0.05585892 -0.063779265 -0.043755446 -0.04735942
0000d0 91 1e 7b bd 79 6d 68 bd 04 50 31 bd 25 af 12 bd
       -0.061308447 -0.056745026 -0.0432892 -0.035811562
0000e0 b2 be 73 bd 16 8b 39 bd 5c 2a 76 bd 4a 65 4f bd
       -0.059508033 -0.04529866 -0.06009899 -0.050633706
0000f0 2c 62 99 bd 0c 36 0e bd 27 a9 49 bd 47 52 48 bd
       -0.07489428 -0.034719512 -0.049233582 -0.04890659

bn1.weight f4 [16]
000000 fa bd 78 3f e6 36 5d 3f 41 bd 7b 3f 4e a7 77 3f
       0.9716488 0.86411893 0.98335654 0.9673966
000010 60 cb 62 3f da f7 6d 3f 0b 2e 7f 3f 63 04 5c 3f
       0.88591576 0.92956316 0.9967963 0.85944194
000020 02 8d 6e 3f 1c 99 6a 3f 18 1d 73 3f bd f9 88 3f
       0.9318391 0.91639876 0.9496627 1.0701214
000030 a4 4b 67 3f de eb 80 3f fe 56 77 3f 04 06 89 3f
       0.90349793 1.0071981 0.96617115 1.0704961

bn1.bias f4 [16]
000000 f2 0a f4 3d ca 97 28 3d b7 5b a3 3d ac b0 a8 bb
       0.1191615 0.041160382 0.079764776 -0.005148014
000010 65 6b 30 3e ac 7d 0d 3e 3e 69 a4 3d 5f 20 d9 3d
       0.17228468 0.13817471 0.08027886 0.106018774
000020 4b e4 c3 3d d3 66 0f 3e ce fa c3 3d 5f 21 bf 3d
       0.09565028 0.14004068 0.095693216 0.09332537
000030 9b 05 c2 3d 0a b2 c5 3d b6 6b 4e 3d dd 21 6c 3d
       0.094737254 0.09653099 0.05039569 0.057649482

bn1.running_mean f4 [16]
000000 87 5b 46 bd e6 d1 f7 be a5 dd 27 3f 98 cb e6 bd
       -0.04842713 -0.48402327 0.6557258 -0.11269301
000010 1a 3d 32 3f 06 c9 81 3f 8f 1b 19 bf 09 b2 02 3f
       0.69624484 1.0139472 -0.59807676 0.5105291
000020 49 05 1a 3f 1e cc 81 3f d5 e8 d7 be 2e 18 61 bf
       0.60164315 1.0140417 -0.42169824 -0.8792752
000030 d5 ad 72 bf b3 c6 73 3f d2 f0 c2 be 4a e3 2b bf
       -0.94796497 0.95225066 -0.38074356 -0.6714369

bn1.running_var f4 [16]
000000 0d 55 7c 3e 78 24 a0 3e 87 37 0b 3f 88 fa 49 3e
       0.2464182 0.31277823 0.54381603 0.19724476
000010 ad 5b 2f 3f 16 59 b2 3f d6 bd b4 3e 06 99 1c 3f
       0.6849926 1.3933437 0.35301083 0.61170995
000020 ad b8 e9 3e 9e 9b 9a 3f 78 0b 0e 3f 46 18 69 3f
       0.4564871 1.2078741 0.5548625 0.91052663
000030 3b fd 96 3f 99 e6 8e 3f 45 55 c9 3e d8 23 2b 3f
       1.179603 1.1164123 0.39322868 0.6685157

bn2.weight f4 [32]
000000 39 6e 4e 3f 7d 84 55 3f 80 d5 54 3f 9b c3 4f 3f
       0.80636936 0.83405286 0.83138275 0.81157845
000010 f4 44 58 3f 75 cd 5b 3f 6e 87 5a 3f 38 c1 52 3f
       0.84480214 0.8586038 0.853629 0.8232608
000020 af 90 5a 3f fc cc 56 3f c9 69 57 3f e5 28 5c 3f
       0.8537702 0.8390653 0.8414579 0.859999
000030 83 03 59 3f 75 76 52 3f 59 d7 4e 3f 10 0a 63 3f
       0.84770983 0.82212 0.80797344 0.8868723
000040 65 0d 50 3f 3b e2 5c 3f 31 0f 5a 3f 2d 95 53 3f
       0.8127044 0.862827 0.8517943 0.826495
000050 7c d8 5d 3f 98 8d 47 3f 6d 27 4a 3f 80 53 44 3f
       0.86658454 0.7795043 0.7896641 0.7668991
000060 eb ec 4e 3f 11 4a 4f 3f 6b 68 59 3f d0 b0 57 3f
       0.8083026 0.8097239 0.84924954 0.8425417
000070 9d c0 68 3f d5 2c 3f 3f 01 0f 4f 3f 90 d3 4f 3f
       0.90918905 0.74677783 0.8088227 0.81182194

bn2.bias f4 [32]
000000 2b 32 18 be 2b c0 04 be 6f c7 65 be d9 ba 37 be
       -0.14862888 -0.12963931 -0.22439359 -0.1794237
000010 a2 44 1b be 34 b4 5f be e4 db 08 be 54 52 4a be
       -0.151629 -0.21846086 -0.13365132 -0.19757968
000020 59 40 f4 bd 31 80 62 be fe 9f 65 be c5 51 44 be
       -0.11926336 -0.22119214 -0.22424313 -0.19171818
000030 dc eb 7f be 99 7c 40 be 99 39 7f be 5e 0a 46 be
       -0.24992317 -0.1879753 -0.24924316 -0.19339892
000040 8e 6a 07 be 58 e2 46 be 95 b0 75 be 84 0a 3e be
       -0.13224241 -0.19422281 -0.23993142 -0.18558699
000050 c4 e8 0b be ed 41 2f be a8 41 59 be 34 34 81 be
       -0.13663012 -0.17114992 -0.21216452 -0.2523514
000060 a7 a2 4e be 14 fd 3c be 8c bb 45 be e5 54 3b be
       -0.20179234 -0.18455917 -0.19309825 -0.18294103
000070 60 81 8e bd f3 93 78 be 03 e0 3c be b4 39 8b be
       -0.0695827 -0.24275188 -0.18444829 -0.27192461

bn2.running_mean f4 [32]
000000 76 83 ef 3d 4c 42 b1 be 05 11 87 bc 9a 93 07 bf
       0.11694996 -0.34620893 -0.016487608 -0.529596
000010 2a 1b 21 bf ba 85 9e bd 05 37 d5 3d 6b d7 a8 be
       -0.62932074 -0.0774035 0.10410885 -0.3297685
000020 c4 cc 37 bf 05 59 b2 bf 18 47 9d 3e a9 12 a4 3e
       -0.7179682 -1.3933417 0.30718303 0.32045487
000030 a4 ff 28 bf 2b cd 20 bf 6e f3 15 bf eb b0 9c be
       -0.66015077 -0.6281306 -0.5857457 -0.30603728
000040 73 35 86 3e e4 1c d2 be c8 c2 35 3f d0 f1 9f be
       0.26212654 -0.41037667 0.7100034 -0.31239176
000050 69 95 19 3f 2d 04 89 3e 36 1d c8 be 5f 9b 8c 3f
       0.59993607 0.26760998 -0.39084786 1.0984915
000060 de 45 c1 be c6 74 5e bf 7a 5b f0 be 01 97 de 3e
       -0.37748617 -0.8689693 -0.4694479 0.43474582
000070 55 ef 52 bf 14 40 23 3d fe 88 10 3f 71 fd 18 bf
       -0.8239644 0.03985603 0.56459033 -0.5976172

bn2.running_var f4 [32]
000000 66 6f 62 40 53 58 8d 40 2c be e0 3f 0b b0 3e 40
       3.5380492 4.417032 1.7558036 2.9794948
000010 00 c5 09 41 84 ec ad 40 49 92 46 40 1a 7e 39 40
       8.610596 5.4351215 3.1026785 2.8983216
000020 37 33 37 40 56 61 41 40 47 13 93 40 ff 07 23 40
       2.862501 3.021566 4.596103 2.547363
000030 a0 c5 9d 3f 03 9a 51 40 38 41 82 40 d3 13 30 40
       1.2325935 3.2750251 4.0704613 2.75121
000040 e8 cb 81 40 d2 0d 8a 40 e0 61 9f 40 57 d8 19 41
       4.056141 4.314187 4.9806976 9.615317
000050 6d 54 f3 40 8f c7 ec 40 47 9e 36 40 1e 45 35 40
       7.604056 7.39936 2.8534105 2.8323436
000060 cf 87 cd 40 cb 30 a7 40 9f f1 a9 40 b9 61 bd 3f
       6.422828 5.224706 5.310745 1.4795448
000070 35 57 62 40 f4 cb 43 40 fd 07 77 40 03 8b 7e 40
       3.5365727 3.0593233 3.8598626 3.9772346

deconv1.weight f4 [64, 32, 4, 4]
000000 5c 58 a2 3b c6 84 5a 3a 87 71 0a 3b 68 55 15 3b
       0.004954381 0.0008335825 0.0021124796 0.0022786502
000010 17 88 99 bb af f1 13 bb a0 6a e3 3a 75 26 44 bb
       -0.0046854126 -0.0022574475 0.0017350502 -0.0029930149
000020 2a e0 1c ba 23 e9 96 3a 58 22 ef ba f5 19 75 3b
       -0.0005984331 0.0011513572 -0.0018244488 0.0037399505
000030 7d 33 8e b9 78 80 07 bc 65 99 e4 3b 77 2f 1a 3a
       -0.00027122712 -0.008270375 0.006976294 0.00058817066
000040 c5 07 a0 39 50 fa c3 bb 99 5b f4 bb 29 e4 b3 bb
       0.00030523367 -0.0059807673 -0.0074572084 -0.0054898453
000050 44 ae 65 3a f7 c1 e4 bb 1e 4a bc 3b b9 9f 64 3b
       0.00087616243 -0.00698113 0.00574614 0.0034885241
000060 e5 b1 e0 bb 23 0e f6 bb 9f e5 b7 bb 02 24 20 bc
       -0.006857144 -0.0075090094 -0.0056120898 -0.00977421
000070 b2 c0 a4 3b 3c 29 bc 3b 6c 97 fd 3a 49 37 20 bb
       0.005027854 0.00574222 0.0019347495 -0.0024447015
000080 aa 0f 6d 3b b7 48 a0 bb 77 dc a0 3c a5 26 48 bb
       0.0036172667 -0.004891481 0.019636376 -0.0030540612
000090 9c f0 96 3b 90 57 e7 3b a2 32 de ba 9b f0 d9 3a
       0.0046063196 0.007059999 -0.0016952346 0.0016627492
0000a0 79 87 91 bb a8 6f a6 ba 07 df cc 3a 23 20 2b 3a
       -0.0044411984 -0.0012698071 0.0015630432 0.0006527921
0000b0 c1 5d 6a 3b af 79 00 bc 60 49 91 3b 07 d2 c4 3b
       0.0035761448 -0.007841512 0.004433796 0.0060064825
0000c0 0d c7 d2 bb 5e e4 b9 b8 5e e2 54 3b 17 69 fa b9
       -0.00643242 -8.864024e-05 0.0032483558 -0.00047762014
0000d0 e4 d0 76 3b 7f 9c 3b ba ac 1f e2 3b 18 5d cf bb
       0.003766113 -0.00071568036 0.0069007482 -0.0063282363
0000e0 ec 73 98 bb 04 f0 f1 bb 33 41 4f bb 5d b0 11 3c
       -0.004652491 -0.0073833484 -0.0031624555 0.008892146
0000f0 a2 e7 86 bb 79 c1 5b bb 33 88 1f bb 4e d4 67 bb
       -0.0041169683 -0.0033532067 -0.0024342656 -0.0035374346
000100 65 4f ee bb 10 2e 43 3b 62 77 cb 3b c6 a6 10 3b
       -0.007272648 0.0029782094 0.0062093 0.002207206
000110 94 1b 30 bc cd 36 e5 bb 0f c0 b2 bb c5 fa dd bb
       -0.010748763 -0.006995058 -0.005455024 -0.006774279
000120 47 8c 7a 3b f1 8d 1e ba 87 29 4b 3b ab 7f d2 3b
       0.0038230584 -0.00060483726 0.0031000094 0.0064239106
000130 1c 40 18 3c 69 ad 75 38 51 63 29 3b f2 49 22 bb
       0.009292629 5.8574053e-05 0.002584655 -0.0024763313
000140 a4 e3 94 3b 8b 22 a9 bb 3c f6 57 bb 3e 90 09 3b
       0.0045437384 -0.0051615885 -0.0032953164 0.0020990516
000150 78 06 a9 3b 10 dd ec bb d2 bb ca 3b 04 46 0b bc
       0.005158242 -0.007228501 0.0061869407 -0.00850058
000160 ec 8b c3 3b 2f 56 5d 3b 08 6b 2e 3c 16 2d df bb
       0.0059676077 0.0033773293 0.010645635 -0.0068107946
000170 39 7f 2c 3b f2 b6 5b 3b 8b c6 05 3c 40 46 72 bb
       0.0026320948 0.0033525792 0.008165012 -0.0036968142
000180 dd 31 39 bb 81 c1 e2 38 25 89 7c 3b 1d 53 83 bb
       -0.002825848 0.00010812563 0.0038533893 -0.0040077106
000190 28 39 4a 3b 99 1b 62 bc 96 15 30 3a ea ac b0 3b
       0.0030856822 -0.013800525 0.0006717084 0.0053917067
0001a0 07 6b e0 ba d8 c0 ee bb 56 fc 30 bc ff e8 00 3c
       -0.001712174 -0.0072861724 -0.010802349 0.007868051
0001b0 1a c4 34 3b 00 04 18 ba b9 c5 f4 bb 2e ea e6 bb
       0.0027582706 -0.0005798936 -0.0074698594 -0.0070469594
0001c0 97 3c d7 ba 38 4e a3 3b e1 88 17 bc 26 b5 28 ba
       -0.0016421255 0.0049836896 -0.009248943 -0.00064356846
0001d0 21 0d 01 bc 7e 18 83 bb 3d 2a cf bb 6d 68 e9 bb
       -0.007876665 -0.0040007224 -0.006322174 -0.007123044
0001e0 b1 3e ec 3b 55 e0 92 bb 4c f2 83 bb ee ab 8a 39
       0.007209622 -0.004482309 -0.004026687 0.0002644951
0001f0 b0 9a f7 bb 58 e7 28 bc 2c ff 71 bb d2 65 0a 3c
       -0.007556282 -0.010309063 -0.0036925776 0.008447127
000200 1a 53 e7 b9 f8 a8 3c b9 d4 8b c2 3b 31 54 15 bb
       -0.0004412167 -0.00017992023 0.005937079 -0.0022785778
000210 5b 25 28 3b 77 f7 57 ba 4c 59 b1 bb 48 af 0f 3c
       0.0025657031 -0.0008238474 -0.0054122563 0.008769818
000220 62 0c a7 bb 95 27 9b bb 08 e7 2d ba 8e 79 8c bc
       -0.0050979117 -0.004734943 -0.00066338526 -0.017147806
000230 f4 c3 82 ba 1a 26 08 3c 29 de 93 bb c2 c5 c1 bb
       -0.0009976611 0.008309865 -0.0045125675 -0.005913467
000240 70 22 12 3b 24 d2 c2 3a ee 09 78 bb a3 e3 90 3b
       0.0022298358 0.0014863652 -0.0037847715 0.0044216677
000250 bc 5c dd 3b bc e6 05 3c 52 20 01 bb da 7d 55 bb
       0.0067554396 0.008172687 -0.0019703102 -0.0032576234
000260 8b 9e a4 3b 23 ef 41 3b 88 7f 27 3b 6e 30 b3 3a
       0.0050237826 0.0029592 0.0025558192 0.0013671049
000270 27 1e 00 3c 66 cf 45 ba 2f 27 dc ba 74 e5 08 bb
       0.007819689 -0.00075458584 -0.0016796346 -0.0020888718
000280 3d a6 96 3b a1 3f 1f ba 67 da ed 3b 46 21 1a 3c
       0.004597454 -0.000607485 0.0072587016 0.009407347
000290 7d d4 dd ba 27 3e 9a 39 0c 5f ad 3a 7b 08 b4 bb
       -0.0016924288 0.00029419476 0.0013227179 -0.005494175
0002a0 bb f4 da b9 8e 1b ba 3a ca 4b e4 bb cf b8 9b bb
       -0.0004176254 0.0014198886 -0.0069670426 -0.0047522555
0002b0 4b d5 ee 3b 78 dd 4f 3a 10 18 e7 bb 03 c0 ae 3b
       0.00728861 0.0007929425 -0.007052429 0.005332948
0002c0 11 8d 05 bc 29 3d c1 bb 8d 7f be 3b 4d 74 20 3b
       -0.008151309 -0.0058971834 0.005813545 0.0024483383
0002d0 b2 b8 12 3c e6 21 94 b9 f1 d1 d7 38 5b 5e 70 ba
       0.008955168 -0.00028254016 0.000102911035 -0.00091693335
0002e0 a7 7b 41 ba b9 6d 58 3a e3 4b dd ba d1 1e c5 b9
       -0.00073807914 0.0008256096 -0.0016883578 -0.00037597728
0002f0 3c 94 37 3b cf fd 57 38 83 7a fa bb 0b b9 f0 ba
       0.0028011939 5.1496372e-05 -0.007643999 -0.0018365694
000300 28 e7 e7 ba 2a d5 08 ba 3f 85 a0 3b 1a 84 f2 3b
       -0.0017692791 -0.0005219752 0.0048986967 0.0074010016
000310 68 96 08 3a d3 32 a8 3b 79 f6 af 3b 5a 4b 45 bc
       0.00052104006 0.005133012 0.005369958 -0.012041891
000320 cc e0 af bb d8 54 eb bb ec 0a a8 b9 da 30 ff bb
       -0.005367374 -0.007181745 -0.00032051594 -0.007787806
000330 88 0c e7 bb c0 f1 c4 3b 3e 30 35 bc 97 75 c6 bb
       -0.0070510544 0.006010264 -0.011058865 -0.0060564983
000340 50 4f 7d ba cc 1d b5 3b e7 7a 8f 39 47 d5 ae 37
       -0.00096630026 0.0055272337 0.00027366655 2.0841731e-05
000350 8e d4 46 3b 22 e4 85 3b c2 d8 7b bb 0b 91 9a 3b
       0.0030339095 0.0040860334 -0.0038428758 0.0047169975
000360 69 07 65 3b f8 d8 cc 3b f3 d2 67 3b 5e 79 93 3b
       0.0034947044 0.0062514506 0.0035373538 0.004500552
000370 6c 4e 31 3a 02 75 f9 3b 20 3e 09 bc d2 16 81 3b
       0.00067637 0.0076128254 -0.008376628 0.003939488
000380 42 b6 40 39 a0 1d 6e 3b 46 8a 01 bb 1d 3b 17 b9
       0.00018378443 0.0036333576 -0.0019766255 -0.00014422504
000390 3d 11 19 3b bb e1 11 bb 97 3a 0d 38 f7 61 0d bc
       0.0023356222 -0.002225979 3.3671586e-05 -0.008629314
0003a0 80 36 31 ba c0 68 6f 3b a4 d4 40 bb a8 f3 10 bc
       -0.00067601353 0.0036530942 -0.0029423619 -0.008847155
0003b0 6c b7 01 bb 79 81 51 bb 7d 9f 83 3b 43 67 38 3c
       -0.0019793166 -0.003196804 0.004016815 0.011255088
0003c0 ac 16 9a 3b 3f 3e eb bb 39 02 06 bc 30 c7 f1 bb
       0.0047024097 -0.007179051 -0.008179241 -0.0073784813
0003d0 78 db da ba 20 66 9a 3b 65 7f 0e ba 49 43 a2 ba
       -0.0016697487 0.0047118813 -0.00054358534 -0.0012379672
0003e0 86 30 29 b9 18 20 49 bb c5 bc 9c ba d6 48 76 37
       -0.00016135172 -0.0030689295 -0.0011958113 1.4679701e-05
0003f0 c4 74 98 bb b4 a4 82 b8 38 e9 ea 3b e7 cf 58 3b
       -0.0046525914 -6.2295614e-05 0.007168915 0.0033082904

deconv1.bias f4 [32]
000000 85 cb 79 3d c2 67 b4 3c 07 c4 5a 3a 3d de a4 bd
       0.060985107 0.022022132 0.00083452504 -0.08050201
000010 91 4d 12 3c bc c7 b0 bc e5 6e 71 3d c2 b7 00 bc
       0.008929626 -0.021579616 0.058943648 -0.007856311
000020 06 93 31 3d 82 ec 41 3d da 93 a9 3d 43 c3 93 3b
       0.043353103 0.047344692 0.082801536 0.004509361
000030 3c c4 c5 bb dc a3 6a 3c 5f cd 26 3d cc 90 65 3d
       -0.006035356 0.014321294 0.0407232 0.056046292
000040 09 6c e9 bc 67 8c 8f 3d 21 2c 8d 3d e9 63 47 3d
       -0.028493898 0.070092015 0.068931825 0.048679266
000050 52 cf 0a bd 39 c2 04 bd 76 40 c9 bc 8d 5a 04 bd
       -0.033889122 -0.032411788 -0.02456687 -0.03231292
000060 3f 00 a5 3b 6b 6c a1 bd aa b9 56 3d 4a 29 42 bd
       0.0050354297 -0.07882007 0.052423157 -0.047402658
000070 f4 4d 05 bd d5 ac 32 3d 8e 8c bf bc a3 44 a3 3d
       -0.032545045 0.043621857 -0.023382451 0.07972076
