saved_models_2D/VAE_patch_folds/CVAE2D_64_0.5_fold_4.pth (torch, 51894 bytes, 49 tensors)

conv1.weight f4 [3, 1, 5, 5]
-0.19458967 -0.23303173 0.17522417 -0.21659133 -0.3352852 0.24992612 0.25112736 0.49949363
0.038400155 0.36850458 0.25632957 0.47903004 0.42940107 0.3951395 0.15523629 -0.07784819
0.13990714 0.6340959 0.35920364 0.42928582 -0.08067456 -0.043448534 0.04261519 -0.05110314
-0.09154187 -0.63488775 0.32733676 -0.32450178 0.27200407 -0.56176156 -0.21086808 0.44625032
-0.4028353 0.31035244 -0.14955376 -0.16104797 -0.12522827 0.08642745 0.11757889 -0.22979745
-0.02722595 -0.19556293 -0.049492545 -0.06738956 -0.26852632 -0.48657027 0.14309096 -0.27922016
0.022374222 -0.64326304 0.55815995 0.2764209 0.07708178 0.27292982 0.5337822 0.28422105
0.033408426 -0.01508279 0.0033815114 0.1909891 0.035858333 -0.24531323 -0.30551407 -0.11638528
-0.01708256 0.3038702 -0.07188907 -0.19437939 0.014915537 0.052968457 0.37882683 0.28897855
0.15129627 0.1630038 0.505541
00000000: 8442 47be df9f 6ebe f76d 333e 1eca 5dbe
00000010: 80aa abbe a2ec 7f3e c493 803e a1bd ff3e
00000020: 7b49 1d3d a2ac bc3e a13d 833e 6d43 f53e
00000030: 75da db3e b94f ca3e 43f6 1e3e df6e 9fbd
00000040: d143 0f3e 1c54 223f 8ae9 b73e 5acb db3e
00000050: b438 a5bd 17f7 31bd 448d 2e3d 8751 51bd
00000060: 4e7a bbbd 0188 22bf af98 a73e 1925 a6be
00000070: 1e44 8b3e 9bcf 0fbf cded 57be ec7a e43e
00000080: 6e40 cebe 84e6 9e3e 9f24 19be c2e9 24be
00000090: d73b 00be e000 b13d 33cd f03d 0650 6bbe
000000a0: f508 dfbc a641 48be b2b8 4abd 8a03 8abd
000000b0: 487c 89be bd1f f9be 7086 123e f2f5 8ebe
000000c0: 254a b73c e3ac 24bf 92e3 0e3f 0a87 8d3e
000000d0: 0ddd 9d3d 75bd 8b3e f3a5 083f 6c85 913e
000000e0: 46d7 083d ce1d 77bc 599c 5d3b a692 433e
000000f0: 30e0 123d 6433 7bbe 576c 9cbe 685b eebd
00000100: baf0 8bbc e094 9b3e 943a 93bd 640b 47be
00000110: 4c60 743c 74f5 583d 97f5 c13e fff4 933e
00000120: 69ed 1a3e 78ea 263e 236b 013f

conv1.bias f4 [3]
-0.13810872 0.026213074 -0.017997846
00000000: 5f6c 0dbe cdbc d63c 3870 93bc

conv2.weight f4 [4, 3, 3, 3]
0.25528833 0.13523558 0.11932001 0.2047168 -0.03202205 0.12501682 0.56397665 0.02955392
0.41567057 -0.3531955 -0.009645998 -0.27798274 -0.13619561 0.29980463 0.10989887 -0.18196888
-0.11648889 -0.06360266 0.44916973 0.19080597 0.29532203 0.25634658 -0.20006317 0.24687912
0.45522442 0.3417627 0.402211 -0.24665041 0.24156018 -0.75603753 -0.2812666 0.23787281
0.2979503 0.33847785 -0.17242941 -0.3098247 0.14874764 0.09213347 0.4134293 -0.09410174
-0.33234003 -0.2896485 0.11616454 0.055790976 0.34304276 -0.28632355 -0.15366374 -0.13435219
-0.2002804 -0.09039805 -0.43923986 -0.06600105 -0.12052044 -0.77459216 0.24291682 -0.44387794
0.36306977 -0.1608253 -0.4832811 0.26152718 -0.35860765 0.04107111 0.16853222 0.5951832
0.1452256 0.7788769 0.09553306 0.029498726 0.02805812 0.5228006 0.11822965 0.53064823
0.043640483 -0.007993661 0.13090703 0.07276815 0.014669551 0.014890883 -0.027527923 -0.17493702
0.3187439 -0.047997493 -0.563242 -0.046910346 0.1131777 -0.6044383 0.16643913 -0.537629
-0.81742126 -0.06631721 0.31018794 0.033712856 -0.1100182 0.32208872 0.4802785 0.18866271
0.503853 0.23557815 0.35865644 -0.44703597 -0.4123929 -0.42304644 -0.11127764 -0.05250708
-0.21803518 -0.4485269 -0.3581118 -0.20725106
00000000: 27b5 823e 327b 0a3e 0d5e f43d 48a1 513e
00000010: 8e29 03bd 6904 003e c660 103f 101b f23c
00000020: c6d2 d43e 0ad6 b4be 3f0a 1ebc c153 8ebe
00000030: dd76 0bbe fe7f 993e a912 e13d 0d56 3abe
00000040: ba91 eebd 1d42 82bd 93f9 e53e a462 433e
00000050: 7334 973e dc3f 833e 5cdd 4cbe e1cd 7c3e
00000060: 2d13 e93e 85fb ae3e 9aee cd3e ed91 7cbe
00000070: 8d5b 773e ad8b 41bf 2d02 90be ee94 733e
00000080: f18c 983e f84c ad3e 5691 30be 58a1 9ebe
00000090: 4d51 183e 79b0 bc3d 01ad d33e 6ab8 c0bd
000000a0: 7928 aabe cf4c 94be ade7 ed3d 1485 643d
000000b0: 4da3 af3e 0099 92be 075a 1dbe 9f93 09be
000000c0: 4e16 4dbe 9d22 b9bd 0ce4 e0be 8f2b 87bd
000000d0: 6cd3 f6bd ac4b 46bf 30bf 783e f843 e3be
000000e0: 48e4 b93e 63af 24be 9f70 f7be e4e6 853e
000000f0: 6c9b b7be 2e3a 283d b693 2c3e ed5d 183f
00000100: 05b6 143e 7a64 473f d6a6 c33d 50a7 f13c
00000110: 24da e53c 43d6 053f 6322 f23d 90d8 073f
00000120: 5dc0 323d d8f7 02bc 7e0c 063e 7807 953d
00000130: 8e58 703c e4f8 733c 3d82 e1bc b122 33be
00000140: 6732 a33e 0599 44bd a130 10bf 1025 40bd
00000150: b6c9 e73d 78bc 1abf 056f 2a3e 0ea2 09bf
00000160: 8542 51bf 51d1 87bd f4d0 9e3e 7e16 0a3d
00000170: 3951 e1bd d0e8 a43e 10e7 f53e cc30 413e
00000180: 83fc 003f 663b 713e d1a1 b73e e6e1 e4be
00000190: 2a25 d3be 8b99 d8be 88e5 e3bd aa11 57bd
000001a0: 9d44 5fbe 51a5 e5be 6e5a b7be 9f39 54be

conv2.bias f4 [4]
-0.1561779 0.053456422 0.019619415 0.0028256094
00000000: 19ed 1fbe 1ff5 5a3d e5b8 a03c dc2d 393b

conv3.weight f4 [12, 4, 3, 3]
0.015400667 -0.44914493 -0.36768568 0.20035087 0.48682874 -0.013882203 -0.605416 -0.063808575
-0.38033533 -0.0036500548 0.5119529 0.27367476 0.34648505 0.4221649 0.21486135 0.005147795
-0.13362911 0.21761718 0.19553395 0.5815671 0.15477876 0.31735766 0.13983591 0.34253722
-0.25924334 -0.19176124 -0.284557 0.39112356 0.3327224 0.16253811 0.05739754 -0.29363817
-0.42553037 0.0742561 -0.29225034 -0.33301723 0.2515478 0.0270644 -0.1644523 0.2798391
-0.34268323 -0.08933698 0.27261472 -0.070240945 -0.06533114 0.109572604 0.24798839 0.43534794
-0.12404206 -0.13166438 0.3229344 -0.15245144 0.15062302 -0.11850428 -0.4305667 -0.19412725
-0.3257502 -0.20982723 0.39711583 -0.034991357 0.06799827 0.26254737 0.17156318 -0.2176331
0.16613987 0.20315601 0.1315447 -0.06887404 -0.24092816 0.10962204 0.3772081 0.69839007
-0.028384602 0.3071747 0.7009084 -0.19666167 -0.11994683 0.042578332 -0.4543999 0.048233427
0.0406183 -0.00936475 -0.26928204 0.46327642 0.30026287 -0.041339077 0.24497859 0.48948407
0.12510331 -0.038408313 0.40663746 -0.42118758 -0.6796267 -0.2537383 0.08688686 -0.25307596
0.29346806 -0.04308326 0.032575592 -0.34567028 -0.09309761 -0.36471587 0.11530542 0.09795353
-0.58202857 -0.14217123 0.289996 -0.199215 0.16963275 0.44205192 -0.4797205 0.3049674
-0.08125317 -0.5196703 -0.097304925 -0.073597364 0.40706196 -0.017650178 -0.05325476 -0.038373064
-0.22175194 0.2671477 -0.05703005 0.18067944 -0.29446462 -0.11569896 -0.060682103 -0.30728874
0.27389422 -0.17145814 -0.18804935 0.29131156 -0.41620496 -0.0820366 -0.3250599 0.38125226
-0.1955939 0.0050411606 -0.3188137 0.2519469 -0.3241847 -0.030946728 -0.6760897 -0.33447304
-0.33314344 -0.01896362 0.012508794 -0.11947976 -0.07018405 0.61532736 -0.22381805 -0.25944927
0.15834476 0.38934886 -0.060704645 -0.385377 0.049851477 0.12239338 -0.30579913 0.06590613
-0.20167026 -0.34888542 0.064684585 0.21193129 0.27824515 0.21452942 0.057797093 -0.015563474
0.11100891 0.193663 0.1498436 0.24429466 0.17317238 -0.26014417 -0.22099325 0.113488495
0.112777606 0.26444796 0.50886804 -0.23430237 -0.316639 -0.08533821 0.37363645 -0.707578
-0.06687447 0.24721564 0.35578623 0.2922462 0.14207439 -0.16064869 0.02193823 -0.45712686
0.18041389 -0.40429604 0.00019177822 -0.3874779 -0.41899836 -0.044382308 0.40089273 -0.27022815
-0.41321304 0.16969284 0.37557396 -0.3955752 0.06288161 -0.40341926 -0.19960195 0.47959697
0.18689297 -0.28353822 0.15779649 0.08135028 0.057002574 -0.13293204 -0.024033489 -0.16975757
-0.002380481 -0.4396871 -0.26788136 0.34104338 0.33473563 0.22064103 -0.08278768 0.14524278
0.46207723 -0.094813436 0.47987348 -0.2997259 -0.55764985 -0.031760067 -0.147441 -0.1993122
0.2074771 0.3007779 -0.5837367 -0.39808816 -0.18564153 0.09276885 0.038114097 0.14596063
0.05308104 -0.3677755 -0.50949436 -0.09480747 0.20662464 -0.09709236 0.17612365 -0.1748246
0.023326 0.46005908 -0.008401796 -0.12778491 0.22982994 0.048125785 0.15359741 0.005428557
00000000: 1453 7c3c 53f6 e5be 4c41 bcbe c728 4d3e
00000010: 9e41 f93e 2e72 63bc 8bfc 1abf 12ae 82bd
00000020: 50bb c2be c235 6fbb 580f 033f 191f 8c3e
00000030: 7d66 b13e ff25 d83e 9d04 5c3e d6ae a83b
00000040: 12d6 08be 0ad7 5e3e 0d3a 483e 95e1 143f
00000050: 537e 1e3e b47c a23e 2531 0f3e 0a61 af3e
00000060: 8bbb 84be 0f5d 44be 75b1 91be 5941 c83e
00000070: 975a aa3e 6470 263e af19 6b3d be57 96be
00000080: 1edf d9be 9513 983d d6a1 95be 3c81 aabe
00000090: e0ca 803e 29b6 dd3c 2f66 28be 1247 8f3e
000000a0: 2d74 afbe 4ef6 b6bd 2894 8b3e 7cda 8fbd
000000b0: 55cc 85bd 9a67 e03d abf0 7d3e ede5 de3e
000000c0: c309 febd 07d3 06be a857 a53e 3b1c 1cbe
000000d0: ec3c 1a3e 5fb2 f2bd 3d73 dcbe 4bc9 46be
000000e0: bbc8 a6be f3dc 56be c452 cb3e 1953 0fbd
000000f0: ad42 8b3d 9c6c 863e 42ae 2f3e 36db 5ebe
00000100: 9220 2a3e 2108 503e a7b3 063e d50d 8dbd
00000110: dfb5 76be 8581 e03d 6c21 c13e b1c9 323f
00000120: d386 e8bc 0146 9d3e bc6e 333f ad61 49be
00000130: afa6 f5bd 9e66 2e3d 1ba7 e8be 6a90 453d
00000140: 605f 263d 9c6e 19bc 56df 89be 9132 ed3e
00000150: 0ebc 993e 2a53 29bd abdb 7a3e a89d fa3e
00000160: 151b 003e 0952 1dbd c932 d03e e6a5 d7be
00000170: 04fc 2dbf fde9 81be bdf1 b13d 2c93 81be
00000180: 7241 963e 1378 30bd fc6d 053d b2fb b0be
00000190: f6a9 bebd 0abc babe 3f25 ec3d dc9b c83d
000001a0: d3ff 14bf 5695 11be 5b7a 943e 04ff 4bbe
000001b0: 35b4 2d3e a154 e23e ed9d f5be b024 9c3e
000001c0: 1068 a6bd 1d09 05bf ce47 c7bd 37ba 96bd
000001d0: 6d6a d03e 1b97 90bc aa21 5abd 132d 1dbd
000001e0: f112 63be 95c7 883e 5798 69bd 0804 393e
000001f0: 11c4 96be 94f3 ecbd cc8d 78bd f354 9dbe
00000200: dd3b 8c3e b992 2fbe 0290 40be ca26 953e
00000210: d118 d5be ce02 a8bd 406e a6be 7f33 c33e
00000220: c449 48be 5230 a53b 8d3b a3be 2fff 803e
00000230: 89fb a5be fe83 fdbc 3714 2dbf 0d40 abbe
00000240: c791 aabe 9859 9bbc aff1 4c3c ceb1 f4bd
00000250: a8bc 8fbd 1886 1d3f 8f30 65be 89d6 84be
00000260: 2125 223e bc58 c73e 6fa5 78bd 2250 c5be
00000270: 1031 4c3d 61a9 fa3d b491 9cbe cbf9 863d
00000280: a682 4ebe 1ca1 b2be 5a79 843d 8404 593e
00000290: 2676 8e3e 9aad 5b3e a5bc 6c3d f1fd 7ebc
000002a0: a458 e33d 984f 463e 9a70 193e 6128 7a3e
000002b0: 1a54 313e 9e31 85be 0e4c 62be a86c e83d
000002c0: f2f7 e63d b965 873e 2d45 023f f6ec 6fbe
000002d0: 821e a2be cdc5 aebd 474d bf3e d523 35bf
000002e0: 7bf5 88bd 1926 7d3e 9d29 b63e 4ba1 953e
000002f0: f37b 113e 1781 24be ceb7 b33c 880c eabe
00000300: 6bbe 383e e4ff cebe 1318 4939 8163 c6be
00000310: f486 d6be 39ca 35bd d041 cd3e 585b 8abe
00000320: a990 d3be f6c3 2d3e 3b4b c03e d588 cabe
00000330: 13c8 803d f88c cebe 7464 4cbe bc8d f53e
00000340: df60 3f3e ec2b 91be 6795 213e fa9a a63d
00000350: 887b 693d 561f 08be e1e1 c4bc eed4 2dbe
00000360: d801 1cbb ab1e e1be bf27 89be 3d9d ae3e
00000370: 7862 ab3e b9ef 613e 968c a9bd 86ba 143e
00000380: 6395 ec3e 8c2d c2bd fab1 f53e ac75 99be
00000390: 24c2 0ebf d816 02bd c6fa 16be 7f18 4cbe
000003a0: e074 543e 90ff 993e c56f 15bf 36d2 cbbe
000003b0: d018 3ebe 98fd bd3d 871d 1c3d b476 153e
000003c0: 816b 593d 124d bcbe 396e 02bf 6b2a c2bd
000003d0: 6995 533e 5cd8 c6bd c259 343e 3805 33be
000003e0: 2b16 bf3c dd8c eb3e b0a7 09bc 0cda 02be
000003f0: 8a58 6b3e 8b1f 453d a448 1d3e 09e2 b13b

conv3.bias f4 [12]
-0.24636032 0.05126169 0.08013374 0.08997958 -0.090258755 -0.029616341 0.01489263 -0.24426946
0.11993966 0.045550473 -0.04248719 -0.299317
00000000: e145 7cbe c7f7 513d 291d a43d 3747 b83d
00000010: 95d9 b8bd f89d f2bc 3800 743c c621 7abe
00000020: eda2 f53d 2293 3a3d 0c07 2ebd 1440 99be

conv4.weight f4 [16, 12, 3, 3]
-0.12248783 -0.022046192 -0.33355922 -0.077408224 -0.087035276 0.053796913 -0.018020099 -0.06647738
0.072036184 0.06527347 0.32447132 -0.09359775 -0.02511987 0.026341567 0.030683944 0.052881766
0.1806922 -0.16851917 -0.016477743 0.075627826 0.34387755 0.022719482 0.17453192 -0.10786776
0.36303124 0.056148246 -0.11739731 -0.054129623 -0.03745415 0.17086673 0.30666322 0.15325828
0.2222104 0.34825468 -0.18904535 -0.046059165 -0.056674086 0.27971622 0.02837461 -0.061497707
0.42863575 0.042459104 -0.046731424 0.06772181 0.01597642 0.21079434 0.16355564 -0.011775308
0.044361584 -0.2192716 0.2609448 -0.22388928 -0.0726522 0.030003008 -0.26527095 -0.15983829
0.010594444 -0.29160908 -0.24333183 0.017000763 -0.17666095 0.017401643 -0.17338836 0.13492711
-0.06063971 -0.25166678 0.08209673 -0.17618299 -0.0029610128 0.06739632 0.12028506 0.102867305
0.045821898 0.12690282 0.12672964 -0.061190378 0.1555432 -0.09127377 -0.11734361 0.03306946
0.28981736 -0.092256196 0.286628 0.10943315 -0.24254966 0.36261404 -0.12788452 0.058123384
0.06845654 0.08603739 -0.13300957 -0.071267225 0.09072 -0.36764222 0.20067412 -0.14948305
-0.2155355 -0.017815653 -0.593119 0.26009256 0.27019745 0.13397817 -0.20877172 0.13708493
0.15032782 -0.019559126 0.042881623 -0.55000305 -0.22543538 0.054354142 -0.12452887 0.13498384
0.022115175 -0.06675452 -0.28328177 0.096739866 -0.11732178 -0.12367886 0.047216665 -0.21955834
0.10558026 -0.16599855 -0.12999861 0.10675526 -0.14411996 0.048237253 0.16106988 -0.03790349
-0.017702239 -0.024720073 0.15574254 -0.026268303 0.07517522 -0.10359718 -0.21969245 -0.068699434
-0.31511217 -0.19238266 -0.4849234 0.20203753 0.060955822 -0.27974218 -0.0914971 -0.20772284
-0.021476138 0.14430168 0.18093689 0.2991651 -0.000110605535 0.0105990395 0.3588223 0.036222924
-0.26392204 -0.21569009 0.0008117456 0.048158605 0.013756532 0.0033599164 0.08728551 0.053445715
0.1689358 0.0021628963 0.13648795 0.011344109 0.18373461 0.14887165 0.0022619292 0.1830682
-0.0012618081 -0.14797013 -0.07465602 0.35652074 -0.10944126 -0.14511456 -0.6712152 0.17463288
-0.06565363 -0.31423178 -0.17004257 -0.16722205 -0.18196821 -0.040720586 0.030485008 -0.00040565414
0.03281364 -0.065765314 0.21219148 -0.08658062 0.09289427 -0.06339838 0.2799965 0.12975825
0.057419483 0.08166914 -0.13383949 0.3839151 0.28524405 0.018982494 0.5200488 0.30184174
0.13285476 0.31641218 0.22322227 0.20925374 0.14996411 0.11095442 -0.040104896 -0.509034
0.13491029 0.07024983 0.027411662 0.3687946 -0.16429807 -0.4770955 -0.13809296 0.120817125
-0.19221756 -0.16999415 -0.3073166 0.075992025 0.04988866 0.11681316 0.13668367 0.19135784
0.44934908 -0.10437277 -0.25076613 0.061964944 0.27892205 -0.44464624 0.35515997 -0.115498506
-0.37194443 0.4823727 -0.008191983 -0.06261416 0.24443804 -0.14571828 -0.0050554355 -0.0073617566
-0.0150537975 0.15960671 -0.17716922 0.1345182 -0.028947491 0.08878169 -0.22864956 0.05351052
-0.085848 -0.1374149 0.3691564 -0.17330758 -0.152245 -0.17289817 0.1584413 -0.010018404
00000000: e6da fabd 379a b4bc 46c8 aabe 3488 9ebd
00000010: 8d3f b2bd 275a 5c3d e39e 93bc 4b25 88bd
00000020: b587 933d 19ae 853d 1b21 a63e 2db0 bfbd
00000030: 30c8 cdbc 45ca d73c e55c fb3c 8d9a 583d
00000040: 6007 393e 4a90 2cbe 55fc 86bc c3e2 9a3d
00000050: b810 b03e 351e ba3c 7fb8 323e c6e9 dcbd
00000060: 3bdf b93e b4fb 653d 006e f0bd 06b7 5dbd
00000070: 8669 19bd b0f7 2e3e f602 9d3e bdef 1c3e
00000080: 208b 633e 704e b23e 1b95 41be 89a8 3cbd
00000090: 1623 68bd f736 8f3e df71 e83c 05e5 7bbd
000000a0: 2576 db3e 99e9 2d3d 7369 3fbd bbb1 8a3d
000000b0: fbe0 823c 79da 573e 217b 273e 39ed 40bc
000000c0: 7eb4 353d bc88 60be 8f9a 853e 3b43 65be
000000d0: adca 94bd dec8 f53c 98d1 87be a6ac 23be
000000e0: 5294 2d3c c94d 95be fb2b 79be 2f45 8b3c
000000f0: 9ce6 34be e48d 8e3c b88c 31be 552a 0a3e
00000100: 5861 78bd 78da 80be 5522 a83d 5069 34be
00000110: 8d0d 42bb 1507 8a3d 0358 f63d 18ac d23d
00000120: beaf 3b3d d0f2 013e 6ac5 013e c3a2 7abd
00000130: b746 1f3e beed babd d951 f0bd d873 073d
00000140: f162 943e d1f0 bcbd e8c0 923e 7d1e e03d
00000150: f05e 78be 8ca8 b93e 29f4 02be c912 6e3d
00000160: f132 8c3d 5f34 b03d a933 08be 8df4 91bd
00000170: 68cb b93d 9a3b bcbe 847d 4d3e 1612 19be
00000180: 57b5 5cbe 22f2 91bc a6d6 17bf da2a 853e
00000190: 5257 8a3e 9331 093e 41c8 55be fe5f 0c3e
000001a0: 89ef 193e 763a a0bc a4a4 2f3d 00cd 0cbf
000001b0: 88d8 66be 73a2 5e3d fe08 ffbd 3439 0a3e
000001c0: e22a b53c 98b6 88bd 4f0a 91be 8d1f c63d
000001d0: 6746 f0bd 584b fdbd 4366 413d e7d3 60be
000001e0: 773a d83d 86fb 29be 5b1e 05be 80a2 da3d
000001f0: 2f94 13be 6d94 453d 81ef 243e b140 1bbd
00000200: 4904 91bc c081 cabc f97a 1f3e a030 d7bc
00000210: 77f5 993d c22a d4bd 0ff7 60be 4ab2 8cbd
00000220: 6256 a1be f6ff 44be e147 f8be ede2 4e3e
00000230: d0ac 793d 5e3a 8fbe d562 bbbd 4cb5 54be
00000240: baee afbc d2c3 133e 8547 393e 2b2c 993e
00000250: e5f4 e7b8 98a7 2d3c 8eb7 b73e 7d5e 143d
00000260: ca20 87be dddd 5cbe 53cb 543a f541 453d
00000270: 1463 613c 0b32 5c3b bfc2 b23d e5e9 5a3d
00000280: 82fd 2c3e 61bf 0d3b 7fc3 0b3e a4dc 393c
00000290: ed24 3c3e cf71 183e e03c 143b 3b76 3b3e
000002a0: 4163 a5ba 7b85 17be 41e5 98bd e389 b63e
000002b0: bd22 e0bd e998 14be c2d4 2bbf f6d2 323e
000002c0: 6975 86bd fde2 a0be a41f 2ebe 423c 2bbe
000002d0: e055 3abe a1ca 26bd b2bb f93c faad d4b9
000002e0: 9867 063d f7af 86bd b948 593e 2e51 b1bd
000002f0: 5a3f be3d 03d7 81bd b45b 8f3e 59df 043e
00000300: b130 6b3d 2642 a73d 380d 09be 8590 c43e
00000310: 820b 923e 2d81 9b3c eb21 053f 008b 9a3e
00000320: 140b 083e c700 a23e 6194 643e 9d46 563e
00000330: 3190 193e 123c e33d 0845 24bd 0d50 02bf
00000340: ec25 0a3e 25df 8f3d 6c8e e03c a5d2 bc3e
00000350: c13d 28be dd45 f4be 3e68 0dbe f86e f73d
00000360: aed4 44be f212 2ebe 9a58 9dbe b5a1 9b3d
00000370: 0d58 4c3d bd3b ef3d cef6 0b3e 4ff3 433e
00000380: 1511 e63e 64c1 d5bd 6b64 80be f4ce 7d3d
00000390: dfce 8e3e aca8 e3be 87d7 b53e 7b8a ecbd
000003a0: 806f bebe 8ef9 f63e ab37 06bc da3b 80bd
000003b0: f74d 7a3e 2c37 15be 11a8 a5bb e43a f1bb
000003c0: 34a4 76bc f16f 233e d96b 35be 24bf 093e
000003d0: 4a23 edbc 2dd3 b53d 1c23 6abe d92d 5b3d
000003e0: 14d1 afbd 7eb6 0cbe 1102 bd3e 8b77 31be
000003f0: 1de6 1bbe 380c 31be 703e 223e 3b24 24bc

conv4.bias f4 [16]
-0.1516117 -0.04565172 -0.13579829 0.045547087 -0.030898815 0.079569146 -0.19533753 -0.06289517
0.11361696 -0.12989858 -0.14675021 -0.07490558 0.037068937 -0.19397643 0.08739501 0.0051561026
00000000: 1940 1bbe 4cfd 3abd b50e 0bbe 958f 3a3d
00000010: 831f fdbc 26f5 a23d 9006 48be 2fcf 80bd
00000020: 02b0 e83d 2204 05be b045 16be 1968 99bd
00000030: 99d5 173d c2a1 46be 28fc b23d 86f4 a83b

bn1.weight f4 [3]
0.5969485 0.80937755 0.5061387
00000000: 9ed1 183f 5e33 4f3f 4e92 013f

bn1.bias f4 [3]
0.31987846 -0.31980965 0.3883743
00000000: 1cc7 a33e 17be a3be ffd8 c63e

bn1.running_mean f4 [3]
0.9904411 -0.9389019 0.9530262
00000000: 8c8d 7d3f e05b 70bf 86f9 733f

bn1.running_var f4 [3]
2.1774707 1.0420802 1.0210844
00000000: ae5b 0b40 e262 853f e5b2 823f

bn2.weight f4 [4]
0.62469196 0.72668344 0.8971944 0.90057296
00000000: d0eb 1f3f ed07 3a3f 88ae 653f f38b 663f

bn2.bias f4 [4]
0.34104073 -0.060666658 -0.701453 0.42201403
00000000: e49c ae3e 9a7d 78bd 6c92 33bf 3912 d83e

bn2.running_mean f4 [4]
1.1704963 -0.8688199 0.21845445 -1.485776
00000000: d3d2 953f fb6a 5ebf 86b2 5f3e e82d bebf

bn2.running_var f4 [4]
3.5874913 1.6198106 0.331596 6.3909407
00000000: 7599 6540 f455 cf3f f3c6 a93e 9682 cc40

bn3.weight f4 [12]
0.76272196 1.0250585 0.83426356 0.7741308 0.8402073 0.76869565 0.6731803 0.96432185
0.7368301 0.8477392 0.7316849 0.65228444
00000000: bf41 433f 1e35 833f 4c92 553f 702d 463f
00000010: d317 573f 3dc9 443f 8b55 2c3f ccdd 763f
00000020: e6a0 3c3f 7005 593f b44f 3b3f 1dfc 263f

bn3.bias f4 [12]
0.18360126 -0.16235311 -0.2619042 -0.074629754 -0.012415774 -0.38624066 -0.23282418 -0.24967824
-0.30972984 -0.21888104 -0.42692563 -0.15098047
00000000: f801 3c3e e53f 26be 4f18 86be 7cd7 98bd
00000010: 886b 4bbc 56c1 c5be 7669 6ebe a7ab 7fbe
00000020: e994 9ebe 5a22 60be ff95 dabe a09a 1abe

bn3.running_mean f4 [12]
-0.51662797 0.79522705 -0.28812718 -0.5707218 0.0958229 0.014828166 0.40960574 -0.580523
0.33168086 0.4682324 0.13093172 -0.22867122
00000000: bb41 04bf 0094 4b3f 6885 93be d31a 12bf
00000010: cc3e c43d d6f1 723c d8b7 d13e 289d 14bf
00000020: 13d2 a93e 28bc ef3e f712 063e ca28 6abe

bn3.running_var f4 [12]
0.9326929 0.60355633 0.47259736 0.86067975 0.32549068 0.29719397 0.20900185 0.38213238
0.067469954 0.19200175 0.121945836 0.15139589
00000000: f6c4 6e3f ab82 1a3f 48f8 f13e 8255 5c3f
00000010: b7a6 a63e cf29 983e 9504 563e dba6 c33e
00000020: b02d 8a3d 1b9c 443e bdbe f93d 8607 1b3e

bn4.weight f4 [16]
0.6176775 0.67252254 0.58012646 0.84077156 0.8350352 0.40965468 0.4801391 0.70795965
0.7859334 0.349567 0.37865222 0.7211091 0.33189827 0.5780472 0.6851873 0.38341814
00000000: 1d20 1e3f 702a 2c3f 2b83 143f ce3c 573f
00000010: dec4 553f 42be d13e cbd4 f53e d83c 353f
00000020: ee32 493f 72fa b23e b4de c13e 9b9a 383f
00000030: 92ee a93e e7fa 133f 6f68 2f3f 624f c43e

bn4.bias f4 [16]
-0.20150515 0.0050018723 0.44085622 -0.13579747 -0.014818661 0.6028501 0.07049041 -0.3613803
-0.12529121 0.74513227 0.6497086 0.15147567 0.8206862 0.0046110176 -0.053430278 1.112113
00000000: 5e57 4ebe bfe6 a33b e8b7 e13e 7e0e 0bbe
00000010: f8c9 72bc 6254 1a3f 475d 903d d706 b9be
00000020: 574c 00be fdc0 3e3f 4e53 263f 701c 1b3e
00000030: 7e18 523f 0518 973b b5d9 5abd b859 8e3f

bn4.running_mean f4 [16]
0.14380701 -0.45249104 -0.30218932 0.50652266 0.46818691 -0.06926751 -0.09168101 -0.7704853
0.0946147 -0.2112594 -0.24634562 -0.057725877 -0.012088959 -0.59302264 -0.29384542 -0.31803706
00000000: 2542 133e e8ac e7be 8fb8 9abe 78ab 013f
00000010: 32b6 ef3e 20dc 8dbd 41c3 bbbd 863e 45bf
00000020: 5ac5 c13d 6254 58be 0742 7cbe f871 6cbd
00000030: c510 46bc 55d0 17bf e872 96be c1d5 a2be

bn4.running_var f4 [16]
0.34874132 0.70425165 0.5937081 0.34213075 0.6121271 1.4819621 0.18354867 0.5130288
0.74550486 0.7915505 0.5636645 0.7141095 0.225767 0.26345935 0.6768025 0.43704316
00000000: 398e b23e d649 343f 41fd 173f c32b af3e
00000010: 5db4 1c3f efb0 bd3f 2ff4 3b3e db55 033f
00000020: 68d9 3e3f 0ea3 4a3f 514c 103f e1cf 363f
00000030: 772f 673e 25e4 863e ee42 2d3f 1fc4 df3e

fc5.weight f4 [64, 16]
0.00045477977 -0.00012220889 0.00033026148 0.00018108553 -0.00033296525 3.0776908e-05 -0.00017906769 0.00023370143
0.0006181501 -6.459362e-05 -0.00027863347 9.1093985e-05 0.00029150533 -9.319675e-06 -0.00011822919 0.00035040829
0.00036464212 -5.9114307e-05 7.127801e-05 0.00040165463 -9.962621e-05 -0.0001759865 0.00045890544 0.00011411746
1.4678427e-05 0.00016991478 -0.00012635588 3.132078e-05 -0.00051946624 3.0040364e-05 0.00017116069 -5.122582e-06
0.00051742396 0.00014631425 0.0005117556 0.00021920318 -0.00018860427 -0.0003592877 0.0002317162 -5.6524685e-05
3.9349903e-05 -0.00047379776 -9.216722e-06 0.0002610989 -7.489234e-05 -0.00068211055 -3.333563e-05 -0.000121232406
-0.00013172413 -0.00039773932 -0.00017366237 5.8749683e-05 -1.5951304e-05 -3.2294323e-05 -0.0002188225 -0.000114156945
0.00020455703 0.00014606887 -0.0004944582 0.00035695042 -0.000111341586 -0.00042627452 2.3942506e-05 0.00033327466
0.00015090231 1.1126055e-05 0.0003212894 -3.7421244e-06 -0.00027653022 0.00031575232 -0.0003355535 -0.00014727065
0.0003010152 -0.000220552 -0.00010073358 2.1872536e-05 0.00029026478 1.1179495e-05 -0.00024023949 0.0003175218
-0.095547564 0.4503636 -0.5139701 0.021199003 0.60869527 1.0340672 0.26547348 -0.36077976
0.57284576 -0.27386895 -0.47935876 -0.25139558 0.121885695 -0.010610481 -1.1652026 0.14811577
-0.0003152627 -0.00028602532 -0.00015110378 -8.348819e-05 0.00049889175 5.3586242e-05 0.00030740807 0.00033742856
-0.00021253453 0.0002715682 8.3372375e-05 0.00010450068 -0.00040782173 0.0002174312 6.674741e-05 -2.943713e-05
0.00057601114 0.00063744845 0.00052905444 0.00013998429 -4.21016e-05 -4.0634786e-06 0.00091046287 -0.00022308817
-0.00031753807 0.00011250663 0.00053983065 -0.00049594964 -0.00027933758 -0.00019267424 -0.00041808566 -0.0002486976
0.00044395987 0.00019305268 0.00030088512 -0.00015665367 -0.00019562422 0.00013484272 0.00014759827 -5.6959932e-05
2.9837081e-05 -0.00032262132 0.0002724218 -0.000118382675 0.00024390794 -0.00014008704 -0.00044220214 -0.00020184949
7.761329e-05 0.00024760797 0.00016649201 -0.00023760543 2.3270879e-05 -0.00020374566 -9.219174e-07 -0.00018371765
-6.879765e-05 -0.0004820666 0.0001049262 -0.000117209456 0.0003129496 -0.0005257712 -0.00034504276 -3.3809263e-06
0.00033663676 -4.6847905e-05 -0.00035035313 0.00072159193 3.5533958e-05 -0.00014011616 0.00018844921 -0.00064408546
-0.00011669752 1.6540893e-05 -0.00037223467 -0.000274978 -0.0009557778 0.0005752308 -4.406354e-06 0.00029118924
-1.4530332 0.9102316 -0.915773 -1.1348518 0.5973705 0.96046793 0.23648417 0.34422153
-1.5365508 1.048002 1.8122345 -1.1310326 -0.36088744 0.6791805 0.40272027 -1.264788
0.0005594195 0.00033361663 0.0003403052 -9.124553e-05 -0.00038899377 5.239943e-05 0.00041321557 -0.0002625649
-3.332343e-05 1.3374833e-05 -6.0196035e-05 -0.00021489017 -8.55543e-06 -0.00034769461 -0.00040874488 -0.00025254278
0.00022863185 0.0004334278 0.0003147334 7.881479e-05 -0.00047971317 -0.00022160965 0.0004975686 -9.8280616e-05
-9.7850054e-05 0.00018881417 3.5819754e-05 -0.0001791108 6.583074e-06 -0.00044078298 -0.00022464739 -0.00042375075
-0.00043717862 0.00012008139 -0.00013176458 -0.000266202 0.00010126943 0.00035271503 0.0001722315 0.00035179427
-0.0003567266 0.0005473725 0.00033102022 -0.00022021252 -0.00015337348 0.00017723073 0.00010634284 -0.00033219453
0.00019524255 0.00051015615 0.00044305582 -4.5002824e-05 -0.0003948891 -0.00052143843 0.0003373217 -0.00019670962
0.000301685 0.00022621099 3.1883746e-06 -0.00044743394 0.0006002197 5.4205415e-05 -8.057609e-05 -0.00033123145
00000000: 826f ee39 3325 00b9 f226 ad39 c7e1 3d39
00000010: d791 aeb9 7416 0138 1ec4 3bb9 c00d 7539
00000020: 5a0b 223a 7076 87b8 8d15 92b9 b609 bf38
00000030: 2fd5 9839 b35b 1cb7 d0f1 f7b8 01b7 b739
00000040: 702d bf39 81f1 77b8 177b 9538 2c95 d239
00000050: 6aee d0b8 0489 38b9 3f99 f039 5852 ef38
00000060: 5d43 7637 272b 3239 667e 04b9 6e5e 0338
00000070: ca2c 08ba 31ff fb37 9979 3339 a5e2 abb6
00000080: bca3 073a ef6b 1939 5627 063a e8d9 6539
00000090: 13c4 45b9 c75e bcb9 d8f8 7239 eb14 6db8
000000a0: a30b 2538 0f68 f8b9 85a1 1ab7 1ae4 8839
000000b0: 850f 9db8 aacf 32ba dcd1 0bb8 273e feb8
000000c0: 6d1f 0ab9 ab87 d0b9 2319 36b9 fe69 7638
000000d0: 2acf 85b7 c473 07b8 b873 65b9 8b67 efb8
000000e0: 5c7e 5639 102a 1939 879e 01ba 1325 bb39
000000f0: 0f80 e9b8 997d dfb9 24d8 c837 5ebb ae39
00000100: 883b 1e39 0baa 3a37 bc72 a839 3521 7bb6
00000110: 42fb 90b9 8f8b a539 3aed afb9 aa6c 1ab9
00000120: 94d1 9d39 fa43 67b9 ee40 d3b8 ea7a b737
00000130: ae2e 9839 918f 3b37 cce8 7bb9 0e79 a639
00000140: 71ae c3bd 0f96 e63e 8b93 03bf 88a9 ad3c
00000150: 74d3 1b3f 505c 843f 24ec 873e 20b8 b8be
00000160: 05a6 123f 8d38 8cbe 836e f5be ecb6 80be
00000170: 359f f93d 95d7 2dbc 5c25 95bf a9ab 173e
00000180: d849 a5b9 abf5 95b9 9d71 1eb9 6116 afb8
00000190: 0fc8 023a cac1 6038 9d2b a139 e5e8 b039
000001a0: cedb 5eb9 4461 8e39 34d8 ae38 6027 db38
000001b0: e8d0 d5b9 3efe 6339 befa 8b38 c1ef f6b7
000001c0: 74ff 163a 711a 273a 3eb0 0a3a bfc8 1239
000001d0: 4096 30b8 0459 88b6 21ac 6e3a c6ec 69b9
000001e0: 3d7b a6b9 89f1 eb38 6c83 0d3a 9e02 02ba
000001f0: 0e74 92b9 9908 4ab9 8232 dbb9 a063 82b9
00000200: 49c3 e839 2f6e 4a39 1ec0 9d39 6643 24b9
00000210: 7a20 4db9 9164 0d39 9cc4 1a39 43e8 6eb8
00000220: a54a fa37 8025 a9b9 d6d3 8e39 3744 f8b8
00000230: 8ac1 7f39 54e4 12b9 5ed7 e7b9 8fa7 53b9
00000240: 51c4 a238 61d1 8139 5c94 2e39 b925 79b9
00000250: d535 c337 8fa4 55b9 ae79 77b5 55a4 40b9
00000260: 7547 90b8 e2bd fcb9 d30b dc38 59ce f5b8
00000270: 6213 a439 e8d3 09ba dbe6 b4b9 dfe3 62b6
00000280: 9f7e b039 8e7e 44b8 9aaf b7b9 3729 3d3a
00000290: 4c0a 1538 25ec 12b9 739a 4539 d8d7 28ba
000002a0: 81bb f4b8 4cc1 8a37 7e28 c3b9 ec2a 90b9
000002b0: 2a8d 7aba 16cb 163a 4bda 93b6 c2aa 9839
000002c0: fefc b9bf f004 693f 1970 6abf d342 91bf
000002d0: 46ed 183f 3ae1 753f e828 723e ce3d b03e
000002e0: b2ad c4bf ee24 863f 4df7 e73f adc5 90bf
000002f0: 3dc6 b8be c6de 2d3f 5a31 ce3e 93e4 a1bf
00000300: 02a6 123a 44e9 ae39 fe6a b239 125b bfb8
00000310: dcf1 cbb9 76c7 5b38 dba4 d839 dda8 89b9
00000320: c3c4 0bb8 7864 6037 007b 7cb8 2454 61b9
00000330: 4b89 0fb7 c84a b6b9 cf4c d6b9 b867 84b9
00000340: e5bc 6f39 b23d e339 cd02 a539 5e49 a538
00000350: 0382 fbb9 e35f 68b9 436f 023a 011c ceb8
00000360: d934 cdb8 6bfc 4539 2b3d 1638 b0cf 3bb9
00000370: 2de4 dc36 e418 e7b9 538f 6bb9 dd2a deb9
00000380: 1f35 e5b9 35d4 fb38 492a 0ab9 0791 8bb9
00000390: 9c60 d438 9cec b839 0b99 3439 0771 b839
000003a0: 0907 bbb9 8c7d 0f3a c88c ad39 d9e8 66b9
000003b0: e1d2 20b9 03d7 3939 6104 df38 652a aeb9
000003c0: 06ba 4c39 00bc 053a f249 e839 6ac1 3cb8
000003d0: 1e09 cfb9 24b1 08ba 8dda b039 d643 4eb9
000003e0: 7a2b 9e39 0d33 6d39 dcf7 5536 9195 eab9
000003f0: 1058 1d3a 9f5a 6338 f5fa a8b8 22a9 adb9

fc5.bias f4 [64]
-0.0005189748 0.00022335428 0.00039452536 5.8460708e-05 -0.00051250035 -0.1939556 4.9279734e-06 -0.00013985041
1.9983784e-06 0.00020428961 0.00062560575 0.12243618 0.00023377013 0.00035970655 -0.00013472633 -7.970335e-05
0.00053365715 0.80898046 0.00039428155 -8.052928e-05 0.000714697 0.0005004989 7.480577e-05 0.00035889845
0.00012869523 -2.720362e-05 -0.00032498178 0.00028473686 0.0003031459 0.0007102707 -0.00031665998 5.7749585e-05
-0.0006997857 0.20443326 -9.2325616e-05 0.00011032779 0.0004408901 8.6027285e-05 -0.00022945218 0.00030724728
-0.106225096 0.0010735919 -0.00041968585 0.00015211495 -0.00026107449 0.0009348 7.112127e-05 6.713185e-05
-5.9578088e-05 -0.00073961 8.9495436e-05 0.00014613513 -0.00014819945 6.8683235e-05 0.00031821796 0.0005784297
-0.72775364 -8.913214e-05 0.00056452747 0.00026718003 -0.00012066846 5.1535495e-05 0.0006002946 -0.00012491182
00000000: cf0b 08ba 3534 6a39 4cd8 ce39 b533 7538
00000010: 5159 06ba 4c9c 46be f85a a536 cfa4 12b9
00000020: e11b 0636 9336 5639 b1ff 233a d2bf fa3d
00000030: 3120 7539 ff96 bc39 5345 0db9 6926 a7b8
00000040: 20e5 0b3a 5819 4f3f 93b7 ce39 d4e1 a8b8
00000050: 815a 3b3a ea33 033a 0be1 9c38 892a bc39
00000060: 5df2 0639 5433 e4b7 5162 aab9 bc48 9539
00000070: 8eef 9e39 7631 3a3a 6205 a6b9 2538 7238
00000080: d371 37ba f456 513e f09e c1b8 c85f e738
00000090: 4427 e739 8c69 b438 1a99 70b9 0816 a139
000000a0: 8b8c d9bd c4b7 8c3a 4809 dcb9 0c81 1f39
000000b0: d3e0 88b9 5e0d 753a f126 9538 23c9 8c38
000000c0: 7ce3 79b8 63e2 41ba 7faf bb38 da3b 1939
000000d0: fd65 1bb9 080a 9038 7ed6 a639 c3a1 173a
000000e0: 104e 3abf 74ec bab8 ccfc 133a 4c14 8c39
000000f0: 630f fdb8 d127 5838 175d 1d3a c3fa 02b9

fc6.weight f4 [64, 16]
-6.1710844e-06 -9.282224e-06 1.7588181e-06 5.971075e-06 -3.894002e-06 3.108964e-06 1.2200912e-06 7.696119e-06
5.2779374e-06 -2.8792153e-06 -4.1949393e-06 5.7407124e-06 -8.769587e-06 -1.0394935e-05 5.5239248e-06 -7.516198e-07
-7.880962e-06 1.3222078e-05 -1.1035822e-05 -4.9570053e-06 -1.3543164e-05 2.6934088e-06 4.962497e-06 -8.712905e-07
-6.4233222e-06 -5.448007e-07 -3.8597423e-06 6.454875e-06 3.0234773e-06 5.8656465e-06 -6.5168642e-06 3.3364054e-06
3.5681473e-06 9.2021753e-07 3.399739e-06 1.076479e-05 6.3525677e-06 -6.6112334e-06 1.0241664e-05 -9.4956624e-07
3.2676977e-07 -2.2495479e-07 1.747739e-06 -1.4875287e-06 -1.9639942e-06 1.9188092e-05 -1.2516032e-06 -7.3250358e-06
8.997143e-06 -8.4616113e-07 7.8415894e-07 -9.558875e-07 2.4484864e-06 2.3094774e-06 -5.7991156e-07 4.179691e-06
-8.572374e-06 -8.982446e-06 1.538116e-06 2.746074e-06 2.504959e-06 -6.937905e-06 -4.770455e-06 -3.5293638e-06
-1.4344007e-05 -5.0678145e-06 4.6687833e-06 -9.529291e-06 3.5412277e-06 1.2004573e-05 -1.7742836e-05 1.8365352e-05
-6.9473895e-06 2.5190197e-06 -1.7059176e-07 -5.0519297e-06 4.038572e-06 2.8646532e-06 -3.6710483e-07 -9.071363e-06
-0.33263806 0.13629216 0.32839298 0.67945 1.3674798 -1.0416911 -0.48410386 0.31852657
0.87185544 -0.8979108 -0.43202046 -0.18990952 -0.9893577 0.7591585 0.5245995 -1.7760212
-3.5329206e-06 -2.2137042e-06 5.869365e-06 -8.4525955e-06 5.882175e-06 2.9584442e-06 3.492402e-07 8.776687e-06
-3.0117187e-06 -7.952066e-06 -8.825949e-06 -1.8677412e-06 -1.9757037e-08 -1.716139e-05 4.482732e-06 -5.8665813e-07
5.3652498e-06 3.445401e-06 2.7204223e-06 -7.829356e-06 -7.922299e-06 2.5188923e-05 -1.2199049e-05 -8.232188e-06
-5.015433e-06 2.850843e-06 -1.6739917e-06 -3.2883902e-06 4.8337984e-07 1.2874343e-05 -5.538543e-06 7.4456096e-08
-4.4446997e-06 3.1350041e-06 4.476442e-07 1.0170425e-05 -5.2651485e-06 -8.24466e-07 1.2112157e-05 -1.7679038e-05
-1.0851903e-05 -1.9967e-06 -3.2997227e-06 -7.555138e-07 -4.767509e-06 -1.5494825e-05 -8.346179e-06 -5.142209e-06
2.1642052e-06 -5.4737e-06 6.136769e-06 1.5841206e-05 6.903472e-06 7.164148e-06 1.5045776e-05 -1.253043e-05
-8.8069544e-07 7.0139845e-07 -5.3706126e-06 5.6151202e-06 -3.3698839e-06 -1.1007342e-05 9.438025e-06 -2.4912244e-06
8.070542e-06 2.6542027e-06 3.7346847e-06 -1.5866966e-05 -9.19511e-06 4.9238442e-06 -1.3234326e-05 -3.0733855e-07
1.119271e-05 -5.6776446e-07 -5.93895e-06 5.6988133e-06 8.6080545e-06 -9.810236e-07 -4.4065696e-06 -6.376077e-06
0.21437207 1.1442449 -0.12932456 0.48603252 0.7375502 -0.00063857186 -0.33591783 0.118337475
-0.23178011 -0.6070621 -0.86804324 0.012059389 -0.6754898 -0.23833962 -0.24488549 -1.0764763
6.0909842e-06 -1.5452453e-06 -7.208996e-06 2.423756e-06 -7.9954425e-06 7.2215794e-06 -1.4473947e-06 -6.758891e-06
1.2631777e-05 -4.656098e-06 4.4234181e-07 -2.7355468e-06 2.0645105e-06 2.6372797e-06 -6.558179e-06 -6.365261e-07
-9.0562835e-06 7.2290914e-06 -3.757605e-06 -9.067072e-06 4.477822e-06 1.6155849e-06 3.2331607e-06 -2.3751378e-05
-4.7150496e-07 -8.054724e-06 -7.661251e-06 4.992098e-06 3.4646137e-06 3.7670782e-06 3.728853e-06 -1.4487313e-05
-6.92218e-06 -2.6337555e-06 -2.3022e-06 -4.2698628e-07 9.113919e-08 4.5217525e-06 -4.637991e-06 1.7285952e-08
-6.770999e-06 4.3448676e-06 1.3887635e-06 6.6906314e-06 -3.820213e-06 4.3706955e-06 -6.8169443e-06 -4.800567e-06
-7.598719e-06 1.4395188e-05 1.1892075e-06 -1.7313436e-06 -5.504472e-06 8.100457e-06 -1.5070451e-05 -2.470392e-07
8.832744e-06 -9.282684e-06 5.746068e-06 6.004399e-06 -6.903034e-06 -8.5277015e-06 -4.630159e-06 -7.549727e-06
00000000: 3611 cfb6 d9ba 1bb7 8810 ec35 255b c836
00000010: 39a9 82b6 98a3 5036 04c2 a335 941e 0137
00000020: 2319 b136 8b38 41b6 41c2 8cb6 58a0 c036
00000030: 1721 13b7 e865 2eb7 275a b936 ebc2 49b5
00000040: 7938 04b7 65d4 5d37 7f26 39b7 5a54 a6b6
00000050: 7237 63b7 69c0 3436 8683 a636 a1e2 69b5
00000060: eb87 d7b6 6b3e 12b5 ef82 81b6 f496 d836
00000070: f2e6 4a36 85d1 c436 70ab dab6 02e7 5f36
00000080: 4e74 6f36 de04 7735 1227 6436 6c9a 3437
00000090: 2428 d536 10d6 ddb6 9dd3 2b37 b2e5 7eb5
000000a0: e56e af34 1a8b 71b4 db93 ea35 19a7 c7b5
000000b0: 2acd 03b6 1df6 a037 c2fc a7b5 94c9 f5b6
000000c0: 6ff2 1637 c023 63b5 fe7e 5235 0b4c 80b5
000000d0: ad50 2436 85fc 1a36 38ab 1bb5 463f 8c36
000000e0: 11d2 0fb7 50b3 16b7 4371 ce35 3149 3836
000000f0: de1a 2836 26cc e8b6 e511 a0b6 02da 6cb6
00000100: 0aa7 70b7 320c aab6 8ba8 9c36 fedf 1fb7
00000110: d4a5 6d36 4067 4937 73d6 94b7 4b0f 9a37
00000120: 9f1d e9b6 6e0c 2936 e82b 37b4 bf83 a9b6
00000130: 1283 8736 5e3e 4036 8116 c5b4 3531 18b7
00000140: 894f aabe 2c90 0b3e 2023 a83e 6ff0 2d3f
00000150: 9409 af3f 2256 85bf 76dc f7be ea15 a33e
00000160: eb31 5f3f 7bdd 65bf c931 ddbe a477 42be
00000170: 8c46 7dbf 3658 423f 274c 063f aa54 e3bf
00000180: 1d17 6db6 268f 14b6 76f1 c436 9fcf 0db7
00000190: 805f c536 af89 4636 357f bb34 953f 1337
000001a0: ef1c 4ab6 dd69 05b7 2a13 14b7 19af fab5
000001b0: 2fb6 a9b2 cef5 8fb7 606a 9636 d77a 1db5
000001c0: 2507 b436 8a37 6736 8090 3636 d45a 03b7
000001d0: 04ea 04b7 cd4c d337 84aa 4cb7 fa1c 0ab7
000001e0: 3e4a a8b6 1c51 3f36 ebad e0b5 1dae 5cb6
000001f0: 9cc1 0135 e2fe 5737 b9d7 b9b6 ace4 9f33
00000200: ae23 95b6 f662 5236 c053 f034 a5a1 2a37
00000210: 48ab b0b6 df50 5db5 5135 4b37 724d 94b7
00000220: 9210 36b7 0bff 05b6 ce70 5db6 83ce 4ab5
00000230: 97f8 9fb6 e2fa 81b7 9106 0cb7 3d8b acb6
00000240: c33c 1136 baaa b7b6 72ea cd36 bbe2 8437
00000250: 5fa4 e736 9063 f036 1e6d 7c37 c939 52b7
00000260: ee68 6cb5 bc47 3c35 3635 b4b6 8469 bc36
00000270: 2a26 62b6 2dac 38b7 0258 1e37 e92e 27b6
00000280: b766 0737 db1e 3236 65a1 7a36 0d1a 85b7
00000290: b244 1ab7 8037 a536 ff08 5eb7 4a00 a5b4
000002a0: 53c8 3b37 7a68 18b5 3147 c7b6 6f38 bf36
000002b0: 506b 1037 b7ab 83b5 25dc 93b6 16f2 d5b6
000002c0: 5a84 5b3e 9e76 923f a86d 04be 41d9 f83e
000002d0: 17d0 3c3f d565 27ba 6cfd abbe eb5a f23d
000002e0: c457 6dbe 6c68 1bbf 1538 5ebf be94 453c
000002f0: e6ec 2cbf 4d0f 74be 43c3 7abe fac9 89bf
00000300: 2861 cc36 3966 cfb5 cee4 f1b6 d0a7 2236
00000310: 2a24 06b7 e550 f236 1a44 c2b5 6eca e2b6
00000320: 12ed 5337 943b 9cb6 ff7a ed34 5694 37b6
00000330: 058c 0a36 1ffc 3036 540e dcb6 bedd 2ab5
00000340: 71f0 17b7 6c91 f236 2a2b 7cb6 c71e 18b7
00000350: 3340 9636 13d7 d835 47f9 5836 b23d c7b7
00000360: 2623 fdb4 c722 07b7 d388 00b7 cc81 a736
00000370: 9c81 6836 e9cd 7c36 353d 7a36 890e 73b7
00000380: 1345 e8b6 93bf 30b6 7f7f 1ab6 8c3c e5b4
00000390: 4db8 c333 8fb9 9736 0aa0 9bb6 367c 9432
000003a0: 7032 e3b6 21ca 9136 8d65 ba35 1680 e036
000003b0: 612f 80b6 fda7 9236 1bbd e4b6 8e14 a1b6
000003c0: 80f8 feb6 dd82 7137 dc9c 9f35 8360 e8b5
000003d0: 0eb3 b8b6 33e7 0737 18d7 7cb7 cfa0 84b4
000003e0: 5930 1437 d3bc 1bb7 59ce c036 6579 c936
000003f0: 9ca0 e7b6 3312 0fb7 c35c 9bb6 a953 fdb6

fc6.bias f4 [64]
1.2889902e-05 4.517886e-06 1.733066e-05 2.2916445e-06 2.5036259e-06 -1.1320943 4.745951e-06 -8.985065e-06
1.2996264e-05 -8.3861505e-07 9.431605e-06 -0.50451773 -3.6131341e-06 6.641283e-06 -9.3554e-07 7.91608e-06
-1.286335e-05 -1.7961944 1.3365237e-05 4.3730497e-06 -6.491681e-06 7.4258282e-06 5.1936945e-06 2.5337058e-06
-1.7966371e-06 4.9636337e-06 -6.2191975e-06 1.090154e-06 1.7885619e-05 1.2474222e-05 -6.68805e-08 -4.052902e-06
-1.6818836e-06 -0.8261119 5.4093665e-08 3.7503546e-06 1.19715805e-05 6.932116e-06 1.6716656e-05 6.965345e-06
-0.5392892 1.5630389e-05 2.9305556e-06 1.4526337e-05 -1.658692e-05 7.115659e-06 1.5159084e-05 1.0339253e-05
5.422005e-06 1.24668995e-05 -5.8244755e-06 4.02532e-06 4.2408337e-06 5.733144e-06 9.807894e-06 4.9194227e-06
-1.2486917 9.618505e-06 8.716355e-06 2.6333869e-06 9.669217e-06 2.1928763e-05 1.1236489e-05 3.9454385e-06
00000000: b541 5837 5898 9736 4f61 9137 27ca 1936
00000010: f703 2836 77e8 90bf 693f 9f36 8fbe 16b7
00000020: 870a 5a37 301d 61b5 6f3c 1e37 1328 01bf
00000030: 2c79 72b6 30d8 de36 d221 7bb5 4ecf 0437
00000040: abcf 57b7 b3e9 e5bf 413b 6037 36bc 9236
00000050: 1dd3 d9b6 612b f936 7f45 ae36 bc08 2a36
00000060: fb23 f1b5 4a8d a636 80ae d0b6 6851 9235
00000070: 1309 9637 6048 5137 f29f 8fb3 2afe 87b6
00000080: 15bd e1b5 127c 53bf 9d54 6833 9aae 7b36
00000090: 8cd9 4837 6c9a e836 bf3a 8c37 dcb7 e936
000000a0: db0e 0abf 011e 8337 90aa 4436 24b6 7337
000000b0: 2424 8bb7 0cc3 ee36 c553 7e37 c176 2d37
000000c0: abee b536 ed28 5137 dd6f c3b6 3c11 8736
000000d0: 7c4c 8e36 555f c036 958c 2437 8511 a536
000000e0: 21d5 9fbf 2a5f 2137 763c 1237 3eb9 3036
000000f0: f938 2237 a9f3 b737 5a84 3c37 0f63 8436

fc_decode.weight f4 [16, 64]
-0.055608448 0.008750743 0.03195642 0.016708361 -0.008749286 -1.0462359 0.030911453 0.0150616355
0.06517769 0.013396313 0.035488855 0.096557 0.040720105 0.08951963 -0.027372869 -0.1782101
-0.15683836 0.026951177 -0.043350805 -0.0094420975 0.040648315 0.0066074864 -0.013953034 0.11767451
0.065359384 -0.036853515 0.010691398 0.016470447 0.015398863 0.15076934 0.11017422 -0.03400629
-0.026058573 0.31231785 -0.21032304 0.014784957 0.006993093 0.0895971 0.0029415318 0.009858279
0.17618653 -0.032659538 0.06732541 0.0064277984 -0.02155037 -0.013798118 0.0612718 -0.02143189
-0.019677412 -0.012046387 -0.050213404 -0.031674188 0.01412558 0.046766236 0.046575204 0.07176673
0.08259472 -0.062080335 0.026686532 0.17355374 -0.062485278 0.016928041 0.013291991 -0.035586175
0.053466607 -0.00091884 -0.006100358 0.03613384 0.04703029 -0.4456222 -0.03719058 -0.006602091
-0.0313022 -0.044507805 0.008359981 -0.69290173 -0.013971223 0.022823695 0.062757924 0.094769694
0.021980995 -0.60031277 0.009453899 -0.006637317 -0.05527817 0.034688395 -0.06726671 -0.022499446
-0.003052467 0.016629236 0.04192835 -0.023213182 -0.019150743 -0.07430397 -0.0076500387 -0.054633867
0.0043291175 -1.1406766 0.0011874259 0.05139626 -0.066215195 -0.0017719028 -0.016564699 -0.014009528
0.37087208 -0.086617365 -0.027565883 -0.0007607941 -0.007451096 -0.02022286 0.046593096 0.071699515
0.008367616 -0.008432685 0.043309644 0.028910035 0.018909058 -0.009468229 -0.06859902 -0.048724398
-0.25484625 0.039882474 -0.043976154 -0.064898044 0.08263908 -0.057600807 -0.040628668 0.024300171
-0.021793518 0.07549264 -0.045264628 -0.021375084 -0.096081726 -0.62120444 0.08816847 0.0096175745
-0.102178246 -0.06510812 -0.01300482 0.30997035 -0.046265416 -0.10844623 -0.00042612883 0.08887658
0.0590918 0.110904545 -0.06938974 0.03439852 -0.025442937 -0.002335332 -0.0055465107 -0.16782328
-0.0010295584 0.06980153 0.019616535 0.002029732 -0.040039524 -0.04069181 -0.065772586 0.0031338169
0.07359326 -0.36177805 0.16635722 0.022960043 0.030942244 -0.048858836 0.096270494 0.008807793
0.29654342 -0.029506039 -0.013885836 0.04561159 -0.03440674 -0.06945892 -0.0705479 0.028165432
0.041903596 0.045712095 0.05126043 -0.010162662 -0.02367885 -0.023364337 -0.0036881822 -0.03021786
0.47888356 0.006050267 -0.017484177 -0.12214178 0.071606055 -0.0077713034 -0.0754125 0.052217968
-0.005504605 0.03781624 -0.05821781 -0.07581671 -0.030567158 0.0454358 0.057795513 0.013464935
0.025418095 -0.019214427 -0.010926821 -0.26083627 0.018897658 0.02580903 0.009982142 -0.054353517
-0.040622436 0.28623232 -0.06565816 0.048932295 0.031589728 -0.019992122 0.03897658 -0.017467055
-0.006310971 0.02537884 -0.066172816 0.017617688 -0.027038787 0.023544203 0.03541589 0.004664606
0.009651816 -0.026908234 0.051281024 -0.007265006 0.0329927 0.027692229 0.030338591 -0.00742467
0.48634452 0.17164835 -0.023028867 -0.024669986 0.007023064 0.05046134 -0.07543926 -0.015472459
0.039177384 0.03682071 0.006431606 -0.01078786 -0.03203344 0.01557433 0.10791688 0.07252924
-0.18273643 -0.00989696 -0.026182508 0.078386486 -0.025750265 0.0394282 0.004848642 -0.028492749
00000000: afc5 63bd 475f 0f3c bce4 023d f9df 883c
00000010: 2a59 0fbc 0feb 85bf 043a fd3c 14c5 763c
00000020: e17b 853d 367c 5b3c c35c 113d adbf c53d
00000030: 20ca 263d 1156 b73d 113d e0bc b57c 36be
00000040: 3c9a 20be b7c8 dc3c 9d90 31bd 07b3 1abc
00000050: d97e 263d 9d83 d83b 449b 64bc 55ff f03d
00000060: 24db 853d b6f3 16bd f92a 2f3c 08ed 863c
00000070: 834b 7c3c 4763 1a3e 05a3 e13d 2e4a 0bbd
00000080: ca78 d5bc 20e8 9f3e ec5e 57be 9b3c 723c
00000090: 5126 e53b af7e b73d b7c6 403b 9e84 213c
000000a0: 3e6a 343e 02c6 05bd e8e1 893d 48a0 d23b
000000b0: 678a b0bc 8011 62bc 24f8 7a3d ee91 afbc
000000c0: 8632 a1bc 365e 45bc 92ac 4dbd cbbc 01bd
000000d0: fa6e 673c f48d 3f3d a4c5 3e3d 6ffa 923d
000000e0: 6c27 a93d f347 7ebd b79d da3c 12b8 313e
000000f0: 90f0 7fbd adac 8a3c a7c6 593c cfc2 11bd
00000100: cdff 5a3d 4fde 70ba 83e5 c7bb 1401 143d
00000110: d5a2 403d 9828 e4be 2655 18bd 5a56 d8bb
00000120: bc36 00bd d14d 36bd 4df8 083c 0262 31bf
00000130: 8ee7 64bc c2f8 ba3c 3a87 803d 9d16 c23d
00000140: 7d11 b43c 19ae 19bf 87e4 1a3c da7d d9bb
00000150: 5d6b 62bd 6b15 0e3d 21c3 89bd c250 b8bc
00000160: e60b 48bb 093a 883c 10bd 2b3d 9229 bebc
00000170: 05e2 9cbc ae2c 98bd 2dad fabb c3c7 5fbd
00000180: 45db 8d3b b101 92bf 67a3 9b3a e284 523d
00000190: d59b 87bd 313f e8ba b1b2 87bc 3888 65bc
000001a0: f2e2 bd3e 7264 b1bd d9d1 e1bc 0770 47ba
000001b0: 5328 f4bb 69aa a5bc 67d8 3e3d 32d7 923d
000001c0: 5318 093c 3f29 0abc 7465 313d bdd4 ec3c
000001d0: 2be7 9a3c a120 1bbc a57d 8cbd 3c93 47bd
000001e0: 357b 82be ce5b 233d 5720 34bd 44e9 84bd
000001f0: ae3e a93d d3ee 6bbd 3f6a 26bd 2711 c73c
00000200: 5288 b2bc e39b 9a3d 6767 39bd cd1a afbc
00000210: 7fc6 c4bd 4107 1fbf ac91 b43d 0893 1d3c
00000220: d442 d1bd 6857 85bd 2b12 55bc 6fb4 9e3e
00000230: ce80 3dbd 0f19 debd 0b6a dfb9 ed04 b63d
00000240: 3e0a 723d ec21 e33d 351c 8ebd 76e5 0c3d
00000250: b56d d0bc 5f0c 19bb 81bf b5bb ded9 2bbe
00000260: 3ff2 86ba 1bf4 8e3d dbb2 a03c 4105 053b
00000270: 7c00 24bd 75ac 26bd c7b3 86bd b960 4d3b
00000280: 10b8 963d f93a b9be 8c59 2a3e b316 bc3c
00000290: 977a fd3c 3420 48bd 7729 c53d 904e 103c
000002a0: 8ad4 973e a6b6 f1bc 6b81 63bc 38d3 3a3d
000002b0: 15ee 0cbd 7a40 8ebd 6b7b 90bd 31bb e63c
000002c0: 1ba3 2b3d 9b3c 3b3d 75f6 513d 4b81 26bc
000002d0: 26fa c1bc 9166 bfbc 6eb5 71bb 728b f7bc
000002e0: 3a30 f53e 5141 c63b fa3a 8fbc 7825 fabd
000002f0: 32a6 923d 6ba6 febb de71 9abd 82e2 553d
00000300: f95f b4bb 34e5 1a3d cc75 6ebd cb45 9bbd
00000310: fa67 fabc e41a 3a3d fdba 6c3d 089c 5c3c
00000320: 9c39 d03c 9367 9dbc 6906 33bc 558c 85be
00000330: 43cf 9a3c 756d d33c 238c 233c cba1 5ebd
00000340: b663 26bd 0b8d 923e c977 86bd 3b6d 483d
00000350: 3b64 013d 85c6 a3bc e8a5 1f3d 1217 8fbc
00000360: 43cc cebb 49e7 cf3c 9d85 87bd f852 903c
00000370: 7280 ddbc c6df c03c 4110 113d 8dd9 983b
00000380: a722 1e3c a86e dcbc 0d0c 523d 4a0f eebb
00000390: 5a23 073d d0da e23c a388 f83c a54a f3bb
000003a0: 2602 f93e 96c4 2f3e 09a7 bcbc b618 cabc
000003b0: bb21 e63b 8db0 4e3d e67f 9abd 3280 7dbc
000003c0: 7778 203d 50d1 163d 39c0 d23b 90bf 30bc
000003d0: 7f35 03bd 7a2b 7f3c 8603 dd3d 368a 943d
000003e0: 421f 3bbe dc26 22bc b37c d6bc 1889 a03d
000003f0: 38f2 d2bc 777f 213d 5be1 9e3b a069 e9bc

fc_decode.bias f4 [16]
-1.4711471 0.018183548 0.22613144 -0.00481498 -0.14098608 -0.16381834 -0.77008855 -0.20037636
0.6670836 -0.45578524 -0.61416954 0.4138918 -0.18221496 0.18745968 -0.08181238 0.034546863
00000000: 8c4e bcbf aaf5 943c 008f 673e fbc6 9dbb
00000010: a85e 10be ffbf 27be 8624 45bf 762f 4dbe
00000020: fec5 2a3f af5c e9be 373a 1dbf a0e9 d33e
00000030: 8f96 3abe 6ef5 3f3e 408d a7bd 0381 0d3d
