saved_models_2D/VAE_patch_folds/CVAE2D_32_0.5_fold_3.pth (torch, 45494 bytes, 49 tensors)

conv1.weight f4 [3, 1, 5, 5]
0	0x3e963fbc	0.293455
1	0x3e55923f	0.2085657
2	0x3e8f6693	0.28007945
3	0x3e8a6eed	0.27037755
4	0x3eae00fa	0.3398512
5	0x3e69dab7	0.2283734
6	0x3d85d2cd	0.06534348
7	0x3da04100	0.07824898
8	0x3e2ab82c	0.16671818
9	0x3e8dd294	0.2769972
10	0x3e86e896	0.26349324
11	0x3dba8f58	0.09109372
12	0xbe0a7319	-0.13520469
13	0x3db767f3	0.089553736
14	0x3e286eae	0.16448471
15	0x3e96255f	0.29325387
16	0x3db4ba3d	0.08824585
17	0x3dd45327	0.103674226
18	0x3df2c777	0.11854451
19	0x3e2a8f16	0.16656145
20	0x3e789fe7	0.24279748
21	0x3e8e9550	0.2784829
22	0x3e2954b4	0.16536218
23	0x3eaa5379	0.3326681
24	0x3ebad855	0.36493173
25	0xbf1be9d5	-0.60903674
26	0xbb74cb8b	-0.0037352766
27	0xbf325951	-0.69667536
28	0x3e2d264c	0.1690914
29	0xbf8f0dc2	-1.1176074
30	0xbdf233e1	-0.11826301
31	0xbe91dedd	-0.28490344
32	0xbd55e71c	-0.052222356
33	0xbddb8f7f	-0.10720729
34	0xbed7e4ed	-0.42166844
35	0xbe067e26	-0.1313406
36	0x3d941cdc	0.07232067
37	0xbeb40985	-0.35163513
38	0x3d808072	0.06274499
39	0xbf732a7c	-0.949867
40	0xbe2b6cdf	-0.1674075
41	0xbecb2a0c	-0.39680517
42	0xbe1bc527	-0.15211926
43	0xbe9c97f7	-0.3058469
44	0xbe938b78	-0.28817344
45	0x3e995892	0.29950386
46	0xbe0c845c	-0.13722366
47	0x3c8bbe9a	0.01705866
48	0xbe3bedbe	-0.1835241
49	0x3b8e8058	0.004348796
50	0xbf214f84	-0.63011956
51	0x3d4e1859	0.05031619
52	0xbe16124b	-0.14655416
53	0x3e4964d3	0.19667368
54	0x3d98194c	0.074267
55	0xbe4b5864	-0.19857937
56	0x3bd885b3	0.006607735
57	0xbde07d13	-0.10961356
58	0x3ea1c848	0.31598115
59	0xbdd2d9ae	-0.10295425
60	0xbf25dc07	-0.6478886
61	0xbe1e0b46	-0.15433988
62	0x3e767442	0.24067786
63	0x3becee72	0.0072305733
64	0xbf1a8aee	-0.6036824
65	0xbea4a5be	-0.321577
66	0x3ed455d4	0.41471732
67	0xbe8a8bc6	-0.27059764
68	0x3d9f6297	0.077824764
69	0xbdbf1ef6	-0.09332077
70	0xbf64fbeb	-0.89446896
71	0x3c9141a6	0.017731499
72	0xbea3af52	-0.31969696
73	0xbea1da35	-0.3161179
74	0xbe4ebb97	-0.20188747

conv1.bias f4 [3]
0	0x3e5448d2	0.20730904
1	0xbd1bb799	-0.03801689
2	0xbd5e38a5	-0.05425324

conv2.weight f4 [4, 3, 3, 3]
0	0x3e955cd4	0.29172385
1	0x3e33d41f	0.17561387
2	0x3eb9be86	0.3627817
3	0x3e4c590f	0.19955848
4	0xbe8ad749	-0.27117375
5	0x3e966fa3	0.29382047
6	0x3eb294ab	0.3487905
7	0x3e384028	0.17993224
8	0x3eaa024a	0.3320487
9	0xbc965195	-0.018349448
10	0xbe2a0689	-0.16604055
11	0xbd92ba5f	-0.07164454
12	0x3e16ec2a	0.14738527
13	0x3bef6001	0.0073051457
14	0xbcac5214	-0.021035232
15	0xbedf9889	-0.43671063
16	0x3da28b46	0.079367206
17	0x3eeebb5b	0.46627316
18	0x3d398cea	0.0453004
19	0xbdb6fc92	-0.08934893
20	0xbebea420	-0.37234592
21	0x3d6d0652	0.057867356
22	0x3f061a9e	0.52384365
23	0xbdb036f6	-0.08604233
24	0x3f1103bf	0.5664634
25	0x3ec74b53	0.38924655
26	0x3db44147	0.08801513
27	0x3eaca117	0.33716652
28	0x3e8d8179	0.27637842
29	0xbecb88cd	-0.39752808
30	0xbe8c4497	-0.2739608
31	0xbd1e3f50	-0.0386346
32	0xbe231631	-0.15926434
33	0xbee05b72	-0.43819767
34	0xbde8f078	-0.11373991
35	0x3e2c85b1	0.16847874
36	0x3f23db66	0.6400665
37	0x3e8a6728	0.27031827
38	0x3e8129d0	0.25227213
39	0x3de0af03	0.10970881
40	0x3dda3d92	0.10656275
41	0x3d92d295	0.071690716
42	0xbec9f5aa	-0.3944524
43	0xbe3c7e46	-0.18407544
44	0xbe4a760d	-0.19771595
45	0x3f64c787	0.89366955
46	0x3e6976ea	0.22799268
47	0x3e51097c	0.20413774
48	0x3e30ad55	0.17253621
49	0x3e7a84b8	0.2446469
50	0x3e2a0dbf	0.16606806
51	0x3ec8d50c	0.39225042
52	0x3ef20c4d	0.4727501
53	0x3e4831ec	0.19550294
54	0xbf07bc1c	-0.5302141
55	0xbd86c77a	-0.06581016
56	0x3e9964f0	0.29959822
57	0xbe5e5205	-0.21710975
58	0xbdb7b3ea	-0.08969863
59	0xbe14d515	-0.1453441
60	0xbf4081c9	-0.75198036
61	0xbe42cd2b	-0.19023578
62	0xbeefdfdc	-0.4685048
63	0x3c2781fe	0.010223864
64	0xbda18406	-0.078865096
65	0xbf3ae44f	-0.7300462
66	0xbf099af7	-0.5375208
67	0xbe437953	-0.1908925
68	0xbd023c70	-0.03179592
69	0xbe835c1e	-0.25656217
70	0xbec9d179	-0.39417627
71	0xbde2ecbc	-0.1108031
72	0x3ee3b4bb	0.44473824
73	0x3dcf6538	0.10126728
74	0x3e4e9b0a	0.2017633
75	0x3e0a3cc5	0.13499744
76	0x3e26f639	0.16304864
77	0xbeba4a38	-0.3638475
78	0x3f4eee34	0.8083222
79	0x3e8b236f	0.2717547
80	0x3e87297c	0.26398838
81	0xbec6f7fb	-0.3886107
82	0x3db0c973	0.086321734
83	0x3dd3fd74	0.10351077
84	0x3ea2d9ba	0.31806737
85	0xbe3bbce1	-0.1833377
86	0x3ae5c17e	0.0017528979
87	0x3d931a09	0.071827
88	0xbd89d59f	-0.06730198
89	0xbe3de8e1	-0.18545868
90	0x3ea9d627	0.33171198
91	0x3e753c00	0.2394867
92	0x3e6eb854	0.23312503
93	0x3ec8cd70	0.39219236
94	0x3f00fdca	0.5038725
95	0x3e8f66f9	0.2800825
96	0x3dd5542f	0.10416447
97	0x3ed9c1ea	0.42530757
98	0x3f2f0bf1	0.68377596
99	0x3d720341	0.059085134
100	0xbe13179f	-0.1436448
101	0xbec89464	-0.39175713
102	0x3e9bb373	0.30410346
103	0x3f0426e0	0.5162182
104	0x3d1d507a	0.038406827
105	0x3da65732	0.081221
106	0x3e9f94e6	0.31168288
107	0x3f38b3f8	0.7214961

conv2.bias f4 [4]
0	0xbe89b280	-0.26893997
1	0xbe7f9035	-0.24957354
2	0xbd7f621b	-0.06234942
3	0xbb8ed33b	-0.0043586767

conv3.weight f4 [12, 4, 3, 3]
0	0x3ed68d35	0.41904607
1	0x3e263b7e	0.16233632
2	0xbe57d51c	-0.21077389
3	0x3e254c5f	0.16142415
4	0xbd71d536	-0.059041224
5	0xbe0fb403	-0.14033513
6	0x3de42019	0.11138935
7	0xbdf434cc	-0.11924133
8	0xbe1c2032	-0.15246657
9	0xbf021591	-0.5081416
10	0xbebfec23	-0.37484846
11	0x3e26c1d6	0.1628488
12	0xbe3ac76f	-0.1824014
13	0x3e0e6165	0.1390434
14	0x3dffd3df	0.12491583
15	0xbf01dcc9	-0.50727516
16	0x3e8a19da	0.26972848
17	0x3e6e4a98	0.23270643
18	0x3e292f37	0.16521917
19	0xbde3f694	-0.111310154
20	0x3de6c95f	0.11268877
21	0xbdff2ba8	-0.12459499
22	0xbcc24c89	-0.023718135
23	0x3e6ffb96	0.23435816
24	0xbe364107	-0.17798243
25	0x3d52d217	0.05146989
26	0x3dbccbdd	0.09218571
27	0x3d231934	0.039818957
28	0xbe1b9989	-0.15195288
29	0x3e433a01	0.19065095
30	0x3e432a09	0.19059004
31	0xbe9a11f3	-0.3009182
32	0x39c2abbf	0.00037130524
33	0xbe83c291	-0.2573438
34	0x3d9fb0d6	0.07797401
35	0x3d91dc26	0.07122068
36	0xbe52f552	-0.20601395
37	0x3d573ce7	0.052548315
38	0x3ebae4fa	0.3650282
39	0xbea7de29	-0.32786682
40	0x3dfecd35	0.12441484
41	0x3d8f549b	0.06998559
42	0xbe80f6a6	-0.25188178
43	0xbe3e0b20	-0.18558931
44	0x3ebe0ade	0.37117666
45	0xbc8a6812	-0.016895328
46	0xbd71eea7	-0.059065487
47	0xbdbbd5b0	-0.09171617
48	0xbdb30d48	-0.087427676
49	0xbe569e81	-0.20958902
50	0x3dff0217	0.124515705
51	0x3dafe6c4	0.08588937
52	0xbd98fbda	-0.07469912
53	0x3ea2b2ff	0.31777188
54	0x3d662ed5	0.056197006
55	0xbc84e129	-0.016220646
56	0xbda7ddd2	-0.08196606
57	0x3e08e4d1	0.13368537
58	0x3cf786e5	0.03021569
59	0xbde70e07	-0.112819724
60	0x3d5333fe	0.051563255
61	0x3e170d0b	0.14751069
62	0xbe80ebc4	-0.25179875
63	0x3eec7cae	0.46188873
64	0x3de06ee9	0.109586544
65	0xbf191a06	-0.59805334
66	0x3e4934af	0.19649003
67	0x3d9cbd2f	0.076532714
68	0xbea53300	-0.32265472
69	0x3e917feb	0.28417906
70	0xbc5b654e	-0.013390852
71	0xbeb73391	-0.3578153
72	0xbde0cae3	-0.109761976
73	0xbe892ee7	-0.26793596
74	0xbf0bde34	-0.5463593
75	0xbe2cd222	-0.16877034
76	0x3ea67c92	0.32516915
77	0x3ddda5f8	0.10822672
78	0x3ead3a57	0.33833572
79	0x3c944fc4	0.018104441
80	0x3ecbcb64	0.39803612
81	0x3da0cbec	0.07851395
82	0x3e670fde	0.22564647
83	0x3e20ba4c	0.15696067
84	0xbce5fbcf	-0.028074173
85	0x3ed4b416	0.41543645
86	0xbda44f4c	-0.08022937
87	0xbe58d7fa	-0.21176139
88	0xbe1da6be	-0.15395638
89	0xbe5ad5f1	-0.21370675
90	0xbdc4999f	-0.095996134
91	0x3e0a9fbf	0.13537501
92	0xbee09bad	-0.4386877
93	0xbe673e10	-0.22582269
94	0x3e54360e	0.20723745
95	0xbf6d4221	-0.9267903
96	0xbf3fab46	-0.7487072
97	0xbe624aa4	-0.22098786
98	0xbe2378bc	-0.15964025
99	0xbe04d785	-0.12972839
100	0xbdf0c409	-0.11756141
101	0xbedb9809	-0.4288943
102	0x3eb19f6f	0.3469195
103	0x3e659195	0.22418816
104	0xbeacd4c9	-0.33756092
105	0x3daedfa2	0.08538748
106	0x3ec475f9	0.38371256
107	0xbf233df1	-0.6376639
108	0x3ee10326	0.43947715
109	0x3eab7a7f	0.33491895
110	0x3e5a8841	0.21341039
111	0xbf06366a	-0.5242678
112	0x3ccd6689	0.025073307
113	0xbd51f985	-0.05126335
114	0xbe1600a8	-0.14648688
115	0xbe01dc37	-0.12681662
116	0xbe3beabf	-0.18351267
117	0x3e567de0	0.20946455
118	0xbf1c8a83	-0.6114885
119	0xbe08ed4c	-0.13371772
120	0x3ea2c8ec	0.31793916
121	0xbce7cc28	-0.028295591
122	0x3be094ac	0.0068536606
123	0x3e84cd4f	0.25937888
124	0x3b8967a9	0.0041932655
125	0xbe45d87f	-0.19320868
126	0x3d6a3340	0.057177782
127	0xbe9640d2	-0.2934633
128	0xbd392673	-0.045202684
129	0x3e99346e	0.29922813
130	0xbc195958	-0.00935968
131	0x3de403bf	0.11133527
132	0x3e8c2577	0.27372333
133	0x3e86a28c	0.26295888
134	0xbd8df3f6	-0.069312975
135	0xbe93dda2	-0.2888003
136	0xbe89fbdc	-0.26949966
137	0xbe4171d0	-0.18891072
138	0x3e055a8b	0.1302282
139	0x3dd00318	0.1015684
140	0x3deb8cdb	0.115014754
141	0x3ef918cc	0.4865173
142	0x3e8689e3	0.26277074
143	0x3effe898	0.49982142
144	0x3ca0c2b8	0.0196241
145	0xbe96ad0e	-0.29428905
146	0xbe89b09e	-0.2689256
147	0xbc419969	-0.011816361
148	0x3e534b5c	0.20634216
149	0xbd60d794	-0.05489309
150	0x3ed64a86	0.41853732
151	0x3ea81382	0.32827383
152	0x3ea20b31	0.31649163
153	0xbdd1a6cb	-0.10236891
154	0xbee8cf7f	-0.45470807
155	0x3e86d3c8	0.2633345
156	0xbe5d7cca	-0.21629634
157	0xbdf225c6	-0.11823611
158	0xbe8f0caa	-0.2793935
159	0x3e1e2b90	0.15446305
160	0x3df4f13d	0.11960075
161	0xbf374e33	-0.716037
162	0xbe8bde66	-0.27318114
163	0x3eec034d	0.46096268
164	0x3f14ea94	0.5817044
165	0xbe104c81	-0.14091684
166	0xbd581bb3	-0.05276079
167	0xbd86cce4	-0.065820485
168	0x3ebd9470	0.3702731
169	0x3d7e820b	0.062135737
170	0xbd7c9287	-0.061663177
171	0xbe7049d2	-0.2346566
172	0x3f05694e	0.5211381
173	0x3ea5d10b	0.3238605
174	0xbe311384	-0.17292601
175	0x3eb8c66e	0.3608889
176	0xbdfef68c	-0.12449369
177	0x3e043143	0.12909417
178	0xbeabe799	-0.33575132
179	0xbeaad15d	-0.33362857
180	0xbd90930b	-0.07059296
181	0x3d68744b	0.05675153
182	0xbebad13e	-0.36487764
183	0x3e876d24	0.26450455
184	0xbdd3f9b6	-0.10350363
185	0xbeccb00d	-0.39978066
186	0x3ef82b94	0.48470747
187	0x3ed1f78b	0.41009173
188	0xbe1fe999	-0.15616454
189	0x3e78ae67	0.24285279
190	0x3d35c3ec	0.0443763
191	0xbca9183b	-0.020641437
192	0x3d4a6e67	0.049421694
193	0xbe848f44	-0.25890553
194	0x3d321bcb	0.043483537
195	0xbee2bd63	-0.44285116
196	0xbf00e509	-0.5034948
197	0xbea3a36c	-0.31960618
198	0x3daafcd3	0.08349004
199	0xbeb344ab	-0.35013327
200	0xbcca4705	-0.024692068
201	0xbbeea361	-0.00728266
202	0xbe388397	-0.18018948
203	0xbe073c79	-0.13206662
204	0x3e25fad3	0.16208963
205	0xbf185e75	-0.5951913
206	0xbccb75db	-0.024836471
207	0x3ed451a7	0.41468546
208	0xbe2723da	-0.1632227
209	0x3ed9fc75	0.42575422
210	0x3eeed75b	0.46648678
211	0x3d70dfb0	0.058807075
212	0xbd5fda6a	-0.054651655
213	0xbd98e143	-0.0746484
214	0xbe1d6725	-0.15371378
215	0x3ecaff34	0.3964783
216	0xbe99acdf	-0.30014703
217	0xbd00230e	-0.03128343
218	0x3ddfc88b	0.109269224
219	0xbbeab894	-0.0071631167
220	0xbe91dd72	-0.28489262
221	0x3b8a91da	0.0042288126
222	0x3ce3af0c	0.02779343
223	0x3e843f99	0.2582977
224	0x3f21750b	0.6306922
225	0xbd85b8a8	-0.06529361
226	0x3e667291	0.22504641
227	0x3e782e58	0.24236429
228	0xbe16caf9	-0.14725865
229	0xbe3ef80f	-0.18649314
230	0x3c1e496d	0.009661061
231	0xbefcff21	-0.49413398
232	0xbe6b5467	-0.22981416
233	0xbdfe9908	-0.12431532
234	0x3c2e3d79	0.010634773
235	0xbdf2aea4	-0.11849716
236	0xbe863647	-0.26213285
237	0x3e5a7ae3	0.2133594
238	0xbe1402a6	-0.14454135
239	0xbe6ba9d8	-0.23014009
240	0xbd95334e	-0.07285176
241	0x3e8c997c	0.2746085
242	0xbef3bd12	-0.47605187
243	0x3efe2452	0.49637085
244	0x3eb4add1	0.3528886
245	0xbd6a2710	-0.05716616
246	0x3e8626d7	0.26201507
247	0x3df04336	0.117315695
248	0x3d9c77dd	0.076400496
249	0x3e5ab202	0.21356967
250	0xbe9ec335	-0.31008306
251	0xbea9eca4	-0.33188355
252	0xbe8350cb	-0.25647578
253	0xbe1d67c9	-0.15371622
254	0x3df0e63a	0.11762662
255	0xbe902142	-0.28150374

conv3.bias f4 [12]
0	0x3e06a96c	0.13150567
1	0x3bde5437	0.0067849415
2	0x3d5fd98c	0.05465083
3	0xbd5a2fc7	-0.05326822
4	0xbe1b55b1	-0.15169407
5	0xbd274798	-0.04083976
6	0xbdd109c3	-0.1020694
7	0x3e1ea5a3	0.15492873
8	0x3e3622ec	0.17786759
9	0x3e320e0f	0.17388175
10	0x3e32fddc	0.17479652
11	0x3d961aba	0.073293164

conv4.weight f4 [16, 12, 3, 3]
0	0x3e908cfa	0.28232557
1	0xbe9aed5f	-0.30259225
2	0xbea704e0	-0.32620907
3	0x3d8fdf6b	0.070250355
4	0xbe77fc31	-0.24217297
5	0xbeade968	-0.33967137
6	0x3dc041db	0.09387561
7	0xbc7376ef	-0.014859899
8	0xbe59ffb8	-0.21288955
9	0xbc3abcf8	-0.011397593
10	0x3e33d8c1	0.17563154
11	0xbae152a5	-0.0017190768
12	0x3e1f3e4b	0.15551107
13	0xbe0b35ff	-0.13594817
14	0x3e10cc8d	0.1414053
15	0xbd16a81a	-0.036781408
16	0x3deaf8ac	0.11473212
17	0x3d97c5aa	0.07410748
18	0xbbce5a8e	-0.006297416
19	0x3e91a989	0.28449658
20	0x3d9d4828	0.07679778
21	0xbbdf5425	-0.0068154507
22	0xbd9f1151	-0.07766975
23	0xbe035101	-0.1282387
24	0xbccd01e4	-0.025025316
25	0xbe5c4aaa	-0.21512857
26	0xbe7ba928	-0.24576247
27	0x3ebd7a2d	0.37007275
28	0xbe363de4	-0.17797047
29	0xbe0d644e	-0.13807794
30	0x3d7031ed	0.058641363
31	0x3d58f6e7	0.05296984
32	0x3e5510e5	0.20807226
33	0x3e662103	0.2247353
34	0x3e13a00f	0.14416526
35	0xbc2469f5	-0.010035028
36	0xbe9f3668	-0.31096196
37	0x3c996bf3	0.018728232
38	0xbe827e92	-0.2548719
39	0xbd8c483f	-0.06849717
40	0x3e1031c9	0.14081492
41	0xbea9a4b3	-0.33133468
42	0x3d6f96d7	0.05849346
43	0x3d907609	0.070537634
44	0x3e08df5b	0.13366453
45	0xbe3bb7af	-0.18331788
46	0x3dfa7925	0.12230138
47	0x3db02c7a	0.08602233
48	0x3dc7a2d7	0.09747856
49	0x3e0025f2	0.12514475
50	0x3dc7b261	0.0975082
51	0xbd3a0e2b	-0.045423668
52	0xbde96e36	-0.11397974
53	0xbcab4ae6	-0.020909738
54	0x3d9e2f75	0.077238955
55	0xbd07a295	-0.033114035
56	0x3cdc9e23	0.026930874
57	0xbe750c77	-0.23930536
58	0xbe195f63	-0.14977793
59	0x3d4474b8	0.047962874
60	0x3cf08893	0.029361999
61	0x3e1018d4	0.14071971
62	0x3d9b67cf	0.07588159
63	0x3e6c69be	0.23087212
64	0x3e56f038	0.20990074
65	0x3db94ab6	0.09047453
66	0x3e41c686	0.18923387
67	0x3e61e55e	0.22060153
68	0x3e349858	0.1763624
69	0x3e1401d7	0.14453827
70	0x3dc0d0ea	0.09414847
71	0x3dac6ac0	0.084187984
72	0x3defa774	0.11701861
73	0xbe1f3d66	-0.15550765
74	0xbe79d1f3	-0.24396496
75	0xbcf0823a	-0.029358972
76	0x3c9dc35d	0.019258196
77	0xbebee464	-0.37283623
78	0x3e22591a	0.15854302
79	0x3edda857	0.43292496
80	0x3de5ee98	0.11227149
81	0xbe3edb38	-0.18638313
82	0x3e67fe49	0.22655596
83	0x3e2ef298	0.1708473
84	0x3e3982d2	0.1811631
85	0xbe0d0438	-0.1377114
86	0xbe8d9f7e	-0.27660745
87	0x3df6efac	0.120574325
88	0x3e257764	0.16158825
89	0xbdefcafd	-0.11708639
90	0x3e50c8bb	0.20389073
91	0x3dbbea97	0.09175604
92	0xbe73248e	-0.23744413
93	0xbdb86815	-0.09004227
94	0x3ecc5e96	0.39915913
95	0xbcf908be	-0.030399676
96	0x3c1a3f65	0.0094145285
97	0x3e5aa56d	0.21352167
98	0xbd8a479c	-0.0675194
99	0x3d11dfbd	0.035613764
100	0xbe13b665	-0.14425047
101	0x3db132c8	0.08652264
102	0xbc9a76ed	-0.018855536
103	0xbe7a85cd	-0.24465103
104	0x3e2fc5f5	0.17165358
105	0xbd5dfe07	-0.054197337
106	0xbdce4d94	-0.100733906
107	0xbe540962	-0.20706704
108	0x3f423a01	0.75869757
109	0xbe6c5d19	-0.23082389
110	0xbd904370	-0.07044113
111	0x3e8d5446	0.27603358
112	0x3e4d90e3	0.20074801
113	0x3e1b87d0	0.15188527
114	0x3dd12890	0.10212815
115	0xbcfa80a5	-0.03057892
116	0x3d400baf	0.046886142
117	0xbe026609	-0.12734236
118	0xbb9e9c19	-0.0048403856
119	0xbdb2f92b	-0.08738931
120	0xbd75e1d7	-0.06002983
121	0x3c6db5a2	0.014508637
122	0xbd11a1d8	-0.035554737
123	0xbecfdeec	-0.40599763
124	0x3dfd490a	0.12367447
125	0x3eab12a5	0.33412662
126	0x3e70e636	0.23525319
127	0xbd8f2c77	-0.06990903
128	0x3e077c8d	0.13231106
129	0xbcbd9815	-0.023143807
130	0x3e2feada	0.17179433
131	0xbdf42f91	-0.11923135
132	0xbec791b5	-0.38978353
133	0xbeba0dc8	-0.3633864
134	0xbdb9c496	-0.09070699
135	0x3d464cdd	0.048413146
136	0x3d8212d4	0.063512474
137	0xbde62919	-0.112383075
138	0x3e499305	0.1968499
139	0x3ea3c184	0.31983578
140	0xbd5dd17a	-0.05415485
141	0xbdc47a90	-0.095936894
142	0x3e5d9c12	0.21641567
143	0xbeb50073	-0.35351905
144	0x3e04152d	0.12898703
145	0x3e88dd14	0.2673117
146	0x3e0ce44c	0.13758963
147	0x3ec7df23	0.39037427
148	0xbeb27d4a	-0.34861213
149	0xbd8e31c1	-0.069430836
150	0xbddaaebe	-0.10677861
151	0xbdd810ac	-0.10550055
152	0x3e9145f6	0.28373688
153	0x3c9e9fb0	0.019363254
154	0xbdaf932b	-0.08572992
155	0xbe13b199	-0.14423217
156	0xbe766eb8	-0.24065673
157	0xbe57e1e3	-0.21082263
158	0x3e359bbb	0.17735188
159	0x3e7fa8f9	0.24966802
160	0xbe98a59b	-0.29813847
161	0x3eaf2119	0.3420494
162	0xbd9fd9fb	-0.07805248
163	0xbe190f06	-0.14947137
164	0xbecc5102	-0.39905554
165	0x3e790c20	0.24321032
166	0x3e8b060d	0.27153054
167	0xbd8a1c91	-0.0674373
168	0xbf0eea02	-0.5582582
169	0x3dd9f8c7	0.10643154
170	0x3dabd968	0.08391076
171	0xbd3f7e57	-0.046751346
172	0x3e2687d7	0.16262756
173	0xbeb38eb1	-0.35069802
174	0xbd86630b	-0.0656186
175	0x3d2fb711	0.042899195
176	0xbdfbeb37	-0.12300723
177	0x3d3379ad	0.04381721
178	0x3e547f7f	0.20751761
179	0xbe9854e0	-0.29752254
180	0x3dc255bc	0.09489009
181	0x3d0a1662	0.033712752
182	0x3c8aae8d	0.016928935
183	0x3d0805b2	0.033208556
184	0xbdf49843	-0.11943104
185	0xbdfe5f94	-0.12420574
186	0xbd997388	-0.07492739
187	0xbab2d877	-0.0013644834
188	0x3da4f124	0.080538064
189	0xbd859710	-0.065229535
190	0x3d8da5b3	0.0691637
191	0xbcd02fab	-0.025413355
192	0x3e868806	0.26275653
193	0xbd95ed63	-0.073206685
194	0xbdd63da8	-0.10460979
195	0xbe902b85	-0.28158203
196	0x3d451ca6	0.048123024
197	0xbeb62f97	-0.35583183
198	0x3edd0d4d	0.4317421
199	0xbe046abb	-0.1293134
200	0xbd858c25	-0.06520871
201	0x3e0c1dcd	0.13683243
202	0xbc854147	-0.016266478
203	0xbe387392	-0.18012837
204	0xbc794ca9	-0.015216031
205	0xbea49fce	-0.3215317
206	0xbd15f96a	-0.036614813
207	0xbe901036	-0.28137368
208	0xbe59aef0	-0.2125814
209	0xbd22c46d	-0.039738107
210	0x3cd80ef1	0.026374312
211	0xbc303f95	-0.010757347
212	0xbdd62aba	-0.10457368
213	0xbe49685f	-0.1966872
214	0x3c96c070	0.018402308
215	0xbe8a26e2	-0.2698279
216	0xbc4d5db2	-0.012534546
217	0x3d599f2c	0.053130314
218	0x3e25529b	0.16144793
219	0xbefe9f36	-0.49730843
220	0xbd46667e	-0.048437588
221	0xbe7a7834	-0.24459916
222	0xbf218d29	-0.6310602
223	0x3eaa408f	0.3325238
224	0x3dce4aa6	0.10072832
225	0xbd4a8e72	-0.049452253
226	0xbcb819c0	-0.022473216
227	0x3e8c942c	0.27456796
228	0x3dec4261	0.11536098
229	0xbdc79744	-0.097456485
230	0xbd4b4b78	-0.04963252
231	0x3d7730e9	0.06034938
232	0xbdf64be0	-0.12026191
233	0xbd3eee0c	-0.046613738
234	0xbd0c9af5	-0.034327466
235	0x3e8d9e49	0.27659824
236	0x3e4a5fc5	0.19763096
237	0xbdabd858	-0.08390874
238	0xbe45f4e0	-0.19331694
239	0x3e2f49a8	0.17117941
240	0x3e87006b	0.26367506
241	0xbc8e4ddd	-0.017371112
242	0xbe4ee554	-0.20204669
243	0xbdc9e203	-0.098575614
244	0xbec69b01	-0.38790134
245	0xbe970408	-0.29495263
246	0xbe36f9c1	-0.17868711
247	0x3d1bc657	0.03803095
248	0x3e847f7f	0.25878522
249	0x3d117006	0.035507225
250	0xbe95dcac	-0.29269922
251	0x3e92ce5a	0.2867306
252	0x3ca78a6a	0.020451743
253	0xbdf2fe84	-0.11864951
254	0x3be2772a	0.006911178
255	0x3f01a706	0.5064548

conv4.bias f4 [16]
0	0xbbef6886	-0.0073061613
1	0xbcb80ac4	-0.022466071
2	0xbc99e6e1	-0.01878685
3	0x3e16223c	0.14661497
4	0xbd26d1d5	-0.040727455
5	0xbc82f1b5	-0.015984396
6	0xbc4e6b3f	-0.012598812
7	0x3e0fead7	0.14054428
8	0x3dba7d90	0.091059804
9	0xbd5bf507	-0.053700473
10	0xbd750c24	-0.05982603
11	0xbd8c3bcf	-0.06847345
12	0xbcc298b3	-0.023754453
13	0xbd1c4e92	-0.038160868
14	0xbd45c9e8	-0.048288256
15	0x3d852a00	0.065021515

bn1.weight f4 [3]
0	0x3f33e831	0.7027617
1	0x3f2f4755	0.6846822
2	0x3f31dfe3	0.6948225

bn1.bias f4 [3]
0	0x3f4e1dbe	0.8051413
1	0x3ce560ca	0.028000254
2	0xbf15e12d	-0.58546716

bn1.running_mean f4 [3]
0	0x3fd972f8	1.6988211
1	0xbfe99107	-1.8247384
2	0xbf96ca82	-1.178055

bn1.running_var f4 [3]
0	0x402e8c6a	2.7273202
1	0x408f4dcf	4.478248
2	0x3fcefc3d	1.6170727

bn2.weight f4 [4]
0	0x3f1cd9b1	0.6126967
1	0x3f4d9d5a	0.80318224
2	0x3f21d699	0.63218075
3	0x3f305e9f	0.6889438

bn2.bias f4 [4]
0	0x3f2776f8	0.65415907
1	0xbe55f224	-0.2089315
2	0xbc1a2e5d	-0.009410468
3	0x3e85f777	0.26165363

bn2.running_mean f4 [4]
0	0x3f8314e4	1.024075
1	0xbf422ca9	-0.75849396
2	0xc00952cd	-2.1456788
3	0x3e95b661	0.29240707

bn2.running_var f4 [4]
0	0x3fc5d082	1.5454257
1	0x3f08ac95	0.5338834
2	0x3f940180	1.1562958
3	0x3f8a8cc6	1.0824211

bn3.weight f4 [12]
0	0x3f36817c	0.7129133
1	0x3f451a48	0.76993227
2	0x3f4a2cf6	0.78974855
3	0x3f608dfc	0.8771665
4	0x3f33aea1	0.7018834
5	0x3f2ec50f	0.6826944
6	0x3f2bd4c1	0.6712151
7	0x3f74e514	0.95662045
8	0x3f76d818	0.9642348
9	0x3f809641	1.0045854
10	0x3f5772bf	0.84159464
11	0x3f7bca15	0.9835523

bn3.bias f4 [12]
0	0xbdacbf24	-0.08434895
1	0x3f265823	0.64978236
2	0x3dbb5592	0.091471806
3	0xbe0fe06d	-0.14050455
4	0xbe32d396	-0.17463526
5	0x3ee20034	0.4414078
6	0xbe449d4b	-0.19200628
7	0xbd2a32ff	-0.04155254
8	0x3c25e235	0.010124733
9	0xbf094b32	-0.53630364
10	0xbebe8a26	-0.37214774
11	0x3e01db46	0.12681302

bn3.running_mean f4 [12]
0	0x3df7d461	0.12101055
1	0xbd4bcfbb	-0.049758654
2	0xbec36006	-0.38159198
3	0x3e6e278a	0.2325727
4	0x3e79aa59	0.24381389
5	0x3e471e25	0.19445093
6	0x3e618ebb	0.22027104
7	0x3f6ed6ce	0.93296516
8	0x3ccfeda5	0.025381872
9	0x3f2c9c52	0.67426026
10	0x3e5d1426	0.21589717
11	0xbe57971e	-0.2105374

bn3.running_var f4 [12]
0	0x3e1be4d3	0.15224008
1	0x3e38a6e3	0.18032412
2	0x3f32ed6a	0.69893515
3	0x3ec9312c	0.39295328
4	0x3e96d1c0	0.29456902
5	0x3e80cb14	0.25154936
6	0x3e6224ba	0.22084323
7	0x3eec970c	0.4620899
8	0x3f682031	0.9067412
9	0x3dd94ee6	0.10610752
10	0x3e1143c6	0.1418601
11	0x3efc9886	0.49335116

bn4.weight f4 [16]
0	0x3f3e1c4f	0.74261945
1	0x3eac2a30	0.33625937
2	0x3f43bdfb	0.7646176
3	0x3f29e0aa	0.66358435
4	0x3f521c7e	0.82074726
5	0x3f308f8c	0.68969035
6	0x3f331621	0.6995564
7	0x3ef10c23	0.47079572
8	0x3f1c86e4	0.61143327
9	0x3f2ed8a5	0.68299323
10	0x3f2f8c18	0.6857314
11	0x3ec55faa	0.38549548
12	0x3f06fa8e	0.52726066
13	0x3f08b48d	0.534005
14	0x3f15daa4	0.58536744
15	0x3f35db82	0.7103807

bn4.bias f4 [16]
0	0x3dcc4843	0.0997472
1	0x3f626533	0.8843567
2	0xbd138c70	-0.036022604
3	0x3e7f0369	0.24903645
4	0x3d0ee937	0.03489038
5	0x3e3ea647	0.18618117
6	0xbdb5ffbf	-0.0888667
7	0x3f5b87b6	0.85753953
8	0x3f26121f	0.648714
9	0xbe1b42c1	-0.15162183
10	0x3d27f03c	0.04100059
11	0x3f70149e	0.9378146
12	0x3da8c978	0.08241552
13	0x3db7d2c4	0.08975747
14	0x3f33207b	0.69971436
15	0xbd900559	-0.0703227

bn4.running_mean f4 [16]
0	0x3f0b4aed	0.544112
1	0xbf60ec6e	-0.87860763
2	0x3eabc715	0.33550325
3	0x3f662109	0.8989416
4	0xbeaac7a0	-0.33355427
5	0xbf5bd3ff	-0.85870355
6	0x3f0033d5	0.5007909
7	0xbe8dadf6	-0.27671784
8	0xbec34be6	-0.38143843
9	0x3f8fec46	1.124398
10	0x3ae3eb83	0.0017388914
11	0xbebb5891	-0.36591008
12	0xbe66ff1c	-0.22558254
13	0x3e22294a	0.15836063
14	0xbf798ae8	-0.9747758
15	0x3f5681cb	0.837918

bn4.running_var f4 [16]
0	0x3f0deb71	0.5543738
1	0x3f96f40e	1.179323
2	0x3f2315db	0.63705224
3	0x3f93d34f	1.1548861
4	0x3fd7b41b	1.6851839
5	0x3f6ea562	0.93221104
6	0x3f26d816	0.6517347
7	0x3fa359a7	1.2761735
8	0x3fbce313	1.4756798
9	0x3f198274	0.5996468
10	0x3f6f2c81	0.9342728
11	0x3ecc9a2c	0.39961374
12	0x3f2aafbc	0.666744
13	0x3f896fae	1.0737207
14	0x3fa5da12	1.2957175
15	0x3f22f2de	0.63651836

fc5.weight f4 [32, 16]
0	0x3928c36f	0.00016094533
1	0x3a2f1f30	0.00066803675
2	0xbaf36c56	-0.0018571715
3	0xba660c8c	-0.00087756733
4	0xb846fa31	-4.7439888e-05
5	0xbb0b5366	-0.0021259426
6	0x3a6d6398	0.0009055673
7	0xbaa4a350	-0.0012560878
8	0x39e88ec6	0.00044356863
9	0x3a8de306	0.0010825105
10	0x394a38d6	0.00019285394
11	0xb9b24fc4	-0.00034010236
12	0x39c52c7a	0.00037607906
13	0xba0d1a01	-0.0005382598
14	0x39d879ba	0.00041289424
15	0xb9e91bb1	-0.00044461855
16	0x39e6a955	0.0004399518
17	0x38fb0f82	0.00011971501
18	0x3a052d8b	0.0005080334
19	0x39eda858	0.00045329588
20	0x3a8345ff	0.0010015367
21	0xba18f45b	-0.00058347516
22	0xba69cf5d	-0.0008919144
23	0x39f87d84	0.00047395763
24	0x3a5db615	0.00084576133
25	0xba27deaa	-0.0006403724
26	0xba6c21a8	-0.0009007701
27	0x3a121318	0.0005572303
28	0xba752ac0	-0.00093523785
29	0x3a986ce1	0.0011629128
30	0xbb00157a	-0.001954405
31	0x3950feb4	0.0001993131
32	0xb9bc09cc	-0.00035865454
33	0x3ab38362	0.0013695771
34	0xba9eba8f	-0.0012110042
35	0xba012d3b	-0.00049276993
36	0xbad109e1	-0.0015948379
37	0x3a4137e7	0.0007370696
38	0x3aa5b952	0.0012643731
39	0xb99ea627	-0.00030259902
40	0x3a12420b	0.0005579299
41	0x3b02b2fc	0.0019943109
42	0xb91f58d5	-0.00015196514
43	0xbad2a6f8	-0.0016071489
44	0xba5b982c	-0.00083768624
45	0xb9eb7b12	-0.00044914387
46	0x3a51e17d	0.00080063177
47	0x3add60b0	0.0016889777
48	0xbecb9745	-0.39763847
49	0x3eca7aff	0.39546964
50	0xbe851c6d	-0.2599825
51	0x3f054340	0.5205574
52	0xbe27b825	-0.1637884
53	0xbcadae67	-0.021201326
54	0x3e8ca7a9	0.27471665
55	0xbf06fbbc	-0.52727866
56	0x3ce79b2d	0.028272236
57	0xbd179ea4	-0.037016526
58	0x3d88d92f	0.066820495
59	0xbeaf5632	-0.3424545
60	0xbf3b7477	-0.73224586
61	0x3f8fb271	1.1226331
62	0xbdb54f05	-0.088529624
63	0xbf44eccb	-0.7692382
64	0xb924f115	-0.00015730069
65	0x39d59453	0.00040737036
66	0x3935b089	0.0001732727
67	0x388a7d5b	6.603702e-05
68	0x3823afad	3.902584e-05
69	0x39d6234e	0.00040843565
70	0x3ac4d382	0.0015016648
71	0x3b040b58	0.0020148363
72	0xba66bde2	-0.00088020985
73	0x3af75a24	0.0018871468
74	0x3ad47a41	0.0016210751
75	0xba000ad6	-0.0004884427
76	0xbaca267f	-0.001542285
77	0x3a7849fc	0.0009471474
78	0x393b3772	0.00017854365
79	0xb9fbdfef	-0.00048041294
80	0x390a7a0a	0.00013206169
81	0x3905337b	0.00012703046
82	0xba521fa8	-0.00080155814
83	0xb9fd7b6a	-0.0004834787
84	0x3957dabb	0.00020585481
85	0x39649020	0.00021797465
86	0xba0a3044	-0.00052714744
87	0x3a23d582	0.00062497717
88	0x39a06133	0.00030589997
89	0x3ac8e565	0.0015327154
90	0x39546d26	0.00020258556
91	0xb98ed7e0	-0.0002724519
92	0x3a80514a	0.0009789851
93	0x39c7b1c6	0.0003808869
94	0xba0f395b	-0.0005463564
95	0x387d4ebe	6.0393235e-05
96	0x3a257c12	0.00063127384
97	0x390ca0c6	0.00013411333
98	0xb9ba13d8	-0.0003549147
99	0xb9aafe50	-0.00032614404
100	0xba804a97	-0.0009787855
101	0x3b271aa8	0.0025498066
102	0xba041aae	-0.0005039376
103	0x3a85f017	0.0010218647
104	0xb8645af6	-5.444415e-05
105	0x38d338a4	0.00010071814
106	0x3920e4b7	0.00015343992
107	0xba890c88	-0.0010456005
108	0x3a042b1f	0.0005041826
109	0xb916f2a4	-0.00014395505
110	0x3937eb31	0.00017539856
111	0x3a5fa078	0.00085306866
112	0x3a90e148	0.0011053467
113	0x3992a642	0.00027971162
114	0xba4b953b	-0.00077660725
115	0xb951babd	-0.00020001359
116	0x3971a1a9	0.00023043774
117	0xba806476	-0.0009795565
118	0x3a918bc7	0.0011104279
119	0x399fbe4e	0.0003046863
120	0xba951069	-0.0011372688
121	0xba156032	-0.0005698233
122	0xb9d3fdc5	-0.0004043413
123	0x3aabf9c8	0.0013120705
124	0xba86740b	-0.0010257972
125	0xbadb0547	-0.0016709947
126	0x3a4b9cb9	0.0007767189
127	0xba3b80c1	-0.000715267
128	0x39fc3546	0.00048104877
129	0x3982c5a2	0.0002494278
130	0xba86053f	-0.0010224952
131	0xba7923a0	-0.0009503905
132	0xba1fe18c	-0.0006098978
133	0xba193bc4	-0.00058453926
134	0x3a99d80d	0.0011737362
135	0x3aa827e6	0.0012829273
136	0xb7d336a9	-2.5178613e-05
137	0x3ac246b8	0.0014822101
138	0x3864674b	5.4455635e-05
139	0xba9dcc21	-0.0012038985
140	0x39d427df	0.00040465497
141	0x3a570df5	0.0008203679
142	0x38642fe3	5.4404034e-05
143	0xba1475e4	-0.0005663319
144	0x3a58c848	0.00082695903
145	0xba61f2bb	-0.00086192385
146	0xba064407	-0.0005121831
147	0xb9fb11a2	-0.00047887588
148	0xba1ece72	-0.00060579844
149	0x3a6510cf	0.00087381614
150	0xba593b9e	-0.0008286777
151	0xb8a04685	-7.64253e-05
152	0xb828ccd4	-4.0245082e-05
153	0xba17ff59	-0.00057982426
154	0xba7624dc	-0.0009389648
155	0x398ea881	0.00027209896
156	0xba910b0e	-0.0011065917
157	0xba099268	-0.00052479515
158	0x3a5bce69	0.00083849445
159	0xb9f7d7cb	-0.0004727229
160	0xb9ca0f1d	-0.00038539703
161	0xba268bf8	-0.00063532544
162	0x3a98c2e7	0.0011654765
163	0xb9cfd58a	-0.00039641216
164	0x3ae0626f	0.0017119179
165	0xb9a645a4	-0.00031713874
166	0xbaec8fd4	-0.0018048235
167	0xb9e8fcbc	-0.0004443879
168	0xba49fbe7	-0.0007705078
169	0x38dca2b8	0.00010520726
170	0xba8b2493	-0.0010615758
171	0x3acc3e18	0.001558247
172	0xb9b5f288	-0.0003470371
173	0x390c6fc6	0.0001339308
174	0x3929df98	0.00016200391
175	0xba8aaec9	-0.0010580654
176	0xbfbba440	-1.46595
177	0xbf684487	-0.90729564
178	0x3fa63290	1.298418
179	0x3e5a60a4	0.21325928
180	0xbec55b0c	-0.38546026
181	0x3fb21913	1.3913902
182	0x3e95e795	0.29278246
183	0x3e947f77	0.29003498
184	0xbf5d1642	-0.8636209
185	0x3dbd087b	0.09230133
186	0x3f8f41ed	1.1191994
187	0xbe936508	-0.28788018
188	0xbf08835a	-0.53325427
189	0xbd9d02b6	-0.07666533
190	0x3fac2d19	1.3451263
191	0x3e17da51	0.14829375
192	0x39ebce62	0.0004497646
193	0xb8946520	-7.076026e-05
194	0xba76983b	-0.00094068394
195	0xb90ec6b0	-0.00013616192
196	0x3a512a0d	0.00079789833
197	0xb9ca5364	-0.00038590573
198	0xba0dbc91	-0.0005406822
199	0xba8d82d0	-0.0010796431
200	0xb991d091	-0.0002781195
201	0xba1fc758	-0.0006095073
202	0xba4889eb	-0.0007649946
203	0x3a07be46	0.0005178194
204	0x3a583120	0.0008247066
205	0xb89d8896	-7.5117845e-05
206	0xb9ea2910	-0.00044662552
207	0xba4b8e79	-0.00077650655
208	0x39229b4d	0.00015507378
209	0x39e182a7	0.00043012688
210	0xba5a7852	-0.0008333969
211	0x3a6a3c95	0.0008935419
212	0x398a5de2	0.0002639136
213	0x3aa429f5	0.0012524711
214	0xba03dff6	-0.0005030626
215	0xb8c7b297	-9.5223244e-05
216	0x3953098a	0.00020126082
217	0x3a2698f9	0.0006355192
218	0x377f02d0	1.5199839e-05
219	0x359ba335	1.1595899e-06
220	0x39c2b334	0.0003713608
221	0x3a02e7a1	0.0004993622
222	0x38e10e24	0.0001073147
223	0x3a5932da	0.00082854705
224	0x39dc2ffe	0.00041997427
225	0x39b9e87f	0.00035459173
226	0x3a8caf20	0.0010733344
227	0xba25e972	-0.00063290366
228	0x3ab60fcb	0.0013890205
229	0xba9bcefc	-0.0011887248
230	0xbb27f444	-0.0025627771
231	0xb92ce357	-0.00016487889
232	0x389b8b73	7.4169504e-05
233	0xba47c833	-0.00076210796
234	0xb9a9fc38	-0.0003242211
235	0x3af519a7	0.0018699662
236	0xbaa09e7a	-0.0012254261
237	0xba64b91c	-0.0008725093
238	0xba1ad36e	-0.0005906139
239	0xb9c09eca	-0.000367394
240	0xb997912b	-0.00028909123
241	0x37a4ec3d	1.966033e-05
242	0x3a075d9c	0.000516379
243	0x380e3392	3.3903467e-05
244	0x3a866091	0.0010252168
245	0x3a440115	0.0007476968
246	0xba35f56f	-0.00069411745
247	0x3abaeb5e	0.0014260819
248	0xba176c77	-0.00057763554
249	0xb8e1cd0b	-0.00010767028
250	0x3a08ad8a	0.00052138476
251	0x3a46c430	0.0007582335
252	0xba946b83	-0.0011323545
253	0x38d2697d	0.00010033229
254	0x3905db7a	0.0001276563
255	0xba0e3594	-0.0005424854

fc5.bias f4 [32]
0	0x3a65966d	0.0008758072
1	0xb9bc3994	-0.00035901053
2	0xb85a3b60	-5.2030548e-05
3	0x3ee11110	0.4395833
4	0xbaca2026	-0.0015420958
5	0xba119d39	-0.0005554739
6	0xba275b78	-0.00063841743
7	0xb9cc6c5b	-0.00038990643
8	0xb9882f4c	-0.0002597518
9	0x3a8346ef	0.0010015647
10	0x3a0efead	0.000545482
11	0xbd4640e2	-0.04840172
12	0x3a962097	0.0011453804
13	0xba8fba0e	-0.0010965483
14	0xba33a3fa	-0.00068527425
15	0xbacc883a	-0.0015604564
16	0x3e8352db	0.2564915
17	0x389319b9	7.0142974e-05
18	0x3e74b7f4	0.23898298
19	0xb9c105e4	-0.00036816217
20	0xba045975	-0.00050487305
21	0x38b50c70	8.633069e-05
22	0xb98cf669	-0.0002688647
23	0x3f43cae7	0.7648148
24	0xba97b8f2	-0.0011575504
25	0x3a0598f8	0.00050963415
26	0xbab3d312	-0.001371952
27	0xba0b0698	-0.0005303412
28	0xb9914180	-0.00027705356
29	0x3e2e5d3a	0.1702775
30	0xb92cfc0d	-0.00016497094
31	0xb9d55bac	-0.00040694827

fc6.weight f4 [32, 16]
0	0xb7838bcc	-1.5681515e-05
1	0xb8b21e34	-8.493327e-05
2	0xb7fc0c50	-3.0046474e-05
3	0x38b815a5	8.777835e-05
4	0xb8265ddb	-3.9664894e-05
5	0xb7e5cfa3	-2.7395616e-05
6	0xb8932643	-7.016633e-05
7	0xb7fb99d9	-2.9993173e-05
8	0x37a075d6	1.9128358e-05
9	0xb7034d65	-7.826228e-06
10	0xb7941221	-1.7651417e-05
11	0xb85b89e1	-5.234208e-05
12	0xb82c639c	-4.1100764e-05
13	0x37c1a5e0	2.3084634e-05
14	0xb80d7f7e	-3.3735756e-05
15	0x3824e79a	3.9316343e-05
16	0xb8e20780	-0.00010777917
17	0xb87279ee	-5.7810852e-05
18	0x36e624ee	6.8588333e-06
19	0xb8a43955	-7.830808e-05
20	0x3899d15a	7.334603e-05
21	0xb873c555	-5.8119494e-05
22	0x388f1ad4	6.8237685e-05
23	0xb707f6da	-8.104102e-06
24	0x381ae8bd	3.6933216e-05
25	0xb63f9807	-2.854971e-06
26	0xb6069474	-2.0053967e-06
27	0xb8483724	-4.773507e-05
28	0xb840c91a	-4.5963658e-05
29	0xb7c696cd	-2.3673661e-05
30	0xb8454919	-4.7036538e-05
31	0x38650ed0	5.461165e-05
32	0xb8ba4cc8	-8.883473e-05
33	0xb8b8cc6d	-8.811881e-05
34	0xb7933e5b	-1.7552802e-05
35	0xb810ce83	-3.4524604e-05
36	0xb8bcf762	-9.010617e-05
37	0xb89c55cf	-7.454643e-05
38	0xb88f1de3	-6.824338e-05
39	0xb8637927	-5.423385e-05
40	0x37e0981c	2.6773712e-05
41	0xb7b92434	-2.2070577e-05
42	0x383c0875	4.483057e-05
43	0x36d97f2d	6.481909e-06
44	0xb8a9a6e6	-8.089635e-05
45	0x3811700c	3.4675046e-05
46	0xb8199cb5	-3.6623987e-05
47	0xb88e9f2b	-6.800735e-05
48	0x3e05ce1b	0.13066904
49	0xbf512a98	-0.8170562
50	0x3f5a28e6	0.85218656
51	0x3e24ed7b	0.16106217
52	0xbf081b58	-0.53166723
53	0xbf49b276	-0.78787935
54	0xbe1f9f7e	-0.15588185
55	0xbf7c8946	-0.9864696
56	0xbc9d791d	-0.01922279
57	0x3f83cad0	1.0296268
58	0xbeeae357	-0.45876572
59	0xbf85d5e5	-1.04559
60	0xbe1d3f95	-0.15356286
61	0x3fb00f67	1.37547
62	0xbf7256ca	-0.9466368
63	0xbdd09c37	-0.101860456
64	0xb7eba154	-2.8089307e-05
65	0xb8d2566e	-0.00010029679
66	0x37a9299c	2.0165746e-05
67	0xb76ebdc9	-1.4230093e-05
68	0xb8c4cbf8	-9.3840004e-05
69	0xb928f8a7	-0.00016114359
70	0xb820c5e0	-3.8331258e-05
71	0xb852d88e	-5.0269584e-05
72	0x34b85cca	3.4340184e-07
73	0x38b3d50e	8.57507e-05
74	0xb8be5cab	-9.077167e-05
75	0xb7e346c6	-2.7093465e-05
76	0xb8eb4942	-0.000112193185
77	0x382e63df	4.1577845e-05
78	0xb83b21cf	-4.461576e-05
79	0x36ba3430	5.5493074e-06
80	0xb7a95ed1	-2.0190522e-05
81	0xb8d1fdd3	-0.00010013175
82	0xb7929ea0	-1.7478422e-05
83	0xb887641b	-6.455948e-05
84	0xb886a23d	-6.419837e-05
85	0x3873ba7c	5.8109392e-05
86	0xb8ede6e9	-0.00011344051
87	0xb64119b1	-2.8774195e-06
88	0x3815c611	3.5708832e-05
89	0x37a03e3e	1.910247e-05
90	0xb892418b	-6.974031e-05
91	0xb792942c	-1.7473554e-05
92	0xb871135f	-5.747692e-05
93	0x37a8f1e6	2.0139803e-05
94	0xb8b27aad	-8.5105516e-05
95	0x37926999	1.7453729e-05
96	0x388e36d1	6.781298e-05
97	0x37494dcb	1.1998646e-05
98	0xb78a13be	-1.6460075e-05
99	0x38ad67f4	8.2686456e-05
100	0xb8836c5e	-6.266752e-05
101	0x38e3dab5	0.00010864941
102	0x391fa28c	0.00015223975
103	0xb87dd0c9	-6.0514347e-05
104	0x38105519	3.441153e-05
105	0x38fcb91b	0.00012050775
106	0xb6e63137	-6.8602635e-06
107	0xb8b75ced	-8.743429e-05
108	0x38ae6821	8.316362e-05
109	0xb8c9fe98	-9.631849e-05
110	0xb8493050	-4.796713e-05
111	0x38b4acb0	8.6152344e-05
112	0xb7836dbc	-1.5667516e-05
113	0xb8425b3d	-4.6338177e-05
114	0x385dc56e	5.2874377e-05
115	0xb819c79f	-3.6663954e-05
116	0xb8d2c893	-0.0001005094
117	0xb90b672c	-0.00013294508
118	0x39062b66	0.00012795403
119	0x385fc38f	5.334947e-05
120	0x3682de2e	3.900167e-06
121	0x37d1755c	2.4969391e-05
122	0xb8529f51	-5.0216277e-05
123	0xb879f696	-5.9595877e-05
124	0x3618666b	2.270938e-06
125	0x384c92e1	4.877418e-05
126	0xb8d4b164	-0.00010141989
127	0xb9280e33	-0.00016027018
128	0x388c3590	6.685697e-05
129	0xb8191514	-3.6497673e-05
130	0x38a21867	7.729307e-05
131	0x38c296b5	9.278712e-05
132	0xb8754e14	-5.8485268e-05
133	0xb89b8531	-7.415785e-05
134	0x386ea176	5.6893994e-05
135	0x388e0274	6.7715446e-05
136	0x373f113f	1.1388503e-05
137	0x384ae8ae	4.8377253e-05
138	0xb850b9ea	-4.976421e-05
139	0xb86e0614	-5.6749283e-05
140	0x3883c244	6.2827516e-05
141	0xb8097eb1	-3.2781336e-05
142	0xb8941978	-7.061934e-05
143	0xb927b3ca	-0.00015993338
144	0x37a3c9f9	1.9525165e-05
145	0xb89efc88	-7.581065e-05
146	0x38150271	3.5526642e-05
147	0xb8cfafa5	-9.9032455e-05
148	0x388240f0	6.2109786e-05
149	0xb90ddddd	-0.00013529458
150	0xb8132de1	-3.509026e-05
151	0x366e4e3e	3.5510307e-06
152	0xb8b37cb7	-8.558615e-05
153	0x38940b12	7.059252e-05
154	0x386f41f6	5.704347e-05
155	0xb75927cf	-1.2943477e-05
156	0xb92d94fc	-0.00016554067
157	0x386605c6	5.484165e-05
158	0xb8073a85	-3.224101e-05
159	0x3804fb71	3.1705425e-05
160	0xb89d5021	-7.5012686e-05
161	0xb90e964b	-0.00013598164
162	0xb848fcd3	-4.7919177e-05
163	0x390d0522	0.0001344872
164	0xb8d87077	-0.00010320631
165	0x38b97bb0	8.844526e-05
166	0x3876eb27	5.8869973e-05
167	0xb78bec18	-1.6680031e-05
168	0xb90b8d4a	-0.00013308707
169	0x39711b83	0.000229938
170	0xb8dd624b	-0.0001055641
171	0x381801e3	3.624138e-05
172	0xb89720c7	-7.206346e-05
173	0xb80bc9ff	-3.3328306e-05
174	0xb87aef0f	-5.9827285e-05
175	0xb85006a1	-4.9597238e-05
176	0x3e92b1d3	0.28651294
177	0xbfad5109	-1.3540355
178	0x3dfa9590	0.12235558
179	0xbe6fcdc9	-0.23418345
180	0xbd57a5dd	-0.052648414
181	0xbf129d3f	-0.5727119
182	0xbe8e8f8b	-0.2784389
183	0xbf2683d5	-0.6504491
184	0x3ea5d2d2	0.32387406
185	0x3f0755f9	0.5286556
186	0x3ee95646	0.45573634
187	0xbf81f045	-1.015145
188	0x3b307a5e	0.0026928405
189	0x3f72afb8	0.94799376
190	0xbf7c0562	-0.98445714
191	0xbe3ea4a8	-0.18617499
192	0xb8b85aae	-8.790694e-05
193	0xb72aebe6	-1.0187714e-05
194	0xb7a78595	-1.9970155e-05
195	0xb791ba78	-1.7372178e-05
196	0x371a1a07	9.185175e-06
197	0xb91fcc87	-0.00015239614
198	0x35888453	1.0171301e-06
199	0xb874ce77	-5.836642e-05
200	0x38edf1b8	0.00011346064
201	0xb8a99ee8	-8.0881466e-05
202	0xb6a7df17	-5.002959e-06
203	0xb8b27441	-8.5093554e-05
204	0xb84cf97a	-4.8869733e-05
205	0xb8850c2e	-6.344203e-05
206	0x387c8175	6.020205e-05
207	0xb88b26b7	-6.635248e-05
208	0x382c61f7	4.1099232e-05
209	0x3886c1eb	6.425738e-05
210	0xb826be5b	-3.9754766e-05
211	0xb8b3e526	-8.578067e-05
212	0xb7320fc7	-1.06133e-05
213	0x386ecb87	5.693317e-05
214	0xb8021396	-3.1012656e-05
215	0xb9114daf	-0.00013857217
216	0xb6fdde7d	-7.5658886e-06
217	0x39221420	0.00015457021
218	0xb85527d3	-5.0820247e-05
219	0xb8826a4b	-6.218682e-05
220	0xb81f9c55	-3.805415e-05
221	0x3890c5a5	6.903269e-05
222	0xb8f10ecb	-0.00011494531
223	0x380550e1	3.1784995e-05
224	0xb7b63d89	-2.1724745e-05
225	0x386ad1b6	5.5985256e-05
226	0x395020bd	0.00019848622
227	0x37259688	9.869815e-06
228	0xb893fdbf	-7.05677e-05
229	0xb901fd86	-0.00012396844
230	0xb7c2fd18	-2.3244458e-05
231	0x37df3060	2.6606198e-05
232	0xb8d28330	-0.00010038016
233	0x379bc41e	1.8568764e-05
234	0xb66408ca	-3.3979763e-06
235	0xb9293c49	-0.00016139554
236	0xb9126dd8	-0.00013964565
237	0x38a6f7fd	7.961688e-05
238	0x37cbd7e2	2.4300014e-05
239	0x37bf39c1	2.2795868e-05
240	0xb830993a	-4.2104373e-05
241	0xb831c91c	-4.2387386e-05
242	0xb86db406	-5.6672863e-05
243	0x3597d52a	1.1312416e-06
244	0x376166da	1.3434992e-05
245	0x38942c92	7.065492e-05
246	0xb9579be1	-0.00020562067
247	0xb895c689	-7.141854e-05
248	0x38852bb6	6.350076e-05
249	0xb8cc0158	-9.727728e-05
250	0xb8519bda	-4.997463e-05
251	0xb825d7cd	-3.9540046e-05
252	0xb8957131	-7.125957e-05
253	0xb863b35c	-5.428806e-05
254	0xb843f000	-4.671514e-05
255	0x37ac15d9	2.0514171e-05

fc6.bias f4 [32]
0	0x38ab90e1	8.180901e-05
1	0x378dfe94	1.6927057e-05
2	0x37d9a4f2	2.5945224e-05
3	0xbfaa8fee	-1.3325174
4	0xb6009444	-1.9159788e-06
5	0x38ce3a15	9.833664e-05
6	0x388ccf7e	6.714369e-05
7	0x37a9c91e	2.0240022e-05
8	0x38db763d	0.00010464757
9	0x38ea1481	0.00011161809
10	0x3858d081	5.1692597e-05
11	0x3d90e5e1	0.07075096
12	0x38b3dd7e	8.576641e-05
13	0x37849840	1.5806523e-05
14	0xb5e047f8	-1.6710246e-06
15	0x38b57f76	8.654494e-05
16	0xbfbc1021	-1.4692422
17	0x38ad6cb1	8.269528e-05
18	0xbffcf127	-1.9761094
19	0x381c63fa	3.728641e-05
20	0x3721c91d	9.643173e-06
21	0x37cfe72a	2.4783967e-05
22	0x38ba09a6	8.870968e-05
23	0x3e4febb9	0.20304765
24	0xb79011d6	-1.7174443e-05
25	0x38fbc6c0	0.00012005633
26	0x3893aaaa	7.041295e-05
27	0x393c6ed3	0.00017970362
28	0x37dbcd5f	2.6202468e-05
29	0xbfbcff0b	-1.4765333
30	0x35142c03	5.519834e-07
31	0x381ab311	3.688323e-05

fc_decode.weight f4 [16, 32]
0	0xbd248ed0	-0.04017526
1	0x3d31b07e	0.043381207
2	0x3d15a0f4	0.03653045
3	0xbf622fe6	-0.8835434
4	0x3cbf3e87	0.023345245
5	0xbdbaebfc	-0.09127042
6	0xbc2d5200	-0.010578632
7	0x3e37ac27	0.17936765
8	0xbd1f9ee1	-0.038969878
9	0xbc83ab27	-0.016072823
10	0x3c93c6db	0.018039158
11	0x3e4904c4	0.19630724
12	0xbd7949ad	-0.06086128
13	0xbdef7f18	-0.11694163
14	0x3e6cdce0	0.23131132
15	0x3c1ecce5	0.009692405
16	0x3ed0a070	0.40747404
17	0x3d5c6951	0.053811375
18	0x3f457956	0.7713827
19	0x3e8b2b20	0.2718134
20	0xbd119f90	-0.03555256
21	0xbc529976	-0.012853971
22	0xbe257f8b	-0.16161935
23	0x3df585f9	0.11988444
24	0xbdc528b3	-0.096269034
25	0xbd0bb4ac	-0.03410785
26	0xbc7c04a7	-0.015381969
27	0xbe23543a	-0.15950099
28	0xbcd59351	-0.026071222
29	0x3ef18004	0.4716798
30	0xbd7388ce	-0.05945664
31	0xbd533d96	-0.051572405
32	0xbd0bea0e	-0.03415876
33	0x3d06a876	0.0328755
34	0xbd918ba4	-0.071067125
35	0xbe9a0d40	-0.30088234
36	0xbda0e3d3	-0.07855954
37	0xbc791339	-0.015202337
38	0xbc81d130	-0.015846819
39	0xbd33b289	-0.043871436
40	0xbcc655fe	-0.024210926
41	0xbc8d5ea0	-0.017257035
42	0x3d24a1a0	0.0401932
43	0xbea60ae0	-0.32430172
44	0x3d3954e2	0.045246966
45	0xbcddfb35	-0.027097324
46	0x3cd00f76	0.025397997
47	0xbc972f86	-0.018455278
48	0xbe81df63	-0.25365743
49	0xbcd75c1b	-0.026289036
50	0xbeaeb463	-0.34122
51	0xbd52ecbf	-0.05149531
52	0x3cc16f60	0.023612678
53	0x3c36d57f	0.0111593
54	0x3b9d80d2	0.0048066163
55	0xbd67ba29	-0.05657402
56	0xbd7f1267	-0.06227341
57	0x3d33f967	0.04393902
58	0xbce01d8d	-0.02735784
59	0xbd4381b8	-0.04773113
60	0x3c57ecae	0.013178987
61	0xbe432cab	-0.19060008
62	0xbd205169	-0.03914014
63	0xba29eb7d	-0.0006481929
64	0xbd15176e	-0.036399297
65	0x3dce835e	0.1008365
66	0x3ccc964c	0.02497401
67	0x3f0020fb	0.50050324
68	0x3e009147	0.12555419
69	0xbe0d94df	-0.13826321
70	0xbe0d8bfe	-0.13822934
71	0x3e86efa3	0.26354703
72	0xbd05ab26	-0.032633923
73	0xbd5ce664	-0.053930655
74	0xbbefda98	-0.0073197596
75	0x3e73468b	0.23757379
76	0xbd945161	-0.07242084
77	0xbe49e4fa	-0.19716254
78	0x3e39493c	0.18094343
79	0x3cf6a21b	0.030106595
80	0xbf4d7bbf	-0.80266947
81	0x3d248a9c	0.04017125
82	0xbf1040cc	-0.5634887
83	0x3e8f54c0	0.27994347
84	0xbd9df530	-0.077127814
85	0xbd87fe6f	-0.06640326
86	0xbe37148a	-0.17878929
87	0xbe06bd31	-0.13158108
88	0xbcd95c17	-0.02653317
89	0xbd13d896	-0.036095224
90	0x3d6770a0	0.056503892
91	0xbe4cdc89	-0.20006002
92	0x3d466352	0.048434563
93	0xbdbd88db	-0.09254619
94	0xbd9c5545	-0.07633451
95	0xbd51ab56	-0.05118879
96	0xbe333520	-0.17500734
97	0x3db0b6b7	0.086286
98	0x3ddfed21	0.109339006
99	0x3ebad6fb	0.36492142
100	0x3da486ac	0.08033499
101	0x3de0a51c	0.10968992
102	0x3de0f930	0.10985029
103	0xbe3fc689	-0.18728079
104	0xbd8e8b92	-0.06960215
105	0xbeac3bdf	-0.33639428
106	0xbd8bdeb4	-0.068295866
107	0xbbce7cda	-0.0063015046
108	0xbe0c1272	-0.13678911
109	0x3e4002b9	0.18751039
110	0xbd2bf23c	-0.04197906
111	0x3da15391	0.07877267
112	0x3ef85839	0.4850481
113	0xbdef319e	-0.116793856
114	0xbf2c1670	-0.67221737
115	0x3e0abb33	0.13547973
116	0x3e028292	0.12745121
117	0x3ca7bcce	0.020475771
118	0x3e24929b	0.1607155
119	0x3daa68a5	0.083207406
120	0x3e087ebf	0.133296
121	0x3d327c81	0.043575767
122	0x3e9c4d7d	0.3052787
123	0x3ccf5dfd	0.025313372
124	0x3e3357e9	0.17514004
125	0x3ebc58a8	0.3678639
126	0x3d9e6d14	0.07735649
127	0x3db6b9a3	0.08922126
128	0x3db557b8	0.08854622
129	0xbd8a476a	-0.067519024
130	0xbc921fc8	-0.01783742
131	0x3d9ffb70	0.0781163
132	0xbd4c3775	-0.049857575
133	0x3c2731f7	0.010204784
134	0x3caee3f5	0.021348933
135	0x3bcd53ed	0.0062661082
136	0x3d591cc4	0.05300595
137	0x3e079f51	0.13244368
138	0x3d20e97d	0.03928517
139	0x3f1bda07	0.6087956
140	0x3d564006	0.05230715
141	0xbd058a2b	-0.03260247
142	0x3cccd127	0.025002075
143	0xbcff9463	-0.031198686
144	0xbd587d8c	-0.052854106
145	0x3d59bf28	0.053160816
146	0xbeea7d8f	-0.4579892
147	0xbd16e2c9	-0.036837373
148	0xbd19163e	-0.037374727
149	0x3bc3a043	0.0059700324
150	0xbd2b1aba	-0.041773535
151	0x3ef11d06	0.47092456
152	0xbd85077a	-0.06495567
153	0xbcf7636c	-0.030198775
154	0xbe0897aa	-0.13339105
155	0x3d21f74c	0.03954248
156	0xbddbbad2	-0.107289925
157	0x3da8a549	0.08234651
158	0xbc30d0c5	-0.010791962
159	0xbd05d019	-0.03266916
160	0xbd72c188	-0.059266597
161	0x3949fdcf	0.00019263405
162	0xbe33a443	-0.1754313
163	0x3e8e2d85	0.27769104
164	0xbe21bfe8	-0.15795863
165	0x3dbd7d71	0.09252442
166	0x3dfa6772	0.12226762
167	0xbe673a3f	-0.22580813
168	0x3d5777aa	0.052604355
169	0xbd8fe3f2	-0.07025899
170	0x3dff85d7	0.124767
171	0x3e1061ed	0.14099856
172	0x3dafdd0b	0.085870825
173	0x3d270b74	0.040782407
174	0x3e0061ac	0.12537259
175	0x3c191530	0.00934343
176	0xbd9fbeed	-0.07800088
177	0xbcfb8a58	-0.030705616
178	0x3d75b1d5	0.059984047
179	0xbd9fbe3d	-0.07799957
180	0x3dd9db36	0.10637514
181	0x3c0c9d6f	0.008582457
182	0x3cb7548d	0.022379184
183	0xbd39a882	-0.045326717
184	0xbe30270b	-0.17202394
185	0x3d28c076	0.04119917
186	0xbdca22cc	-0.09869918
187	0x3d20bf69	0.039245043
188	0xbd418bbc	-0.0472524
189	0x3e507fba	0.20361224
190	0xbd46322d	-0.048387695
191	0xbc16218b	-0.009163271
192	0xbda8c822	-0.08241297
193	0x3e2858c1	0.16440107
194	0xbe097b6c	-0.13425988
195	0x3f5257db	0.82165307
196	0xbdb4530d	-0.08804903
197	0xbe39b390	-0.18134904
198	0xbe5e95af	-0.21736787
199	0x3e0da1db	0.13831274
200	0xbddf017c	-0.10888955
201	0xbd1e8d0a	-0.038708724
202	0x3d92de2a	0.07171281
203	0xbe886eab	-0.26646933
204	0x3d8d306a	0.06894
205	0xbe7fe5fc	-0.24990076
206	0x3df70763	0.12061956
207	0xbd3bcc82	-0.04584933
208	0x3e6dbac9	0.23215784
209	0xbd1f551d	-0.03889953
210	0x3e32b164	0.17450482
211	0x3d097aa2	0.033564217
212	0xbd19dd99	-0.037564848
213	0xbcb57c06	-0.022153866
214	0xbde34710	-0.110975385
215	0x3e28f6e0	0.16500425
216	0xbe0654d4	-0.13118297
217	0x3dc03018	0.09384173
218	0xbc8364c9	-0.016039269
219	0xbe9415b5	-0.2892281
220	0x3db47536	0.08811419
221	0x3e913205	0.28358474
222	0xbe1d001a	-0.1533207
223	0xbd0a3b98	-0.03374824
224	0xbd37ce62	-0.044874556
225	0x3d18c0ba	0.037293173
226	0x3852bfc4	5.0246497e-05
227	0xbf838189	-1.0273906
228	0xbcb64528	-0.022249773
229	0xbc7bcff5	-0.015369405
230	0xbca9f8fa	-0.020748604
231	0xbcc3fac5	-0.023923287
232	0xbd4be624	-0.049780026
233	0xbd43e195	-0.047822554
234	0xbc47e88a	-0.012201438
235	0x3d71896e	0.058968954
236	0xbb269a4b	-0.0025421556
237	0x3c3125ff	0.010812282
238	0xbd0d3411	-0.034473483
239	0xbc0a7817	-0.008451483
240	0x3dbc235d	0.091864325
241	0xbd1c27f3	-0.038124036
242	0xbe708042	-0.23486426
243	0xbcde310c	-0.027122997
244	0x3ca2e1cb	0.019883057
245	0x3c87af51	0.01656309
246	0x3d1ced2e	0.03831213
247	0x3ec37d0e	0.38181347
248	0x3c8c738b	0.017144939
249	0x3d2359ea	0.03988067
250	0x3d4fab17	0.050700273
251	0xbd17233f	-0.036898848
252	0x3d5f7066	0.05455055
253	0x3d4d9905	0.05019476
254	0xbb5b24b0	-0.0033438616
255	0x3cb095a7	0.021555735

fc_decode.bias f4 [16]
0	0x3e329865	0.17440946
1	0x3f950031	1.1640683
2	0xbef9099d	-0.48640147
3	0x3def5984	0.116869956
4	0xbde51597	-0.111857586
5	0xbe5d9c86	-0.2164174
6	0xbda54e38	-0.0807156
7	0xbee85cff	-0.4538345
8	0x3e3eda06	0.18637857
9	0xbe9601a3	-0.29298124
10	0xbdbb4618	-0.09144229
11	0x3eb2b517	0.34903786
12	0x3f3e7505	0.7439731
13	0x3f70240d	0.9380501
14	0x3e9c5271	0.30531648
15	0x3f3d713c	0.74000907
