saved_models_2D/dataset_noacc/no_freeze/folds/CVAE2D_4_5_100_200_fold_7.pth (torch, 242851 bytes, 37 tensors)

conv1.weight f4 [16, 1, 3, 3]
0	0x3e1568f3	0.14590816
1	0xbed87c19	-0.4228218
2	0xbd447ebd	-0.04797243
3	0x3d31d1c5	0.043412942
4	0xbf04cacd	-0.5187195
5	0x3efd8197	0.49512932
6	0x3d177ca0	0.036984086
7	0x3f4474e6	0.7674087
8	0x3ebf7419	0.37393263
9	0xbec8381b	-0.39105305
10	0x3db8ef8c	0.09030065
11	0xbf158775	-0.58409816
12	0x3d1ce6b5	0.038305957
13	0xbe2d9d12	-0.16954449
14	0xbe8ce81b	-0.27520832
15	0x3d1aa7bd	0.037757624
16	0xbee030eb	-0.4378732
17	0x3e4fd910	0.20297647
18	0x3db35ce9	0.087579556
19	0xbf2b3ea6	-0.6689247
20	0xbeda89fa	-0.42683393
21	0xbe5aa78d	-0.21352978
22	0xbf280f40	-0.6564827
23	0x3d01cf1f	0.031691667
24	0x3f2a77d3	0.6658909
25	0xbe96194b	-0.29316172
26	0x3dc88722	0.097913995
27	0xbebc02b1	-0.36720803
28	0xbe1a63d3	-0.15077142
29	0xbe154a9b	-0.14579241
30	0xbefefa40	-0.498003
31	0xbf17b89a	-0.59266055
32	0x3e283b70	0.16428924
33	0x3de7a2eb	0.11310371
34	0x3e101b1a	0.14072838
35	0xbe4d83d8	-0.20069826
36	0x3e58803c	0.21142668
37	0x3ec17660	0.37785625
38	0xbf4d2889	-0.80139977
39	0x3f20afcc	0.62768245
40	0xbfb2f9ca	-1.398248
41	0x3f46ae0f	0.7760934
42	0xbee5e2d5	-0.44899622
43	0x3de4c458	0.11170262
44	0xbe73e11b	-0.2381634
45	0xbeb9ab40	-0.36263466
46	0xbee3bca2	-0.44479853
47	0x3e30b39e	0.17256019
48	0xbebebb95	-0.3725249
49	0xbef74f1c	-0.48302543
50	0xbe15c40a	-0.14625564
51	0xbeed5189	-0.4635127
52	0xbdc64448	-0.09680992
53	0x3e7ea73b	0.24868481
54	0x3f4c0a37	0.79703087
55	0x3f311fd5	0.69189197
56	0xbecfde15	-0.40599123
57	0x3e461674	0.19344503
58	0x3e918d5d	0.28428164
59	0x3dc901ce	0.09814797
60	0x3dde3507	0.10849958
61	0xbe56f56a	-0.20992056
62	0x3f17b0d5	0.592542
63	0xbf36fe3b	-0.71481675
64	0x3dcdfca2	0.100579515
65	0x3f64d225	0.89383155
66	0xbda5b74d	-0.080916025
67	0x3f85d4ba	1.0455544
68	0x3eb557da	0.35418588
69	0xbef65492	-0.48111397
70	0x3f4e6953	0.8062946
71	0x3f4ef16f	0.8083715
72	0x3e2bd0e1	0.167789
73	0x3f3a4549	0.7276197
74	0xbe6505a1	-0.22365429
75	0xbd813d9d	-0.0631058
76	0x3d503497	0.050831404
77	0x3f17fe84	0.59372735
78	0xbf0ee655	-0.5582021
79	0xbebaf9a7	-0.36518595
80	0xbe0948ff	-0.13406752
81	0x3ea3a626	0.319627
82	0x3f0d4c35	0.5519441
83	0xbdbbbe01	-0.091671
84	0x3ddddfff	0.108337395
85	0xbe881c7b	-0.2658423
86	0xbf2eae37	-0.6823458
87	0x3e23bec0	0.15990734
88	0x3f0846c1	0.5323296
89	0xbf21f189	-0.6325918
90	0xbeaee090	-0.34155703
91	0x3f46cb86	0.776543
92	0xbe4b0c70	-0.19828963
93	0x3f08b20d	0.53396684
94	0xbe5d875d	-0.21633668
95	0x3ec9a1da	0.39381295
96	0x3e7c51f8	0.24640644
97	0xbd617482	-0.05504275
98	0x3e9a6aed	0.30159703
99	0x3f252bf6	0.64520204
100	0xbd463e3f	-0.048399206
101	0xbe746b75	-0.23869117
102	0xbe8b7b5b	-0.2724255
103	0x3e3d1901	0.1846657
104	0xbef82803	-0.48468027
105	0x3f283f3f	0.65721506
106	0xbef81747	-0.4845526
107	0x3c2f6ea5	0.010707532
108	0xbe491e75	-0.19640525
109	0xbea9e7fa	-0.33184797
110	0x3ec9ff54	0.39452612
111	0x3f637c3d	0.8886145
112	0x3e9e47d2	0.3091417
113	0x3e87c41c	0.26516807
114	0x3f421b62	0.7582303
115	0x3f1ddd5c	0.6166589
116	0xbec22240	-0.37916756
117	0x3ee6d755	0.4508616
118	0xbcd76037	-0.026290996
119	0xbf3723a2	-0.71538746
120	0xbe8e753b	-0.27823815
121	0xbef08fe8	-0.46984792
122	0xbd9e72fb	-0.077367745
123	0x3e9c0316	0.30471104
124	0xbd1c2793	-0.03812368
125	0x3e8bc21f	0.2729654
126	0xbf7c4ad1	-0.9855166
127	0xbf248291	-0.6426173
128	0xbea0cc5c	-0.31405914
129	0xbf04dd7e	-0.5190047
130	0x3e3b12bd	0.18268867
131	0x3e00c1e3	0.12573962
132	0x3e098f4e	0.13433573
133	0xbea29f11	-0.31761983
134	0x3ecced2b	0.40024695
135	0xbee2b38e	-0.44277614
136	0x3e990181	0.2988396
137	0x3e7db5d3	0.24776392
138	0xbea13aeb	-0.31490263
139	0x3f2e4731	0.6807738
140	0x3ccb1b25	0.024793217
141	0x3eadbda1	0.33933738
142	0x3d96acd1	0.07357181
143	0x3dd1560e	0.10221492

conv1.bias f4 [16]
0	0xbbf8716f	-0.0075818817
1	0xbca28045	-0.019836554
2	0xbd1c0649	-0.03809193
3	0x3d5c3dd6	0.05376991
4	0x3d040516	0.032231413
5	0x3d999e18	0.07500857
6	0x3dd2ae48	0.10287148
7	0xbd7e5ff5	-0.06210323
8	0x3d1a5208	0.037675887
9	0x3c2683c6	0.010163253
10	0x3cb386d3	0.021914875
11	0xbd1e79d8	-0.038690418
12	0xbc4d1855	-0.012518008
13	0x3e08a53e	0.13344285
14	0x3c0d58bd	0.008627114
15	0xbd86caa2	-0.06581618

conv2.weight f4 [32, 16, 3, 3]
0	0x3ce50eec	0.027961217
1	0xbe5f31dc	-0.21796364
2	0x3e380444	0.17970377
3	0xbb32f9dc	-0.0027309572
4	0xbdcbb7ee	-0.09947191
5	0xbe230654	-0.15920383
6	0x3e0a810c	0.1352579
7	0xbdc85a6e	-0.09782873
8	0xbded67a9	-0.11592037
9	0x3d95f16f	0.073214404
10	0xbda6e3f7	-0.081489496
11	0xba0d942a	-0.00054008013
12	0xbca52b5d	-0.020162279
13	0x3d8e28c4	0.06941369
14	0x3c87606e	0.016525473
15	0xbda96dc6	-0.08272891
16	0x3d163d36	0.03667947
17	0x3e2bf6b9	0.16793336
18	0xbe63118d	-0.22174664
19	0xbdb21194	-0.08694759
20	0xbe0e3ec7	-0.13891135
21	0x3e2c3905	0.16818626
22	0xbdcf5b79	-0.10124869
23	0x3d1a34b8	0.037647933
24	0x3e36f9f2	0.17868784
25	0xbdda8fa3	-0.10671928
26	0x3e1196ac	0.14217633
27	0x3e508f34	0.20367128
28	0xbdb6becf	-0.089231126
29	0xbe5d3a09	-0.2160417
30	0x3e5a7b29	0.21336044
31	0x3e181e77	0.14855371
32	0x3cd694fd	0.02619409
33	0x3d86dce7	0.065851025
34	0xbd00fa8c	-0.03148894
35	0x3d9bb2d0	0.07602465
36	0x3e689407	0.22712718
37	0xbe2ac1d9	-0.1667551
38	0x3c73ab71	0.014872418
39	0x3e03b3b1	0.12861516
40	0xbd252a7d	-0.040323723
41	0xbb3d3ec5	-0.0028876525
42	0x3d132c83	0.03593112
43	0x3e1d9f8a	0.1539289
44	0x3d3d2b61	0.046183947
45	0xbe0032af	-0.12519334
46	0xbccc8e18	-0.0249701
47	0x3df55642	0.11979343
48	0xbda4e8d1	-0.08052219
49	0xbbda72a5	-0.0066664987
50	0xbdae4ebf	-0.085111134
51	0x3e54bccc	0.20775145
52	0x3db5c3d0	0.08875239
53	0xbe085f1d	-0.13317533
54	0xbe8782f4	-0.26467097
55	0xbe942280	-0.2893257
56	0xbde63d53	-0.112421654
57	0xbe0abc2c	-0.13548344
58	0x3e6a6ba8	0.2289263
59	0x3d856e4a	0.065151766
60	0xbdedefe6	-0.116180226
61	0xbe3c36fd	-0.18380351
62	0x3dc6adc1	0.0970111
63	0x3e6ecba0	0.23319864
64	0x3e6ec431	0.23317029
65	0xbde095e5	-0.1096609
66	0xbf0ae732	-0.54259026
67	0x3dc2690b	0.094926916
68	0xbd0fdd30	-0.03512305
69	0x3d8b4418	0.06800097
70	0xbd4c2939	-0.049844
71	0xbdf02724	-0.117262155
72	0xbcd23f7e	-0.025665041
73	0xbe5a500b	-0.21319596
74	0xbdeb6b2c	-0.11495051
75	0xbde25f3d	-0.110533215
76	0x3d641a7b	0.055689316
77	0x3cd7164f	0.026255755
78	0xbdbfc41e	-0.09363578
79	0x3dd8b29c	0.10580942
80	0x3e7a8b3e	0.24467179
81	0xbd8d5fb6	-0.06903021
82	0xbd74cdcd	-0.05976658
83	0xbd1604bf	-0.03662562
84	0x3d6de8c4	0.05808331
85	0xbdc570a7	-0.09640627
86	0xbdb32691	-0.0874759
87	0xbc6e55a3	-0.014546785
88	0x3e21b76e	0.15792629
89	0xbdb23c5e	-0.087029204
90	0x3e0403be	0.12892053
91	0xbd26c11e	-0.040711515
92	0xbd5ff9ac	-0.054681465
93	0xbecd1077	-0.40051624
94	0xbd8c924e	-0.06863843
95	0xbb1a2f22	-0.0023526629
96	0x3d507fcc	0.050903127
97	0xbceb8bf8	-0.028753266
98	0xbd1ae095	-0.037811834
99	0x3d954a2d	0.072895385
100	0x3c9be7a5	0.019031355
101	0xbe394e73	-0.18096332
102	0xbe15c36a	-0.14625326
103	0xbe5d5332	-0.21613768
104	0xbeb921e2	-0.36158663
105	0x3df0d537	0.117594175
106	0xbe30340c	-0.17207354
107	0xbe6d7741	-0.23190023
108	0xbd903ae5	-0.07042483
109	0x3de8b51a	0.113626674
110	0x3e63d64a	0.22249714
111	0xbe1f6816	-0.1556705
112	0xbe32e6f3	-0.17470913
113	0xbd4bc4b4	-0.049748138
114	0x3d77ab7d	0.06046628
115	0xbe6c056c	-0.23048943
116	0xbe00ee26	-0.12590846
117	0xbcbf1faa	-0.023330528
118	0x3d3c3a55	0.045954067
119	0xbe45a21e	-0.19300124
120	0xbd953dab	-0.07287153
121	0x3e849b31	0.25899652
122	0x3e02032c	0.12696522
123	0x3d80ddc6	0.062923
124	0x3d79a898	0.0609518
125	0xbda1d0a6	-0.07901125
126	0xbde42afc	-0.11141011
127	0xbdf17423	-0.117897294
128	0x3e032247	0.12806045
129	0xbd57cfb3	-0.05268831
130	0xbe1a1acd	-0.15049286
131	0xbd8f7080	-0.070038795
132	0xbe9a7532	-0.30167538
133	0xbcda61cd	-0.026657963
134	0x3d963fac	0.07336363
135	0xbdd8ee42	-0.10592319
136	0x3e274ba4	0.16337448
137	0xbe0fcc1b	-0.14042704
138	0x3d37a84f	0.044838246
139	0x3d699e01	0.05703545
140	0x3d9a1a89	0.075245924
141	0xbcfd1b60	-0.030896842
142	0x3e4383c3	0.19093232
143	0x3dae8b3d	0.08522651
144	0x3dbc8158	0.09204358
145	0xbde59df1	-0.112117656
146	0x3c63c6e5	0.013902401
147	0x3dbef263	0.09323575
148	0x3d18302f	0.037155326
149	0x3db449f5	0.08803169
150	0x3e42ffa2	0.19042829
151	0x3e65f721	0.22457553
152	0x3d82a183	0.06378462
153	0x3d2714c9	0.040791307
154	0xbe8e668a	-0.27812606
155	0x3e7b4e16	0.24541506
156	0xbd60d808	-0.054893523
157	0xbdfb02ca	-0.12256391
158	0x3df964fd	0.12177465
159	0x3e45edb1	0.19328953
160	0xbe1327e0	-0.1437068
161	0x3e05cfd4	0.13067561
162	0x3e39001b	0.18066446
163	0x3e19bcf4	0.15013486
164	0xbda8f726	-0.08250265
165	0x3d7d63b7	0.061862674
166	0xbd3f164d	-0.046652127
167	0xbdf7ba2a	-0.12096055
168	0x3d095685	0.033529777
169	0xbc8237c5	-0.015895734
170	0x3df846a2	0.12122847
171	0x3da55fe4	0.0807493
172	0xbdde1bfb	-0.108451806
173	0xbe41c7eb	-0.18923919
174	0xbe05dca8	-0.13072455
175	0xbe9ac24d	-0.30226365
176	0x3dc50f06	0.09622006
177	0x3daa4036	0.083130285
178	0xbe41d98b	-0.18930642
179	0xbdbdd5c4	-0.09269288
180	0xbdd948da	-0.106095985
181	0xbe2602b5	-0.1621197
182	0xbd3af919	-0.045647714
183	0xbd5d59e5	-0.05404081
184	0x3d5757ad	0.05257385
185	0x3d22dba2	0.03976024
186	0xbe18b66c	-0.14913338
187	0xbe93860e	-0.28813213
188	0x3d8376a3	0.064191125
189	0xbc299b27	-0.010351933
190	0xbe23064b	-0.1592037
191	0xbde1ed59	-0.110315986
192	0x3e27e419	0.16395606
193	0x3d2d20c9	0.042267594
194	0xb9988dc6	-0.0002909733
195	0x3e549524	0.20760018
196	0xbddee58f	-0.108836286
197	0xbe109106	-0.14117822
198	0x3e846b47	0.25863096
199	0x3d9ab6e9	0.075544186
200	0x3e7f7c5a	0.2494978
201	0x3e7d1127	0.24713574
202	0x3e67903a	0.22613612
203	0xbe1ad5d0	-0.15120625
204	0xbc44e767	-0.012018061
205	0x3d651772	0.055930562
206	0x3e4394c3	0.19099717
207	0x3ea3aaf0	0.31966352
208	0x3e3785ed	0.17922182
209	0x3d6d3dcc	0.057920262
210	0x3d9e9b76	0.077444956
211	0xbe10aad9	-0.14127673
212	0xbd374ca7	-0.044750836
213	0x3de7fe5b	0.11327811
214	0x3c15935e	0.009129373
215	0xbcf520a1	-0.029922785
216	0x3db3f07e	0.087861046
217	0x3d847974	0.06468478
218	0x3da83441	0.08213092
219	0xbe05e16b	-0.13074271
220	0xbe3bc0df	-0.18335293
221	0x3d8d41d6	0.06897323
222	0xbda56718	-0.08076304
223	0x3c11307f	0.00886166
224	0x3c6cacfb	0.014445539
225	0x3e99bf51	0.30028775
226	0x3e0cdb44	0.13755518
227	0x3d424943	0.04743315
228	0xbd54c8dd	-0.05194937
229	0x3dcc73cb	0.09983023
230	0x3da4497e	0.0802183
231	0x3db72049	0.08941705
232	0x3e157fe8	0.14599574
233	0xbc5466eb	-0.012963991
234	0x3dc4fd4a	0.096186236
235	0x3d8ceb1f	0.06880783
236	0xbe01191b	-0.12607233
237	0xbe1abadf	-0.15110348
238	0x3c52a884	0.01285756
239	0xbe389d7e	-0.18028829
240	0x3d470129	0.04858509
241	0xbde9df9b	-0.114196025
242	0x399ea449	0.0003025851
243	0xbd188290	-0.03723389
244	0xb9b56f37	-0.00034605872
245	0x3e45d846	0.19320783
246	0x3dc6500b	0.09683236
247	0xbd5773a0	-0.052600503
248	0xbd790eba	-0.06080506
249	0xbd6f716c	-0.058457777
250	0xbd694a10	-0.056955397
251	0xbc04c35a	-0.008103216
252	0x3dc5c3b4	0.09656468
253	0x3dfe765a	0.124249175
254	0x3d30e42c	0.04318635
255	0x3d8199bc	0.06328151

conv2.bias f4 [32]
0	0xbd587598	-0.05284652
1	0x3d94e2f8	0.07269853
2	0xbd5d7204	-0.054063812
3	0x3d098a0e	0.033578925
4	0x3a03de47	0.00050303753
5	0x3c285734	0.010274697
6	0xbdd38d82	-0.10329725
7	0xbcbe75b6	-0.023249488
8	0xbccc4856	-0.024936836
9	0xbdf5d4c1	-0.1200347
10	0x3dbfbca6	0.09362154
11	0x3d91d5ee	0.07120882
12	0x3d3f1e80	0.046659946
13	0x3cdbac35	0.026815513
14	0xba8621f0	-0.0010233503
15	0x3db1e837	0.086868696
16	0x3dfa8919	0.122331806
17	0x3df328d4	0.11873022
18	0xbc562c1b	-0.013072039
19	0x3c8be21f	0.017075596
20	0xbd8705d6	-0.0659291
21	0x3d5741bf	0.052552935
22	0x3b9b9dbb	0.0047490275
23	0x3d90e318	0.07074565
24	0xbdda1b05	-0.10649685
25	0x3d118eb5	0.035536487
26	0x3ce768f6	0.028248291
27	0x3d7ef267	0.06224289
28	0x3e3264df	0.17421292
29	0x3cf1ff2d	0.029540623
30	0x3d65f325	0.056140084
31	0xbdf704db	-0.12061473

conv3.weight f4 [32, 32, 3, 3]
0	0x3d38ed91	0.045148436
1	0xbdbd32f2	-0.09238233
2	0x3c871502	0.01648951
3	0x3d52a097	0.05142268
4	0x3e1718d1	0.1475556
5	0x3db3bc2d	0.08776126
6	0x3dd902d7	0.10596245
7	0xbd0bfad4	-0.034174755
8	0x3c357981	0.011076332
9	0x3c02a258	0.007973276
10	0xbcf00977	-0.029301388
11	0xbda61576	-0.08109562
12	0xbddb4723	-0.107069276
13	0x3d8e8b23	0.06960132
14	0xbd43357d	-0.047658432
15	0x3d834e27	0.06411391
16	0x3e271582	0.16316798
17	0x3d1e7771	0.038688127
18	0xbbad0e19	-0.0052812216
19	0xbc5e0041	-0.013549865
20	0x3d0f7345	0.03502204
21	0xbb2186fd	-0.002464711
22	0x3d4432c5	0.04789998
23	0x3d9b268a	0.0757571
24	0xbdb272aa	-0.08713277
25	0x3da612ab	0.081090294
26	0xbb79394c	-0.0038028536
27	0xbccb49a2	-0.024815384
28	0xbd6d29a0	-0.057901025
29	0xbcf63a3b	-0.030057063
30	0xbca2b892	-0.0198634
31	0x3e05b85f	0.13058613
32	0x3c8c646e	0.017137732
33	0x3ca88818	0.020572707
34	0x3dd1ddca	0.10247381
35	0xbdaa5b18	-0.08318156
36	0xbdfb2994	-0.1226379
37	0xbda739c8	-0.08165318
38	0xbd8ba0fe	-0.06817816
39	0xbd378ddc	-0.044813022
40	0x3cf223a1	0.029558005
41	0x3b2c5a60	0.0026298985
42	0xbd3b3251	-0.045702282
43	0xbc69cd16	-0.014270088
44	0x3d3a41a3	0.045472752
45	0x3dd4aa20	0.10384011
46	0xbcca6aa5	-0.024709055
47	0x3de81a5e	0.11333154
48	0x3d088898	0.03333339
49	0xbdb03a4b	-0.086048685
50	0xbea0f31a	-0.31435472
51	0x3cd74362	0.026277248
52	0xbc2e7426	-0.010647809
53	0xbd889b19	-0.066702075
54	0xbed6827b	-0.41896424
55	0xbdc96048	-0.09832817
56	0xbdb287af	-0.08717286
57	0xbcd1836d	-0.025575364
58	0x3d76ed08	0.060284644
59	0x3d1d6287	0.03842404
60	0xbc489cef	-0.012244447
61	0x3dca6f6a	0.09884532
62	0xbd1df408	-0.038562804
63	0xbe51c910	-0.20486856
64	0x3bc9640d	0.00614596
65	0x3d56c6f5	0.052435834
66	0xbd262882	-0.040565975
67	0xbd19e8c0	-0.037575483
68	0x3d4d4af5	0.050120313
69	0xbcef0121	-0.029175343
70	0xbdc1221a	-0.094303325
71	0x3ddc5368	0.10758096
72	0xbd005290	-0.031328738
73	0xbd7b7773	-0.061393213
74	0x3d9b0339	0.07568974
75	0x3db76b17	0.08955973
76	0x3d993693	0.07481112
77	0x3dc9dd18	0.098566234
78	0xbdcbff16	-0.09960763
79	0x3d132f3e	0.035933726
80	0xbcac51dd	-0.02103513
81	0xbd8b8604	-0.06812671
82	0x3c9c2662	0.019061271
83	0x3d6296f8	0.055319756
84	0xbbe9bfb1	-0.007133447
85	0x3c790f0c	0.015201341
86	0x3df7c765	0.12098578
87	0xbdab28e4	-0.08357409
88	0x3b52771e	0.0032114456
89	0x3ca4ef25	0.020133564
90	0xbd97bd6a	-0.07409175
91	0x3d21fa03	0.03954507
92	0x3da8f764	0.08250311
93	0x3de03745	0.10948042
94	0xbcd287d5	-0.025699535
95	0x3d13784c	0.036003396
96	0x3d81f5ce	0.06345712
97	0x3d031ed0	0.032011807
98	0x3df0ae88	0.11752039
99	0xbe8ed5d2	-0.27897507
100	0xbd54c6d9	-0.05194745
101	0xbdee26b4	-0.11628476
102	0x3be312ab	0.0069297156
103	0x3d343ac2	0.04400135
104	0x3dc26937	0.094927244
105	0xbe0325a7	-0.12807332
106	0x3ca93ecc	0.020659827
107	0x3d4ce605	0.05002405
108	0xbc40b1bb	-0.011761124
109	0xbd0897ea	-0.033348
110	0xbd982ea5	-0.07430772
111	0xbe775a21	-0.24155475
112	0xbd605073	-0.054764222
113	0xbe441ccf	-0.19151615
114	0xbd72f948	-0.059319764
115	0x3df340a6	0.11877565
116	0xbda1f1d4	-0.07907453
117	0xbd44a890	-0.048012316
118	0x3dacca15	0.084369816
119	0x3c457534	0.012051869
120	0xbd0c136f	-0.03419822
121	0xbcfb7e79	-0.030699955
122	0x3d9d7fc2	0.076903835
123	0xbdb74e1d	-0.08950446
124	0x3d47dd75	0.048795182
125	0xbd17da0d	-0.037073184
126	0x3d40c39d	0.04706155
127	0xbd25c25a	-0.04046855
128	0xbd2bf557	-0.04198202
129	0x3d244f94	0.040114954
130	0x3d1f9973	0.0389647
131	0xbdbb78c8	-0.091538966
132	0x3c2fc124	0.010727201
133	0xbd9f828c	-0.07788572
134	0x3c942727	0.018085076
135	0x3c0f863a	0.008760029
136	0xbd7a2d15	-0.06107815
137	0x3cea8e91	0.028632434
138	0xbe7514d0	-0.2393372
139	0xbc0b9166	-0.008518552
140	0x3dea215d	0.11432145
141	0xbd179064	-0.037002936
142	0xbd8e56d2	-0.069501534
143	0xbe01ce5c	-0.12676376
144	0x3d201097	0.03907832
145	0x3cd7264d	0.02626338
146	0xbd971640	-0.07377291
147	0xbdc8b992	-0.0980102
148	0xbd8106fc	-0.0630016
149	0xbb73c510	-0.0037196316
150	0xbcba73b7	-0.022760255
151	0xbdc42361	-0.095770605
152	0xbdce40ee	-0.10070978
153	0xbe0d9e12	-0.1382983
154	0xbe31e33e	-0.17371842
155	0xbc4ec052	-0.012619095
156	0xbc739550	-0.014867142
157	0xbd82fa8c	-0.06395444
158	0xbdf70159	-0.12060804
159	0x3c45efa7	0.012081063
160	0xbcc4de2e	-0.024031725
161	0x3e016869	0.12637486
162	0x3a9c347d	0.0011917498
163	0xbe0d43cf	-0.13795398
164	0xbd0ac849	-0.033882413
165	0xbc8e0517	-0.017336411
166	0x3d3e076b	0.046393793
167	0x3d8eaef6	0.06966965
168	0x3c60b35b	0.013714637
169	0x3d0148ec	0.031563684
170	0x3d738dd7	0.05946144
171	0xbdf79a29	-0.120899506
172	0xbe3f18a0	-0.18661737
173	0xbe4ffe8f	-0.2031195
174	0xbc9ea937	-0.019367797
175	0xbc044c03	-0.008074763
176	0x3cb28f1b	0.021796754
177	0x3c47df14	0.012199182
178	0x3c179c7c	0.009253617
179	0x3ba3adf6	0.004995103
180	0xbdf39b03	-0.118948005
181	0x3d6bfbf3	0.057613324
182	0x3e01dc65	0.1268173
183	0xbc0bea58	-0.008539759
184	0x3dd73b70	0.10509384
185	0x3dbc376c	0.091902584
186	0xba19f11e	-0.0005872416
187	0x3e1125b2	0.14174536
188	0xbce8e141	-0.028427722
189	0x3dbc79c3	0.09202912
190	0x3d982175	0.074282564
191	0xbd8a62bd	-0.06757114
192	0xbc06dec4	-0.008231822
193	0xbd888439	-0.066658445
194	0x3da290cc	0.07937774
195	0x3cd64a86	0.026158582
196	0x3d8f064c	0.06983623
197	0xbd0fb5dd	-0.035085548
198	0x3e01aadd	0.12662835
199	0x3dc4f5fc	0.0961723
200	0xbc523812	-0.012830751
201	0xbdd160a3	-0.1022351
202	0xbc98f926	-0.01867349
203	0xbe17107f	-0.14752387
204	0x3df88a37	0.121357374
205	0x3d0e8842	0.034797914
206	0xbcdbf0e2	-0.02684826
207	0x3cbd7105	0.023125181
208	0xbc22d4cd	-0.009938431
209	0x3dafabdd	0.08577702
210	0xbe17fdf0	-0.14842963
211	0x3e2e8355	0.17042287
212	0xbdafa214	-0.08575836
213	0xbe33333d	-0.17500015
214	0xbd8412ab	-0.06448873
215	0x3b1213dc	0.002228967
216	0xbb66ae75	-0.00351992
217	0xbd8e12f9	-0.069372125
218	0x3afd82cf	0.0019341352
219	0xbda1f391	-0.07907785
220	0x3c8f70dd	0.017509872
221	0x3cfe0a92	0.0310109
222	0xbde11a39	-0.1099133
223	0x3b50fc69	0.003188873
224	0x3d504899	0.050850485
225	0xbca9da1c	-0.020733885
226	0xbd85f63e	-0.065411076
227	0x3d7d04a1	0.061771993
228	0xbda92ee2	-0.08260895
229	0x3de419ac	0.11137709
230	0xbdf920c3	-0.12164452
231	0xbdba5435	-0.090980925
232	0xbceee550	-0.02916208
233	0x3c93f2e5	0.018060157
234	0x3d999883	0.074997924
235	0xba8e73d6	-0.0010868262
236	0xbc340ffc	-0.010990139
237	0x3e112a3b	0.14176266
238	0x3d45f0b1	0.048325244
239	0x3d8eb346	0.069677874
240	0x3da91de9	0.08257658
241	0xbb55f730	-0.0032648556
242	0x3d8dbded	0.06920991
243	0xbe3b8e49	-0.18315996
244	0x3c2cbec1	0.010543526
245	0xbc3ea9a3	-0.011637124
246	0xbd926ee7	-0.07150059
247	0x3df3dcc8	0.11907345
248	0x3d585823	0.05281843
249	0x3d1956b8	0.037436217
250	0x3ae9e4db	0.0017844694
251	0xbd2b81af	-0.041871723
252	0x3d9d1d6f	0.0767163
253	0xbd544af6	-0.0518293
254	0x3e6d11b6	0.23151287
255	0x3cdb713f	0.026787398

conv3.bias f4 [32]
0	0xbde8ffc3	-0.11376908
1	0xbd3949d2	-0.045236416
2	0xbbbad7b6	-0.0057019843
3	0x3c9d8e9e	0.019233044
4	0xbdc28b53	-0.0949923
5	0x3dc664fe	0.096872315
6	0xbd61f3fa	-0.055164315
7	0x3d422f16	0.047408186
8	0x3d8da875	0.06916896
9	0xbe2875d1	-0.16451193
10	0xbd0830c5	-0.033249635
11	0xbc1d000b	-0.00958253
12	0x3d62bdad	0.05535667
13	0x3d8061f1	0.06268681
14	0xbd2b25ef	-0.041784223
15	0xbc1cc44e	-0.009568287
16	0x3c5773b9	0.013150149
17	0x3bb6dfaa	0.005580862
18	0x3c2d80a7	0.010589755
19	0x3e101075	0.14068778
20	0x3d07be46	0.033140443
21	0xbd3c896e	-0.0460295
22	0xbb986ded	-0.004651776
23	0xbc1af470	-0.0094576925
24	0x3d4a1045	0.049331922
25	0x3cfe2310	0.031022578
26	0x3d988e78	0.07449049
27	0x3cee6769	0.029102044
28	0xbd918947	-0.07106262
29	0xbcb432ca	-0.021996874
30	0xbda63e17	-0.081173114
31	0x3cfd9485	0.030954609

bn1.weight f4 [16]
0	0x3f714932	0.9425231
1	0x3f7f659c	0.9976442
2	0x3f6b4872	0.9190742
3	0x3f7143a1	0.9424382
4	0x3f7d820c	0.9902656
5	0x3f827b40	1.0193863
6	0x3f7c74f0	0.9861593
7	0x3f6e7ef1	0.9316245
8	0x3f621e20	0.8832722
9	0x3f84b22c	1.0366874
10	0x3f800bad	1.0003563
11	0x3f8e9e2c	1.114202
12	0x3f84cb3e	1.0374525
13	0x3f844fca	1.033685
14	0x3f772ef4	0.9655602
15	0x3f7b1434	0.980777

bn1.bias f4 [16]
0	0xbd9fa597	-0.07795256
1	0xbb699fec	-0.00356483
2	0xbdd964a0	-0.10614896
3	0xbd866aa9	-0.065633126
4	0x3ca20047	0.019775523
5	0xbc9bed61	-0.01903409
6	0x3d15469b	0.036444288
7	0xbcc834fc	-0.024439327
8	0x3ddc08d3	0.107438706
9	0xbca14651	-0.01968685
10	0x3c1757b9	0.009237223
11	0xbd1795d7	-0.037008133
12	0x3d451917	0.04811963
13	0xbd5ef9c4	-0.054437414
14	0xbd40cb3a	-0.047068812
15	0x3c700b01	0.014651061

bn1.running_mean f4 [16]
0	0x3defec17	0.117149524
1	0xbe6f8ea5	-0.23394258
2	0xbe72f285	-0.23725326
3	0xbe2b4ff6	-0.16729721
4	0xbda5293b	-0.08064505
5	0xbe521781	-0.20516779
6	0x3ed2b7cb	0.41155848
7	0x3eaa330a	0.33242065
8	0x3d88e2cc	0.06683883
9	0x3c3baac5	0.011454289
10	0x3e6a8d6c	0.2290551
11	0xbd33533d	-0.043780554
12	0x3ea4701e	0.3211679
13	0x3d4dd108	0.050248176
14	0xbe89febb	-0.26952156
15	0x3da4d88b	0.08049115

bn1.running_var f4 [16]
0	0x3dbefaab	0.09325155
1	0x3e5e073b	0.21682446
2	0x3e688574	0.22707158
3	0x3e7727eb	0.24136321
4	0x3d91b477	0.07114499
5	0x3ecb5455	0.39712778
6	0x3ee9a422	0.45633036
7	0x3f5c8e22	0.8615438
8	0x3d1dc4ef	0.03851789
9	0x3d3fd4a5	0.046833653
10	0x3e4f4eec	0.2024495
11	0x3cfa6fcd	0.030570889
12	0x3f0e24d8	0.5552497
13	0x3d5e4e41	0.054273847
14	0x3ed5d354	0.41762793
15	0x3dea680d	0.11445627

bn2.weight f4 [32]
0	0x3f6e14ee	0.93000686
1	0x3f87756c	1.0582709
2	0x3f77edd5	0.9684728
3	0x3f83946e	1.0279672
4	0x3f7b82b4	0.9824631
5	0x3f81e8c1	1.0149156
6	0x3f8305c3	1.0236133
7	0x3f707c73	0.93939894
8	0x3f6ec015	0.93261844
9	0x3f67ee59	0.90598065
10	0x3f817aee	1.011564
11	0x3f6d3511	0.926591
12	0x3f7be7f7	0.98400825
13	0x3f8c0e27	1.0941819
14	0x3f719abb	0.94376725
15	0x3f86bcc9	1.0526363
16	0x3f805dea	1.002866
17	0x3f820cc2	1.0160143
18	0x3f75c5e3	0.96005076
19	0x3f74b1e1	0.9558392
20	0x3f811614	1.0084863
21	0x3f6d9c11	0.92816263
22	0x3f6e4516	0.93074167
23	0x3f78a6ec	0.971297
24	0x3f7c4b8d	0.9855278
25	0x3f825055	1.0180765
26	0x3f742434	0.9536774
27	0x3f7ec7a9	0.9952341
28	0x3f86010c	1.046907
29	0x3f83948e	1.027971
30	0x3f8117ca	1.0085385
31	0x3f8a9fc9	1.0830013

bn2.bias f4 [32]
0	0xbcfbb855	-0.030727545
1	0xbc298dda	-0.010348761
2	0xbd153e57	-0.036436405
3	0x3c9b9dd2	0.018996153
4	0xbcadd6e2	-0.021220628
5	0xbc11b18a	-0.008892426
6	0xbc9ee775	-0.019397477
7	0xbce1565f	-0.027507005
8	0xbd1acdde	-0.037793986
9	0xbc401075	-0.011722674
10	0xbd9779ff	-0.07396316
11	0xbb94edbb	-0.0045449412
12	0xbb2a2ca4	-0.002596655
13	0xbbbc739e	-0.0057510873
14	0xbcaf5aa8	-0.021405533
15	0x3d3d659b	0.046239477
16	0xbd3b451d	-0.04572021
17	0x3cdade2b	0.026717266
18	0xbbb79e08	-0.0056035556
19	0xbc0e7a45	-0.0086961435
20	0xbc95c80a	-0.018283863
21	0xbda53224	-0.08066204
22	0xbce7152d	-0.02820834
23	0xbccc460e	-0.024935748
24	0xbc72c403	-0.014817241
25	0xbd878596	-0.06617276
26	0xbcf73b59	-0.030179666
27	0xbcca5384	-0.024698026
28	0xbc816645	-0.015795836
29	0xbd2f1616	-0.042745672
30	0x3d8989b3	0.06715717
31	0xbc7c22bc	-0.015389141

bn2.running_mean f4 [32]
0	0xbf544910	-0.82923985
1	0x3f566f9f	0.8376407
2	0xbf9e567c	-1.2370143
3	0x3f0d928f	0.55301756
4	0x3f3cf87f	0.73816675
5	0x3e90bd8b	0.2826961
6	0x3f151844	0.5824015
7	0xbf3a2d84	-0.727257
8	0xbee075a7	-0.43839762
9	0xbf6ba18f	-0.92043394
10	0x3f62ade2	0.88546574
11	0x3e6d5bc4	0.23179537
12	0xbbbbb75d	-0.0057286457
13	0x3ec1d1a1	0.37855247
14	0xbf384d15	-0.7199262
15	0x3af3a5a8	0.0018588798
16	0x3ee2bcb6	0.442846
17	0x3e66afa6	0.22527942
18	0xbec7f1de	-0.39051718
19	0x3f1b8a7f	0.60758203
20	0xbeadd252	-0.33949524
21	0xbf7e7c1a	-0.99408114
22	0x3e85c133	0.26123962
23	0xbc31db1d	-0.010855463
24	0x3e8de4f1	0.2771373
25	0x3f25c642	0.6475564
26	0x3dd9fda0	0.10644078
27	0x3ece4a3a	0.40291005
28	0x3e8585b9	0.26078585
29	0x3ef4f79a	0.47845155
30	0xbe0f7fa5	-0.14013536
31	0xbebaea70	-0.36506987

bn2.running_var f4 [32]
0	0x4079226b	3.8927257
1	0x41028f46	8.159979
2	0x3ff896e3	1.9421047
3	0x3f824c0d	1.0179459
4	0x40411209	3.0167258
5	0x3f3a8742	0.7286264
6	0x4071da07	3.7789323
7	0x3ff2024d	1.8906952
8	0x405d5d46	3.458818
9	0x3fc8ba9f	1.5681952
10	0x401b48f8	2.4263287
11	0x3fbc9f7d	1.4736172
12	0x3f6f11ec	0.9338672
13	0x3ff1d48a	1.8892987
14	0x40219e19	2.5252745
15	0x3f957719	1.1676971
16	0x3f9138c0	1.1345444
17	0x3fd2d865	1.6472288
18	0x3ff758d9	1.9323989
19	0x3fe4a8a2	1.7863963
20	0x3fd4858e	1.6603258
21	0x4044bf41	3.0741732
22	0x3ff093fc	1.8795161
23	0x3fc86f41	1.5658952
24	0x3fc0a551	1.505045
25	0x4043ec6b	3.0613048
26	0x4097cd5f	4.7438197
27	0x401a8a99	2.4147093
28	0x3fe0bcc8	1.7557611
29	0x3f9079f7	1.1287221
30	0x3ff23860	1.8923454
31	0x3f36ab0d	0.7135475

bn3.weight f4 [32]
0	0x3f3dd4f4	0.74153066
1	0x3f4db1d3	0.80349463
2	0x3f36c9f1	0.7140189
3	0x3f34b0fe	0.7058257
4	0x3f311678	0.6917491
5	0x3f49c04b	0.7880904
6	0x3f3cd96e	0.7376927
7	0x3f3eeda7	0.7458138
8	0x3f39995c	0.7249963
9	0x3f39cde3	0.72579783
10	0x3f54bb9a	0.8309876
11	0x3f46a966	0.7760223
12	0x3f2f7a7a	0.6854626
13	0x3f432031	0.76220995
14	0x3f40cdc0	0.7531395
15	0x3f5412f0	0.82841396
16	0x3f2c6066	0.6733459
17	0x3f251a7b	0.6449353
18	0x3f382779	0.7193523
19	0x3f31bb1f	0.6942615
20	0x3f4cf623	0.80063075
21	0x3f4fe977	0.81215614
22	0x3f5308d4	0.82435346
23	0x3f362e18	0.71164083
24	0x3f1ec930	0.6202574
25	0x3f4a59c1	0.79043204
26	0x3f3af58c	0.73030925
27	0x3f399d2d	0.72505456
28	0x3f5fef24	0.87474275
29	0x3f3d5593	0.739587
30	0x3f4a9ded	0.79147226
31	0x3f46e1bd	0.776882

bn3.bias f4 [32]
0	0xbe552a4c	-0.20816916
1	0xbe343815	-0.17599519
2	0xbe7ac865	-0.24490507
3	0xbe7e73b2	-0.24848822
4	0xbe7a82f5	-0.24464019
5	0xbe1a69d4	-0.15079433
6	0xbe485824	-0.19564873
7	0xbe866b5e	-0.2625379
8	0xbe3e0b44	-0.18558985
9	0xbe51dbf1	-0.20494057
10	0xbe18c1a9	-0.14917625
11	0xbe83b517	-0.25724098
12	0xbe84b834	-0.25921786
13	0xbe305014	-0.17218047
14	0xbe5267cf	-0.20547412
15	0xbe649db1	-0.2232578
16	0xbe551006	-0.20806894
17	0xbe564e8d	-0.20928402
18	0xbea445e1	-0.32084563
19	0xbe967d99	-0.29392698
20	0xbe575881	-0.21029855
21	0xbe1e166d	-0.15438242
22	0xbe2e0a23	-0.16996054
23	0xbe727222	-0.2367635
24	0xbe90e501	-0.28299716
25	0xbe61028f	-0.21973632
26	0xbe5e24bd	-0.21693702
27	0xbe85c48f	-0.26126525
28	0xbdf16c29	-0.11788208
29	0xbe133def	-0.14379095
30	0xbe62c456	-0.22145209
31	0xbe4cfbfc	-0.20018

bn3.running_mean f4 [32]
0	0xbed64461	-0.41849044
1	0xbf8aee2a	-1.0853932
2	0xbe2ea9f1	-0.17057015
3	0x3faab237	1.3335637
4	0xbef2c01b	-0.4741219
5	0x3cdb03de	0.026735242
6	0x3fa5e9ea	1.296201
7	0xbf878947	-1.0588769
8	0xbf177214	-0.59158444
9	0xbf88a6e9	-1.0675937
10	0xbf816d66	-1.0111511
11	0x3f859f74	1.0439286
12	0xbfcaf889	-1.5857097
13	0x3f283ead	0.65720636
14	0x3f95d09e	1.170429
15	0xbb8fdc22	-0.0043902555
16	0xbf5fc030	-0.8740263
17	0xbf14b8b8	-0.5809436
18	0xbeace4a4	-0.3376819
19	0x4015b4a4	2.3391504
20	0xbfbdb291	-1.4820119
21	0xbf3725d0	-0.7154207
22	0xbfed5975	-1.8542925
23	0xbed66dec	-0.4188074
24	0xbf83d98d	-1.0300766
25	0xbfd1330b	-1.6343702
26	0xbfda6d6c	-1.7064643
27	0xc0104d70	-2.2547264
28	0x3ff7e897	1.9367856
29	0x3f83101f	1.0239295
30	0xbf1bcb30	-0.60856915
31	0x3ef9f2f1	0.48818162

bn3.running_var f4 [32]
0	0x40c30339	6.0941434
1	0x41172d75	9.448598
2	0x3fef505c	1.8696399
3	0x4162b72e	14.169722
4	0x4098902b	4.7675986
5	0x41181891	9.505998
6	0x41863399	16.775194
7	0x40e9a808	7.3017616
8	0x40b6d411	5.713387
9	0x411cf555	9.8098955
10	0x40c1e69b	6.0594
11	0x416286ed	14.157941
12	0x412e5899	10.89663
13	0x417a01a4	15.625401
14	0x4175fbf3	15.374011
15	0x41103c08	9.014656
16	0x40c606ac	6.1883144
17	0x407ace6f	3.9188497
18	0x3fa3f76a	1.280988
19	0x41845c03	16.544928
20	0x41627803	14.1543
21	0x4104404f	8.2657
22	0x415406c5	13.251653
23	0x40cbd7dd	6.3701005
24	0x40cf5438	6.4790306
25	0x414566d2	12.337603
26	0x418f40ab	17.906576
27	0x420df3ea	35.488197
28	0x417ae797	15.6815405
29	0x40e8ff62	7.2811747
30	0x40d9c769	6.805592
31	0x40fec1a7	7.961139

fc10.weight f4 [4, 2048]
0	0x3c9ffecf	0.019530682
1	0x3ceb7361	0.02874154
2	0x3d7ec952	0.062203713
3	0x3c422b80	0.0118511915
4	0x3cd47bdd	0.025937969
5	0xbdd02020	-0.10162377
6	0xbd5f0fcf	-0.054458436
7	0x3a90c066	0.0011043667
8	0xbc283655	-0.01026686
9	0x3d2d4636	0.042303286
10	0x3cf08d87	0.02936436
11	0xbe659531	-0.22420193
12	0xbca653c8	-0.020303622
13	0x3d672fd7	0.056442108
14	0x3d1b2166	0.037873648
15	0xbd4f10d8	-0.050553173
16	0xbcadd032	-0.02121744
17	0x3cbb9ad0	0.022900969
18	0xbcd8850f	-0.026430635
19	0xbb0e75a9	-0.0021737611
20	0x3c7ba195	0.015358348
21	0x3d1efa0f	0.038812693
22	0x3d248d18	0.04017362
23	0x3db7dfd3	0.08978238
24	0xbbcd742d	-0.0062699527
25	0x3ab72c3c	0.0013974975
26	0xba4230b5	-0.00074077706
27	0x3c5aa1cb	0.0133442385
28	0xbc8df2f2	-0.01732776
29	0x3b49ce38	0.0030793082
30	0xbb95b3d6	-0.0045685573
31	0x3bde944d	0.006792581
32	0x3db83acd	0.0899559
33	0xbbb640e7	-0.005561936
34	0x3a2f536b	0.00066881505
35	0x3cfc828d	0.03082397
36	0xb9cab7b6	-0.00038665318
37	0xbd92d1e4	-0.0716894
38	0xbceadfc6	-0.028671157
39	0x3c8124d2	0.015764628
40	0xbc41f9c9	-0.011839339
41	0x3bc12671	0.005894475
42	0x3d6bf336	0.05760499
43	0x3cfdad13	0.030966317
44	0x3ca95e0b	0.020674726
45	0x3da36f50	0.079802155
46	0x3cd4a3e1	0.02595705
47	0x3be2c6ce	0.006920672
48	0xba39661d	-0.0007072406
49	0xbd00d8e9	-0.03145686
50	0xbd6a3c4a	-0.057186402
51	0x3b6e5bb9	0.003637059
52	0x3c24f7a7	0.010068811
53	0x3a2ccf37	0.0006592157
54	0xbd2a0a9d	-0.041514028
55	0xbd6cf46b	-0.057850283
56	0xbd9f9269	-0.077915974
57	0xbd145a02	-0.03621865
58	0xbc1e45a9	-0.009660163
59	0xbad3a480	-0.0016147047
60	0x3bf1e61c	0.0073821675
61	0x3cc1c3d1	0.023652943
62	0xbd2691a6	-0.040666245
63	0x3c72f522	0.014828952
64	0xbbe2a6a8	-0.0069168396
65	0xbcbc0011	-0.02294925
66	0xbd2998b0	-0.04140538
67	0x3c96958c	0.018381856
68	0x3d56fc93	0.052486967
69	0xbd081b48	-0.033229142
70	0xbc891685	-0.016734371
71	0x3c10f235	0.008846809
72	0x3c4c1a9c	0.012457516
73	0xbd5fd92e	-0.054650478
74	0x3b5d62c8	0.0033780802
75	0xbd37002f	-0.04467791
76	0x3c4d225d	0.0125204
77	0xbc63bfb5	-0.013900687
78	0xbd44fcec	-0.048092768
79	0x3cbb6964	0.022877403
80	0x3c9b79dc	0.018979006
81	0x3d1947a4	0.037421837
82	0xbc5db2ae	-0.01353137
83	0xbc9181f3	-0.01776216
84	0xbd030534	-0.031987384
85	0x3bcdcf3e	0.0062808087
86	0x3a2287b0	0.00062000286
87	0x3d427328	0.047473103
88	0xbca718dd	-0.020397598
89	0x3cf8d276	0.030373793
90	0xbc133f6f	-0.008987292
91	0xbc27190e	-0.010198845
92	0xbbc3391d	-0.005957736
93	0xbc80ca1b	-0.015721371
94	0x3d0883eb	0.03332893
95	0x3c901c51	0.017591627
96	0xbcb1d16f	-0.021706311
97	0xbcb0ed7d	-0.021597618
98	0x3c9c8302	0.019105438
99	0xbbcaeed2	-0.0061930204
100	0xbd175d63	-0.036954295
101	0xbd0cd1bc	-0.034379706
102	0x3b6ea434	0.003641379
103	0xbc85ee01	-0.01634884
104	0xba5dc25f	-0.00084594445
105	0xbd52d87f	-0.051475998
106	0xbd41c16f	-0.047303613
107	0x3d3f3fc1	0.04669166
108	0xbaf82467	-0.0018931747
109	0xbc5eb3ac	-0.013592642
110	0xbcf007e9	-0.029300647
111	0xbd263a6b	-0.040583055
112	0xbc1213dc	-0.008915868
113	0x3bdd2b2b	0.006749531
114	0xbc808f55	-0.015693346
115	0x3c941826	0.018077921
116	0x3c296efc	0.010341402
117	0xbc388524	-0.011262212
118	0xbcea387d	-0.028591389
119	0xbba385be	-0.0049903085
120	0xbc7d8438	-0.015473418
121	0x3cb83476	0.022485953
122	0xbcde9696	-0.027171414
123	0xbc921355	-0.017831484
124	0xbcc25bee	-0.023725476
125	0xbc4b0b6d	-0.012392861
126	0xbc64c075	-0.013961901
127	0x3bb87659	0.0056293425
128	0x3c8ca599	0.017168807
129	0x3caad3fe	0.020853039
130	0x3cdf593d	0.027264232
131	0xbd20fca2	-0.03930343
132	0x3b386646	0.0028137132
133	0x3d3beceb	0.04588024
134	0xbc74a1bd	-0.01493114
135	0x3c0b044e	0.008484913
136	0xbcb10c8c	-0.021612428
137	0xbc87ec55	-0.016592184
138	0xbbb467be	-0.005505531
139	0x3d239605	0.03993799
140	0x3cb1051a	0.021608878
141	0xbd0cb0da	-0.034348346
142	0xbc49547c	-0.012288209
143	0x3c184233	0.009293127
144	0x3c42a2ed	0.011879665
145	0xbbcc72c9	-0.0062392694
146	0x3d04aaae	0.032389335
147	0xbc89b39d	-0.01680928
148	0x3c1b9769	0.009496548
149	0x3c2f510f	0.010700478
150	0x3cfb05ef	0.030642478
151	0xbc17a438	-0.009255461
152	0xbd0e440d	-0.034732867
153	0xbb9b1dfc	-0.004733799
154	0xbd093d67	-0.033505823
155	0x3c992647	0.01869501
156	0xbba8b178	-0.005148109
157	0x3d8d4f63	0.068999074
158	0x3a32a564	0.0006814806
159	0xbd8472bd	-0.06467197
160	0xbbb11bf0	-0.0054049417
161	0xb927d220	-0.00016004639
162	0xbc9bda73	-0.019025063
163	0x3b07aa12	0.0020700735
164	0x3f7dada3	0.99093074
165	0x3c6a0dcd	0.014285517
166	0xbc921959	-0.017834352
167	0x3c1276b8	0.008939438
168	0x3d896969	0.067095585
169	0xbc0d1e39	-0.008613163
170	0x3c881ab5	0.016614297
171	0x3cd7bf81	0.026336433
172	0xbcc19682	-0.023631338
173	0x3dd18566	0.10230522
174	0x3d0b292e	0.03397482
175	0x3cc55de5	0.024092624
176	0xbd35a010	-0.0443421
177	0xbbf1fc8c	-0.0073848423
178	0xbd3cd77a	-0.046103932
179	0xbc6a9db5	-0.014319827
180	0xbc4680e3	-0.01211569
181	0x3d0e2b9b	0.034709554
182	0x3d80783d	0.06272934
183	0x3c5e16b4	0.0135552175
184	0x3cc2c527	0.02377565
185	0xbd01ecd0	-0.031719983
186	0x3b8947e7	0.0041894796
187	0x3bacbe38	0.0052716993
188	0x3c19ba20	0.009382755
189	0x3c6fc7dd	0.014635053
190	0x3c621650	0.013799265
191	0x3c97eb58	0.018544838
192	0xbb580a3d	-0.0032965087
193	0xbcc7b7c7	-0.024379624
194	0x3d138a15	0.036020357
195	0xbc92db59	-0.017926859
196	0xbc74a0ca	-0.014930913
197	0x3c8b0293	0.016969
198	0xbdd5420f	-0.1041299
199	0x3d0155b6	0.03157588
200	0xbd515767	-0.051108744
201	0xbda8da04	-0.08244708
202	0x3d5b8a20	0.053598523
203	0xbca9fb2f	-0.020749656
204	0xbeff2864	-0.49835503
205	0xbd860007	-0.06542974
206	0x3d840134	0.06445542
207	0xbcaff336	-0.021478277
208	0xbbeff032	-0.0073223347
209	0xbcea0cb1	-0.028570505
210	0xbc16a8d4	-0.009195525
211	0xbd5010ac	-0.05079715
212	0x3bd1fe63	0.006408499
213	0x3dc4b5b2	0.09604968
214	0xbd656c7a	-0.056011654
215	0x4017ddc0	2.3729095
216	0x3d15c9af	0.036569294
217	0xbc8a1d48	-0.016859666
218	0xbb63034d	-0.0034639419
219	0x3c8f6c6e	0.017507758
220	0x3a4ebce4	0.0007886423
221	0xbc3ee98f	-0.011652364
222	0x3c02cc20	0.0079832375
223	0xbe060c90	-0.1309073
224	0xbd1ff436	-0.039051257
225	0x3cba1213	0.022713697
226	0x3c8f828d	0.017518306
227	0xbc20e562	-0.009820314
228	0xbbdae52b	-0.006680151
229	0x393e950e	0.00018175339
230	0xbd011ea9	-0.03152338
231	0xbd85d3b0	-0.06534517
232	0x3c86d864	0.016460605
233	0xbe994410	-0.2993474
234	0xbc28dcdd	-0.010306564
235	0xbc7cbc2e	-0.015425725
236	0x3d314bed	0.0432853
237	0xbbc74b56	-0.006081979
238	0xbb7c3bc9	-0.0038487783
239	0xbd8a5d8d	-0.06756125
240	0xbc4b52c6	-0.012409871
241	0xbdb7cd7c	-0.0897474
242	0x3c829310	0.015939265
243	0xbc877952	-0.016537342
244	0xbc48b9cb	-0.012251328
245	0xbcffc397	-0.031221194
246	0xbd3909e4	-0.045175448
247	0xbe9af85c	-0.30267608
248	0xbca79de2	-0.020461027
249	0xba4aa811	-0.00077307323
250	0xbd2a0a44	-0.041513696
251	0xba9fcb80	-0.0012191385
252	0x3d1a33c4	0.037647024
253	0x3c191165	0.009342526
254	0xbcb0b702	-0.02157164
255	0xbd106b2a	-0.03525845

fc10.bias f4 [4]
0	0x3b545ed5	0.0032405157
1	0xbbc2d4b9	-0.0059457687
2	0x39c7fb0e	0.00038143288
3	0x3963c22e	0.00021720745

fc11.weight f4 [4, 2048]
0	0xbd8e1bd4	-0.069389015
1	0xbd8eb2cd	-0.06967697
2	0xbcc2a64f	-0.023760943
3	0xbd4301fb	-0.04760931
4	0xbcd36345	-0.025804171
5	0x3ca79c48	0.020460263
6	0xbd1d2d9e	-0.038373582
7	0xbc48773b	-0.012235458
8	0xbc6c91df	-0.014439075
9	0x3c7a6216	0.015282175
10	0xbd965a0c	-0.07341394
11	0x3e554a86	0.2082921
12	0xbd3d92ce	-0.046282582
13	0xbbf2caa4	-0.0074094106
14	0x3cb63321	0.022241177
15	0x3e0a66dc	0.135158
16	0x3a6fa9b9	0.0009142417
17	0xbbdca1de	-0.0067331633
18	0xbc1eb7b3	-0.009687352
19	0xbd85815f	-0.06518816
20	0xbc9cff19	-0.019164609
21	0x3d8a80fd	0.06762884
22	0xbce8238f	-0.028337268
23	0xbe3bc4d3	-0.18336801
24	0x3d17be1c	0.037046537
25	0x3d1a50ff	0.0376749
26	0xbb8b558d	-0.004252142
27	0xbd05be0c	-0.032651946
28	0xbd06ecf6	-0.032940827
29	0xbc9b3284	-0.018944986
30	0x3c3baaa9	0.011454263
31	0x3e13d27a	0.14435759
32	0x3ca0311c	0.019554667
33	0x3c908f07	0.017646326
34	0x3d132ca6	0.035931252
35	0xbd4a621c	-0.04940997
36	0x3cbb831a	0.022889663
37	0xbd47d0de	-0.048783176
38	0xbd361e48	-0.044462472
39	0x3ce10a7b	0.027470818
40	0x3ccbb34a	0.024865765
41	0xbc684ebd	-0.014178929
42	0xbc059fd7	-0.008155785
43	0xbcbe6ecf	-0.023246197
44	0xbc6b9953	-0.014379817
45	0xbda3034e	-0.07959615
46	0x3e005fb4	0.12536508
47	0xbdfb4cdb	-0.122705184
48	0x3c96bccf	0.018400578
49	0xbda0507b	-0.078278504
50	0x3b215ff7	0.002462385
51	0x3c8767eb	0.016529044
52	0x3db96090	0.09051621
53	0x3d82de48	0.06390053
54	0xbddb0089	-0.106934614
55	0xbda764fd	-0.08173559
56	0x3c54f6d6	0.012998303
57	0x3d64428d	0.05572753
58	0xbd3935ba	-0.045217253
59	0xbd9e46ed	-0.07728372
60	0xbc6e3194	-0.0145381875
61	0xbdd8363a	-0.10557218
62	0x3d093236	0.03349515
63	0xbda4ce0b	-0.08047112
64	0xbdbe3a2f	-0.092884414
65	0xbda602c1	-0.08105994
66	0xbdf9914d	-0.12185917
67	0xbdb1f7ae	-0.08689819
68	0x3d6845d7	0.05670723
69	0x3cef5921	0.029217305
70	0xbd5792e9	-0.05263034
71	0xbd7cf6a9	-0.06175867
72	0xbc928591	-0.017885955
73	0xbd9c027d	-0.07617662
74	0xbd8ee6b8	-0.069776
75	0x3d10d137	0.035355773
76	0xbd924200	-0.07141495
77	0xbd6d72bd	-0.05797075
78	0xbd30d13a	-0.043168284
79	0xbc8acf3f	-0.016944526
80	0xbde89383	-0.11356261
81	0xbcd05cb1	-0.025434824
82	0xbcf08405	-0.029359827
83	0xbd0ba725	-0.03409495
84	0xbd020e00	-0.031751633
85	0xbcd5b8d1	-0.026089104
86	0xbd423554	-0.04741414
87	0x3b900434	0.0043950323
88	0xbb189cf8	-0.002328692
89	0xbcd508b6	-0.02600513
90	0xbc0769b2	-0.008264946
91	0xbd87ae2e	-0.06625019
92	0x3d3bce98	0.04585132
93	0x3c02b0c1	0.007976712
94	0xbd8b5b5d	-0.068045355
95	0xbd5f548c	-0.05452399
96	0xbdb1bdc0	-0.0867877
97	0xbd380c96	-0.044933878
98	0xbd43b4b4	-0.047779754
99	0xbc94ee4e	-0.018180039
100	0xbcb9aaad	-0.022664392
101	0xbb3ce2b4	-0.002882165
102	0xbdba04d8	-0.09082955
103	0xbc17b80b	-0.009260188
104	0xbd5bf5dd	-0.05370127
105	0xbd843530	-0.06455457
106	0xbc5e8690	-0.013581887
107	0x3cec3117	0.028832002
108	0xbcbc39db	-0.022976806
109	0xbc50fe83	-0.012755993
110	0x3d822fac	0.06356749
111	0xbde33614	-0.11094299
112	0x3cbe24c9	0.0232109
113	0xbd8749f5	-0.06605903
114	0xbd9ec72c	-0.07752833
115	0xbcee1fd9	-0.02906792
116	0xbdade1b2	-0.084903136
117	0xbc9dd2a2	-0.019265477
118	0x3d081368	0.033221632
119	0xbb9ae2ed	-0.0047267587
120	0xbd2d9945	-0.042382497
121	0xbaeeec12	-0.0018228313
122	0xbd9d2cdc	-0.07674572
123	0xbd27b76a	-0.0409464
124	0xbce57b2f	-0.02801284
125	0xbcc593e1	-0.024118366
126	0xbd6d12b2	-0.057879157
127	0xbc2ccf0f	-0.0105474135
128	0xbd33ee88	-0.043928653
129	0xbc4253ab	-0.011860768
130	0x3c010763	0.007875296
131	0xbc2fa12b	-0.010719578
132	0x3e2130f9	0.15741338
133	0xbc0c2c01	-0.008555413
134	0xbd6e22c4	-0.058138624
135	0x3c6efb62	0.0145863015
136	0xbc90c789	-0.01767327
137	0xbb6ea9b0	-0.003641706
138	0xbca03741	-0.019557597
139	0x3cb2bda2	0.02181894
140	0xbc2265b0	-0.0099119395
141	0x3d7423ea	0.059604563
142	0x3cd7ca14	0.026341476
143	0xbd1be5a9	-0.038060818
144	0xbc87218a	-0.016495485
145	0x3c23d38f	0.00999917
146	0xbd3c4e1e	-0.045972936
147	0xbd03c3c1	-0.032169107
148	0xbcd6ab28	-0.02620466
149	0x3da0e543	0.07856228
150	0x3ab5e16e	0.0013876387
151	0xbd7453bd	-0.05965017
152	0x3d06ebf6	0.032939874
153	0x3cfa593c	0.030560128
154	0xbcaaebaf	-0.020864336
155	0xbcc6d59b	-0.024271777
156	0xbd58e25c	-0.052950248
157	0x3deb2870	0.11482322
158	0x3d86a639	0.06574673
159	0x3dca92ac	0.09891257
160	0xbd16a903	-0.036782276
161	0xbce0c7d3	-0.027439034
162	0xbd2158e2	-0.039391406
163	0x3d4b29fd	0.04960059
164	0x3d058e91	0.032606665
165	0xbc99d8f5	-0.018780211
166	0x3aa336e6	0.0012452274
167	0xbd6f44aa	-0.058415093
168	0x3d7237a1	0.059135083
169	0xbd8bf219	-0.06833286
170	0x3c7b5066	0.015338993
171	0xbce0ffd9	-0.027465748
172	0x3c999560	0.018747985
173	0xbd2f8ae1	-0.042857055
174	0x391cdc07	0.00014959286
175	0x3cc0f69a	0.023555089
176	0xbdc80d14	-0.097681195
177	0xbd22cdea	-0.039747156
178	0xbd53a619	-0.051672075
179	0xbd59364f	-0.05303031
180	0x3ca3c2c5	0.019990334
181	0xbd9764b6	-0.07392256
182	0xbdb1b67d	-0.08677385
183	0xbcc925fa	-0.024554241
184	0xbc2f5468	-0.010701276
185	0xbd590888	-0.05298665
186	0x3c13aa87	0.009012825
187	0x3c588ccb	0.013217161
188	0xbc686053	-0.014183122
189	0x3b6b6e30	0.0035923831
190	0x3c781fa7	0.015144265
191	0xbdcb1c9f	-0.099175684
192	0xbd8b5f8d	-0.06805334
193	0x3d176280	0.03695917
194	0xbb24d453	-0.002515097
195	0x3b1708a9	0.0023045933
196	0xbc3c5578	-0.011494987
197	0xbbb3dba0	-0.005488828
198	0xbd1a509a	-0.037674524
199	0xbd1a0b92	-0.03760869
200	0xbc5bff04	-0.0134275
201	0x3d6abc59	0.05730853
202	0x3d10021f	0.035158273
203	0x3c6cd7c9	0.014455744
204	0x3e8408fd	0.25788108
205	0xbcdcdd78	-0.026961073
206	0xbd3f5277	-0.046709504
207	0xbb8b4ed5	-0.004251341
208	0xbc6ef143	-0.014583888
209	0xba1b5198	-0.0005924939
210	0x3b3ae204	0.0028516063
211	0x3c91ee8d	0.017813945
212	0xbb01c084	-0.0019798586
213	0x3c328aef	0.010897382
214	0x3c9ffe84	0.019530542
215	0xbe111b59	-0.14170589
216	0xbcdf6952	-0.0272719
217	0xbc94c1a7	-0.018158747
218	0x3bcba6a8	0.0062149353
219	0x3cfaf9c3	0.030636674
220	0x3c3cd790	0.0115260035
221	0xbd822c91	-0.063561566
222	0x3d1b50ff	0.03791904
223	0x3db3b730	0.087751746
224	0xbd011d74	-0.03152223
225	0xbd2fce9e	-0.042921655
226	0xbcfefb47	-0.031125678
227	0xbca19eaa	-0.019728977
228	0xbd01a8cf	-0.03165513
229	0x3ba22ce8	0.004949201
230	0xbd10a0c6	-0.035309575
231	0xbe37069a	-0.17873612
232	0xbd9f1e57	-0.07769459
233	0xbdebca17	-0.11513155
234	0xbcdcb95c	-0.026943855
235	0xbcae456a	-0.021273334
236	0xbd06ef18	-0.03294286
237	0xbd14f345	-0.036364812
238	0xbd926d29	-0.07149727
239	0xbe1a0402	-0.15040591
240	0x3b23e4ff	0.0025008318
241	0x3b48a817	0.0030617767
242	0xbcbf0175	-0.023316124
243	0xbc8c3422	-0.017114703
244	0xbd59abca	-0.053142346
245	0xbd774cae	-0.06037586
246	0x3d403a0d	0.04693036
247	0xba65ec72	-0.000877089
248	0xbbf0670f	-0.0073365043
249	0xbcd6d16b	-0.026222905
250	0xbd00f876	-0.03148695
251	0xbc6181a5	-0.01376382
252	0xbc684917	-0.014177582
253	0xbb865e3c	-0.004100589
254	0xbbd74f33	-0.0065707206
255	0xbcc32be9	-0.023824649

fc11.bias f4 [4]
0	0xbd25ef5c	-0.040511474
1	0xbd08ce1c	-0.033399686
2	0xbd2e92ef	-0.042620596
3	0xbd29ce2a	-0.04145638

fc3.weight f4 [512, 4]
0	0x3f3bf987	0.73427624
1	0x3f971e1c	1.1806064
2	0xbf02d99f	-0.51113313
3	0xbea5507a	-0.3228796
4	0xbeccbd10	-0.39987993
5	0x3dc2179f	0.094771616
6	0x3eb55edf	0.35423943
7	0x3f6c0cb1	0.92206866
8	0x3f520f59	0.8205467
9	0x3fcaf5ba	1.585624
10	0x3f547797	0.8299498
11	0xbda78154	-0.08178964
12	0xbea48fa0	-0.32140827
13	0x3e6ce54c	0.23134345
14	0x3d5b81ba	0.053590514
15	0xbe8fb53b	-0.28067955
16	0x3d70bbab	0.058772724
17	0xbf4af106	-0.7927402
18	0x3f911fe4	1.1337857
19	0xbe2c93e4	-0.16853291
20	0x3e86a6c5	0.2629911
21	0xbea48571	-0.32133058
22	0x3c100cbc	0.008792099
23	0x3e126920	0.14297915
24	0x3ecb8d85	0.39756408
25	0xbe6c404c	-0.23071402
26	0xbeaed8df	-0.34149835
27	0xbd055b28	-0.032557636
28	0xbdb50af9	-0.088399835
29	0x3ec440d8	0.38330722
30	0x3c19c6c9	0.009385773
31	0x3e3cf716	0.18453631
32	0x3f8e1fbb	1.1103433
33	0xbed6cbf2	-0.41952473
34	0x3e1aca2e	0.15116188
35	0xbf2906f9	-0.66026264
36	0xbbcb4c0b	-0.0062041334
37	0x3f76cd8d	0.96407396
38	0xbe5cd2a5	-0.2156473
39	0x3f015980	0.5052719
40	0xbf7d20ba	-0.9887806
41	0x3f5ec0de	0.8701304
42	0x3f0b6ce0	0.54463005
43	0xbed5868f	-0.41704223
44	0x3f8a64ab	1.0811971
45	0x3e8dd5b7	0.27702114
46	0x3e5b9296	0.21442637
47	0x3ea938f2	0.33051258
48	0xbe2c8653	-0.16848116
49	0x3ebf5f19	0.3737724
50	0x3d80f65a	0.06296988
51	0x3df5ab5d	0.119955756
52	0x3ef2bf69	0.4741166
53	0x3c479de0	0.012183636
54	0xbe01dcfa	-0.12681952
55	0xbeb22128	-0.3479092
56	0x3e6070a7	0.21917973
57	0x3ddabbce	0.10680352
58	0xbcca97f0	-0.024730653
59	0xbec82bf1	-0.39096025
60	0x3ebda3e2	0.37039095
61	0x3e533195	0.20624383
62	0xbc97c056	-0.01852433
63	0xbea46111	-0.32105306
64	0x3e85f35c	0.2616223
65	0xbe149322	-0.14509252
66	0xbec30cfe	-0.3809585
67	0xbf3c4498	-0.73542166
68	0x3e99bcd1	0.30026868
69	0xbe73ec02	-0.23820499
70	0x3e95b6ee	0.29241127
71	0x3cbd2d12	0.02309278
72	0x3ed37afd	0.4130477
73	0xbe9ddf10	-0.30834246
74	0x3f379448	0.71710634
75	0xbc4139ef	-0.011793598
76	0xbe886cde	-0.2664556
77	0x3e969fae	0.294187
78	0x3d112221	0.03543294
79	0xbe81e675	-0.25371137
80	0x3e020eb3	0.1270092
81	0xbe27bdf3	-0.16381054
82	0x3d03d801	0.03218842
83	0x3d99546c	0.07486805
84	0x3f7617e5	0.9613021
85	0xbe836ac9	-0.25667408
86	0xbda2f80f	-0.0795747
87	0xbd9eab31	-0.07747496
88	0x3e261e9a	0.16222611
89	0x3f122c9f	0.57099336
90	0x3b467479	0.0030281825
91	0xbbec45c7	-0.0072104665
92	0x3f3c2d83	0.73506945
93	0x3de45278	0.11148542
94	0x3d636e2d	0.055524994
95	0xbe6ce161	-0.2313285
96	0x3e5be54b	0.21474187
97	0xbf5ea6dc	-0.8697336
98	0xbf1b62e4	-0.6069777
99	0xbe6a3e09	-0.22875227
100	0xbf10f239	-0.566196
101	0x3efa422a	0.48878604
102	0xbeaa074e	-0.33208698
103	0x3d62f630	0.055410564
104	0xbd045f64	-0.032317534
105	0x3d2e3572	0.04253144
106	0x3d63a254	0.05557473
107	0x3d2daabd	0.042399157
108	0x3e9d4a23	0.30720624
109	0xbe32cd95	-0.17461236
110	0x3eb3097b	0.3496817
111	0x3b82e30b	0.003994351
112	0x3f5b9ff1	0.85790926
113	0xbe7c6c14	-0.24650604
114	0xbe019367	-0.12653886
115	0x3d9162d0	0.07098925
116	0x3f49af34	0.78782964
117	0xbc796835	-0.015222599
118	0xbc717d3c	-0.014739331
119	0x3cca71fb	0.024712553
120	0x3e6912ee	0.22761127
121	0x3f5fc12a	0.8740412
122	0xbbf2aaca	-0.0074056135
123	0xbe3eebe6	-0.18644676
124	0xbeca273a	-0.39483052
125	0x3e220a38	0.1582421
126	0x3cd53f5e	0.026031192
127	0x3e766c10	0.2406466
128	0x3fdb7f38	1.7148199
129	0xbeb4c8c4	-0.35309422
130	0xbea7e330	-0.32790518
131	0xbd17dbf1	-0.037074987
132	0xbf1611ac	-0.58620715
133	0xbdd745d1	-0.10511363
134	0x3df092dd	0.11746762
135	0xbde6ccbe	-0.1126952
136	0xbeb5d3f9	-0.35513285
137	0x3e9cddb5	0.306379
138	0xbf0d3e9f	-0.5517368
139	0xbd2053af	-0.039142307
140	0x3db901ea	0.09033568
141	0xbbfee51a	-0.007778776
142	0x3f6bdc60	0.9213314
143	0x3d9bbc57	0.07604282
144	0xbdd7e421	-0.10541559
145	0xbd0a704b	-0.033798497
146	0x3ccaf8b9	0.024776803
147	0x3c9756b9	0.01847397
148	0xbeeb710b	-0.45984682
149	0xbeeb42ec	-0.45949495
150	0x3cb82402	0.022478107
151	0x3c3b7caf	0.011443301
152	0x3e4fd598	0.20296323
153	0x3e783be5	0.24241598
154	0xbd420410	-0.047367156
155	0x3f050154	0.5195515
156	0xbf6538cd	-0.89539796
157	0xbdc3e077	-0.09564298
158	0x3c09424f	0.008377626
159	0x3d0e525b	0.03474651
160	0x3ea5c39a	0.32375795
161	0xbedbb90b	-0.42914614
162	0xbf69b638	-0.9129367
163	0xbf371d18	-0.7152877
164	0xbeca5e06	-0.3952486
165	0xbe39ef4e	-0.18157694
166	0x3d56c877	0.052437272
167	0x3cbc6094	0.02299527
168	0xbf0894eb	-0.5335223
169	0x3f3aada4	0.72921205
170	0xbe01c741	-0.12673666
171	0xbd6e0a04	-0.05811502
172	0x3e522984	0.2052365
173	0xbf141575	-0.5784524
174	0xbd4b949f	-0.049702283
175	0xbda517eb	-0.080612026
176	0x3ee3449a	0.44388276
177	0xbe03f261	-0.12885429
178	0xbad982ba	-0.0016594746
179	0xbed8759b	-0.42277226
180	0xbf543014	-0.8288586
181	0xbeb19ac6	-0.34688395
182	0x3a1bd6c8	0.00059447857
183	0x3eac6984	0.33674252
184	0xbf3189ca	-0.69350874
185	0x3e1990cc	0.14996642
186	0x3cd61c24	0.026136465
187	0xbd6d696d	-0.05796187
188	0xbef60632	-0.48051602
189	0xbfab24a3	-1.3370556
190	0xbe72dadc	-0.237163
191	0x3e449d99	0.19200744
192	0xbf2a61f8	-0.6655574
193	0xbe6c16fc	-0.23055643
194	0x3e504989	0.20340551
195	0x3e7b26a9	0.24526466
196	0xbd5e9197	-0.054338064
197	0x3f08cbc4	0.5343592
198	0x3e2b6881	0.16739084
199	0x3e2c0309	0.16798033
200	0xbe50ee81	-0.20403482
201	0x3d9a7873	0.07542505
202	0x3dcad9b7	0.09904807
203	0x3f54fac2	0.83195126
204	0xbdfe4921	-0.12416292
205	0x3e6a597c	0.22885698
206	0x3cca87fa	0.024723042
207	0x3f2b47c4	0.6690638
208	0x3e8c250c	0.27372015
209	0xbe92ab7e	-0.28646463
210	0xbd343079	-0.04399154
211	0x3f3f1337	0.74638695
212	0xbf0ab8ed	-0.54188424
213	0x3f579013	0.84204215
214	0xbd01e9be	-0.031717055
215	0xbd92b5f3	-0.0716361
216	0x3ea83f47	0.32860777
217	0x3ea2a073	0.31763038
218	0x3d338b24	0.043833867
219	0xbf169ae3	-0.5883009
220	0xbd383aea	-0.04497806
221	0x3ef2d209	0.4742587
222	0xbe0c06b4	-0.13674432
223	0x3f0d3ce9	0.55171067
224	0xbf5ec30c	-0.8701637
225	0xbe00e5a1	-0.12587596
226	0x3bdc386f	0.0067205946
227	0x3ce1eb5e	0.027578052
228	0x3d66c815	0.056343157
229	0xbefd3acb	-0.49458918
230	0xbe8be2c7	-0.27321455
231	0x3f682487	0.90680736
232	0xbdf8ad1d	-0.12142394
233	0x3e845d90	0.25852633
234	0x3cd0110a	0.02539875
235	0x3efcafa4	0.49352753
236	0xbd9acf93	-0.07559123
237	0xbed10769	-0.40825966
238	0xbd2f618d	-0.04281764
239	0x3f96bf63	1.1777157
240	0x3ecc6b9e	0.39925855
241	0xbe137fe4	-0.14404255
242	0xbc3beb0f	-0.011469617
243	0x3ecd00ce	0.40039676
244	0xbe81aa82	-0.253254
245	0x3f2171ea	0.63064444
246	0x3d3167ac	0.04331176
247	0xbfe212f0	-1.7662029
248	0x3e0c9bd6	0.13731322
249	0x3e3027a9	0.17202629
250	0xbd16fa5e	-0.036859863
251	0xbe655f98	-0.22399747
252	0x3e272a2d	0.16324683
253	0x3fb390ae	1.4028528
254	0x3e0873d5	0.13325436
255	0xbf848dbd	-1.0355755
