saved_models_2D/dataset_noacc/no_freeze/folds/CVAE2D_4_5_100_200_fold_3.pth (torch, 243348 bytes, 37 tensors)

conv1.weight f4 [16, 1, 3, 3]
00000000: a630 603f bb28 14bf ca6d 743f def8 723e
00000010: a524 953d 70eb 75be f70c 84be d382 df3e
00000020: 271d 1abf 42d1 513f b282 623f bb1a 0d3f
00000030: f31b d8bd 94fb e8bd e14c 963e 9eeb a83e
00000040: 15d9 09bd d0db 383f 4214 e2be 7c3d 563e
00000050: 917c 67bf 6cb2 6bbf e638 a2be 1620 2d3f
00000060: bfd1 043f aa7d 36bf 1670 04be ae5c 2c3f
00000070: 9210 1d3e 5674 013f de98 75be 13f2 14bd
00000080: b298 bcbe fa57 a83e bfdf a6bf 787f a1bf
00000090: d20e 67bd 2c42 9dbe dd97 453e 0448 35bd
000000a0: c87f fdbe f227 aa3e b5e8 163a 7d87 7cbe
000000b0: 3018 1fbf bbd4 b23d a9f8 4dbe 0973 a43e
000000c0: 4fbb 64bd f60c ea3e 15de 273f 9e01 9fbe
000000d0: 93c1 443e db7f 763f 98b6 84be cbc9 a1bf
000000e0: e47d c7be cb67 a9be 4e1c 39bf cb3b 53be
000000f0: b470 023f 14d6 2bbf 3902 113e 31ad e0be
00000100: 2e7d 65be fd8b a7bf 8a38 17bf 091f debd
00000110: 0f93 943d 8169 9b3f 90a3 b63f 00b8 0a3b
00000120: 6dcd abbe b841 bf3e dd80 47bf 0880 613f
00000130: 952e 0dbe ec8f c739 d88b 24be 3cdf 823e
00000140: c1d1 45bf adb1 4fbf 9b62 ff3e 9ac1 46be
00000150: 4468 61be 2b74 c73e fbf3 dfbe ba44 52be
00000160: dbd9 b73e e5d3 92bc 9b82 2d3f be90 19bf
00000170: 61ff 2cbf 6f98 fe3e 9203 3fbd a971 cdbe
00000180: 92be 56be 50bf 053d 87cf 16bf b937 243f
00000190: ec13 5ebf 7a33 eabc 09c6 3abe 3b13 d1bd
000001a0: ddbf 7fbf 29eb 483e 24d4 ebbd 5266 c6bd
000001b0: 4ba2 16bf ed44 53be ee17 233d b008 1a3f
000001c0: d072 983e 8b85 7ebe 6687 5cbe 0798 22be
000001d0: 5ffd 18be 8508 723f 2ef1 0abd cce0 05be
000001e0: 2bfc c5be b387 d4be 6333 70bf c068 0ebe
000001f0: edb7 8e3d 6c44 a73d 4ad2 13be 358e 3b3e
00000200: 7129 6dbe 00b4 adbe 0bb4 373d 50e4 173f
00000210: 2560 923e d88a 07bf 561d e83e b338 ad3e
00000220: 17a7 4dbd 1383 98be ad44 e03e 4841 273f
00000230: d225 05bf da15 dcbe bdd2 343f da51 4a3d
0.8757423 -0.5787465 0.95480025 0.23727748 0.0728238 -0.24015594 -0.2579114 0.43654498
-0.6020073 0.8195993 0.88480675 0.5511891 -0.10552206 -0.1137611 0.2935553 0.32992262
-0.03365429 0.7221041 -0.4415608 0.20921892 -0.9042445 -0.92069125 -0.31684035 0.67627084
0.5188255 -0.712855 -0.12933382 0.6732892 0.15338352 0.5056814 -0.23984095 -0.036363672
-0.36835247 0.3287962 -1.3037032 -1.2617025 -0.056410618 -0.30714548 0.19296212 -0.044258133
-0.49511552 0.332336 0.0005756722 -0.2466106 -0.6214628 0.08731981 -0.20114388 0.32119015
-0.055842694 0.45713013 0.65573245 -0.3105592 0.19214468 0.9628884 -0.25920558 -1.2639707
-0.38963234 -0.33087 -0.72308815 -0.20628278 0.5095322 -0.6712353 0.14161004 -0.43882135
-0.22411034 -1.3089596 -0.59070647 -0.10845763 0.07254612 1.2141572 1.4268665 0.0021166801
-0.33555165 0.37354827 -0.77931005 0.88085985 -0.13787301 0.00038063468 -0.16068971 0.2556094
-0.77273184 -0.81130487 0.49879918 -0.1940979 -0.2201243 0.38955817 -0.4374083 -0.2053403
0.35908398 -0.017923305 0.67777413 -0.59986484 -0.6757718 0.49725673 -0.046634264 -0.40125778
-0.20971134 0.032653153 -0.5891041 0.64147526 -0.8674915 -0.028588999 -0.18239607 -0.10208746
-0.99902135 0.19620956 -0.11515072 -0.09687485 -0.5884139 -0.20631762 0.039817743 0.60169506
0.29775095 -0.2485563 -0.21536025 -0.15878306 -0.14940403 0.9454425 -0.033921413 -0.13074034
-0.3866895 -0.4150978 -0.9382841 -0.13907146 0.06968675 0.08167347 -0.14435688 0.18315966
-0.2316034 -0.33926392 0.044849437 0.5933275 0.28588977 -0.52946234 0.45334882 0.3383232
-0.050208177 -0.29787502 0.43802395 0.65333986 -0.52010834 -0.4298542 0.7063406 0.049394466

conv1.bias f4 [16]
00000000: 464b b43d 2ad0 8e3b 8b9d 27bd cb3d 3a3d
00000010: 549a 8d3d 0313 e9bc beaf f13c 0523 d6bb
00000020: 5764 5cbd 886c 90bb dffa 05bd 5395 be3c
00000030: 9737 7cbd e5ab 113d 974c d8bc 8b58 0bbc
0.0880342 0.004358311 -0.04092173 0.045469087 0.069142014 -0.028451448 0.029502746 -0.0065349364
-0.05380663 -0.004407469 -0.032709952 0.023264563 -0.061576452 0.035564322 -0.026403708 -0.008504997

conv2.weight f4 [32, 16, 3, 3]
00000000: 7604 823c 1eaa d3bd ca27 cd3d 5ca3 5dbc
00000010: 93fd ac3d 3d71 bbbd 7573 2dbd 04d2 d23d
00000020: 91f6 38be 0303 e43c 722e 52be 1942 6c3d
00000030: 3002 b33d 78c7 c0bd b24e f8bd 9a98 e6bd
00000040: 629b 92bc eb1e 053e fadd 7f3e 17a5 403c
00000050: 68c5 49bd a340 34bd d7d3 a73d 1b1f 273d
00000060: 61a5 83bc bdd9 6f3d 91a7 ae3d 7b06 f03c
00000070: f84a 8c3c 3b2f 713d 46bf 88bd 025e 323d
00000080: d4ed 6fbd 416a 1f3e 94cf dcbd 2298 04bd
00000090: fc05 b8bc fd89 933e 6fbd 21be 29b4 f5bc
000000a0: a26f ef3c 7304 70be f2f5 923d 09cf 8dbe
000000b0: fb08 36bb 316a d03d 8aa0 8e3d 676b 4b3e
000000c0: 86d4 513e c824 c23d e6f5 223e 444a a53d
000000d0: f54b a0bd e242 143e 08d1 c83d fee1 c33d
000000e0: e4d9 1c3d e8a1 b5bd 9278 793d d997 ff3c
000000f0: 7f55 c9bc 1931 bebd aa3d 4b3c 6d50 0ebe
00000100: 4ac8 c13b a70f b53d 4d40 aa3c c7ae 28bc
00000110: 43c5 713c 4504 2e3e a40f d83d 7a75 1dbe
00000120: aaf7 e83c d630 193e d72e 90be 0a99 ddbd
00000130: c356 8f3e 6454 f2bc 94c6 a93d 700e 61bc
00000140: 855b 81bd 59a5 c03d c1b0 40bd 12d7 223e
00000150: 2428 2c3e ea09 34bd 0f5a 0a3e 3d86 82bd
00000160: ea9d 9abe 2e6b 203e 647d 2e3e 13b0 cebd
00000170: 7777 49bd 7e88 a8bd 9cf3 83bd 9ddd 073e
00000180: 0d1d 2bbd d0c7 a5bd 66d2 8fbc b893 353e
00000190: 5858 083d ca24 a2bd 8c59 a5bd c1f3 bbbc
000001a0: a3e5 b13b 9e11 55bd f500 0cbe edf9 003a
000001b0: 0c00 8ebc 3144 9c3d f515 013e 5556 b03a
000001c0: 5535 82bd c69e 3dbe 561e 0dbe 4a96 4cbe
000001d0: 8d67 ecbd d24a 2f3c 8862 953d 1834 683b
000001e0: 15ae e3bd d90e ad3a 73e1 e93d ac7a 353e
000001f0: 97c8 b93d fd51 a8bd ca1e 083e 2019 0fbe
00000200: 88ed 0b3e a90a 36be 9676 bcbd b5cc 993d
00000210: c9a8 a8bc 2a30 a13d 7882 013e 4161 eebd
00000220: d8cb 5d3e 5963 e3bd 405f 80bd 0e3a 0fbe
00000230: d548 cdbd 07ed ff3b ed35 0f3c ea2b 183d
00000240: f944 f2bd 1fab a1bd 3331 a8bd b691 6f3e
00000250: 2edc 38be 49fe 2c3d 9448 2d3d 880b edbd
00000260: cea8 173e 4b37 043e 143d 5c3d 2823 80bd
00000270: f348 17be 898e 203d 4384 74bd 8389 ed3d
00000280: 57f3 5a3d 7f49 65be a382 02be 29df 91be
00000290: d3f3 d53c 29b2 0cbc 655d 19bc 1e3e 3e3d
000002a0: 2537 8dbd 0100 913d 2084 373e ef90 e03a
000002b0: 0741 193d a8b0 2fbe 0a98 833d 1b8a ac3c
000002c0: e6a0 08be be55 0a3e 4bde 503c 6ba9 b63d
000002d0: 6c51 6bbe 130b 79be 76fe b73d 21af 55bc
000002e0: 54c6 3f3e ac41 56bc be7d 703d df75 f23d
000002f0: ab03 843d 7ef3 a2bd dccc bcbc 10cf 99bd
00000300: 6da7 743d 3d05 dd3d ed9d bcbc 7fdf cd3d
00000310: 08cd fc3d b961 18be 98f5 8f3d b00f 51be
00000320: d822 aabd e423 fd3d 8c49 aabc 9ae7 a53d
00000330: cab9 823c 3869 44b9 4a60 07be 6234 963c
00000340: e4c9 7bbd 233d 17bd c471 203d 7356 a5bd
00000350: 13e9 0fbe 1ea5 d03d 94a5 06bd 1f06 97bd
00000360: 59e9 d33d 9068 2dbe bfa7 21be 49a1 57bc
00000370: a2d7 5c3c 1bd8 54bc 49ae 15be 6232 06be
00000380: 6c69 eebd a636 c3bc f2cd b03d 57f3 303d
00000390: f568 223e 8919 29bd ee3a 073e 8b40 8a3c
000003a0: ac1e 963d 879a bcbd 8df7 113a b138 65bc
000003b0: 627c ef3d a6d0 2e3d 2ac1 093e 91fd a23d
000003c0: 8576 203d 1f61 4bbd e7ba 7abd eb5d f8bc
000003d0: 88c6 d4bc b8ef 963d 2a7d a1bd 1b70 fd3d
000003e0: 3b1c 843e ff91 4fbe f8b7 ed3d b94c 09be
000003f0: 6079 013e d596 17bd 867c 58bd f94c e33d
0.015871268 -0.10335182 0.10017355 -0.013527717 0.08446803 -0.09152458 -0.042346437 0.102939636
-0.18062808 0.027833467 -0.2052553 0.057680223 0.087406516 -0.09413046 -0.12124385 -0.11259575
-0.017896358 0.13000076 0.24987021 0.0117581105 -0.049260527 -0.044006955 0.08194702 0.04080115
-0.01607007 0.05855726 0.085280545 0.029299965 0.017125592 0.058882933 -0.066771075 0.043546684
-0.05857642 0.15567876 -0.1078178 -0.032371648 -0.022463791 0.28816214 -0.1579492 -0.029993134
0.029228035 -0.23439197 0.071758166 -0.27697018 -0.002777635 0.101765044 0.06964214 0.1986519
0.20491228 0.09479672 0.15914115 0.08070806 -0.07826988 0.14478639 0.098054945 0.09564589
0.038293734 -0.08868772 0.060906 0.031200336 -0.0245769 -0.092867084 0.012404839 -0.13897868
0.005913769 0.08840876 0.020782614 -0.010295576 0.0147565035 0.16993816 0.10549858 -0.15376845
0.028438408 0.14960036 -0.28160736 -0.108202055 0.2799588 -0.029581256 0.08289829 -0.013736352
-0.06316284 0.094065376 -0.047043566 0.15902355 0.16812187 -0.043954767 0.13510917 -0.0637326
-0.30198604 0.15665886 0.1704002 -0.10092177 -0.049186196 -0.08229159 -0.06442949 0.13268133
-0.04177575 -0.08094752 -0.01755638 0.17732131 0.033287376 -0.07917173 -0.0807372 -0.02294338
0.005428986 -0.052018754 -0.1367224 0.00049200543 -0.017334007 0.07630194 0.12606032 0.0013453463
-0.063578285 -0.18517599 -0.13781103 -0.19979206 -0.11543188 0.010698991 0.07294184 0.003543144
-0.11117188 0.0013203277 0.11419954 0.17722577 0.090714626 -0.08218763 0.13292995 -0.13974428
0.1366483 -0.17777504 -0.09202306 0.07509748 -0.020588296 0.07870515 0.12647426 -0.116396435
0.21659791 -0.111029334 -0.062681675 -0.1398699 -0.10023657 0.0078102383 0.008740884 0.037151255
-0.11829562 -0.07893967 -0.08212509 0.23395428 -0.18052742 0.042234693 0.042305544 -0.11574465
0.14810488 0.12911718 0.053769186 -0.062567055 -0.14773922 0.039198432 -0.059696447 0.11598494
0.053454723 -0.22391318 -0.12745146 -0.2849057 0.026117241 -0.008587399 -0.009360646 0.04644596
-0.068952836 0.07080079 0.17921495 0.0017133037 0.03741553 -0.17157233 0.064254835 0.021061948
-0.13342628 0.1350927 0.012748311 0.08919033 -0.22980279 -0.2432063 0.089840814 -0.013042242
0.18728 -0.013077181 0.058713667 0.118388884 0.06446012 -0.07956599 -0.023046903 -0.07510197
0.059729982 0.10792015 -0.023024524 0.10052394 0.12343794 -0.14881028 0.07029265 -0.2041614
-0.08307427 0.12360361 -0.020787023 0.08100815 0.015957732 -0.00018731214 -0.13220325 0.018335525
-0.061471835 -0.03692354 0.039170995 -0.080731295 -0.14053755 0.101877436 -0.03287275 -0.073742144
0.10347242 -0.16934419 -0.15786646 -0.013161012 0.013479145 -0.012990977 -0.14617266 -0.13105157
-0.116412014 -0.02382977 0.08633031 0.043200817 0.1586035 -0.041284118 0.13206074 0.01687648
0.07330069 -0.09209161 0.0005568199 -0.013990567 0.11693646 0.04267945 0.13452592 0.0795852
0.03917553 -0.04965317 -0.0612134 -0.030318221 -0.025973573 0.073699415 -0.07885201 0.12374898
0.25802788 -0.20270537 0.11607355 -0.13408174 0.12643957 -0.03700908 -0.05285313 0.11098666

conv2.bias f4 [32]
00000000: 7661 05bd fa08 8c3d e1ab 9b3c e45c 8bba
00000010: fd86 833b 5700 94bc c1dd 053c 116e 353d
00000020: 0b33 4f3c bc73 af3c 654e a13d 74e8 873d
00000030: 80ca f13a 853f 653d 976c 07bd 1408 b9ba
00000040: 49b1 403b 3c29 583d e533 883d 98fc 0c3d
00000050: f310 93bd 243a 863d b45e 0a3d 2499 f0bc
00000060: fa79 d23c 1eba a63d 78d7 ef3a 9cfb 17bd
00000070: cd46 97bd 973e 033d 5f87 2e3c 1fae bfbd
-0.03256365 0.0683765 0.019002857 -0.0010632542 0.0040138946 -0.018066568 0.008170546 0.04429442
0.012646447 0.021417491 0.07876281 0.06636134 0.001844719 0.05596878 -0.033062544 -0.0014116787
0.0029402545 0.0527737 0.06650523 0.03442058 -0.07180967 0.06554058 0.033781722 -0.029369898
0.025692929 0.08140968 0.0018298468 -0.037105188 -0.07386551 0.032042112 0.010652392 -0.09359383

conv3.weight f4 [32, 32, 3, 3]
00000000: 85c2 2b3d 4c5d f9bc 306c 363d 9458 883d
00000010: 7547 46be 8cf3 b53d 9c7e 25bc 4624 53bc
00000020: d8a4 6fbd 6f83 cbbc 802f 26bd 01a2 06bd
00000030: 20cc 96bd 2fca cfbd 7208 91bd 3cc2 5abe
00000040: 2ee9 123d 54d7 5f3d 61cf 0c3e dd6c bb3d
00000050: 1e8d 9d3c 8e25 c2bd 4c86 b13c 35bf 953d
00000060: ed2b 343d 719d 14bd cd7d f73d 95b8 00bd
00000070: 4f65 9b3d 8d5c c0bd 2ddb c43d ba58 03be
00000080: 6928 65bd f1b9 1f3d 5b74 8dbc 30a8 b93d
00000090: ea95 c43d 3c1a 753c 4bfb 363d 79ab e23c
000000a0: d1b1 563d c8e8 8bbd 03cb 943a c85b 41bd
000000b0: f60c acbd 7c76 f13d 5b14 b6bd b0e7 e4bc
000000c0: 1e6e 9a3c e025 a6bc 72b2 463c cf0d 073e
000000d0: 33ae 59bd 8482 3a3d 5091 043d 9eea ee3c
000000e0: 3be3 97bc e496 a13c e89e 113e d220 bd3c
000000f0: 7660 1c3e fdd7 ffbc 026a 82bd 2c51 04bd
00000100: 9aa7 a03d 7f76 88bd b900 7d3d bd31 89bc
00000110: 4b60 bc3d d815 413d 4aa9 26bd 67f2 10bd
00000120: 5921 a23c 9c8c 3cbd ab6c 443a e89c 0e3d
00000130: 8dd6 88bc bf03 b4bd 22fe 7bbd 538b c2bd
00000140: 0f36 1abe beba fbbd 301f c73d 4fbb 87be
00000150: a1b5 d03d 099e d93d 6253 30bd 31b7 11ba
00000160: 8916 d43c 3d53 bd3d 8881 1f3d 76f9 f43c
00000170: 3caa 5bbd 6c36 f63c 83c0 dd3d 143f 383d
00000180: 3706 20be 1454 f73b 8f1f cd3d a97c a2bc
00000190: 1ceb a83c e467 f6bb 2c35 eabd 56d1 5a3c
000001a0: 074c f43d 3b11 333d 415f bd3d cb0e d23d
000001b0: 6378 babd 103b 01be 83b4 e6bd a51b 2e3e
000001c0: 136e eebd 2da7 03be 74d6 f7bc 244c 30be
000001d0: 0672 303d 55e5 553d b699 b6bc cabf 213e
000001e0: acb0 aa3b 4c4b bebd ae6b 67bc 83c6 0cbd
000001f0: d199 23bc 31c2 fa3a fb54 0cbd 9fe2 293b
00000200: 3822 b73d f595 9d3d 7bf9 b43c 6718 983a
00000210: 3aa3 07be f1ee 9dbd 8993 a33c 3233 9c3d
00000220: 92b2 febc 77c4 4e3e 180f 17bd 7319 863d
00000230: f1b9 433e b2b5 42bc d1b1 783d 2b56 0c3e
00000240: d6ff f6bc d830 42bc c8d8 2c3d e4b2 d63b
00000250: eb29 77bc c292 fe3d 75d8 843e 8061 993c
00000260: 3b74 953c af90 39bd ea9e 2e3a eac7 b63d
00000270: c5df 7b3d ae78 83bc b992 8ebd ae6f a23b
00000280: db2b 223d 2a5f af3d 9b2f d73b 232e b23d
00000290: c6e4 4dbd 3599 fabc 4544 083d 61f6 d23d
000002a0: 1033 5a3e 1220 533d 6b82 943d d0c9 373d
000002b0: d64f 803c 2a35 36be 1bee 8e3c 11ac e43d
000002c0: fb20 b03d bc4b 17bd 05d0 c53d 57e8 113e
000002d0: 7fed 4c3d dcfe 4ebe bd46 ffbd 3add de3d
000002e0: b08b 4c3e 6ca8 203d d220 2a3e bf37 4f3e
000002f0: b1dc 3bbd 106a 963b 6601 c53d a409 ae3d
00000300: 74e9 50bc 6497 193d 8919 9dbd d5b3 60bd
00000310: cf71 bc3d 3fc6 f63d 18b2 4a3d d995 1e3d
00000320: 549c 43bc bc4b c33d 3792 5b3d 1e21 2ebe
00000330: 39e8 f2bc f22f b93d 53ea d0bd e71a bb3d
00000340: 0182 07ba 4d5a 4fbd 82a5 993d d2a8 2abd
00000350: ea80 eabd b5a1 293d bb29 28bc c1fc a03d
00000360: e91e 23bd ab78 753d a707 cebd 6319 0f3d
00000370: 19f3 283e 4ad6 c43d b29c 513d f8a5 623e
00000380: 8a98 a83d 2a94 31be 7368 ebbd 87d9 29be
00000390: ce04 f03c 6b57 17bd 6055 b6bd d397 703d
000003a0: 4319 f9bb af1f 043d 6f88 02bd 5a1c edbd
000003b0: 2e86 06bd 36ab 2c3e 504a 73bd b199 35bd
000003c0: cb9b 45be 2985 05be dbee 683c 96f0 f2bc
000003d0: 9073 babd cd3c bdbd a696 4bbd da16 423c
000003e0: 862c 5e3d 5b89 2b3c 2091 d13d b0dd 0fbe
000003f0: e123 7bbc 316c 033d cbc5 40bd a2bd a83d
0.041933555 -0.030439995 0.04453677 0.0665752 -0.19363196 0.088843435 -0.010100987 -0.012887066
-0.058506817 -0.024842946 -0.040572643 -0.032869343 -0.073631525 -0.10145985 -0.07081689 -0.21363157
0.03586691 0.054648712 0.13750984 0.091516234 0.019232329 -0.09479819 0.021670483 0.073118605
0.043987203 -0.03628296 0.120845415 -0.03142603 0.075876825 -0.09392653 0.09612117 -0.12826815
-0.05594674 0.038995687 -0.017267397 0.09065282 0.09598906 0.014959868 0.044673245 0.027669655
0.052415673 -0.06831509 0.0011352006 -0.04720667 -0.084009096 0.11790177 -0.08890601 -0.027942508
0.018851336 -0.020281732 0.012127506 0.13188861 -0.053144645 0.045534626 0.032365143 0.029164609
-0.01854097 0.01972527 0.14220774 0.023086939 0.15271172 -0.03123092 -0.06367876 -0.032303974
0.078444675 -0.06663226 0.061768267 -0.01674735 0.09198054 0.047139972 -0.04068879 -0.035387423
0.019791292 -0.046032533 0.00074929994 0.034817606 -0.016703868 -0.08789777 -0.061521657 -0.0949923
-0.15059684 -0.122914776 0.097227454 -0.26510093 0.10190893 0.10625846 -0.04304827 -0.00055586087
0.025889652 0.09244392 0.03894189 0.029904108 -0.053629145 0.030055247 0.10827734 0.04498203
-0.15627371 0.0075478647 0.10015785 -0.019834833 0.020619921 -0.007519709 -0.11435923 0.013355574
0.119285636 0.043717604 0.09246684 0.10256728 -0.09104993 -0.12620187 -0.11264899 0.17002733
-0.11642089 -0.12856741 -0.030253626 -0.17216545 0.04307749 0.05222066 -0.022290092 0.15795818
0.005209049 -0.092917055 -0.014124794 -0.034369003 -0.009985403 0.001913136 -0.03426073 0.002592243
0.089420736 0.07694618 0.022091618 0.0011603952 -0.1324586 -0.0771159 0.019967811 0.07626952
-0.031091008 0.20192133 -0.03687963 0.06547823 0.191139 -0.01188414 0.060716454 0.13704745
-0.030151289 -0.011852466 0.042198926 0.006552087 -0.015085678 0.124303356 0.25946394 0.01872325
0.0182439 -0.045303997 0.0006661253 0.08924849 0.0614927 -0.016048755 -0.06961579 0.004957161
0.039592605 0.08563073 0.0065669543 0.08700206 -0.050267003 -0.030590633 0.033268232 0.10300899
0.21308541 0.051544257 0.07251438 0.044870198 0.015663069 -0.17793718 0.017447522 0.111656316
0.086000405 -0.03693746 0.09658817 0.14248787 0.05003118 -0.20214409 -0.12464664 0.10882039
0.19975162 0.03922312 0.16614082 0.20236109 -0.045864765 0.0045902804 0.09619407 0.084979326
-0.012750972 0.037497893 -0.07670886 -0.054859 0.09201395 0.12049531 0.04948625 0.038717125
-0.011939127 0.095359296 0.05360624 -0.1700482 -0.029651748 0.09042348 -0.10200944 0.091359906
-0.00051692134 -0.050623227 0.07502271 -0.041664906 -0.1145037 0.04141398 -0.010263856 0.07860709
-0.0398244 0.05992953 -0.10060053 0.03493632 0.16498984 0.09611185 0.051174827 0.22133625
0.082322195 -0.17341676 -0.114945315 -0.16586886 0.029299166 -0.036948603 -0.08903003 0.05873854
-0.0076018884 0.03225678 -0.031868394 -0.11577673 -0.032842807 0.16862187 -0.05939704 -0.044336025
-0.19297712 -0.13039078 0.014217104 -0.029655736 -0.09104073 -0.092401125 -0.049704216 0.011846269
0.05424168 0.01046976 0.102327585 -0.14049411 -0.015328378 0.0320856 -0.04706363 0.082392946

conv3.bias f4 [32]
00000000: b5cf 3abd b0d4 4bbd 33a5 c23c 96eb ce3d
00000010: 9ea5 6b3d b394 9bba 7ec8 823c 3722 70bd
00000020: 29b8 903d c21b 823b a7bf 01be bef0 a33c
00000030: cc3d 1dbd 7831 983b 6caf 5f3c 1143 033d
00000040: da06 96bd 14f4 b73c d4b4 ac3d a97b 42bb
00000050: 09f5 ac3d b47c 3ebd fd24 8bbd f315 213c
00000060: 3999 153c 8599 893a a3a6 99bc 520a b03d
00000070: 45fd 45bd 6bfb 99bd ab0e ba3c 0560 5abd
-0.04560824 -0.04976338 0.023760414 0.10103528 0.05753099 -0.0011869877 0.015964743 -0.05862638
0.07066376 0.003970594 -0.12670766 0.020012256 -0.038389012 0.004644569 0.013652664 0.03204638
-0.073255256 0.022455253 0.08432928 -0.0029675758 0.08445174 -0.046505645 -0.06794164 0.009831893
0.009130769 0.0010498023 -0.018756216 0.085957184 -0.04833724 -0.07518657 0.022712072 -0.053314228

bn1.weight f4 [16]
00000000: 4fff 7a3f ca81 8f3f 214e 7d3f 8dff 753f
00000010: 4f52 7f3f 3d1f 863f 8155 773f e471 7d3f
00000020: 4023 763f 0d6d 7a3f 6da0 7d3f be5b 783f
00000030: 4876 783f e71f 723f b3de 783f aa9f 813f
0.9804582 1.1211483 0.9894734 0.96093065 0.9973497 1.0478283 0.96614844 0.9900191
0.9614754 0.9782265 0.99072915 0.9701499 0.9705548 0.9457993 0.9721481 1.0126851

bn1.bias f4 [16]
00000000: 1397 b43c 5e37 c83b 3de3 3c3a 6c7a d0bc
00000010: d7ae 21bc 5ec3 923c 4da8 a8bc b0ce 243b
00000020: 0b6b 0fbd 8102 1d3c 14d8 0dbc 7d3d 01bd
00000030: 5def c5bb d785 c13b 0709 d43d 39d6 c63c
0.022044694 0.006110116 0.0007205492 -0.025449 -0.009868345 0.017915424 -0.020588065 0.002514761
-0.035014194 0.0095831165 -0.008657474 -0.03155278 -0.006040497 0.0059058475 0.10353284 0.024272071

bn1.running_mean f4 [16]
00000000: c767 5e3e b58e f93e 5a9a aabe 1540 38be
00000010: 0cfc e4bd 8367 8d3e 1372 debe f412 0f3b
00000020: 23c0 19be 33fe c0bd fc57 64be 4d53 4fbe
00000030: a85f 1bbe d732 d0bd 7bd7 983c 18c1 f83d
0.21719275 0.4874169 -0.33320886 -0.17993195 -0.111808866 0.27618036 -0.43446407 0.0021831365
-0.150147 -0.09423485 -0.22299188 -0.2024662 -0.15173209 -0.10165947 0.018657437 0.12146205

bn1.running_var f4 [16]
00000000: 0ff9 d13d fb19 883f a17c cf3e 8494 c53e
00000010: 1992 243e f408 f73e 7daa 883f d19a 4e3e
00000020: e51c 9c3d 3b36 313d fe2e 6f3e 70b7 903e
00000030: f245 173d 947b 023e 67a2 b63c a694 d83d
0.10252582 1.0632929 0.40524772 0.3858987 0.16071357 0.48249018 1.0677029 0.20176245
0.07622699 0.04326461 0.2335777 0.28264952 0.03693194 0.12742454 0.022294236 0.105752274

bn2.weight f4 [32]
00000000: e6ce 7b3f 2da2 793f 1823 643f 326b 713f
00000010: 6cc3 7b3f bb1f 893f 602d 7b3f 5238 893f
00000020: 76e8 753f 2829 7d3f ccf6 6a3f 67bd 783f
00000030: 2148 7f3f 0aa8 7b3f 66a5 7c3f 3737 6e3f
00000040: a189 853f 2bb9 733f 3b34 823f 2e90 863f
00000050: 3382 8d3f 096b 783f f6ba 6d3f 2ca3 783f
00000060: 809e 8d3f 362e 783f 6269 7f3f 8494 753f
00000070: ee4d 813f c76b 5f3f 6318 813f fc02 8a3f
0.98362577 0.97513086 0.8911605 0.9430419 0.98345065 1.0712808 0.9811611 1.0720313
0.9605783 0.98890924 0.9178283 0.97164005 0.99719435 0.9830328 0.9868988 0.93053
1.0432626 0.9520442 1.017219 1.051275 1.1055359 0.9703832 0.92863405 0.9712398
1.1063995 0.9694551 0.99770176 0.9592974 1.0101907 0.8727383 1.0085567 1.0782161

bn2.bias f4 [32]
00000000: fb0f 033c ee97 4ebd 3ae8 3dbd c5ea a33c
00000010: 8bf9 b6bb 38b1 1c3d 4712 2f3b 0a17 cc3d
00000020: 4925 51bc 88f4 c33b 8b84 38bd 1517 c0ba
00000030: af16 753c 5ea2 96bc 2be8 89bb 2047 6bbd
00000040: 45b1 69bc 36f4 afbc 14df a73c eb0b 5b3c
00000050: ac9e 8e3d 1e8b 1fbd 9eb8 abbc a836 7f3b
00000060: fe7e 6c3d bc2e 42bc fe3d 36bb d552 bc3b
00000070: da55 5f3a 5d14 eabc 156d cc3b 33e9 333d
0.0079994155 -0.05043786 -0.046364047 0.020009408 -0.005583947 0.038254946 0.0026713775 0.09965332
-0.012765237 0.005980078 -0.045048278 -0.0014655316 0.0149590215 -0.01838797 -0.004208585 -0.057440877
-0.014263456 -0.021478754 0.020492114 0.013369541 0.06963858 -0.038951032 -0.020962056 0.003894249
0.057738297 -0.011851963 -0.0027807946 0.005747179 0.0008519568 -0.028574163 0.0062385895 0.043923568

bn2.running_mean f4 [32]
00000000: 96fc ee3d e1b3 49be 51c8 343e f0ff 243f
00000010: eae9 f5be 5d14 64bc b3c9 383f bfa8 813e
00000020: 32a1 8abf 3594 c2bd 617c 9c3e bfc2 043e
00000030: 39a3 31bf d14d 57be 60fb 3abe a6d6 48bf
00000040: 80d8 bf3f 25d5 f23c 1a9b a53e 1ab9 2c3f
00000050: 46f3 f6bd 7be2 1c3f ae9a 5a3e c57e 9dbd
00000060: 6a70 803f 18e0 b9be 8ad4 75bf fab5 63be
00000070: 0b8a 853d 309f ebbe f8fb a63d a373 05bf
0.11669271 -0.19697525 0.1765454 0.6445303 -0.48030025 -0.013920871 0.7218277 0.25324056
-1.0830443 -0.095009245 0.30563644 0.12964915 -0.69389683 -0.21025778 -0.18259954 -0.7845253
1.4987946 0.02964265 0.32344896 0.6746994 -0.120581195 0.6128308 0.21348068 -0.07690195
1.0034306 -0.36303782 -0.96027434 -0.22237387 0.0652047 -0.46019888 0.08153528 -0.5212957

bn2.running_var f4 [32]
00000000: 5b6d 013f 2a77 313f d9bc 973f d05f 673f
00000010: 94d0 4740 05db 0940 3a4b 3c3f 606e e83f
00000020: 5292 483f fa8d 1b40 e02b ee3e 7dba 2740
00000030: deb9 2d40 3951 ce3f 83a1 6e3f 7648 e63e
00000040: fb26 0940 2226 5340 064b 143f f532 c93f
00000050: 5086 3540 f270 263f 3948 b23f 8e47 833f
00000060: 6247 b53f 6398 fc3e a628 ab3f d211 8b3f
00000070: 7ae9 ed3f d1e1 3b3f ba08 643f 4a3f 1840
0.5055749 0.69322455 1.1854507 0.90380573 3.1221056 2.153993 0.73552287 1.8158684
0.7834827 2.4305406 0.4651785 2.6207573 2.7144694 1.6118537 0.932152 0.44977158
2.1430042 3.2992024 0.57926977 1.5718676 2.8363228 0.6501609 1.3928291 1.0256212
1.4162409 0.49335012 1.337178 1.0864813 1.8586876 0.73391443 0.89075816 2.3788629

bn3.weight f4 [32]
00000000: 3a5f 603f 54ea 473f 06c7 5c3f 3622 5f3f
00000010: ff9c 4a3f 7e1b 243f 13e4 3a3f 1277 5d3f
00000020: 710e 1b3f 7d92 4d3f 6b16 683f 344d 533f
00000030: a32e 593f 2ebc 6b3f fb19 613f 47ad 5e3f
00000040: bfaa 513f 6b39 5a3f f276 4e3f db67 573f
00000050: 62e1 693f 6528 343f 6568 4a3f e44e 4c3f
00000060: d4ac 433f 0c54 713f 253b 593f fd42 613f
00000070: 8ed6 583f e77c 4c3f e268 233f 0a43 603f
0.87645304 0.7809193 0.86241186 0.87161577 0.7914581 0.6410445 0.73004264 0.8650981
0.6056891 0.8030165 0.9065921 0.8253968 0.84836787 0.92084014 0.8793027 0.8698315
0.8190116 0.8524386 0.80650246 0.84142846 0.9135953 0.7037414 0.79065543 0.7980788
0.7643559 0.9426887 0.8485587 0.8799284 0.84702384 0.79878086 0.63831913 0.87602293

bn3.bias f4 [32]
00000000: 82eb 67bd a9dc 7dbe 812f b8bd 5fde ffbd
00000010: c8ef 01be ba96 48be 5c9e 6fbe 792b f5bd
00000020: 4536 64be 25d2 dcbd 5c9d 8dbd de52 1ebe
00000030: c341 1cbe 947c ddbd bf54 a0bd 84db b8bd
00000040: a27b 3cbe 0588 13be 3ba5 edbd 7bbb 1bbe
00000050: 4076 c4bd 59d8 71be fce1 33be d849 22be
00000060: aa74 40be 4a9e 28bd caf7 32be a0aa dfbd
00000070: af9f bfbd c076 27be 6efc 29be c638 bebd
-0.056621082 -0.24791206 -0.08993436 -0.12493586 -0.12689126 -0.19588748 -0.23400253 -0.119711824
-0.22286327 -0.107822694 -0.069147795 -0.15461299 -0.15259461 -0.10814777 -0.07828664 -0.09026244
-0.18406537 -0.14407356 -0.11603781 -0.15208237 -0.09592867 -0.23617686 -0.17566675 -0.15848482
-0.18794504 -0.04116658 -0.17477337 -0.10921216 -0.09356629 -0.16353893 -0.166002 -0.092881724

bn3.running_mean f4 [32]
00000000: 8545 5c3f 5e2a f8be e4a8 793f 2691 8e3d
00000010: 5604 3f3d ae06 323f 3bcc 52bf e594 0fbf
00000020: 87d1 4dbf 1f3c dcbd 9ae8 9d3f 63a5 76bf
00000030: 136f 6b3e 0ba5 d73e 9d8e f23d e68e cdbe
00000040: 7b2f 19bf 4f5d 8bbf f165 fe3e 9faa adbf
00000050: 1239 aa3f e3dd 5ebe 2c0a 95bf ec28 babe
00000060: 98e0 04bf b6ee c43f 6962 ba3e 250b d5bf
00000070: 4160 88bd ba93 e0bf 036a 1d3b 72d0 e6bd
0.8604358 -0.48469824 0.9752333 0.069612786 0.046634994 0.6954144 -0.8234288 -0.5608657
-0.8039784 -0.10753655 1.2336609 -0.9634611 0.2299159 0.42118105 0.118436076 -0.40148085
-0.59838074 -1.088785 0.4968715 -1.3567694 1.3298666 -0.2176433 -1.1643729 -0.36359346
-0.519052 1.5385349 0.36403206 -1.6644026 -0.06658984 -1.7545083 0.0024019487 -0.112702265

bn3.running_var f4 [32]
00000000: 6d4e 0441 5220 8d40 6640 eb40 c5f0 b440
00000010: 3126 5140 c931 5a40 bbe9 bb3f 39d7 8940
00000020: 7386 7e40 cdcf 4240 d15f ab40 4e44 1740
00000030: edc4 a240 bee0 fe40 ab0b 3140 80f2 4c40
00000040: 6622 9040 8106 8c40 c069 7840 8dcd ed40
00000050: d987 2d41 2861 6440 5ff7 1141 e6dd 5740
00000060: 3ff8 aa3f 405c f040 fd12 d540 b207 0341
00000070: da1b 7e40 70c8 ae40 9bc3 2840 530a 5d40
8.269147 4.4101954 7.351611 5.654391 3.267956 3.4092886 1.4680704 4.3075223
3.9769561 3.0439332 5.3554463 2.363544 5.086539 7.9649343 2.7663372 3.202301
4.504199 4.375794 3.8814545 7.4313416 10.845666 3.56843 9.122893 3.3729186
1.3357009 7.511261 6.658568 8.189379 3.97045 5.4619675 2.6369388 3.4537551

fc10.weight f4 [4, 2048]
00000000: 1b86 213d 91c0 a5bc 99ab 25bd 3b90 eabc
00000010: 3aeb a63d b0a9 63bd ef7b 80bd 2028 1ebc
00000020: 21d8 27bd 0427 74bd b0d9 b5bd ba4e aabd
00000030: 4aea eabc 57d0 363d 2e45 383c ac63 173d
00000040: ee89 103d 4ccf cfbc dea3 88bd bf36 46bd
00000050: 9dc1 d4bc 2bb4 5d3d 0dd3 2d3a 0ed7 b3bb
00000060: 1b78 20bc a212 923c de27 de3c 48d9 993c
00000070: 3fa1 843c ca62 193d 540f c43c e800 ba3b
00000080: 0173 c8bc 324a a93d 1bc2 313d cd7c 7c3d
00000090: f08e 0c3d 23b1 d03c 9cfc bb3c 5dee e73c
000000a0: 7a5f df3c d79f 2b3e 31fd 683e 06e6 cbbc
000000b0: 58c5 88bc c66c 16bd 3554 263d 784f 053c
000000c0: e0cd a0bc 41c0 5abc 063c bbbb 1da9 b1bc
000000d0: b887 723b 9b19 debc c228 b0bd 2464 45bd
000000e0: dce3 30bd 04d5 c1bc 60b7 933c 242f 82bc
000000f0: 3a87 91bb 291c 363c 3a19 e2bc c992 20bc
00000100: 9bdc 8a3c 6651 ad3c ede5 07bc 207d 573c
00000110: 5916 05bd 4997 b83c a669 d239 b0d3 713d
00000120: a284 22bd 6e45 a13c fa0a de3c 1c1b 58bc
00000130: 39fe 1d3b 04a3 9c3b ef67 edbc be12 c23a
00000140: 01e1 383d af2a 0c3d ea58 f4bc b8e8 b8bc
00000150: 5790 19bd f3b6 953c 5773 c5bc 2d79 043d
00000160: 8244 54bc c68a 3e3c 87fd dcbc e5b1 423d
00000170: 9b99 da3b 4a11 4739 64ee 243c 699d e23c
00000180: 639f 08bd 0795 9dbc 2008 8f3b 72b0 e13b
00000190: 3d0a f43b 693f cb3c f717 00bd f673 46bc
000001a0: 1501 613d 9769 703c 57ec 073d 5cc0 613d
000001b0: 9942 913c 1ff0 09bc ad77 413a 621e 8dbc
000001c0: 05bd 40bc 91b6 6bbd d89b 0f3d 02ad 5b3b
000001d0: bf5d f6bc acab 143d cb5d f3bc b800 dd3b
000001e0: 6be7 fbbc 9234 c9bc 5ba6 043d 6adc e4bb
000001f0: c26e 173c 29b4 9d3b 1866 503c 533f 333d
00000200: 1b30 53bc 0590 5b3d 284e 59bd e36e a13c
00000210: 5b60 8cbc 8eb2 0ebd 8b09 0c3d 8166 47bd
00000220: ed72 b7bc 9c18 403d 5529 59bc 3f46 28bc
00000230: 26f5 c03c 1127 a83d 9f3c 3c3b 1711 8fbc
00000240: 8be9 9a3b a893 a5bc bbfd 93bc e55d 1b3e
00000250: 489b 81bc cb93 eb3b fc1f fc3c 390e 983c
00000260: 718c 6bbb fd30 ee3c 4495 f3bc 01cd 533c
00000270: e6aa 7dbb 866b afbb 0a2a 0ebd f016 32bc
00000280: 0995 983b 7a07 0d3d cd81 52bc 7ad5 11bd
00000290: 71f1 8fbc a7b8 1a3d 92e4 dd3b f381 5ebb
000002a0: ace7 de3b 0410 ab3d d543 5e3d 0a76 4d3d
000002b0: d4f6 533c 1c38 afbc 6696 733c 8545 8bbc
000002c0: b4ee 983c 6c25 bb3c 2acf ae3c dfa1 82bb
000002d0: 6e9d 9bbb 1e15 ff3c 93bf 74bc e1fe 63bd
000002e0: e28a 123d 334f b4bc 9423 63bc 0411 dcbc
000002f0: 19c3 8f3c 446d 5e3d 6218 10bb 1941 92bc
00000300: d0d6 193c 52cc fcbc 1664 02bd ef5e ecbc
00000310: 26d4 a33b a846 243d cfc5 84bb 5832 e33a
00000320: 2e1b 88bc 30ac ae38 877f 133c 6d8d 2bbd
00000330: d20e b4bc 4124 383d fa6f 883c 7bca 12bc
00000340: cc64 893c e3e0 05bb f1dd be3b 79a8 e23c
00000350: 1e4a 0ebd 57b1 b4bc 5b79 f23a 2ed0 70ba
00000360: 69ce 283d cbb8 2f3d 5b3d 963d e419 363d
00000370: 66b7 493d c42c 863c 6723 463c 8fa7 42bc
00000380: 312c 2d3d d051 b3b9 799f d93c cc3c f9bb
00000390: 28d1 9ebd 1cc1 49ba f0ec 723c bd28 203d
000003a0: 35e2 363d 42c0 d43c 50b6 02bc 9dfb 05bc
000003b0: 35c8 ac3c b3f0 81bb 7e67 bf3b b3e4 103b
000003c0: f0d6 b1ba a083 333d 65ae e2bc fa72 bb3b
000003d0: c351 413d 7c73 d33c acbc d73b 41ea c83b
000003e0: 7fdd f13c 6f20 8c3c 9f05 4f3c 37a8 aebb
000003f0: 7a09 01bd 9aa7 c43b 836f bbbc 8988 003d
0.039434534 -0.020233424 -0.04044685 -0.028633228 0.08150335 -0.05558175 -0.062736385 -0.009653121
-0.0409776 -0.05960752 -0.08879411 -0.08315797 -0.02867617 0.044632282 0.0112469625 0.03696029
0.03528779 -0.025367402 -0.0667188 -0.048392054 -0.025971228 0.0541269 0.0006630875 -0.005488283
-0.00979426 0.01783115 0.02711862 0.018780366 0.01619017 0.03744773 0.02393309 0.0056763776
-0.0244689 0.08266105 0.043398004 0.061642457 0.034316003 0.02547509 0.022947602 0.028311903
0.027267206 0.16760193 0.22752835 -0.024889957 -0.016695663 -0.03672483 0.04060765 0.008136623
-0.019629419 -0.013351501 -0.0057139425 -0.021687085 0.0037007164 -0.027111819 -0.08601524 -0.048191205
-0.043186054 -0.023661144 0.018031776 -0.015891619 -0.004441169 0.011115112 -0.02759992 -0.009800621
0.016950896 0.021156978 -0.008294565 0.013152391 -0.032492016 0.022533076 0.00040133036 0.05903977
-0.03967727 0.019686427 0.027104843 -0.013190057 0.0024107827 0.004780175 -0.028980223 0.0014806611
0.045136455 0.034220394 -0.029827554 -0.022571906 -0.03749117 0.018275714 -0.02410285 0.032342125
-0.012955787 0.011629766 -0.02697636 0.047532935 0.006671143 0.0001898456 0.010066602 0.02766295
-0.033355128 -0.0192361 0.0043649822 0.006887489 0.0074475096 0.02481051 -0.031272855 -0.012112608
0.054932673 0.014673612 0.033184376 0.05511509 0.017731952 -0.008419066 0.0007380199 -0.017226402
-0.011763816 -0.057547156 0.035060734 0.0033519869 -0.030073998 0.03629653 -0.02970781 0.0067444704
-0.030749997 -0.0245612 0.03238521 -0.006984283 0.009242715 0.0048127365 0.012719654 0.043761563
-0.012889887 0.053604145 -0.05305305 0.019706195 -0.01713579 -0.03483825 0.03418879 -0.04868174
-0.022393668 0.04689847 -0.013254483 -0.010270654 0.023554396 0.08210576 0.0028722656 -0.017464204
0.0047275475 -0.02021201 -0.018065324 0.15172537 -0.015821114 0.007189249 0.03077697 0.01856147
-0.0035941864 0.029076094 -0.029734261 0.012927295 -0.00387066 -0.005353394 -0.03470806 -0.010869727
0.0046564383 0.03443096 -0.01284833 -0.035603978 -0.017571183 0.037773754 0.0067716325 -0.0033951967
0.00680252 0.08352664 0.05426391 0.0501614 0.012937266 -0.02138906 0.014867401 -0.017000923
0.01866851 0.022844993 0.021339018 -0.0039865817 -0.0047489917 0.031138 -0.014938253 -0.055662993
0.03577698 -0.022010421 -0.013863463 -0.026863582 0.017549084 0.054303423 -0.002198719 -0.017853307
0.009389594 -0.030859146 -0.03183373 -0.028853862 0.0049996553 0.040106446 -0.004051901 0.0017333729
-0.016614523 8.329039e-05 0.009002573 -0.04188292 -0.021979723 0.04495645 0.016654957 -0.008959408
0.016771697 -0.0020428232 0.0058247973 0.027668225 -0.034738652 -0.022057218 0.0018499302 -0.00091862946
0.041212473 0.04290084 0.073359214 0.044458285 0.049247168 0.016378768 0.0120934015 -0.011880769
0.042278472 -0.00034202496 0.0265653 -0.0076061245 -0.07754737 -0.0007696317 0.014826998 0.03910135
0.04464932 0.025970582 -0.007978037 -0.008177665 0.02109156 -0.003965461 0.0058411947 0.0022108972
-0.0013568085 0.0438267 -0.027671048 0.0057204934 0.047197115 0.025811903 0.0065837707 0.006131441
0.029524563 0.01710531 0.0126356175 -0.0053301114 -0.03150318 0.006001425 -0.022880321 0.03138021

fc10.bias f4 [4]
00000000: 270a e439 12c5 13ba bc72 d63a 642e 36bb
0.00043495113 -0.0005636971 0.0016361098 -0.0027798647

fc11.weight f4 [4, 2048]
00000000: 72e2 523d ac97 ceb9 a681 4b3d d7c4 07bd
00000010: eba2 e6bc 67ee 643c 6dfb bcbc 3d31 debc
00000020: 173d 1a3c 663e a93c 549b 783c fdfc 96bc
00000030: 32d9 643d 58d9 1bbd 249c a7bc 4fe8 34bd
00000040: 404f d7bc feee f5bc bda5 3bbc a7cb 0cbd
00000050: 46ee 46bc 5e02 82bc b689 23bd b39c 0ebd
00000060: 0e21 6d3b f495 123b 277a 2cbd 2e45 c9bc
00000070: 2b66 82bc 4e29 5ebc dec7 39bb bdf4 903c
00000080: 463d 0cbd 8d6f 853c 52b7 9a3b dd45 f53c
00000090: 2019 b6bd 0125 643b 5f05 753c ffda 54bc
000000a0: 2123 e8bc 228c 8b3c 2b98 553e 69e8 53bd
000000b0: 9700 e9bb aef7 12bc 66c6 823c 7007 e93c
000000c0: 04a3 563d 7092 bf3d 3ae1 6e3d 7acc 433c
000000d0: 6f92 75bd abc4 393c ca44 71bd c7a1 173c
000000e0: 2859 973d 3943 02bd 4176 153d c506 b1bc
000000f0: 89e8 84bc 92f9 1e3c 3149 b13c 3e34 223d
00000100: 50aa 83bc 0612 33bc a913 5bbd f16b 31bd
00000110: 0349 efbc 22aa a4bd e40b c2bc 8135 e53a
00000120: 78c3 73bc 17fe 53bd 59de b03b c3a1 85bd
00000130: ab8b ad3c 6acd debc f0b2 023d 75fa 03bd
00000140: 663a 54bd 5483 e6bc f736 90bd f9f0 523a
00000150: 7719 c73a 9920 cb3b e2ab 0f3c 3d73 8dbd
00000160: a3cc c3bc 6b02 883d 12e0 bbbc f885 1bbe
00000170: 97df 2bbb e6ae 07bd ca32 7ebd cae5 32bd
00000180: 0a94 b63c bc1c c23c 14d2 9e3c 9f28 573c
00000190: 4983 1a3c a3a7 de3c d1b0 613c 9933 a6bd
000001a0: 9c1a ab3c f13b 7dbd ec3c 90bc 9f19 a6bd
000001b0: 6520 793d a49e 8e3c 7d66 66bc bf70 9fbd
000001c0: 6368 f6bc 945d 47bd 807b 61ba 8ca8 90bc
000001d0: b7de 1abc 69dc b3bc 0c6d a5bb fce4 51bc
000001e0: b947 913c 79b4 72bd 7a04 21bd 61f9 2db9
000001f0: f659 5ebc 5647 2c3c 421b ea3a 57f1 14bc
00000200: 32f1 14bd 9e2d 8bbb 8be8 d43c d6e6 33bc
00000210: ad8e 65bd 1e4e ad3c 12d1 09bd e198 bc3c
00000220: 0723 013d d4f5 653c 969d 5bba 9488 9fbb
00000230: bd8a f9ba 20fb a7bd 9e64 d53c 4f37 1dbd
00000240: 181e 8b3d 162b e4bc a3c8 cabc 5cac 79bd
00000250: 5468 e93c 6290 2b3d 739d 50bd 42c1 94bc
00000260: d2df 2ebd 35c6 e7bc 5486 6ebd 838e 293d
00000270: 9dc7 2abd 6ead 1dbd 0b90 ef3b f308 203b
00000280: 0612 8e3c f59b 55bd 0339 35bd 1fbf bdbc
00000290: 5150 efba 2e48 57bc 2376 163d ad52 02bd
000002a0: b664 9c3c 04f1 99bc 1c2a b43b 8e8a b53c
000002b0: 3fb6 60bb 5105 66bc faf8 893c fdeb 78bd
000002c0: 0cd1 30bd 598d a4bc 4bab 97bc c0f6 0fbb
000002d0: 4e46 e0bc 1319 e1bc 1428 d6bb 6eb7 febc
000002e0: 4bc1 14bd 8b07 9f3d fc86 12bd 9116 e1bc
000002f0: 6815 05bd 636d cdbc 0cf0 b33a 8ca3 dc3c
00000300: dfe4 88bd 2a1b 4dbd 573e 32bd 0350 b4bd
00000310: 127e 54bd f7a3 02bd f0b5 1bbe 983a c1bd
00000320: f94c 20bd 1eaf 32bd 9a45 15bd 7fce b23c
00000330: f919 46bc df3f cabd d200 00bc 09d1 0abc
00000340: 4eb0 3a3b 397e 8abc ba14 4abc d21f 2cbd
00000350: 470b f1bc bd99 6bbd c25c 3dbd bd4c c2bb
00000360: bae3 86bd d3e6 e83c 4f5c b03b b0a8 0cbb
00000370: b223 d53c c48d 173d 7d3f 86bd fbc2 013c
00000380: a3aa 4fbd 686a 44bd ded5 dbbc 5070 cb3b
00000390: e896 6b3c a49b 653c 1648 6abd 65ce cbbc
000003a0: 3236 81bd b951 91bd bacd 47bd 916e 90bd
000003b0: 144a afbc 0f44 24bd d6d9 38bd 3e2c babd
000003c0: 846e a0ba fd20 64bd f085 97bc 60ec ac3c
000003d0: 2ab7 e2bc 4390 92bb 86d8 4abd acc7 d53c
000003e0: a9ec b3bc bda0 52bd 5f13 8cbd 1f0e b2bc
000003f0: c0d8 13bc 024d 8abc d21d 7cbc d660 8abb
0.051485486 -0.00039404386 0.04968419 -0.033146705 -0.028153857 0.013972855 -0.023069108 -0.027123088
0.009413979 0.020659637 0.015173752 -0.018431181 0.055871196 -0.038049072 -0.020460196 -0.04416686
-0.026282907 -0.030021187 -0.011453089 -0.034373906 -0.01214177 -0.01587027 -0.039926253 -0.03481741
0.0036183032 0.002236721 -0.04210868 -0.02456912 -0.015917858 -0.0135596525 -0.002834789 0.017694825
-0.034238122 0.016288543 0.0047215605 0.02994054 -0.08891511 0.0034812095 0.014954894 -0.012991666
-0.028337063 0.017034594 0.20858829 -0.051735315 -0.007110666 -0.008970184 0.015963744 0.02844593
0.052401558 0.093541026 0.05832026 0.0119506065 -0.059954103 0.011338393 -0.058903493 0.009254879
0.07390052 -0.03180239 0.03648973 -0.021609673 -0.016224163 0.009703057 0.021641346 0.039600603
-0.016072422 -0.01092959 -0.053485546 -0.04331583 -0.02920962 -0.08040263 -0.02368731 0.0017487259
-0.014878146 -0.05175599 0.0053975997 -0.06524994 0.021184763 -0.027197558 0.03190893 -0.032221276
-0.051813506 -0.028138794 -0.07041734 0.0008046772 0.0015190084 0.0061989543 0.008769007 -0.069067456
-0.02390129 0.06641086 -0.022933993 -0.15187824 -0.00262258 -0.03312578 -0.062060155 -0.043676175
0.022287387 0.023695342 0.019387282 0.013132243 0.009430715 0.027179545 0.0137750665 -0.0811531
0.020886712 -0.061824743 -0.017607175 -0.081103556 0.06082191 0.01740963 -0.014062521 -0.077851765
-0.030079072 -0.048673227 -0.0008601472 -0.017658494 -0.009452513 -0.021955686 -0.0050484 -0.012810942
0.017734395 -0.059254143 -0.03931091 -0.00016591467 -0.013571253 0.010515055 0.0017860907 -0.009090743
-0.036362834 -0.0042473814 0.025989791 -0.010980329 -0.05604427 0.021155413 -0.03364665 0.023022117
0.031527545 0.014035661 -0.0008377669 -0.0048685763 -0.001903854 -0.08202195 0.026048955 -0.038382825
0.06792849 -0.027852576 -0.024753874 -0.06095539 0.02849213 0.04188574 -0.050931405 -0.018158559
-0.04269392 -0.028292755 -0.058233574 0.041395675 -0.041694272 -0.038495474 0.0073108724 0.0024419397
0.017342579 -0.052150685 -0.044243824 -0.023162423 -0.0018258189 -0.013139768 0.036733758 -0.031817127
0.019090991 -0.018791683 0.005498184 0.022160795 -0.0034288315 -0.0140393535 0.016842354 -0.06077193
-0.043168113 -0.020086931 -0.018514296 -0.0021967143 -0.027377274 -0.027477777 -0.0065355394 -0.031093325
-0.03631715 0.077651106 -0.035773262 -0.02747658 -0.032491118 -0.025076574 0.0013728156 0.026933454
-0.06684279 -0.050074734 -0.043516483 -0.088043235 -0.051878043 -0.03189465 -0.15206122 -0.09435004
-0.039135907 -0.043624036 -0.03644333 0.02182698 -0.012091153 -0.09875464 -0.007812696 -0.008472689
0.0028486433 -0.01690589 -0.012334043 -0.042022534 -0.029424323 -0.057519663 -0.04623104 -0.005929558
-0.06586404 0.028430378 0.005382098 -0.002146285 0.026017997 0.037000433 -0.06555078 0.007920022
-0.05069984 -0.04795304 -0.026835378 0.006208457 0.014379241 0.014014158 -0.057197653 -0.02487869
-0.06309165 -0.070956655 -0.04878018 -0.07052339 -0.021397628 -0.04010397 -0.04512962 -0.0909047
-0.0012239967 -0.055695523 -0.018496484 0.021108806 -0.02767523 -0.0044727637 -0.0495229 0.026096188
-0.021963434 -0.051422823 -0.06839632 -0.02173525 -0.009023845 -0.016882423 -0.015387969 -0.0042229695

fc11.bias f4 [4]
00000000: ab1f d0bc 584c c4bc 4c3e d1bc 0056 8dbc
-0.025405725 -0.023962185 -0.0255424 -0.017252922

fc3.weight f4 [512, 4]
00000000: 1971 14bb a756 973e ae16 253e 51d1 27bf
00000010: e274 6fbf 9e78 03bf b3b0 1d3f 0421 80bf
00000020: 95e8 e1be 20cb 58be 391a 56bf 0387 703e
00000030: 4e75 dbbe 07e6 89be 0ca0 f6bd 9dbb 16bf
00000040: df74 8e3f 5551 4b3e d03f a7bf 28fe 8c3e
00000050: 5c81 683c a4c3 8d3e 8db1 1d3c 3258 a1be
00000060: 9a31 1fbe 748b d8be 6da1 45bf 9933 9bbf
00000070: a445 61bf 6011 77bd dde4 ab3d 58bf 463e
00000080: a65b 3ebf 9ef8 2b3f 83d6 6f3f 053f b8bc
00000090: 1117 bbbe 710b ac3d 6d2c 143e 4ba4 75bf
000000a0: 44cf 24bb 5af7 16bf ca04 81be bf7d d93d
000000b0: 4f25 fcbe 50f6 0abf 7aa4 5bbd e3a1 7ebf
000000c0: b929 483f 59a9 d5be cc0a eabe a74f 833f
000000d0: 75b1 4bbf 7691 3dbf 7655 513f de21 35be
000000e0: dea3 f0be 6d85 5bbf cd33 ddbf f1a4 a8bf
000000f0: ec5b 063f d88f 95be 128e 683f b86f 9cbf
00000100: c93c 373e 243c 203f d42e 62bd bddf 45bf
00000110: 7252 893d e528 eb3d eeb7 cabd 57b3 563f
00000120: 48db fe3f c1a2 de3e ade3 f93e 7148 3fbe
00000130: f0bc 74be 9e33 9b3d 00bd 3fbd 154e b53d
00000140: 285a 343f ab1b 8d3d 15f7 5ebe 8a6a 8f3f
00000150: 3675 223e fb9a 2c3e 2171 e33e 20ef 3c3e
00000160: 0cc3 99bc 9ed4 9a3e 9d18 043d 2f77 7b3f
00000170: 2cb2 88be ac1b 2f3d d4b9 40bf a0ae a6be
00000180: 42be 41be 559b ab3f 5535 8dbf 4da4 4dbf
00000190: cf60 cc3e 55e9 5f3c 5838 e73d eb55 a13f
000001a0: 5748 2bbf fb18 8e3d 8a8f b4bc 52d6 e13e
000001b0: ee1f 163e f80e c33d 8753 1bbe 1d77 903e
000001c0: 512b 063f b582 463b b6fe b6bd b95e ac3d
000001d0: 63c3 afbe 694a 433b e3d1 17be e6a6 9c3e
000001e0: d88b c0bc b167 86be e175 9a3f e31b 9dbe
000001f0: fe62 373e 848f 173e 1b3c c1bf d984 183e
00000200: 5522 473f e6cb 7b3e 6b14 49bd f376 0b3f
00000210: dba6 aabe 188b 0d3f 2014 7bbe 102c 973b
00000220: 8c95 74bf 6f7f 9e3c 72a6 dc3a 7405 34be
00000230: 12a3 20bf 4481 30bd 3e39 5a3d 248a e6bd
00000240: 922e db3e c15f bebe e341 f43d 05c9 8c3f
00000250: fce1 f0bd c4a8 e03e e1c7 68be ee20 9abd
00000260: 2470 b2bd c2b3 88bd 5f6d b4bf e4e8 1dbd
00000270: 900b 253f 6ecc 9fbe 1337 163e 8bf8 813f
00000280: 21ea afbe 41d5 34bc 6004 863f eecb 823f
00000290: eeb5 913f 22b7 4d3c a006 9ebe e19e a83d
000002a0: 7a8a 2fbd 40cf d9be ca01 cb3d bc9b 003e
000002b0: 35b5 b8be c018 f8be e099 2ebd 5b5f 5fbe
000002c0: f375 203e 1a88 e93d 9149 0a3f 9319 1f3e
000002d0: 4adb 52bf 2543 13bf 8a4e 11be 4b23 abbd
000002e0: 9747 17be 0760 39bf 624e 45bf 6f26 bebe
000002f0: 06af 3cbe 0687 88bf ba2a 8fbf b730 763f
00000300: 67b8 36bf 4c79 3fbf 271d 853f eab4 3a3d
00000310: 4164 94be f11d 4e3e ee6d 5c3e 77a5 4cbf
00000320: d72d 35bf f5ac a23f 2c1f cebe 1f1b 44bf
00000330: 26fa 80be b8de 87bf 3e34 6cbe 9af7 683c
00000340: 2c30 663e a963 a43f bd04 9f3e 5786 103f
00000350: 1281 de3e fc6b 0ebf 4434 0bbf 88c2 473f
00000360: ee60 02be 3676 293f 63ed 9a3d 303b 353f
00000370: 28b1 5abd 464f 7a3f cdd5 9fbe 9dd3 3bbb
00000380: a819 bf3e d107 fbbd 0882 ea3e edac 95be
00000390: 31a2 c63c 9a76 953d 011a 0fbf 2fb9 88be
000003a0: 59fa 9fbe 09e9 52bf 7d9b a3bd c054 bcbe
000003b0: b820 b63d 33ca fbbe 8f38 84be 3161 7e3e
000003c0: e5ec 24be 7c0a 7c3f 7dc7 793e bd22 4abf
000003d0: 4ff9 debd 4efa ccbf e7ad a2be 9f67 bb3e
000003e0: d371 8a3f 918b 4a3f 23ac b9bd e060 b83f
000003f0: b8d9 d83d 759a 8d3e 996f 2d3f 5849 0e3f
-0.002265042 0.29558298 0.16121933 -0.65553766 -0.93537724 -0.5135592 0.61597747 -1.0010076
-0.44122759 -0.21171236 -0.8363376 0.23489003 -0.42862934 -0.2693331 -0.12042245 -0.58880025
1.1129416 0.19855244 -1.3066349 0.27537656 0.014190998 0.27688324 0.009624851 -0.315126
-0.15546265 -0.42293894 -0.7719944 -1.2125121 -0.8799689 -0.060319304 0.083932616 0.1940893
-0.74358594 0.67176235 0.93686694 -0.022490988 -0.36541036 0.0840062 0.14470072 -0.95953816
-0.0025147954 -0.5897118 -0.25198966 0.10619687 -0.49247214 -0.54282093 -0.053623654 -0.9946577
0.78188664 -0.41730765 -0.45711362 1.0258683 -0.7956765 -0.7405008 0.8177103 -0.176887
-0.4700002 -0.85750467 -1.7281433 -1.3175336 0.5248401 -0.29211307 0.9084178 -1.2221594
0.17894281 0.6259177 -0.05522044 -0.7729452 0.06705178 0.114824094 -0.09898363 0.838674
1.9910669 0.43483546 0.48806515 -0.18679978 -0.23900199 0.075782046 -0.046811104 0.088527836
0.7045007 0.06890043 -0.21773942 1.1204388 0.15865025 0.16855995 0.44422248 0.18450594
-0.018769763 0.3024034 0.032250036 0.98228735 -0.26698434 0.042751 -0.7528355 -0.32555103
-0.18920234 1.3406779 -1.1031901 -0.8032883 0.3991761 0.013666471 0.112900436 1.2604345
-0.66907257 0.069383584 -0.022041101 0.44108826 0.14660618 0.095243394 -0.15168582 0.28215876
0.52409846 0.003029031 -0.08935301 0.084165044 -0.34328756 0.002979899 -0.14826159 0.30596083
-0.023504183 -0.26250985 1.2067224 -0.30685338 0.17908856 0.1480084 -1.5096468 0.14894427
0.7778676 0.245895 -0.049091738 0.5447838 -0.33330426 0.55290365 -0.24519396 0.004613407
-0.9554069 0.019347874 0.0016834273 -0.17580205 -0.62748826 -0.043092027 0.053277247 -0.11256817
0.42808968 -0.3718243 0.119266294 1.0998846 -0.11761853 0.43878758 -0.22732498 -0.07525812
-0.087127954 -0.06674911 -1.4095877 -0.03855218 0.6447077 -0.31210655 0.14669447 1.0153974
-0.34358314 -0.011037172 1.0470085 1.0218484 1.1383646 0.012555869 -0.3086443 0.08233429
-0.04285667 -0.42540932 0.099124506 0.12559408 -0.3607575 -0.48456383 -0.042627215 -0.21813719
0.15669994 0.114029124 0.54018503 0.155371 -0.8236586 -0.5752433 -0.14190117 -0.08356341
-0.14773403 -0.7241215 -0.7707273 -0.37138698 -0.18426141 -1.0666206 -1.1184914 0.9616808
-0.71375126 -0.7479446 1.0399522 0.04558269 -0.28982738 0.20128609 0.2152631 -0.7993998
-0.7077307 1.2709032 -0.40258157 -0.76603884 -0.25190848 -1.0614843 -0.23066804 0.014219189
0.22479314 1.2842914 0.31058303 0.56454986 0.43457848 -0.5563352 -0.54376626 0.78031206
-0.12732288 0.66196 0.07564809 0.7079344 -0.053391606 0.9777721 -0.31217805 -0.0028660067
0.37324262 -0.1225735 0.4580233 -0.29233494 0.02424726 0.07298012 -0.55899054 -0.26703784
-0.31245688 -0.82386833 -0.079886414 -0.3678341 0.08892959 -0.49177703 -0.258244 0.24841763
-0.16105993 0.984535 0.24392505 -0.78959256 -0.108873956 -1.6013887 -0.31773302 0.36602494
1.0815986 0.7911921 -0.090660356 1.4404564 0.105884016 0.27656904 0.6774841 0.55580664
