saved_models_2D/VAE_folds/CVAE2D_3_2_fold_4.pth (torch, 40832 bytes, 49 tensors)

conv1.weight f4 [3, 1, 5, 5]
-0.7119595 -0.12349643 -0.16222161 -0.04075558 -0.20553297 -0.012565822 -0.35235354 -0.1558791
-0.03159696 -0.25559318 -0.39232615 0.24412315 0.1089232 0.40771127 -0.26389486 0.23495184
-0.08313112 -0.29024792 -0.09207924 -0.12170889 -0.4775353 -0.38520736 -0.5724003 0.05785229
-0.11971642 0.3804482 0.18397461 0.07239173 0.11084159 -0.006388135 0.33189386 -0.14289302
0.18978547 -0.13399988 0.35350722 0.49969035 0.31661853 0.0696563 0.059964865 0.14452837
-0.027686639 -0.032850675 0.46955988 0.29043797 0.18535525 0.46386865 -0.27295706 0.41784197
-0.5113419 0.09987868 0.22557515 0.24232823 0.309631 0.33958322 0.5400842 -0.023522742
0.26640648 -0.41365305 0.18585119 0.35683596 -0.016826829 0.2052356 0.63663644 0.34755632
0.23108852 0.4240681 0.35862398 -0.13706401 -0.10121823 0.33308935 0.16796859 -0.10900214
0.07056178 0.5134163 0.78752106
00000000: fa42 36bf b2eb fcbd 6c1d 26be 53ef 26bd
00000010: 3c77 52be e1e0 4dbc af67 b4be c59e 1fbe
00000020: d06b 01bd 1cdd 82be f9de c8be 6bfb 793e
00000030: 2013 df3d 88bf d03e 3a1d 87be 3797 703e
00000040: a640 aabd 609b 94be 0a94 bcbd 8342 f9bd
00000050: 827f f4be e639 c5be d388 12bf 86f6 6c3d
00000060: e22d f5bd 1bca c23e d763 3c3e 1e42 943d
00000070: ea00 e33d 8f53 d1bb feed a93e 8c52 12be
00000080: 1f57 423e 4437 09be e6fe b43e 6ad7 ff3e
00000090: d31b a23e f6a7 8e3d b89d 753d 3fff 133e
000000a0: 17cf e2bc 6e8e 06bd 276a f03e 49b4 943e
000000b0: c4cd 3d3e 3180 ed3e 07c1 8bbe 62ef d53e
000000c0: 4ee7 02bf 328d cc3d 2cfd 663e e424 783e
000000d0: f487 9e3e dadd ad3e f542 0a3f c4b2 c0bc
000000e0: 6e66 883e 55ca d3be c64f 3e3e 34b3 b63e
000000f0: 6bd8 89bc 4829 523e 9bfa 223f e7f2 b13e
00000100: 78a2 6c3e 741f d93e 909d b73e 825a 0cbe
00000110: 814b cfbd b08a aa3e f5ff 2b3e 843c dfbd
00000120: b282 903d 406f 033f fb9a 493f

conv1.bias f4 [3]
0.041164402 -0.0786296 -0.08175186
00000000: 019c 283d 8e08 a1bd 856d a7bd

conv2.weight f4 [4, 3, 3, 3]
-0.41188875 -0.049037382 -0.49192783 -0.37085155 -0.0052088303 -0.4872846 -0.2826078 -0.27520835
-0.42775166 -0.0043529 0.288379 -0.13626662 0.24761318 -0.13633345 -0.041086666 0.035716586
0.1039197 -0.15799728 0.10263268 0.0072534326 0.51753944 0.017062329 -0.0036702438 0.2874284
-0.012868546 -0.028368937 0.3891836 -0.021078525 0.13928957 -0.29813242 -0.30440512 -0.1590959
0.2703368 -0.07032401 0.26186505 0.30792877 0.2674188 0.057071894 0.12056184 -0.42529747
0.10859479 -0.15795052 -0.37300217 0.119651146 -0.6112005 0.24455567 0.25382486 0.2234886
-0.00874267 -0.020362126 0.16140741 -0.48657608 -0.13629165 -0.1386028 -0.35778895 -0.93239903
0.35800642 -0.9203024 -0.82097405 0.03827574 -0.5561304 -0.084896356 -0.42015684 0.21260382
0.33475175 0.64882267 0.1867465 0.271822 -0.02970167 -0.032432888 0.07976359 -0.031692807
-0.072297856 0.3482858 -0.19451763 0.22700885 -0.03153277 -0.08214811 -0.3719066 -0.20077534
-0.35391852 0.19932151 0.11801252 -0.040454168 0.4167167 -0.010872385 -0.2539471 0.7543986
0.28430867 0.2823086 0.33107913 0.5708187 0.6932856 0.08883815 -0.26157275 -0.08709022
-0.23139784 -0.2843224 -0.51363564 -0.1825141 0.041854315 -0.17597443 -0.16096084 0.15855747
-0.5152796 -0.59276557 0.31712577 -0.51076096
00000000: 15e3 d2be 6cdb 48bd f7dd fbbe 41e0 bdbe
00000010: d6ae aabb 5e7d f9be f8b1 90be 1ce8 8cbe
00000020: 4402 dbbe c6a2 8ebb 6aa6 933e 7a89 0bbe
00000030: 4f8e 7d3e ff9a 0bbe 7e4a 28bd 8e4b 123d
00000040: dad3 d43d 0aca 21be 1531 d23d 34ae ed3b
00000050: 777d 043f 4cc6 8b3c 7988 70bb d129 933e
00000060: 98d6 52bc f965 e8bc 1343 c73e dfac acbc
00000070: eda1 0e3e d0a4 98be fdda 9bbe 09ea 22be
00000080: 9669 8a3e 0906 90bd 2d13 863e d7a8 9d3e
00000090: 1eeb 883e 38c4 693d 20e9 f63d 97c0 d9be
000000a0: f266 de3d c8bd 21be 24fa bebe a90b f53d
000000b0: a377 1cbf cd6c 7a3e 55f5 813e 32da 643e
000000c0: 6a3d 0fbc 79ce a6bc fc47 253e 8020 f9be
000000d0: 0a90 0bbe e4ed 0dbe 1d30 b7be b4b1 6ebf
000000e0: 9e4c b73e f098 6bbf 5b2b 52bf 06c7 1c3d
000000f0: 905e 0ebf 24de adbd cc1e d7be d1b4 593e
00000100: 9564 ab3e 3e19 263f 793a 3f3e 412c 8b3e
00000110: eb50 f3bc 59d8 04bd 185b a33d 51d0 01bd
00000120: e610 94bd 8452 b23e a12f 47be 0275 683e
00000130: 8128 01bd 453d a8bd 8b6a bebe 0d98 4dbe
00000140: cf34 b5be f01a 4c3e 8cb0 f13d 45b3 25bd
00000150: e45b d53e 1722 32bc 5b05 82be 4420 413f
00000160: e890 913e c18a 903e 3483 a93e 2d21 123f
00000170: 2a7b 313f c7f0 b53d ddec 85be 5b5c b2bd
00000180: 8ef3 6cbe b592 91be a07d 03bf fae4 3abe
00000190: 6e6f 2b3d a432 34be ebd2 24be e45c 223e
000001a0: 5de9 03bf 7cbf 17bf 4f5e a23e 3bc1 02bf

conv2.bias f4 [4]
0.11195066 -0.02595576 0.12598251 -0.031046242
00000000: 6346 e53d 2da1 d4bc 8f01 013e b054 febc

conv3.weight f4 [12, 4, 3, 3]
0.17841275 -0.15809163 0.032179438 0.082045 0.22621089 0.06903459 0.185348 -0.12625639
-0.26995263 0.28245154 0.28289855 0.15458857 0.17072842 -0.26488727 0.067206375 -0.09837844
0.006395815 -0.12127003 0.07233807 -0.056274958 0.28256235 -0.42010018 0.091881625 -0.09785386
0.31222105 0.14150502 0.18471326 -0.6267342 -0.13300464 -0.32674316 -0.07355991 0.0741457
-0.1751418 -0.34262875 0.08989416 -0.03208396 0.14914665 0.29302546 0.18043584 0.03679551
-0.14430387 -0.15491489 -0.18257114 -0.35778534 -0.2819536 0.03780361 0.07726479 0.3468938
0.00794878 0.3601985 0.15322818 0.12553717 0.100265585 0.002287694 0.2076581 -0.3014469
0.085141756 0.32134983 0.40417385 -0.10823726 -0.011744345 -0.048861817 0.43166974 -0.3731452
-0.033211336 -0.28320372 -0.41566443 0.13793291 -0.17695053 0.047837988 0.1978078 0.050312996
-0.25097993 0.107774705 -0.257545 0.09431955 -0.2825157 -0.2561451 0.12068135 -0.086983725
0.06681754 -0.043777004 0.07494664 -0.12652893 0.08470691 -0.017659482 -0.16937192 0.11456472
0.20389973 0.047248766 -0.33949044 0.18828954 -0.45720923 0.17909554 0.13590042 0.34677914
0.3327532 -0.026650164 0.117081255 -0.5970312 -0.026716061 0.17699172 -0.34432277 -0.15991
0.5534916 -0.491477 -0.061777327 -0.09851305 -0.023365764 0.038197804 -0.4724866 0.12843318
-0.14425905 0.032687526 0.3912063 0.62186784 0.46782213 -0.0675913 0.11905209 -0.18021877
0.21868044 -0.024265742 0.3511417 0.12881544 0.033756 0.10258691 0.16509083 -0.08343045
0.18394914 -0.2595269 -0.05611802 -0.08743729 -0.16956918 0.048538778 0.0416281 -0.1073499
0.45834127 0.33434945 -0.4272129 -0.15396108 -0.06883943 0.10295565 -0.08213173 -0.40704152
0.06397334 0.11285267 0.019620465 -0.15127006 0.09161369 0.26736724 0.6938853 -0.109046765
-0.23177807 0.16214493 -0.071306124 -0.016625924 -0.1424401 0.081239775 -0.36319554 0.07906738
0.28908977 0.16925168 0.17484802 -0.41242224 -0.20285825 0.32883078 0.19628035 0.44886652
0.123871714 -0.08941222 0.4810725 -0.08514398 0.1995265 0.3447402 -0.18630221 0.11101065
0.28233555 0.0335082 0.10979301 0.287385 0.43143493 0.011793415 0.75840336 -0.18609333
0.08833672 0.51357013 -0.06796573 -0.17359132 0.07921189 0.15411407 0.1353352 0.08717194
0.27246562 -0.09852791 0.09324554 -0.025967265 -0.20933096 -0.09878015 0.27499473 0.18870793
0.58016163 0.13810104 -0.14641938 -0.15457487 -0.28303137 -0.10255483 -0.23981753 -0.374828
-0.09823137 0.20999172 0.089600995 0.049564704 -0.35439017 0.3848211 -0.11967564 -0.048531547
0.112595364 0.03259111 0.31521755 -0.18980783 0.09456562 -0.17823212 0.3858467 0.11272593
-0.08957927 -0.21465467 0.207461 -0.54354817 -0.34751937 0.18049364 -0.13738163 -0.09435514
-0.28608045 0.19927326 -0.3677277 0.21491511 -0.008450206 0.04003054 0.0015039027 -0.35115325
0.12045804 -0.13924046 0.0854785 0.56818175 0.385392 0.37013888 0.09255314 -0.3146777
-0.23036599 0.55439395 0.12153521 0.55434614 0.08963677 -0.13636833 0.117429376 -0.33842286
00000000: d5b1 363e c6e2 21be 96ce 033d 3507 a83d
00000010: d4a3 673e 0262 8d3d decb 3d3e 5b49 01be
00000020: 3b37 8abe 7d9d 903e 14d8 903e 774c 1e3e
00000030: 6ed3 2e3e 4e9f 87be 7fa3 893d a37a c9bd
00000040: fc93 d13b 6c5c f8bd fb25 943d 9280 66bd
00000050: 03ac 903e 5f17 d7be 6f2c bc3d 9b67 c8bd
00000060: 70db 9f3e b1e6 103e 7925 3d3e a771 20bf
00000070: 5e32 08be e14a a7be 94a6 96bd b3d9 973d
00000080: 5f58 33be 096d afbe 6e1a b83d 786a 03bd
00000090: e6b9 183e 6f07 963e 2cc4 383e e4b6 163d
000000a0: 65c4 13be 02a2 1ebe eef3 3abe a42f b7be
000000b0: 395c 90be f5d7 1a3d 013d 9e3d 109c b13e
000000c0: 9a3b 023c f06b b83e d9e7 1c3e d18c 003e
000000d0: 0b58 cd3d 23ed 153b 53a4 543e 4057 9abe
000000e0: cd5e ae3d f787 a43e e0ef ce3e 7fab ddbd
000000f0: 5a6b 40bc 5423 48bd d103 dd3e e30c bfbe
00000100: 9c08 08bd 1400 91be f8d1 d4be 493e 0d3e
00000110: 8532 35be c4f1 433d 218e 4a3e 0015 4e3d
00000120: 7180 80be fcb8 dc3d f0dc 83be 9c2a c13d
00000130: e6a5 90be 7325 83be c927 f73d 8624 b2bd
00000140: a2d7 883d 844f 33bd a07d 993d cd90 01be
00000150: d17a ad3d 9eaa 90bc d56f 2dbe e8a0 ea3d
00000160: 17cb 503e ec87 413d b1d1 adbe f9ce 403e
00000170: 5417 eabe d264 373e 7b29 0b3e 098d b13e
00000180: a15e aa3e 7251 dabc 4cc8 ef3d 09d7 18bf
00000190: a4db dabc 513d 353e 134b b0be 72bf 23be
000001a0: a0b1 0d3f e0a2 fbbe 390a 7dbd 36c1 c9bd
000001b0: 8f69 bfbc 4d75 1c3d c3e9 f1be fd83 033e
000001c0: a5b8 13be 5be3 053d 314c c83e bb32 1f3f
000001d0: 6286 ef3e 4f6d 8abd 95d1 f33d 458b 38be
000001e0: c4ed 5f3e f3c8 c6bc d8c8 b33e 32e8 033e
000001f0: bb43 0a3d 1619 d23d 920d 293e 95dd aabd
00000200: 2a5d 3c3e b6e0 84be 02dc 65bd 5212 b3bd
00000210: 8ba3 2dbe 99d0 463d 3a82 2a3d 44da dbbd
00000220: b5ab ea3e da2f ab3e a6bb dabe f9a7 1dbe
00000230: b0fb 8cbd 69da d23d ae34 a8bd bf67 d0be
00000240: 7404 833d 4d1f e73d 19bb a03c 8ae6 1abe
00000250: f59f bb3d 5ce4 883e 78a2 313f e953 dfbd
00000260: 3b57 6dbe 5209 263e f208 92bd 1733 88bc
00000270: d1db 11be 0a61 a63d c4f4 b9be 14ee a13d
00000280: 9303 943e 5050 2d3e 5c0b 333e 0229 d3be
00000290: 13ba 4fbe 825c a83e b7fd 483e d5d1 e53e
000002a0: 74b0 fd3d c11d b7bd 224f f63e f85f aebd
000002b0: ad50 4c3e ca81 b03e 02c6 3ebe 8d59 e33d
000002c0: 498e 903e e53f 093d 28db e03d 2024 933e
000002d0: 0ae5 dc3e 2b39 413c b926 423f 408f 3ebe
000002e0: e2e9 b43d 5579 033f 9e31 8bbd ecc1 31be
000002f0: d839 a23d 14d0 1d3e 5095 0a3e 3487 b23d
00000300: 9d80 8b3e 00c9 c9bd 85f7 be3d 4db9 d4bc
00000310: db5a 56be 3f4d cabd 1ccc 8c3e a73c 413e
00000320: 7985 143f 5c6a 0d3e f6ee 15be e048 1ebe
00000330: 7de9 90be 4408 d2bd ba92 75be 75e9 bfbe
00000340: 872d c9bd 1208 573e ba80 b73d 5c04 4b3d
00000350: a172 b5be 4507 c53e 8018 f5bd 04c9 46bd
00000360: 6698 e63d 417e 053d 3264 a13e fc5c 42be
00000370: 9fab c13d 7b82 36be b38d c53e dadc e63d
00000380: 5675 b7bd 6fce 5bbe a870 543e f925 0bbf
00000390: 0fee b1be 53d3 383e c5ad 0cbe 453d c1bd
000003a0: 2379 92be 4a0e 4c3e ce46 bcbe b512 5c3e
000003b0: bc72 0abc 10f7 233d 9a1e c53a 5cca b3be
000003c0: b4b2 f63d 0d95 0ebe 5a0f af3d 5c74 113f
000003d0: 1a52 c53e d882 bd3e 808c bd3d 6f1d a1be
000003e0: 10e5 6bbe c3ec 0d3f 74e7 f83d a1e9 0d3f
000003f0: 7c93 b73d 24a4 0bbe d07e f03d c345 adbe

conv3.bias f4 [12]
-0.037296627 -0.0039363806 -0.0045593134 -0.12400848 -0.03781425 0.002712269 0.062009133 -0.03159238
-0.027118713 -0.0071878415 0.0037438227 -0.07735614
00000000: 59c4 18bd c1fc 80bb 4b66 95bb 28f8 fdbd
00000010: 1de3 1abd 53c0 313b 4afd 7d3d 0367 01bd
00000020: 1028 debc fc87 ebbb ec5a 753b e56c 9ebd

conv4.weight f4 [16, 12, 3, 3]
0.07854587 -0.23130542 -0.09454155 0.07166049 -0.16584031 0.11289968 0.2574821 -0.065618284
0.0008078821 0.4090989 0.08692718 0.03589216 0.07867545 -0.17662579 -0.2619171 0.15978812
-0.013077282 -0.1270337 -0.11382079 -0.26127988 0.12494872 0.33952788 -0.17270467 -0.10961237
0.15680352 -0.077683814 -0.09842143 0.08079014 0.06427326 0.046852008 0.19722787 -0.10510084
0.27356872 0.04917407 0.040274244 -0.066069335 0.08731047 0.014181536 0.03912874 -0.09184212
0.11090808 0.022303496 0.08777246 -0.14373192 -0.107806645 -0.039360605 0.11634775 0.14606655
0.11948613 0.032589268 0.17873874 -0.04903673 0.028911892 -0.1879497 -0.14583774 -0.10620619
0.013189523 -0.22589754 0.37957308 0.30371585 0.008119533 0.11477151 0.051549446 0.018427078
0.06511975 -0.237017 0.1352759 -0.076828256 -0.36389306 0.08257501 0.16160569 -0.1144467
0.040268462 0.00021753494 0.072946556 0.04336995 -0.0014622392 -0.06281425 -0.015967974 -0.022494
0.07978385 0.059413295 -0.08257536 0.07059578 0.026813045 -0.031960674 -0.054996017 0.018357098
-0.1413833 -0.13644184 -0.27876216 -0.17411308 0.11328734 -0.17645428 0.28117132 0.25260916
-0.20411378 -0.07812294 -0.1035722 0.3589901 -0.22994879 -0.14966866 0.24341336 -0.029094659
-0.042904057 0.10301426 -0.011337938 0.004635259 0.27548802 -0.15763855 -0.30834752 0.16711484
-0.1357136 -0.009958771 0.17905283 -0.10117636 0.15021065 -0.06824118 -0.09689186 0.1193307
-0.21794589 -0.098687805 -0.02064811 -0.32934198 0.003436855 0.12880616 0.032247752 0.030990656
0.025636418 -0.05477294 -0.1368148 -0.37226284 -0.086975835 0.011211047 0.073243454 -0.32752076
-0.03648489 0.07057711 -0.02406235 -0.07212114 -0.19468202 -0.01670826 0.07936203 0.20612475
-0.14851108 0.2499562 -0.004528224 0.22871828 -0.20948991 -0.0752234 0.007971018 -0.14852726
-0.1567947 -0.17871533 -0.12512687 0.017585391 0.16097914 -0.2527025 0.12299196 -0.0311903
-0.061102558 -0.14989302 0.076841116 -0.06288625 -0.06401805 0.31926933 0.17500475 0.17921779
-0.021526575 -0.17036496 -0.09218737 0.0843159 -0.0047849566 0.05483295 0.11231233 0.14378345
0.07318017 -0.026415287 0.0008119533 0.16038963 -0.07178735 -0.010591888 -0.2926953 -0.049183294
0.0034845106 0.023126135 0.037043005 -0.029003551 -0.101962365 0.12858377 0.07280591 -0.13968182
-0.031705845 0.12566103 0.04284993 -0.06994971 -0.0851428 -0.005356894 -0.27558377 0.2258854
0.08702 0.10563471 0.2246448 -0.06496896 0.21765888 -0.13478433 -0.024283327 0.08781526
0.057425816 -0.069445826 0.079592295 0.22992304 0.15582386 0.06491399 -0.07737752 0.03289615
0.004210633 0.10964662 0.1435856 0.21445465 -0.0026132376 -0.085289866 -0.19387968 -0.37281683
-0.29009587 0.012679836 -0.08851307 0.056697156 -0.037218474 -0.13246168 -0.11204713 0.04075416
0.01702521 -0.06576154 0.14246254 0.015835445 0.066451676 -0.24587777 -0.42945725 -0.0039247586
-0.068371944 0.115803614 0.13708171 -0.020095589 -0.027630353 -0.23569272 0.16338727 -0.039502855
0.12007589 0.13891195 0.18325843 0.24541077 0.054233767 -0.018698163 0.08963787 -0.2458424
00000000: a8dc a03d 54db 6cbe 009f c1bd bcc2 923d
00000010: 0bd2 29be f337 e73d b2d4 833e e162 86bd
00000020: 0dc8 533a 6975 d13e e106 b23d a803 133d
00000030: 9820 a13d 64dd 34be 001a 86be 7f9f 233e
00000040: 1942 56bc 1f15 02be e01a e9bd 7ac6 85be
00000050: 1de5 ff3d 99d6 ad3e 7ed9 30be 737c e0bd
00000060: 1a91 203e b118 9fbd 2d91 c9bd 4d75 a53d
00000070: b3a1 833d e4e7 3f3d 1af6 493e 1c3f d7bd
00000080: 3311 8c3e c06a 493d 9bf6 243d 5c4f 87bd
00000090: d5cf b23d ac59 683c 7545 203d b917 bcbd
000000a0: c723 e33d d2b5 b63c 0cc2 b33d 762e 13be
000000b0: bbc9 dcbd 9638 21bd bb47 ee3d 7892 153e
000000c0: 25b5 f43d 537c 053d 4a07 373e bdda 48bd
000000d0: a2d8 ec3c e375 40be 7d56 15be a282 d9bd
000000e0: de18 583c af51 67be 6757 c23e a580 9b3e
000000f0: ca07 053c 530d eb3d 8325 533d 62f4 963c
00000100: 815d 853d 96b4 72be c485 0a3e 2258 9dbd
00000110: 3150 babe 161d a93d f67b 253e 0863 eabd
00000120: 8bf0 243d 171a 6439 0165 953d b0a4 313d
00000130: 9ba8 bfba c2a4 80bd 45cf 82bc 5645 b8bc
00000140: b765 a33d 5b5b 733d 451d a9bd 8594 903d
00000150: 08a7 db3c 32e9 02bd 8143 61bd a061 963c
00000160: c9c6 10be 69b7 0bbe eab9 8ebe b34a 32be
00000170: 3103 e83d 6eb0 34be b0f5 8f3e fd55 813e
00000180: 3403 51be ecfe 9fbd a91d d4bd 8dcd b73e
00000190: b277 6bbe be42 19be 5a41 793e ec57 eebc
000001a0: 2abc 2fbd 24f9 d23d c2c2 39bc 5fe3 973b
000001b0: c40c 8d3e 006c 21be badf 9dbe 2720 2b3e
000001c0: 82f8 0abe 1d2a 23bc a059 373e 8d35 cfbd
000001d0: d2d0 193e 08c2 8bbd 3d6f c6bd a763 f43d
000001e0: 352d 5fbe d51c cabd 3a26 a9bc 839f a8be
000001f0: dc3c 613b c3e5 033e 3816 043d 1ee0 fd3c
00000200: 7703 d23c 9759 60bd 2e19 0cbe 3c99 bebe
00000210: 6320 b2bd 8aae 373c aa00 963d cdb0 a7be
00000220: 2e71 15bd bb8a 903d 681e c5bc 40b4 93bd
00000230: b95a 47be c3df 88bc 8f88 a23d 5e12 533e
00000240: 4a13 18be 85f4 7f3e 7f61 94bb 2035 6a3e
00000250: 8684 56be ba0e 9abd df98 023c 8817 18be
00000260: ca8e 20be 2701 37be 4221 00be 3d0f 903c
00000270: b7d7 243e 3962 81be 35e3 fb3d cd82 ffbc
00000280: ad46 7abd 8e7d 19be e05e 9d3d 82ca 80bd
00000290: e51b 83bd 4577 a33e 7234 333e de84 373e
000002a0: 8058 b0bc 2774 2ebe bbcc bcbd d1ad ac3d
000002b0: 20cb 9cbb 8498 603d 0204 e63d f83b 133e
000002c0: 7cdf 953d df64 d8bc 43d9 543a 2e3d 243e
000002d0: 3f05 93bd 9989 2dbc 29dc 95be 6c74 49bd
000002e0: 635c 643b 0573 bd3c 68ba 173d db98 edbc
000002f0: a5d1 d0bd 77ab 033e 441b 953d c008 0fbe
00000300: fddd 01bd 49ad 003e 6883 2f3d cb41 8fbd
00000310: 595f aebd e288 afbb 5119 8dbe 814e 673e
00000320: 8b37 b23d 0357 d83d 4909 663e 720e 85bd
00000330: f8e1 5e3e e704 0abe d4ed c6bc 7dd8 b33d
00000340: 5537 6b3d 9d39 8ebd 4901 a33d f270 6b3e
00000350: 4a90 1f3e a0f1 843d 1b78 9ebd 1dbe 063d
00000360: 5af9 893b 688e e03d 1b08 133e 009a 5b3e
00000370: da42 2bbb 74ac aebd 6588 46be d9e1 bebe
00000380: 7287 94be 16bf 4f3c 5746 b5bd 473b 683d
00000390: 6672 18bd 09a4 07be f778 e5bd d6ed 263d
000003a0: 7478 8b3c fcad 86bd b3e1 113e 56b9 813c
000003b0: d117 883d 62c7 7bbe d2e1 dbbe 439b 80bb
000003c0: 9706 8cbd 722a ed3d 265f 0c3e 819f a4bc
000003d0: 0d59 e2bc 6f59 71be fe4e 273e bfcd 21bd
000003e0: 59ea f53d ef3e 0e3e 19a8 3b3e f64c 7b3e
000003f0: 3a24 5e3d e42c 99bc 0f94 b73d 1cbe 7bbe

conv4.bias f4 [16]
0.06739646 0.10843845 0.0282478 0.010614793 0.031027963 0.005590363 0.06930421 -0.04411577
0.03606349 0.08110505 -0.065460555 -0.022183148 -0.03407024 0.013586704 0.025491126 0.08274037
00000000: 2807 8a3d fa14 de3d ee67 e73c abe9 2d3c
00000010: 5b2e fe3c 5d2f b73b 5eef 8d3d bdb2 34bd
00000020: 4fb7 133d 681a a63d 2f10 86bd 6fb9 b5bc
00000030: 3c8d 0bbd c49a 5e3c c4d2 d03c c873 a93d

bn1.weight f4 [3]
0.5976996 1.0734321 0.82237023
00000000: d702 193f 3966 893f db86 523f

bn1.bias f4 [3]
0.6286161 -0.10581976 0.6479101
00000000: fcec 203f 08b8 d8bd 70dd 253f

bn1.running_mean f4 [3]
-0.7571852 0.6574464 1.1281415
00000000: e4d6 41bf 684e 283f f166 903f

bn1.running_var f4 [3]
1.4337344 1.3427925 3.4366717
00000000: 9c84 b73f a0e0 ab3f 6ef2 5b40

bn2.weight f4 [4]
1.1444845 1.2389516 0.7939828 1.2752641
00000000: 787e 923f f795 9e3f 7542 4b3f db3b a33f

bn2.bias f4 [4]
0.64446986 -0.3421033 0.45384482 0.32798746
00000000: fafb 243f 2a28 afbe 595e e83e f9ed a73e

bn2.running_mean f4 [4]
-0.6933916 -0.17863709 -1.9802592 0.073341124
00000000: 1d82 31bf a4ec 36be 2279 fdbf df33 963d

bn2.running_var f4 [4]
4.870091 0.7924375 4.935301 3.589791
00000000: c9d7 9b40 2fdd 4a3f fced 9d40 23bf 6540

bn3.weight f4 [12]
0.92894804 0.9730192 0.73265815 0.97840697 0.9165044 0.9583407 1.2972114 0.91522664
1.4199508 0.98471 1.2831498 0.9478243
00000000: 8acf 6d3f c917 793f 7c8f 3b3f e178 7a3f
00000010: 08a0 6a3f d155 753f 060b a63f 4b4c 6a3f
00000020: f3c0 b53f f415 7c3f 413e a43f 9da4 723f

bn3.bias f4 [12]
0.19776626 0.27999434 0.03028047 0.11618312 -0.06254068 -0.21868974 0.17820142 0.4725881
-0.28977948 -0.11757766 0.12170761 0.1917168
00000000: 3d83 4a3e 6b5b 8f3e c00e f83c 6af1 ed3d
00000010: 5415 80bd 34f0 5fbe 6f7a 363e 11f7 f13e
00000020: fa5d 94be 8ecc f0bd d741 f93d 6951 443e

bn3.running_mean f4 [12]
-0.588542 -0.27565214 -0.9213009 0.3922988 1.6666397 0.9281883 1.473723 -1.6546386
-0.19974688 0.4964387 1.0281905 -0.21304592
00000000: b0aa 16bf 4722 8dbe 60da 6bbf 63db c83e
00000010: 7354 d53f c09d 6d3f f5a2 bc3f 33cb d3bf
00000020: 728a 4cbe 372d fe3e bf9b 833f b628 5abe

bn3.running_var f4 [12]
1.6274766 0.7488889 0.29759482 1.3625718 1.4674318 3.5510526 0.42486516 1.9241052
0.15690957 1.9496069 1.0300092 3.164844
00000000: 2751 d03f 2fb7 3f3f 595e 983e c168 ae3f
00000010: ced4 bb3f 7244 6340 ed87 d93e 1449 f63f
00000020: e7ac 203e b88c f93f 57d7 833f ce8c 4a40

bn4.weight f4 [16]
0.84646684 1.0419195 0.9719721 0.7258949 0.8853082 0.91872036 0.8052587 1.6079886
1.0664173 1.056401 1.1478598 1.1966889 0.9258037 0.80430585 1.071482 1.1265844
00000000: 0db2 583f 9e5d 853f 2ad3 783f 40d4 393f
00000010: 8fa3 623f 4231 6b3f 6f25 4e3f 92d2 cd3f
00000020: 5d80 883f 2638 873f 12ed 923f 1a2d 993f
00000030: 7901 6d3f fde6 4d3f 5226 893f eb33 903f

bn4.bias f4 [16]
0.5113633 0.25545076 0.064413026 -0.008219307 0.3522618 -0.1949109 0.09727539 -0.0034345642
0.32873872 -0.17141826 0.3319613 0.73178965 0.018046739 -0.08408182 -0.025209839 0.93449634
00000000: b5e8 023f 71ca 823e faea 833d 46aa 06bc
00000010: a95b b43e b996 47be 5238 c73d 6d16 61bb
00000020: 7150 a83e 4588 2fbe d5f6 a93e 9156 3b3f
00000030: c1d6 933c 1733 acbd dd84 cebc 273b 6f3f

bn4.running_mean f4 [16]
0.22575115 0.3834535 -0.73913497 -1.1976256 0.654181 0.26126504 -0.86055005 1.0833162
-0.8210664 0.23051676 2.201045 -2.301008 -0.9693796 0.12685426 -0.51546824 0.502329
00000000: 4f2b 673e 0454 c43e f337 3dbf cc4b 99bf
00000010: 6878 273f 88c4 853e 024d 5cbf 1baa 8a3f
00000020: 6831 52bf 960c 6c3e ecdd 0c40 b743 13c0
00000030: 4329 78bf 15e6 013e baf5 03bf a298 003f

bn4.running_var f4 [16]
1.9823972 0.98556155 9.004985 0.8366563 1.2498866 0.43099976 2.4133108 1.7706786
1.9261404 1.0247949 13.947459 1.3299271 10.74951 1.5244236 3.5385969 5.528779
00000000: 31bf fd3f c34d 7c3f 6b14 1041 1b2f 563f
00000010: 49fc 9f3f 00ac dc3e af73 1a40 99a5 e23f
00000020: c58b f63f 7b2c 833f cb28 5f41 0d3b aa3f
00000030: fefd 2b41 5020 c33f 5f78 6240 c2eb b040

fc5.weight f4 [3, 16]
-0.40920338 -0.51623017 0.6897106 0.1216425 0.523044 0.3389286 0.65173125 -0.10445783
0.114343345 -0.7925371 0.15940264 -0.040510487 0.35719424 -0.1072749 0.13003281 -0.20158967
-0.075891584 -0.28658184 -0.7761229 0.42159224 0.05553569 -0.13108571 0.19709136 0.49377352
-0.18803026 -0.078585945 0.85024846 0.05106474 -0.6559623 0.31768122 -0.53589034 -0.13212898
-0.5432978 0.20153418 -0.20636767 0.049138375 -0.4915148 0.5126543 0.5742542 0.56641805
0.3675172 -0.08098081 0.042891737 -0.09400849 -0.23877095 0.3974418 -0.28918996 0.14206928
00000000: 1b83 d1be a927 04bf e090 303f b41f f93d
00000010: 36e6 053f 0d88 ad3e dcd7 263f fded d5bd
00000020: d82c ea3d b6e3 4abf 723a 233e 53ee 25bd
00000030: 2ae2 b63e f1b2 dbbd 5227 053e 866d 4ebe
00000040: 0c6d 9bbd dbba 92be feaf 46bf f0da d73e
00000050: 6479 633d 553b 06be 51d2 493e e2cf fc3e
00000060: 018b 40be abf1 a0bd e2a9 593f 4329 513d
00000070: 25ed 27bf 1da7 a23e 1c30 09bf d24c 07be
00000080: 9115 0bbf fa5e 4e3e 0c52 53be 5245 493d
00000090: d4a7 fbbe 503d 033f 5302 133f c600 113f
000000a0: 372b bc3e 44d9 a5bd 3faf 2f3d 8687 c0bd
000000b0: 5f80 74be 7e7d cb3e b510 94be 9c7a 113e

fc5.bias f4 [3]
-0.069789544 0.16142318 -0.14112619
00000000: d2ed 8ebd 1e4c 253e 6283 10be

fc6.weight f4 [3, 16]
-0.2324271 -0.44202685 0.4273809 0.6009391 -0.5101993 0.074324064 0.50926536 -0.022913266
-0.7349588 0.47941205 -0.2615434 -0.53593963 0.088896625 0.3642238 0.6164354 -0.8052104
-0.32140192 0.2993674 -0.52071816 0.065927275 -0.63524973 -0.061881058 -0.3778545 -0.09856174
-0.70484257 -0.11289791 0.11922618 -0.80686116 -0.42898434 0.28285396 0.025517406 -1.113603
-0.079999745 0.030794697 -0.37969503 0.46104398 -0.4677054 0.17751563 0.20139723 0.0069626877
-0.8733152 0.04057799 0.042983547 -0.6366944 -0.45618126 0.3991725 0.818033 -0.85927325
00000000: 5f01 6ebe 5851 e2be abd1 da3e 25d7 193f
00000010: 6c9c 02bf 3737 983d 375f 023f 9ab4 bbbc
00000020: 4326 3cbf 7f75 f53e 04e9 85be 5733 09bf
00000030: 6f0f b63d 8b7b ba3e b6ce 1d3f 4522 4ebf
00000040: cb8e a4be af46 993e c94d 05bf e104 873d
00000050: ba9f 22bf fe76 7dbd 2576 c1be bdda c9bd
00000060: 9070 34bf 0537 e7bd db2c f43d 748e 4ebf
00000070: d6a3 dbbe 3cd2 903e e109 d13c 8b8a 8ebf
00000080: e8d6 a3bd 2945 fc3c 6367 c2be f50d ec3e
00000090: 1577 efbe a8c6 353e 133b 4e3e 4227 e43b
000000a0: 9691 5fbf 1b35 263d 840f 303d 67fe 22bf
000000b0: 9790 e9be 5760 cc3e 9c6a 513f 55f9 5bbf

fc6.bias f4 [3]
-0.4483769 -0.51391816 -0.30684602
00000000: a891 e5be 2490 03bf ec1a 9dbe

fc_decode.weight f4 [16, 3]
0.57764345 0.50149244 -0.22089909 -0.33233246 0.8457953 -1.2253836 -0.2512182 0.753622
-0.42674592 1.4213573 0.94469255 1.0574732 0.5766429 -0.42715937 -0.22849171 -0.3601851
-0.3149988 0.5765321 -0.41519555 1.128421 0.22353685 1.3755025 -0.00030370045 -2.1628804
0.96394664 -0.09785707 -0.42075583 0.28850663 -0.98161924 0.10662222 -0.36770353 0.934101
-0.15328209 0.38019308 -0.9141201 -0.6165159 0.019317381 0.65707904 -0.16856195 -0.72606546
-0.38787514 0.76384974 0.5076371 0.21116683 1.2169951 -1.8032657 1.1912614 0.11943735
00000000: 71e0 133f cf61 003f 5f33 62be 7b27 aabe
00000010: 0a86 583f 5fd9 9cbf ac9f 80be 5fed 403f
00000020: 717e dabe 09ef b53f 5fd7 713f 485b 873f
00000030: de9e 133f a2b4 dabe bbf9 69be 2e6a b8be
00000040: 8647 a1be 9c97 133f 8394 d4be 1970 903f
00000050: d8e6 643e 7710 b03f fc39 9fb9 a26c 0ac0
00000060: 35c5 763f 4a69 c8bd 4f6d d7be 24b7 933e
00000070: 664b 7bbf c05c da3d a343 bcbe 3e21 6f3f
00000080: fbf5 1cbe aba8 c23e c603 6abf fcd3 1dbf
00000090: 7c3f 9e3c 5536 283f 819b 2cbe 6ddf 39bf
000000a0: 9297 c6be a88b 433f 81f4 013f 1e3c 583e
000000b0: 7fc6 9b3f 69d1 e6bf 417b 983f 929b f43d

fc_decode.bias f4 [16]
0.37764502 -0.26755705 0.10320175 -0.055321615 -0.34112278 0.50317454 -0.94632214 -0.25666884
0.01666567 -0.21256503 -0.45768896 -0.30676198 -0.8407512 -0.35403588 -0.76899123 0.038856894
00000000: b05a c13e 3dfd 88be 705b d33d eb98 62bd
00000010: a5a7 aebe 0cd0 003f 2b42 72bf 196a 83be
00000020: 7186 883c a6aa 59be 3556 eabe e80f 9dbe
00000030: 783b 57bf 3144 b5be 9cdc 44bf 6828 1f3d

deconv1.weight f4 [16, 12, 3, 3]
-0.10382195 0.02617585 0.042703394 -0.16301842 -0.1543603 0.0912879 -0.01496138 -0.03614349
0.013584211 0.048530787 -0.024956772 0.09087534 -0.15064128 0.061132457 0.06743912 -0.14588688
0.004374902 0.05376267 0.02930294 -0.14335908 -0.084171146 0.08037921 -0.05983159 -0.216908
-0.028954552 0.014948988 -0.013045193 0.15000036 0.030642211 -0.104048245 0.04476703 -0.15729743
0.022795757 -0.027567584 -0.025557147 -0.12763685 -0.055729784 0.12941065 -0.07136167 -0.4166565
0.0055216346 -0.05662409 0.065229915 0.03022127 -0.052058283 -0.12855949 0.16268983 0.108236216
-0.1882961 0.07871103 0.1436744 -0.13278247 -0.06570454 0.096491 0.11038996 0.10580203
0.021777214 -0.043395355 -0.09920771 -0.14341135 0.0065049524 -0.06557623 -0.10981448 0.0389455
0.12339768 0.15774792 -0.04969235 0.062455326 -0.21518312 -0.05513732 -0.062936574 0.037006278
0.07684933 -0.052915983 -0.12438577 0.026215944 -0.1406061 -0.1202328 -0.0019104847 0.079434
0.030005125 0.20330052 0.056186937 0.16407545 -0.070107535 0.1301794 0.1450628 -0.18149887
0.033405647 0.089528754 0.11436876 -0.025742276 -0.04767943 -0.45385894 0.01607264 0.02648311
-0.06948715 -0.14791963 0.1634058 0.112786785 0.13706371 0.10117377 -0.31408358 -0.093483694
-0.19706194 0.041250877 -0.07907504 -0.036149215 -0.043898523 -0.00071634253 -0.013165169 -0.15432557
-0.029423317 -0.02509342 -0.08709393 0.011714512 0.010238608 -0.026394457 0.12384669 -0.020308504
-0.019653056 0.05871507 -0.07865435 0.0041520665 -0.009070446 0.0657415 -0.10869451 0.067883804
-0.048782334 0.040802363 0.010447242 0.0007553398 0.033084027 0.041417073 0.04775986 -0.10046956
0.105625786 -0.07622133 0.00040172198 -0.011554524 -0.08251026 -0.0730581 0.024016237 -0.020906473
0.107490815 -0.06468746 -0.13107154 0.05808162 -0.029466918 -0.019199997 -0.0040583014 -0.009157858
0.006102929 0.099259704 0.13007168 0.022391269 -0.1365225 -0.03190927 -0.100224376 -0.09396459
0.02972772 0.062110256 -0.0959569 0.032431357 0.11844397 -0.03404948 -0.018510442 -0.0065256027
-0.0975283 -0.101693325 -0.03948701 -0.033749145 0.044612706 -0.046339616 0.013384826 -0.043084264
-0.041838747 -0.06775726 0.09304702 -0.004354728 -0.12012014 -0.06284002 0.019570475 -0.071363896
0.09223151 0.07624213 -0.06674038 -0.0888429 0.027480442 0.004689848 0.0570188 -0.0046598115
0.10367459 0.014856086 0.08507134 0.0012900368 0.029210905 -0.040143743 -0.0921723 0.14253713
-0.10338468 -0.12790163 -0.014815277 0.069032274 0.04629859 0.02845418 -0.052884974 -0.081109956
-0.10297562 0.03937435 -0.056724224 0.048997905 0.097427756 -0.0045822454 -0.006466498 -0.0416963
-0.094854675 0.0044671153 -0.01803172 0.01726002 0.038449943 0.12046673 -0.0200197 0.014074625
0.12767993 0.008221761 -0.02665823 0.08803206 -0.047739334 0.07204293 -0.019045603 -0.16003907
0.009602238 0.04183842 0.0068704532 -0.055922177 -0.017163692 -0.12157601 0.04595194 0.050081804
-0.103248596 -0.15380694 -0.061901826 -0.08430312 -0.03708889 -0.00959453 -0.117660336 0.03937899
-0.07102833 -0.19254863 0.007178377 -0.054436523 -0.01574507 0.036406435 -0.032140106 -0.13404281
00000000: 9aa0 d4bd bc6e d63c c1e9 2e3d 4dee 26be
00000010: a010 1ebe 27f5 ba3d 9320 75bc 320b 14bd
00000020: 4f90 5e3c 38c8 463d 2572 ccbc da1c ba3d
00000030: b541 1abe 0766 7a3d 851d 8a3d 5f63 15be
00000040: 575b 8f3b 3f36 5c3d b80c f03c b9cc 12be
00000050: ec61 acbd db9d a43d f811 75bd 211d 5ebe
00000060: 1932 edbc 9aec 743c 81bb 55bc b299 193e
00000070: 6005 fb3c 3f17 d5bd a25d 373d 9412 21be
00000080: 2bbe ba3c 6ad5 e1bc 395d d1bc 3cb3 02be
00000090: ea44 64bd 3a84 043e 1126 92bd 0054 d5be
000000a0: d4ee b43b a9ee 67bd 4397 853d 9992 f73c
000000b0: 113b 55bd 19a5 03be 2a98 263e f3aa dd3d
000000c0: b1d0 40be 4033 a13d 621f 133e 21f8 07be
000000d0: 1a90 86bd 139d c53d 2214 e23d bcae d83d
000000e0: 2166 b23c 54bf 31bd 692d cbbd 6dda 12be
000000f0: 7f27 d53b d54c 86bd 6ae6 e0bd 5185 1f3d
00000100: ecb7 fc3d ac88 213e 358a 4bbd 28d1 7f3d
00000110: f758 5cbe acd7 61bd e4e4 80bd e593 173d
00000120: 2e63 9d3d 6ebe 58bd f7bd febd d2c2 d63c
00000130: 0cfb 0fbe 9d3c f6bd 3b69 faba 4bae a23d
00000140: 4fcd f53c 032e 503e 4624 663d 6503 283e
00000150: 8a94 8fbd c04d 053e 588b 143e d7da 39be
00000160: 5cd4 083d da5a b73d 2b3a ea3d 77e1 d2bc
00000170: 824b 43bd 3360 e8be c5aa 833c 1bf3 d83c
00000180: 474f 8ebd 3e78 17be da53 273e c2fc e63d
00000190: 6e5a 0c3e 3234 cf3d 90cf a0be 6174 bfbd
000001a0: 9bca 49be aef6 283d 18f2 a1bd 3311 14bd
000001b0: f0ce 33bd efc8 3bba b9b2 57bc 8607 1ebe
000001c0: 2b09 f1bc b790 cdbc 4d5e b2bd 39ee 3f3c
000001d0: d6bf 273c 3039 d8bc 55a3 fd3d 055e a6bc
000001e0: 72ff a0bc 377f 703d 8815 a1bd 0f0e 883b
000001f0: 359c 14bc 7ba3 863d 3a9b debd aa06 8b3d
00000200: fccf 47bd 6120 273d e92a 2b3c ff01 463a
00000210: 1e83 073d f3a4 293d d89f 433d fcc2 cdbd
00000220: 5552 d83d ee19 9cbd 369e d239 304f 3dbc
00000230: 24fb a8bd 7c9f 95bd b3bd c43c 0d44 abbc
00000240: 2524 dc3d dc7a 84bd 9e37 06be fee6 6d3d
00000250: 9b64 f1bc 5049 9dbc 80fb 84bb d70a 16bc
00000260: 14fb c73b ac48 cb3d 8331 053e e56d b73c
00000270: 8ecc 0bbe 4bb3 02bd 7042 cdbd 8270 c0bd
00000280: 8c87 f33c 5367 7e3d 0d85 c4bd bed6 043d
00000290: c192 f23d 7877 0bbd 36a3 97bc b9d4 d5bb
000002a0: ebbc c7bd 9744 d0bd 22bd 21bd 8b3c 0abd
000002b0: d0bb 363d 9cce 3dbd 074c 5b3c 2079 30bd
000002c0: 1b5f 2bbd 51c4 8abd 708f be3d 1bb2 8ebb
000002d0: 8c01 f6bd 45b2 80bd 4352 a03c 3c27 92bd
000002e0: e0e3 bc3d d524 9c3d 2eaf 88bd 44f3 b5bd
000002f0: aa1e e13c 4cad 993b 8c8c 693d 55b1 98bb
00000300: 5853 d43d f166 733c e239 ae3d 7416 a93a
00000310: b54b ef3c c46d 24bd d5c4 bcbd 41f5 113e
00000320: 59bb d3bd a5f8 02be c7bb 72bc cb60 8d3d
00000330: 97a3 3d3d be18 e93c ea9d 58bd fa1c a6bd
00000340: e2e4 d2bd 0047 213d a957 68bd 07b2 483d
00000350: 3488 c73d a926 96bb ebe4 d3bb bdc9 2abd
00000360: 2b43 c2bd e160 923b 42b7 93bc e364 8d3c
00000370: b07d 1d3d 43b7 f63d 5b00 a4bc 4299 663c
00000380: 87be 023e 91b4 063c 5c62 dabc 274a b43d
00000390: 528a 43bd 3e8b 933d 8605 9cbc 48e1 23be
000003a0: b552 1d3c c35e 2b3d 8a21 e13b a70e 65bd
000003b0: df9a 8cbc d8fc f8bd 1a38 3c3d 9422 4d3d
000003c0: 0074 d3bd 917f 1dbe c58c 7dbd 1da7 acbd
000003d0: 85ea 17bd 6032 1dbc e7f7 f0bd dd4b 213d
000003e0: 4d77 91bd 782b 45be 9738 eb3b d5f8 5ebd
000003f0: cefb 80bc ea1e 153d 58a5 03bd 8542 09be

deconv1.bias f4 [12]
0.034315497 0.0051160287 0.00677431 0.020736316 -0.3884059 0.105775654 -0.10253059 0.1385399
0.0027051363 0.1017079 -0.015778571 0.0047575817
00000000: 688e 0c3d 5ca4 a73b 08fb dd3b 35df a93c
00000010: 23dd c6be e8a0 d83d 8ffb d1bd 67dd 0d3e
00000020: a848 313b 3b4c d03d 1042 81bc 7de5 9b3b

deconv2.weight f4 [12, 4, 3, 3]
0.092028864 0.23780772 0.021174533 0.047944706 0.09338016 0.040329568 0.07173613 0.009492569
0.18379508 0.0527293 0.04929638 0.07273814 0.08983292 0.16862138 0.15243599 -0.17619365
0.14524254 0.09556168 -0.07786017 0.09489945 0.19633484 0.0030030573 0.06841391 0.06804133
0.2055097 -0.0048298254 -0.009975052 0.030822821 0.18720576 0.13848038 -0.09295584 0.15651754
0.03918595 0.11752812 0.23469977 -0.059338395 0.009468867 0.20122252 -0.013140112 0.039318394
0.07203548 0.07148288 -0.006821006 -0.057562303 0.18094204 0.014964263 -0.030329507 -0.15788649
0.02198369 -0.2983875 0.06417914 0.09169253 0.0768174 0.24708936 -0.07915985 0.10964716
0.048176005 -0.0766551 0.019560432 0.045149315 -0.45860314 -0.05817072 -0.07028279 0.0067808554
-0.24399297 0.09321988 0.004912892 -0.21955432 0.04072656 0.055583127 -0.029859172 0.15967098
-0.013481258 0.015124679 -0.022403087 -0.12872745 -0.048634563 -0.042786498 -0.09242091 -0.084100455
-0.31307563 -0.05669899 -0.026569583 0.03758429 -0.21240903 0.004978099 0.052118562 -0.42296177
-0.053802744 -0.017811866 0.06945744 0.08710627 -0.07966662 -0.044956822 -0.0714071 -0.039172594
0.12172401 0.080290295 0.04226962 -0.13814235 -0.104957715 -0.042597797 -0.034085758 0.033062205
0.06113746 -0.07851402 -0.021925908 -0.011366815 -0.12243486 0.07066149 -0.2561893 -0.03040819
-0.02133587 -0.04118328 0.08767443 0.06390711 0.024851173 0.05182699 0.036778282 0.0035420097
0.08879001 0.0036385953 -0.022990454 0.24075316 0.099701904 -0.019203564 -0.09592395 -0.007826643
0.21329518 -0.051333737 0.08527249 0.06941764 -0.28598705 -0.25674105 -0.028207773 -0.018371072
0.068867795 0.056718323 -0.2856208 -0.07985278 -0.16915998 -0.0143556725 0.108281136 -0.1594401
-0.07280852 0.035835147 -0.101143084 -0.03019782 -0.05393158 -0.024045112 -0.041610345 -0.0015105616
-0.19884212 -0.18602374 0.043172553 -0.4027113 -0.077486955 -0.09420381 -0.19554977 0.3782951
0.10797665 0.097440064 -0.04713454 0.0412863 0.086238705 -0.11454662 0.00044555747 -0.1134678
-0.25163966 0.0076088575 -0.0034660993 -0.30442268 -0.19755468 -0.12486828 -0.04814924 -0.0786598
0.04109647 0.02976638 -0.12580138 0.006529385 -0.056038667 -0.032746788 0.011240203 0.09921921
-0.005426858 -0.052393857 -0.017331263 -0.035130996 0.11540305 -0.001554031 -0.118593335 -0.39499304
-0.012228915 -0.02148702 -0.17563409 0.18516828 0.00455136 -0.056714937 0.053716242 0.034975108
-0.22421889 -0.00109837 -0.023160774 -0.27988935 -0.22558062 -0.25033534 -0.093589686 -0.16399528
0.03604372 -0.2671916 -0.030796086 0.016955122 -0.015957896 0.049311616 -0.075178266 0.0023192842
0.22413978 0.03612383 0.09394155 0.07126051 -0.027460298 0.04931709 -0.02849867 -0.05259737
0.2242126 0.09663989 0.0039078547 -0.025855087 0.026404573 -0.014376535 0.10882735 0.056125924
0.0054500196 -0.062972784 0.18402407 0.10230961 -0.18316008 0.026999425 -0.040281493 -0.05423828
0.071193285 -0.11490411 -0.054285996 0.14635688 -0.011108459 -0.016563471 0.17298636 0.10219544
0.113358155 0.10778187 -0.15167663 0.03476768 -0.14907764 -0.049403887 -0.087882616 -0.2252426
00000000: a179 bc3d de83 733e 3776 ad3c ab61 443d
00000010: 193e bf3d 9e30 253d 64ea 923d b886 1b3c
00000020: c734 3c3e aefa 573d 00eb 493d bcf7 943d
00000030: 52fa b73d 15ab 2c3e 2e18 1c3e 1c6c 34be
00000040: 76ba 143e d8b5 c33d 2775 9fbd a55a c23d
00000050: 000c 493e f1ce 443b 981c 8c3d 4159 8b3d
00000060: 2371 523e 8343 9ebb 676e 23bc 2480 fc3c
00000070: deb2 3f3e cdcd 0d3e a25f bebd 2246 203e
00000080: 7281 203d 95b2 f03d 2355 703e d10c 73bd
00000090: 4f23 1b3c 470d 4e3e a049 57bc 530c 213d
000000a0: 5687 933d 9e65 923d bf82 dfbb 73c6 6bbd
000000b0: df48 393e ab2c 753c 9675 f8bc ffac 21be
000000c0: 2417 b43c 3fc6 98be 5a70 833d 4bc9 bb3d
000000d0: 7152 9d3d fe04 7d3e 8f1e a2bd b18e e03d
000000e0: 3454 453d 59fd 9cbd 333d a03c 7dee 383d
000000f0: 08ce eabe 6c44 6ebd 6cf0 8fbd f031 de3b
00000100: 4bd9 79be 10ea be3d 53fc a03b d9d2 60be
00000110: e5d0 263d 22ab 633d 399b f4bc ca80 233e
00000120: 7fe0 5cbc 80cd 773c ae86 b7bc 21d1 03be
00000130: 0935 47bd e540 2fbd 2d47 bdbd dc3c acbd
00000140: 734b a0be 333d 68bd 74a8 d9bc fcf1 193d
00000150: c181 59be 521f a33b 467a 553d 728e d8be
00000160: 4460 5cbd 31ea 91bc b43f 8e3d c664 b23d
00000170: 4128 a3bd a524 38bd e33d 92bd 7173 20bd
00000180: 704a f93d 3d6f a43d e922 2d3d 3075 0dbe
00000190: 12f4 d6bd 077b 2ebd 829d 0bbd 3c6c 073d
000001a0: 466b 7a3d f5cb a0bd f69d b3bc e13b 3abc
000001b0: 21bf fabd f9b6 903d 3e2b 83be 991a f9bc
000001c0: 90c8 aebc cdaf 28bd a78e b33d bbe1 823d
000001d0: b094 cb3c 8a48 543d d3a4 163d 1021 683b
000001e0: 89d7 b53d 8075 6e3b 7a56 bcbc ff87 763e
000001f0: 8330 cc3d cb50 9dbc c773 c4bd 523b 00bc
00000200: 0d6a 5a3e 5343 52bd 58a3 ae3d d62a 8e3d
00000210: e56c 92be 9073 83be fd13 e7bc ee7e 96bc
00000220: 8f0a 8d3d 7951 683d e43c 92be db89 a3bd
00000230: 4638 2dbe 0e34 6bbc 80c2 dd3d 4444 23be
00000240: a21c 95bd e0c7 123d 1b24 cfbd 6b61 f7bc
00000250: 5ce7 5cbd 41fa c4bc 9c6f 2abd 09fe c5ba
00000260: 459d 4bbe 027d 3ebe b4d5 303d 2d30 cebe
00000270: 7bb1 9ebd eded c0bd 333e 48be e5af c13e
00000280: dd22 dd3d a88e c73d 2610 41bd d31b 293d
00000290: eb9d b03d 6b97 eabd b699 e939 ce61 e8bd
000002a0: ead6 80be b953 f93b 7f27 63bb 4add 9bbe
000002b0: c64b 4abe f1ba ffbd 2338 45bd 6418 a1bd
000002c0: c654 283d a0d8 f33c 14d2 00be 74f4 d53b
000002d0: cd88 65bd 7f21 06bd d428 383c 7133 cb3d
000002e0: c9d3 b1bb f19a 56bd 4bfa 8dbc 85e5 0fbd
000002f0: 6f58 ec3d a1b0 cbba 10e1 f2bd 873c cabe
00000300: c95b 48bc 8c05 b0bc 6cd9 33be c19c 3d3e
00000310: 9323 953b ec4d 68bd 9005 5c3d 0f42 0f3d
00000320: a399 65be 2ef7 8fba aabb bdbc a84d 8fbe
00000330: 9bfe 66be f42b 80be f3ab bfbd 61ee 27be
00000340: 94a2 133d 56cd 88be 1348 fcbc 78e5 8a3c
00000350: 22ba 82bc fafa 493d 10f7 99bd 22ff 173b
00000360: e684 653e 95f6 133d 6d64 c03d 08f1 913d
00000370: 6bf4 e0bc b800 4a3d 0b76 e9bc 5770 57bd
00000380: fd97 653e 22eb c53d 760d 803b 0cce d3bc
00000390: 674e d83c 8f8b 6bbc e0e0 de3d 4ce4 653d
000003a0: 1496 b23b e0f7 80bd ce70 3c3e b387 d13d
000003b0: 518e 3bbe e62d dd3c 35fe 24bd f528 5ebd
000003c0: c9cd 913d d952 ebbd fe5a 5ebd 94de 153e
000003d0: 4100 36bc 1eb0 87bc 5623 313e d84b d13d
000003e0: 5228 e83d bebc dc3d 1e51 1bbe 8e68 0e3d
000003f0: cfa7 18be bb5b 4abd cdfb b3bd ffa5 66be

deconv2.bias f4 [4]
-0.33105394 -0.08208867 -0.8512949 0.22280395
00000000: e77f a9be 1b1e a8bd 76ee 59bf b826 643e

deconv3.weight f4 [4, 3, 3, 3]
0.056111712 0.008927401 0.040836718 0.11279023 -0.028404 -0.15783808 0.041577473 0.0037348266
-0.2895412 0.18451267 -0.20065503 0.11523517 0.0019854768 -0.24966215 0.09408614 -0.16153644
0.09039108 0.06772556 -0.03839592 -0.20270029 -0.06395692 -0.0043413886 -0.049600575 -0.12756641
-0.100582965 -0.21113704 -0.16850999 -0.05780725 -0.007441902 -0.23724142 -0.15389565 -0.021098385
-0.11371601 -0.056827188 -0.07106203 -0.030047445 -0.2773679 -0.029111516 -0.0801339 -0.07669101
-0.031258523 0.03993241 0.043179557 -0.037521522 -0.040060822 -0.17174251 -0.06283251 0.013931565
-0.13130616 -0.04673111 -0.06200789 -0.2625052 -0.16917743 0.03086566 -0.07140868 0.0017368231
-0.057634685 0.09581404 0.0487514 -0.084520295 0.33240843 0.025077429 0.063935205 0.039449416
-0.012982159 -0.045321014 0.16190952 -0.041967463 -0.101218715 0.018466422 0.0037845306 -0.20462458
0.104755 -0.032820027 0.006424457 0.054595113 0.063400045 -0.12638079 0.30134934 0.09452976
0.028430758 -0.074336566 0.1316852 0.23344834 -0.030559605 0.098843716 0.28365034 0.032919124
-0.06074788 0.16565748 0.2699559 -0.029329153 0.13709179 0.12992714 0.050274555 0.03149297
0.05569025 0.034826715 -0.014262604 0.11713901 0.13939539 0.046477713 0.020979349 0.1160825
0.07888627 0.11977445 0.16661462 0.16386564
00000000: 65d5 653d 3c44 123c 6744 273d 90fe e63d
00000010: 81af e8bc 4ea0 21be 244d 2a3d fec3 743b
00000020: bf3e 94be e4f0 3c3e 8378 4dbe 6b00 ec3d
00000030: c61e 023b 6fa7 7fbe 3cb0 c03d cf69 25be
00000040: f51e b93d b3b3 8a3d 0a45 1dbd aa90 4fbe
00000050: d8fb 82bd 3542 8ebb f929 4bbd c5a0 02be
00000060: 71fe cdbd 4f34 58be e28d 2cbe 4cc7 6cbd
00000070: 33db f3bb 6aef 72be d296 1dbe 85d6 acbc
00000080: f0e3 e8bd a0c3 68bd f888 91bd 0f26 f6bc
00000090: 2a03 8ebe 467b eebc 3e1d a4bd 2d10 9dbd
000000a0: f008 00bd 2b90 233d 0cdd 303d 2bb0 19bd
000000b0: d116 24bd 45dd 2fbe 55ae 80bd 3841 643c
000000c0: 1f75 06be 1f69 3fbd fcfb 7dbd 1567 86be
000000d0: d93c 2dbe fbd9 fc3c b73e 92bd 1da6 e33a
000000e0: 5912 6cbd 273a c43d 8caf 473d fa18 adbd
000000f0: 7031 aa3e 2e6f cd3c 76f0 823d b695 213d
00000100: 1fb3 54bc 87a2 39bd 9ccb 253e 13e6 2bbd
00000110: c24b cfbd e546 973c e305 783b 1b89 51be
00000120: ca89 d63d 4b6e 06bd 4084 d23b 209f 5f3d
00000130: e2d7 813d f769 01be 764a 9a3e d298 c13d
00000140: 9fe7 e83c c53d 98bd 7cd8 063e 150d 6f3e
00000150: 2358 fabc 936e ca3d 9e3a 913e 34d6 063d
00000160: c5d2 78bd 1da2 293e a937 8a3e b143 f0bc
00000170: ca61 0c3e 9f0b 053e b1ec 4d3d c6fe 003d
00000180: 761b 643d 75a6 0e3d b2ad 69bc 94e6 ef3d
00000190: aabd 0e3e 6a5f 3e3d e2dc ab3c a9bc ed3d
000001a0: 208f a13d 4f4c f53d 069d 2a3e 65cc 273e

deconv3.bias f4 [3]
-0.022794373 -0.38255957 0.12201136
00000000: 44bb babc d9de c3be 18e1 f93d

deconv4.weight f4 [3, 1, 5, 5]
0.0018386098 -0.009043462 -0.12995665 -0.1692685 -0.29167867 0.005681083 -0.16573045 -0.12418876
-0.1551287 -0.12545572 -0.14528029 -0.11991429 -0.17206419 0.0242626 -0.26010093 0.03792204
-0.13883568 -0.15159257 -0.20730956 -0.08705353 -0.034136064 -0.22336185 -0.11221056 -0.09822016
-0.11066934 -0.17817116 -0.229214 -0.17031285 -0.11589959 -0.074875854 -0.13656856 -0.17855406
-0.117253296 -0.022870151 0.019702455 -0.1119899 -0.07096554 0.046048637 0.08267724 0.050708808
-0.057557177 -0.045881964 0.04966422 0.13150182 0.09198329 -0.06482509 0.025578571 0.09704477
0.14359619 0.09308515 -0.061051656 -0.03774975 -0.10160874 -0.11064307 -0.033330098 -0.094550416
-0.08238726 -0.15358765 -0.16055459 -0.06901787 -0.11527002 -0.10132309 -0.1546097 -0.11670176
-0.08828228 -0.1899599 -0.118506335 -0.21995726 -0.12298597 -0.14549705 -0.17353263 -0.11480601
-0.17722493 -0.124749586 -0.13922618
00000000: 82fd f03a 072b 14bc 5b13 05be b954 2dbe
00000010: e856 95be 6128 ba3b 3eb5 29be ad56 febd
00000020: 0fda 1ebe 7777 00be 5bc4 14be a095 f5bd
00000030: 9831 30be 5cc2 c63c f32b 85be 2454 1b3d
00000040: f12a 0ebe 153b 1bbe f548 54be 1f49 b2bd
00000050: 42d2 0bbd f8b8 64be a6ce e5bd a727 c9bd
00000060: 9ba6 e2bd 8072 36be 13b7 6abe 7e66 2ebe
00000070: c45c edbd 8358 99bd a1d8 0bbe e0d6 36be
00000080: 7f22 f0bd 2f5a bbbc 0b67 a13c f65a e5bd
00000090: 6256 91bd 7f9d 3c3d af52 a93d 0ab4 4f3d
000000a0: 13c1 6bbd baee 3bbd b66c 4b3d 6aa8 063e
000000b0: bc61 bc3d 04c3 84bd 278a d13c 69bf c63d
000000c0: e10a 133e 6da3 be3d 4d11 7abd 7b9f 1abd
000000d0: 3e18 d0bd d598 e2bd 2485 08bd a6a3 c1bd
000000e0: a7ba a8bd 1546 1dbe 6c68 24be 3e59 8dbd
000000f0: b012 ecbd 7b82 cfbd 0152 1ebe 5501 efbd
00000100: 57cd b4bd d984 42be 73b3 f2bd 7a3c 61be
00000110: 11e0 fbbd 2efd 14be 8ab2 31be 6a1f ebbd
00000120: 747a 35be b67c ffbd 4f91 0ebe

bn5.weight f4 [12]
1.3104998 1.3107036 1.5569615 1.1692257 1.5999719 1.3137931 1.386239 1.2533786
1.3411885 1.2452589 1.2596335 1.2134885
00000000: 75be a73f 23c5 a73f 844a c73f 30a9 953f
00000010: e1cb cc3f 5f2a a83f 4870 b13f b66e a03f
00000020: 11ac ab3f a564 9f3f ac3b a13f 9753 9b3f

bn5.bias f4 [12]
0.20706113 -0.039743394 -0.07795808 0.11875056 -0.2726438 -0.20614703 0.4625971 0.092608124
0.0008545481 -0.37750667 0.25007048 0.21965873
00000000: d507 543e f8c9 22bd 7ca8 9fbd 7e33 f33d
00000010: f897 8bbe 3518 53be 87d9 ec3e 54a9 bd3d
00000020: c103 603a 8e48 c1be 3d09 803e 38ee 603e

bn5.running_mean f4 [12]
0.021781275 0.012250525 -0.086084545 0.07779821 -0.36466295 0.020820789 -0.14763975 0.2342486
-0.061312515 0.048059992 -0.05394647 -0.0054980246
00000000: a56e b23c 6db6 483c 184d b0bd ab54 9f3d
00000010: 1ab5 babe 5c90 aa3c e02e 17be ddde 6f3e
00000020: d522 7bbd 8eda 443d f9f6 5cbd c628 b4bb

bn5.running_var f4 [12]
0.37597448 0.36128724 0.26805967 0.42709303 0.39635584 0.4627756 0.39584786 0.48722574
0.41980314 0.3688351 0.54372656 0.34757707
00000000: ba7f c03e a4fa b83e 1e3f 893e f0ab da3e
00000010: 27ef ca3e ecf0 ec3e 92ac ca3e a775 f93e
00000020: 70f0 d63e f4d7 bc3e aa31 0b3f 9ff5 b13e

bn6.weight f4 [4]
1.2093252 1.1456019 1.4130046 1.2107297
00000000: 2bcb 9a3f 15a3 923f 56dd b43f 31f9 9a3f

bn6.bias f4 [4]
-0.34947407 -0.2984386 -0.618343 -0.20205557
00000000: 44ee b2be f2cc 98be ba4b 1ebf a8e7 4ebe

bn6.running_mean f4 [4]
-0.35782954 -0.17728312 -0.9639937 0.18563475
00000000: 6f35 b7be b589 35be 4bc8 76bf 0917 3e3e

bn6.running_var f4 [4]
0.06511168 0.09958527 0.08674373 0.058323033
00000000: 4659 853d 5df3 cb3d b2a6 b13d 22e4 6e3d

bn7.weight f4 [3]
1.0951371 1.0306869 1.188348
00000000: 742d 8c3f 8ced 833f ca1b 983f

bn7.bias f4 [3]
-0.31437957 -0.045752753 -0.0008764051
00000000: 5cf6 a0be 3d67 3bbd 8dbe 65ba

bn7.running_mean f4 [3]
0.014768164 -0.34553054 0.11810075
00000000: 2bf6 713c 61e9 b0be cede f13d

bn7.running_var f4 [3]
0.06269874 0.047767825 0.048725054
00000000: 3268 803d 32a8 433d ec93 473d
